models/kfold/a17lds17b0.006g1.0d1.0h13fold0.pt (torch, 118522 bytes, 26 tensors)

weight_ih_l0 f4 [52, 4]
-0.15760764 -0.01960434 0.21179359 -0.027733566 -0.006798818 -0.25259697 0.1715476 -0.008579064
-0.14431427 -0.15355533 0.11400879 0.029029034 0.12660262 0.21752968 0.4038049 -0.16062191
0.011087005 -0.23087001 -0.03757269 -0.4461446 -0.13629326 0.13474791 -0.25847402 -0.027123867
-0.12964928 0.11552389 0.24959889 0.29312608 -0.11426109 -0.056740027 -0.31729004 0.26668686
-0.25975645 0.11015891 0.05400866 -0.037256468 0.13063647 -0.26518118 0.079128474 0.09965719
0.12181638 0.10852846 0.1739625 -0.09732547 0.0558404 0.12997845 -0.043627705 0.1045272
0.17851728 -0.20066534 -0.023195684 0.20003645 0.19684117 0.04224896 0.10783676 -0.28923896
-0.28615612 0.28965226 -0.11093617 -0.0470111 -0.22133711 0.18753086 -0.1527332 0.02046684
0.015308499 0.009861757 0.07377581 -0.014647244 -0.23781857 -0.42205513 0.017016279 -0.08946804
0.08139751 0.26660684 0.062080353 0.42500946 -0.007496514 -0.2048851 0.13894583 0.2575118
0.056624636 -0.1652708 0.081583455 -0.15524499 0.047743432 -0.21303976 -0.08011986 -0.095152244
-0.39912525 -0.08419619 -0.3303705 -0.0058931247 -0.07802156 -0.4673655 0.10430644 0.11085732
-0.09094507 -0.011730906 0.07768027 -0.22647117 -0.269514 0.083514825 0.20042804 -0.0608388
0.092436686 0.13417995 -0.27471313 0.47971448 0.1460554 -0.24247825 -0.15578522 0.049899265
0.14439231 0.054698806 0.0330184 0.3363401 -0.021543738 0.18185003 -0.0017144994 0.1512008
0.091017134 0.22612159 0.3724401 0.43084687 -0.14674442 0.008198301 -0.059077356 -0.16219924
0.42452577 0.22575338 -0.05760518 -0.07528386 -0.05767573 -0.1938977 -0.08132489 0.1775226
0.013735792 0.124891534 0.19961363 -0.20703067 -0.28959844 0.09511836 0.3134992 -0.14560989
-0.20661512 0.022795333 -0.20875171 0.17125033 -0.12160066 0.09148187 0.2758013 0.42275938
-0.28461766 -0.09207641 0.13647638 -0.09131059 -0.22806515 -0.4323225 0.18338089 0.05471653
0.0078112623 0.3364043 0.30695596 -0.19437315 0.008169175 -0.29810923 0.4407634 0.10619616
0.2625163 -0.11349117 0.10744231 0.13384907 0.056475915 0.07583654 0.04651431 -0.37972042
0.021206431 0.12057812 0.1978418 0.06095654 0.1561108 0.45883822 -0.05955192 0.076571815
0.21962889 -0.22601546 0.29065078 -0.25113538 -0.09163979 -0.10563003 0.35184556 -0.21039003
0.28406572 -0.06859082 0.27626765 -0.394583 -0.029771298 -0.013997494 -0.08846532 0.06351685
0.04871829 0.4227254 -0.14349177 -0.10380634 -0.123598956 0.13964246 -0.11191925 0.42836317
00000000: e663 21be 4899 a0bc 6be0 583e 8131 e3bc
00000010: 9ec8 debb 6454 81be 2daa 2f3e 348f 0cbc
00000020: 1fc7 13be 9c3d 1dbe 717d e93d 4cce ed3c
00000030: 1ea4 013e 1ac0 5e3e 84bf ce3e 127a 24be
00000040: 45a6 353c 3069 6cbe d2e5 19bd 116d e4be
00000050: 7690 0bbe 5bfb 093e b556 84be df32 debc
00000060: c8c2 04be ca97 ec3d da96 7f3e 9f14 963e
00000070: b801 eabd 3b68 68bd d773 a2be 2e8b 883e
00000080: ccfe 84be ff9a e13d 2f38 5d3d 3d9a 18bd
00000090: 91c5 053e d4c5 87be 1c0e a23d 1219 cc3d
000000a0: de7a f93d 2b44 de3d 3a23 323e 9352 c7bd
000000b0: e7b8 643d 1219 053e f7b2 32bd 5b12 d63d
000000c0: 3ccd 363e 377b 4dbe e004 bebc 5bd6 4c3e
000000d0: bb90 493e 3f0d 2d3d 85d9 dc3d 2117 94be
000000e0: 0e83 92be 4d4d 943e 8132 e3bd b68e 40bd
000000f0: 32a6 62be 1708 403e 1866 1cbe 13aa a73c
00000100: 80d0 7a3c 3593 213c c617 973d fefa 6fbc
00000110: b686 73be 9c17 d8be b965 8b3c 053b b7bd
00000120: bdb3 a63d b180 883e f847 7e3d d79a d93e
00000130: 51a5 f5bb 66cd 51be d147 0e3e 96d8 833e
00000140: 3cef 673d c03c 29be 3a15 a73d 8bf8 1ebe
00000150: 9e8e 433d 1827 5abe e215 a4bd 2edf c2bd
00000160: 255a ccbe 0d6f acbd 5226 a9be 1d1b c1bb
00000170: c5c9 9fbd 884a efbe 9d9e d53d 2a09 e33d
00000180: 6941 babd fc32 40bc d516 9f3d 0fe8 67be
00000190: bdfd 89be d209 ab3d 023d 4d3e 1b32 79bd
000001a0: 724f bd3d 7866 093e 33a7 8cbe 239d f53e
000001b0: 8c8f 153e 384c 78be 2986 1fbe 2c63 4c3d
000001c0: 94db 133e db0b 603d 4d3e 073d c534 ac3e
000001d0: 7e7c b0bc e536 3a3e 0eb9 e0ba 62d4 1a3e
000001e0: 3167 ba3d 6b8c 673e 78b0 be3e f697 dc3e
000001f0: 2b44 16be 2b52 063c 19fb 71bd 8f17 26be
00000200: 715b d93e e52b 673e 69f3 6bbd 6d2e 9abd
00000210: 633d 6cbd 1e8d 46be aa8d a6bd 7cc8 353e
00000220: 160c 613c 22c7 ff3d 8467 4c3e d9ff 53be
00000230: 3f46 94be 6acd c23d f882 a03e c21a 15be
00000240: ea92 53be 47bd ba3c 02c3 55be 3f5c 2f3e
00000250: c409 f9bd d95a bb3d d435 8d3e eb73 d83e
00000260: 68b9 91be 8f92 bcbd 77c0 0b3e 0c01 bbbd
00000270: e989 69be 6059 ddbe 33c8 3b3e 711e 603d
00000280: 9ef5 ff3b 2f3d ac3e 5529 9d3e c109 47be
00000290: 01d8 053c c6a1 98be beab e13e 5f7d d93d
000002a0: 8968 863e 0f6e e8bd b70a dc3d bb0f 093e
000002b0: 4a53 673d 3050 9b3d ca85 3e3d b76a c2be
000002c0: 1cb9 ad3c a9f1 f63d 0a97 4a3e 91ad 793d
000002d0: 82db 1f3e d8ec ea3e b7ec 73bd afd1 9c3d
000002e0: 65e6 603e 9970 67be 2ed0 943e d194 80be
000002f0: a4ad bbbd 8f54 d8bd 1a25 b43e 7c70 57be
00000300: 1071 913e 5879 8cbd f472 8d3e c806 cabe
00000310: f0e2 f3bc bf55 65bc 4e2d b5bd 1f15 823d
00000320: d48c 473d 776f d83e 82ef 12be 6b98 d4bd
00000330: 7321 fdbd 6ffe 0e3e eb35 e5bd 6b52 db3e

weight_hh_l0 f4 [52, 13]
0.30584347 0.022548297 -0.3048173 0.035945095 -0.24527678 0.06965314 -0.062544815 0.2179898
-0.004419251 -0.05149433 -0.15747322 -0.29901844 -0.04054946 0.002763851 0.13169785 -0.3340967
0.3454258 0.23972858 0.20821068 0.1418275 0.1719019 -0.0939003 0.14227252 0.0559967
-0.24049757 -0.06104648 -0.3453885 0.05696909 -0.3014818 -0.07009703 -0.21173942 0.051996004
-0.42561734 0.10656174 0.1692547 0.108538665 -0.15508707 0.08364686 0.050683074 -0.109717965
-0.38860503 -0.29752126 -0.16235395 0.08952977 -0.056187548 -0.13527216 -0.10031981 -0.0092988005
0.17795224 0.073554724 0.04615722 0.02654834 0.025201214 0.011979806 0.08429708 -0.1041976
0.19090393 -0.00446196 0.20819429 -0.06686312 -0.027894655 -0.17531091 -0.24577929 0.014271251
0.17647035 -0.29827976 -0.26418027 -0.008221049 -0.15030439 0.2715162 0.15165675 -0.019533029
-0.09982212 0.25942597 0.11713913 -0.13523798 0.0028341122 -0.19287115 -0.07309707 0.28972116
0.16874748 -0.15229106 -0.1835573 0.1968287 0.30648267 0.13625577 0.047451396 0.23872356
0.32227746 -0.016863283 -0.0060427994 -0.21735837 -0.08918174 0.009542171 -0.020349817 0.12322819
0.0041814563 0.0868552 -0.022040172 -0.09560436 -0.09158128 0.104016185 0.3840644 0.22604118
0.09991298 0.29334313 -0.16589208 -0.13950403 0.08782957 0.083806 0.11387134 -0.03975324
-0.13311934 -0.10217625 -0.3299238 -0.33933035 0.21403204 0.06747404 0.08929564 0.06875025
-0.1892953 0.12664881 -0.066936836 -0.1226889 0.20240462 0.052018702 0.009381504 0.03075563
-0.35456753 0.03549974 -0.11483699 -0.16549926 -0.03211295 -0.1380609 0.10401799 0.06457445
0.12819941 -0.048245627 0.11464874 0.017327301 -0.047056515 0.1364123 -0.0416446 -0.03363014
0.098199435 0.20528305 0.15147278 0.39998809 0.10250043 -0.13691631 0.28493857 -0.13790213
0.33808887 -0.18315758 0.08199503 -0.1901568 0.5612598 -0.2696507 0.27284598 -0.25727913
-0.0365673 0.03942295 0.02987999 0.25103307 -0.022570595 -0.075417474 -0.05027497 -0.1236197
0.41786742 0.002208263 -0.12754275 -0.021343779 -0.215521 -0.16568811 0.18339066 0.21141158
-0.03385262 0.15863548 -0.266994 0.25262502 0.0021077192 -0.040667426 -0.0419405 -0.12635796
-0.14956123 -0.20860018 -0.13062447 -0.33209687 0.12782194 0.28804576 -0.114676155 -0.05671847
-0.13514994 0.24662974 -0.04491299 -0.17002283 -0.12285852 0.10938991 -0.22136089 0.18865594
0.493045 0.13916692 0.018152054 0.28547293 0.019263135 0.10978918 -0.03338121 -0.24123152
0.27872488 -0.18646403 -0.020123433 0.121251665 0.2434641 0.036456548 0.16652182 0.031058652
0.12567274 -0.19623168 0.21213141 -0.3080391 -0.24991801 0.090159774 -0.42603686 -0.13659103
-0.23400678 -0.052519467 0.09175776 -0.14116049 0.07088416 0.15519227 -0.20092557 -0.017706456
0.23912065 -0.24835597 0.0011789234 0.23219714 0.08815683 0.044246465 -0.14056715 -0.27607125
-0.0155838085 -0.041361857 -0.16224046 -0.0676462 -0.123572744 0.051499415 0.102379344 0.046046194
-0.25835788 0.09371608 -0.06673017 -0.23908149 -0.13526633 0.08174024 -0.084175535 -0.171544
00000000: 8497 9c3e 35b7 b83c 0311 9cbe 2a3b 133d
00000010: d629 7bbe 4ea6 8e3d 7f17 80bd b838 5f3e
00000020: 5dcf 90bb b8eb 52bd a940 21be f218 99be
00000030: 3117 26bd ba21 353b cddb 063e b90e abbe
00000040: a7db b03e 697b 753e 2e35 553e 3a3b 113e
00000050: 0d07 303e cd4e c0bd e3af 113e cc5c 653d
00000060: ff44 76be e00b 7abd c3d6 b0be 6c58 693d
00000070: d35b 9abe 088f 8fbd 38d2 58be c3f9 543d
00000080: 84ea d9be 0b3d da3d 1b51 2d3e 8549 de3d
00000090: 25cf 1ebe 0c4f ab3d 0e99 4f3d d0b3 e0bd
000000a0: 3df7 c6be b554 98be 1d40 26be 625b b73d
000000b0: ea24 66bd c984 0abe 7974 cdbd ff59 18bc
000000c0: 1d39 363e dca3 963d 5a0f 3d3d e87b d93c
000000d0: c772 ce3c f346 443c f3a3 ac3d 8d65 d5bd
000000e0: 527c 433e a235 92bb e230 553e 88ef 88bd
000000f0: 5583 e4bc b484 33be 91ad 7bbe f7d1 693c
00000100: a5b4 343e 20b8 98be a342 87be 94b1 06bc
00000110: 65e9 19be 2c04 8b3e e84b 1b3e bb03 a0bc
00000120: 8a6f ccbd 7bd3 843e a4e6 ef3d d37b 0abe
00000130: 83bc 393b 0480 45be ebb3 95bd 5556 943e
00000140: 24cc 2c3e 30f2 1bbe 72f6 3bbe 768d 493e
00000150: 4ceb 9c3e a286 0b3e 655c 423d f373 743e
00000160: 8d01 a53e de24 8abc ad02 c6bb 3193 5ebe
00000170: eba4 b6bd c456 1c3c a9b4 a6bc 105f fc3d
00000180: 9904 893b 24e1 b13d 978d b4bc 38cc c3bd
00000190: f78e bbbd 7006 d53d 17a4 c43e 5777 673e
000001a0: 2d9f cc3d 1231 963e 9ddf 29be 25da 0ebe
000001b0: fddf b33d 7ba2 ab3d 6135 e93d 4bd4 22bd
000001c0: 7050 08be c841 d1bd c6eb a8be b5bc adbe
000001d0: 372b 5b3e d42f 8a3d a2e0 b63d eecc 8c3d
000001e0: a1d6 41be 3ab0 013e 2e16 89bd 5144 fbbd
000001f0: 2843 4f3e 9011 553d e1b4 193c 3bf3 fb3c
00000200: e089 b5be 2d68 113d a82f ebbd a378 29be
00000210: de88 03bd d65f 0dbe 6207 d53d 9c3f 843d
00000220: b546 033e 359d 45bd f5cc ea3d fcf1 8d3c
00000230: 55be 40bd aaaf 0b3e 8793 2abd c2bf 09bd
00000240: c91c c93d b835 523e ae1b 1b3e 3dcb cc3e
00000250: bfeb d13d ca33 0cbe 78e3 913e 3736 0dbe
00000260: fc19 ad3e a98d 3bbe 03ed a73d 77b8 42be
00000270: b9ae 0f3f a80f 8abe 78b2 8b3e 17ba 83be
00000280: 98c7 15bd f679 213d e1c6 f43c 6887 803e
00000290: f8e5 b8bc 7a74 9abd 20ed 4dbd 532c fdbd
000002a0: b8f2 d53e 81b8 103b 919a 02be 26d9 aebc
000002b0: 89b1 5cbe 25aa 29be c3ca 3b3e 477c 583e
000002c0: 0ba9 0abd 5771 223e 70b3 88be 1158 813e
000002d0: a921 0a3b e392 26bd cdc9 2bbd fb63 01be
000002e0: 9426 19be 499b 55be 6cc2 05be 9a08 aabe
000002f0: c1e3 023e bc7a 933e 55db eabd a051 68bd
00000300: bf64 0abe 828c 7c3e aff6 37bd 771a 2ebe
00000310: 3f9d fbbd d107 e03d 6eac 62be 062f 413e
00000320: 6570 fc3e c681 0e3e 9eb3 943c 8229 923e
00000330: b9cd 9d3c 26d9 e03d bcba 08bd 6505 77be
00000340: 07b5 8e3e 6df0 3ebe e6d9 a4bc cb52 f83d
00000350: a74e 793e 7653 153d b284 2a3e b76e fe3c
00000360: 5bb0 003e f5f0 48be fa38 593e 4db7 9dbe
00000370: 82ea 7fbe b0a5 b83d 8121 dabe 85de 0bbe
00000380: 799f 6fbe a71e 57bd 7eeb bb3d 608c 10be
00000390: b72b 913d b9ea 1e3e 6fbf 4dbe 210d 91bc
000003a0: 0bdc 743e 0751 7ebe 1b86 9a3a 16c5 6d3e
000003b0: 918b b43d c83b 353d d6f0 0fbe 3659 8dbe
000003c0: 3b53 7fbc 0d6b 29bd 5d22 26be 178a 8abd
000003d0: b513 fdbd 0df1 523d 43ac d13d ef9a 3c3d
000003e0: 7c47 84be 37ee bf3d d4a9 88bd c7d1 74be
000003f0: 4283 0abe 6d67 a73d 3964 acbd 3ba9 2fbe

bias_ih_l0 f4 [52]
-0.2588219 0.03176717 -0.24734384 0.11579862 -0.11888902 0.20413291 -0.19195344 -0.048219252
-0.24858122 -0.16235307 0.015913948 -0.13077396 -0.10189546 0.18668754 0.1849804 0.30495176
0.14239806 0.103356436 0.2717129 -0.21968289 0.11882163 0.044931747 0.05498356 -0.06587822
-0.24503674 0.09598799 0.09310605 -0.15987407 0.07728022 -0.042444717 0.16413076 0.093673
0.16771682 0.10568519 0.20353322 -0.12352828 -0.07603918 -0.2378244 -0.047279526 0.014650716
-0.17638867 -0.1373916 0.21716696 0.07284332 -0.028676104 -0.05116833 0.022703642 -0.26235422
-0.15792426 0.01777578 0.19917563 -0.12469003
00000000: 4e84 84be 4b1e 023d b447 7dbe d427 ed3d
00000010: 167c f3bd 3808 513e 718f 44be 8d81 45bd
00000020: 138c 7ebe e23f 26be f85d 823c 9ce9 05be
00000030: 91ae d0bd 052b 3f3e 816b 3d3e a322 9c3e
00000040: ccd0 113e 8aac d33d f41d 8b3e 8df4 60be
00000050: c158 f33d 5a0a 383d 7136 613d 29eb 86bd
00000060: e9ea 7abe 5a95 c43d 62ae be3d 07b6 23be
00000070: 1845 9e3d 83da 2dbd e511 283e a1d7 bf3d
00000080: f5bd 2b3e 7a71 d83d 036b 503e 65fc fcbd
00000090: 6eba 9bbd 3d88 73be 2da8 41bd 8f09 703c
000000a0: 3b9f 34be 62b0 0cbe 0461 5e3e e12e 953d
000000b0: 26ea eabc e295 51bd fdfc b93c 4b53 86be
000000c0: e6b6 21be 839e 913c b2f4 4b3e 7d5d ffbd

bias_hh_l0 f4 [52]
0.07076819 0.15413247 -0.100239486 -0.22817722 0.26907623 0.15605323 -0.17318754 0.14038336
-0.19989888 -0.17012602 0.030746076 -0.16755643 -0.105960555 0.21651272 -0.18069822 0.015825076
0.28208125 -0.0075327484 -0.15967269 -0.121625006 -0.006872556 -0.08574534 0.22405738 -0.06951072
0.07123449 0.113416635 -0.022328105 -0.061971754 -0.2577001 -0.16229354 0.21862242 -0.115265526
-0.023007365 -0.20005937 -0.011825682 0.08529334 0.09605823 -0.14091668 -0.14508654 0.17145778
-0.15162773 -0.003708329 0.2712128 0.18737777 -0.17435768 0.15607224 0.13407934 0.074258916
0.12060066 0.1629355 -0.06813106 -0.15964995
00000000: eaee 903d e7d4 1d3e 5c4a cdbd 4aa7 69be
00000010: 5cc4 893e 6bcc 1f3e 1358 31be a8c0 0f3e
00000020: 4bb2 4cbe 8435 2ebe 32df fb3c ea93 2bbe
00000030: d901 d9bd 83b5 5d3e f408 39be 97a3 813c
00000040: f46c 903e 46d5 f6bb 3d81 23be 8816 f9bd
00000050: 2e33 e1bb 419b afbd 4c6f 653e a35b 8ebd
00000060: 63e3 913d fb46 e83d 6ee9 b6bc 18d6 7dbd
00000070: 44f1 83be 4730 26be 8ede 5f3e 5510 ecbd
00000080: f179 bcbc 5ddc 4cbe 81c0 41bc 46ae ae3d
00000090: 2dba c43d 764c 10be 9191 14be a192 2f3e
000000a0: 4d44 1bbe 7007 73bb 67dc 8a3e f5df 3f3e
000000b0: d28a 32be 67d1 1f3e 184c 093e 0f15 983d
000000c0: 7bfd f63d 90d8 263e 4c88 8bbd 477b 23be

weight_ih_l0_reverse f4 [52, 4]
0.2658675 0.22471036 0.050077822 -0.057881176 -0.067269504 -0.30775887 -0.0061419457 0.017889183
-0.024809955 -0.36478102 -0.02804701 0.0828562 -0.20537573 0.4144523 -0.30421993 0.22354281
-0.18096809 0.103245296 -0.08736077 0.4897299 -0.05060904 0.2582168 -0.083708294 0.043137815
0.059461605 -0.11302251 -1.2884331e-05 0.011394561 -0.23130311 -0.35419878 -0.23684944 0.10261755
-0.10763584 -0.19379632 -0.18380208 0.05986131 0.16773361 -0.025794176 0.26231766 0.03014828
-0.1494818 0.4401772 -0.18655936 -0.15265119 -0.14175943 -0.22216067 0.1416072 -0.21431607
-0.2691364 -0.08462789 0.16359997 0.26625136 -0.14559682 -0.17665191 -0.26089513 0.12870347
0.057697427 0.11017678 -0.13298096 0.038302675 0.19820206 0.31059632 0.0913975 0.43994984
0.26594475 0.20779394 -0.07223725 -0.21149215 -0.1704915 0.033089284 -0.045787327 0.0077553275
0.30685902 -0.16088933 -0.031886082 0.1790387 0.09407674 -0.08606498 -0.2304999 -0.029032247
-0.027097521 -0.22895153 -0.23940374 0.17174065 0.3296222 -0.08706669 0.33751002 -0.038177602
-0.05682141 -0.13880439 -0.19389531 0.12741719 0.057171375 -0.055887565 0.06640351 -0.02929768
-0.061959285 -0.019305594 0.112201296 -0.24241713 0.08033299 -0.13161361 -0.2640859 -0.011722035
-0.06071395 0.29037213 -0.13062933 -0.09466226 0.13725871 -0.16317256 -0.045312442 -0.06479421
-0.3287038 -0.1738518 0.16521248 -0.23678426 -0.08796356 -0.302933 0.17287141 0.01084187
0.019878954 0.23089255 0.20309865 0.25672334 0.017633699 0.24867386 -0.24173337 0.010986336
-0.010781462 -0.15703362 0.17614411 -0.045586217 0.056006685 0.29524553 0.13302974 0.038014043
0.015504066 -0.20408347 -0.12376983 0.09814498 0.13471054 -0.34490374 0.18665053 -0.10270183
0.10231798 0.16620786 -0.13044164 0.12108213 -0.46653518 0.32076815 -0.0002851506 0.07457049
-0.20262009 -0.010041987 0.19489463 0.39153048 0.14855362 -0.08740758 0.14509545 0.062015645
0.19168924 -0.09262024 -0.0044311066 0.18740119 -0.17196493 -0.0014240186 0.08363405 0.07090813
-0.25732332 0.00536554 -0.16898446 0.22548288 -0.14031014 -0.10184407 -0.3428738 0.045588143
0.09588682 0.05740903 -0.21307056 -0.014307326 0.37596935 0.1052167 0.07906508 -0.19923216
-0.08271683 0.2189265 0.028104704 0.38037562 -0.094580226 0.108734556 -0.34005326 -0.13233644
-0.20775172 0.14061111 -0.12121944 0.15276267 0.20444457 -0.24615926 0.04433077 -0.19761018
-0.13155757 -0.2448681 0.28915533 0.12042064 -0.026547318 0.3358831 -0.0075732754 -0.03504052
00000000: c91f 883e 791a 663e 671e 4d3d d014 6dbd
00000010: 98c4 89bd 9292 9dbe 6042 c9bb 568c 923c
00000020: 3f3e cbbc 94c4 babe d8c2 e5bc 83b0 a93d
00000030: 044e 52be 1833 d43e b7c2 9bbe 68e8 643e
00000040: b34f 39be 4572 d33d 34ea b2bd e1bd fa3e
00000050: 6d4b 4fbd fe34 843e 416f abbd 47b1 303d
00000060: 038e 733d 5978 e7bd c829 58b7 41b0 3a3c
00000070: b9da 6cbe 8b59 b5be a988 72be 2629 d23d
00000080: 2e70 dcbd 8b72 46be 9d36 3cbe 2231 753d
00000090: 5cc2 2b3e 4f4e d3bc 804e 863e 87f9 f63c
000000a0: c211 19be e85e e13e 6b09 3fbe 9850 1cbe
000000b0: 6229 11be 167e 63be 7a01 113e ac75 5bbe
000000c0: 3fcc 89be 6351 adbd c086 273e 1952 883e
000000d0: 5517 15be 3de4 34be 0c94 85be d8ca 033e
000000e0: 2354 6c3d 5da4 e13d 292c 08be 44e3 1c3d
000000f0: 7bf5 4a3e 7b06 9f3e 9d2e bb3d 1b41 e13e
00000100: e929 883e efc7 543e 20f1 93bd 6691 58be
00000110: 5395 2ebe a188 073d 7e8b 3bbd 6720 fe3b
00000120: a01c 9d3e 2cc0 24be fb9a 02bd ec55 373e
00000130: 4eab c03d d642 b0bd 2a08 6cbe 09d5 edbc
00000140: 9ffb ddbc 4572 6abe 4126 75be c8dc 2f3e
00000150: 3ec4 a83e 0550 b2bd 1dce ac3e 1e60 1cbd
00000160: 91bd 68bd bd22 0ebe 7e8c 46be a779 023e
00000170: 882c 6a3d 5cea 64bd 90fe 873d b001 f0bc
00000180: 05c9 7dbd c426 9ebc cbc9 e53d 323c 78be
00000190: 9f85 a43d b8c5 06be 4436 87be c70d 40bc
000001a0: 31af 78bd a8ab 943e b2c3 05be 49de c1bd
000001b0: 8c8d 0c3e b516 27be 8a99 39bd d4b2 84bd
000001c0: dd4b a8be 3506 32be 762d 293e 9377 72be
000001d0: 3d26 b4bd 091a 9bbe 3405 313e 19a2 313c
000001e0: 30d9 a23c 196f 6c3e 18f9 4f3e 3e71 833e
000001f0: 8c74 903c 5ca4 7e3e f488 77be 0800 343c
00000200: bba4 30bc 6ccd 20be 1f5f 343e 9db8 3abd
00000210: 4467 653d 6c2a 973e f338 083e 9db4 1b3d
00000220: c404 7e3c 42fb 50be 097b fdbd 3c00 c93d
00000230: 8ff1 093e 3997 b0be 5121 3f3e 5655 d2bd
00000240: 178c d13d 6532 2a3e 7e92 05be e8f9 f73d
00000250: b3dd eebe b93b a43e 4480 95b9 6ab8 983d
00000260: a47b 4fbe 2587 24bc 7592 473e af76 c83e
00000270: 711e 183e bf02 b3bd e793 143e 1e04 7e3d
00000280: 2f4a 443e aeaf bdbd d132 91bb 19e6 3f3e
00000290: 9317 30be 23a6 baba 5448 ab3d 4838 913d
000002a0: e2bf 83be 69d1 af3b 430a 2dbe fce4 663e
000002b0: 76ad 0fbe a093 d0bd 288d afbe a2ba 3a3d
000002c0: 4f60 c43d bb25 6b3d 2b2f 5abe 4669 6abc
000002d0: 0e7f c03e da7b d73d dfec a13d 8403 4cbe
000002e0: 7167 a9bd 452e 603e d63b e63c 98c0 c23e
000002f0: 47b3 c1bd 39b0 de3d 761b aebe 3483 07be
00000300: debc 54be 5cfc 0f3e e641 f8bd d16d 1c3e
00000310: eb59 513e 2c11 7cbe 2e94 353d 535a 4abe
00000320: 07b7 06be b4be 7abe 2b0c 943e 199f f63d
00000330: c379 d9bc dff8 ab3e 3d29 f8bb a686 0fbd

weight_hh_l0_reverse f4 [52, 13]
-0.28959438 -0.18092926 -0.06292136 -0.008065824 0.090806924 -0.18217169 0.2165393 -0.50267035
0.039873697 0.34028706 -0.062217213 0.2280084 -0.05195611 0.09930983 0.16097441 -0.09116297
-0.28938654 -0.060110364 -0.20400149 0.01550035 0.091283895 0.05020949 0.23126847 -0.14820533
0.2334315 0.06925071 -0.34467548 0.06805775 0.11910927 -0.14397006 -0.13866624 -0.36149034
-0.07111117 0.09298876 -0.42059284 0.020306446 0.17445527 -0.32648286 0.2925935 0.3251002
-0.019716794 -0.062078618 0.07820399 -0.40632924 -0.20118825 -0.103756055 0.19977807 0.12882946
-0.047807544 -0.08660356 0.06576688 -0.112625375 0.34262785 -0.12661971 0.16909261 -0.08931445
0.048589546 -0.04865439 -0.049497034 0.23387283 -0.05602703 0.15729298 0.03851261 0.18689144
-0.05826581 -0.07550466 0.06534221 0.08362457 0.019343412 -0.042583495 0.1851038 -0.00447916
-0.107076555 -0.020445647 -0.058475405 -0.17272682 -0.030532438 0.10369733 0.20153014 -0.017842688
0.055408064 -0.16798082 0.16831559 0.014903333 0.0049277223 0.38143903 -0.006477309 -0.22894703
0.06646095 -0.06551597 0.05346221 0.22096151 -0.034867194 -0.081300445 0.1138543 0.20894985
0.21946128 -0.096415885 -0.22591898 0.25569513 -0.19380756 0.13492198 0.26464197 -0.03500738
0.15727167 -0.0017908367 0.11685109 0.23987415 -0.23035572 -0.117900975 0.107820734 0.11474686
0.3470481 -0.18218115 0.19966467 0.11042967 -0.052658238 -0.24809168 0.003741873 0.13435727
0.066122994 -0.2047012 0.11270499 -0.016842736 0.12859191 0.066552915 -0.1506048 0.19598427
-0.035863876 0.015711997 -0.2326989 0.03642522 -0.12428748 -0.3801758 0.018143147 -0.07174217
0.15168625 -0.23243728 -0.1819512 -0.19372626 -0.047460973 -0.20297976 -0.05484349 0.15330593
-0.12785195 -0.40171245 0.11641462 0.12784763 -0.08433524 0.24449688 0.4955698 -0.15803793
0.03719193 -0.034046065 0.12175464 -0.10702147 0.28062454 -0.027379645 0.070529416 -0.08274433
0.015623192 -0.18776011 -0.17954902 -0.18474844 0.06865171 0.2861013 -0.10161348 -0.3682982
-0.19461383 0.2057226 -0.19855002 0.058719907 -0.12272356 0.100566536 0.12022164 -0.09856695
0.08575654 0.043073434 -0.1221297 -0.24003838 0.011965438 -0.042763833 0.37245673 -0.2040611
0.15516737 -0.24599983 -0.15982701 -0.11828494 0.02576993 -0.27145165 0.07231833 -0.053160474
-0.37478808 0.21545534 0.33348712 0.014764168 -0.075229295 -0.00491245 0.229271 0.045738686
-0.33327556 -0.12137462 -0.027666554 -0.027825497 0.23137598 -0.007730187 -0.05433003 -0.07968879
0.29803523 0.19560322 -0.28607428 -0.28017506 -0.094432786 0.30490607 -0.06870254 0.084580265
0.026670894 -0.106657 0.12618637 0.08384745 0.21632624 -0.07654882 -0.07745673 0.08416613
-0.37302092 -0.016527187 -0.16537641 -0.005687473 -0.29172578 0.18779632 -0.16275437 0.0874068
0.1962884 0.014880748 -0.134137 -0.22331668 -0.039178632 0.4028313 -0.26669827 -0.0824871
0.13244613 -0.11217103 -0.077295326 0.16398714 -0.22871712 -0.15957826 -0.005032118 -0.17017187
0.1261028 -0.01065976 0.29551488 -0.3362257 0.20769535 0.008775537 -0.41884464 -0.1824847
00000000: b745 94be 8545 39be eadc 80bd 8526 04bc
00000010: fbf8 b93d 378b 3abe 7abc 5d3e 01af 00bf
00000020: 9a52 233d 1b3a ae3e 7ad7 7ebd 097b 693e
00000030: eecf 54bd f462 cb3d 7ad6 243e a7b3 babd
00000040: 792a 94be 4936 76bd c4e5 50be 2ef5 7d3c
00000050: 0df3 ba3d 77a8 4d3d a4d1 6c3e 23c3 17be
00000060: ab08 6f3e 51d3 8d3d 4e79 b0be dd61 8b3d
00000070: 90ef f33d e36c 13be 86fe 0dbe 4315 b9be
00000080: bca2 91bd e470 be3d f257 d7be b459 a63c
00000090: 67a4 323e c328 a7be d1ce 953e 8973 a63e
000000a0: 1d85 a1bc 2646 7ebd 6a29 a03d 630a d0be
000000b0: 4b04 4ebe 0e7e d4bd 9f92 4c3e dfeb 033e
000000c0: d8d1 43bd 355d b1bd c9b0 863d 22a8 e6bd
000000d0: eb6c af3e 99a8 01be 9d26 2d3e 7fea b6bd
000000e0: d505 473d d349 47bd 67bd 4abd 5c7c 6f3e
000000f0: 997c 65bd 6911 213e 66bf 1d3d 7860 3f3e
00000100: 21a8 6ebd 30a2 9abd 23d2 853d 5c43 ab3d
00000110: 1376 9e3c 086c 2ebd da8b 3d3e ebc5 92bb
00000120: f44a dbbd a17d a7bc e883 6fbd 4ddf 30be
00000130: 2a1f fabc 445f d43d eb5d 4e3e d42a 92bc
00000140: 91f3 623d 2a03 2cbe ec5a 2c3e 1c2d 743c
00000150: bb78 a13b fa4b c33e 9b3f d4bb 1771 6abe
00000160: ae1c 883d 3d2d 86bd 31fb 5a3d bc43 623e
00000170: e7d0 0ebd d980 a6bd 712c e93d f3f6 553e
00000180: 75ba 603e b175 c5bd 4e57 67be 79ea 823e
00000190: 7d75 46be fd28 0a3e 277f 873e e663 0fbd
000001a0: d30b 213e 82ba eaba a04f ef3d 92a1 753e
000001b0: 5fe2 6bbe 1176 f1bd 1ed1 dc3d 6700 eb3d
000001c0: 4ab0 b13e b28d 3abe e574 4c3e f328 e23d
000001d0: 2ab0 57bd bf0b 7ebe 363a 753b f494 093e
000001e0: 7e6b 873d 319d 51be e0d1 e63d c7f9 89bc
000001f0: 99ad 033e e54c 883d 2538 1abe 1ab0 483e
00000200: 00e6 12bd 72b6 803c 9f48 6ebe 9d32 153d
00000210: 6f8a febd 67a6 c2be f0a0 943c 8fed 92bd
00000220: a453 1b3e 0a04 6ebe 6a51 3abe 2d60 46be
00000230: 7066 42bd edd9 4fbe 91a3 60bd 3bfc 1c3e
00000240: 9feb 02be 41ad cdbe ca6a ee3d 7dea 023e
00000250: f4b7 acbd 645d 7a3e 53bb fd3e b2d4 21be
00000260: 9156 183d e373 0bbd 7f5a f93d 132e dbbd
00000270: 05ae 8f3e 474b e0bc ba71 903d dc75 a9bd
00000280: 6bf8 7f3c 3044 40be b3db 37be b22e 3dbe
00000290: 4599 8c3d df7b 923e ba1a d0bd 9591 bcbe
000002a0: d948 47be f2a8 523e b250 4bbe 4984 703d
000002b0: 7d56 fbbd d4f5 cd3d c336 f63d 78dd c9bd
000002c0: 20a1 af3d c56d 303d 231f fabd 9fcc 75be
000002d0: af0a 443c 2129 2fbd a6b2 be3e 65f5 50be
000002e0: 32e4 1e3e 61e7 7bbe b1a9 23be 603f f2bd
000002f0: 761b d33c b6fb 8abe a21b 943d ccbe 59bd
00000300: 39e4 bfbe 53a0 5c3e d3be aa3e 69e5 713c
00000310: d111 9abd 9ef8 a0bb 04c6 6a3e 7d58 3b3d
00000320: 18a3 aabe 4293 f8bd f8a4 e2bc 4cf2 e3bc
00000330: d3ed 6c3e 824d fdbb 2a89 5ebd e033 a3bd
00000340: 1398 983e 364c 483e 5478 92be 1b73 8fbe
00000350: fa65 c1bd a61c 9c3e ebb3 8cbd 6b38 ad3d
00000360: eb7c da3c fc6e dabd 0037 013e 36b8 ab3d
00000370: a084 5d3e a1c5 9cbd a2a1 9ebd 4b5f ac3d
00000380: 99fc bebe 0664 87bc 6f58 29be fb5d babb
00000390: 155d 95be ae4d 403e 15a9 26be 5602 b33d
000003a0: d4ff 483e 62ce 733c 365b 09be 21ad 64be
000003b0: c679 20bd e73f ce3e ad8c 88be ffee a8bd
000003c0: f59f 073e edb9 e5bd 034d 9ebd 3fec 273e
000003d0: d234 6abe 7c68 23be 77e4 a4bb 8941 2ebe
000003e0: 1821 013e 46a6 2ebc ba4d 973e c625 acbe
000003f0: 17ae 543e 45c7 0f3c ce72 d6be 45dd 3abe

bias_ih_l0_reverse f4 [52]
0.11840135 -0.09911887 -0.18830805 0.13693596 0.048095077 0.10358715 -0.25422594 0.094150886
-0.121571295 -0.1732039 -0.24646854 0.13596945 -0.06762907 -0.11195671 -0.11150441 0.108251445
0.24772523 -0.27206525 0.10974653 0.13545251 -0.16770297 -0.06674011 0.26078475 -0.17092063
-0.07429239 -0.15863837 0.10989757 0.171798 0.041868594 0.06497668 -0.11450498 -0.14462271
-0.060327366 0.1941666 -0.07263286 0.19770746 -0.03842861 0.05338054 -0.22332613 0.11308585
0.10653506 0.102326505 -0.005704932 -0.058710568 0.2947046 -0.1720979 0.14211386 -0.2414086
0.22654045 0.00019148662 -0.14265996 -0.12860513
00000000: 687c f23d d6fe cabd d3d3 40be f138 0c3e
00000010: 58ff 443d 8025 d43d e729 82be 2ed2 c03d
00000020: 5ffa f8bd 5d5c 31be 4062 7cbe 933b 0b3e
00000030: 1c81 8abd 8f49 e5bd 6d5c e4bd efb2 dd3d
00000040: afab 7d3e 234c 8bbe cac2 e03d 10b4 0a3e
00000050: 54ba 2bbe 0aaf 88bd 9485 853e d105 2fbe
00000060: 9c26 98bd 1972 22be fa11 e13d d1eb 2f3e
00000070: 677e 2b3d 7e12 853d 9681 eabd fa17 14be
00000080: d419 77bd 9cd3 463e 89c0 94bd d373 4a3e
00000090: 5167 1dbd 8ea5 5a3d 9baf 64be 8e99 e73d
000000a0: 0e2f da3d 8f90 d13d 70f0 babb 7e7a 70bd
000000b0: 85e3 963e 6f3a 30be 4c86 113e d133 77be
000000c0: 38fa 673e ccc9 4839 7415 12be 10b1 03be

bias_hh_l0_reverse f4 [52]
0.12656984 0.14395471 0.19085926 -0.05940392 -0.09816701 -0.18111108 -0.17236942 -0.024364099
-0.19482152 -0.0819488 -0.13034031 0.22402006 -0.15743963 0.042049553 -0.16972445 0.23873554
0.07499659 0.1611792 -0.17031357 0.25343436 0.2299513 -0.090092905 0.28688213 0.10794909
0.23577759 -0.045296427 0.24757402 0.07951328 0.23518628 -0.16646823 -0.20106155 0.023549842
0.15591978 0.043745473 0.2277108 0.017598227 -0.055007603 0.16930561 -0.1840193 -0.1758652
-0.18548097 -0.25126532 -0.22484632 -0.022745013 0.18913795 -0.18661487 0.2279395 -0.15855798
-0.21265186 -0.057824686 0.18317325 0.18571515
00000000: 869b 013e dd68 133e 9c70 433e 8651 73bd
00000010: c90b c9bd 2f75 39be 9c81 30be 3897 c7bc
00000020: 4b7f 47be c6d4 a7bd ee77 05be 8465 653e
00000030: db37 21be 273c 2c3d 3fcc 2dbe 1777 743e
00000040: d097 993d 290c 253e ae66 2ebe 26c2 813e
00000050: 5b78 6b3e a182 b8bd 37e2 923e 6a14 dd3d
00000060: ae6f 713e bf88 39bd 0b84 7d3e dcd7 a23d
00000070: acd4 703e a676 2abe 14e3 4dbe 99eb c03c
00000080: 6fa9 1f3e 742e 333d 052d 693e 282a 903c
00000090: a74f 61bd 735e 2d3e 8e6f 3cbe 0216 34be
000000a0: b9ee 3dbe d9a5 80be 1d3e 66be c053 babc
000000b0: 61ad 413e f817 3fbe f968 693e 065d 22be
000000c0: 69c1 59be 94d9 6cbd c591 3b3e 1d2c 3e3e

weight f4 [16, 260]
0.13820384 -0.0970696 -0.15425298 0.21965353 -0.087763794 -0.11564691 -0.05753265 0.08084591
0.046460282 -0.013383057 0.10027612 0.09330136 0.073547654 0.2585174 0.15631638 -0.010344474
0.20870087 -0.048608623 -0.03954815 -0.021609899 -0.03062758 -0.07205256 0.09557361 0.071917705
0.13146167 0.043659613 -0.040639393 -0.053039785 0.035570506 -0.013855646 0.22111021 0.1499388
0.024434892 -0.035190947 0.15608333 -0.055603385 0.14257361 0.0076029673 -0.0690313 -0.04783715
-0.01646337 0.05083947 -0.06953689 -0.027339643 0.061862458 0.18316755 0.08811586 -0.020280356
0.07553226 -0.22652648 0.02753556 0.04385304 0.020951934 -0.11083271 0.016447915 -0.111728534
0.18688309 -0.107832015 0.16850586 0.014420046 -0.022030223 -0.023057835 0.15612964 0.0027500824
-0.1637027 0.011587404 -0.11248964 0.0482916 -0.03643422 0.053835854 -0.06984483 0.00079521275
0.058416303 0.20969482 0.005329382 -0.06279674 -0.04857893 -0.13222836 -0.08659701 0.05149846
-0.080052294 -0.08919373 -0.12293462 -0.029251976 0.052064385 -0.0704661 -0.09951809 0.11306575
-0.04080967 0.1427946 -0.024591317 0.025473831 -0.06492758 0.056712314 0.159519 0.17368501
-0.023994312 0.23806398 0.090238325 -0.020883422 0.028489621 -0.060496617 -0.026274232 -0.1077266
0.14599684 -0.103121266 0.19463007 -0.035787918 0.058550086 0.041494712 -0.11162631 0.13204053
0.044798862 0.032132998 0.050216194 0.06858324 0.030362222 -0.12038359 -0.036008142 0.019825676
0.040476106 0.00012138363 -0.08642999 0.0031066304 0.069073044 -0.030958254 0.13171148 -0.10698703
0.045209773 0.006769453 0.022447478 -0.008942498 0.08717487 -0.12398406 -0.013370532 -0.15536983
0.05362767 -0.10959166 0.102914765 -0.07716126 -0.002525196 -0.039650463 -0.026483886 -0.06951045
-0.03943027 0.089383 0.05498149 -0.093011394 -0.072720885 0.008432576 -0.13903522 -0.044725772
-0.040457368 0.022752207 0.18197575 -0.119279616 0.0830691 -0.016984036 -0.00759482 -0.09499252
0.06447661 0.06639725 -0.14891832 0.06957048 0.10195318 0.003093443 0.11029097 0.14094439
-0.0777112 -0.01159351 -0.03310371 -0.037353467 0.042906918 -0.030035881 -0.06926718 0.06806767
0.04582535 -0.041540757 -0.045384232 0.030492535 -0.07220013 0.06879425 0.004939015 0.07152649
-0.021815881 -0.1253575 0.08649477 -0.17255318 -0.014919769 0.054199286 -0.11103254 -0.16248004
0.15122624 0.10991243 -0.18421443 -0.103829324 -0.09542607 0.06738693 0.08060449 -0.07202404
0.069962665 0.12299469 0.04660923 0.022331005 0.0852254 0.005800312 -0.07827764 0.17216904
-0.12139312 -0.0831301 -0.025549447 0.043660685 -0.07937934 0.032761306 -0.045606997 -0.07807797
-0.06690102 -0.076862596 0.099676 0.045707334 -0.0002609132 0.07368759 -0.0011312615 -0.00091726624
0.11312547 0.19486494 0.078759946 0.01358542 0.032297235 0.019632613 0.12020033 -0.09059789
-0.065360345 0.02159841 -0.12131332 0.034731444 0.03899178 -0.018284045 0.043336026 0.08552039
0.13458034 -0.062991716 -0.13954961 -0.05619319 -0.068630934 -0.07263941 -0.008776993 0.105697274
-0.05296979 -0.037884027 0.13204463 -0.021142352 -0.06279591 0.10010645 -0.0016974014 -0.16619878
00000000: 4f85 0d3e 6dcc c6bd 7ef4 1dbe dbec 603e
00000010: 81bd b3bd 4ad8 ecbd 5ba7 6bbd 8a92 a53d
00000020: 234d 3e3d 9c44 5bbc 915d cd3d c914 bf3d
00000030: 27a0 963d 655c 843e 6711 203e de7b 29bc
00000040: aeb5 553e d619 47bd 3efd 21bd 3e07 b1bc
00000050: b1e6 fabc 4b90 93bd 19bc c33d 9749 933d
00000060: e39d 063e 6cd4 323d 7e75 26bd 3f40 59bd
00000070: 61b2 113d cb02 63bc b76a 623e 8f89 193e
00000080: af2b c83c 6224 10bd 4fd4 1f3e 60c0 63bd
00000090: d1fe 113e 5022 f93b 4860 8dbd e3f0 43bd
000000a0: 30de 86bc 0c3d 503d 5b69 8ebd 63f7 dfbc
000000b0: 7d63 7d3d 4690 3b3e 1776 b43d fd22 a6bc
000000c0: a8b0 9a3d 8ff6 67be 4192 e13c 3f9f 333d
000000d0: 64a3 ab3c 43fc e2bd c7bd 863c eed1 e4bd
000000e0: 485e 3f3e 08d7 dcbd cd8c 2c3e 0e42 6c3c
000000f0: ba78 b4bc c9e3 bcbc 73e0 1f3e ba3a 343b
00000100: aea1 27be 18d9 3d3c f860 e6bd 6acd 453d
00000110: 0c3c 15bd fc82 5c3d ce0a 8fbd d375 503a
00000120: ef45 6f3d 3dba 563e 19a2 ae3b 949b 80bd
00000130: b3fa 46bd df66 07be c659 b1bd 0df0 523d
00000140: 75f2 a3bd 34ab b6bd 25c5 fbbd d7a1 efbc
00000150: 7741 553d 8850 90bd 24d0 cbbd 048f e73d
00000160: 0a28 27bd bf38 123e bb73 c9bc 7fae d03c
00000170: c0f8 84bd 2c4b 683d f358 233e 7cda 313e
00000180: b88f c4bc 0bc7 733e dfce b83d b613 abbc
00000190: 1163 e93c 4dcb 77bd 0f3d d7bc c39f dcbd
000001a0: 3280 153e 3e31 d3bd 1b4d 473e 5a96 12bd
000001b0: 37d2 6f3d 5cf6 293d 569c e4bd a235 073e
000001c0: 037f 373d e49d 033d 7faf 4d3d 5f75 8c3d
000001d0: 32ba f83c ac8b f6bd 467d 13bd 7569 a23c
000001e0: 46ca 253d 578f fe38 3502 b1bd 9c98 4b3b
000001f0: 2b76 8d3d 2a9c fdbc 60df 063e 041c dbbd
00000200: e22d 393d 4ad2 dd3b c6e3 b73c 8e83 12bc
00000210: bd88 b23d 5beb fdbd 1310 5bbc 4519 1fbe
00000220: b0a8 5b3d 9871 e0bd fac4 d23d b906 9ebd
00000230: c27d 25bb 8668 22bd bcf4 d8bc 7f5b 8ebd
00000240: a381 21bd 6f0e b73d 4534 613d c27c bebd
00000250: b0ee 94bd ca28 0a3c 405f 0ebe 5f32 37bd
00000260: a0b6 25bd d662 ba3c da57 3a3e df48 f4bd
00000270: 2220 aa3d 1b22 8bbc f8dd f8bb 708b c2bd
00000280: 500c 843d 48fb 873d 0b7e 18be f87a 8e3d
00000290: d4cc d03d 5dbb 4a3b 3be0 e13d ba53 103e
000002a0: 0d27 9fbd b5f2 3dbc c197 07bd f3ff 18bd
000002b0: 2abf 2f3d cf0d f6bc f4db 8dbd 1067 8b3d
000002c0: 5db3 3b3d a426 2abd d1e4 39bd 7bcb f93c
000002d0: a9dd 93bd 00e4 8c3d 76d7 a13b 7b7c 923d
000002e0: 38b7 b2bc b75d 00be 2c24 b13d c8b1 30be
000002f0: 0c72 74bc 1200 5e3d 0765 e3bd 2b61 26be
00000300: 0ddb 1a3e c519 e13d b5a2 3cbe 78a4 d4bd
00000310: be6e c3bd 2902 8a3d f813 a53d 5781 93bd
00000320: 9648 8f3d a4e4 fb3d 52e9 3e3d 83ef b63c
00000330: a88a ae3d 8b10 be3b 0750 a0bd 154d 303e
00000340: f59c f8bd 1d40 aabd 134d d1bc 8cd5 323d
00000350: a391 a2bd b830 063d 67ce 3abd 58e7 9fbd
00000360: 6703 89bd 236a 9dbd ee22 cc3d 9d37 3b3d
00000370: 2dcb 88b9 85e9 963d d646 94ba b274 70ba
00000380: 54ae e73d ad8a 473e e54c a13d 6295 5e3c
00000390: 1b4a 043d 93d4 a03c 972b f63d 638b b9bd
000003a0: a5db 85bd 26ef b03c 1e73 f8bd 8f42 0e3d
000003b0: d8b5 1f3d 6cc8 95bc 1e81 313d 5025 af3d
000003c0: 6ecf 093e cd01 81bd 18e6 0ebe d52a 66bd
000003d0: 608e 8cbd f9c3 94bd 60cd 0fbc d077 d83d
000003e0: daf6 58bd 482c 1bbd b536 073e ba32 adbc
000003f0: 249b 80bd 9c04 cd3d 577b deba 0330 2abe

bias f4 [16]
-0.00039075981 -0.054817975 0.02102815 -0.061868433 -0.050316636 0.03476407 0.05219472 0.053807143
0.060717225 -0.002118266 0.058959298 -0.0132960165 0.059321564 -0.031633314 0.050997343 0.019812068
00000000: e5de ccb9 d088 60bd 3a43 ac3c c169 7dbd
00000010: d118 4ebd c564 0e3d 21ca 553d e164 5c3d
00000020: a0b2 783d 9bd2 0abb 4e7f 713d 89d7 59bc
00000030: 2bfb 723d ef91 01bd 97e2 503d eb4c a23c

weight f4 [17, 16]
0.16959126 -0.41243 0.1600265 0.25769022 0.056641366 -0.32755724 -0.29557204 -0.010052395
0.122431494 -0.022634396 0.253706 -0.0033681123 -0.075632624 0.5854294 -0.16142653 0.031710617
0.03170922 0.058159873 0.1811976 -0.0627396 0.3055684 -0.0021686375 -0.046878226 0.28040934
0.012691058 0.035377566 0.014737265 0.27567363 0.21539956 -0.10816255 -0.2967721 0.2787696
0.19356006 0.19831964 0.3126987 0.18819302 0.005224701 0.17991759 0.11709103 -0.07141944
-0.24438137 0.10377979 0.25835297 0.07660467 -0.50854534 -0.021110566 0.13319622 -0.23748586
0.27782202 -0.48459315 0.30142424 0.051282298 0.07428512 -0.046260074 0.01820009 0.24646643
0.15581238 -0.44331104 -0.13569087 0.22385564 -0.1263263 0.25640252 0.3138595 0.25568733
-0.17977338 0.1937479 -0.21971048 -0.21891133 -0.04627064 -0.15435329 0.03923875 0.2153605
-0.36995274 0.031257525 0.018576616 -0.14356807 -0.09946982 0.10368214 -0.08354279 -0.04230386
0.10496172 -0.3596385 0.014022041 0.13272052 0.23896256 -0.3411209 -0.13938002 -0.081955224
-0.091899365 -0.3237973 0.26258123 0.31673536 0.003516904 -0.007305029 0.3786256 0.13667826
0.23991369 0.17469583 0.03354783 0.16551505 0.13128898 -0.4890502 0.06317588 0.048654325
0.49789652 0.36354515 0.23996949 -0.20321426 0.0024424114 0.107366316 0.27383876 -0.25829402
-0.24819632 -0.05859184 -0.14814095 -0.19067697 -0.23061407 -0.120988965 -0.19961365 -0.18633237
0.010575864 -0.06360034 0.045495257 -0.16696112 -0.06273422 0.23862626 -0.04715402 0.3382036
-0.48017314 -0.105731204 -0.36306408 0.30337217 0.1671052 -0.36567125 0.2638102 0.060958203
-0.41741642 0.0862827 -0.027588302 0.06096744 0.07379652 0.2700617 -0.45785904 -0.43590158
0.23889166 0.044424523 0.36641648 0.2536547 0.41557768 -0.2690326 -0.1579295 -0.43936348
-0.18247817 -0.23494703 0.18619901 0.16998689 0.10926801 0.050787974 -0.112454206 0.1481614
0.026410634 0.15743965 0.34142658 0.006559532 -0.19276695 0.14255089 0.33998907 0.03502909
0.15130718 0.6191178 0.08139748 0.10714986 -0.3182899 0.011153228 -0.05479647 -0.153336
-0.22073534 -0.2830981 0.062397294 0.31138772 0.29085743 0.07079337 0.31692153 -0.025722552
0.28549367 0.17370239 0.5398417 0.0063666566 0.032962564 0.30519125 -0.16374457 0.13957004
-0.11809167 0.13114884 -0.122432426 -0.08440858 0.15750797 -0.23595436 0.018120952 0.465489
0.3286577 0.25587785 0.4074367 -0.3957302 0.10414356 -0.7878778 0.0019671742 0.24040145
-0.3127189 0.30185944 -0.05435095 -0.12551469 0.0349369 -0.2852974 -0.046444904 -0.32497853
-0.14369 -0.13500318 0.07142399 -0.17931929 0.26757288 0.12695765 0.019481607 0.22852063
-0.004771457 -0.017489685 0.049391046 0.4275102 0.4627395 -0.1623635 0.22238049 -0.029048545
-0.30339122 0.10772804 0.016483037 -0.19494833 0.43950188 0.38220927 -0.3589362 -0.21207748
0.041578986 0.08113473 0.322086 0.07256366 -0.19572216 -0.06371844 0.13384345 0.20788531
-0.3458557 0.12478352 0.2620523 -0.101028144 -0.029319024 -0.225305 0.091707535 -0.14872108
00000000: 55a9 2d3e 062a d3be fddd 233e f9ef 833e
00000010: c700 683d 95b5 a7be 3855 97be cdb2 24bc
00000020: 5dbd fa3d c56b b9bc c1e5 813e 8cbb 5cbb
00000030: 47e5 9abd b3de 153f ff4c 25be fee2 013d
00000040: 87e1 013d 0c39 6e3d dd8b 393e 9f7d 80bd
00000050: 7673 9c3e b31f 0ebb 6203 40bd d091 8f3e
00000060: 28ee 4f3c 11e8 103d 9274 713c 1825 8d3e
00000070: b491 5c3e 5484 ddbd 83f2 97be e4ba 8e3e
00000080: 9c34 463e 4e14 4b3e 0b1a a03e acb5 403e
00000090: f833 ab3b 513c 383e 6ccd ef3d 5b44 92bd
000000a0: 1c3f 7abe 808a d43d d746 843e e9e2 9c3d
000000b0: 0730 02bf 11f0 acbc 9764 083e 7e2f 73be
000000c0: b03e 8e3e 981c f8be 4754 9a3e 630d 523d
000000d0: cc22 983d 347b 3dbd 5b18 953c b261 7c3e
000000e0: 488d 1f3e aaf9 e2be 8cf2 0abe 6a3a 653e
000000f0: ae5b 01be 3147 833e 31b2 a03e 73e9 823e
00000100: 8316 38be d965 463e c9fb 60be 4b2a 60be
00000110: 4886 3dbd ca0e 1ebe d0b8 203d 7787 5c3e
00000120: 726a bdbe e407 003d fd2d 983c 8203 13be
00000130: d5b6 cbbd 4d57 d43d 7b18 abbd d046 2dbd
00000140: 2cf6 d63d 8a22 b8be b4bc 653c e3e7 073e
00000150: 9ab2 743e 66a7 aebe a3b9 0ebe 24d8 a7bd
00000160: bc35 bcbd c2c8 a5be 0c71 863e 232b a23e
00000170: dc7b 663b 065f efbb 37db c13e 63f5 0b3e
00000180: efab 753e 77e3 323e 7369 093d c77c 293e
00000190: 9e70 063e ca64 fabe 5b62 813d c249 473d
000001a0: 4bec fe3e 9722 ba3e 90ba 753e 6617 50be
000001b0: dd10 203b dfe2 db3d 9834 8c3e 1d3f 84be
000001c0: 2d27 7ebe fffd 6fbd 43b2 17be d340 43be
000001d0: 1826 6cbe 10c9 f7bd 8567 4cbe eacd 3ebe
000001e0: 6446 2d3c e540 82bd 3c59 3a3d dbf7 2abe
000001f0: cc7a 80bd 715a 743e 9324 41bd 0629 ad3e
00000200: 41d9 f5be 9a89 d8bd 89e3 b9be 9953 9b3e
00000210: a01d 2b3e 4339 bbbe 2112 873e 4faf 793d
00000220: 9bb7 d5be fcb4 b03d dd00 e2bc ffb8 793d
00000230: a122 973d 8745 8a3e 806c eabe 7e2e dfbe
00000240: 04a0 743e 7df6 353d f19a bb3e 07df 813e
00000250: 99c6 d43e a4be 89be 45b8 21be 40f4 e0be
00000260: 8fdb 3abe f495 70be f4aa 3e3e 0b11 2e3e
00000270: e8c7 df3d 0d07 503d 644e e6bd 9fb7 173e
00000280: 1d5b d83c dc37 213e 77cf ae3e 58f1 d63b
00000290: b364 45be dcf8 113e 0c13 ae3e aa7a 0f3d
000002a0: 45f0 1a3e 817e 1e3f b9b3 a63d 6371 db3d
000002b0: e5f6 a2be 07bc 363c 4372 60bd 1d04 1dbe
000002c0: 7208 62be 3cf2 90be 4e94 7f3d 366e 9f3e
000002d0: 44eb 943e 1dfc 903d 8a43 a23e 1ab8 d2bc
000002e0: 3a2c 923e 0adf 313e 1133 0a3f 639f d03b
000002f0: c103 073d 0742 9c3e a8ac 27be 73eb 0e3e
00000300: 0cda f1bd e24b 063e dabd fabd 68de acbd
00000310: c549 213e 059e 71be 6472 943c 9354 ee3e
00000320: d245 a83e 6c02 833e 8b9b d03e 269d cabe
00000330: 3849 d53d 5cb2 49bf b5eb 003b cc2b 763e
00000340: b11c a0be 528d 9a3e 1a9f 5ebd ec86 00be
00000350: ff19 0f3d 8012 92be 033d 3ebd 9663 a6be
00000360: 7923 13be 463e 0abe be46 923d 7a9f 37be
00000370: 50ff 883e 3001 023e e497 9f3c 5001 6a3e
00000380: e259 9cbb 8746 8fbc 444e 4a3d 9ee2 da3e
00000390: 31ec ec3e 9e42 26be b6b7 633e 37f7 edbc
000003a0: 1856 9bbe 85a0 dc3d 6f07 873c 89a0 47be
000003b0: 6406 e13e efb0 c33e 7cc6 b7be d72a 59be
000003c0: ba4e 2a3d f729 a63d 75e8 a43e 429c 943d
000003d0: 646b 48be d07e 82bd 420e 093e e3df 543e
000003e0: 0014 b1be 818e ff3d b82b 863e d8e7 cebd
000003f0: 732e f0bc 5bb6 66be 29d1 bb3d 574a 18be

bias f4 [17]
0.1782553 -0.17188989 -0.11713306 0.18521835 0.121682204 0.16721775 0.08917237 0.08330719
-0.014453461 0.091471285 -0.15830033 0.04894635 0.19877988 -0.04705083 -0.09315494 0.03282557
-0.039687034
00000000: 8f88 363e e703 30be 75e3 efbd e1a9 3d3e
00000010: 8534 f93d 213b 2b3e 01a0 b63d f69c aa3d
00000020: 36ce 6cbc 4c55 bb3d 7b19 22be f87b 483d
00000030: f48c 4b3e 5fb8 40bd 04c8 bebd 1b74 063d
00000040: df8e 22bd

weight f4 [17, 16]
-0.013437849 -0.083669625 -0.15076187 0.1246862 -0.46002936 -0.1840807 -0.07782654 -0.17792334
0.116635956 0.08193639 -0.08433283 0.10434166 -0.25899613 0.13883454 -0.023248043 -0.2111028
0.1777783 0.032685637 0.17742276 -0.19497827 -0.12985685 -0.11340344 0.2575979 -0.08586038
-0.051444136 -0.14396994 -0.18191893 0.14612612 0.09721323 0.36928517 -0.21673657 0.19778699
-0.08435591 0.3919562 0.044628736 -0.023793442 0.52158207 0.46522948 0.19412675 0.20219469
0.08174982 0.18590863 0.41809368 -0.36106983 0.095183924 0.18366313 -0.16453505 -0.4567436
0.12024909 -0.1510227 -0.23531148 -0.009320924 -0.5317883 0.13569036 -0.100703634 -0.06098655
-0.11611832 -0.23856783 0.04178253 0.26116368 0.04989259 0.032018386 0.10590971 -0.24808846
-0.09390862 0.08737757 -0.29088295 0.48961422 0.14452067 -0.0016602197 0.17993824 -0.03805479
-0.051153187 -0.005154287 -0.097322024 -0.3605205 0.15773328 0.30982402 -0.15221927 0.07413195
-0.22396539 -0.30396372 0.099765114 -0.15303135 -0.11757886 0.020889545 -0.22183752 -0.32615605
0.035656825 -0.1125295 0.25265852 0.057351433 -0.22043782 0.06851159 -0.28659725 0.0029554877
0.081973776 -0.023122618 0.06955142 -0.26659095 -0.27777356 0.2454907 0.19405128 -0.0792311
0.030202918 -0.39639357 0.047994416 0.2726135 0.4934809 -0.12327033 0.23638344 0.048990764
0.40280154 0.11337293 -0.36395442 -0.046509437 -0.026523806 -0.033382922 0.11508188 0.01174609
-0.39412427 0.10908984 0.19237572 -0.18122482 -0.26533204 0.011110605 0.007517097 -0.43542212
0.25890252 -0.11359095 0.45085344 -0.06211727 0.17109591 -0.11718076 -0.15389003 0.3587515
-0.3101537 0.26066032 -0.0805046 0.1438123 0.49158996 0.11750521 0.05726396 -0.26150814
0.17329362 0.18981217 -0.2561621 -0.05668472 -0.17866822 -0.2009437 0.2876249 0.4778149
-0.14089356 0.42151138 0.12841985 -0.054313645 0.63564277 -0.19994728 -0.3899757 0.13735604
0.16288328 0.54353225 -0.24552174 -0.35443887 -0.3983004 0.005263273 0.08990691 -0.13656703
-0.06646052 0.36496672 -0.532158 0.12166141 0.2752881 0.07501601 -0.06516752 -0.16814193
0.104868084 0.12996669 -0.15515248 -0.18776728 -0.11565238 -0.3539168 0.17981477 0.013835333
0.022044556 -0.22567564 0.0071888906 0.11416172 0.5046072 0.27630776 0.1640129 -0.30353823
-0.048548974 -0.047824573 -0.07912676 0.24111319 -0.1521161 -0.05263284 -0.24654342 0.5226964
-0.06807307 0.5601307 0.1135723 -0.38657713 -0.08135487 0.30405456 0.37520975 0.01688717
-0.037130505 0.16295718 0.013395357 0.17431606 -0.20754288 -0.45797053 0.110195145 0.4097345
-0.03136319 0.15829591 0.16186462 0.13586032 0.14251855 0.08204157 0.37554103 -0.12224613
0.007318266 0.21486126 -0.31211996 -0.012413069 0.35914007 -0.37874874 0.0538784 -0.14337997
0.027377041 -0.06711493 -0.34645513 0.21512073 0.22409971 0.0066877687 -0.057320792 -0.2730477
-0.021718014 0.23739846 0.017905775 -0.020748608 0.08978364 -0.015358611 0.31142622 -0.011577133
0.052500524 -0.040771283 -0.108462855 0.29502425 -0.176162 0.15303095 0.3356462 0.14684492
00000000: 6c2a 5cbc fb5a abbd 5261 1abe 7a5b ff3d
00000010: f888 ebbe a77f 3cbe 8563 9fbd 8931 36be
00000020: d5de ee3d 44ce a73d b1b6 acbd 15b1 d53d
00000030: 249b 84be a42a 0e3e ae72 bebc 552b 58be
00000040: 840b 363e 60e1 053d 50ae 353e 62a8 47be
00000050: 32f9 04be 1040 e8bd dfe3 833e 91d7 afbd
00000060: 16b7 52bd db6c 13be f548 3abe 16a2 153e
00000070: bb17 c73d f212 bd3e 31f0 5dbe ac88 4a3e
00000080: cbc2 acbd 7cae c83e 9fcc 363d 77ea c2bc
00000090: 6786 053f 8f32 ee3e 2ac9 463e 200c 4f3e
000000a0: 736c a73d d55e 3e3e 6010 d63e 25de b8be
000000b0: caef c23d 3012 3c3e e07b 28be 4cda e9be
000000c0: 2845 f63d b2a5 1abe 7ef5 70be cab6 18bc
000000d0: 4723 08bf 6af2 0a3e b53d cebd 08cd 79bd
000000e0: 71cf edbd 204b 74be 2824 2b3d 3fb7 853e
000000f0: 2c5c 4c3d b625 033d 31e7 d83d e70a 7ebe
00000100: 2a53 c0bd 03f3 b23d 9cee 94be b7ae fa3e
00000110: 3afd 133e bb9b d9ba bb41 383e 57df 1bbd
00000120: 0186 51bd 4be5 a8bb c550 c7bd 2596 b8be
00000130: d584 213e 41a1 9e3e 5edf 1bbe 7ed2 973d
00000140: 2f57 65be 22a1 9bbe a751 cc3d 40b4 1cbe
00000150: 2fcd f0bd 8d20 ab3c 6029 63be edfd a6be
00000160: e40c 123d de75 e6bd 755c 813e 56e9 6a3d
00000170: 74ba 61be ce4f 8c3d e0bc 92be dbb0 413b
00000180: dee1 a73d a56b bdbc fa70 8e3d 9c7e 88be
00000190: 5638 8ebe ea61 7b3e 61b5 463e ea43 a2bd
000001a0: 1c6c f73c 19f4 cabe cb95 443d ff93 8b3e
000001b0: 87a9 fc3e 2875 fcbd 800e 723e 8aaa 483d
000001c0: 013c ce3e 1130 e83d 3c58 babe ae80 3ebd
000001d0: 7448 d9bc 88bc 08bd 0cb0 eb3d ac72 403c
000001e0: a8ca c9be 7e6a df3d 24fe 443e 0093 39be
000001f0: 9ad9 87be 4109 363c fb51 f63b a6ef debe
00000200: df8e 843e 5fa2 e8bd 43d6 e63e ae6e 7ebd
00000210: c433 2f3e 77fc efbd 5995 1dbe 47ae b73e
00000220: 77cc 9ebe 4575 853e 99df a4bd 8843 133e
00000230: aeb1 fb3e 92a6 f03d 9d8d 6a3d 65e4 85be
00000240: e273 313e 1f5e 423e ae27 83be 3d2e 68bd
00000250: cdf4 36be 2fc4 4dbe 9243 933e 28a4 f43e
00000260: 6746 10be 57d0 d73e 7e80 033e fc77 5ebd
00000270: 7cb9 223f fbbe 4cbe e5aa c7be 10a7 0c3e
00000280: e0ca 263e ee24 0b3f 0d6a 7bbe 0379 b5be
00000290: 08ee cbbe 8977 ac3b 1d21 b83d 3ad8 0bbe
000002a0: 741c 88bd ebdc ba3e 823b 08bf 9e29 f93d
000002b0: 90f2 8c3e fea1 993d 8c76 85bd 662d 2cbe
000002c0: 14c5 d63d fd15 053e 4be0 1ebe 1146 40be
000002d0: 28db ecbd 9534 b5be 5d21 383e 98ad 623c
000002e0: c996 b43c 8417 67be c990 eb3b 9fcd e93d
000002f0: f02d 013f 3678 8d3e fff2 273e 5d69 9bbe
00000300: 4adb 46bd b3e3 43bd 360d a2bd 60e6 763e
00000310: 53c4 1bbe 8895 57bd e175 7cbe 6ecf 053f
00000320: e569 8bbd ba64 0f3f 9898 e83d 70ed c5be
00000330: 629d a6bd 0aad 9b3e 7e1b c03e f656 8a3c
00000340: 2816 18bd 3fde 263e 3378 5b3c e97f 323e
00000350: 1f86 54be 1d7b eabe fead e13d b8c8 d13e
00000360: b076 00bd 5318 223e d7bf 253e f81e 0b3e
00000370: 62f0 113e 6905 a83d ea46 c03e 2e5c fabd
00000380: 11ce ef3b 9704 5c3e 30ce 9fbe 2f60 4bbc
00000390: 35e1 b73e 5beb c1be 99af 5c3d 33d2 12be
000003a0: d145 e03c 8d73 89bd 9162 b1be 9c48 5c3e
000003b0: 657a 653e 1225 db3b 35c9 6abd e8cc 8bbe
000003c0: fae9 b1bc 9518 733e 22af 923c fcf8 a9bc
000003d0: 7ce0 b73d afa2 7bbc 4273 9f3e 04ae 3dbc
000003e0: ca0a 573d caff 26bd c621 debd 6b0d 973e
000003f0: d063 34be 25b4 1c3e d2d9 ab3e 845e 163e

bias f4 [17]
-0.19564272 -0.0185466 -0.07799418 0.08744968 0.032494057 0.0663364 -0.22905459 -0.14478709
-0.12773764 0.14839493 0.21930768 0.060400885 0.118017115 0.23342544 0.059397973 0.04506751
-0.07801547
00000000: 9156 48be 0aef 97bc 6abb 9fbd d118 b33d
00000010: 7d18 053d 61db 873d 498d 6abe 1143 14be
00000020: a8cd 02be d7f4 173e 3192 603e eb66 773d
00000030: f5b2 f13d 1407 6f3e 4a4b 733d b698 383d
00000040: 93c6 9fbd
