models/kfold/a17lds17b0.006g1.0d1.0h13fold1.pt (torch, 118714 bytes, 26 tensors)

weight_ih_l0 f4 [52, 4]
00000000: 4227 8f3e 44dd 893d a180 e83b 401f 08be
00000010: 0cfc ce3e 907e 283e ac90 72b8 7ae7 c2bb
00000020: 73b1 42be 5393 8c3e a3c8 783e 4380 a43c
00000030: 580f 39bd 552f 70be a4d4 213e cd28 8c3c
00000040: 76f5 533d 64aa 573e d014 e6bd be3e 9c3d
00000050: 89cf 33be 2a7e a53d 697f 25be e2f1 02be
00000060: 9540 283e 74dc 6a39 ff7f 463d 3094 983e
00000070: f8d3 803d e2f6 2c3e 99f9 f43d 663d 8f3e
00000080: 41e8 8bbe 37d0 063e 603e 853e e6e9 263e
00000090: a87c be3d b360 26bc 927e 6dbd 6912 1c3e
000000a0: b764 a63d 344c cc3e cdb5 46bd c830 f23d
000000b0: 4c00 fa3c d1f4 233e c539 afbd fe0f 953d
000000c0: 6f32 383e 54ba 8c3e 0faa 99bc 1f74 10be
000000d0: 9d4d 89bd 2b8c 4cbc e93e bc3d cc3f 31bd
000000e0: 7be5 60be 20eb 2ebd 6c34 b13d 31f0 853e
000000f0: 3e9d d5bd 0f6b 9d3d 289a 69bc 7a99 fabd
00000100: c594 27bd 6de7 033c c82c 76bd af02 353e
00000110: 8ce2 743e 2dc9 3ebc 4f14 8c3e 782b 583d
00000120: c3d3 6bbd b83b bfbd 2ae2 f8bd 7921 893e
00000130: b306 98be 2f54 2b3e 3699 823d b5ad 6e3d
00000140: 50c5 9f3e 2173 c0bd ee39 a0be c933 65bd
00000150: 78e8 833d 7786 e3bc b5a5 493e aa64 43be
00000160: ad4d 90be e240 9ebd 5c45 dc3d cf98 cf3e
00000170: 09bc 4b3e 71c8 48be bf69 4c3e b438 813d
00000180: 893b 963d af1e dc3d 4821 ba3e 4cb5 5d3d
00000190: 8490 d43d 5033 49be 47a8 5abe eaeb 353e
000001a0: dd01 81be dfe3 3fbe 80de f7bd 8f61 4bbb
000001b0: 6781 c7bd fabb f63d a4d3 79bd 6b22 bcbe
000001c0: 7949 afbe 1ea4 273e 7eda d0be c41f 9cbd
000001d0: c9a2 003d 3542 2e3e b19c 9c3d 3f62 773e
000001e0: 2bf3 1ebe 7a64 013f e3ff a83d 50c1 3b3d
000001f0: 7c73 16be e9c5 873b 7b65 6b3e ce9c 593c
00000200: ed14 11be ad06 a2be 7448 82bd 1490 283d
00000210: efb4 6d3e e972 0a3e 7d84 723d 50fb d7bd
00000220: 6c1c 80bd c647 5fbe 1474 18be 57e7 0a3f
00000230: 6c6f 0bbc 838f 0e3e d01b 763e 3c3a 90bd
00000240: cc5f a9bd 5cdb b8bd d8ff 10bd 422d 513e
00000250: 082b 193e c9eb babd c160 0d3e 29fc 93bc
00000260: 7452 53be 059d c1bc 34f2 d0bd 0cb2 b7be
00000270: 4be5 1dbe 8a5e b63b d17c 99bd 98fe 41bc
00000280: fed2 2e3e eb4a f8bd 7824 123e 1069 00be
00000290: 86ec 1a3e 7283 8d3d fe1b 553c 4c1d 013d
000002a0: b7c1 f3bd 254a a03d 355e 3e3e 61d4 83bd
000002b0: 9434 eb3d 281c 7c3e a97b f4bd b8db c53c
000002c0: 950e debd 7a09 543c a7dd 3cbe 8d11 8cbe
000002d0: ef3d e03d c355 72bd 1f82 763d 71f2 043d
000002e0: 37b2 243e d695 aa3d 682f 3b3d dd9a 683d
000002f0: ba61 263e 33c9 023e f474 a6be e8a8 02bd
00000300: 2849 45be 1b65 56be b094 79bd 9cde 403e
00000310: 9de4 593e 7320 4abe ca4d f2bd 8fad d1bd
00000320: 4d98 993d 111f d33c 6a39 9bbe 5136 13be
00000330: e830 16be 04d9 0fbe d2dc 833c fe84 2c3e
0.2795964 0.06731656 0.007095412 -0.13293171 0.40426672 0.1645453 -5.7832032e-05 -0.0059480043
-0.19013004 0.2745615 0.24295287 0.020080691 -0.04518065 -0.23455556 0.15803772 0.0171093
0.05174776 0.21061093 -0.112344384 0.076291546 -0.17559637 0.080807045 -0.16161884 -0.12787583
0.16430886 0.00022398104 0.04846191 0.29800558 0.0629043 0.16891053 0.119616695 0.2797653
-0.27325633 0.13165365 0.2602415 0.16300163 0.0930112 -0.010154891 -0.057982035 0.15241398
0.081246786 0.39901888 -0.048513222 0.118257105 0.03051772 0.16011359 -0.085559405 0.07278441
0.17987989 0.27485907 -0.018757848 -0.14106797 -0.06704257 -0.0124845905 0.09191687 -0.043273732
-0.2196254 -0.0427047 0.08652577 0.26159814 -0.10430382 0.076864354 -0.014257945 -0.122363046
-0.040913362 0.008050782 -0.0601013 0.17676805 0.23914546 -0.011644644 0.27359244 0.05277583
-0.057575 -0.09337562 -0.12152512 0.2678335 -0.2969261 0.16731332 0.06376879 0.05827113
0.31205225 -0.09396959 -0.31294197 -0.05595759 0.06440824 -0.027774079 0.19692118 -0.19081369
-0.28184262 -0.07727219 0.10755417 0.4054627 0.19895948 -0.19607712 0.19962214 0.063096434
0.07335574 0.1074804 0.36353517 0.054127976 0.10379127 -0.1964848 -0.21353255 0.17765775
-0.25196734 -0.1873927 -0.121029854 -0.0031033491 -0.097414784 0.120475724 -0.06099285 -0.3674501
-0.34235743 0.163712 -0.40791696 -0.07623246 0.031405244 0.17017443 0.07647074 0.24158572
-0.15522449 0.5054394 0.082519315 0.045838654 -0.14692491 0.004143466 0.2298793 0.013282014
-0.14168139 -0.31645718 -0.063614756 0.04115303 0.23213552 0.13520397 0.059208382 -0.10545981
-0.06255421 -0.21804723 -0.1488803 0.54259247 -0.008510452 0.13921933 0.24034047 -0.07042357
-0.08270225 -0.090262145 -0.03540024 0.2042742 0.14957821 -0.09127004 0.1380644 -0.018064575
-0.20636922 -0.023634443 -0.102024466 -0.35878026 -0.154195 0.005565469 -0.0749451 -0.011840485
0.17072675 -0.121236645 0.14271724 -0.12540078 0.15129289 0.06909837 0.013007162 0.03152208
-0.119021825 0.07826642 0.18590625 -0.064369924 0.11484638 0.24620116 -0.11937649 0.024152622
-0.10842625 0.0129417125 -0.18443929 -0.2735714 0.10949313 -0.05916382 0.060182687 0.032457773
0.16083609 0.0832936 0.045699507 0.056788314 0.16248217 0.12772064 -0.32511103 -0.031899363
-0.19266188 -0.20937006 -0.060932815 0.18834919 0.21278615 -0.19738941 -0.11831243 -0.10238182
0.07499752 0.02577165 -0.3031724 -0.14376189 -0.14667094 -0.14047629 0.016096506 0.16847607

weight_hh_l0 f4 [52, 13]
00000000: b2d6 7cbe b596 383d d60e afbd 656e cb3d
00000010: 8714 35be a33f babe a996 b2be 30d3 babe
00000020: 854a 57be d56f 2a3e fa4a 073e bc66 a9bd
00000030: ed21 7ebe 804b 89be 160c 203e fd1f 88be
00000040: 5d32 963b 7673 20be e18a 07be fd4e b0bd
00000050: 9713 55be fe3b a33e 50e2 4fbe 870b 4dbd
00000060: bcd1 32bd 8a53 0dbc d883 093e f19a 0e3e
00000070: 2abc 76bc 6410 6f3d e640 ad3d 9b24 9b3e
00000080: b382 02be 52bc 403e 570b e53d 373e 84be
00000090: 50ea ca3d a04d 863d 41af 68be 8e13 213e
000000a0: 3aa0 a93e edc7 38be cb3d 933c 06e9 dbbd
000000b0: 6e00 0fbe 75d9 973e 0fb4 dabd 5360 0bbd
000000c0: 943e 223c 2885 963d ad0d fd3d 0abe ecbd
000000d0: 9e2a acbe edba 29bd 466d 61bd 6a2d a7be
000000e0: 1f98 61be 9e74 573e 6b6b 393e c280 67bd
000000f0: 40ac 9bbd e725 253e 869c 633d 53dd d1be
00000100: e58f 3bbe eae4 5abe 5009 de3d 0903 75be
00000110: a1f8 08be b8aa 273e 359e 013e 95be bdbe
00000120: 2a0e 8d3e d31b 1dbd 4643 953e f59a c4bd
00000130: 8b1f 16be e4d7 9d3d aca6 9bbe 18b6 0bbd
00000140: fb37 1c3e e34b 6ebc 1b5d 82be 486f 833d
00000150: 8b47 46be 38e1 43be 03bf 0dbe ccbe 403e
00000160: a9c7 883e a32b 003f fd3d 04bd 2989 8abe
00000170: fb73 a53e 51b4 91bd 5302 06be dd53 25be
00000180: 7620 0e3e 304e 62bd b87e d9bd 04f2 b4bd
00000190: 26e6 2b3e 04ff 753e ab78 0f3d d122 5fbe
000001a0: 1766 6c3e 376c 523d 2628 98bc 8054 6abe
000001b0: 4e31 0d3e e07d 64bd 56ba 56be 8611 4ebd
000001c0: 0ebc 08bc f21c 7bbc a133 18bd 8fac d1be
000001d0: ebd1 82bd e63b 9cbe 41c1 79be c400 94be
000001e0: 0cba aebd c94b eebd 6df1 ce3d 8354 03bd
000001f0: fadb e1bb 809e 88bd 9e85 ccbd 0975 5a3e
00000200: 2032 2e3d 52d6 c3bc 8d11 373e e3df 2dbd
00000210: d581 ed3c 2061 95bc fd96 9fbe 04f5 933e
00000220: b42f c8be 8770 803e 5df8 133d e135 a2bd
00000230: 16bb 64be 1181 c13d a42e 0b3c 086c adbd
00000240: 439d 82be 0c0f 87bc 7a47 a73d cfc4 6ebe
00000250: 6a7a 56be 2c99 ff3d 50f8 d73d 7522 b43d
00000260: f315 c4bd 356b a4be ab57 4f3e abcc 39be
00000270: 6e6b 093c 9fb0 d0bd 4d74 9b3e b3d4 a13d
00000280: 1bc2 c03d f2db 213e 4f7e 8e3d 3d1f 8abd
00000290: 08d7 d63d 3da0 163e 7598 083d 05b9 cd3d
000002a0: 5186 243b 16e1 e0bc a10e 6ebe 06e8 bb3d
000002b0: 28c0 a43c 26a0 4b3e c15f 44bd 771c da3e
000002c0: 677d 013d ef72 a7bd c7d9 353e c499 743d
000002d0: 13f6 6e3d 8d8f 6dbc 8f61 c93e 801f 453e
000002e0: baad 3ebe b37e c4bd 9d5f c2bb f9da f6bd
000002f0: fc29 5d3d 37ed 8ebd 62b1 693e 3179 03bf
00000300: 18a0 f2be ee22 583e 199e 9ebe 57e4 84be
00000310: 4f89 a1be 4917 cdbd 783a 2d3d bc54 323e
00000320: ae69 1e3e 81c7 ae3c 80e6 28bd bd9b 91bd
00000330: 7393 7d3d 8e6a 69be c4c5 d43d c615 a03e
00000340: be28 c53c 38eb b5bd 4958 1d3e e704 6a3e
00000350: a4ec 0bbd a1bf 1f3e c477 45be 4ed5 45be
00000360: 18bd 603d 035f 24bd 1944 76be d9c0 5dbe
00000370: 212f 3f3d 028e 4cbe bdce 66be f38f 323d
00000380: 92cf 12be f5fc 7bbd 9a0b c2bd 21e8 943d
00000390: 3efe d53c f52b 21be 71ba eabd bc56 debc
000003a0: 209b b8ba 774e ea3d 1591 b83e 9f05 893b
000003b0: d785 0abe cfe8 173e 4f40 2b3e 262d 1cbe
000003c0: 97a1 cfbd 8806 02be ff45 5d3e e9a8 07bc
000003d0: 95c6 86bd 776b b7bd abfe aebe a2ef f7bc
000003e0: 80c4 74bb 03bd 293e 4cc1 e3be 5837 bebe
000003f0: 5804 433e b617 79be a68a 803d 5a9a cbbe
-0.24691275 0.0450656 -0.085477516 0.099331655 -0.17683612 -0.36376676 -0.3488057 -0.36489248
-0.2102452 0.16644223 0.13212195 -0.08271548 -0.24817629 -0.26815414 0.1562961 -0.26586905
0.0045836405 -0.15669045 -0.13236572 -0.08608816 -0.20808254 0.31881708 -0.20301175 -0.05005982
-0.04365705 -0.008625874 0.134292 0.13926293 -0.01505951 0.05836524 0.08459644 0.30301365
-0.1274517 0.18821838 0.111838035 -0.25828716 0.09907973 0.065577745 -0.22723104 0.15730116
0.33130056 -0.18045016 0.017973801 -0.10737805 -0.13965008 0.29658094 -0.10678875 -0.03402741
0.009902615 0.07349616 0.12356124 -0.115596846 -0.33626264 -0.041438032 -0.055035852 -0.32651836
-0.22030686 0.2104058 0.18107383 -0.056519277 -0.076012135 0.1612774 0.055569194 -0.4098917
-0.1831661 -0.21376386 0.1084162 -0.23926939 -0.13376094 0.16373718 0.12658007 -0.37059465
0.2754987 -0.038356613 0.29152888 -0.09599868 -0.1466047 0.077071935 -0.30400598 -0.034109205
0.1525573 -0.01454446 -0.2546166 0.064177096 -0.19363229 -0.19128883 -0.13842396 0.18822783
0.2671483 0.50066584 -0.03228568 -0.2705777 0.3231505 -0.07114471 -0.13086824 -0.16145273
0.1387957 -0.055250347 -0.10619873 -0.08835223 0.16787013 0.24023062 0.035027187 -0.21790625
0.23085819 0.051372733 -0.018573832 -0.22883797 0.1378834 -0.055784106 -0.20969519 -0.05030968
-0.008345617 -0.015326725 -0.037158612 -0.40951964 -0.06387695 -0.3051445 -0.24390127 -0.28906834
-0.085315794 -0.116355486 0.10104642 -0.03206302 -0.0068926783 -0.066708565 -0.09986423 0.21333708
0.04252827 -0.023905907 0.17877789 -0.042449843 0.028992573 -0.01823479 -0.31169882 0.2889787
-0.39098895 0.25085852 0.03612553 -0.07920433 -0.22336993 0.094484456 0.008495007 -0.08467871
-0.25510606 -0.016486667 0.0816793 -0.23317264 -0.20945135 0.12480387 0.10545409 0.08795635
-0.09574499 -0.32113042 0.20248286 -0.18144481 0.00838743 -0.10189938 0.30362168 0.07901897
0.09412023 0.15806559 0.06957685 -0.067442395 0.10490233 0.14709564 0.03334852 0.10045055
0.0025104473 -0.02745108 -0.23247768 0.09175114 0.020111158 0.1988531 -0.04794288 0.42599842
0.031613734 -0.08176219 0.17758857 0.059716955 0.058340143 -0.014499557 0.39332244 0.19250298
-0.18620959 -0.095944785 -0.005931808 -0.120534845 0.053995118 -0.06978839 0.22821572 -0.513568
-0.47387767 0.21107075 -0.30979994 -0.2595546 -0.3155007 -0.10014207 0.04229209 0.17415136
0.15470001 0.021335365 -0.041235447 -0.07109783 0.061908197 -0.22794554 0.10389283 0.31266612
0.024067279 -0.08882755 0.1536571 0.22853433 -0.034161225 0.15600444 -0.19283968 -0.1931965
0.054867834 -0.040129673 -0.24049415 -0.21655597 0.046675805 -0.19976047 -0.22539802 0.043594312
-0.14336994 -0.061520535 -0.09474869 0.072708376 0.026122209 -0.15739425 -0.11461342 -0.027140968
-0.0014084317 0.11440747 0.3604819 0.0041815783 -0.13527618 0.14834903 0.1672375 -0.15251598
-0.10138243 -0.12697804 0.21608733 -0.008280017 -0.06580845 -0.08956044 -0.3417867 -0.030265633
-0.0037348568 0.16576008 -0.4448341 -0.371516 0.19044626 -0.24325451 0.06276445 -0.39766198

bias_ih_l0 f4 [52]
00000000: 1bb3 1cbe b965 67be 773e ad3d d0c4 063d
00000010: 1d3d 61be add8 2e3e 9587 8a3d db03 10be
00000020: 6099 473e f332 56be 6064 21bd 7965 06be
00000030: b6ca cb3b 8147 4cbe 7640 353e a2de 433e
00000040: 1ca5 1f3e 6ea8 353e 2d96 963d 98fb 53be
00000050: be1f b3bd 68e8 833d 0132 fb3d 7232 263e
00000060: d84f 073e ac06 883e 6f06 013e f9d7 0c3c
00000070: c60e 25be e0fe 18be c569 41be c18b 003e
00000080: f77d 84be efea c1bc e916 60be eaa8 e73d
00000090: d8ec 97bd 3807 6aba 056d 87be 7300 af3c
000000a0: 851e 943e 446c 003c 94d2 88bb 9011 073e
000000b0: bfb4 32be 4eb6 2e3e 1509 86be 92e0 903e
000000c0: cdbd bfbd 61e5 463e 155d 7a3e a302 5fbd
-0.15302698 -0.22597398 0.0845918 0.03290254 -0.21995969 0.17074843 0.067641415 -0.1406397
0.19492102 -0.20917873 -0.039402366 -0.13124646 0.0062192334 -0.19949152 0.17700371 0.19127896
0.15590328 0.17740032 0.073528625 -0.20701444 -0.08746289 0.06440812 0.12265397 0.16230181
0.13214052 0.2656759 0.1260011 0.008596414 -0.16118917 -0.14940977 -0.18888004 0.12553312
-0.25877354 -0.023671595 -0.2188374 0.11311515 -0.07418221 -0.0008927467 -0.26450363 0.021362519
0.28929535 0.007838313 -0.0041754935 0.13190293 -0.17451762 0.17061731 -0.26178804 0.28296334
-0.093623735 0.19423439 0.2444957 -0.054445874

bias_hh_l0 f4 [52]
00000000: 435d ab3d 1c8a ffbd b592 fdbd e008 313e
00000010: fee6 ab3d a81c 91bd fcfa fabc b0e3 253d
00000020: 1fef 853e 0136 4ebd 8cab de3d b854 df3c
00000030: 8b48 723d be77 f43c 5716 a7bc 3590 4cbe
00000040: 4363 71be b43c 63be 4c94 0bbd 3f2b 50bd
00000050: 54ee 4bbd 6a6f 4f3e b686 16be c294 6a3e
00000060: b97a fbbd 24fd 89be 9a9e 11bd aabd 70be
00000070: 7d2c c23d 65f2 5a3e 9b8b 69bd 1275 67bd
00000080: 7bf8 87be b972 e2bd d1eb cb3d 048d 233e
00000090: 46a3 3cbd c43c d6bd d2d9 4dbe 0d22 3ebe
000000a0: b4a7 943e f0f5 3c3e d124 233e cfc5 253e
000000b0: 842e ac3d 9188 5fbd 1e98 cf3d b783 a73c
000000c0: 5f33 70be c140 e8bd b9f4 2dbe d025 c03d
0.08367398 -0.12477514 -0.12381498 0.17288542 0.08393668 -0.07085544 -0.030637257 0.040500343
0.26158997 -0.05034447 0.10872564 0.027262077 0.059151214 0.029842254 -0.020396395 -0.19976886
-0.23573022 -0.22191125 -0.034076974 -0.050822493 -0.049787834 0.20257345 -0.14699826 0.22908309
-0.12279267 -0.26950943 -0.035551645 -0.23509851 0.09481142 0.21381529 -0.057017904 -0.05650813
-0.26556763 -0.11057038 0.09957088 0.15971762 -0.046054147 -0.10460809 -0.20102623 -0.18567677
0.29034197 0.18453193 0.15932013 0.16188739 0.0840731 -0.0545736 0.10136436 0.020448549
-0.23457097 -0.11340476 -0.16987886 0.09382212

weight_ih_l0_reverse f4 [52, 4]
00000000: d3a9 5f3e 5dd4 d63d 8c35 99be b104 cd3d
00000010: 3501 163e d555 0f3d f933 55be 9b03 de3d
00000020: b307 823e efc4 eb3c 94d1 a23e 5c12 dbbe
00000030: bdcc 793d 204b 583e 0a5a 353c 908a f1bc
00000040: c2c7 41bd 952a f43e e8a9 5e3e a448 573e
00000050: 126a 6ebd 4cff 06be 74ac b63d bb4c a33e
00000060: 039d d73d 1907 eebd 0a99 b8bd 5b49 92bd
00000070: 1536 2cbe ba06 013e edf2 233e cbd6 373e
00000080: 4dbc 1e3e 9b63 63bc 6f8c fabd 6cb3 853d
00000090: b34c 943d 2e37 a23e 684c cdbd 4c90 dcbd
000000a0: c511 10be 72d7 3e3e 3955 8a3d 38d5 55be
000000b0: 709b bdbd 0e1e 18bc f2d9 54bd 352a 76bd
000000c0: 1ebc fe3d 2916 313e 8cd6 383e a207 c03e
000000d0: 4e3d 23be 01ad 123e 7d4e 4b3e c6fd efbd
000000e0: f2f1 74bd 7a1c 41be 919c 103e 4b46 50be
000000f0: 9458 893d 8cc9 41bd 98b1 a23d 856c 443d
00000100: f486 1a3e 4c3c 6bbe dceb 203e 9cd5 9dbd
00000110: 328b e3bd f81f 63bd 6d70 4e3c 7761 083e
00000120: d6b6 c53e 98f1 6c3e d07f f33d 1564 b13d
00000130: 7d3b 053e 4a80 cbbd 9e51 303e b5c8 363c
00000140: 4034 39bd 2cac abbd 247d 213c 3b43 a73e
00000150: 2bc9 90bd 7aff 9e3b 35f5 a43e f320 b7be
00000160: 5266 43be abe5 5dbe a896 73bd 3603 0cbe
00000170: a582 7cbc f089 823e de22 d53d 3b28 903d
00000180: b89c cbbd f806 babd c132 24be 46b0 bcbd
00000190: 4e70 ccbe b31b 98be 22f5 a03d 85ea 833c
000001a0: fb15 43bd 5433 f5bc ebfc 8ebd 3823 99bd
000001b0: d1c9 98bb dc7b 13be 3ead 49bd 458e 2bbd
000001c0: 9561 62bd 6b49 c83d 0466 7b3e dd5c 32be
000001d0: e7a1 8c3e 52fc e63d 4716 923e e36a 32be
000001e0: 963a 0c3e 1d2b 8fbd 4f06 68bc d7f0 0a3e
000001f0: 5aff be3d fbe6 5fbe ac18 14bd 9c7c 0c3e
00000200: 5cd0 c8bd 349b c3bd 4047 81be e9dd 9d3e
00000210: 55aa b63e 9e1f 0abe 3fd0 84be a53e a73d
00000220: 42c4 d8bd 49fb 0ebe 0da7 83bd 4947 783d
00000230: dcbb c63e aa62 8c3e ac32 e43e 8e13 1ebe
00000240: bbff 8cbe 0fa0 87be 4bf9 e8bd 3236 f23c
00000250: 0223 3bbe 8e56 25be 27ec 3bbe f68f 0abe
00000260: cf5d 103e 76ca 0abd f8b3 b23a 216a 81bd
00000270: 3a26 e1bd 6bfb 933d 3fbe d8be 1e9f 8f3d
00000280: 43f8 cb3e b3b3 06bd 54af 07bd 23e9 fdbc
00000290: 0528 53bd 58e6 de3b 5834 3abe 7eb9 78be
000002a0: e0ef 2cbd 29b2 f33d 598d 4e3e 12e1 623e
000002b0: ec10 be3c f36e 45bd ae39 afbe e7fe 2a3e
000002c0: e7a6 6f3d 6660 f3bd ed0a 893e ada4 cd3a
000002d0: 8274 b03e f335 6e3d 9162 f1bd 89eb 2a3e
000002e0: 8360 27be d275 733e d919 6b3e 2f8a 3abe
000002f0: ccd3 923d 89fb cabd 2839 f33c 6240 d8bd
00000300: 64f0 0d3b 93fb 8c3e 9ec9 0fbe 174f 29bd
00000310: 82be 2dbd 45af 93bd 5738 81be 4b02 3e3c
00000320: 5190 013e 6f8f 0dbe 5a50 a0be 128b 6b3c
00000330: ebc2 8bbe 295b b63e 32c0 f3bc 8b11 113e
0.21842127 0.10489724 -0.29923666 0.100106604 0.14648898 0.034993965 -0.20820607 0.108405314
0.253965 0.028780429 0.3180052 -0.42787445 0.06098627 0.21122408 0.01106883 -0.029485017
-0.047309645 0.47688738 0.21744502 0.21023804 -0.058206625 -0.13183326 0.089196116 0.31894478
0.105279945 -0.116224475 -0.09013565 -0.07142898 -0.16817506 0.12600222 0.16010638 0.17953031
0.15501519 -0.013878728 -0.12233817 0.06528363 0.07241192 0.31682724 -0.10024339 -0.1076971
-0.14069279 0.18636873 0.06754536 -0.20882118 -0.09258163 -0.009284509 -0.05196566 -0.060098846
0.12438224 0.1729361 0.18050593 0.37505823 -0.15941355 0.14323808 0.1985416 -0.11718325
-0.05980105 -0.18858519 0.14122225 -0.20339315 0.06706348 -0.04731135 0.079440296 0.047955055
0.15090543 -0.2297222 0.15714973 -0.077067584 -0.11110534 -0.05545041 0.012600047 0.1331843
0.38616055 0.23139036 0.11889613 0.08661667 0.13010974 -0.099365786 0.17218634 0.011156251
-0.045215845 -0.083824486 0.009856496 0.3266848 -0.0706962 0.0048522325 0.32218328 -0.35767326
-0.19082001 -0.21669643 -0.05946985 -0.136731 -0.015412007 0.25495863 0.10407041 0.07038923
-0.09942001 -0.090833604 -0.16034986 -0.09213309 -0.39929432 -0.29708633 0.078592554 0.016103039
-0.047628384 -0.029931702 -0.06981834 -0.074774206 -0.0046627303 -0.14402717 -0.049237482 -0.041883726
-0.055268843 0.09779628 0.24550635 -0.17418237 0.27467272 0.11278595 0.2853262 -0.17423587
0.13694224 -0.06990645 -0.01416166 0.13568436 0.09326048 -0.21865456 -0.03615634 0.1371941
-0.098053664 -0.09551087 -0.25249672 0.30833367 0.35676828 -0.13488623 -0.2594013 0.08166245
-0.10584308 -0.13963045 -0.06428347 0.060614858 0.388152 0.27419025 0.4456991 -0.15437147
-0.27538857 -0.26489303 -0.11375674 0.029566858 -0.18275073 -0.16146299 -0.18351804 -0.13531479
0.14098285 -0.033884488 0.0013633957 -0.063190706 -0.10993619 0.072256885 -0.42332646 0.07012771
0.39837846 -0.03288622 -0.03312619 -0.030994957 -0.051551837 0.0068023615 -0.1818403 -0.2428951
-0.04222095 0.11899216 0.20171107 0.2215617 0.023201428 -0.048201513 -0.34223694 0.166988
0.05850878 -0.11883621 0.26766148 0.0015689336 0.34463888 0.05815692 -0.11786378 0.16691412
-0.1634541 0.23775414 0.22959079 -0.18216775 0.07169303 -0.09911258 0.02969034 -0.10559155
0.0021658177 0.27535686 -0.14041755 -0.04133519 -0.04241801 -0.072111644 -0.25238296 0.011597226
0.12652709 -0.13824247 -0.31311303 0.014376419 -0.27297148 0.35616425 -0.029754732 0.14166848

weight_hh_l0_reverse f4 [52, 13]
00000000: 158f 3fbe 69a4 19bd 93b9 8c3e da4a 803d
00000010: 26c3 06bd fda0 243d 788f 41be 49e1 22be
00000020: 6c48 253e 79df a93d 8f8e 16bd 34d9 b03e
00000030: 10c6 363e f304 903d 6285 493e fe59 1b3d
00000040: 2767 113e 32fb 24be 5c7e 8a3e 3ad9 7cbe
00000050: 3555 843e 4ed3 91be b9a0 0f3e 1e63 c7bd
00000060: adad af3d f108 53bc 8bfb 19bd 6cf3 f83d
00000070: b830 373e 81e4 26bd c844 36bc cd7c 0c3d
00000080: 3ec6 ca3b ab45 2ebe 7be3 95bd fc18 413d
00000090: 0de7 8ebe 6d6b 6fbe 7f23 9f3c f157 8fbd
000000a0: e393 0cbe 9e81 c33d 3871 54be 51e6 0b3e
000000b0: ec84 d93c c252 3dbc ed5b b8bc dd2a 2fbe
000000c0: af31 d43d 9034 2a3e f25a 92be 506d 943c
000000d0: f394 2cbe d1b3 ebbd fad2 ddbd a927 dd3d
000000e0: 94d4 a83d b0c9 71be 8f60 5cbc a318 393e
000000f0: fd43 023d 0bbe fcbd 87b7 783e 9655 c0be
00000100: 30a1 5d3e a1d6 af3c 53fb 213d 8250 9f3b
00000110: c88d 7dbe 8add 25be 1847 3a3d a919 543e
00000120: a581 483e 5e23 cabe 03a5 2fbe 2334 c9be
00000130: df2f 13be e950 9cbd 572d 3a3e 7585 063e
00000140: fd12 083e 89ee a1be c998 7b3c 1c12 da3e
00000150: d1e7 3bbe 12d8 1dbc 351d 4f3e dc5d 8d3e
00000160: 8c4e 0e3c 37dc 99bc eea0 fc3d a3fc 62be
00000170: 3fcb e43d d147 08bd 6229 cc3c c652 a0bd
00000180: 5ea8 813e c972 abbe 1403 343c 575e b73c
00000190: e462 103d abcd 80bd 3041 793e 9fb3 17be
000001a0: 48a9 45be 967b 81bd 8ae1 3ebe 02ab 23be
000001b0: 3583 b93d fcee acbd b936 4fbe f3a9 8abb
000001c0: 7a96 4abe 2582 78be 37f3 b5bc c409 fd3c
000001d0: a0a7 41be a34b 65be 3197 5fbd 953e c23e
000001e0: fb0b 8b3e 4b8e 3d3d 0a88 d43d 6caf 1fbe
000001f0: 0548 26bd dc99 7b3d a402 dabd 8933 bdbc
00000200: 6f64 52bd 23af 353e 8a59 9cbd e580 563e
00000210: 927a 6fbe 4d6a b3be 3abe 443d 3bb6 22be
00000220: 97a9 30bd d58b cfbd 619d 22be dc60 9a3d
00000230: b2de 033d 7c92 86bd 5432 a1bc 1c7b f13d
00000240: 3daa 593d ecb4 9ebc 3406 493e a6aa fd3d
00000250: 1760 69be caa2 90be 25a6 a13e 392e 003e
00000260: d036 d83d b588 9cbb 5ae8 9fbc e0a9 93bd
00000270: 816c a63d 5c81 f03d 532c aa3e 667b 05bf
00000280: 7aba 943e c8ba d8bd 46ed 7e3e 93e3 833e
00000290: 10fc cdbe e5fc 903e a362 52be 596e 8bbe
000002a0: 7fb0 af3c 55b4 b4bb 07e5 1cbe 04e1 ffbd
000002b0: 4a33 543c 8d3c e33c 4b43 0e3e c14e 7bbd
000002c0: e24c 8abe e4ec d13d a897 573e fea9 a0be
000002d0: bd0b 82be 9cbb dfbd 367d 063e 800e aabd
000002e0: d114 4b3e 883b 85be 21a9 603e aed4 adbd
000002f0: 7941 1a3d 7e2e b43d 1ca4 953d 6df2 4a3e
00000300: 717d da3d b261 9bbe 553a 59be 50d4 a0bd
00000310: af4a 07be 4c98 933e dbb5 fbbc f253 aa3e
00000320: 97a2 83be 72c5 0e3e 9fe4 a13d 28a1 d8bd
00000330: 4301 9f3e b4da 3cbd 6bfd 8fbc 32ec 85bb
00000340: 5099 db3e cfce 803e 60cc 0b3e 556d a93d
00000350: 59c6 02be c03d 853d 69b4 80bc 8fb7 9d3d
00000360: 0db6 183e ef4e 50bd a747 12be 7500 ba3d
00000370: bbfa 30be 4472 c53d 63df 973e e3b3 a5be
00000380: c4fb 043e 4fcb 683d 5ecc f43c 810a 273e
00000390: 58d2 d0bd 0205 bfbd 2b84 bdbc 3963 2fbe
000003a0: 82af 203e b13d 11bd 9b36 a8bd 36e5 003e
000003b0: a7e9 01be 92fc dbbd 3299 a33c add8 243e
000003c0: 3afd 81be 4112 363e 559e 0e3e a1a0 94bd
000003d0: eed5 dabd fadc d4bd 36ef 3dbd 2638 10be
000003e0: cca3 4f3e c13c 7abe 6ad3 a63e 0e66 5d3e
000003f0: bdd1 73be ad0c b63d 0f31 f63b 29fb c43d
-0.18706925 -0.03751031 0.27485332 0.06264277 -0.03290095 0.040192593 -0.18902385 -0.15906252
0.16140908 0.08294577 -0.03675705 0.34540713 0.17848992 0.07032194 0.19679788 0.03792762
0.14199506 -0.16111448 0.2704953 -0.2469224 0.25846258 -0.28481525 0.14026155 -0.09735702
0.08578048 -0.01288055 -0.037593406 0.12155804 0.17889678 -0.040745262 -0.011124797 0.034298707
0.006188183 -0.17018764 -0.07318779 0.047142968 -0.27910653 -0.23380823 0.019426106 -0.06999195
-0.1372829 0.09546207 -0.20746315 0.13662077 0.02655264 -0.0115553755 -0.022504771 -0.17106195
0.10361039 0.16621614 -0.2858501 0.01811853 -0.16853695 -0.11508907 -0.10831256 0.1079858
0.08243671 -0.23612094 -0.013450756 0.18075804 0.03180312 -0.12340935 0.2428876 -0.37565297
0.2164352 0.021464648 0.039546322 0.004861892 -0.24761117 -0.16197792 0.045477957 0.20712914
0.19580705 -0.39480108 -0.1715279 -0.3929759 -0.1437373 -0.0763262 0.18181358 0.13136847
0.13288493 -0.316273 0.015356251 0.4259194 -0.1835015 -0.009634035 0.20225985 0.27610672
0.008685719 -0.018781764 0.123353824 -0.22166686 0.111715786 -0.033271614 0.024922077 -0.07828288
0.25323766 -0.33486012 0.010987062 0.022383852 0.03525056 -0.06289228 0.24341273 -0.14814614
-0.19302857 -0.063224 -0.18640724 -0.15983203 0.09058229 -0.0844402 -0.20235719 -0.0042316853
-0.19783965 -0.24268396 -0.0222107 0.030888446 -0.189116 -0.22392134 -0.054587547 0.3793837
0.27157578 0.04627828 0.1037751 -0.15594262 -0.040596027 0.06142603 -0.10645035 -0.023095863
-0.051365312 0.1774259 -0.07634266 0.20947607 -0.233866 -0.3504204 0.048032977 -0.15889828
-0.043130483 -0.10134093 -0.15880348 0.07538006 0.0321948 -0.065709084 -0.019677319 0.117910594
0.053140868 -0.01937338 0.19631273 0.12386064 -0.22790562 -0.28249198 0.3157207 0.12517633
0.1055733 -0.004777039 -0.019519974 -0.072101355 0.08126164 0.11743423 0.33236942 -0.52141416
0.2904852 -0.10582501 0.248952 0.25759563 -0.4023137 0.28317943 -0.2054544 -0.27232626
0.021446465 -0.0055146613 -0.15321742 -0.1249409 0.012951681 0.027738834 0.13892858 -0.061354402
-0.27011782 0.102502614 0.21053946 -0.31379694 -0.2539958 -0.109244555 0.13133702 -0.08303547
0.1983216 -0.2602198 0.21939518 -0.08487831 0.037660096 0.0879793 0.07306692 0.1981904
0.10668457 -0.30347973 -0.21213658 -0.078529954 -0.13212083 0.2882713 -0.030726364 0.3326717
-0.25709984 0.13942507 0.07904934 -0.10577613 0.3105565 -0.04610701 -0.017576894 -0.0040869946
0.42890406 0.25157782 0.13652182 0.082728066 -0.12770976 0.065059185 -0.015711026 0.07701027
0.14913197 -0.050856527 -0.14285146 0.090821184 -0.17283146 0.09640935 0.29662618 -0.32363805
0.12986666 0.056834515 0.029882606 0.163126 -0.1019637 -0.09327127 -0.023134312 -0.17127694
0.15691951 -0.035459224 -0.0821354 0.12587437 -0.12686788 -0.10741533 0.01997051 0.1609828
-0.2538851 0.17780401 0.13927586 -0.072572 -0.10685335 -0.103937104 -0.046370707 -0.14083919
0.20277327 -0.24437238 0.3258317 0.21620962 -0.23810478 0.088891365 0.0075131725 0.096182175

bias_ih_l0_reverse f4 [52]
00000000: 2341 2fbe 563f 09be 6885 7c3e 2eac 1e3e
00000010: 1ea6 5b3e 74bf 97bc 7b19 7c3e 8107 b3bd
00000020: 20e7 ad3d 168c 3f3d 34fd 803e b833 72bd
00000030: 3b30 a2bc 0976 373e 3c3f 833d 5673 d2bc
00000040: 3b43 19be 0afd 203e bb2f dc3d d953 dabd
00000050: ef0f e63d 4075 853e 7ac3 ddbc a4cd 28bd
00000060: 46e6 863c f6ae 773d 5aa2 4fbe d8a3 2e3e
00000070: ac2f 3e3e d3c8 183e 1f9b 37bd 4050 883e
00000080: 84e2 e0bd 56a8 793e 39f4 323d be31 4e3e
00000090: 5abb 7b3e 3bc6 613d d7e3 fabd 85a5 4e3e
000000a0: 106b 57be 1b2d 713e 7a55 093c afc2 1d3e
000000b0: 4e48 c03c 72b7 c4bd 6234 5dbd d955 3a3e
000000c0: ddd1 af3c 37a7 e6bd 94db 26be 5e0a a2bd
-0.17114691 -0.13403067 0.24660265 0.15495369 0.21450087 -0.01852391 0.24619095 -0.08741666
0.08491349 0.046764456 0.2519318 -0.059131354 -0.019798389 0.1791612 0.064085454 -0.025689762
-0.14967053 0.15721527 0.10751291 -0.10660524 0.11233508 0.26066017 -0.02707075 -0.04121174
0.016467225 0.06046959 -0.20276776 0.17054689 0.18572873 0.14920358 -0.04482567 0.26623726
-0.109807044 0.24380621 0.04368994 0.20136163 0.24583188 0.055120688 -0.12250488 0.20180328
-0.21036935 0.23552363 0.008382196 0.15406297 0.023471978 -0.09605302 -0.054005034 0.18196811
0.021462375 -0.112623625 -0.162947 -0.07912134

bias_hh_l0_reverse f4 [52]
00000000: 4dd0 643e df56 f9bd cd83 023e bfb4 85be
00000010: 107a 99bc 1f95 053e 24b2 963d 83a7 123e
00000020: e77b 86be 506f 813b ada0 c53d 7142 533e
00000030: 0059 16be a125 19be e871 7b3e 2765 6ebe
00000040: c80b 2b3e c82d fabc 10f7 3dbe 0501 22be
00000050: b814 563b f701 ef3d 1f7f 6abe cd37 d43d
00000060: c4d9 f53d 8094 a3bc 45f4 25be 5bc8 eabd
00000070: 8f6e d8bb 33a9 7cbe 0a34 513e 9e1c b1bd
00000080: c04d d43c 7e2c 70be b79f 30be 9d37 80bd
00000090: 06d1 1dbe 0b89 2abe 4475 60bd 02a9 1ebe
000000a0: f660 6ebd 3b9e 783e b391 8f3d 982e 8ebe
000000b0: 5b72 2f3e bb04 f63d c533 71be ef7a 113e
000000c0: beb0 923d 1ed7 0fbe db7b 24be 1f2a df3d
0.22345085 -0.121747725 0.1274559 -0.2611446 -0.018734962 0.13045166 0.073581964 0.14321713
-0.26266405 0.003950037 0.09649787 0.20630814 -0.14682388 -0.1495576 0.2455517 -0.23280774
0.16703713 -0.030539408 -0.18551278 -0.15820701 0.0032666158 0.11670297 -0.22900055 0.10362206
0.12004426 -0.019968271 -0.16206463 -0.11463996 -0.0066049765 -0.2467392 0.20430008 -0.086480364
0.02591598 -0.23454472 -0.17248426 -0.062606074 -0.15411767 -0.1665384 -0.054799333 -0.15494159
-0.058197938 0.2427911 0.07010212 -0.27769923 0.17133467 0.12012621 -0.23554905 0.14207052
0.07162617 -0.14046904 -0.16062872 0.10896706

weight f4 [16, 260]
00000000: 8a05 e13d cb35 b23d a811 3c3d f78d 5cbd
00000010: 6646 bb3d d748 aa3d 81a6 2fbe 98cb c63d
00000020: 4a4d 51bd b157 0abe 1ab9 08be 49f2 00be
00000030: 558e c7bd e5b0 233c 7481 d1bd 7f26 943c
00000040: 64ee 6d3c 2de9 0f3d a1eb 0cbe 1739 883b
00000050: f5be 43bd 06fc 64bc 99d5 ec3c a2a9 72bd
00000060: acba 373b 048b 21be d4e1 2cbd febf efbd
00000070: 69a2 5ebc 4d63 a2bb fc9e b23d 8ac9 3d3c
00000080: 0310 983d 9011 98bc 6b2b 7f3d 4ffe 2abd
00000090: 104b 2d3d 7677 ecbd e8e8 bdbc 7b2a b1bc
000000a0: 55dc fbbb 0f0e ffbd ff96 09bc 2650 cfbd
000000b0: ddf5 513e ec4a 05bd 620f 0c3b b9e9 1dbe
000000c0: 00b1 213e 4c7e c03d 17be e63c 946e b8bc
000000d0: f5b5 dd3d 5490 91bc 8751 e8bc 0583 d13d
000000e0: e535 8f3d 44fe a63c 34f8 a9bd f783 3cbd
000000f0: 438e 1e3d 42e0 1fbd 40e0 313c f2a9 ea3c
00000100: 583b dbbc e922 66bd bc4c ee3b d541 c7bd
00000110: aa3f ae3d 61ac 0b3d d521 833c 4bc0 f4bc
00000120: f837 acbd 2785 aebd 0077 96bc cce4 6ebe
00000130: 14ad da3c 2ea5 37bc e6df e0bc e25e 7c3d
00000140: 981b 3b3c bcd1 053e 2e8b e03d e22c 1bbe
00000150: f048 07bd 83a5 07bd b918 e0bc 8762 dc3d
00000160: e856 08be fda3 873d 6739 263c 3b5d 853d
00000170: b99f 01be 85a4 39bc df8b 2d3d e0d0 97bc
00000180: 28ff 05be 65fd 2bbe 4942 b6bd 589f d9bd
00000190: ea67 613d 5ba2 06be 2f0b 723d 978c 05bd
000001a0: 86f6 ddbb e5b0 4e3d c7c2 1bbd 4cbf f3bd
000001b0: 29d0 6abd 92c3 b9bd 07b2 d5bd 2270 893d
000001c0: decd 48bd 35b7 5fbd 2c40 08be cac8 08bc
000001d0: 0f84 683d c650 9ebc aa97 82bd 52c9 b3bd
000001e0: 48ea 2a3d d5f9 783d c6f7 9a3d b49a ff3c
000001f0: 9eba 75bc b3b6 b83d 92af 54bd dd3f 3abd
00000200: 2283 793d 2efc 1f3e 15bd 873d 28e5 f43d
00000210: d08b 083c f6d7 3fbd d69b 5d3d 7c8a 02bd
00000220: f8de 123e a5a0 cdbd 01f5 f83b e946 b63d
00000230: 742b ad3b 7c97 933d 2ae8 bebd ab5a e1bd
00000240: 12e0 713d 3d19 693d 523e 90bc f959 623d
00000250: acdf 5dbd 686f da3c 29e1 20be 2ec2 083c
00000260: 728e 66bc dd16 7b3d 10f5 973d 588a 46bd
00000270: 2abc 483e ceaa de3a 625b dabc 2ec3 9b3c
00000280: ef2f 0fbd 14cd 953d ce11 fa3d a29e 1d3d
00000290: e0d3 bcbd 9851 cd3c 9ea1 52bb 3d44 d93d
000002a0: ee37 39bc 73cf 793d dc47 14be d2b2 653d
000002b0: a5bb 193d 97e0 9ebc 9d5c 17bc 63cf d33d
000002c0: 1835 043e 1be9 183d 167d 5ebc eaef 323d
000002d0: 005c 94bd b66c 873d 3465 133c 0b62 b2bd
000002e0: c43c e93d f0b9 c0bd 1a54 ad3c 9a93 fdbc
000002f0: 4796 8cbd c238 9b3c dfe7 8d3d 670f 393d
00000300: 0755 e93d ce0f bc3d f338 df3b aa5f 5c3d
00000310: c560 d03d 7832 febc edaa ec3b 2322 bfbd
00000320: bec9 2e3d bc8f 903b 8214 22be 5406 263d
00000330: a9ad 673d 15a0 aebd 91a7 e73c fa26 c43d
00000340: f7e2 0ebd 04d1 be3d c56b 91bd 0867 c5bd
00000350: f920 84bd 63e5 fe3c 8a0a 92bd d18b 57bc
00000360: 1cda 4d3d 8364 273d 8de0 913d 43b0 02be
00000370: 7fee 163d 1329 16bd 38c6 3d3e 5d4c 64bd
00000380: 6037 c3ba 5901 7ebd 1a1c ed3b 769b 9dbd
00000390: 7542 45bd 54b1 a8bd 3891 213e 80b0 89bd
000003a0: fe3d 763b 9b6f cfbd bd3f a6bc 33cd 913c
000003b0: e060 013e 007e ffbd afc0 abbd 0926 41bd
000003c0: f3a9 04bd 3302 01be 7e3e 3abe 7c90 273e
000003d0: efb1 e2bd c12d 513d 3450 0d3e d2cc cc3b
000003e0: 9a3e 173e ec79 e53c bcef 3fbd 0918 f03d
000003f0: 0591 e8bd 7957 acbd bb94 64bc 8e6d 0c3e
0.109873846 0.087016664 0.045915276 -0.053846326 0.09144287 0.08314674 -0.1715336 0.09706801
-0.0510991 -0.13510014 -0.1335186 -0.12592424 -0.097439446 0.009990905 -0.10229769 0.018084763
0.014522169 0.035134483 -0.1376176 0.0041571963 -0.047789533 -0.013976103 0.028910445 -0.059243806
0.002803485 -0.15775687 -0.042207554 -0.117065415 -0.013588526 -0.004955685 0.0872173 0.011583695
0.07424929 -0.018563062 0.062297266 -0.041746434 0.042307913 -0.11546223 -0.023182347 -0.021626702
-0.0076861777 -0.12453853 -0.008397817 -0.10122709 0.20503946 -0.032542154 0.0021371474 -0.1542119
0.15790176 0.09399089 0.028166814 -0.022513665 0.10825721 -0.017769016 -0.028359188 0.10230068
0.069927014 0.020384915 -0.08299294 -0.04602429 0.03870989 -0.03903223 0.010856688 0.02864549
-0.026761696 -0.056185637 0.007272331 -0.09729353 0.08508237 0.03409994 0.016007343 -0.029876849
-0.08409113 -0.085214905 -0.01836729 -0.23329467 0.026693858 -0.0112088155 -0.027450513 0.061613925
0.011420153 0.13068289 0.109640464 -0.1515384 -0.033028543 -0.03311683 -0.027355539 0.1076098
-0.13314402 0.06623075 0.010145522 0.06511923 -0.12658586 -0.011330728 0.04236972 -0.018532217
-0.13085616 -0.16795881 -0.08899362 -0.106260955 0.05503074 -0.13147871 0.059092697 -0.03260478
-0.0067737726 0.05046167 -0.03802755 -0.11901721 -0.057327423 -0.09070505 -0.10434347 0.06710841
-0.049024455 -0.05461808 -0.1330573 -0.008348653 0.056766566 -0.019325625 -0.06376584 -0.08778633
0.041727334 0.060785133 0.0756679 0.031201698 -0.014998106 0.09019222 -0.05192525 -0.04547106
0.060916074 0.15623543 0.066278614 0.119577706 0.008334115 -0.046836816 0.054103695 -0.03187035
0.14342868 -0.10040406 0.007597566 0.08900244 0.005284721 0.07206628 -0.093216255 -0.11003622
0.05905158 0.056908835 -0.017607842 0.055261586 -0.05416839 0.02666445 -0.15710892 0.008347077
-0.014072048 0.0613011 0.07419789 -0.04847178 0.19603029 0.001698816 -0.026654903 0.019013967
-0.034957822 0.07314506 0.12210427 0.038481362 -0.092200994 0.025063321 -0.0032139788 0.106087185
-0.011304839 0.060988855 -0.14480537 0.05607874 0.037532467 -0.019394202 -0.009238389 0.1034229
0.12910879 0.03733168 -0.0135796275 0.04368583 -0.0724411 0.06612532 0.008996297 -0.087101065
0.11388543 -0.09410465 0.021158267 -0.030954171 -0.06864601 0.018947963 0.069289915 0.045180704
0.11393171 0.09182702 0.006812209 0.05380217 0.10174707 -0.031029925 0.0072225244 -0.09332683
0.042672865 0.0044116657 -0.15828136 0.04053338 0.0565621 -0.08526627 0.028278144 0.09577747
-0.03488442 0.0931721 -0.071006335 -0.09638792 -0.064516015 0.03111524 -0.071309164 -0.013155893
0.050256833 0.04086734 0.07122908 -0.12762551 0.03684854 -0.036660265 0.18532646 -0.05573689
-0.0014893822 -0.062013004 0.007236016 -0.076956674 -0.04815908 -0.08236948 0.15778053 -0.06723118
0.0037573571 -0.10128709 -0.020294065 0.017798042 0.12634611 -0.124752045 -0.08386361 -0.047155414
-0.03238864 -0.12598495 -0.18187901 0.1636371 -0.110690944 0.051069025 0.13800126 0.0062500024
0.14769974 0.028012238 -0.046859488 0.11723334 -0.11355785 -0.084151216 -0.013951476 0.13713667

bias f4 [16]
00000000: 87d8 3a3d 3f2b 4dbd 69d0 60bd 0b2c 1d3d
00000010: 9ef5 0abd ab33 483d f35e 713d 2beb 19bc
00000020: 47a4 f73c bcee 723c 14a3 0d3c 4694 5b3d
00000030: 63e9 fa3c 7fce 013d ff9e 70bb cc48 bcbc
0.045616653 -0.05009007 -0.054886255 0.03837208 -0.033925645 0.0488774 0.05892844 -0.009394447
0.0302297 0.0148274265 0.008644838 0.0536082 0.030628866 0.03169107 -0.0036715863 -0.022983931

weight f4 [17, 16]
00000000: 2fbd f33c 6409 2abf 777b e5bd 2898 613e
00000010: e787 593e 839c 18be a6a2 1c3f 6808 8f3c
00000020: 3d1c 97bd 9b52 43be ce38 62bd 7f7d 83be
00000030: 85a3 e3bc d2cc 0f3e 3857 363e 0c0b 97be
00000040: 754a 363e 26b0 53be 4cef 1ebd ea95 9d3d
00000050: 45fe a8bd c359 cdbd 1005 743d 6c8d 72be
00000060: 7875 123e f801 a53e 8e10 cebd eaf9 393d
00000070: ca8f fc3d 3973 1b3d 409d 86be 4734 823d
00000080: 1da3 a0be c8c4 98be b17d 083e 2d36 833e
00000090: f8d4 20be eb3e 13bf 02cc 0bbd f145 85bd
000000a0: 6ffb 8fbd 9d4b cf3d a3ec 04bf ed6b 553c
000000b0: 4286 89bd 5345 8abd 3f83 913e 5653 623e
000000c0: a8c2 af3e 039e de3b 4fa4 94bd e23d 413c
000000d0: 7f77 393e d499 d1be fa50 123e c357 683e
000000e0: 7bed 74be bbb7 613e 031a 6a3e 60ef e8bc
000000f0: 9bb4 e73d fcf5 ae3d e743 163f 00fb 45be
00000100: 470a 39be a056 8fbd ad06 cd3e 69c4 98bd
00000110: 8fa1 353d db0c 57be 675a 8ebe f114 54be
00000120: def9 023f cfee b4bd 92de 18bd c426 abbe
00000130: 709b b43d 35d9 ee3e 82f8 123e 2ad9 c13c
00000140: 0d75 6fbe 3941 b9be e459 acbd 26d9 a73c
00000150: 99b4 12be 200e a1be 4d18 93bd b8b2 de3e
00000160: d961 3cbd cac9 b63e 91f8 093e eb6e 0cbe
00000170: 7d92 5fbe 771b 553e fdc5 303e 9e68 683e
00000180: e645 073e 0e34 f8bd 1f79 443d 6ab3 5dbe
00000190: 807a 563e c407 d7bd 3b43 243e f5fb 313e
000001a0: 29f0 9dbe e39a 5c3e eca7 49be d189 a83e
000001b0: de58 f73d 3ede 443e cd8d 363e efd5 e53e
000001c0: 4547 8b3e ac82 adbe 8019 5bbe c574 cc3d
000001d0: 6844 0d3d ae18 8abe 7370 253d 2588 8fbb
000001e0: c638 6d3c 3694 9c3d 5fcb 80be 73f8 36be
000001f0: 42ad 803e dbf0 513e 09e0 d83d f21b 8abd
00000200: e7d6 34be a7bc d33e f4d3 05be 33fb a03d
00000210: b114 0e3f 7078 233e 0aac 28be 5d2e 7f3e
00000220: 21b6 d23d 24e0 863e 28ba 563d 106e 15be
00000230: fb85 3b3e 94a9 0f3e 22bf 47be 9371 513e
00000240: 7a09 de3d 0bf6 15bd 7ec9 18be 88bd 813e
00000250: e322 86bb 06d8 4cbe 8538 d0bd e9c1 d4bd
00000260: 6816 943e eac0 8b3d 62e2 033e 86d2 a9be
00000270: 2884 853e 4bbe 6c3e 5301 f6bc 39ab 933e
00000280: 0e90 a53d 09ca 49bf 7251 ddbc a19d 373d
00000290: 933b 1fbe 8a6a 803e 9124 03be 9c74 2e3e
000002a0: 36e7 57be 73ff babe edb5 203e 2640 b2bd
000002b0: d904 51be ebb6 4e3d 7a3b da3d bc3a 9bbd
000002c0: cf95 053e 4f9f 6bbe fc74 4dbe 40b5 efbd
000002d0: 777b 5a3d 4b1b d53e d189 a0be f7d6 1a3e
000002e0: 75c2 cdbe 7edd 993e 69e7 20be 3958 87be
000002f0: 7d49 a2be 7677 e43d aa98 063e c0fe 923e
00000300: 829a 883e b0f8 9dbe 92a2 8fbe a3bf 49bd
00000310: 3583 b53e 3777 4b3d 8348 33bc c63e e53e
00000320: 2fb3 3f3e f637 023e 27e9 813d fe62 58bd
00000330: 3514 0fbe 1d97 853e 7f44 ffbd 6032 f3be
00000340: cde5 3f3f 9890 223e ea70 7dbe 724c 103c
00000350: 1d1f 81be 1561 6a3e 6181 523e fb1d 4ebe
00000360: e434 b53e f54a 7a3e 9b35 56be 9a96 57be
00000370: 61d8 bdbe e1a7 21be ae82 5fbe 430a 033e
00000380: 2738 923e 0d08 63bd f36e a83c 771c 913e
00000390: 4570 66be 2252 8dbe bcee 653e 317a b4be
000003a0: 7574 973e ad56 c73e a869 1bbe e02d d0be
000003b0: 2617 033f d302 8ebe e976 dcbd f29c 26be
000003c0: 56b3 f23d 91d4 aabe bf0a 51be 2c12 713d
000003d0: edfb a9bc b253 293e c6ae a0bd 40cd f7bd
000003e0: 956b 2cbe 2fff 1b3f ef19 a8bd 2340 9a3b
000003f0: 26f6 a33d 7571 b73d 4d0a c33e 2ca2 95be
0.029753296 -0.6642058 -0.1120519 0.22030699 0.21243249 -0.14903454 0.6118568 0.017460063
-0.07378433 -0.1907448 -0.055229954 -0.25681683 -0.027787933 0.14042976 0.17806709 -0.29500616
0.1780184 -0.20672664 -0.03880243 0.076946095 -0.08251623 -0.10026886 0.05957514 -0.2368676
0.14302623 0.32228065 -0.10061751 0.045404352 0.12332113 0.03795168 -0.26291847 0.06357627
-0.31374446 -0.29837632 0.13329197 0.2562727 -0.15706241 -0.5751788 -0.034130104 -0.06507481
-0.07030379 0.10121844 -0.5192358 0.01302622 -0.06715061 -0.06751504 0.28420445 0.22102103
0.34328198 0.006793739 -0.07257902 0.011794539 0.1811199 -0.40937674 0.14288703 0.22689728
-0.23918717 0.22042744 0.22861485 -0.028434455 0.11313745 0.085430115 0.5869736 -0.1933403
-0.18070327 -0.06998944 0.40044156 -0.07459337 0.044343527 -0.21000998 -0.27803347 -0.20711114
0.5116252 -0.088346116 -0.037321635 -0.33428013 0.0881871 0.4665009 0.1435261 0.023663122
-0.23384495 -0.36182573 -0.08415583 0.020489287 -0.14326705 -0.3145609 -0.071823694 0.43495727
-0.045991752 0.35700828 0.13473727 -0.13714187 -0.21833225 0.20811258 0.17263027 0.22696158
0.13210258 -0.12119304 0.047967073 -0.21650472 0.20945168 -0.10499528 0.16041271 0.1738127
-0.3084729 0.2154346 -0.19692963 0.32917646 0.12077497 0.19225404 0.1782753 0.4488978
0.27202812 -0.33888757 -0.21396446 0.099832095 0.034489065 -0.26971954 0.040390443 -0.0043802434
0.014478868 0.076454565 -0.2515516 -0.17868213 0.25132185 0.20502035 0.10589606 -0.067436114
-0.17660104 0.41354868 -0.13069135 0.078604124 0.5550032 0.15963912 -0.16471878 0.2492003
0.102886446 0.2634288 0.052423626 -0.14592767 0.18312828 0.14029533 -0.19506505 0.20453481
0.10841651 -0.036611598 -0.14920613 0.25339913 -0.0040935143 -0.20004281 -0.1016703 -0.10388548
0.28923345 0.06823905 0.12879327 -0.3316843 0.2607739 0.23119466 -0.030029928 0.2884157
0.08084117 -0.78823906 -0.027016375 0.04482806 -0.1555007 0.25081283 -0.12806918 0.1703667
-0.21084294 -0.36523017 0.15694399 -0.087036416 -0.20412005 0.050467413 0.106558755 -0.07579562
0.13045429 -0.2300999 -0.20064157 -0.117044926 0.0533404 0.41622385 -0.31355146 0.15121065
-0.4018742 0.30051798 -0.15713276 -0.26434496 -0.31696692 0.11155598 0.13144174 0.28709984
0.2668038 -0.30853796 -0.2805372 -0.049255025 0.35451666 0.04967424 -0.010942581 0.44774455
0.18720697 0.1271666 0.063432984 -0.05282878 -0.13972552 0.26091853 -0.124642365 -0.4749937
0.74960023 0.1587547 -0.24750105 0.0088072885 -0.2521905 0.22888596 0.20557167 -0.20128624
0.35391915 0.24442656 -0.20918886 -0.21053544 -0.37079147 -0.15786697 -0.21827194 0.12796883
0.28558466 -0.0554276 0.020560717 0.2834203 -0.22503765 -0.27601725 0.22454351 -0.35249475
0.29581037 0.38933316 -0.15177023 -0.4066 0.51207197 -0.2773653 -0.10764868 -0.16270807
0.11850612 -0.333653 -0.20414256 0.05885522 -0.02075001 0.16535833 -0.078458354 -0.12099695
-0.16837914 0.60936254 -0.082080714 0.0047073527 0.080059335 0.08957187 0.38093796 -0.2922529

bias f4 [17]
00000000: 072b f13d 4fa9 23be 1a96 f33d 270a 59bd
00000010: 4e6d fdbd cfaf 403e fd1b 863d ff99 a43d
00000020: ee08 873d 1ec0 a63d 8361 8d3d 5ebf 023d
00000030: 29eb 22be 09e6 38be 3209 19be fead dcbd
00000040: ab47 17be
0.11775785 -0.15982555 0.11893864 -0.052988198 -0.12374364 0.18817066 0.06548307 0.08037185
0.065935 0.08142112 0.069033645 0.031920783 -0.15910019 -0.18056501 -0.14944914 -0.10775374
-0.14773433

weight f4 [17, 16]
00000000: c310 8bbe 652c edbd f38f 283e 5068 133f
00000010: 8c8d e4bc 1db2 db3d b670 d7be fe7e c4be
00000020: 0d31 7e3e 35b5 353e 93c0 88bc 7d5a 83be
00000030: 9456 01be e328 86be 276d a43c b5f6 843e
00000040: 9dde 1dbe 9a32 0e3e c342 40be 03b1 c23d
00000050: f22b 493e 9a20 a33c 6461 693e f641 d0bd
00000060: cb01 8a3e 5810 a2bc 8324 603d 1533 eb3c
00000070: 0385 9d3c 2adf 553e 0ac9 393d 9ae9 eb3d
00000080: 09af 1bbe 9d53 3b3e 7b11 8bbd adf4 3e3e
00000090: 4777 643d dfbd c13e f0b9 10be 068b 44bf
000000a0: 1e5f 943e 8643 cd3d f779 ebbe 2dd3 aebe
000000b0: 531f 243e ffb4 97bc 4649 973e ce3e 68be
000000c0: 4bc7 34be 8b22 a5be d57a 63bd 7f4b 01bf
000000d0: 72e6 813d 708f b0be 53d3 67be a2af ed3d
000000e0: 43a7 1ebb 4ad3 1dbf ddfc 99be f842 f3bd
000000f0: fdd1 303e 7b35 fdbe 772d f83c 6777 e73d
00000100: 6c80 bfbd 1c7c d73d 3e94 e53e 2e10 7dbe
00000110: c9c4 ffbc 0ee5 3dbe 2866 32be 5b0e 20be
00000120: 82a0 233d 2797 23bf 565f 7bbe 53f4 28bd
00000130: 84b8 10be 9e61 c0be d5c3 bc3d 463c dc3d
00000140: 0b1a b2be 4299 2f3f aa0e 85be fbb1 28be
00000150: f01b 0c3f 73ab 12bf 5962 ccbd b249 7f3e
00000160: 4471 aebe 8510 d8bd f4b6 47be 6da1 843d
00000170: be95 ffbd e82e 8a3d 14d4 bc3e 4d5a e1bc
00000180: a590 21bf 5f30 6cbd 8e83 69be 0a08 1dbe
00000190: 1fae 123e 27db 1c3e d5e3 75bd c13f 47be
000001a0: 24ab fabd abab 0b3d 30a8 6bbe 4687 b73e
000001b0: 9cfb 80bc ae14 b0bd 6df1 92be bc76 143e
000001c0: 1431 15be fb3b 8b3e f94e f73e f4d7 6dbe
000001d0: a8c5 ecbe 79de 1bbd 674d 613e de13 86be
000001e0: 51d3 97ba 9f26 48be 884a 4a3d 1039 c03e
000001f0: b92d 91be a3b3 84bc 66a3 08bf ebf2 043f
00000200: 8193 9a3e 9572 d1be 311a f53e 1308 0dbe
00000210: f0f3 3dbd d8bf 923c 5b37 8a3c 15e9 8a3e
00000220: a01c 253e dd81 3dbe 451b 7f3e 22cc 18bd
00000230: 6328 14be 4904 d43e 8eec b13e 3c30 bfbe
00000240: c212 b7bd fc80 c9bc 9f52 0a3e 519e 66bd
00000250: d86f 8d3e d870 e7ba 243a 0e3f cdc6 7b3d
00000260: 0780 48be 0e6a 073e 66d6 b6be b873 ab3e
00000270: 376f f2be 6e47 2b3e a37e 63bd 4100 29be
00000280: 7606 673e 599b 0dbd 9c11 02bf e30d 3cbe
00000290: d125 a5bd 22d6 b93b 00e9 72bc 9a07 3fbe
000002a0: 29a7 b33d 52b2 913e 213d 1fbf b830 ea3e
000002b0: bdce c53e 28a4 c6be fb9f a43e 9f62 173f
000002c0: 78db cabd 8920 9fbe e321 1c3d 93da 27bd
000002d0: 1374 b03e 8be7 d0bc 6199 223e 88f7 1ebd
000002e0: 4190 e73d 6c37 00bc b40a 2d3d e321 823d
000002f0: 3068 503d 6ccc c6bd 1325 683e 7898 1b3e
00000300: 1d3b adbe ba17 85be 789f 8f3e 9f07 aa3d
00000310: 795e 113f f9e7 c8bd b058 ebbc 8cbd c8bd
00000320: 6b29 283e 1253 fa3d 9cd2 cabc c60d d33e
00000330: 57c4 143e acae 97bd dfbb ab3d 7187 1ebe
00000340: 171e a33e 252a e63e fb32 4c3e b63a 873d
00000350: e7f6 7ebe 705d f63c f7f4 0f3f 77b4 163e
00000360: b801 60bb e6e9 a5be 291b ac3d d672 683e
00000370: 8df0 edbd 51bf 0dbe 07e7 093e 3e52 4ebe
00000380: ceb6 d43e dbe1 263e e7cd 8e3d 444b fdbd
00000390: 377e ffbc f2d3 19be 58ae f93d 625d 813d
000003a0: 7c0f 733c 2104 16bf 53b9 743e 1c76 d43e
000003b0: 7c92 66bd b9d0 7e3e 0788 9cbe 4c30 c63d
000003c0: f835 89be 0372 333e 9cc1 9fbd 9180 263e
000003d0: 9a67 bb3d 0515 013e cde8 e9bd 99b4 7b3d
000003e0: 8e97 8bbe 80ef 98bc a2b9 4d3e 2321 b93e
000003f0: 9345 ac3d de5c 653e eda1 28be 0279 cf3d
-0.27161226 -0.11580733 0.16461162 0.57581043 -0.027899526 0.10727332 -0.4207818 -0.38378137
0.24823399 0.17744906 -0.016693389 -0.25654975 -0.12630683 -0.2620307 0.02007158 0.25969473
-0.15416951 0.1388649 -0.18775468 0.095064186 0.1964567 0.019913007 0.22791058 -0.10168831
0.26954493 -0.019783184 0.05472232 0.028710881 0.019228464 0.20885912 0.04535774 0.11519165
-0.1520349 0.18293615 -0.067904435 0.18648024 0.055777814 0.37840173 -0.1413343 -0.7677463
0.2897882 0.10022645 -0.4599149 -0.3414549 0.16027574 -0.018518923 0.2954809 -0.22680208
-0.17654149 -0.32252917 -0.055537064 -0.5050582 0.06342782 -0.34484434 -0.22639208 0.11605765
-0.0024208582 -0.61650527 -0.30075732 -0.11878008 0.17267604 -0.49454865 0.030295117 0.11302071
-0.093506664 0.10521719 0.44839662 -0.24713203 -0.031221764 -0.18544409 -0.17421782 -0.15630476
0.039947994 -0.63902515 -0.24548087 -0.04124863 -0.14132887 -0.37574476 0.092170395 0.10753684
-0.34785494 0.6859323 -0.2598775 -0.16474144 0.5473013 -0.5729286 -0.09979696 0.24930456
-0.3407079 -0.10550026 -0.19503385 0.06476102 -0.12479733 0.06747228 0.36880553 -0.02750888
-0.63111335 -0.057663318 -0.2280409 -0.15335098 0.14324234 0.15317975 -0.06003173 -0.19457914
-0.12239674 0.034099262 -0.23013377 0.35845393 -0.015744977 -0.08597694 -0.28699818 0.14498419
-0.14569503 0.271942 0.4830244 -0.23226911 -0.4624455 -0.038053963 0.22002183 -0.26187032
-0.0011583363 -0.19545983 0.049387485 0.37543535 -0.28355196 -0.016198939 -0.53374326 0.51933163
0.30190662 -0.40907732 0.47871545 -0.13772611 -0.046375215 0.017913744 0.016872099 0.27130952
0.16124201 -0.1850657 0.24912746 -0.03730405 -0.14468531 0.4140952 0.3475079 -0.37341487
-0.08939125 -0.024597637 0.1350808 -0.056303326 0.27624393 -0.0017657531 0.55557466 0.061468888
-0.19580089 0.1322405 -0.35710448 0.33486724 -0.47350475 0.16726467 -0.055540692 -0.16504003
0.22561058 -0.03457198 -0.5080812 -0.18364672 -0.080638535 0.0056712786 -0.014826059 -0.18655244
0.08772118 0.2845636 -0.6220265 0.45740294 0.3863429 -0.38797116 0.32153305 0.5913486
-0.099051416 -0.3107951 0.038118254 -0.040979933 0.34463558 -0.025501033 0.15878822 -0.038810283
0.11306811 -0.007825714 0.042246535 0.0635412 0.05088061 -0.09706959 0.22670393 0.15194881
-0.33834162 -0.25994664 0.28051353 0.08302235 0.5678478 -0.0980987 -0.028728813 -0.09801778
0.1642205 0.12222876 -0.02475863 0.41221446 0.14528023 -0.07406363 0.08385443 -0.15481354
0.31858894 0.4495403 0.19941323 0.06602995 -0.24898873 0.030073851 0.5623316 0.1471728
-0.0034180712 -0.32405013 0.08403618 0.22700056 -0.11618147 -0.13842513 0.13467036 -0.2014856
0.4154572 0.16297095 0.069728665 -0.123678714 -0.031188114 -0.15022257 0.121914566 0.063166395
0.014835235 -0.5860005 0.2389882 0.4149636 -0.056292042 0.24884309 -0.3057253 0.09677181
-0.26798987 0.17523961 -0.078006 0.16259982 0.0915062 0.12605675 -0.11421356 0.06145153
-0.27264065 -0.01866889 0.20090345 0.36158094 0.08411708 0.22398707 -0.1646802 0.10130502

bias f4 [17]
00000000: 5b57 9c3d 1676 5e3e 52b9 1b3e 237c 7a3e
00000010: b0b3 1fbc 01b5 1e3e f50c 56bd 0f57 753e
00000020: 8e28 b53d a19a 0ebe feff b23d 7291 17bd
00000030: 981e 9a3d 7271 11be 4e96 c63d 8ec2 5dbe
00000040: d98a 4c3e
0.07633849 0.21724734 0.15207413 0.24461417 -0.009747431 0.15498735 -0.05225845 0.23958991
0.08845626 -0.13926174 0.08740233 -0.03700394 0.075253665 -0.14203432 0.09696637 -0.21656248
0.19974841
