models/kfold/a17lds17b0.006g1.0d1.0h13fold1.pt (torch, 118714 bytes, 26 tensors)

weight_ih_l0 f4 [52, 4]
000000 51 91 24 be 82 cb 9d 3d 32 2b 2f be e9 ec fa bd
       -0.16071059 0.07704832 -0.17106321 -0.12252218
000010 fc b6 8e bd 16 a4 e2 3e f6 f2 cc bd 24 c3 ce bd
       -0.06968495 0.44265813 -0.100072786 -0.10095814
000020 47 b1 5a 3d fe 5f 0e 3e b6 8a ef 3d 1f 8a 91 3e
       0.05339172 0.13903806 0.11696379 0.2842569
000030 9f f9 da bd 8d a2 8e be 34 a7 3c be 74 dc 9a 3d
       -0.10692143 -0.2785839 -0.18423158 0.07561579
000040 85 4b c4 3d 2c 0a 99 bc 6c a2 6f bd cf 98 2b 3e
       0.09584717 -0.018681608 -0.058504507 0.1675751
000050 a9 a3 30 bd 3b 3e 4d bd 8a e9 ec 3e 8f 5d 85 bd
       -0.04312483 -0.050108176 0.46271926 -0.065119855
000060 21 e2 8a 3c 3c a0 03 3e 67 6a bc bd 14 2b 9f 3d
       0.01695353 0.12854093 -0.09199982 0.077718884
000070 b1 92 4a be 0b d1 12 be 0f 7f 3a 3e 66 8a 84 bd
       -0.19782521 -0.14337556 0.18212532 -0.0647171
000080 44 21 7b bd 6b a2 c0 bc 61 dd c7 3d 4b 1e 27 bd
       -0.06131102 -0.023514947 0.097590216 -0.040800374
000090 67 b8 93 3e 5c 78 f7 3e 4f 56 53 bb ba 57 24 bd
       0.28851625 0.48334014 -0.003224749 -0.040122725
0000a0 3d 48 ee bd 10 da c1 3d 11 eb 06 bd 8d 0e 08 be
       -0.11634872 0.0946542 -0.03293902 -0.132868
0000b0 83 30 5e 3e 6a 94 8e 3e 10 82 2a 3e 4c af 21 be
       0.21698193 0.27847606 0.16651177 -0.15789527
0000c0 d4 b6 62 3e cf ff 72 bc 19 67 88 3e 48 d5 6e 3d
       0.22140056 -0.014831497 0.26641157 0.05830887
0000d0 4b 0e 7a 3e 85 30 be 3d 29 fb 72 3d 89 8f ce 3d
       0.24419515 0.09286598 0.059321556 0.10085971
0000e0 64 c2 8d be 2d b0 06 3e 6e b4 8c 3d fb cc 92 3d
       -0.2768737 0.13153143 0.06870352 0.07168003
0000f0 3e b5 00 be 92 13 9b 3e d8 18 90 be bc 16 96 bd
       -0.12569138 0.30288368 -0.28143954 -0.07328555
000100 fb 69 5a 3d 0c 69 7d bd f6 85 40 3e f2 da 49 be
       0.053323727 -0.06186776 0.18801102 -0.19712427
000110 1d fd 9f be bb 7b 76 be bd 54 de 3d 7e 73 18 3e
       -0.31247798 -0.24070637 0.10856006 0.14887807
000120 61 81 3f 3e a3 58 4e be 17 31 47 3e 7f 56 7e 3d
       0.18701698 -0.20151 0.1945232 0.062094208
000130 06 6d 66 be f6 6b 49 3d bc 0b 2b be 73 a1 08 3d
       -0.22502527 0.049175225 -0.16703695 0.033357095
000140 88 51 c7 3d 43 8a 44 be 4f 8c 5c be cd 9f 37 3e
       0.09732348 -0.19193368 -0.21537898 0.17932053
000150 dd c9 35 3e e0 e8 a8 3e 28 a6 b4 3e e5 0f 0a 3f
       0.17752786 0.3299017 0.35283017 0.53930503
000160 f2 13 ba bd cd de c6 3d 62 f2 50 bd a2 ea b5 be
       -0.090858355 0.097104646 -0.051012404 -0.35530573
000170 f8 fb 87 be 04 d9 5b bd 3e 11 92 be dc 4e aa 3e
       -0.26559424 -0.05367376 -0.2852878 0.3326329
000180 1c 3d bb 3c 7a 21 2f 3e 67 ff c0 3d d6 8f 7b 3e
       0.022856288 0.17102614 0.09423714 0.24566588
000190 df b6 0e be 8a 05 4a 3d 1f 3f 15 be df da 46 3e
       -0.13936947 0.04932169 -0.1457486 0.1941943
0001a0 65 ae 26 be d7 bf 2b 3d 79 da 5c 3e e8 ab 0a bc
       -0.16277464 0.041931 0.21567716 -0.008463837
0001b0 ba 64 48 3e f9 bf 06 be b3 b7 12 3e 08 50 b0 bc
       0.19569674 -0.1315917 0.14327888 -0.021522537
0001c0 ba 20 66 3e 1e 84 24 3e 23 5e 71 3d c7 e1 e3 bd
       0.22473422 0.16066024 0.058927666 -0.11127048
0001d0 88 57 7b be a7 1d 1b 3e 46 09 3d 3e 65 f6 e5 3d
       -0.2454511 0.1514803 0.18460569 0.11228637
0001e0 65 bd ca bc b7 1f 0c 3e 44 de 6f 3e df 62 b4 bd
       -0.024748513 0.13683973 0.23424631 -0.08807921
0001f0 a5 2d 3f 3d 4f e4 41 3e d8 39 59 3e 13 c9 82 bd
       0.04667439 0.18934749 0.21213472 -0.06386008
000200 c9 80 0f 3e 2b c9 8a bd 4c ef 09 3e da 2c ae bc
       0.14013971 -0.06776651 0.13470191 -0.021261621
000210 68 45 8c be 36 d5 51 3d eb 9f 9b be bf b4 0c be
       -0.27396703 0.051228724 -0.30395445 -0.13740824
000220 64 e6 1e be 76 86 cc 3c bb a2 94 bd 7c fc 84 bc
       -0.15517575 0.02496646 -0.07257601 -0.016233675
000230 22 cb d5 3d 2f cf 82 3e a4 58 85 bc 96 4c a5 3e
       0.10439135 0.25548694 -0.016277619 0.32284993
000240 f1 8e 1c 3e 43 60 80 3d a8 cb 4f bb 11 36 b9 3c
       0.15288903 0.062683605 -0.0031707082 0.022608789
000250 f9 b3 ad be 4a 11 49 3e 90 48 d4 bd b6 22 e4 bd
       -0.3392637 0.19635502 -0.10365403 -0.11139433
000260 c9 41 c2 3d a1 85 74 3e 40 21 10 be 28 64 4d 3b
       0.09485204 0.238791 -0.14075184 0.0031340215
000270 3e 44 64 3e a3 87 9b 3d ce 44 72 3d f0 4d 5f be
       0.22291657 0.0759423 0.05914765 -0.21807075
000280 84 08 00 3e ab ec a7 bd d5 47 82 3d bf 11 16 3d
       0.12503248 -0.08199438 0.06361357 0.036638018
000290 94 a7 23 be 18 bf 07 be 23 9d 0a 3d 5b fc 48 be
       -0.15981895 -0.1325649 0.033841264 -0.19627516
0002a0 b5 f3 20 3e ed 3f c0 3d 1a ab a7 be ce 61 72 bd
       0.15717967 0.09387193 -0.32747728 -0.059175305
0002b0 8c 8f 9e 3d fe c1 70 3c b5 1a 59 be 79 e5 95 bd
       0.07742223 0.014694689 -0.21201594 -0.07319159
0002c0 15 07 4e 3e e1 d1 54 be 8e 54 f7 bd a6 89 da bd
       0.20119889 -0.20783187 -0.120766744 -0.106707856
0002d0 15 e1 dc 3d 93 0e 2c be 46 8b 0e be a0 c9 76 3d
       0.107851185 -0.16802435 -0.13920316 0.06025088
0002e0 f3 00 17 be 28 c3 0c be 95 4b 75 3c ba aa 33 3e
       -0.14746456 -0.13746321 0.014971633 0.17545596
0002f0 6e d0 3e be 56 03 06 3e 54 91 89 3e 69 7a ca 3e
       -0.18634197 0.1308721 0.2686869 0.39546517
000300 a8 82 52 be e1 53 c4 be c9 85 c6 be 7a 14 ca be
       -0.20557654 -0.38345245 -0.38773945 -0.39468747
000310 cb 56 42 3e ab 1e 2c 3d 24 74 28 be 86 7c bf be
       0.18978421 0.042021435 -0.16450554 -0.3739969
000320 26 d2 8b be 59 1a 94 be 4f d4 5b 3e e7 73 6c be
       -0.27308768 -0.28926352 0.21467708 -0.23091088
000330 5a 9e 47 3e b5 52 04 3e 06 7c 4f bd e8 ee 1b 3e
       0.19494 0.12922175 -0.050655387 0.15227854

weight_hh_l0 f4 [52, 13]
000000 b3 4b 42 be 27 b4 9d 3e 05 0b 73 be bd 78 0d bd
       -0.1897419 0.30801508 -0.23734672 -0.034538973
000010 54 42 43 3e 15 ab 8e bd be 22 f7 3d 2d 85 08 3c
       0.19068271 -0.06966225 0.120671734 0.008332533
000020 e4 fb 56 3c d4 5d f7 3c 0f fb 04 3e ed 64 89 3e
       0.013121579 0.030196108 0.12986396 0.26834813
000030 5c 86 54 be 09 f6 3a be 27 c3 0e 3e d3 b3 15 be
       -0.20754379 -0.18257917 0.13941632 -0.14619379
000040 24 08 e8 3d 7c 13 62 3c d5 dd 4c be 4c ac 28 3e
       0.11329678 0.013798591 -0.20006497 0.16471976
000050 af bc 15 be 9e be bf be 25 7d c2 bc c1 57 96 3d
       -0.14622758 -0.37450117 -0.023741314 0.073409565
000060 84 94 1c be 42 67 93 3e 68 7c b4 bd 08 c3 8d bd
       -0.15291029 0.28789717 -0.08812791 -0.06921965
000070 01 19 31 bb af 79 e4 bc 20 c5 3e bc 3c fc 49 3e
       -0.002702296 -0.027890055 -0.011643678 0.19725126
000080 b0 a5 a2 be 72 7d 92 bc 02 dd fa bc db 2b b4 be
       -0.31767035 -0.017882083 -0.030622963 -0.3518971
000090 2f f1 f0 3d 0a 0a e2 bd 33 f1 be 3c 8a f6 2a be
       0.11764752 -0.11037071 0.023308372 -0.1669561
0000a0 62 98 89 bd 10 3e 11 3e fb 43 9a 3d c3 e6 d5 be
       -0.06718518 0.14183831 0.075324975 -0.4177762
0000b0 8d 24 87 be 62 e7 00 bc 12 5b d2 bd 83 81 14 be
       -0.26395074 -0.007867666 -0.102712765 -0.1450253
0000c0 01 26 0b be a3 b5 39 3e d6 b1 03 3e 9a 44 bb be
       -0.13588716 0.18135695 0.12860808 -0.36575776
0000d0 db 74 6a 3c 4a a4 61 3e ec 00 84 bc 72 e2 64 bd
       0.014310087 0.22035328 -0.01611372 -0.055880018
0000e0 78 66 23 be 68 34 c3 3d 39 10 98 be 71 21 6b bd
       -0.15957057 0.0953148 -0.29699877 -0.05740494
0000f0 9b 6c 29 be a3 96 a2 bb 9d 95 d5 bd 29 d1 60 be
       -0.16545336 -0.004961805 -0.10428927 -0.21954788
000100 32 22 4a be a1 d6 3d be 29 16 f8 bd 3b 9f 45 3e
       -0.19739607 -0.18538906 -0.12113602 0.19299023
000110 94 e4 55 bc c1 0a b4 3d 6f ac c5 3d 3b c2 c3 bd
       -0.013054986 0.08791114 0.0965203 -0.09558531
000120 23 93 a8 3e b3 cb 8f bd 82 b1 14 be 0e e5 35 be
       0.32924756 -0.070212744 -0.14520839 -0.17763159
000130 92 5b da bd fc c9 9d 3d a3 69 30 3e 76 34 8d be
       -0.10661997 0.07704541 0.17227797 -0.27579087
000140 82 a4 1c 3e 28 c1 80 3e 86 74 28 3d ed d2 51 be
       0.1529713 0.25147367 0.04112675 -0.20490618
000150 92 85 a8 3d 15 13 5b 3d 88 fd e5 3d 94 0a 73 3e
       0.082286015 0.053484995 0.11229998 0.23734504
000160 fe e3 01 3e 38 ca ba bd 47 20 47 be 37 51 da bc
       0.12684628 -0.091206014 -0.19445907 -0.026650054
000170 9d a9 b5 3d 05 86 16 3e 3e 4e 27 3e 96 16 24 be
       0.08870242 0.14699562 0.16338441 -0.16024241
000180 3f 23 26 bd a5 95 91 be d8 1b 71 be be 23 90 be
       -0.040560957 -0.28434482 -0.23545778 -0.2815227
000190 a1 5f 84 3e cb cb 2c be b5 75 07 be 6d 55 0c 3e
       0.2585421 -0.16874616 -0.13228495 0.13704462
0001a0 f8 5a a9 bb 9d 87 92 bd 09 69 d7 bd 8d 81 5f 3e
       -0.005168315 -0.071547724 -0.10518081 0.21826763
0001b0 b9 5b 29 be 2b e4 56 be ca 41 8b 3d c0 60 12 3e
       -0.16538896 -0.20985477 0.06799658 0.1429472
0001c0 fc 88 35 3d 0a e2 e7 bc 2d 75 94 be bd cf 8f 3e
       0.04432009 -0.028306026 -0.28995648 0.2808818
0001d0 c1 d5 2e be 2f e7 fe 3b 43 6b 3e bd 3c a0 14 be
       -0.17073728 0.007779024 -0.04648901 -0.1451425
0001e0 c7 f3 5e be d1 cb b0 3d db 47 5a 3c 8b 69 a0 bd
       -0.21772681 0.08632625 0.013322796 -0.07832631
0001f0 5d cf 6e be a8 e8 f7 bd 42 11 2b 3c f0 ee 70 be
       -0.2332129 -0.121049225 0.010441126 -0.23528647
000200 3a 04 69 be 4b 05 33 3e 14 f6 03 3e ca 58 f6 3d
       -0.22755519 0.17482488 0.1288684 0.12028654
000210 63 e3 70 3d 98 f2 3a be 83 32 a6 bd f4 ef dc 3d
       0.058810603 -0.18256605 -0.08115103 0.10787955
000220 62 5b 9d 3c 9b 6e cd bd 5d 31 9d 3e 8d ca ad 3d
       0.019208614 -0.10030862 0.30701724 0.08485899
000230 3c b9 6e 3e fc ca 56 3e ab cc d2 bd 4a 22 55 3e
       0.23312849 0.2097587 -0.102929436 0.20813861
000240 90 54 c6 3d ce 10 11 3e 5c 28 f1 3c e8 d5 6d 3d
       0.09684098 0.14166567 0.02943819 0.058065325
000250 e6 e6 67 bb 8f 71 cc bd c0 67 94 be 23 c5 bd bd
       -0.003538543 -0.09982597 -0.28985405 -0.092661165
000260 cf 26 f8 3c 47 93 4e 3e fb f8 8b bd e0 0e ce 3e
       0.030291943 0.2017337 -0.06834599 0.40245724
000270 47 35 63 3c a5 bf e9 3e 80 54 0d 3e af 46 20 3e
       0.013867683 0.45654026 0.13801765 0.15651964
000280 ec 13 8e 3d cf ab 39 bc 78 ce d6 3e 16 86 5c 3e
       0.069373935 -0.011332466 0.41954398 0.21535525
000290 60 92 96 3e cc 84 3d be 8d 69 a4 3b e1 d1 72 be
       0.2940855 -0.18507689 0.0050174654 -0.23712875
0002a0 44 7f 8b 3d 60 d1 57 bd ed df 5a 3e f6 1d 0c bf
       0.06811383 -0.05268991 0.21374483 -0.54733217
0002b0 02 42 68 bd 3c 69 18 3e af c5 47 bd 20 45 55 be
       -0.056703575 0.14883894 -0.04877251 -0.2082715
0002c0 5a fa 92 be b2 48 9c bd 12 70 04 3c 23 b4 58 3e
       -0.28706628 -0.07631053 0.00808336 0.21162467
0002d0 1f 06 3b 3e 4d af ab 3c b6 75 04 3d b2 bb e9 3d
       0.18264054 0.020957613 0.03233882 0.11412753
0002e0 18 36 fe 3c f9 46 53 be cd 9d 7e 3d 33 44 b0 3e
       0.031031653 -0.20632543 0.06216221 0.34427032
0002f0 13 c7 bb 3c 84 44 00 3d b1 a9 57 be f0 be 48 be
       0.022922074 0.03131534 -0.21060826 -0.19604087
000300 73 5e 4a bb d9 07 11 3e 28 74 4a be 6e 3f 31 be
       -0.003087905 0.1416315 -0.19770873 -0.17309353
000310 e6 38 68 bd 13 54 16 bd f3 5b 89 3e bd 61 79 3e
       -0.056694888 -0.036701273 0.26827964 0.2435369
000320 66 50 53 3d ca de 3e be 82 f0 4e be 17 d4 84 3d
       0.051590346 -0.18639675 -0.20208934 0.064857654
000330 c5 b6 7b 3d 97 15 66 3e ca 7e 49 be 6a cc 76 3e
       0.0614536 0.22469173 -0.19677272 0.24101415
000340 fe 41 2d 3d 6e 4a 19 be 19 63 07 be 68 8f 5f bc
       0.042299263 -0.14969799 -0.13221397 -0.013645031
000350 71 e9 f0 3d 1c 34 13 be cd 40 0f 3e 76 fc 04 3d
       0.117632754 -0.14375347 0.13989563 0.032467328
000360 bf 07 00 be d6 2d 16 3e a6 e5 38 3e d4 a0 1a be
       -0.12502955 0.14665923 0.18056354 -0.15100414
000370 01 b2 35 3e a8 d5 16 3d 8f ae 52 bc ff c6 bd bc
       0.17743684 0.036824852 -0.012859001 -0.023166178
000380 b6 1b 70 bd 5c 59 e0 bd bf af ac be 6a cd de bc
       -0.058620177 -0.10954544 -0.33727834 -0.027197558
000390 ab b7 5b be 98 03 22 3e 2a bd 9d be 7c 35 95 3e
       -0.21456783 0.15821683 -0.30808383 0.29142368
0003a0 03 93 37 3e be 1d 73 be 91 8e 8d 3d ab ad c1 be
       0.17927174 -0.23741814 0.06911958 -0.3782781
0003b0 ec b7 8a 3d fd 76 b9 bc b1 e4 24 3d a2 db a0 3d
       0.067733616 -0.022639746 0.04025716 0.07854392
0003c0 7a 17 e9 3d 2e 25 36 3e c2 09 69 3d c3 05 24 be
       0.11381431 0.1778762 0.05689407 -0.16017823
0003d0 2b c5 8e bd 0b 5f 98 be f9 23 39 bc 4d c9 4e 3c
       -0.069712006 -0.29760012 -0.01130008 0.012621236
0003e0 a2 81 72 3e 6a 8c 83 3d 6e 1a 17 be a2 88 e3 3d
       0.23682263 0.06423266 -0.14756176 0.11110045
0003f0 8a 6c 1e be fc a7 b9 3e 50 0f 35 3e ba 4a 1f 3e
       -0.15471092 0.36260974 0.17681623 0.1555585

bias_ih_l0 f4 [52]
000000 e2 9c a2 bd 5e 75 21 3d ba f0 d7 3d c3 61 1f 3e
       -0.07940079 0.03941857 0.10543962 0.15564637
000010 08 62 ca 3d c3 0d 81 3e 7d 4d 0c 3e c6 bf be 3c
       0.09881979 0.25205812 0.13701434 0.023284804
000020 dd 10 26 be 9e 59 24 be 6e 3a 2a be dd 42 08 3e
       -0.1621737 -0.16049811 -0.16623852 0.13306756
000030 a5 2a 83 be 2f 88 ae bc dc e2 69 be ee 7d be 3d
       -0.25618473 -0.021305172 -0.22840446 0.09301363
000040 08 a2 8c bd c4 da fc 3b 0e 18 8f be ba 88 1f 3d
       -0.068668425 0.0077165086 -0.2794804 0.038948752
000050 c3 5a 86 3e 60 9e d8 bc 4d 10 a9 bc 03 3b fc 3d
       0.2624112 -0.026442707 -0.020637656 0.12315943
000060 92 da 2a be 8d c5 3b 3e ad 2e 86 be f6 90 81 3e
       -0.1668494 0.18337078 -0.26207486 0.2530591
000070 da 6b ab bd 1b d8 3c 3e 21 00 48 3e c3 77 67 bd
       -0.083701804 0.18441813 0.19531299 -0.056510698
000080 b6 d7 c5 3d 33 04 1b be 47 08 1b be 2d ce 1f 3e
       0.09660284 -0.1513832 -0.15139876 0.15605994
000090 d4 10 9f 3d 7e b1 8f bd 63 d1 20 bd 61 31 33 3d
       0.077668816 -0.07016276 -0.039262187 0.043748263
0000a0 08 66 71 3e 13 10 6b bd ec 04 c9 3d e6 2e b5 bb
       0.23574078 -0.057388376 0.09815392 -0.0055292724
0000b0 5b 65 50 3d 9a 6e 50 3d db f3 1d bd 41 79 70 be
       0.05087791 0.050886728 -0.038562637 -0.23483755
0000c0 03 5f 80 be 6d ae 66 be 77 0a eb bc 15 57 1c bd
       -0.25072488 -0.22527476 -0.028691513 -0.038168985

bias_hh_l0 f4 [52]
000000 82 e8 2a bd 97 d8 35 3e 52 27 28 be 13 c4 63 3e
       -0.041725643 0.17758404 -0.1642125 0.22242765
000010 30 dc 1f be 0d f6 90 be 83 04 c9 bc 35 b3 61 be
       -0.15611339 -0.28312722 -0.024538284 -0.22041018
000020 3e 28 c0 3d a7 97 4f 3e 44 ce 0c bd d0 98 48 bd
       0.093826756 0.20272695 -0.034376398 -0.04897386
000030 29 a5 86 be 15 9a dd bd fb 53 b8 3d 8c f7 0e 3e
       -0.26297882 -0.108204044 0.09000393 0.13961619
000040 9e 0d 26 bd 1a 9b c4 bd ed 2f 5d be e7 1f 2c be
       -0.04054033 -0.09599896 -0.21600313 -0.16809045
000050 f2 e3 86 3e 66 db 19 3e 63 49 12 3e bf d1 1c 3e
       0.26345783 0.150251 0.14285807 0.15314387
000060 15 e3 bb 3d 84 4b 2b bd d7 01 cf 3d c3 ec 1a bc
       0.09174172 -0.041820064 0.10107773 -0.009455862
000070 6e 0a 66 be 48 5b fc bd ad 51 60 be 4d eb bb 3d
       -0.22464916 -0.12322098 -0.21906157 0.091757394
000080 56 5a 10 be 3e 4b 34 be f7 9c 02 3d 8c 5c 82 3d
       -0.1409696 -0.17606828 0.031887975 0.06365308
000090 74 b0 b9 b9 63 d4 0c be 0b 12 cb bd 77 80 e5 3d
       -0.00035417418 -0.13752894 -0.09915551 0.11206143
0000a0 7a 69 79 3e 88 e3 44 3e 59 50 38 be 10 1d a0 3d
       0.24356642 0.19227421 -0.179994 0.07818043
0000b0 79 ed da bd 61 a1 07 3e 4f 48 67 bd 12 9d 8c 3e
       -0.106898256 0.13245155 -0.056465443 0.27463585
0000c0 49 c0 41 3d f3 fc 24 be 96 7b 1a be 50 f4 a7 3d
       0.047302518 -0.16112117 -0.15086207 0.08200896

weight_ih_l0_reverse f4 [52, 4]
000000 13 86 80 bd 21 47 cf bd 94 6e 9b 3d c0 aa 9f 3e
       -0.06275573 -0.10120989 0.075894505 0.3118496
000010 e7 12 1d be 70 af d3 be a1 01 f5 3d 88 3a e8 be
       -0.15339242 -0.41344786 0.11963201 -0.45357156
000020 9d 07 1b be ab eb 03 3e 0e 11 19 3e f9 7c 42 3e
       -0.15139623 0.12882869 0.14947912 0.18992986
000030 74 d1 e7 3b 62 f7 98 3e 32 f4 de 3e 84 b6 5f bd
       0.0070745293 0.29876238 0.4354568 -0.05461742
000040 06 40 98 3d 93 bb a3 3e 68 0d c4 bd f9 21 e4 bd
       0.074340865 0.31979045 -0.095728695 -0.11139292
000050 bc 9b 1e 3d 13 80 fc bd c9 bd 41 be f8 11 9c 3e
       0.03872274 -0.12329116 -0.18920054 0.3048246
000060 88 be c0 bd 6f fd 33 bc 93 b6 73 bd 28 0e 80 bd
       -0.09411341 -0.010985716 -0.05950029 -0.062527
000070 6e ed c6 3e 75 d4 a6 bd b6 f0 26 bc 82 44 13 be
       0.3885302 -0.08145992 -0.010189226 -0.14381602
000080 60 c0 16 be d0 4e 39 3e 64 61 51 3e b8 aa 05 be
       -0.14721823 0.18096471 0.20447308 -0.13053405
000090 24 84 af 3e 5f 8c a2 3d 87 10 a6 bd 3f 01 44 3e
       0.34280503 0.0793693 -0.08108621 0.191411
0000a0 f9 65 a9 3d f0 56 78 bd 4a 13 c5 3d bb 59 7d 3d
       0.08271403 -0.060629785 0.0962282 0.06185315
0000b0 3c 4d 67 be e4 f9 c6 be bd c6 51 3d 94 e1 c3 3e
       -0.22588056 -0.38862526 0.051214922 0.3825804
0000c0 27 03 cd bd 3f 01 7c bd b5 59 01 3d 4b 64 10 3e
       -0.10010367 -0.061524626 0.031579692 0.14100759
0000d0 17 ae ec bd 74 58 1e be 37 2c 98 3d f7 b6 95 3d
       -0.115566425 -0.1546343 0.07430308 0.073102884
0000e0 66 22 09 3e 84 1f e4 bd 8c f3 29 3e 54 b8 6a 3c
       0.13392028 -0.11138824 0.16596812 0.014326174
0000f0 6a 53 86 3d 84 66 33 3b 03 05 3a 3d a1 b3 22 be
       0.06558879 0.0027374336 0.045414936 -0.15888835
000100 2e a8 5a bd c9 3c 9d bc c1 3f aa 3e 3d 68 ae be
       -0.053383045 -0.019194024 0.33251765 -0.34063902
000110 e9 82 10 3e 02 fb 74 3e 1d e8 6c be aa 91 e8 3d
       0.14112438 0.23923877 -0.23135419 0.11355908
000120 22 d5 c7 bc 61 4a 85 3e d1 4f b7 3d 20 36 81 3d
       -0.024393622 0.2603331 0.08950771 0.06309152
000130 44 67 8b 3e 19 3d 08 3e bb a0 6e 3e 00 df de 3e
       0.27227223 0.13304557 0.23303501 0.4352951
000140 01 62 ca be b2 02 9b be 4a 2e 9e 3d dc 31 8b 3c
       -0.39527896 -0.30275494 0.07723673 0.016991548
000150 3b da a4 bc 8d 8e ce 3d e3 7e 3d be dc ea 7a be
       -0.020123592 0.10085783 -0.18505435 -0.24503654
000160 82 7f 9c bc a0 fc 13 be 56 37 5d bd 4a 61 2f bd
       -0.01910377 -0.14451838 -0.05400785 -0.04281739
000170 e4 7d 83 3e 1c f2 65 3e 74 ce f1 bd 23 3f 6d 3c
       0.25681984 0.22455639 -0.11806956 0.014480385
000180 25 79 86 3e 35 5d e1 3d b9 b5 90 3e c7 14 35 be
       0.262643 0.11004106 0.28263643 -0.17683707
000190 3d 66 f2 bc 90 be 8e bd 02 c6 e5 be 22 c6 80 3b
       -0.029589767 -0.06969941 -0.4487763 0.0039298693
0001a0 f4 81 db 3d c5 a7 6c be 5b 66 05 bd f8 e4 13 3e
       0.10718146 -0.23110874 -0.032568317 0.14442813
0001b0 dd 25 2b 3e 0e 67 bb 3e 55 7b db be ae 4a 38 be
       0.16713662 0.36602062 -0.42867532 -0.17997238
0001c0 12 f1 bf 3e f6 3f 1d be e9 1f 7e be de 66 bf 3d
       0.3748861 -0.1535643 -0.2481686 0.09345792
0001d0 9f fe 30 bd f9 d6 84 be 5b 69 95 3d 56 99 04 3d
       -0.043211576 -0.2594526 0.072954856 0.032372795
0001e0 6d fb c8 3e 6f 8c 8d 3e 2c 4d e6 3e 12 2e 1b be
       0.39254323 0.27646205 0.44980752 -0.15154293
0001f0 e9 8f 83 be 89 46 b7 bd 92 5c 6f 3e 7c dc ad 3c
       -0.25695732 -0.089490004 0.23375157 0.0212233
000200 d9 2b 2c be fc f4 53 be 94 de 37 be d9 7f e5 bd
       -0.16813602 -0.20698923 -0.17956 -0.11206026
000210 c0 75 1a 3e 5a 4a ab 3d 8f 84 4f be b7 da ac be
       0.1508398 0.08363791 -0.20265411 -0.33760616
000220 d9 ac ff bd 8a ea d5 3d 26 a1 db be 79 0a 6f 3d
       -0.1248414 0.104451254 -0.42896384 0.058359597
000230 b9 6c 01 be 42 5c 5e 3e e2 be cf 3d 29 83 5e bd
       -0.1263913 0.21714881 0.1014383 -0.054324303
000240 60 47 88 bd 6c 6b 4f 3c 30 5e 36 be a4 09 84 be
       -0.06654239 0.012659889 -0.17809367 -0.25788605
000250 1f 1f 68 be 89 15 f9 bd c6 ad 69 3d 32 54 d1 bd
       -0.22668122 -0.12162311 0.05705049 -0.10221137
000260 d9 f3 c0 3c 8b 26 2f bd 8d 6a b0 be 4e cc 29 3e
       0.023553776 -0.042761367 -0.34456292 0.16581842
000270 a8 82 f0 3e ce 76 c0 bd 1d d8 16 be 67 59 d5 3d
       0.46974683 -0.0939766 -0.14730878 0.10417443
000280 8e 8a b3 3e aa 15 44 3d 66 ce fa bd cb bf 32 3e
       0.35066646 0.047872223 -0.12246399 0.17455976
000290 15 d6 17 3e 13 e1 f8 bc 69 62 37 3d 3c 8a a2 3e
       0.1482776 -0.030380761 0.044771586 0.3174609
0002a0 7a 76 aa 3d b7 10 dd bd 0f 87 04 3d 73 dd c6 bd
       0.08323379 -0.10794204 0.032355364 -0.09710207
0002b0 d9 24 a0 3e e9 71 2c be 6c ee a2 bd 37 4f 4a 3d
       0.31278113 -0.16840328 -0.079556316 0.04939195
0002c0 08 07 83 bd f4 59 86 bd 4f fe 83 be 16 f8 35 3b
       -0.063978255 -0.06560126 -0.2577996 0.002776628
0002d0 78 a8 bd bd d9 51 82 3e 1e b0 77 bd 1b 87 22 3e
       -0.092606485 0.2545307 -0.060470693 0.15871851
0002e0 ba d0 90 be 1a 9d b9 3e 3c 3d d7 bc 44 a9 17 3e
       -0.28284246 0.3625267 -0.026274316 0.14810663
0002f0 99 2f a8 bd 68 27 be 3e 74 2a 87 be cf 40 1f be
       -0.082122035 0.3713944 -0.26399577 -0.15552066
000300 19 5a 3a bd d7 6e 05 3d 24 74 54 be 8c 77 35 be
       -0.04549608 0.03257641 -0.20747429 -0.17721385
000310 5f dd d1 bd 1c 7e 01 be 50 ec 6a be de 00 e8 bc
       -0.10247301 -0.12645763 -0.22941709 -0.028320726
000320 b1 69 34 3e 87 08 96 3d 84 49 51 3e d5 10 26 3d
       0.17618443 0.07325845 0.204382 0.040543396
000330 ac aa 19 3e 61 ec ee 3d 2d 5a df be ac 3f 05 be
       0.15006512 0.116661794 -0.43623486 -0.1301257

weight_hh_l0_reverse f4 [52, 13]
000000 31 a6 73 3e ef 55 87 be a1 96 fe 3d 94 e0 02 be
       0.23793866 -0.2643275 0.12431074 -0.12780982
000010 2f 8f 74 3b 59 05 4c be 66 e1 f1 be 50 81 b9 bc
       0.003731679 -0.19923915 -0.47242278 -0.022644669
000020 3e 53 49 3e a3 d6 13 bd d6 ff 76 3b ba bf 2d 3d
       0.1966066 -0.036093365 0.0037689111 0.042419173
000030 e4 d4 99 3d 85 4d e0 3d c1 f6 f4 bd 79 79 3d 3e
       0.07511309 0.10952286 -0.11961127 0.1850337
000040 9a 68 85 be 82 30 81 be da 98 0f 3d 86 e1 90 bd
       -0.26056367 -0.2523232 0.03505788 -0.07074265
000050 be f1 8a bd 76 57 86 bd 16 67 b2 bc 41 65 e1 bd
       -0.0678439 -0.065596506 -0.02177767 -0.11005641
000060 16 39 74 3c f6 b5 08 bc 65 10 03 bd 97 86 2c be
       0.0149061885 -0.008344164 -0.031998057 -0.16848217
000070 0c d2 94 3e 49 26 37 be 09 03 89 be e3 e9 19 3d
       0.29066503 -0.17885698 -0.26760128 0.037576567
000080 3e 93 31 be 45 55 c7 bd 7b aa d8 bd 2e 1d e1 3d
       -0.17341325 -0.09733061 -0.105793916 0.10991894
000090 b5 c4 37 bc 8f 03 9f 3e 4f 66 29 be 75 4c ce 3d
       -0.011216332 0.31057402 -0.16542934 0.10073177
0000a0 27 71 00 3d a7 9e dd bd 05 7f 80 3e 31 44 c7 be
       0.03135791 -0.10821276 0.25096908 -0.38919213
0000b0 71 99 bb bd a6 28 1d be 42 ee 0a 3e ee 75 89 bd
       -0.09160126 -0.15347537 0.1356745 -0.067119464
0000c0 12 79 82 be 10 ac 33 be 41 86 59 3d 39 9c 4d 3e
       -0.25482994 -0.17546105 0.05310655 0.20079125
0000d0 d0 b1 ed bb 6b 0f d0 3d 97 85 08 3e f8 9e 96 3e
       -0.007253863 0.10159191 0.1333221 0.2941816
0000e0 be c4 10 be 56 69 b5 bd aa d2 30 3e 40 57 06 3e
       -0.14137551 -0.08857982 0.17267862 0.1311922
0000f0 a6 a9 a9 3d 28 8d 8e be 22 54 8f 3e b3 43 38 bd
       0.08284311 -0.2784207 0.27993876 -0.044986438
000100 67 41 3c be 36 f7 8f bc 2b 7c 46 3e 2c f1 8f 3e
       -0.18384324 -0.017573934 0.19383304 0.28113687
000110 e9 ad 48 3c 58 fe 07 3e 31 3f fc bd 4b 62 4d be
       0.012248495 0.13280618 -0.1231674 -0.20057027
000120 c8 48 e7 3d 8f 46 d8 bc 94 f5 03 3d a1 1c 8e bd
       0.11293179 -0.026400832 0.032216623 -0.06939054
000130 85 a3 fa bc 19 26 29 be 1b 9e 00 3d 35 a2 ad 3e
       -0.03059555 -0.1651844 0.03140078 0.33912817
000140 99 92 48 3d 35 d4 82 bd 40 fd 6a 3e 3d 8e 18 be
       0.04896793 -0.063881315 0.2294817 -0.1489801
000150 09 39 27 3e ae bf 00 be ef be 34 3e b1 9b 25 be
       0.16330351 -0.1257312 0.1765096 -0.16172673
000160 05 11 c0 3d 25 05 8f bd 04 f3 3f be 21 4c 15 3c
       0.09378246 -0.06983403 -0.18745047 0.009112389
000170 89 d6 aa be 32 e8 2c be ea 8d 66 3e e5 25 83 3e
       -0.33366802 -0.1688545 0.22515073 0.2561485
000180 ed f8 36 be f1 6b 5f be 52 8e 87 bd 11 a9 c1 3e
       -0.17868395 -0.2181852 -0.06618942 0.378243
000190 0c 72 12 3e fc c4 53 be 2f eb 7d bd ce 84 98 be
       0.14301318 -0.20680612 -0.061991867 -0.29788822
0001a0 5c a9 8f bd c8 ac a6 3d 82 97 af bd 9f 26 64 bd
       -0.070147246 0.08138424 -0.0857382 -0.055700894
0001b0 ea f8 81 3d ef 86 00 3c 99 78 10 3e b8 9f a0 3d
       0.06346305 0.007844671 0.14108504 0.07842964
0001c0 c9 df 86 be b7 c9 c5 be 3e 0a c7 3a 2c 77 1d be
       -0.2634261 -0.3863046 0.0015185548 -0.15377492
0001d0 82 06 a6 3d 59 46 c6 3e 42 00 89 be 39 d5 44 bc
       0.0810671 0.38725546 -0.2675801 -0.012013727
0001e0 ae d9 e0 3c e1 0a 61 bd 1c ec bc bc a2 e6 ec 3d
       0.027447548 -0.054942016 -0.023061804 0.11567427
0001f0 57 e6 57 3e 79 93 e8 3c 8d 37 7e 3d 33 74 83 3d
       0.21083961 0.028390633 0.062064696 0.064186476
000200 1b 77 7e be 1b d3 8d be ab b4 91 3e 95 91 0a 3e
       -0.24850123 -0.27700123 0.2845815 0.13532098
000210 6a 45 b2 3b 76 21 8d 3d 44 9f 6a 3d c4 3b 56 bd
       0.0054404037 0.06891148 0.057280794 -0.05230309
000220 43 10 df 3d b8 e2 bd 3d 31 bf 9c 3e 9b 09 0b bf
       0.108917736 0.09271759 0.30614617 -0.5431153
000230 9b a5 0f be 21 6f 7a 3e b3 ef 04 bf e7 c2 bf be
       -0.14028017 0.24456455 -0.5192825 -0.37453386
000240 2d c2 cd be e0 eb 92 3e 7e 68 58 be 19 75 8c be
       -0.40187207 0.28695583 -0.2113361 -0.27433088
000250 49 c9 81 3c 6f 2a a2 bc 7c b9 9e 3b c1 8b 6a 3e
       0.01584305 -0.019795625 0.004843889 0.22904874
000260 36 5c 0d 3c 61 0d 4a 3c 1c c2 05 3e 19 8b 6b bd
       0.008627942 0.012332291 0.13062328 -0.0575057
000270 cd 88 e9 bc a9 23 51 be aa aa c0 be 0b 7d a5 be
       -0.028507615 -0.2042376 -0.37630206 -0.32321963
000280 53 80 7f be d6 48 ee bd 7a ba 1b 3e af 4d cc bd
       -0.24951296 -0.11634986 0.15207854 -0.099757545
000290 3c 12 85 bd d1 0e fd 3d d3 d0 af bd 39 8e 8a 3c
       -0.064976186 0.12356342 -0.08584752 0.01691352
0002a0 d8 a4 33 3d a5 1c 90 3d 68 61 cd 3d 15 34 34 3e
       0.04385838 0.070367135 0.100283444 0.17597993
0002b0 f7 56 3d be ee 6d 8e be 84 04 68 bd 2e f5 5b 3e
       -0.18490206 -0.27818245 -0.05664493 0.21480247
0002c0 7c 9e e1 bd 6b 01 9d 3e fb 89 f7 bc 1c c4 b1 3e
       -0.110165566 0.30665144 -0.030217161 0.34719932
0002d0 0b 1a 9f 3e 7b c4 da bd bc d6 25 be ec 33 84 3d
       0.31074557 -0.10682007 -0.16195196 0.06455216
0002e0 05 63 a4 3e 03 9a eb bc 9c 43 02 bd 45 f0 06 3c
       0.32106796 -0.028759962 -0.03180276 0.008235996
0002f0 7e 88 8d bd 7f f6 22 be d8 c3 29 3d ed 5b 79 3e
       -0.069107994 -0.15914343 0.041446537 0.24351473
000300 92 d0 08 be c6 48 64 3d 1b aa 8b b8 f1 38 91 3d
       -0.13360813 0.055733465 -6.659721e-05 0.07090939
000310 22 75 57 bd 55 31 bd 3e b3 5d 66 3e 1f 8a c3 bd
       -0.05260194 0.369517 0.22496681 -0.09547829
000320 cf 49 3d be 72 54 b6 3d 04 99 a2 3e 10 0d a4 be
       -0.18485187 0.089028254 0.31757367 -0.32041216
000330 28 6d 04 3c 53 5a 86 3e e0 8f 8e 3e 5e ee 2e 3c
       0.0080826655 0.26240787 0.27844143 0.010676948
000340 9a 8d c6 bd 5d 56 c4 bd 5c a7 0b bc 4f e1 24 be
       -0.09694977 -0.09586785 -0.008523788 -0.16101573
000350 21 c5 1c 3d ad a6 e3 3b f4 47 6f 3e a0 8d 99 bd
       0.038273934 0.0069473595 0.23367292 -0.07497716
000360 43 20 02 be 1c 7d e2 bd 8d 5e 02 3c f4 f9 2b 3e
       -0.1270762 -0.11059019 0.007957113 0.16794568
000370 66 78 b7 bd ec 41 d3 be 8e c6 7f be e2 6a 0f bd
       -0.08958511 -0.41261232 -0.24978086 -0.03501404
000380 7c 4f d1 bd 95 07 c2 bd 38 35 4e bd a3 5c 1a be
       -0.102202386 -0.094741024 -0.050343722 -0.150744
000390 32 1b e2 3d fb d4 9d 3e 10 5b 1e bd b6 70 8d 3d
       0.11040343 0.30826554 -0.038661063 0.069062635
0003a0 c1 d5 78 be fa 3b a5 3d f8 3e 9d bb 3c e2 b4 3d
       -0.2430029 0.0806808 -0.004798766 0.08832213
0003b0 bd 2d 16 be e5 56 04 be de f6 c8 3d e2 5a 02 be
       -0.14665885 -0.12923773 0.09812711 -0.12729982
0003c0 be b2 ff 3e 3e 6d 07 3b d5 ea d5 3d 1a 8f 0f 3e
       0.49941057 0.0020664479 0.10445181 0.14019433
0003d0 d9 ea 60 bd eb 9e cc 3c 37 5f b8 3d a0 75 5b bd
       -0.05491147 0.024978122 0.09002536 -0.053578973
0003e0 18 d9 42 3d ec f8 6e 3d 0c 72 11 3c de 3a 36 be
       0.047570318 0.05834286 0.008877289 -0.17795894
0003f0 c7 ec dc bd f1 d5 d1 3d a5 7c 49 3e b9 15 93 3d
       -0.10787349 0.10245884 0.19676454 0.07181878

bias_ih_l0_reverse f4 [52]
000000 79 b5 fb 3d 45 49 7d 3e c0 7f b8 bc 5b 35 31 bd
       0.122904725 0.24734981 -0.022521853 -0.043263774
000010 42 e4 25 3c a3 98 50 3d 03 ce 4e be 2f 3e 33 3e
       0.010125222 0.050926816 -0.20195775 0.1750419
000020 77 fb 57 3e cd b3 0c 3e 8d 62 be bc 1c d4 89 3e
       0.2109202 0.13740464 -0.023240352 0.2691964
000030 53 cd d7 bd 15 57 84 3e ac 5b c0 3c d6 3c 57 3e
       -0.10537209 0.25847688 0.023481213 0.21019301
000040 44 6b 86 3e bd 39 68 3d 54 8d 00 be 8b 4b 4d 3e
       0.26253712 0.05669569 -0.12553912 0.20048349
000050 38 ca 55 be b2 cf 84 3e 43 31 ec ba 21 5c 3e 3e
       -0.20877922 0.2593971 -0.0018020052 0.18589832
000060 d7 f9 d5 3c 6c 16 b3 bd 59 67 2f bd 58 68 38 3e
       0.02612011 -0.08744511 -0.04282317 0.18008554
000070 c9 ed a2 3c 5f 8e 0c be 25 3e 25 be ea cb 94 bd
       0.019888775 -0.13726185 -0.16136988 -0.07265456
000080 e3 c3 5d 3e bc b1 fd bd 4a 2c 08 3e 27 24 86 be
       0.21656756 -0.12387416 0.13298145 -0.26199457
000090 68 f5 ab bc 52 11 06 3e 23 04 9d 3d 9b e9 1e 3e
       -0.020991042 0.13092545 0.07666805 0.15518801
0000a0 5a 84 8e be e8 8b 42 3c 24 41 b9 3d 46 48 4e 3e
       -0.2783535 0.011874177 0.09045628 0.20144758
0000b0 e9 1c 1c be 43 5e 19 be c5 31 76 3e 2c 0b 57 be
       -0.15245403 -0.14977364 0.24042423 -0.21000355
0000c0 a6 61 27 3e 4d 51 7d 3b 86 e5 3c be e3 ae 18 be
       0.16345844 0.0038653195 -0.18446931 -0.14910464

bias_hh_l0_reverse f4 [52]
000000 57 b1 62 3c d6 bf d3 3d a4 d6 65 be ed 03 d0 3d
       0.013836226 0.10339324 -0.2244516 0.10156999
000010 b7 dc e8 3d 2b c1 f1 bc ee 1f 25 be c3 93 e1 bd
       0.11370223 -0.029511055 -0.16125461 -0.110145114
000020 40 42 98 3c 2c 5f 84 be 93 4e 67 3e 30 0d ab bd
       0.018586278 -0.2585386 0.22588567 -0.08352125
000030 b1 a2 f8 3c b6 26 61 be 57 51 45 be b6 42 5c bd
       0.030351015 -0.21987423 -0.1926931 -0.053774558
000040 cf b5 0c be 36 ec 28 be da e2 6c bd fc 02 20 be
       -0.1374123 -0.16496357 -0.05783353 -0.15626138
000050 aa dd 67 bd 47 88 88 3e 85 6c 75 3d d1 c3 7b be
       -0.05660788 0.2666647 0.059917945 -0.24586417
000060 89 28 32 3e e3 d2 03 3e 85 c0 65 be 6e 8d 0f 3e
       0.17398275 0.12873416 -0.22436722 0.14018795
000070 c0 77 8f 3d de 11 29 be 6c de 22 be 93 68 ec 3d
       0.070052624 -0.16510722 -0.1590516 0.115433834
000080 c2 c6 b7 3d 38 40 55 3e a3 9a 52 3d be c5 23 be
       0.08973457 0.20825279 0.051417004 -0.15993401
000090 b9 05 c0 3d 2c 4f 63 3e af 93 47 bd 3e bf 6d be
       0.093760915 0.2219817 -0.048724826 -0.23217484
0000a0 b8 33 b8 bd 51 45 2b 3e 60 60 33 bd 86 45 32 3e
       -0.089942396 0.16725661 -0.043793082 0.17409334
0000b0 aa 70 26 3e 12 61 51 3e 46 a9 4e be 4c f1 99 3d
       0.16253915 0.20447186 -0.2018176 0.07516727
0000c0 8d 64 71 3e 8b 76 73 3e 0d 01 b5 bd 6c cb 82 3e
       0.23573513 0.2377569 -0.08838091 0.25545824

weight f4 [16, 260]
000000 4a 8f 06 bd fe 65 69 3b 8f cb 4b 3c dc 94 54 bd
       -0.032851495 0.003561377 0.012438669 -0.051899776
000010 92 8b d5 bc fe 13 b8 bc a6 cb 3b bd 64 9c 0a be
       -0.026067529 -0.02247047 -0.04584851 -0.13536221
000020 56 7c a8 bc a3 29 37 bc 57 81 97 3d 9c c9 a3 bb
       -0.0205671 -0.011179361 0.073977165 -0.004998399
000030 59 11 aa 3c 5e 95 18 be 0c 23 af 3d 1b 06 85 bd
       0.020760225 -0.14900729 0.085516065 -0.06495305
000040 70 68 64 3d 9f 1e e3 bd 2f 45 6a bc ef e3 c1 ba
       0.05576366 -0.11089825 -0.014298721 -0.0014792661
000050 27 55 01 3e de ec 1d be 2a d3 34 be b7 fb 93 3d
       0.1263014 -0.15422389 -0.17658678 0.07225745
000060 27 40 5c 3e b3 7d e0 bc b5 81 83 3c e0 8a 07 be
       0.21508847 -0.027403688 0.01605306 -0.1323657
000070 ba 3b a5 be d6 17 9a bb 6e f4 1d 3e 23 99 c5 3d
       -0.3227213 -0.0047025485 0.15425274 0.09648349
000080 e3 37 08 3e 1f 8f e6 bc 3d 60 2e bd 24 76 c6 3d
       0.13302569 -0.028144417 -0.04257225 0.09690502
000090 e0 cc 11 bc 21 4e d0 bc 98 e0 04 3e 41 1d 0b 3e
       -0.008898944 -0.02542788 0.129763 0.13585378
0000a0 fb ec 52 3d 8d c3 16 bd 03 8d d9 3c 7e 7f 21 3d
       0.051495533 -0.036807586 0.026556497 0.039428227
0000b0 c3 e5 d0 3c 2e ce ab 3c 84 bd 8c 3d ff 78 03 bd
       0.025500184 0.020972338 0.06872085 -0.032097813
0000c0 b4 04 99 3d 09 03 ba 3c 45 6d e1 3c 34 a6 ca bc
       0.074716 0.022706525 0.027517924 -0.024737455
0000d0 e4 3e b6 bd bc 87 5e 3d f5 a9 17 be 36 71 92 3d
       -0.08898714 0.054328665 -0.14810927 0.071504995
0000e0 9a e5 a5 3c 36 b8 75 3a 5b 54 77 3b 78 18 46 3d
       0.020251084 0.0009373458 0.0037739489 0.04836318
0000f0 5c 88 ec bd 4d 0f f2 bd 14 fb 95 3d 4c 4b e2 bd
       -0.11549446 -0.11819325 0.0732328 -0.11049518
000100 54 20 1a bd 2c 8c 00 bd b2 ac 44 bc 22 a7 e9 3d
       -0.037628487 -0.03138368 -0.012004064 0.11408831
000110 0c e9 87 bd 83 05 66 3c e2 77 89 bc da bd 4c 3d
       -0.06636247 0.0140394 -0.016780797 0.049985744
000120 fb 02 fc bd b5 7e 18 bd 46 a4 11 3d 0e e9 10 bd
       -0.12305256 -0.037230212 0.035557054 -0.03537851
000130 15 79 ec bd b7 87 07 bd 3e ee d8 3b 50 97 90 bd
       -0.11546532 -0.033088412 0.0066201976 -0.070601106
000140 dd eb 21 3d 26 50 f7 bd 78 e8 80 3d 39 a8 91 bc
       0.039531577 -0.12075834 0.0629434 -0.01778041
000150 c3 e6 8c 3d 79 8f a8 bd fb 38 d1 3b 3a 92 b9 3d
       0.06879952 -0.0823049 0.0063849664 0.09061094
000160 d6 54 99 bd 26 14 d7 bd 9b 57 f3 bd e2 98 96 3d
       -0.07486884 -0.1050189 -0.11881944 0.07353379
000170 8d df 94 3d 59 69 87 3d f1 2d db bd c1 d6 8d 3d
       0.072692014 0.0661189 -0.10702122 0.06925727
000180 1a 2a 9a 3d 11 e5 d4 3a 3c 4a 9e bd 78 74 eb bd
       0.075275615 0.0016242584 -0.07729003 -0.11496824
000190 a3 ec 28 3d d1 d7 6f 3d 66 99 1d bd 24 1d 10 bc
       0.0412413 0.058555428 -0.03847637 -0.00879601
0001a0 34 3e a5 bb 5a 88 db 3d 94 73 87 bd ff 16 2d bd
       -0.0050428156 0.10719366 -0.06613842 -0.04225826
0001b0 a3 5f 91 bd 1e ee 13 bd c5 07 c0 3d e5 0f 87 bd
       -0.070983194 -0.036115758 0.09376482 -0.065948285
0001c0 af 79 55 bc 6d f6 5a bd 75 5f 25 3d 81 7c 3d bd
       -0.0130295 -0.053457666 0.040374238 -0.046261314
0001d0 1f 28 19 bd f1 c3 f5 bd 0b d0 c0 bc 3b a0 22 3c
       -0.037391778 -0.120002635 -0.023536703 0.009925897
0001e0 ae c5 7a 3c 0d a6 b7 3d 06 62 b7 bd a2 53 bc bd
       0.01530592 0.089672185 -0.08954243 -0.09195639
0001f0 fa 6d 2c 3d a0 da 0d 3e 44 0a 47 3c 58 fe db 3c
       0.04209707 0.1385293 0.012148444 0.026854679
000200 35 48 3f bd bb 5c 12 3d a0 72 1c be b6 ff d5 3c
       -0.04669972 0.035732966 -0.15278101 0.026122909
000210 94 0f 9b 3d 82 57 6e bd a2 42 3f 3d 1b 16 44 bc
       0.07571331 -0.058188923 0.046694405 -0.011968161
000220 8e 20 66 3e d1 82 25 bc a8 9e 38 bd 62 7f 91 3c
       0.22473356 -0.01010199 -0.04507318 0.017760936
000230 31 d2 4e 3e ee ed b4 bb b7 b7 4a bd 1c 38 3c 3e
       0.20197369 -0.0055215275 -0.04949161 0.18380779
000240 32 67 8d bd 4f 09 03 3d 31 e4 c5 3b 5b 3e fc 3d
       -0.069044486 0.0319913 0.0060391654 0.12316581
000250 e3 ec 8b 3d 16 8c 10 bd 60 df 2c 3e 5d be 65 bb
       0.06832292 -0.035289846 0.16882086 -0.0035056092
000260 6e d2 c3 3c 6c 4c ff bc 9e 4e 94 bb 3e bc eb 3d
       0.023904052 -0.03116437 -0.0045259735 0.11510514
000270 1f d7 a3 bd aa 47 23 39 fb 6c 30 3d d1 96 1b 3d
       -0.080000155 0.00015571588 0.043072682 0.037985627
000280 39 dd a5 bd 77 46 8d 3d 87 55 00 3d fc 2d c5 bd
       -0.080988355 0.06898206 0.031331565 -0.096279114
000290 ec 56 df bc d2 ea 0a be 57 22 28 3d 5e 33 d2 bd
       -0.027263127 -0.1356614 0.041048374 -0.10263704
0002a0 36 98 89 bd 84 73 db 3c 6f 7f b5 3d fb 64 3f 3d
       -0.06718485 0.02678848 0.08862197 0.04672716
0002b0 8c e6 0d bd be 28 b8 bd 99 65 b2 bd d6 af 29 3e
       -0.034643695 -0.08992146 -0.087107845 0.16570982
0002c0 eb 16 d0 3d 78 5a 42 bd 63 da 23 bb b5 06 de bd
       0.10160621 -0.04744956 -0.0025001995 -0.10841123
0002d0 3d d3 f1 bb 05 84 28 bc 8e 32 11 be 61 99 64 3c
       -0.007379918 -0.010285382 -0.14179441 0.013952584
0002e0 51 e3 3e 3d 8e 29 b1 bd c8 df cc 3c 3e ac ce 3d
       0.046603505 -0.08650504 0.025009051 0.10091446
0002f0 dc 12 26 3d 38 44 03 bc 95 cb 6e bd 28 42 25 bd
       0.04054533 -0.00801187 -0.05829962 -0.040346295
000300 ed 25 87 bd 5e f1 7e 3c 32 b6 9c bd 81 98 03 3a
       -0.06599031 0.015560476 -0.076519385 0.0005019978
000310 ae 9c 89 3d f3 af 72 bc ae 09 af 3d 8f fe 7e bd
       0.067193374 -0.014812457 0.08546768 -0.062254485
000320 6b d5 3c 3d f0 b4 b1 bc 0e 03 38 3e 5b 96 9a bd
       0.04610197 -0.021692723 0.17969915 -0.07548209
000330 dc d6 81 bb 65 61 07 bd 0f ae 5c 3c e3 78 d4 3d
       -0.003962381 -0.033051867 0.013469233 0.1037462
000340 39 7b 5d bd 7b c9 86 bd 0a 0e 17 3e 60 46 88 bd
       -0.054072592 -0.06581398 0.14751449 -0.06654048
000350 88 8d 93 bb 3c 5d b1 bd fe d0 fc 3d 25 29 96 3d
       -0.004502956 -0.08660361 0.123445496 0.073320664
000360 fb fd e8 3d c1 f3 f7 bd 6b 36 9d bd b6 e8 6b bd
       0.11376568 -0.12107039 -0.07676395 -0.057594977
000370 76 cc b2 bd a7 36 b7 bd 38 a0 e4 bd 91 e9 06 bd
       -0.08730404 -0.08945971 -0.11163372 -0.03293759
000380 d7 da ca bd b0 bd 68 3d ad 8d 14 3e 26 32 a7 3c
       -0.09905022 0.056821525 0.1450717 0.020409655
000390 88 f6 2c 3d c6 77 96 3d 54 a3 41 3d 10 ac 1d 3c
       0.042227298 0.07347064 0.047274902 0.009623542
0003a0 61 6b ed bd 3c 6e 9b bd dc b1 e4 bc 1b 76 1a 3e
       -0.115927465 -0.07589385 -0.027916841 0.15084116
0003b0 20 ef 43 bd 1f 89 3c bd e8 84 ce bd ba 5e d6 3c
       -0.04783547 -0.046029206 -0.100839436 0.026168216
0003c0 71 c9 d2 3d ed 87 18 3e ce ab 1e be 8c 84 39 bc
       0.10292328 0.14895602 -0.15495226 -0.011323106
0003d0 1e a5 c1 bd 47 9a 8d bd e6 14 b8 bd 6e 14 4f bd
       -0.09455322 -0.06914192 -0.08988361 -0.050556593
0003e0 db 8e 9e 3d 3a 6a 76 bd 94 60 85 bd e0 97 6d bd
       0.07742091 -0.0601599 -0.065125614 -0.058006167
0003f0 dd 35 8c 3d e8 b2 bb 3d b6 08 33 bd 7f 3b 1d 3d
       0.06846211 0.09164983 -0.04370948 0.038386818

bias f4 [16]
000000 a5 47 42 bd f9 1d f3 bc fe 09 35 3b be f2 77 bc
       -0.047431607 -0.029677378 0.0027624364 -0.015133558
000010 c1 47 82 bc 2e 8e 24 3d e4 fc 00 ba ed ff 48 bb
       -0.015903356 0.040174656 -0.0004920496 -0.0030670122
000020 59 62 52 3d a1 3a 14 bd 65 43 18 bd ff b3 aa ba
       0.051363323 -0.036188725 -0.037173647 -0.0013023614
000030 e4 fa 86 bb 5d 7f 53 bd 8f 83 94 bc 0e c0 43 3d
       -0.004119264 -0.051635135 -0.018129138 0.04779058

weight f4 [17, 16]
000000 0f 44 a8 bd 19 54 db bd cd 07 6b 3d 04 f9 6a be
       -0.08216106 -0.107094 0.057380486 -0.22946554
000010 f4 7c d3 bd b0 34 57 be 75 eb 9b 3e 7e eb a9 bd
       -0.10326567 -0.21016192 0.30453077 -0.0829687
000020 ce 70 00 3e db a2 1c 3d cd a2 83 be cb 0c 84 3d
       0.12543032 0.03824125 -0.25710145 0.064477526
000030 2a 20 82 bd 3b de a5 bd 62 6d 63 be ab 72 6f 3d
       -0.06353791 -0.08099028 -0.22209695 0.058458965
000040 da 45 25 be 44 de 13 bf 0b 86 29 bd cd 99 6b bd
       -0.16139928 -0.57761025 -0.0413876 -0.057519723
000050 d8 cf 2c 3d 8f a6 15 be 93 bd a5 be 94 67 0b 3d
       0.042190403 -0.14614318 -0.32371196 0.034034327
000060 96 c6 95 bd df 41 90 bd 06 c3 8d 3e 7e 81 5b 3e
       -0.07313268 -0.07043814 0.27687854 0.21436116
000070 da 1e 98 be a7 0c 69 3e 81 14 97 3e 48 e0 0f 3b
       -0.29711038 0.22758733 0.2950783 0.002195375
000080 f9 3b 35 3e 07 86 d1 be 7d 17 0a 3e 39 43 64 3e
       0.17698659 -0.40922567 0.13485523 0.22291268
000090 49 01 e2 3e aa c9 15 3e 00 6b cf bc ae d3 9e be
       0.44141605 0.1462771 -0.025319576 -0.31020874
0000a0 6f e1 dd 3d bb 67 a8 3d c6 fa 12 3f dd 30 4a be
       0.10834014 0.0822291 0.574139 -0.19745202
0000b0 0b d4 94 be 55 eb d5 3d 99 bb 53 be e4 7d ae be
       -0.29068026 0.10445277 -0.20677032 -0.34080422
0000c0 35 c6 1e 3d 9a e2 55 be 78 9f 90 be 83 a0 51 be
       0.038763244 -0.20887223 -0.28246665 -0.20471387
0000d0 bb 61 fb bd 3f 68 86 3e 13 9a 77 3e 14 b8 85 3e
       -0.122745 0.26251408 0.24179868 0.26117003
0000e0 24 c1 a7 3d 3b 03 ee 3e 0f 27 0e 3e e9 ee ad 3c
       0.081911355 0.4648684 0.13882087 0.021232085
0000f0 4e c2 2f 3e f1 7a 6c be 89 98 2a 3f 86 1a 92 3e
       0.17163965 -0.23093773 0.66639 0.2853586
000100 23 2d 12 be bc e3 9d be cf 2f 82 bd 36 17 df 3e
       -0.14275031 -0.3083781 -0.06356775 0.43572396
000110 72 8b 64 be c6 1e 47 be 30 6b 5a bd 52 72 91 bd
       -0.22318819 -0.19445333 -0.05332488 -0.07101883
000120 e7 eb 56 be 76 d1 58 3e 30 fc 3b 3e 2f 4a 6d 3e
       -0.20988427 0.21173653 0.1835792 0.2317283
000130 63 7f 46 be 3f 28 01 3e 57 d2 59 3e 81 b6 d2 be
       -0.19384532 0.12613009 0.21271645 -0.41154864
000140 73 61 58 3e 85 9f d5 bd be af 27 3e d9 b8 2b 3e
       0.21130924 -0.104308166 0.16375634 0.16769733
000150 b0 b1 db be 4d 2f 23 be a0 de bf be 0a df 2b bd
       -0.42909002 -0.15936013 -0.37474537 -0.041960754
000160 9f 3a ec 3d ab 87 48 3e aa c4 2c 3e b5 f5 e3 3e
       0.115346186 0.19583003 0.16871896 0.44523397
000170 59 9c 12 3e 28 e9 1f be 7b 18 66 be b2 e1 59 3e
       0.14317454 -0.15616286 -0.22470276 0.21277502
000180 d1 95 ea 3c ab fd 8a be d8 9f 13 3d 83 d0 0a bc
       0.028635891 -0.27146658 0.03604111 -0.008472565
000190 6b 73 18 bc 1c 79 37 3e 45 d4 56 3e a1 f8 0c 3e
       -0.009304862 0.17917293 0.20979412 0.1376672
0001a0 f7 55 72 3e 7b 2b 50 3e 50 64 af 3d be 8f a3 bd
       0.23665605 0.20329086 0.08564055 -0.07986401
0001b0 86 97 11 3d ca 10 59 be ff f1 8e 3e 7a 76 de 3e
       0.035544895 -0.21197811 0.27919003 0.43449765
0001c0 60 d5 0e 3f b8 17 26 3e c6 ac 25 be 0e b2 7d 3e
       0.55794334 0.16219985 -0.16179189 0.24774954
0001d0 34 e9 76 be de bd d5 3d f1 aa ac bc b4 31 45 3b
       -0.24112397 0.10436605 -0.021077605 0.003008944
0001e0 fe d3 44 3e df e6 11 3e e0 89 3d be 17 4f 58 3e
       0.19221494 0.14248227 -0.18509626 0.2112392
0001f0 47 b3 b0 bd b9 ae 23 3d 41 ed 85 3e f2 eb eb be
       -0.086279444 0.03996155 0.26157573 -0.4607845
000200 b9 9f e1 bb 01 be 51 be 27 30 da bd ae 8c e3 bd
       -0.0068854955 -0.20482637 -0.106537156 -0.11110817
000210 74 b2 c1 bd 40 2b 5a 3e 76 31 b9 3d 31 2d dc 3e
       -0.09457865 0.21305561 0.09042637 0.43003228
000220 50 da 79 3e c0 41 6e 3e 5c 61 2c bd de 2e 8f 3e
       0.24399686 0.23267269 -0.042085037 0.27965444
000230 86 bc 07 3e f3 d5 01 ba 5e 46 62 3e f0 d3 4f 3e
       0.1325551 -0.00049528404 0.22097155 0.20295691
000240 22 22 21 be 80 b4 7f 3e fc 89 01 be d2 1b 2a 3e
       -0.15735677 0.24971199 -0.12650293 0.16612175
000250 8b bd f5 3c a1 90 ff bd 2a 82 29 be e4 d4 eb be
       0.029997608 -0.12478758 -0.1655356 -0.4606086
000260 46 1c 50 be b7 86 5c 3d a2 81 e1 3d 6d 1d 9b bd
       -0.20323285 0.05383941 0.110110536 -0.07573972
000270 81 fa e4 be b7 4c 94 be d1 6f e1 3d c3 e1 a3 3c
       -0.4472237 -0.2896478 0.110076554 0.020005113
000280 6a ac 64 3d 49 c8 d4 3e 3b 52 9f be 05 a5 23 3e
       0.05582849 0.41559055 -0.31117424 0.15980919
000290 e0 cb c5 be 6e fa 3a be c5 e5 ab be 6b 16 b4 3e
       -0.38632107 -0.18259594 -0.33573738 0.35173354
0002a0 6b 50 9c be 9a 32 e3 3d 88 3a 10 3e de 7e 97 3e
       -0.30530104 0.11093636 0.14084828 0.2958898
0002b0 c8 73 54 be 86 4f 07 be 24 b9 e4 bb 6b 1a 02 3e
       -0.20747292 -0.1321393 -0.0069800783 0.1270539
0002c0 fa e5 b7 3e 86 94 58 3d 26 0d 05 bc 7f c4 e7 3e
       0.35917646 0.052876018 -0.008120811 0.45267102
0002d0 98 d8 e5 3d e8 6a 86 be b1 71 63 be d0 c6 29 be
       0.112229526 -0.26253438 -0.22211339 -0.16579747
0002e0 f0 00 08 be 4f fb 84 3e 55 16 f0 bd 10 d9 ef be
       -0.13281608 0.25972983 -0.117230095 -0.46845293
0002f0 07 de 0a bb 9d b3 e4 3b fe 74 27 be 33 f6 9f 3e
       -0.0021189468 0.0069794194 -0.16353223 0.31242523
000300 a4 03 82 be 37 f6 6a 3e e7 36 52 3e c7 57 51 be
       -0.25393403 0.22945486 0.20528756 -0.2044364
000310 db 91 f5 ba 23 9e 23 bd 98 9b 10 3e 4e ab 8e 3e
       -0.0018735485 -0.039945733 0.14121854 0.2786507
000320 a8 26 c0 be f3 d9 26 be a0 e2 62 be 32 c4 01 3e
       -0.37529492 -0.16294079 -0.22156763 0.12672499
000330 d5 60 c5 bd 83 00 0c be be 2d 9d 3e 26 fd 9e be
       -0.0963761 -0.1367207 0.3069896 -0.31052512
000340 92 61 64 be 38 af 8b be 31 29 67 3e db 36 b7 be
       -0.22302845 -0.2728212 0.22574307 -0.3578404
000350 0c 5f bb bc 95 2e 42 3e 68 7c 76 be b1 31 ef 3e
       -0.02287247 0.18963082 -0.24070895 0.467176
000360 b5 1a 01 3f 7a 9c 90 be de 22 f8 bd 90 00 2d be
       0.50431377 -0.28244382 -0.121160254 -0.16894746
000370 93 bc ff 3d 6f c7 be bc 37 a4 af 3e f1 eb 9d 3d
       0.124871396 -0.023288457 0.34304973 0.07711018
000380 b6 d2 a4 bc 60 07 2c 3e 85 d5 a3 bd 38 d0 e5 bd
       -0.020120006 0.16799688 -0.0799971 -0.11221355
000390 c2 a3 9f ba ec 6e f2 bd aa e5 fe bd 39 9b 2b bd
       -0.0012179541 -0.11837563 -0.12446149 -0.04189608
0003a0 bc 92 9f 3d 22 aa ac 3d 25 5c c4 3e 3d 8c 95 be
       0.07791659 0.08430888 0.3835155 -0.29208556
0003b0 f5 0b f3 3e b2 b3 3e be 36 b8 93 3e 6a a2 54 3f
       0.4747006 -0.18623236 0.2885148 0.83060324
0003c0 40 de c1 be 05 72 72 3e ef e2 58 3e 74 fc 5c be
       -0.37864876 0.23676307 0.21180318 -0.21580678
0003d0 6d 65 95 be 3c d6 72 be 14 82 05 3e 5f 55 2b 3e
       -0.29178944 -0.23714536 0.13037902 0.16731785
0003e0 c7 88 cc 3d 4d 1e 8c 3d e0 21 ab bc 3d d5 2c 3f
       0.09987026 0.06841717 -0.020890176 0.67512876
0003f0 c4 0a 5c be 0b 1e 94 3e 16 6e d9 3e 01 1e 1b bd
       -0.21488482 0.2892917 0.424668 -0.03787041

bias f4 [17]
000000 c1 ca c8 3c bf b6 e7 3d e2 4a 22 3e 98 4a 51 bd
       0.024510743 0.11314153 0.15848878 -0.05109653
000010 98 ba e7 bd bd 9f d9 bd a0 ea 36 3e 4f 6d 20 be
       -0.11314887 -0.10626171 0.1786294 -0.15666698
000020 7b dd d1 3d a4 f0 64 3d 75 97 52 be f4 45 54 bd
       0.10247322 0.055893555 -0.20565589 -0.051824525
000030 26 e7 1b 3e e6 ef 1b 3e 98 4e 1e be 75 9a c4 3c
       0.15224895 0.15228233 -0.15459669 0.023999432
000040 8e 4a 01 bd
       -0.03156524
