models/weighted/a17lds17b0.006g1.0d1.0h13fold0e 9.pt (torch, 118612 bytes, 26 tensors)

weight_ih_l0 f4 [52, 4]
00000000: 33f5 da3d f9af 3ebe 768f 7bbe e4b3 d53d
00000010: 1c23 5f3d 2e33 133e 6de9 dfbe 2068 65bc
00000020: bd26 c5bd 1557 90bd f8bb 2b3d b599 743d
00000030: fc1c b73c d783 71be 39bf f8bd 97d6 353d
00000040: b703 babe 4890 7f3e 8b17 1b3e db84 eebe
00000050: 5174 913e c427 bdbd 0c44 d23d 3682 43be
00000060: 1db1 73bd f79d 2c3e 8da7 2e3e 96f6 b6bd
00000070: 8826 563e 8b3a b63e 7025 3a3d 688f e23d
00000080: 11ba 8f3e 47fe 5dbe 16a5 b7bd c173 fa3d
00000090: 31e3 cc3d 449b 733d 9085 c73b a548 8b3e
000000a0: 02f9 12bf 19b7 5a3e b10f 5a3c 9182 8d3d
000000b0: d560 773d ec03 3fbd 2d8f 293e 8fce 6e3d
000000c0: 52c3 b3bd 7954 a1bd 51da ec3d c3b9 9fbd
000000d0: 68dd 6d3d db78 263e d79e 4d3e 66d5 10be
000000e0: ec8d 7bbd 1c7c 023e e00c 53be 04a5 f83d
000000f0: 81c4 353e c2aa 52be 67f5 eb3d e060 413e
00000100: bf95 e3bd 040c e33d e4a1 41be 008d 3e3e
00000110: 379d f93c 997f 5abd dfe9 d73d 0b60 92bd
00000120: 83a4 1dbe 682d b63d 2ee3 23bc 81a1 de3e
00000130: fef6 0d3d f14e 67bd ffe3 66be d286 c83d
00000140: 45dd ab3d 2817 0b3d 8448 633d 1f26 943c
00000150: 1fce bd3e 8c76 363e 8227 49be bb6f 05be
00000160: a173 54be a181 b5bd a7f3 b63e 7afc 2e3e
00000170: 17b9 43be 79c6 0b3d 327d 743e 058b 21be
00000180: 0f8c 2e3d 29e3 b3be 8c2c 803c 9737 f2bd
00000190: 01ca b6bd 190f fd3d a338 333e 21b2 b83e
000001a0: eb01 b73d fc3d bdbd f9aa 873e 6e98 683c
000001b0: e646 6abe 021c 39be cfa1 c93d 2f51 8abe
000001c0: b0e0 5abe ae72 5abe ed33 12bd c7ee 173c
000001d0: 1c7c b83d 2da5 e43d 9384 6bbe 059a 00bd
000001e0: 85d1 563e c835 343e 65a5 273e 2821 a3be
000001f0: 7bca b1bd 7603 aa3e 4ed8 85bd 892f 97ba
00000200: 5cbc 803e c94c a83e 17be 2dbb 767b 4cbe
00000210: e0f6 2ebe 5177 7dbc 2828 1d3e d235 e33e
00000220: 7d02 443e c151 e7bd 1ac2 fa3d a6f5 12bf
00000230: fb84 403c 6c88 88be 0f5c df3c bd70 763d
00000240: e7bb 843e 38b1 4f3d 41ea 6bbb bdae 10bd
00000250: dd59 a13d 9187 0ebd 4285 0e3c 7afc 063e
00000260: 3525 fc3d 939e 6f3e b922 88be 5cdf 983e
00000270: 9e67 15be 9e89 79bd 5c4f 4c3a cebe 373e
00000280: 187a a03e f343 9cbe eb64 a2be f6fb 3abe
00000290: 014b 2bbe 3832 ddbd 8727 813e cc71 3c3e
000002a0: a043 e7bd 782c d23d 6500 f0be 0064 5dbe
000002b0: 3c52 8abe 430a 3e3d a474 85be 2dbc 8fbd
000002c0: 065e b1bc 1e71 853d 8014 20be a550 23be
000002d0: 9644 633c ae40 c0be d899 da3b 0375 2a3e
000002e0: ee1f 03bd 2b76 ae3e b8d0 03bd 87fa 3c3d
000002f0: 4496 3b3e 98ad 013d de03 d4bd b873 303e
00000300: 4a23 a53e dae2 1dbe 4876 2fbe c4f7 703e
00000310: 1322 393e 4982 f13c 40f8 64bd 9cc0 c83b
00000320: 9edf 04be 54f9 433d 7efb bcbe dc21 dfbd
00000330: 9f72 d43d 82e6 fe3d 188c 843e 2101 49be
0.10691299 -0.18621816 -0.24566445 0.10434702 0.054476842 0.14374992 -0.43732777 -0.014001876
-0.09626529 -0.070478596 0.041927308 0.0597169 0.022352688 -0.23585449 -0.12145848 0.044394102
-0.3633096 0.24957383 0.151457 -0.46585736 0.28409055 -0.092361 0.10266885 -0.1909264
-0.05949508 0.16857134 0.17056103 -0.08933751 0.20913136 0.3559154 0.04544586 0.11062509
0.28071645 -0.2167903 -0.089670345 0.122291096 0.10004271 0.059474245 0.00608892 0.2720386
-0.57411206 0.21358909 0.013309405 0.06909669 0.06039508 -0.0466346 0.16558523 0.05830246
-0.08777489 -0.0787744 0.11565078 -0.07799103 0.058072478 0.1625704 0.20080124 -0.14143905
-0.061414644 0.12742656 -0.2061038 0.12140849 0.17750742 -0.20572951 0.11521416 0.18884611
-0.11112546 0.11086276 -0.18909413 0.18608475 0.030470474 -0.053344343 0.10542654 -0.07147225
-0.15394787 0.08895379 -0.010002894 0.43482593 0.03465938 -0.05647177 -0.22547911 0.0979134
0.08391813 0.03395763 0.05548908 0.018084584 0.3707132 0.1781866 -0.19643977 -0.13030903
-0.20747234 -0.088626154 0.35732767 0.170885 -0.19113575 0.034124825 0.23875883 -0.15775688
0.04261404 -0.35134247 0.015646242 -0.11827009 -0.08925248 0.12356395 0.17502074 0.36073402
0.08935913 -0.09240338 0.2649763 0.014196498 -0.22878608 -0.1807709 0.09845316 -0.27015063
-0.21374774 -0.2133281 -0.03569405 0.009273238 0.09008047 0.11164317 -0.22999792 -0.031396884
0.20978363 0.17598641 0.16371687 -0.31861234 -0.08681198 0.33205765 -0.065353975 -0.0011534552
0.25143707 0.32871082 -0.0026511007 -0.19968972 -0.17086363 -0.015470342 0.1534735 0.44377
0.19141574 -0.1129489 0.12244053 -0.5740608 0.011750455 -0.26666582 0.027265577 0.06016611
0.25924608 0.05070612 -0.003599778 -0.035322893 0.07878468 -0.034797255 0.008698763 0.1318225
0.12311784 0.23400335 -0.2658899 0.2985791 -0.14590308 -0.060922258 0.0007793808 0.1794388
0.3134315 -0.3052059 -0.3171762 -0.18260178 -0.1672783 -0.10800594 0.2522547 0.18402785
-0.11292195 0.10262388 -0.468753 -0.21620178 -0.27015865 0.046396505 -0.26065552 -0.070183136
-0.02165128 0.06515716 -0.1563282 -0.15948732 0.013871333 -0.37549347 0.0066711716 0.16646199
-0.032012872 0.3407453 -0.03218147 0.04613736 0.1831904 0.031659693 -0.103523 0.17231643
0.32253486 -0.15418568 -0.17134964 0.23532015 0.18079405 0.02948107 -0.055900812 0.0061264765
-0.12975928 0.0478452 -0.36910623 -0.1089513 0.10373425 0.124463096 0.25888133 -0.19629337

weight_hh_l0 f4 [52, 13]
00000000: 4699 473c de2f 6cbe cfc1 393d 5c3a b93b
00000010: 6b50 babd 453c 5e3d 8f2c 6c3e a1c4 9cbe
00000020: b319 56bd 78e0 f6bd 3ec9 a8bd fda3 75bc
00000030: c0a8 913c 63dc 653d bf53 0ebe 895c bc3e
00000040: 11a6 03bd e3a8 533e aa5c 73be b87e 653d
00000050: ff6d 60be d155 63be 5a4f 083a 5199 523d
00000060: a2b3 7c3d 8b0b 90be 1da1 4bbe d8f6 cebd
00000070: a41d c8bd f2e2 473d ee80 51be f462 b1bd
00000080: 0457 84be b22d 183e 9ada b83e b45e ebbc
00000090: a0fe 98bc b1fc 4f3e fded 373e 82ba cbbd
000000a0: 0c35 28bd 49e5 c63d 4269 623d 6a95 283e
000000b0: bd0c c73c 6132 3dbc 31ea 283e 4cc4 1ebc
000000c0: 5511 863e fc72 f5bc 907a 9ebd a71e 92be
000000d0: 26c0 d2bd 17a2 93be 8d38 84be f6bf 733d
000000e0: bc96 d13c 4332 84bd 3286 893d 1eaf 31bd
000000f0: 2418 83bc f181 fe3d eaf9 673d c870 9ebd
00000100: 2bad 1f3d d4c3 9cbd 2883 a53d 7ec3 80bd
00000110: 9b41 293e c4d8 d63a 8896 683d 0948 5a3e
00000120: 644c c53e 0b73 a1bd a0de 163e 7c74 c6bc
00000130: b5a6 683e 6dbb dbbd 0ec0 bebe cd6c 2f3e
00000140: 4c2b 643e 3f58 0cbd 68f6 823e 818c ba3e
00000150: 5ace fc3d 9c3a 2cbd f9a4 113d 8f28 e2bc
00000160: 4f04 b1be 0c39 24be a452 f33d f2de 7e3e
00000170: a6b1 c9bd 538b 2e3e c8b9 91bc a915 3fbe
00000180: a6cc bfbd 0d0a 55bd 96f6 12bf 2df6 843e
00000190: f038 b9bd eb88 1abe d6de b1be ef95 90bd
000001a0: 7b18 ff3d a5b8 153e bc81 e73d e828 b53c
000001b0: 1956 283e 9cd7 0cbd 0c26 403e 8c11 8cbd
000001c0: c2c6 063e 2aae 3c3e 2c74 573e 5701 a1be
000001d0: 59e6 88be 8608 9a3d f7aa 4bbe 498a e6bc
000001e0: 76f8 2abe 75ba 473d 8cec cebd 92e5 0a3e
000001f0: 9874 5ebe fcfd 583e 1f58 a43d 2595 a93e
00000200: 9b9f bcbd 6323 8e3d b203 e4bc ff41 4abd
00000210: 63d0 333d 13f4 8abe 52c5 053e 221f 283e
00000220: e07a 5fbe c3e9 17bd 79be 94be c3b9 273f
00000230: ff2f 633e a129 d43d 8a16 c5bc 61fa 26be
00000240: 23cd 83bd 607e 7c3d ca5a 12be 8470 753d
00000250: fa56 25be 4ed4 79bd f8f6 1ebe d7e9 c53d
00000260: 00b1 983d a166 28be 10dc 583a 7dce 83bd
00000270: 94ed ebbd 789e 9c3d 1313 a5bd 82a6 4dbe
00000280: 1d4a 82be d2d7 d6bd 8479 053e ec5b 653e
00000290: 9ca3 a2bd afd3 a6bb e1e4 a33e 7c3a 6c3e
000002a0: 0ee3 da3d 9084 a53c 0d81 22bd d98b f53d
000002b0: 5dbb 1e3e 0616 bfbd 2b9e 7e3d b692 683d
000002c0: 0362 473e 6067 b639 d88f 563e 2fca f5bd
000002d0: 6ebe 41be eb40 4ebd 5572 9cbd 2380 e2bd
000002e0: acc0 30be fc13 2a3e 3a3b d3ba 4aa3 97be
000002f0: 7e4c 123e a8b2 8d3e ace9 30be 446d d73e
00000300: cae3 883e 0977 c8bd 5aa1 1cbd 2021 7e3c
00000310: beb1 febd 1c0f d63e a079 8cbe 931d fdbd
00000320: 183e 2a3d 154e 9f3d 967e afbd bc1f 55bd
00000330: b928 173e a326 e53d 255c 533e 6c68 4bbe
00000340: 597b f13d 728d 993e c0f9 b43d 2610 cebd
00000350: 127d 2dbe b963 7b3e 71ea 86bd e2fe 03bb
00000360: 8603 a5bd e60d 123e 0e69 1c3e 9f5d a83c
00000370: e297 bcbd ed62 99bd da12 a2bc de6a 5f3e
00000380: b23e 7cbe e794 41be 82e2 0dbe 3a84 43bd
00000390: 30b2 713e e299 89be 8f16 adbe 8143 d1bd
000003a0: ba67 0d3e b2e4 85be 900f bd3d 2164 513e
000003b0: c6bd 553e b1cb a7bd b663 4c3d 4cba 7e3e
000003c0: bbbc f6bd 7fdd cb3c 1854 463d 7d10 b63d
000003d0: 9df4 823e d5d8 503e a99f b73e ad15 31bc
000003e0: 3f6f a7be a59f 75be c08a a8bd 6392 593e
000003f0: c1cb 83be a1d6 e93d af20 5d3e 76ac ec3c
0.012182539 -0.23065135 0.045350846 0.005652709 -0.0909737 0.054256696 0.23063873 -0.30618766
-0.052270602 -0.12054533 -0.08241509 -0.014992711 0.017780662 0.05611838 -0.13899134 0.3678935
-0.032140795 0.20669894 -0.23765817 0.05602905 -0.2191696 -0.22200705 0.00051998126 0.051415745
0.06169475 -0.28133807 -0.19885679 -0.101056755 -0.097712785 0.048800416 -0.20459339 -0.08661452
-0.25847638 0.14861181 0.3610428 -0.028731681 -0.018676102 0.20311238 0.17961879 -0.09947683
-0.041066214 0.097117014 0.055276163 0.16463247 0.024298066 -0.011547656 0.16495587 -0.0096903555
0.26185098 -0.029962055 -0.07738221 -0.2853901 -0.10290556 -0.28834602 -0.25824395 0.05950924
0.025584571 -0.06454899 0.06715049 -0.043379895 -0.016002722 0.12427128 0.05663482 -0.07736355
0.038983505 -0.07654539 0.08081657 -0.06287287 0.16528933 0.0016391505 0.056784183 0.21316542
0.38534844 -0.07883271 0.14733362 -0.024225466 0.22719844 -0.10729108 -0.372559 0.17131348
0.22282141 -0.034263846 0.25578618 0.3643532 0.12344046 -0.04204808 0.03555772 -0.02760723
-0.345736 -0.16037387 0.11880997 0.24889734 -0.09848337 0.17045335 -0.017788783 -0.18660606
-0.093652055 -0.05201154 -0.5740751 0.25969067 -0.09044063 -0.15091293 -0.34740323 -0.070598476
0.12455841 0.14621218 0.11304042 0.022114232 0.16439094 -0.03438531 0.18764514 -0.06839284
0.13161758 0.18425813 0.2104041 -0.31446335 -0.2673824 0.07521157 -0.19889437 -0.028142111
-0.16696343 0.048761804 -0.101037115 0.13564137 -0.21724164 0.21190637 0.0802462 0.331216
-0.0921013 0.06940343 -0.027833793 -0.049379345 0.043899905 -0.2713934 0.13063553 0.16418126
-0.21824217 -0.037088167 -0.2905157 0.65517825 0.22186278 0.103595026 -0.024058599 -0.1630645
-0.06435611 0.061643958 -0.14292446 0.059921756 -0.1614646 -0.060993485 -0.15523899 0.09663742
0.07455635 -0.164454 0.0008272538 -0.06435869 -0.11519924 0.07647413 -0.08060279 -0.20083049
-0.2544717 -0.10490383 0.13034636 0.22398347 -0.07941362 -0.0050911526 0.32010558 0.23069185
0.106878385 0.020204812 -0.039673854 0.119895644 0.15501161 -0.093303725 0.06216256 0.05678054
0.19470982 0.00034790765 0.2095331 -0.12001454 -0.189203 -0.05035488 -0.076389946 -0.110595964
-0.17260998 0.16609186 -0.0016115673 -0.29616767 0.14286992 0.27675366 -0.17276639 0.4207555
0.2673629 -0.09788329 -0.038239814 0.015510827 -0.124362454 0.41808403 -0.27436543 -0.123591565
0.041563123 0.07778565 -0.08569066 -0.052032217 0.14761628 0.1118901 0.20640619 -0.19864053
0.11791105 0.29990727 0.088366985 -0.10061674 -0.16942242 0.2454976 -0.06587685 -0.0020140936
-0.08057313 0.14263114 0.1527445 0.020552455 -0.09208657 -0.07489572 -0.01978438 0.2181811
-0.24633291 -0.18904458 -0.13855937 -0.047733523 0.2360313 -0.26875216 -0.33806273 -0.102179535
0.138091 -0.26151043 0.09231484 0.20448352 0.20873174 -0.08193148 0.04989978 0.24875754
-0.12047716 0.024885891 0.04842004 0.08889864 0.2557725 0.20395215 0.35864 -0.010808391
-0.32702062 -0.23986681 -0.082295895 0.21247248 -0.2574139 0.1141789 0.21594499 0.02889083

bias_ih_l0 f4 [52]
00000000: b26d 303e 7383 0bbe 7eed 56be ed62 d83d
00000010: 2f28 0f3d a625 863e 0689 493e 7db5 f2bc
00000020: 79e1 0a3e c286 213e 0827 41be adc1 77be
00000030: b6dc 1c3e f8d5 b6bd 4203 c83d c51a 873d
00000040: c13d 3d3e c373 893e 5b41 68be f951 b7bd
00000050: 50ca f23c 77e7 5bbd a53a f33c 65b3 25be
00000060: a3a5 a0bd 814f 733e 4c3b 5ebd 778b 62be
00000070: 22de c33d 6450 3abe 8302 0d3e 672e f1bd
00000080: e024 6bbe 6f6e a53d 7b10 3b3e 8f4d 39be
00000090: 7613 b13d 35a7 2dbe 2955 7d3e 5cfd e73c
000000a0: b8d4 07be 1f1f 8fbd 1c0d 953c b2f5 67be
000000b0: 0fc3 cfbd e479 14be 4095 d5bd 4b8d 0b3e
000000c0: 4ebe cb3c 4a94 153e 4dc3 89be 5dfb 2a3e
0.17229345 -0.13624363 -0.20989034 0.105657436 0.03495043 0.26200598 0.19681177 -0.029627556
0.13562573 0.15774062 -0.18862545 -0.24194975 0.1531857 -0.0892753 0.097662464 0.06596903
0.18480588 0.26846132 -0.22681181 -0.08951182 0.029637486 -0.05368754 0.02969105 -0.16181715
-0.07844093 0.23760797 -0.05425577 -0.22123514 0.09563853 -0.18194729 0.1377049 -0.11776429
-0.22963285 0.08077704 0.18268006 -0.18095993 0.0864629 -0.16958316 0.24739517 0.028319053
-0.1326474 -0.06988358 0.018194728 -0.22652319 -0.10144626 -0.14499623 -0.10428858 0.13628118
0.024871018 0.14607349 -0.26906815 0.1669745

bias_hh_l0 f4 [52]
00000000: a578 443e e07e 203e b3e1 fd3c 8cf7 13be
00000010: 98b9 b43c fb97 4bbe eb7d 32be c1bd 4f3e
00000020: 57a2 74be 2274 14be fa14 893e e83f 3f3e
00000030: 3178 04be 37e1 80be e085 19be 6f27 dfbc
00000040: b5ec 3f3e 242d 533e 4c78 743d c1f8 4fbe
00000050: 9bd9 893e 4e10 4e3e 589d 78be 0889 333e
00000060: d9f0 f6bc 22d9 56be 5b79 87bd cc0f bcbd
00000070: 6fa9 853e e6c2 833e ac4c a3bd d60c 72be
00000080: 0252 72be dd5f 2d3e e7a0 333d a7a9 ac3d
00000090: 6062 44bd 7fbc c8bc 57d5 3f3e b1eb b1bd
000000a0: e888 cc3c 7779 0bbe 70ff c53d 3466 923d
000000b0: 0121 83bb b333 20bb 2df8 88be adfb 6e3e
000000c0: 26cc 0a3c dedf 44be 19d3 863e 75dc 263e
0.19186647 0.15673399 0.03099141 -0.144499 0.022061154 -0.19882195 -0.17430846 0.20287229
-0.23890053 -0.14497426 0.26773816 0.18676722 -0.12936474 -0.25171825 -0.14992476 -0.027240483
0.1874264 0.20622689 0.059685037 -0.20309736 0.26923832 0.20123407 -0.24278772 0.17532742
-0.030144142 -0.20981267 -0.066149436 -0.091827005 0.2610583 0.25734633 -0.079736084 -0.23637709
-0.23664096 0.169311 0.04385462 0.08430796 -0.04794538 -0.024503944 0.18733726 -0.08687533
0.024967626 -0.13620554 0.096678615 0.071484 -0.004001737 -0.0024444878 -0.26751843 0.23338194
0.008471524 -0.19226024 0.2633293 0.16295035

weight_ih_l0_reverse f4 [52, 4]
00000000: c35e b3bb 3448 e83a 0422 1cbd f0f2 b33e
00000010: 9e68 0dbe 30da f53d 03dc bc3e c549 99be
00000020: e748 c6bd e740 1cbe 58f6 18be 3150 cc3d
00000030: 88bb 963e 92e5 8f3d df57 54bd b325 0fbd
00000040: bd07 6f3e b46b c4be 8569 d8bd 19a5 c73d
00000050: ef18 a83c b88a 66be 56d1 323e 5690 b43d
00000060: 16cf 8bbd 9762 023d b8a8 0c3f 9f96 21be
00000070: 1f81 ce3d 9564 c13e 799d 80be 8921 00be
00000080: 5cd4 5cbd 81ae 1cbd 5396 96bd 7ca9 943e
00000090: 1ed4 9e3e 393f 6c3e 89bf 46bc fff1 203e
000000a0: 44a7 21bd 96df 1cbe 1df0 ae3e b096 44bd
000000b0: 84b2 4f3e 341e 933c 72bf 4fbe 8b60 ad3d
000000c0: 9dc3 6a3e 2226 d33c e1be 0abe 3744 2a3e
000000d0: c2d8 f6bb dd2f b43d 9e84 9c3d 24ee df3d
000000e0: 356c f13e a384 3d3d 1111 603d da2f bbbc
000000f0: 1976 403d 7de5 b73e 5039 9fbe 8a57 f73c
00000100: 4d82 023e 2c02 be3d e991 113e ea57 493e
00000110: ddac c03c 98ca 58be c360 90be 4370 70be
00000120: daa3 0e3d 4b0a 93be f7d3 e7bc 7c88 0e3e
00000130: 60d2 1cbe 3a90 41bd 8d3c 08bd 6cce e83d
00000140: 208b fb3e 6542 66be 22ca 843e cfb7 a7be
00000150: e51f 883c 0533 43bc 7dba 483e 4e02 093e
00000160: a59d 49bd 8228 e6bc 2d55 043e 7e48 adbe
00000170: 0abb a03e 34e9 5abe 5318 033e fe68 6ebd
00000180: 55d0 923d ba9d 46bd 5ace 133e 6756 0fbe
00000190: d9ee cd3d d3a0 53bd 6575 613e 6f1f aa3d
000001a0: 6382 803e 91c2 7f3d 5066 a03d 97dc 7d3e
000001b0: 5d41 a1bd 8ce7 93be cfd6 7bbd 44e8 073d
000001c0: 6947 96be b2b0 5e3d 33ce 863e 7a2f 4dbd
000001d0: 83f3 7f3e 80e0 e73d a869 7f3d a23f 4cbe
000001e0: 9f52 933e 691d 4ebd 2076 a4bd 8cd6 883e
000001f0: 5e76 02be da52 243e ab01 063e ff79 e9ba
00000200: 3446 eebd dbb1 9fbe cf06 8dbd d89f 823c
00000210: 2935 213d d367 16be e6f2 e9bc b3c7 c7be
00000220: f2db 053e f2f6 243d 8f95 ad3d dd5b 873b
00000230: fc49 883e b70f 28be 07ee ac3e f486 24bb
00000240: c1c4 0cbe 8195 163d 2719 2fbe e918 1d3e
00000250: 82f8 103c 5cd8 803e f224 bdbd 4123 43be
00000260: 5d59 09be 1570 923d 1e20 b4bd 32fc eebe
00000270: b214 83bd a998 d73d 61a3 aabd f78e 913d
00000280: 5422 393e 639c a43d d492 423e 36e6 94bd
00000290: 10b4 17be 23a7 20be 2889 debd fbfc 7cbb
000002a0: 5d41 a73d 450f 80be 2dfa 53be 2a55 a6bd
000002b0: 8efa 5fbe d353 75be 8283 893d e825 c83d
000002c0: 8163 ecbe 5255 3bbd 692a 523b b9c2 d63d
000002d0: 9ced 843c 2d3c ccbd a1c9 b43e 229e d73d
000002e0: ba5e 153e 7f5d 1ebd d9bc bdbd 8792 f73c
000002f0: 3413 91be d871 dabd d1fd 8e3d af17 923d
00000300: 4d0b b5bd 9a06 b1be 5f78 dfbd 2ba3 72be
00000310: 0435 1e3c c850 693c f7a1 0fbd 2d19 46bc
00000320: 064a 7bbe 99b1 093d bb84 df3d 2598 4fbe
00000330: a2aa 90bd 0194 c13b 31c0 973e 5052 6b3e
-0.005473943 0.0017721714 -0.038118377 0.35146284 -0.1380944 0.120045066 0.36886606 -0.29939094
-0.09681874 -0.15259133 -0.14937723 0.09976233 0.2943995 0.07026209 -0.051841613 -0.034948062
0.23342796 -0.3836342 -0.10567001 0.09748287 0.020519702 -0.22513855 0.17462668 0.088165924
-0.06826608 0.031832304 0.54944944 -0.15780114 0.10083222 0.3777205 -0.25120142 -0.12512793
-0.05391346 -0.038252357 -0.07352891 0.29035556 0.31021208 0.23070993 -0.0121306265 0.15717314
-0.039466158 -0.15319666 0.34167567 -0.04799527 0.20282942 0.017958738 -0.20287874 0.0846568
0.22926183 0.02577502 -0.13549377 0.16627584 -0.0075331638 0.08798192 0.07642482 0.109340936
0.47152868 0.04626907 0.054703776 -0.022849966 0.046987627 0.35917273 -0.31098413 0.030193109
0.12745018 0.09277758 0.14215817 0.19662443 0.023519928 -0.21171033 -0.28198823 -0.23480324
0.03482423 -0.2871879 -0.028299315 0.13919252 -0.15314627 -0.047256686 -0.03326087 0.11367497
0.4912958 -0.22486265 0.25935465 -0.32757422 0.016616771 -0.0119140195 0.1960239 0.13379785
-0.049222607 -0.028095488 0.12923117 -0.3384437 0.313927 -0.21378022 0.12802248 -0.058205597
0.071686424 -0.048490264 0.14434186 -0.13997804 0.10055322 -0.051667046 0.22017439 0.08306777
0.25099477 0.062441412 0.078320146 0.2479118 -0.07873795 -0.28887594 -0.061484154 0.03318049
-0.29351357 0.05436773 0.26329193 -0.050094105 0.24995236 0.11322117 0.06235662 -0.19946149
0.28773972 -0.050321016 -0.08030343 0.26726186 -0.12740466 0.1604723 0.13086574 -0.0017812847
-0.11634484 -0.3119038 -0.06886064 0.01594536 0.039357338 -0.14688043 -0.028558206 -0.39019546
0.13072184 0.040274568 0.08475792 0.004130824 0.26618946 -0.16412245 0.3377535 -0.0025104852
-0.1374693 0.03676367 -0.17099439 0.15341534 0.008848311 0.2516507 -0.092355624 -0.19056417
-0.13412996 0.07150284 -0.08795188 -0.46676785 -0.06400432 0.105271645 -0.08331943 0.071073465
0.18079501 0.08037641 0.19001323 -0.07270472 -0.14814782 -0.15688758 -0.10866004 -0.0038602937
0.08166764 -0.2501165 -0.20700903 -0.081217125 -0.21872923 -0.23957758 0.06714536 0.09772855
-0.46169665 -0.045735665 0.0032068735 0.10486359 0.016226582 -0.09972415 0.3531008 0.10528208
0.14586917 -0.038663384 -0.092645355 0.030221237 -0.28334963 -0.10666245 0.069820054 0.071334235
-0.08840046 -0.3457535 -0.10911631 -0.23695056 0.009656195 0.014240451 -0.03506657 -0.012090963
-0.24539956 0.033616636 0.10913988 -0.20272882 -0.070637956 0.005907536 0.29638818 0.22980618

weight_hh_l0_reverse f4 [52, 13]
00000000: 82d9 233e 67cd 923d eda7 3b3e bb1b fdbc
00000010: 1aa7 08bd 173e 94be c059 bb3d 2839 a13d
00000020: b54c 0c3e 7f2e 3fbe c4c7 94be 78ff 04bd
00000030: e1ba d7bc 4765 93bd 39e0 a33c 6cf4 2dbd
00000040: 444d f2bd 93bc c43d c929 1a3d 6769 053e
00000050: 6a1f 0dbd e6ed fdbc 6d7e 8dbe 89ef 2a3c
00000060: bf38 043d 949c 183e 182b 893d 5ac5 02be
00000070: c2b0 193e 2da3 efbd 61a4 83bd 07a5 98be
00000080: 1ed0 8ebe 8561 68bd fb82 f03e 2413 9dbd
00000090: c844 8abe 58c8 663e 3031 67be bc5f 303e
000000a0: fed8 863e 0c3b 5d3e 599c d9bb c1bb a63d
000000b0: 8eee 02be bf58 28be 9103 57be 13a8 083e
000000c0: b11e 363d 7ce8 703c 50c7 c3be 8ad7 af3e
000000d0: 895a a9bd 760b 9cbd e182 393d 7a0f 013e
000000e0: 4520 5bbe 7495 46be cacc e2bd a85a 48bd
000000f0: 4ee4 2d3e 027b 8c3e 02cb b13d e996 623b
00000100: 0490 753e 2d85 a3be 0464 ab3e 5597 42bc
00000110: 5d2c d7bd 3891 02be 4c40 16be 7860 9c3e
00000120: 7a36 a33d 5977 94be 0635 82bd 2bd1 07bd
00000130: e512 253e 067f 593e 28c6 363e e8fa 6b3c
00000140: 2490 7c3e 63fc 4fbd 151a ec3d fb39 88bd
00000150: a9e7 bbbd 5724 82be 8e1c d8bc ff37 6bbe
00000160: 8977 23bd c276 d4bd e1e5 353e 291d c6bd
00000170: 2590 9cbd 6efc 163e a246 febd 18a3 d13e
00000180: 0895 5a3a bd10 993e f055 b93e c9a5 73be
00000190: 10c3 d53d 4f7c dd3d ebd3 1abe ced2 dcba
000001a0: a928 ad3d f981 833d ca96 a53d a90d ee3d
000001b0: 14fb 81bd 0b6c 9bbd 00bc bc3e 1025 c83d
000001c0: de1d 9d3e 8204 293e 1d85 263d c4ec c4be
000001d0: 44e3 94bd 4b21 e8bd 070c c73d 0015 57bd
000001e0: ee8e 6a3d f985 c73d 07ee 9dbd f99a 4dbe
000001f0: 8ebb a9bd 22b5 94bd a2cc 5c3d 9fe1 253e
00000200: 0938 bcbe 773f 1abe 2e05 713e 8055 273c
00000210: a01c a1be 5d89 23be 7785 5c3e e0d3 063e
00000220: d7b5 eabb 5209 1b3e 084a 363d 1c1e 7abd
00000230: d5c1 18be f082 6dbd 848d 7cbd c6f1 ad3d
00000240: 3932 73be e5ec 1abe 3bf9 92be 58f6 37be
00000250: 8cd3 ae3e 488f c8bd bb6e 353e 4236 173d
00000260: f181 873e 2c65 ce3c b6ca babe ba15 48bd
00000270: 9656 1f3e a8cd 00be 205c 313e c0d8 bbbd
00000280: 6a3c 8cbe d22e 89be 241b 933e 4049 8a3c
00000290: a170 16be adef 21be 28be ffbd 9411 18be
000002a0: 5edb 953e 0c85 403e 7c53 a83c 1ef2 2b3e
000002b0: 4149 96be 78f3 193e 3da3 053e e7a7 123e
000002c0: fcfa 56bd 631a 8abd 4fe0 99bc f0fc ffbd
000002d0: 9b27 66bd 7dc6 4ebd 84a3 74bd 8d82 c13e
000002e0: 737f af3d 9ca1 a83e e79f 16bf f1b8 333d
000002f0: 4356 77be 25e8 b7bc d4b7 ff3d 4fce 51be
00000300: 89fe 33bb 9653 a8bd 2949 bf3c 9415 183e
00000310: fc2a 80bd be1a fe3d afa2 2d3e 08c5 20be
00000320: bab6 bdbe 2ac8 f63d 960f 0b3e f029 163c
00000330: a6f0 8f3c f70d 373e d59e 123e a75e a1bc
00000340: 4346 943e 58da eabc 2211 7cbe 92d1 643d
00000350: 746f 24be d3a2 70be 05a8 22be 1cd6 1a3d
00000360: 9d07 c03d 4801 963e fd4c 44be 9c44 75bd
00000370: 5b1f 9b3d 62e6 52be 810d e0be 2a59 cdbc
00000380: b737 20be 8792 95be ce2a 7a3e ff45 7abd
00000390: 4e77 df3d a627 aabd 462b ae3d cc9f 553d
000003a0: 6c9d 13be 54ed 47be ce44 01be ceb0 2abb
000003b0: 6e38 7a3e cd2e 64be 7b38 983e 6ec3 15be
000003c0: f68b 17be 445c 713b 0a4f 193e 7c32 203e
000003d0: 1eb9 503e 5652 6dbe 77e3 dabd 72f6 4d3e
000003e0: 7ec1 bfbb 04e9 963e cbc6 e73c a555 a23d
000003f0: bdfe dd3e 25a8 203e f6ef c53d 5507 79be
0.16000941 0.07168084 0.18325777 -0.030897012 -0.033362485 -0.2895362 0.09147978 0.0787223
0.13701136 -0.1867008 -0.2905866 -0.032470196 -0.026334228 -0.071970515 0.020004379 -0.042469427
-0.118311435 0.0960628 0.037637506 0.13028489 -0.034453787 -0.030997228 -0.27635518 0.010433086
0.03228068 0.1490348 0.066976726 -0.12770596 0.15008834 -0.11701045 -0.06427837 -0.29813406
-0.27893156 -0.056733627 0.4697493 -0.076696664 -0.270056 0.22537363 -0.22577357 0.1722402
0.26337427 0.21604556 -0.0066409525 0.0814128 -0.12786314 -0.16440104 -0.20997454 0.13345365
0.044462863 0.014703866 -0.38238 0.3434413 -0.08269221 -0.076193735 0.04529083 0.1260356
-0.21399029 -0.1939295 -0.11074217 -0.04891458 0.16981623 0.27437598 0.08681299 0.0034574813
0.23980719 -0.31937543 0.33474743 -0.011876901 -0.105065085 -0.12750709 -0.14672965 0.3054235
0.07969375 -0.28997305 -0.0635777 -0.033158462 0.16120489 0.21239862 0.17849028 0.014403082
0.2466436 -0.050777804 0.11528412 -0.06651684 -0.09175045 -0.2541835 -0.026380803 -0.2297058
-0.03990892 -0.10374214 0.17763473 -0.096735306 -0.07644681 0.14744732 -0.12415816 0.40944743
0.00083382474 0.29895583 0.36198378 -0.23793711 0.10437596 0.108147256 -0.15119903 -0.0016847493
0.08455021 0.06421275 0.08085401 0.11623699 -0.063467175 -0.07588967 0.36862183 0.09772694
0.3068685 0.16505626 0.04065429 -0.38461888 -0.0726991 -0.11334475 0.09719091 -0.05251026
0.057265215 0.0974235 -0.07711416 -0.20078649 -0.08287726 -0.07261111 0.05390609 0.16199349
-0.367615 -0.15063272 0.23537132 0.010213256 -0.31467152 -0.15970369 0.21535288 0.13166761
-0.0071627903 0.15140274 0.044504195 -0.06106387 -0.14917691 -0.0579862 -0.061658397 0.0849338
-0.23749627 -0.1512943 -0.28705773 -0.17965066 0.34145772 -0.09792954 0.17718022 0.03691698
0.26466325 0.025194727 -0.3648278 -0.048848845 0.15560374 -0.12578452 0.17320299 -0.09172201
-0.27389842 -0.26793534 0.28731644 0.016880631 -0.14691402 -0.15814085 -0.12487441 -0.14850456
0.29268926 0.18800753 0.020547621 0.16791579 -0.29352763 0.15034282 0.13050552 0.14321862
-0.05248545 -0.06743314 -0.018783716 -0.12499416 -0.056190114 -0.050482262 -0.059726253 0.37794915
0.08569231 0.32935798 -0.5883774 0.043877546 -0.24154 -0.022449562 0.12486234 -0.20488857
-0.0027464947 -0.08219068 0.023350315 0.14851981 -0.062581986 0.124074444 0.1695659 -0.15700161
-0.37053472 0.12049897 0.13580164 0.009165272 0.017570805 0.17876421 0.14318402 -0.019698454
0.28959855 -0.028668568 -0.2461591 0.055863924 -0.16058141 -0.23499613 -0.15884407 0.037801847
0.09376452 0.29297853 -0.19169994 -0.059879884 0.0757434 -0.20595697 -0.43760303 -0.02506693
-0.15646254 -0.29213354 0.24430391 -0.06110191 0.109114274 -0.083083436 0.085043475 0.052154347
-0.1441552 -0.19524127 -0.12623903 -0.0026045325 0.24435589 -0.22283478 0.2973059 -0.14625332
-0.14799485 0.0036828676 0.14971557 0.15644258 0.20383117 -0.2317594 -0.10687917 0.20113543
-0.0058519235 0.29474652 0.028293034 0.07926492 0.43358412 0.15689142 0.096649095 -0.24319203

bias_ih_l0_reverse f4 [52]
00000000: 677b 073e b642 78be 9eba 5f3e d34f 2d3e
00000010: 7424 f7bd 9f2b d5bd 6be5 b1bc 2aef 0f3e
00000020: ccaf a83b 57c5 6abe e0f2 7b3e da8c 983d
00000030: 00d3 8c3d cb08 4ebe bf0e bfbd 2dbc 163e
00000040: 319f 123d 3a73 01be 4572 8c3d 6cdb 7b3e
00000050: bcb0 1dbd 9f8d 62be 533e 533e 588f fe3d
00000060: b972 623e 3e6e 4ebe f744 053e d813 843d
00000070: f2db 5abe 36e7 3f3e ecfe 683e 9a3b 403e
00000080: ff09 71bd 3bc7 5e3e fb0e 7dbd fd0e fd3d
00000090: d2a1 47be e816 59be 97bc 903d 6e22 663b
000000a0: 28ea 803e 433c 5f3e f5c7 f43c 6ebe b4bd
000000b0: ee3a 61be 1fb6 853d d656 923b f753 2fbe
000000c0: 313a 8fbc 1256 353e bf76 8c3e d463 d1bd
0.13230668 -0.24244198 0.21848533 0.16924982 -0.120675 -0.10408711 -0.02171584 0.14056078
0.0051479097 -0.22926842 0.24604368 0.0744874 0.068761826 -0.20120542 -0.093289845 0.14720221
0.035796348 -0.12641612 0.06857733 0.24595422 -0.038498625 -0.22124337 0.20629244 0.124296844
0.22114076 -0.20159242 0.13014589 0.064490974 -0.21372965 0.18740544 0.22753495 0.18772736
-0.058847424 0.21755688 -0.061781865 0.123563744 -0.19495323 -0.21200144 0.07067221 0.0035115737
0.25178647 0.21800332 0.029880503 -0.08825384 -0.21995136 0.065288775 0.004465918 -0.17121874
-0.017483803 0.17708614 0.27434346 -0.10224119

bias_hh_l0_reverse f4 [52]
00000000: cfec 12be 1e7c 65bd f3f5 85be c79b 0a3e
00000010: 3528 973d d1b6 de3d 2064 463e 804a dc3d
00000020: d4fc 2f3e a26d a53d ed5b 213e 226b ea3d
00000030: 569c e83d 1a99 19be 5b55 653e 360e 0d3c
00000040: 5c56 753e 5303 80be fac0 4fbe 4d5f 5ebd
00000050: e1a4 853e c913 7e3e da5b f9bc a306 283e
00000060: 57ff 20be c151 82be fb47 8a3d ca86 053e
00000070: b57c 78be a8c9 dd3d f66c 813e 6db6 db3d
00000080: 4ed9 ecbd 3062 babd cf84 21be 9e52 083e
00000090: 982d 873c c06d 91bc 37ff febd 5c33 833e
000000a0: 2f10 203d 3bfa 7c3e 718c 29be 5969 29bd
000000b0: 6694 8ebe b8d5 ac3d 72a9 8f3e f253 51be
000000c0: 2ac8 083e 7d4f 4f3e 644f 883e b14d 013e
-0.14348148 -0.05602657 -0.26164207 0.13535987 0.07380716 0.10874713 0.19374132 0.10756397
0.1718629 0.080775514 0.15757723 0.11446215 0.11357944 -0.1499981 0.22395842 0.008609345
0.23958725 -0.25002536 -0.20288458 -0.054290105 0.26102355 0.24812235 -0.030439306 0.16408782
-0.15722404 -0.25452998 0.067520104 0.13039699 -0.24266322 0.108294785 0.25278443 0.10728154
-0.11564885 -0.09100759 -0.15773319 0.13312766 0.016501233 -0.017752528 -0.12451022 0.25625122
0.039077934 0.2470483 -0.1655748 -0.041360233 -0.27847594 0.08439201 0.28058964 -0.20442179
0.13357607 0.20245166 0.2662307 0.12627293

weight f4 [16, 260]
00000000: 3f4d ca3c af0a 9fbd 9fe2 58bd 5b8e a63d
00000010: bca8 edbc 2647 663c 4c9f a3bc 162f eb3c
00000020: eebe 38bd 0d23 ddbc 6a12 65bd fd18 51be
00000030: aafb 3cbd fb46 ffbc 96ce 963d 2fbe ae3d
00000040: 7f72 b33d 1403 c1bd bcc6 6b3d 7a31 64bd
00000050: f3d2 593c 8c13 9d3d 66ee 383d e5f4 a53b
00000060: c293 bcbd bf4d af3d 175f 143e cd27 e23d
00000070: 0338 443b 4ae4 54be bdad f0bc 4b03 bcba
00000080: c7f5 f23d 826a 08be 5fbf d93c b78c 56bc
00000090: f33a 533d 79c3 9cbd 3501 d63d 1352 613d
000000a0: b7e6 a8bc 6fa0 473e 60e7 c7bc 36c4 9fbd
000000b0: 64e9 10bb 5dbb 523e 9938 75bd 203c 95bd
000000c0: 635e a23d b5b4 3cbe 4b35 ebbd 8d2e 32bd
000000d0: 5662 82bc 3bbd d3bd 6149 a03d 5a8f 863b
000000e0: 9151 a5bd 22b9 203d b368 213c 2837 733c
000000f0: c83f 91bd 2fe6 0abd fcf6 593d 5140 cf3b
00000100: d799 0a3e d6fe 5b3d 3794 27bd b10f bfbd
00000110: c5b7 7a3e 30b5 4a3c c770 cabc 50ab 88bb
00000120: 0306 ea3d f4cd 8ebb e585 1ebd c6c5 a5bd
00000130: a262 40bc 2eb7 ca3d 4d3a cdbd 9324 cdbd
00000140: b6ee 03be 0f54 9fbd ac0f 0ebd 6586 8d3c
00000150: dc26 983d df08 90bd 4e5a c63d a7ed bb3d
00000160: db71 2e3d 5e56 0dbe 1223 863d a4fa 75bd
00000170: 3536 9abd 1041 02be bafe dd3c 10e9 66bd
00000180: 829a 693d 56fa ccbd f553 08bc a0e6 f2bd
00000190: a112 983d 6f74 053e 242d f73c 71ba aa3d
000001a0: 7db0 573e e74e 213c f005 29be 931a 573e
000001b0: 2b7d 16be ae3b 3a3e e21e 183d be55 0c3d
000001c0: 0df7 0abd cd5e 9dbc f177 073e 5fd9 3abd
000001d0: a49a 483d bf9f 34be e521 4bbd 594e 96bd
000001e0: b33a a23d 3a0a fd3d 7301 13bd ca9b 483d
000001f0: d84e b33d 783e 8cbd a7bb b7bc be5b 9bba
00000200: 247f 06bd c557 673d 8521 2e3e 906f cfbd
00000210: d5e0 8abd f688 17bd 753a 8c3d 390d 49bc
00000220: 48bf 93bd 9cef 6dbd 8039 dabd 5b9a 4b3e
00000230: 5223 ae3b 3628 2dbd e26c 1b3e f718 52bd
00000240: 83c5 5cbd 77a6 c43d cb2f 603e 5624 bbbc
00000250: d7b1 ed3a f81a ee3b fc3d a8bd 9334 df3d
00000260: 7e53 28be d9d6 eebc 11a6 ea3c 5795 91bc
00000270: 15a6 ea3c fc36 7bbc 80a8 bfbd 3f66 e53d
00000280: 3f34 04bd f4d0 febd 3028 48be 71d3 623d
00000290: ee2a 423b fd6a 00be 41c7 4abd de73 2b3d
000002a0: b1a1 693d 08a2 18bb cfe7 443d db3f 443e
000002b0: 0f6d bebc ffff 36bd 4297 46bd 8d44 053d
000002c0: c507 963d b415 17bd 8b6e 8d3d 5cab 05be
000002d0: 3902 8b3d 33c2 b33c 1a55 fa3d 6d99 55be
000002e0: dc56 9e3d 7c76 ab3a 5868 70bd 1888 a93c
000002f0: fc73 823e 1596 fb3d ab4c 4f3d 305e 903c
00000300: b180 133e a576 a1bd de0a c83c 1ede 84bd
00000310: 1aee 99bd 67e0 023c e7e4 27bc 9c17 a9bd
00000320: 5060 93bd f02a a83b 0a7b 3f3d cd4e 8dbd
00000330: d5df db3d 90bb 1d3d 2faf 043d 4cef 833c
00000340: 4078 9c3d b526 053e b6fb 5d3c 9740 c93c
00000350: 114e 64bd 69f7 053d adeb e53b a753 17bd
00000360: 1fbd d23d 16bb 5f3e 5fbd 63bc fa99 92bc
00000370: 8975 b8bd 2bce 073d ab3e bcbc 622a 01be
00000380: 16d0 b2bd d613 d9bc cdad c2bd 605e a3bc
00000390: 678a cd3d bc48 a9bc 070c a33d f837 1f3d
000003a0: d368 bc3d b251 20be 4c6e 28bd 84e5 da3d
000003b0: f7be 02bd 763b b3bb b725 853d 244b ee3d
000003c0: 4b3e 543d a89c 19be d42e 89bc 1846 e43d
000003d0: e9c6 10bd 65fd e63c b41e cbbd c45d 413c
000003e0: 47ce e63b ed7f 1cbe c83f 82bd 5706 abbd
000003f0: feff a93d ea79 14bd 734f b3bd d85f ccba
0.024695037 -0.077657096 -0.052950498 0.08132621 -0.029011123 0.014055049 -0.01997342 0.028708976
-0.04510396 -0.026994253 -0.055925764 -0.20419689 -0.046138443 -0.031161776 0.07363622 0.085323684
0.08762073 -0.09424415 0.057562575 -0.055711247 0.013294923 0.07669744 0.04514923 0.005064594
-0.0920787 0.08559751 0.14489399 0.11042748 0.0029940612 -0.2079021 -0.02937972 -0.0014344243
0.118632846 -0.1332188 0.02658051 -0.0130950725 0.05156989 -0.07654471 0.10449449 0.055009913
-0.020617826 0.19494794 -0.02440232 -0.07801096 -0.0022111768 0.20579286 -0.05986843 -0.072868586
0.07928159 -0.1842831 -0.11484774 -0.043501426 -0.01591603 -0.10338827 0.07826496 0.0041064443
-0.08072198 0.039239056 0.009851622 0.014844693 -0.070922434 -0.033910926 0.05321406 0.006324806
0.13535248 0.053709827 -0.040912833 -0.09329165 0.24484165 0.0123723 -0.02471198 -0.0041708127
0.11426928 -0.0043580476 -0.03870191 -0.08094363 -0.011742266 0.0989822 -0.100208856 -0.100167416
-0.1288403 -0.07779705 -0.034682915 0.017275998 0.07429287 -0.07032942 0.09685193 0.09176188
0.04258905 -0.13802478 0.06549658 -0.060053483 -0.075298704 -0.12720132 0.027099002 -0.05637461
0.057032116 -0.10008685 -0.008320798 -0.118603945 0.07425428 0.13032697 0.030172892 0.08336342
0.21063419 0.009845472 -0.16506171 0.21006231 -0.14696185 0.18186828 0.037138827 0.034261458
-0.033927012 -0.019210244 0.13229348 -0.045617457 0.0489756 -0.17639063 -0.04959287 -0.073391624
0.07921352 0.12355466 -0.035890054 0.048976697 0.087552726 -0.068478525 -0.022428347 -0.0011852903
-0.032836094 0.056480188 0.17004974 -0.10128701 -0.067811646 -0.03699585 0.06847087 -0.012271219
-0.072142184 -0.058089837 -0.106554985 0.198831 0.005314269 -0.042274676 0.15178254 -0.05129334
-0.0538993 0.09602063 0.21893232 -0.022844475 0.0018134665 0.0072663985 -0.082149476 0.108986996
-0.164381 -0.029155182 0.02864364 -0.017771406 0.028643647 -0.0153329335 -0.09358311 0.112011425
-0.03227639 -0.124421984 -0.1954658 0.055377427 0.002962764 -0.12540813 -0.04950643 0.041858546
0.057038967 -0.0023289938 0.048072632 0.19164984 -0.023245363 -0.04467773 -0.048484094 0.03253608
0.07325701 -0.036885932 0.0690585 -0.1305365 0.06787533 0.021943187 0.12223263 -0.20859309
0.07731411 0.0013081576 -0.05869326 0.020694777 0.25479114 0.12284485 0.050610226 0.017623037
0.1440456 -0.07883958 0.024419244 -0.06487678 -0.075161174 0.007988072 -0.010247446 -0.08256456
-0.071961045 0.0051320717 0.0467482 -0.06899796 0.10736052 0.03850895 0.03239363 0.016105317
0.07640123 0.13003047 0.013548782 0.024566932 -0.055738512 0.03270665 0.00701662 -0.03694501
0.10289978 0.21848711 -0.01390013 -0.017895687 -0.09006793 0.0331556 -0.022979101 -0.12613824
-0.087310955 -0.026498716 -0.09505806 -0.019942462 0.10036164 -0.020664565 0.079612784 0.038871735
0.09199681 -0.15656164 -0.041120812 0.10688308 -0.0319204 -0.005469735 0.06501334 0.11635426
0.05181722 -0.15001166 -0.016745962 0.11146182 -0.035345946 0.028197 -0.099179655 0.011802141
0.007043633 -0.15283175 -0.063598216 -0.083508186 0.0830078 -0.03624908 -0.08755388 -0.0015592529

bias f4 [16]
00000000: 0434 25bd bdc9 113d 9f55 323c 61fb e03c
00000010: 43a0 f9bc 4e66 ee3c f467 03bd 5a65 b03c
00000020: 5160 61bd db23 413d 2748 27bd 1f1d 973c
00000030: b759 fc3a f70e 213b 058f 403d 4017 ed3a
-0.04033281 0.035592783 0.0108846715 0.027463617 -0.030471927 0.029101517 -0.03208156 0.021532703
-0.055023495 0.047153335 -0.040840294 0.018446503 0.0019252811 0.002457557 0.047011394 0.0018088594

weight f4 [17, 16]
00000000: 88f7 44be 3b2b 8ebe c154 afbc eaae 9bbe
00000010: ba8b 2fbc 1f7f 9bbc ffaf a83d 1d3d bb3e
00000020: c031 913e 40e9 0c3e 5771 313f 03ba d1bd
00000030: d09a 8d3e bca6 2cbb 4fae 8bbe e9e2 813d
00000040: 9f87 eabd b96e 96be d016 f03e 03df 4ebd
00000050: 3a51 7ebe d37d 433d 7351 c1be 1d47 8ebd
00000060: 601a a5bd 8d9b 3fbe 04c0 25bd 8214 733e
00000070: 45db d4bd d93f 743e 07aa ae3c 8420 963e
00000080: 65b4 233e baec ee3e e9c0 373f d2fe 87be
00000090: 6ec1 a1be 0eaa 093e e8ef 633d aa11 8f3e
000000a0: ecd6 aa3d cd08 bfbc 160c 4abe 13e4 66be
000000b0: 5fd9 183e dd66 abbe 5a71 83be 4977 65bd
000000c0: 541b e03d 3215 39be 9e0e 783c 15ca 12bb
000000d0: 0872 253e 3de1 2b3e 1382 3f3d 9a61 b73e
000000e0: 4fe0 d93d c3f0 3c3a 2823 003d 457e e1be
000000f0: 21b9 b7be aa05 c63d f5d3 bb3e 58e3 cabd
00000100: cab1 01be 1402 a33e 0af9 4e3e c9a4 c3be
00000110: d29c 773e 4c69 29be c4ec 03bf 5301 07bf
00000120: 00fb a3bd 13d4 68be ce6b 373e e482 ae3e
00000130: bef5 0fbe bcba e5bd 2b07 c7bd cccd 033e
00000140: be56 9abd 38b0 ac3d 5fe6 88bc 155f 33be
00000150: b914 09be 6038 85be 7aff 80bd cf7c 37be
00000160: a269 8abd 5d5e 2c3c 5b56 6bbe b672 cb3d
00000170: f999 f5bd 3080 70bb 9ae9 f13d 938e 773e
00000180: ce1d 32be 9c19 b0be a351 b0bb 85cb 8a3e
00000190: 9111 63be 6065 c7bd b01a 383d fec0 d33e
000001a0: fee1 0cbc 6234 80bd 6a0b 043e 745c 5c3e
000001b0: 3387 f1be 35e8 0c3f 99fb 5a3d 7f05 56be
000001c0: c8f8 903e 3cd6 cbbd 729a bbbc 9712 1a3e
000001d0: e2d3 0e3e 13ff 0ebd 3704 033f ba5c 0c3e
000001e0: cb95 083e 47b4 2c3d 53ce ba3e 7af5 6b3e
000001f0: a8ea 823c 6054 903e 0a73 44bc 27ee acbe
00000200: 889d 1bbe bff5 07bf 39aa 943c 6fa7 c13d
00000210: f466 3a3e 2551 443e 87f5 10bd b681 84be
00000220: 68c2 223e 8e20 5cbe 21f9 61be 9f8f 863e
00000230: 2823 c8bc 46a1 2d3e d411 8cbd ef6a 5e3e
00000240: b7c7 21be d9da 723e 1179 673c b8ec 87be
00000250: 7564 843d b8c2 afbe 60c8 1cbb 3ede 653e
00000260: 15b7 38bd 207d 93be 962e a03e cb94 db3c
00000270: 1213 10be 17f9 bebc 5121 eabd a4f7 813e
00000280: cb31 97bd 28ce dc3d 7010 5d3e f738 db3d
00000290: fa1a a53e 3593 053c 5260 813e 5cda 073f
000002a0: e69c 173e 37b7 4fbe ad59 e03d f570 96bd
000002b0: 3eca f63d d7fc ecbd 3c81 023e d7d7 d1bd
000002c0: 48af ee3e 3c71 7a3d d1bb 49bd 5ba3 3d3e
000002d0: 8caa cabd 5f09 dd3c acf9 503c 79b3 0abe
000002e0: 0289 9dbe dd14 ee3e 2a91 6d3e 4194 c8be
000002f0: 1c1a 2fbe 40d7 5fbe df01 08be 735a aebd
00000300: 9a05 0a3f 53ca 87be 8376 83bb cae1 b73e
00000310: 8b7b 71be ba58 10bf 18ba 623d 53f5 c83e
00000320: 0bdd 03be 8316 25bd 5502 0b3d 574e 963d
00000330: 7e6e 343d 53a9 17be 8271 473d 10f0 133d
00000340: 2e8f 073f 98a9 963e 9880 a4bd b70a 4dbe
00000350: 8f43 593c 784f 6fbe b99d 663e 098d 273e
00000360: 08d4 273e abba a7be c1d3 c93d f284 90be
00000370: f322 8b3e 7731 c5be 22dc c0bc d3b5 b23e
00000380: c2f6 01bf 0857 9dbe 9251 8a3e d8b9 003e
00000390: 5c0f cfbe b1bb d6bd 5c27 58be 3592 2bbe
000003a0: eb06 f2bd c2bf ebbd 7a88 31be ec1c 05bf
000003b0: 1297 b03e 5d89 883d 0b27 2bbe 94e4 e33e
000003c0: 6a0a bbbd 5def 913e 6108 893d a702 793d
000003d0: 48a6 05be 0969 8e3d 28b3 7ebe e34d 11be
000003e0: e50d 48be 6e6b 28bd a73e 0d3e eb12 863e
000003f0: 8b79 52be 4425 d4bd 37ee fbbe a133 32be
-0.1923505 -0.27767357 -0.021402718 -0.30406886 -0.010714466 -0.018981514 0.082366936 0.36570063
0.2835827 0.13760853 0.6931357 -0.10240557 0.27657175 -0.0026344499 -0.27281424 0.06342108
-0.11451649 -0.2938135 0.46892405 -0.05050565 -0.24835673 0.047727417 -0.37757453 -0.069471575
-0.08061671 -0.18711682 -0.040466323 0.23738292 -0.10393385 0.23852481 0.02132131 0.29321682
0.15986784 0.46664983 0.7177873 -0.265616 -0.31592888 0.13443777 0.055648714 0.27943164
0.08341774 -0.023319626 -0.19731173 -0.22547941 0.1492667 -0.33476916 -0.25672418 -0.056021962
0.109427124 -0.18074492 0.015140204 -0.0022398282 0.1615678 0.1678514 0.046754908 0.35816652
0.106384866 0.0007207507 0.031283528 -0.44041649 -0.3588343 0.09669049 0.36685148 -0.09906644
-0.12665477 0.31837523 0.20212188 -0.3821166 0.24180916 -0.16544074 -0.5153315 -0.52736396
-0.08006859 -0.2273715 0.17912218 0.34084237 -0.14058587 -0.112172574 -0.09718164 0.12871474
-0.07536076 0.084320486 -0.016711412 -0.1751674 -0.13386811 -0.26019573 -0.06298728 -0.17918704
-0.06758429 0.010520545 -0.22982161 0.09933989 -0.119922586 -0.00366975 0.11812134 0.24175481
-0.17394182 -0.34394538 -0.0053808256 0.27108398 -0.2217467 -0.097361326 0.044947326 0.4135818
-0.008598803 -0.06259991 0.12894979 0.21519643 -0.4717346 0.5504182 0.0534626 -0.20900534
0.28314805 -0.09952971 -0.022900794 0.15046154 0.13948014 -0.034911226 0.51178306 0.13707247
0.13338391 0.042164113 0.36485538 0.2304286 0.015981033 0.28189373 -0.011990318 -0.33775446
-0.15196812 -0.53109354 0.018147575 0.094557635 0.18203336 0.19171579 -0.035390403 -0.25880212
0.15894473 -0.21496794 -0.22067691 0.2628145 -0.024430826 0.16956052 -0.06839338 0.2172048
-0.15798841 0.23716296 0.014127986 -0.2654779 0.06464473 -0.34328246 -0.0023923144 0.2244806
-0.045096476 -0.288064 0.31285542 0.026804348 -0.14069775 -0.023312135 -0.11432136 0.25384247
-0.07382544 0.10781509 0.21588302 0.107042246 0.32247144 0.008152773 0.252688 0.53067565
0.14805946 -0.20284735 0.10954604 -0.073457636 0.120502934 -0.11571663 0.12744612 -0.10246246
0.46618104 0.061143145 -0.04925138 0.18519346 -0.098958105 0.026982008 0.012754839 -0.13545026
-0.3076859 0.46500292 0.23199907 -0.3917561 -0.17099804 -0.21859455 -0.13281964 -0.085133456
0.539148 -0.2652155 -0.0040119304 0.3591445 -0.23582284 -0.56385386 0.055353254 0.39249668
-0.1287729 -0.040304672 0.03393777 0.07339161 0.044050686 -0.14810686 0.048692234 0.036117613
0.5295285 0.29426265 -0.0803234 -0.20023619 0.013260736 -0.23370159 0.22521104 0.16362394
0.16389477 -0.32759604 0.09854842 -0.2822643 0.27175102 -0.385143 -0.023542468 0.34904346
-0.5076715 -0.30730462 0.27015358 0.12570894 -0.40441406 -0.10485018 -0.21108764 -0.16754992
-0.11817726 -0.11511184 -0.17337218 -0.51997256 0.34490258 0.06666825 -0.16714112 0.4451033
-0.09132846 0.28502932 0.06691051 0.060793545 -0.13051713 0.069536276 -0.2487303 -0.14189868
-0.1953655 -0.041118078 0.13793431 0.26186308 -0.20554177 -0.1035867 -0.4920518 -0.17402507

bias f4 [17]
00000000: 20f1 183d ebad 023e 7a03 4e3e f927 d33d
00000010: 6381 1ebe c63f 6dbd f4de efbd 44c6 29be
00000020: 8d47 80bd db1c a63d 1884 9b3d 73f0 ec3d
00000030: c1a0 a23d 6d03 2dbe 3db5 16be bf64 cc3d
00000040: 2749 49be
0.03733933 0.12761657 0.20118514 0.103103586 -0.15479045 -0.057922147 -0.11712447 -0.16579539
-0.06263647 0.081109725 0.07593554 0.115692995 0.079408176 -0.16895838 -0.14717574 0.09980153
-0.19656812

weight f4 [17, 16]
00000000: 8119 6bbd 3298 313e 00d7 8abe 2366 a63e
00000010: 99a6 1c3e 52c4 f3bd 29e3 bd3e cb00 e0be
00000020: 93c1 2f3f b1ca e4bd 7c19 41be 1b67 af3e
00000030: 33b2 63be 4d16 4bbd 5d07 a3bc cf6c a6bc
00000040: 9e64 933d 1024 f8bd 3b2a 7abe a4b9 c3bc
00000050: ad27 f33e ebe5 293d 9f2c 943e 2b69 053f
00000060: 3cac b9be 292d 693e cfb3 8bbb 170c 053f
00000070: 9c9e 34bd 95db c2bd 0b2d c2bd be3a 3bbd
00000080: 6cc3 5f3d c87c a7bd ca78 f6bd d9df b23c
00000090: 06d7 a13e c2a8 263e 7ad0 60be c02a aebd
000000a0: 2aa2 243e 03b9 7ebe fb75 a4bc 34f0 9f3e
000000b0: 476c fe3d bb20 733d 760f 813e 01b6 52be
000000c0: d943 2dbe 3e38 6b3c 5221 7dbd 7c7f fcbe
000000d0: 9a00 833e 2ff1 dd3e a03b c63d 90e6 74be
000000e0: f442 443e 7013 2d3e bb0d 933d 6f4c 84be
000000f0: 1e96 443d 9f62 803e e9ce 403c a85d 17bd
00000100: 3586 1bbe 8b11 fcbd a927 15be 00a5 b7bd
00000110: dce7 0b3f 2176 b8be 58c8 083f 4f00 243d
00000120: 93dc 153e f861 13be afe0 7f3c 1cc1 b8bc
00000130: 0dc0 ebbd 5239 8a3e 362e 943e 7f0e 333e
00000140: 6d85 ce3e cb71 28be 3408 f03d ecda 7e3d
00000150: 90b3 f139 ba2b fcbd 7376 803e b16f 123e
00000160: 6ad0 463f d5df 233c 4d6b 90be e883 533e
00000170: bcbe 3f3e 4708 bc3e 7a5e 643e e0e7 8fbe
00000180: 1dfb 12be 7b13 97be 9b48 ecbd e322 9bbd
00000190: cf5d 053f de4d 993d 7cf8 873e 2df1 833e
000001a0: f11b d83e 7299 37be eddc 3a3e a193 653d
000001b0: 52bc 6ebd 5ac8 173e 7036 92be 167b 4a3d
000001c0: 1a13 413e 7955 15bc 64bb 05be 689a fbbd
000001d0: b5bb 313e e048 9ebe bf95 793d 2505 a73d
000001e0: 3d81 373e 21c7 9a3d c400 22be cb86 55be
000001f0: ee21 923d 54d4 7dbb dc02 b6be c3b6 b23e
00000200: 1d12 90bd 7c01 3d3d 23b8 04be 3c27 b3be
00000210: 2cd1 e4bd 81d9 c93d ebbd bfbd 8a2c 29bd
00000220: 936d b7be 10a0 883e 0b7c 033f 8743 69be
00000230: 92c6 27be 4075 853e 0dbc a2be c08c 853d
00000240: e4fb 96bd 0b2c ee3e c35f 10be ea03 b93c
00000250: ffbe 003f 7e02 40be 23df 223e e71d e83e
00000260: ef54 6dbe 13b3 b2bd c838 cfbd 5ef8 a3bc
00000270: a726 9bbd c9c7 dc3e 968c dabd b720 103d
00000280: a5a2 c73e 4525 ea3e 41d0 13be 583d 133e
00000290: bc73 29be e9fe dcbd f064 8ebd 7fd4 493e
000002a0: c4a1 e23d b7ea 773e 3695 833d 9575 813e
000002b0: fe97 a5bd cb69 cfbe 0330 0b3f 08b6 4a3c
000002c0: 51eb 43bd 1312 933d 5ff2 09bd f8a7 3c3f
000002d0: 5859 2a3d 618c 533e 2772 263e 3a2d d1be
000002e0: e521 a5be d7ad 963e 893e 89bd 7c43 e2be
000002f0: 6c1f a73d 5373 42be 60d1 15be 9283 0b3f
00000300: dc57 29be 74aa fdbd 9843 363d b369 593d
00000310: 861f fbbd 4e7f 3d3e 72be 9d3e a92a dd3c
00000320: 8002 c43e b4e8 debc fd09 273c 71ad 84be
00000330: 1a61 49be 5afd babd 06b8 1f3e 9c8f a7bd
00000340: ae93 a8be 9f09 e93d 6273 da3c 1828 133e
00000350: eabf 87be fa7e 72be 7131 5f3e 6567 c33d
00000360: c8db 083e 7b73 4ebe 6c96 6cbd 6e40 5fbd
00000370: f28b e83c ea02 f1bc 7cb7 db3e 2e84 36be
00000380: 7cb3 c83d be07 6b3e 36fa 24be e87a 47be
00000390: b76f d73d 4997 ce3d 8867 a23e db3b a03e
000003a0: fc3b 7dbd ac62 eebd 4101 da3e 9edc acbe
000003b0: 4330 35be 59ff 9dbd 7f3b 32be 057b d5be
000003c0: 96dd 89bd 2c04 2a3e 2443 03bd 1781 413e
000003d0: 526e a83e 403b 1b3f bef5 f8bd 5939 793d
000003e0: de80 e23e 5d22 8fbe 2563 c53e 9c14 9c3e
000003f0: 784d 0abd a4fd 083f 9e90 3fbe 9d60 91be
-0.05739737 0.17343214 -0.27117157 0.324998 0.15297927 -0.119026795 0.37087372 -0.43750605
0.68654746 -0.11171473 -0.18857378 0.3425835 -0.22235946 -0.049581815 -0.019900972 -0.020315556
0.071969256 -0.121162534 -0.24430172 -0.023892231 0.47491208 0.041479032 0.28940293 0.521136
-0.36264217 0.22771133 -0.004263378 0.5197157 -0.044096574 -0.09514538 -0.094812475 -0.045710318
0.05462973 -0.08178097 -0.120347574 0.021835255 0.31609362 0.16275313 -0.21954527 -0.08504248
0.16077486 -0.24875264 -0.020075789 0.31237948 0.12422996 0.059357386 0.25207108 -0.20577241
-0.16920413 0.014356671 -0.061799355 -0.49316013 0.25586396 0.4334807 0.09679341 -0.23916078
0.19166166 0.16901946 0.07180353 -0.25839564 0.047994725 0.25075242 0.011768081 -0.036954552
-0.15187915 -0.123080336 -0.1456591 -0.08967018 0.54650664 -0.36027625 0.534307 0.040039357
0.14634924 -0.14392841 0.015617534 -0.02255302 -0.1151124 0.26996857 0.28941506 0.17485999
0.4033617 -0.16449659 0.117203146 0.0622205 0.00046100887 -0.12313028 0.2509037 0.1430042
0.77661765 0.010002096 -0.28206864 0.20655787 0.18725103 0.36725065 0.22301665 -0.28106594
-0.14353605 -0.2950705 -0.11537286 -0.075750135 0.52096266 0.07485555 0.26556766 0.2576994
0.42208818 -0.17929628 0.18248339 0.056048993 -0.058285065 0.14822522 -0.28557158 0.04943379
0.18854943 -0.009114617 -0.13059765 -0.1228531 0.17356761 -0.30914974 0.060933825 0.08155278
0.17920394 0.07557512 -0.15820605 -0.208522 0.07135378 -0.0038731294 -0.35549057 0.3490506
-0.07034705 0.046143994 -0.12960868 -0.3499087 -0.11172709 0.09855939 -0.09362396 -0.04130224
-0.35825786 0.26684618 0.5136115 -0.22779666 -0.16384342 0.26066017 -0.31784096 0.065209866
-0.07372263 0.46517977 -0.1409903 0.022584874 0.50291437 -0.1875095 0.15905432 0.45335314
-0.23176931 -0.08725562 -0.10118252 -0.020015892 -0.07575732 0.43121174 -0.10671346 0.03518745
0.38991275 0.4573156 -0.14434911 0.1437887 -0.16548055 -0.10790808 -0.06952846 0.19709967
0.110660106 0.2421063 0.06424944 0.2528502 -0.08085631 -0.405104 0.54370135 0.012372501
-0.047831837 0.07181182 -0.03367841 0.736938 0.04158911 0.20659019 0.16254483 -0.40854818
-0.32252422 0.29429504 -0.06701381 -0.44192111 0.0816029 -0.18989305 -0.14630651 0.54497635
-0.16537422 -0.12386027 0.044498056 0.05307932 -0.12261872 0.18505594 0.3080936 0.026997881
0.38283157 -0.02721057 0.0101952525 -0.25913575 -0.19665948 -0.09130354 0.15597543 -0.08181688
-0.3292517 0.11378788 0.026666347 0.14370763 -0.26513606 -0.2368125 0.21796204 0.09541205
0.1336509 -0.2016124 -0.05776064 -0.054504804 0.028387044 -0.029420335 0.42913425 -0.1782386
0.09799859 0.22952172 -0.16111073 -0.19480479 0.10519355 0.10087449 0.31719613 0.31295666
-0.061824784 -0.11639914 0.42579082 -0.33762068 -0.17694192 -0.07714719 -0.17405508 -0.4169542
-0.06731717 0.16603154 -0.032046452 0.188969 0.32896668 0.60637283 -0.121562466 0.060845707
0.44238943 -0.27955905 0.38552204 0.30484474 -0.033765286 0.53512025 -0.18707511 -0.28394023

bias f4 [17]
00000000: 208d b23d ef78 4abe 98fe 0bbe 28d9 5dbe
00000010: 3fde d2bc a7ec b63d 9ce8 d8bd 17c4 72bd
00000020: d377 07be 2d5e ba3d 84af 91bb 2515 b7bd
00000030: c04d b0bd 12bf 90bd 7697 513e d148 32be
00000040: 4161 543e
0.08718324 -0.19772695 -0.13671339 -0.2166487 -0.02574074 0.089318566 -0.10591242 -0.059269037
-0.13229303 0.09099994 -0.004445972 -0.0893958 -0.0860858 -0.07067694 0.20467934 -0.1741059
0.20740224
