models/weighted/a17lds17b0.006g1.0d1.0h13fold1e 9.pt (torch, 118804 bytes, 26 tensors)

weight_ih_l0 f4 [52, 4]
000000 3c 98 29 be 9c ea a5 3d b9 13 2d be e7 e1 01 be
       -0.16561979 0.08101389 -0.16902055 -0.12683831
000010 79 4a 8f bd 95 80 e4 3e 93 db cb bd e2 1a c6 bd
       -0.069966264 0.4462935 -0.0995399 -0.09673096
000020 04 2f 55 3d ff 18 10 3e 02 c9 f0 3d 4b 88 91 3e
       0.05204679 0.14072035 0.11757089 0.28424296
000030 18 7c da bd dc 4b 91 be 87 e6 39 be c8 ac 9f 3d
       -0.106682 -0.2837819 -0.18154345 0.07796627
000040 b5 eb b5 3d 48 d0 a0 bc 6c 18 65 bd e1 e1 24 3e
       0.08882848 -0.019630566 -0.055931494 0.16101791
000050 5a 79 35 bd 84 af 3e bd b2 5a ed 3e 1a 4c 6f bd
       -0.044305183 -0.046554103 0.46358258 -0.058422185
000060 7d 8a 84 3c aa ba f5 3d 49 f5 cb bd 95 68 8c 3d
       0.016179318 0.11998494 -0.09958894 0.06855885
000070 0d 1f 50 be 89 5c 0d be 49 90 35 3e 2e fa 8c bd
       -0.20324345 -0.1380483 0.17730822 -0.068836555
000080 53 19 81 bd 42 91 92 bc 93 ce bd 3d 71 e4 2d bd
       -0.06303658 -0.01789153 0.092679165 -0.042454187
000090 57 be 95 3e ad ed f3 3e 54 6d c6 3a e3 d8 17 bd
       0.2924678 0.4764227 0.0015138783 -0.037072074
0000a0 d7 a6 ef bd 4e 1a bf 3d 67 09 10 bd fd a8 0e be
       -0.11701744 0.09331189 -0.035165217 -0.13931651
0000b0 5a 33 5d 3e 43 f9 92 3e fc 9b 26 3e 3b 2a 27 be
       0.2160162 0.28705797 0.16270441 -0.16324703
0000c0 91 ed 63 3e a5 c7 98 bc 0a 3b 86 3e 08 5f 5f 3d
       0.22258593 -0.018649885 0.26216918 0.05453399
0000d0 f4 32 76 3e 67 b8 c4 3d 06 17 50 3d ad 92 c8 3d
       0.24042875 0.096054845 0.050803207 0.09793601
0000e0 0f 31 8e be 45 ea 06 3e 86 67 87 3d 5b 0c 95 3d
       -0.27771804 0.13175304 0.066115424 0.07277747
0000f0 b4 cb 00 be 32 76 9b 3e 3d d6 8f be bf 74 91 bd
       -0.12577707 0.30363613 -0.28093138 -0.07102346
000100 19 9e 58 3d db 95 91 bd 2f fb 42 3e cd b2 48 be
       0.05288515 -0.07108661 0.19041131 -0.19599457
000110 41 19 9e be 4b ab 79 be 6a d9 d4 3d 03 26 14 3e
       -0.30878642 -0.2438175 0.10393031 0.14467625
000120 26 2e 3f 3e ef e4 4a be 87 f4 47 3e 90 bd 73 3d
       0.18669948 -0.19813894 0.19526874 0.059506953
000130 60 b7 69 be 0f 8f 50 3d b4 65 33 be b9 32 d5 3c
       -0.22823858 0.05091768 -0.17519265 0.026025163
000140 51 1d be 3d d6 23 40 be 0e dd 5f be d4 0b 36 3e
       0.092829354 -0.1876367 -0.2186167 0.1777795
000150 b8 5c 35 3e 0c 29 ab 3e fa 74 b1 3e be d7 09 3f
       0.1771115 0.33429754 0.3465956 0.5384482
000160 ec 51 b2 bd bc b3 b4 3d 58 61 3a bd 3b b8 b4 be
       -0.087070316 0.08823344 -0.04550299 -0.35296807
000170 a0 8a 88 be 0f 63 5d bd a8 30 91 be 36 24 a8 3e
       -0.26668262 -0.054049548 -0.28357434 0.32840127
000180 8e 17 aa 3c 6e 05 37 3e 9d 40 b0 3d 13 65 77 3e
       0.020763185 0.17873165 0.08606074 0.2415965
000190 5a 13 11 be 20 97 4a 3d cd 77 1b be 21 52 3c 3e
       -0.14167538 0.04946053 -0.15182419 0.18390705
0001a0 cc c3 21 be b5 1f 17 3d 13 42 63 3e be 2f 7f bb
       -0.15797347 0.036895473 0.22193174 -0.0038938369
0001b0 be fa 47 3e 80 66 04 be 72 6a 12 3e 93 b7 95 bc
       0.19529244 -0.12929726 0.14298418 -0.018276012
0001c0 52 81 66 3e b4 4f 23 3e eb 00 6d 3d fa 2a e4 bd
       0.2251027 0.15948373 0.057862204 -0.1114101
0001d0 0f 7d 7b be a5 82 15 3e 46 2b 40 3e 29 2b ea 3d
       -0.24559425 0.14600618 0.18766508 0.114340134
0001e0 86 a1 9e bc ae ba 0a 3e c8 f7 72 3e ae 44 a8 bd
       -0.01936413 0.13547775 0.23727334 -0.082162246
0001f0 2e 8b 39 3d e3 42 46 3e 6d 24 5a 3e f9 51 8e bd
       0.045298748 0.19361453 0.21302958 -0.06949229
000200 5e 20 0e 3e 15 d5 73 bd d5 93 04 3e 21 be e2 bc
       0.13879535 -0.059529383 0.12947018 -0.027678551
000210 de 7b 89 be 01 9a 3b 3d 95 3c 99 be 2b b4 08 be
       -0.26852316 0.045801166 -0.29929033 -0.13349979
000220 27 4e 1d be 1e 77 9f 3c ff 53 89 bd 80 71 80 bc
       -0.15361844 0.01946598 -0.06705474 -0.015679121
000230 12 d0 dd 3d 23 1e 7f 3e b6 c4 38 bc 35 db a6 3e
       0.10830702 0.2491384 -0.011277368 0.32589117
000240 39 c0 1b 3e 0b 31 7d 3d f2 56 7f bb 1d b1 90 3c
       0.15210046 0.06181435 -0.0038961736 0.01766258
000250 72 ed ac be b6 3c 3d 3e 63 4c c9 bd 9a 75 d9 bd
       -0.33774906 0.1848019 -0.09829023 -0.10618134
000260 fb 4c ca 3d 1a 91 70 3e b9 cc 0b be 97 87 e1 3b
       0.09877964 0.23492852 -0.13652314 0.0068826186
000270 55 c6 5f 3e 72 2b a4 3d a9 8f 5a 3d 72 33 60 be
       0.21853001 0.08016099 0.05335966 -0.21894625
000280 cd a1 00 3e 37 3d af bd c1 86 84 3d 38 aa 24 3d
       0.12561722 -0.08556598 0.06471015 0.040201396
000290 ff d3 22 be 33 80 06 be e9 e9 0b 3d c6 33 4a be
       -0.15901183 -0.13134842 0.03415862 -0.19746312
0002a0 51 be 21 3e f4 64 b3 3d 6f 4b a6 be 4a d3 65 bd
       0.15795256 0.0875949 -0.32479426 -0.056109704
0002b0 e6 4f 9a 3d 93 36 6d 3c 7e 51 5a be 8f 80 a1 bd
       0.07534771 0.014478344 -0.2132015 -0.07885849
0002c0 51 67 4e 3e 91 b3 51 be 64 e2 f5 bd e7 c9 d4 bd
       0.201566 -0.20478655 -0.12006071 -0.10390072
0002d0 e3 d1 d9 3d 41 fe 2f be ee 0f 15 be c9 a5 5a 3d
       0.10635736 -0.17186834 -0.14556858 0.05338076
0002e0 59 d0 19 be 42 1e 0a be af 28 2e 3c c0 9c 31 3e
       -0.15020885 -0.13488105 0.010629817 0.17344952
0002f0 11 37 3f be db d4 0a 3e 20 55 86 3e 02 72 ca 3e
       -0.1867335 0.1355776 0.2623682 0.39540106
000300 5a e6 50 be dd b0 c7 be 47 08 c3 be 95 70 ca be
       -0.20400372 -0.39002123 -0.38092253 -0.39539018
000310 de bd 42 3e 03 5e 1e 3d ec d0 25 be 59 15 c2 be
       0.19017741 0.038663875 -0.16192979 -0.37906912
000320 14 40 8b be cc e6 90 be 1e 6a 57 3e fc 42 71 be
       -0.27197325 -0.28301084 0.21036574 -0.23560709
000330 a7 94 45 3e 64 db 02 3e 5a 4f 60 bd a2 08 16 3e
       0.19294988 0.12779003 -0.054763176 0.1465173

weight_hh_l0 f4 [52, 13]
000000 dd a6 3f be 8a b0 9b 3e 5f 8c 6f be 03 b5 14 bd
       -0.18715997 0.30408126 -0.23393391 -0.03630544
000010 fa cd 42 3e 72 bd 96 bd 16 b6 ea 3d 66 e8 55 3c
       0.19023886 -0.073603526 0.114605114 0.013055896
000020 c0 d4 95 3c 8e 6e e3 3c 62 8f 00 3e c2 8a 8b 3e
       0.018289924 0.027762678 0.12554696 0.272543
000030 f8 14 4f be ec 87 3a be 24 3b 0d 3e 4b d9 17 be
       -0.20222843 -0.18215913 0.13792092 -0.14828984
000040 3f cc f3 3d e6 8c 9d 3c 6d 47 4a be 99 93 26 3e
       0.11904191 0.019232225 -0.1975381 0.16267242
000050 9f 4b 16 be f3 b8 bf be 92 00 a7 bc a0 74 99 3d
       -0.14677285 -0.37445793 -0.020386014 0.074929476
000060 32 5c 1a be 4b ac 94 3e 51 92 b8 bd 4d 2f 8b bd
       -0.15074232 0.290377 -0.09012283 -0.06796131
000070 ec e1 95 bb e6 66 d8 bc 81 46 3b bc 25 5a 4b 3e
       -0.004574051 -0.026416253 -0.011430384 0.19858606
000080 ed da a0 be 35 5f a0 bc 2d 7e 05 bd 9b 81 b3 be
       -0.31417027 -0.019576648 -0.032591034 -0.3505982
000090 1c d8 f4 3d e1 68 e5 bd 46 b8 b9 3c 90 a9 2b be
       0.11955282 -0.11201645 0.022670876 -0.16763902
0000a0 6b c0 8a bd 93 44 13 3e 48 42 91 3d 11 63 d8 be
       -0.06774982 0.14381628 0.0709272 -0.42263082
0000b0 65 d4 88 be d5 b9 ac bb 90 a4 cf bd be 77 13 be
       -0.26724544 -0.0052711763 -0.1013881 -0.14401147
0000c0 39 9c 0d be bd e1 38 3e 7b 56 03 3e c1 11 bc be
       -0.13829125 0.18054862 0.12825958 -0.36732295
0000d0 58 7e 92 3c 18 7e 5c 3e b8 b9 47 bc 2a 09 74 bd
       0.017882511 0.21532476 -0.012190275 -0.059579052
0000e0 d2 c4 25 be 85 23 b8 3d 89 8e 9b be cb 49 58 bd
       -0.16188362 0.0899115 -0.30382183 -0.05280475
0000f0 f2 a6 24 be 81 60 23 bc c1 d2 e0 bd 80 9e 5b be
       -0.1607931 -0.009971739 -0.10977698 -0.21447182
000100 51 34 47 be 8d fe 41 be 6b 02 f4 bd e0 ac 43 3e
       -0.19453551 -0.1894476 -0.11914524 0.19108915
000110 48 89 2d bc a7 5a b4 3d b9 a0 c8 3d d3 03 c5 bd
       -0.010591812 0.08806353 0.097962804 -0.0961987
000120 aa ba a7 3e f3 47 92 bd 39 b4 10 be 43 42 32 be
       0.327596 -0.071426295 -0.1413125 -0.1740809
000130 4c c6 de bd 5a ee a7 3d c1 01 35 3e 82 ed 90 be
       -0.10877666 0.08199759 0.1767645 -0.28306204
000140 03 76 24 3e 98 e0 7b 3e 0d 4b 28 3d 80 b3 58 be
       0.16060643 0.24597394 0.0410872 -0.21162224
000150 38 00 99 3d b4 a6 7a 3d 6a 99 f5 3d 9f f3 6c 3e
       0.07470745 0.061194137 0.11992152 0.23139809
000160 4f d7 f5 3d 48 92 ab bd 81 a3 3f be 1a 80 ce bc
       0.120039575 -0.0837751 -0.18714716 -0.025207568
000170 75 aa aa 3d 74 07 19 3e ac 3a 29 3e 18 6a 24 be
       0.08333293 0.1494425 0.16526288 -0.16056097
000180 3f a0 31 bd a7 7e 93 be 91 50 6d be e5 12 8e be
       -0.043365713 -0.28807566 -0.23175265 -0.2774879
000190 01 fa 83 3e 43 2d 2e be 3c 35 02 be b3 11 10 3e
       0.25776675 -0.17009453 -0.1271562 0.14069252
0001a0 9b eb 6e bb b2 64 97 bd 0b 9e d1 bd c6 8a 5d 3e
       -0.003645635 -0.07392253 -0.102352224 0.21634969
0001b0 b6 ab 28 be 73 cb 58 be 55 53 88 3d 7b ee 14 3e
       -0.16471753 -0.2117136 0.06656519 0.14544098
0001c0 12 a4 3e 3d 78 26 f5 bc a6 7a 95 be 52 16 91 3e
       0.04654319 -0.02992557 -0.29195136 0.28337342
0001d0 4f de 2c be ae 75 69 3b b4 e4 2b bd df b0 16 be
       -0.16881679 0.003562312 -0.041966155 -0.14715908
0001e0 05 f2 62 be b3 8a 9d 3d 83 78 39 3c 0e 96 8e bd
       -0.22162636 0.076924704 0.011320236 -0.069622144
0001f0 79 9a 73 be 77 65 01 be 8b 6c 2e 3c 81 e3 6c be
       -0.23789395 -0.12636362 0.010645996 -0.23133661
000200 02 43 6f be 68 e4 2d 3e 4b 84 06 3e e8 dc ed 3d
       -0.23365405 0.16981661 0.13136403 0.116144
000210 9e ff 7d 3d da 0f 3b be 41 8a a2 bd 3f d5 d6 3d
       0.062011354 -0.18267766 -0.07936526 0.10489892
000220 d2 f2 85 3c bf 8a c6 bd d3 1d 9f 3e 7c 19 a9 3d
       0.016351137 -0.096944325 0.31077442 0.08256814
000230 b4 51 6c 3e 81 ec 5a 3e 9a fb cb bd 3f 3f 57 3e
       0.23078042 0.21379282 -0.099600986 0.2102022
000240 9b cc b9 3d d7 c6 15 3e 57 4f e7 3c bf 4a 6b 3d
       0.090722285 0.14626633 0.028236074 0.05744433
000250 34 7c 08 bc 6c 3b de bd d4 1a 91 be 9a b2 af bd
       -0.008330394 -0.108511776 -0.2834078 -0.085789874
000260 57 31 e9 3c 5a f2 49 3e 85 2e 7d bd 76 70 d2 3e
       0.02846591 0.19721356 -0.061811943 0.41101426
000270 15 a8 91 3c 8e 98 e6 3e f3 a6 13 3e 28 9e 1a 3e
       0.017780343 0.45038265 0.14419155 0.15099394
000280 bd 76 8b 3d a7 fa 85 bc aa 49 d4 3e 49 e7 62 3e
       0.06809757 -0.016354872 0.4146245 0.22158541
000290 64 c2 99 3e dd b9 42 be 42 7e 42 ba e9 4f 6c be
       0.3003112 -0.19016214 -0.00074193266 -0.23077358
0002a0 11 90 9b 3d 7d eb 46 bd d0 85 55 3e e6 ea 0a bf
       0.07595838 -0.048564423 0.20851827 -0.54264677
0002b0 82 93 65 bd 46 28 1d 3e de c1 4f bd 94 8a 5c be
       -0.056048878 0.15347394 -0.050721996 -0.21537238
0002c0 fe d0 8f be d2 38 8f bd 10 8d 9b 3b b0 92 53 3e
       -0.28089136 -0.069932595 0.0047470406 0.20661426
0002d0 d1 cc 40 3e 52 23 f1 3c 0b 52 0a 3d 1a da e2 3d
       0.18828131 0.029435787 0.03376965 0.11076756
0002e0 06 e1 04 3d 72 83 52 be 7f a7 82 3d bc 80 af 3e
       0.03244116 -0.20557955 0.063796036 0.34277904
0002f0 e4 22 99 3c 2e 4c 0d 3d 54 4d 54 be e0 9d 48 be
       0.018693395 0.03449648 -0.20732623 -0.19591475
000300 20 7b 9e bb 8c 2f 15 3e 1f 79 47 be e8 78 32 be
       -0.004836455 0.14568919 -0.19479798 -0.17428935
000310 8c 15 63 bd 67 bc 1f bd 6a 94 8a 3e b7 a5 79 3e
       -0.05544047 -0.038998034 0.27066356 0.24379621
000320 1c 81 59 3d 34 e8 3c be a7 06 51 be 62 4e 80 3d
       0.053101644 -0.18447953 -0.20412694 0.0626495
000330 52 73 80 3d d2 91 67 3e 35 b1 4a be f7 55 75 3e
       0.062719956 0.2261422 -0.19794162 0.23958574
000340 cb 32 3a 3d bd 16 1a be bb 29 06 be 04 cc 80 bc
       0.045458596 -0.15047736 -0.13101856 -0.015722282
000350 1b 79 ee 3d bd d5 14 be 84 ac 12 3e 8c 97 08 3d
       0.11644193 -0.1453466 0.14323622 0.03334765
000360 cd 3c ff bd 44 b4 12 3e 4c 23 36 3e 17 af 1a be
       -0.12462769 0.14326578 0.17786902 -0.15105854
000370 2b a1 31 3e c5 3a 3d 3d 30 ec 70 bc 40 64 a1 bc
       0.17346637 0.046198625 -0.014704749 -0.019701123
000380 c5 03 74 bd 33 25 d1 bd 7e d8 ab be a9 b7 de bc
       -0.059573907 -0.10212173 -0.33563608 -0.027187185
000390 60 e4 58 be c1 4c 24 3e dc 0b a1 be 46 b9 91 3e
       -0.21180868 0.16044904 -0.3145436 0.28461665
0003a0 4b eb 39 3e a2 06 77 be 57 89 8c 3d 89 8b c1 be
       0.18156163 -0.24123624 0.06862133 -0.3780177
0003b0 12 49 88 3d 92 2c a8 bc 98 15 2d 3d 12 f8 a2 3d
       0.06654562 -0.020529065 0.04225692 0.07957472
0003c0 63 97 e1 3d 87 0c 36 3e ee cd 6a 3d 85 03 22 be
       0.11015203 0.17778216 0.057325296 -0.15821655
0003d0 d8 ca 8e bd f9 5c 98 be d6 07 f9 bb fd ac 8c 3c
       -0.06972283 -0.29758433 -0.007599811 0.017172331
0003e0 ca 4c 6c 3e 55 87 93 3d 10 95 1e be 76 0f e3 3d
       0.23076168 0.07203547 -0.1548655 0.11086933
0003f0 20 ec 23 be ff ed b6 3e ca ef 3b 3e a5 e0 25 3e
       -0.16008043 0.35728452 0.18353191 0.16198976

bias_ih_l0 f4 [52]
000000 43 69 aa bd 69 af 28 3d 4a 1e da 3d 07 15 1e 3e
       -0.08320858 0.04118291 0.106503084 0.15437709
000010 54 1c c4 3d 53 75 82 3e 30 0e 04 3e 95 37 8d 3c
       0.09575716 0.25480136 0.12896037 0.017238418
000020 40 79 28 be 00 9c 22 be b8 bb 2d be d5 ac 03 3e
       -0.16452503 -0.15879822 -0.1696614 0.12858899
000030 40 1a 86 be 63 9d d5 bc 54 c6 6b be ad de c1 3d
       -0.26191902 -0.026076024 -0.23024875 0.094663
000040 38 3c 91 bd 12 64 72 3b c5 a3 8e be 22 db 04 3d
       -0.07091564 0.0036985916 -0.2785932 0.032435544
000050 3b 58 85 3e 5a b7 e2 bc 45 31 9e bc 26 5a f8 3d
       0.26043877 -0.02767532 -0.019310603 0.121265694
000060 64 e5 30 be 75 b5 34 3e d6 77 84 be ef d2 82 3e
       -0.17275006 0.17647345 -0.25872678 0.25551555
000070 fd cc ae bd 9b 78 3c 3e 7c e4 4d 3e f1 5c 69 bd
       -0.08535192 0.18405382 0.20106691 -0.0569734
000080 e6 64 c1 3d de 62 18 be 80 05 1b be 2d e9 22 3e
       0.09443073 -0.14881465 -0.15138817 0.15909262
000090 94 0e 98 3d 46 83 91 bd 06 26 11 bd 23 01 25 3d
       0.074246556 -0.071051165 -0.035436653 0.040284287
0000a0 8c 0d 73 3e 18 23 67 bd ee bf c7 3d 77 e7 0e bc
       0.23735636 -0.056429952 0.097534046 -0.008722178
0000b0 36 17 5a 3d 38 ef 2d 3d d2 ce 35 bd b0 a7 72 be
       0.053244792 0.042464465 -0.044386692 -0.2369678
0000c0 da 6c 80 be cd 7d 6a be 7e 41 03 bd 6f 68 33 bd
       -0.25083047 -0.22899552 -0.03204488 -0.043800768

bias_hh_l0 f4 [52]
000000 48 81 3a bd 1e a7 37 3e 96 10 27 be 57 77 62 3e
       -0.04553345 0.17934844 -0.16314921 0.22115837
000010 20 ff 22 be 7d 8e 8f be 5d 7f 05 bd 36 e4 67 be
       -0.15917635 -0.28038397 -0.032592166 -0.2264565
000020 7a 57 bb 3d 45 55 51 3e aa d3 1a bd dd f0 5a bd
       0.09147544 0.20442684 -0.037799515 -0.05345236
000030 c4 94 89 be 5f 5f e7 bd 0f 8d b4 3d f5 a7 10 3e
       -0.26871312 -0.112974875 0.08815967 0.1412657
000040 07 42 2f bd 9b d5 cc bd 48 47 5c be 49 cb 32 be
       -0.042787578 -0.100016795 -0.21511567 -0.1746036
000050 6a e1 85 3e 41 98 18 3e 44 a5 13 3e 4a e1 1a 3e
       0.2614854 0.1490183 0.14418513 0.15125003
000060 4c cd af 3d 14 8c 47 bd 1e dd d5 3d 0b 5b e5 bb
       0.08584079 -0.048717573 0.104425654 -0.0069993786
000070 ff ba 67 be 6d 1a fd bd 52 6d 5a be c4 f8 ba 3d
       -0.22629927 -0.12358556 -0.21330765 0.091294795
000080 ae 93 12 be e9 a9 31 be 12 a8 02 3d a0 92 88 3d
       -0.14314148 -0.17349972 0.031898566 0.066685915
000090 9e 7e 77 bb 3a bd 0d be 6b 3c c3 bd 60 68 de 3d
       -0.0037764679 -0.13841715 -0.09533008 0.10859752
0000a0 fe 10 7b 3e d0 de 45 3e c6 f2 38 be 17 93 99 3d
       0.24518201 0.19323277 -0.1806136 0.07498758
0000b0 98 14 d6 bd 17 03 fe 3d 4a 23 7f bd e3 85 8b 3e
       -0.10453147 0.12402933 -0.062289514 0.27250585
0000c0 7d 51 41 3d 54 cc 28 be aa ea 1d be a0 6b 9c 3d
       0.047196854 -0.16484195 -0.15421548 0.07637715

weight_ih_l0_reverse f4 [52, 4]
000000 e6 89 74 bd 1d 2b db bd bc 1f a5 3d 66 a4 a2 3e
       -0.059701823 -0.107015826 0.080626935 0.3176605
000010 2e 37 20 be 04 e2 cf be f0 7f f5 3d 37 64 e9 be
       -0.1564605 -0.40602124 0.11987293 -0.4558427
000020 50 13 1e be 30 e7 00 3e 8a 82 1a 3e d4 ac 40 3e
       -0.15437055 0.12588191 0.15088859 0.18815929
000030 29 2b e6 3b 3e 11 97 3e 2a a2 de 3e ef 4e 6b bd
       0.007024188 0.29505342 0.43483096 -0.057448324
000040 22 8a 96 3d 92 ab a3 3e 91 40 d1 bd b0 1c d8 bd
       0.073505655 0.31966835 -0.10217393 -0.10552347
000050 76 77 2d 3d cb 93 00 be 7c 63 47 be c5 82 9a 3e
       0.042350255 -0.12556379 -0.19471544 0.30177894
000060 81 ac c4 bd 59 f7 d9 bb 97 a1 6e bd 50 8d 86 bd
       -0.09603215 -0.0066518006 -0.058259573 -0.06569922
000070 a6 be c5 3e 47 82 a9 bd 69 a5 79 bc d7 78 0d be
       0.38622016 -0.082768016 -0.015237191 -0.13815628
000080 68 46 1f be 5b d3 2c 3e 73 b2 4b 3e df 11 07 be
       -0.15554202 0.168775 0.19892292 -0.13190411
000090 30 9f b0 3e 27 02 a6 3d 6a ed 9b bd e5 0a 42 3e
       0.3449645 0.08105879 -0.076136425 0.18949468
0000a0 06 b0 a1 3d f6 da 65 bd c1 a5 ba 3d 22 8a 79 3d
       0.07894902 -0.05611702 0.09113646 0.06092275
0000b0 36 28 67 be bd 2f c5 be 5a 2b 49 3d d4 a8 c3 3e
       -0.22573933 -0.38512984 0.04911361 0.38214743
0000c0 c6 ba ce bd d3 de 82 bd 88 ec e7 3c 4f 46 0e 3e
       -0.10094218 -0.063901566 0.02831103 0.13894008
0000d0 4e a4 e6 bd 6e e3 26 be db 4a 9d 3d 0d 04 9a 3d
       -0.112618074 -0.16297695 0.07680293 0.07520304
0000e0 34 9a 06 3e 3e 37 d8 bd 68 9a 2e 3e b2 cf 55 3c
       0.13144761 -0.105574116 0.17051089 0.013050007
0000f0 f9 58 84 3d 6f 2d 89 3b f3 bc 2c 3d 82 d7 21 be
       0.06462283 0.0041863243 0.042172384 -0.15804866
000100 2b 2c 60 bd 56 29 bb bc 3d 42 aa 3e d9 e1 af be
       -0.05472962 -0.022846859 0.3325366 -0.34351996
000110 6b 59 0c 3e e0 d9 76 3e f2 75 6f be 7c 91 e9 3d
       0.13705985 0.2410655 -0.23384836 0.11404702
000120 bd 2f e8 bc 66 a8 86 3e 2e c2 b7 3d 97 a8 73 3d
       -0.028343076 0.26300353 0.08972584 0.05948695
000130 00 df 89 3e 55 6f 0f 3e 95 9a 6e 3e bf 13 dd 3e
       0.26927948 0.14007314 0.23301156 0.43179128
000140 9d 66 cb be d6 db 98 be 51 fa 9d 3d b5 a6 73 3c
       -0.39726725 -0.29855222 0.0771376 0.014871289
000150 a0 21 e9 bc 7f 6d cd 3d eb aa 42 be a3 66 80 be
       -0.028458416 0.1003065 -0.19010513 -0.25078306
000160 db 79 86 bc ee e6 12 be e0 c0 4b bd f3 e0 39 bd
       -0.016415527 -0.14345905 -0.049744487 -0.045380544
000170 a5 1b 81 3e 58 7a 6a 3e 07 5c fc bd 37 09 4f 3c
       0.25216404 0.22898233 -0.1232224 0.012636474
000180 a5 6a 86 3e 35 d6 eb 3d b5 cd 8e 3e 58 c3 36 be
       0.26253238 0.11515466 0.27891317 -0.17847955
000190 de 2b fc bc 2b ac 89 bd 8b 40 e8 be 15 0a 75 3b
       -0.030782636 -0.067222916 -0.45361742 0.0037390043
0001a0 c9 3b d3 3d 3c e8 65 be 58 45 1a bd c1 eb 0f 3e
       0.103141375 -0.22451872 -0.037663788 0.14054777
0001b0 44 0b 28 3e 24 3d bf 3e b9 38 dc be 67 93 3a be
       0.16410547 0.37351334 -0.43012026 -0.18220292
0001c0 17 32 be 3e 29 f6 15 be 42 17 80 be c6 9d bb 3d
       0.3714759 -0.14644684 -0.25017744 0.09160952
0001d0 21 f4 31 bd 38 e9 82 be fe ec 96 3d ce e4 0e 3d
       -0.04344571 -0.25568557 0.073694214 0.034886174
0001e0 66 de c7 3e 9e 07 8f 3e 39 e7 e3 3e 67 d8 1f be
       0.39036864 0.279355 0.44512346 -0.15609895
0001f0 c5 a4 85 be 31 58 b2 bd bc be 69 3e 1e b5 b3 3c
       -0.26102272 -0.087082274 0.22826666 0.02193695
000200 57 7c 2e be 2b 78 4b be 35 8e 36 be f7 a7 ec bd
       -0.1703962 -0.19870059 -0.17827685 -0.11555474
000210 be a3 17 3e 8a 36 a5 3d 54 9e 4c be 16 d3 af be
       0.14808556 0.08067043 -0.19982272 -0.34340733
000220 71 b3 f6 bd 23 46 bd 3d 1c 4a d9 be 13 6d 6d 3d
       -0.120459445 0.09241893 -0.42439353 0.05796535
000230 04 f7 03 be 0c 62 5d 3e 0f 5b c6 3d 2a ff 56 bd
       -0.12887198 0.21619433 0.09685337 -0.052489437
000240 68 16 82 bd 8b 3f 9e 3b 80 9b 30 be 39 9f 83 be
       -0.0635193 0.0048293523 -0.17246819 -0.25707415
000250 bb d1 67 be ac 90 f0 bd 7d 10 62 3d 2e 07 d2 bd
       -0.226386 -0.11746344 0.055191506 -0.10255276
000260 ca 68 d2 3c a5 c2 35 bd 3b ce ae be fc e9 27 3e
       0.025684733 -0.04437508 -0.34141716 0.16397852
000270 3d e9 f0 3e ad 55 ca bd c9 a9 12 be 60 64 da 3d
       0.47052947 -0.098796226 -0.1432258 0.10663676
000280 f0 c0 b2 3e fe 55 51 3d 1d b0 f4 bd b9 52 33 3e
       0.34912825 0.0511074 -0.119476534 0.17512025
000290 f3 97 14 3e 6d a6 f8 bc 20 4c 32 3d 1d 43 a2 3e
       0.14511089 -0.030352795 0.04352963 0.31691828
0002a0 5e 1d ab 3d 9f 4b e7 bd 4a 1b 0a 3d da 44 cf bd
       0.08355211 -0.112937205 0.03371743 -0.10120554
0002b0 57 61 9f 3e 1e e0 29 be fa a2 af bd 1c d2 5d 3d
       0.31128952 -0.165894 -0.08576007 0.054155454
0002c0 a5 7e 7c bd ea fc 85 bd 7e b7 86 be 5f 7f e8 39
       -0.061644215 -0.0654238 -0.26311868 0.00044345387
0002d0 f7 0b c2 bd d7 b4 83 3e f5 4f 6e bd 9b fd 1d 3e
       -0.09474938 0.25723907 -0.05818172 0.15428774
0002e0 a3 4c 92 be f9 3a bb 3e 04 43 04 bd 63 b1 1c 3e
       -0.28574094 0.3656843 -0.032290474 0.15302043
0002f0 27 c8 b7 bd 2a 7e b8 3e 2b 33 8b be 86 a6 25 be
       -0.08973723 0.36033756 -0.27187476 -0.16176805
000300 6b 1d 39 bd 1c 0c 07 3d 44 87 4e be 09 be 36 be
       -0.04519407 0.032970533 -0.20168787 -0.1784593
000310 85 5b db bd 73 8b f9 bd 83 4e 6e be c8 7c fc bc
       -0.10710815 -0.12184801 -0.23272137 -0.03082122
000320 f4 b9 36 3e 14 42 98 3d dc 59 4e 3e 88 b6 25 3d
       0.17844373 0.074344784 0.20151466 0.04045728
000330 a5 01 19 3e c6 09 f0 3d 2f 35 e1 be 0e 9c 09 be
       0.14942034 0.11720614 -0.43985888 -0.13438436

weight_hh_l0_reverse f4 [52, 13]
000000 89 ed 77 3e d3 a3 89 be a8 a7 02 3e d8 2b fb bd
       0.24211706 -0.268828 0.12759268 -0.12264222
000010 cf 21 33 3b 87 5b 49 be f3 ba f0 be a9 74 d5 bc
       0.0027333384 -0.19663821 -0.4701763 -0.026056604
000020 30 01 43 3e 4d d1 19 bd 08 58 2d 3b b6 36 2a 3d
       0.19043422 -0.03755312 0.0026450176 0.041556083
000030 e8 79 97 3d 79 90 d7 3d 78 88 ef bd 50 9b 3a 3e
       0.07396299 0.10525603 -0.11695951 0.1822331
000040 06 18 88 be d5 63 7c be 51 c2 0d 3d db 8e 91 bd
       -0.26580828 -0.24647458 0.034609143 -0.07107326
000050 4c 6a 8e bd 4f 43 7b bd bd 73 bd bc f7 6e e2 bd
       -0.06953868 -0.061343487 -0.023126477 -0.11056321
000060 85 a9 93 3c 3d e8 2d bc f5 23 eb bc dd a0 2f be
       0.01802517 -0.010614452 -0.02870367 -0.17151208
000070 cd df 94 3e 88 e8 32 be 81 11 8b be a9 4c 1c 3d
       0.29076996 -0.17471516 -0.27161792 0.038159046
000080 42 65 33 be ab 25 cd bd 62 f9 d5 bd b8 31 e5 3d
       -0.17519096 -0.1001695 -0.104479566 0.11191124
000090 a6 30 26 bc 1d 83 9d 3e 87 0a 25 be d4 95 d6 3d
       -0.010143435 0.30764094 -0.16117297 0.10477796
0000a0 8e 96 e4 3c b1 a1 e1 bd 95 a4 82 3e 15 41 c9 be
       0.027903821 -0.11017168 0.2551619 -0.39307466
0000b0 c3 a9 b7 bd d9 17 20 be 5c 36 08 3e e6 6d 83 bd
       -0.08967926 -0.15634097 0.13301986 -0.06417446
0000c0 30 89 80 be 07 d9 2f be 65 06 49 3d 9f f1 51 3e
       -0.25104666 -0.17172633 0.049078364 0.20502327
0000d0 f2 90 27 bc b6 95 c8 3d 46 3e 00 3e dc 57 95 3e
       -0.010227429 0.0979418 0.12523755 0.29168594
0000e0 65 86 15 be a9 14 a2 bd 4a 50 33 3e 72 94 fc 3d
       -0.14602049 -0.07914097 0.17511097 0.12333001
0000f0 91 4a aa 3d 87 cd 8d be 34 78 8e 3e 6c 42 2a bd
       0.08315004 -0.27695867 0.27826083 -0.04156725
000100 0e de 41 be 9e 5e 7e bc 03 96 44 3e 73 bf 8e 3e
       -0.18932363 -0.015525488 0.1919785 0.2788044
000110 5b 55 6b 3c 89 e6 02 3e b6 30 f7 bd a1 44 4e be
       0.014363612 0.12783255 -0.12069838 -0.20143367
000120 f8 ee e4 3d 54 b1 da bc 1d 90 0e 3d cd f3 8d bd
       0.11178392 -0.026695885 0.034805406 -0.06931267
000130 16 c8 03 bd bb 44 27 be 30 09 02 3d 3e 9b ac 3e
       -0.03217324 -0.16334812 0.031747043 0.3371219
000140 e7 90 39 3d 43 09 81 bd 1d fd 69 3e 73 88 15 be
       0.045304205 -0.06300595 0.22850461 -0.14602832
000150 bd bc 24 3e 6f 8c 01 be 26 1a 36 3e 18 7e 22 be
       0.16087623 -0.12651227 0.17783412 -0.15868413
000160 80 6b c4 3d f7 be 91 bd b4 b2 40 be 5e 1e 2b 3c
       0.095908165 -0.07116502 -0.1881817 0.010444252
000170 23 5f ac be 84 30 30 be 07 a4 68 3e 91 30 82 3e
       -0.33666334 -0.17206007 0.22718821 0.25427678
000180 c2 da 33 be 4c 44 60 be 6b 39 82 bd f3 b1 c1 3e
       -0.17563918 -0.21901053 -0.06358608 0.37831077
000190 f5 b6 14 3e f0 41 51 be 51 32 81 bd b3 fc 98 be
       0.14522918 -0.2043531 -0.06308425 -0.29880294
0001a0 c5 d6 67 bd ca 1a 87 3d 9b a5 c7 bd a3 57 24 bd
       -0.056601305 0.065969065 -0.097483836 -0.04012264
0001b0 7b 6c 63 3d 79 dd 8f 3c 09 c3 04 3e d0 1d 9e 3d
       0.055523377 0.017561661 0.12965025 0.0772053
0001c0 3e bd 84 be 33 b4 be be 21 a1 4f 3c 92 91 29 be
       -0.2592563 -0.37246856 0.0126726935 -0.16559437
0001d0 5f 97 b0 3d d3 93 c4 3e 7a 27 87 be 45 b4 27 bc
       0.08622622 0.3839403 -0.26397306 -0.010235851
0001e0 36 f0 c0 3c 96 23 4a bd f9 a9 cd bc 23 d5 ef 3d
       0.023552042 -0.049350344 -0.025105463 0.117105745
0001f0 d8 75 5b 3e 0b 0b d5 3c fa 70 72 3d dd 0b 80 3d
       0.21431673 0.026006242 0.059189774 0.06252263
000200 7a 82 7b be 03 8a 90 be 98 54 92 3e 29 6b 08 3e
       -0.24561492 -0.28230295 0.28580165 0.13322128
000210 88 8d 36 3a eb c9 91 3d 9d 80 57 3d 87 cb 55 bd
       0.0006963839 0.07118591 0.05261289 -0.052196052
000220 20 cd d8 3d 22 5f c3 3d 13 c1 a0 3e fb ec 09 bf
       0.105859995 0.095396295 0.31397304 -0.5387723
000230 e4 be 0b be e6 e3 76 3e 18 2f 03 bf dd 37 c0 be
       -0.13647038 0.24110374 -0.51243734 -0.3754262
000240 94 13 cd be 4e c9 90 3e 03 d8 59 be 98 ec 8a be
       -0.40054 0.28278583 -0.21273808 -0.27133632
000250 98 c0 7f 3c 69 bd b3 bc 60 e5 f2 3b bb 16 71 3e
       0.015609883 -0.021940904 0.0074125975 0.23543827
000260 1e bc 27 3c 22 ef 81 3c 66 d6 04 3e 3a de 6d bd
       0.010237722 0.015861098 0.12972412 -0.05807326
000270 73 b5 b5 bc 45 8e 55 be ac 8b c1 be 1b 40 a2 be
       -0.022181248 -0.20855053 -0.37801874 -0.31689534
000280 a3 5b 80 be 54 1c ec bd 07 56 15 3e 9f c7 ca bd
       -0.25069913 -0.11528841 0.14583598 -0.09901356
000290 1f 83 7b bd 88 fc 03 3e 24 bb a4 bd ac 0c 2e 3c
       -0.061404344 0.12889302 -0.08043507 0.010623138
0002a0 3e 96 44 3d 85 86 97 3d a3 e1 c3 3d 54 24 38 3e
       0.047994845 0.073987044 0.09564521 0.17982608
0002b0 42 b8 38 be 41 31 8f be a7 77 5a bd 6e 5d 5e 3e
       -0.18039039 -0.27967265 -0.053336766 0.21715328
0002c0 21 d3 eb bd f3 88 99 3e 10 45 01 bd 70 81 b0 3e
       -0.11514879 0.29987296 -0.031560004 0.34473753
0002d0 bc 12 9f 3e 9c 00 df bd 52 49 2c be 6a b0 8c 3d
       0.3106898 -0.10888788 -0.16824844 0.06869586
0002e0 37 28 a2 3e a4 02 11 bd 70 14 dd bc 06 2f ec 3b
       0.31671306 -0.03540291 -0.026987284 0.007207754
0002f0 c2 87 8d bd c8 11 21 be 36 59 4e 3d a7 a9 78 3e
       -0.069106594 -0.1572944 0.050378047 0.24283467
000300 68 9f 06 be cc 94 73 3d a9 fe 91 bb f7 cf 92 3d
       -0.13146746 0.059468076 -0.0044554067 0.071685724
000310 a0 13 5c bd a3 a6 bc 3e c2 b8 67 3e 23 d3 c5 bd
       -0.053729653 0.36845884 0.22629073 -0.09659412
000320 ec c8 3c be 79 c7 b4 3d b5 b1 a2 3e c7 58 a3 be
       -0.1843602 0.08827109 0.31776205 -0.3190367
000330 2f 04 16 3c 5f 30 87 3e 71 00 8e 3e 6f 17 36 3c
       0.009156271 0.26404092 0.27734712 0.011113985
000340 18 66 c0 bd e2 8d c9 bd 5c 82 24 bc db b9 21 be
       -0.09394473 -0.09841515 -0.010040846 -0.15793554
000350 fd 20 0e 3d e9 b8 0c 3c 2b c6 6c 3e 3d f6 9d bd
       0.03469943 0.008589008 0.2312247 -0.07712982
000360 74 01 ff bd f7 0b dc bd 98 54 34 3c 01 c4 28 3e
       -0.12451449 -0.107444696 0.011006497 0.1648102
000370 03 7b b0 bd be 81 d2 be bb 68 82 be 5a 93 26 bd
       -0.086172126 -0.4111461 -0.25470528 -0.04066787
000380 64 c8 cc bd 56 81 c9 bd f8 5e 2a bd 2e 1b 1b be
       -0.09999159 -0.09839122 -0.041594476 -0.15147087
000390 81 b8 db 3d 06 a0 9e 3e 9b c4 11 bd 1f 78 8e 3d
       0.10728551 0.30981463 -0.03558789 0.06956505
0003a0 ec 3f 7a be 22 fb a5 3d 03 2c fa ba 84 81 b4 3d
       -0.24438447 0.081045404 -0.0019086603 0.08813766
0003b0 ac 69 16 be 09 12 02 be ad 6a ce 3d 2e 89 03 be
       -0.14688748 -0.12702192 0.100789405 -0.12845299
0003c0 bf 98 fe 3e 2d 33 c3 3b 90 cc d2 3d 64 67 11 3e
       0.4972591 0.0059570284 0.102929235 0.14199597
0003d0 5d d4 4d bd e6 d3 af 3c 29 fb b6 3d fa 56 64 bd
       -0.050251354 0.021463346 0.08934624 -0.05574701
0003e0 ca 32 45 3d ff 98 64 3d 2b 32 dc 3b 8f 19 37 be
       0.04814414 0.05580997 0.0067198477 -0.17880844
0003f0 c9 4e d9 bd e0 c4 d0 3d 0b e5 49 3e 48 e0 97 3d
       -0.1061073 0.10193801 0.19716279 0.07415825

bias_ih_l0_reverse f4 [52]
000000 e4 58 fb 3d ec 33 80 3e 92 a9 cf bc d9 78 3e bd
       0.12272814 0.25039613 -0.025349412 -0.046501968
000010 12 46 4b 3c f1 1c 4e 3d 73 85 50 be fb 2b 33 3e
       0.012406843 0.05032057 -0.20363407 0.17497246
000020 6f be 4a 3e 04 00 0f 3e 84 12 d6 bc 60 dd 89 3e
       0.19799207 0.1396485 -0.026131876 0.26926708
000030 b2 dc e2 bd 00 a4 83 3e 44 96 e6 3c 6c 5b 56 3e
       -0.110772505 0.2571106 0.028147824 0.20933312
000040 ba c1 84 3e 68 25 5f 3d fd 76 02 be fa 5b 4d 3e
       0.25929052 0.054479033 -0.12740703 0.20054618
000050 30 43 55 be 81 6c 80 3e 4c 59 b1 3a 40 26 3a 3e
       -0.20826411 0.25082782 0.0013530641 0.18178654
000060 e1 5b d9 3c 63 a9 b6 bd 67 2d 41 bd 52 cd 36 3e
       0.02653307 -0.08919027 -0.04716244 0.17851761
000070 33 ae ac 3c df 2a 0a be 60 99 28 be 42 9c 9b bd
       0.021079158 -0.13492917 -0.16464758 -0.07598163
000080 77 85 60 3e 26 e6 01 be 24 8a 03 3e 08 66 87 be
       0.21925913 -0.12685451 0.12845665 -0.2644503
000090 c1 33 a0 bc da 04 07 3e 93 c1 9e 3d 42 94 1e 3e
       -0.019555928 0.13185444 0.07751765 0.15486243
0000a0 a2 21 8d be 82 57 18 3c 01 96 b1 3d 8f 25 50 3e
       -0.27564722 0.009298207 0.08671189 0.20326827
0000b0 f7 ac 1c be 1e 18 1b be 29 19 75 3e d6 97 63 be
       -0.15300356 -0.15145919 0.23935379 -0.2222589
0000c0 54 91 29 3e 59 be 3c 3a 50 2d 3d be a1 5e 1e be
       0.16559345 0.0007199995 -0.18474317 -0.15465786

bias_hh_l0_reverse f4 [52]
000000 d0 cc 5f 3c 00 fd d9 3d ea bb 68 be 27 62 c9 3d
       0.013659671 0.10643959 -0.22727934 0.09833174
000010 e4 88 ed 3d 89 b8 f6 bc 5e d7 26 be 1e b8 e1 bd
       0.115983754 -0.03011729 -0.16293094 -0.11021446
000020 8d 69 b9 3b 06 39 83 be 97 58 64 3e 2a e8 aa bd
       0.0056583346 -0.25629443 0.2229942 -0.08345063
000030 fc 64 cc 3c c4 8c 62 be 02 8a 40 be 86 c8 5f bd
       0.024950497 -0.2212401 -0.18802646 -0.054634593
000040 df 08 10 be 4b 31 2b be a2 89 74 bd 8d f2 1f be
       -0.14065884 -0.16718023 -0.05970157 -0.1561987
000050 9e c1 65 bd 17 25 84 3e 70 2c 81 3d 8e f9 7f be
       -0.05609285 0.25809547 0.06307304 -0.24997541
000060 d4 94 32 3e 64 09 02 3e 02 32 6a be 68 f2 0d 3e
       0.17439586 0.12698895 -0.22870639 0.13862002
000070 d7 e7 91 3d 5d ae 26 be a7 39 26 be 3b 98 e5 3d
       0.07124298 -0.16277452 -0.1623293 0.11210676
000080 ed 49 bd 3d f3 32 52 3e 38 12 40 3d 85 49 26 be
       0.09242616 0.20527248 0.046892375 -0.16238983
000090 22 f6 c2 3d b4 42 64 3e bb 18 44 bd 97 14 6e be
       0.09519602 0.2229107 -0.047875147 -0.23250042
0000a0 e9 a8 b2 bd 0b a2 28 3e 91 b6 42 bd cf 22 34 3e
       -0.08723623 0.16468064 -0.04753739 0.17591403
0000b0 9c e0 25 3e 37 a7 4f 3e e2 c1 4f be f9 d7 80 3d
       0.16198963 0.20278631 -0.20288804 0.062911935
0000c0 3b 94 73 3e 02 3e 70 3e 96 90 b5 bd 34 e7 7f 3e
       0.23787014 0.23461154 -0.08865468 0.2499054

weight f4 [16, 260]
000000 98 83 13 bd 61 1d 01 3b ab f0 90 3c 2c 00 70 bd
       -0.03601417 0.001970135 0.017692884 -0.058593914
000010 02 e5 00 bd 5e 38 dd bc 9d 7f 2c bd 87 32 07 be
       -0.0314684 -0.027004417 -0.04211389 -0.13202868
000020 0a cb 94 bc 4d aa 4d bc ab 32 9b 3d 20 1a 89 bb
       -0.018163223 -0.01255281 0.075780235 -0.0041840225
000030 a6 d4 b4 3c d7 71 16 be f1 59 b7 3d 12 05 85 bd
       0.022074055 -0.14691864 0.08952702 -0.06495108
000040 38 89 65 3d 9b a4 d6 bd 2e c7 98 bc 4c 0e 19 bc
       0.056039065 -0.10480615 -0.018649664 -0.009341788
000050 3a 6b 07 3e ea 0a 17 be cb 8f 31 be d5 cb a0 3d
       0.13224497 -0.14750257 -0.17340009 0.07851378
000060 98 09 57 3e bb ee bc bc 39 32 83 3c 6c bd 0c be
       0.20999753 -0.023063054 0.016015159 -0.13744134
000070 75 37 a2 be ba 96 f4 bb a3 ee 1e 3e 21 52 c3 3d
       -0.31682935 -0.007464257 0.1552072 0.09537149
000080 f4 16 07 3e bd 0b b9 bc 29 88 1b bd 2c dd c3 3d
       0.1319235 -0.022588605 -0.03797165 0.095636696
000090 ba 32 0c bc 47 68 a1 bc 29 64 0a 3e 5f c2 0a 3e
       -0.008557016 -0.019703044 0.1351477 0.13550709
0000a0 39 5f 5e 3d 8f c0 2a bd 1c fa c9 3c 72 8a 32 3d
       0.05429003 -0.041687544 0.024655394 0.043589063
0000b0 ee fd c1 3c 55 a8 55 3c 26 de 97 3d 58 cc a9 bc
       0.023680653 0.013040622 0.07415418 -0.020727322
0000c0 60 09 a5 3d 3f 7a 01 3d ef 60 b9 3c 66 53 ba bc
       0.08058429 0.031610724 0.02262923 -0.022744846
0000d0 83 22 af bd 72 84 3a 3d 22 72 16 be 34 6c a1 3d
       -0.085515045 0.045536466 -0.14691976 0.07881966
0000e0 a1 f4 be 3c 36 8b f9 b9 79 88 f9 bb b1 d7 61 3d
       0.023310008 -0.000475967 -0.0076151458 0.05513734
0000f0 69 d8 dd bd 24 60 f2 bd d2 2a 8f 3d da 66 cd bd
       -0.108322926 -0.118347436 0.06990589 -0.10029383
000100 d3 a1 f1 bc 8b 1e fa bc 81 cc 1d bc b1 64 dd 3d
       -0.02949611 -0.030532142 -0.009631277 0.10810221
000110 db 86 89 bd b2 66 58 3c a0 72 95 bc 2f 65 30 3d
       -0.06715175 0.013208078 -0.018243134 0.043065246
000120 be 69 fb bd 38 02 c5 bc da 84 2b 3d ae db dd bc
       -0.12276028 -0.02404891 0.041874744 -0.02708229
000130 0e e0 f7 bd ae f8 d5 bc 54 54 9a 3b 01 22 9f bd
       -0.12103282 -0.026119556 0.0047097597 -0.077701576
000140 50 53 34 3d 0f 40 f8 bd 36 bd 7f 3d 82 88 a7 bc
       0.044024765 -0.12121593 0.062436305 -0.020450834
000150 81 a1 6e 3d c5 aa 98 bd 51 cd 6b 3c 7e df c0 3d
       0.05825949 -0.07454447 0.014392213 0.09417628
000160 3c 15 99 bd 31 4d c5 bd 1c e1 da bd 74 23 98 3d
       -0.07474753 -0.09633864 -0.106874675 0.07428637
000170 fb 89 a5 3d 27 96 84 3d 75 cd dd bd 28 ab 8d 3d
       0.08082958 0.06473952 -0.108302034 0.06917411
000180 99 51 8a 3d a6 3c a5 bb 4c 26 8b bd 4c fe d5 bd
       0.06753845 -0.0050426302 -0.06794414 -0.10448894
000190 8f d5 37 3d 86 aa 87 3d ff 41 36 bd 34 f1 9d ba
       0.0448814 0.06624322 -0.044496533 -0.0012050034
0001a0 0d 47 82 bb 8c 79 d0 3d d2 ed 7e bd 7b 35 2f bd
       -0.003975755 0.10179433 -0.062238522 -0.042775612
0001b0 e7 32 8b bd 12 60 1d bd 1f e6 a9 3d 7f d3 73 bd
       -0.06796818 -0.038421698 0.08295845 -0.05952787
0001c0 6a 12 bf bb 16 9a 56 bd 1d 7e 18 3d 88 13 23 bd
       -0.0058310525 -0.05239304 0.037229646 -0.03981355
0001d0 d9 7c ea bc 72 50 f4 bd 30 a1 c0 bc 3a 4d 9e 3b
       -0.028623985 -0.11929406 -0.02351436 0.0048309835
0001e0 b6 aa 7a 3c 48 18 b8 3d 65 cd b5 bd 67 7e c8 bd
       0.01529949 0.08989006 -0.088770665 -0.09789734
0001f0 ae cf 35 3d 68 92 12 3e 4b 9b 8a 3c 7b 11 03 3d
       0.044387512 0.14313662 0.016919753 0.031999093
000200 e6 7a 4c bd fe 39 14 3d 11 5d 18 be 26 db a1 3c
       -0.049921893 0.03618812 -0.14879252 0.019757818
000210 57 bc 9d 3d 90 13 63 bd 40 32 4e 3d 0e 4c 6b bc
       0.077019386 -0.055438578 0.05034089 -0.014361395
000220 f4 6e 5b 3e cc c5 8d bb a1 cb 1b bd 29 48 90 3c
       0.21429044 -0.0043265577 -0.038035993 0.017612534
000230 2a e9 48 3e 90 60 c1 3a 2a 42 2f bd b2 a7 3d 3e
       0.19620195 0.0014753509 -0.04278771 0.18521002
000240 37 c4 91 bd 89 55 d1 3c 46 95 e0 3b 71 52 f9 3d
       -0.07117503 0.025553482 0.0068537323 0.121739276
000250 f0 f3 91 3d 08 6c 25 bd a8 27 2c 3e a8 26 cf 3a
       0.071266055 -0.04038623 0.16812003 0.0015804367
000260 d0 f9 f3 3c a1 8d d5 bc e7 f7 f3 bb 9c 69 eb 3d
       0.029782206 -0.02606851 -0.0074453237 0.11494753
000270 79 e4 98 bd 9d df 04 bb b4 3f 36 3d db d8 1e 3d
       -0.07465453 -0.0020274885 0.044494346 0.03878103
000280 ef ef 98 bd a4 4f 90 3d 52 3b cb 3c 49 00 bc bd
       -0.07467639 0.0704644 0.02480856 -0.09179742
000290 98 79 b0 bc 6f c3 0c be 48 68 0e 3d 07 ac cb bd
       -0.021542355 -0.13746427 0.03476742 -0.09944921
0002a0 1a dd 89 bd aa aa e7 3c 53 50 b1 3d 54 85 2f 3d
       -0.06731625 0.028279621 0.08657899 0.04285176
0002b0 d2 4a 0d bd 26 ab ad bd 73 77 b0 bd 6d 91 23 3e
       -0.034495182 -0.084799096 -0.08616533 0.15973444
0002c0 cd dd ce 3d 99 70 31 bd b2 1b ed 3a 64 58 d3 bd
       0.10100899 -0.043320272 0.0018089919 -0.103195935
0002d0 b1 33 27 bc 35 bd 52 bc 83 4a 0e be 9b 77 f7 3b
       -0.010205195 -0.012862493 -0.13895611 0.0075521
0002e0 81 07 4d 3d 4e 64 ac bd 53 1b e9 3c 7f bf cc 3d
       0.050055984 -0.08417569 0.028455412 0.099974625
0002f0 c8 f0 03 3d ac 5f d1 ba 05 93 52 bd 4a f0 26 bd
       0.03221205 -0.0015973947 -0.05140974 -0.0407565
000300 95 93 8e bd 00 2c bd 3c cf ca 8d bd 87 eb 02 3a
       -0.06961743 0.02309227 -0.06923448 0.0004994203
000310 74 b3 92 3d d9 8e 8b bc c4 89 ac 3d 5d 8e 85 bd
       0.07163134 -0.017035889 0.08424714 -0.06521294
000320 d0 67 2e 3d e4 06 d5 bc ef 9e 3d 3e 8f 7c 81 bd
       0.042579472 -0.026004262 0.1851766 -0.06322586
000330 10 82 b2 39 dc c4 ca bc a5 30 05 3c 97 05 e0 3d
       0.0003404771 -0.024752073 0.008129274 0.10938566
000340 59 92 53 bd 02 9e 95 bd a1 2a 19 3e a7 ad 82 bd
       -0.05165324 -0.07305528 0.14957668 -0.06380778
000350 d2 0a 6b bb 91 ef b7 bd 28 39 e7 3d 62 11 a3 3d
       -0.0035864604 -0.089812405 0.112901986 0.079623
000360 f1 a4 f7 3d e4 63 f7 bd 8d 14 a6 bd 9c 7d 4b bd
       0.12092007 -0.120795995 -0.081093885 -0.049680337
000370 63 fe 9f bd 0e 1c b6 bd 3a d8 e2 bd 49 01 0e bd
       -0.07812192 -0.0889207 -0.11076398 -0.034669194
000380 32 ef c9 bd a7 fd 55 3d 71 55 15 3e 1f 07 94 3c
       -0.09860076 0.052243855 0.14583375 0.018069802
000390 ca e3 2e 3d 73 4b a9 3d 81 0a 53 3d 32 6b 66 3c
       0.042697705 0.08266344 0.05152369 0.014063643
0003a0 22 83 f5 bd 4d 20 91 bd c4 59 c6 bc d5 23 16 3e
       -0.11987902 -0.07086239 -0.024212725 0.14662106
0003b0 5d 10 44 bd 3e df 3a bd 27 21 d1 bd 81 10 b2 3c
       -0.047867168 -0.045623057 -0.102114014 0.021736385
0003c0 06 e4 be 3d e1 2c 1d 3e d7 7d 18 be f0 86 47 bc
       0.09320836 0.15349151 -0.14891754 -0.012178168
0003d0 91 d8 cd bd da 7b 84 bd a8 77 b1 bd 0a 2c 3f bd
       -0.100510724 -0.06468935 -0.08665401 -0.04667286
0003e0 1e 37 97 3d 63 67 77 bd 19 f7 7a bd 41 2b 7c bd
       0.0738356 -0.06040133 -0.061270807 -0.061564688
0003f0 02 5b 90 3d 36 57 b7 3d 99 a4 43 bd 0d 73 1d 3d
       0.07048608 0.08952181 -0.047764394 0.0384398

bias f4 [16]
000000 b8 5a 4f bd f3 c9 e4 bc 20 e5 5c 3a 74 b4 aa bc
       -0.050623626 -0.027928328 0.0008426476 -0.020838
000010 35 66 7b bc 56 f4 1c 3d cb 68 df 3a c0 40 46 bb
       -0.015344192 0.038318954 0.001704478 -0.0030250996
000020 29 a5 60 3d e9 98 13 bd d2 db 16 bd 9c 8e 37 b9
       0.05484501 -0.0360345 -0.03683073 -0.00017505366
000030 74 de 8d bb 4c c7 3e bd 8f 83 94 bc 98 5d 4e 3d
       -0.004329497 -0.046576783 -0.018129138 0.050382227

weight f4 [17, 16]
000000 74 21 a6 bd cf 4e d1 bd ed 96 81 3d 67 68 70 be
       -0.081118494 -0.1022011 0.06327615 -0.23477326
000010 78 6f d3 bd 19 b7 59 be c4 26 9b 3e 5f f2 b0 bd
       -0.10323995 -0.21261252 0.30303013 -0.086399786
000020 16 47 04 3e fb cb 1d 3d 28 ec 85 be e4 01 84 3d
       0.12917742 0.03852461 -0.26156735 0.06445673
000030 5a 45 82 bd cb 9f 96 bd 62 6d 63 be 3c e9 5f 3d
       -0.06360884 -0.07354697 -0.22209695 0.05466579
000040 ee 50 21 be 89 68 12 bf 89 91 16 bd ca cc 7c bd
       -0.15753528 -0.5719076 -0.036759887 -0.06171874
000050 bc 3f 31 3d 9a 04 14 be 5b a2 a4 be ee 97 1e 3d
       0.043273672 -0.1445488 -0.32155117 0.03871911
000060 c4 63 9f bd df 47 8a bd 1b 7f 8d 3e ff 93 5e 3e
       -0.07782701 -0.067519896 0.27636036 0.21736144
000070 c0 c5 9a be 92 27 68 3e 81 14 97 3e 0b e4 07 bb
       -0.30228996 0.22671345 0.2950783 -0.002073529
000080 fc 7c 3a 3e e5 a1 d0 be 24 38 11 3e d8 79 65 3e
       0.1821174 -0.40748516 0.14181572 0.22409761
000090 b0 ee e1 3e c6 9a 18 3e 52 e6 ce bc a0 cb 9e be
       0.44127417 0.14902791 -0.02525631 -0.3101473
0000a0 61 59 d7 3d e6 5f ab 3d 4c 20 15 3f 42 34 48 be
       0.105150945 0.083679006 0.58252406 -0.19551185
0000b0 92 4c 94 be f2 29 da 3d 99 bb 53 be cd 32 ad be
       -0.2896467 0.10652532 -0.20677032 -0.3382782
0000c0 d2 1f 33 3d 33 65 54 be 4b 59 8f be 01 20 52 be
       0.043731518 -0.2074173 -0.27997813 -0.20520021
0000d0 9d 71 01 be fc c8 88 3e 37 40 79 3e aa 8e 85 3e
       -0.12640996 0.2671584 0.24340902 0.26085407
0000e0 c4 89 a3 3d b0 a9 ee 3e c0 cf 0b 3e 05 0d ab 3c
       0.07985261 0.46613836 0.13653469 0.020880232
0000f0 bf 30 2e 3e 6a 1b 70 be 89 98 2a 3f bb 31 92 3e
       0.17010783 -0.23447958 0.66639 0.28553566
000100 2f e2 12 be bb 6f 9c be b7 39 8a bd 62 ba e1 3e
       -0.14344095 -0.30553994 -0.067492895 0.4408751
000110 9d 49 63 be d9 ce 4e be eb 50 4f bd b9 f7 8b bd
       -0.2219605 -0.20196094 -0.05061428 -0.06834359
000120 5b 6b 52 be 75 c7 57 3e e5 05 3a 3e 73 a7 6d 3e
       -0.20548765 0.2107218 0.18166311 0.23208408
000130 04 f2 4a be 14 53 01 3e 57 d2 59 3e 9a d4 d5 be
       -0.19818884 0.12629348 0.21271645 -0.41763765
000140 50 d6 52 3e 84 fe e2 bd af 3d 21 3e 6f c2 30 3e
       0.20589566 -0.11083701 0.15746187 0.1726167
000150 ba 7a dc be 44 fb 1c be 81 1e c1 be cc ca 28 bd
       -0.43062383 -0.15330225 -0.37718585 -0.041209027
000160 4b 80 f2 3d 20 d7 44 3e 90 fd 31 3e b8 f0 e3 3e
       0.11840876 0.19222689 0.17381883 0.4451959
000170 02 07 14 3e f4 0f 21 be 7b 18 66 be b9 a4 5e 3e
       0.14455798 -0.15728742 -0.22470276 0.21742524
000180 76 85 03 3d b0 c5 89 be d9 c0 14 3d 2c 92 d5 bb
       0.0321097 -0.26908636 0.036316726 -0.006517669
000190 40 ed 27 bc 4a fd 33 3e a1 97 55 3e de 3b 0b 3e
       -0.010249436 0.17577091 0.20858623 0.13597056
0001a0 37 e2 72 3e 3c e1 50 3e 41 9b b6 3d 90 b9 9f bd
       0.23719107 0.2039842 0.08916331 -0.07799065
0001b0 11 e5 0f 3d 2a b2 54 be ff f1 8e 3e 6f ec dd 3e
       0.035130564 -0.20771089 0.27919003 0.43344447
0001c0 75 2a 0f 3f 8a b0 25 3e 7a 9e 28 be f2 0e 80 3e
       0.5592416 0.16180626 -0.16466704 0.25011402
0001d0 96 8b 78 be 1c 60 d2 3d 9e 66 b6 bc ab ca bf b8
       -0.24271998 0.10272238 -0.022265729 -9.1453396e-05
0001e0 48 c9 47 3e ab ca 13 3e 2d a2 3c be 36 cd 58 3e
       0.19510376 0.1443278 -0.1842124 0.21172032
0001f0 dc 26 ad bd a2 7f 04 3d 41 ed 85 3e fd 62 ea be
       -0.084546775 0.032348283 0.26157573 -0.45778647
000200 44 b2 d2 bb 30 8e 50 be fc 10 d3 bd b7 74 e2 bd
       -0.0064299423 -0.2036674 -0.10305974 -0.11057418
000210 c8 d5 c2 bd 33 59 5d 3e 52 d6 b8 3d 30 3c df 3e
       -0.09513432 0.21616058 0.09025253 0.43600607
000220 f3 d7 7a 3e c8 f6 71 3e 10 f7 23 bd e4 42 8f 3e
       0.2449644 0.23629296 -0.04003054 0.2798072
000230 e6 40 05 3e 8e 98 fb ba 5e 46 62 3e b8 d0 52 3e
       0.13013038 -0.0019195245 0.22097155 0.20587432
000240 38 4b 21 be 89 4f 81 3e 79 ab 03 be f6 02 2b 3e
       -0.1575135 0.25255993 -0.1285838 0.16700348
000250 05 ed 00 3d a7 60 fe bd 96 77 24 be 59 07 ec be
       0.03147604 -0.12420779 -0.16061243 -0.46099356
000260 e1 3d 50 be db e5 56 3d 0d 33 db 3d ef b5 9e bd
       -0.20336105 0.0524653 0.107030965 -0.07749545
000270 d8 dc e5 be 03 63 95 be d1 6f e1 3d b0 63 9b 3c
       -0.44895053 -0.29177102 0.110076554 0.018968433
000280 d7 c3 5b 3d 6f b6 d3 3e 95 56 9f be 63 ee 20 3e
       0.053653564 0.41350123 -0.31120744 0.15715937
000290 55 20 c6 be f9 05 3f be 32 d0 aa be da 95 b4 3e
       -0.38696542 -0.18654622 -0.33361965 0.35270578
0002a0 2a 74 9d be 83 19 e4 3d a4 29 12 3e ee c4 94 3e
       -0.3075269 0.111376785 0.14273697 0.29056495
0002b0 68 34 57 be 62 03 0f be 24 b9 e4 bb 63 69 00 3e
       -0.21016085 -0.13966134 -0.0069800783 0.12540202
0002c0 87 57 b6 3e 83 c7 4a 3d 88 49 d4 bb 4b 4a e6 3e
       0.35613653 0.049506675 -0.006478492 0.44978556
0002d0 46 ab e5 3d 06 d3 86 be d3 bd 5f be c8 92 25 be
       0.112143084 -0.26332873 -0.21849756 -0.16169274
0002e0 e7 1e 04 be 42 ab 85 3e 57 b3 ef bd bf 60 f1 be
       -0.12902413 0.26107222 -0.11704128 -0.47144124
0002f0 e2 2d cf bb 73 cc 0d 3c fe 74 27 be 71 4c 9e 3e
       -0.0063226083 0.0086547015 -0.16353223 0.30917695
000300 7d aa 7f be e1 6e 6b 3e 7e 33 54 3e cb d6 4d be
       -0.2496738 0.22991516 0.20722768 -0.20101468
000310 47 ed cc 39 0c f6 1b bd d1 6e 14 3e 8b 3b 8c 3e
       0.00039086698 -0.038076445 0.14495398 0.27389178
000320 67 90 be be 22 3d 24 be 72 88 64 be 78 f3 01 3e
       -0.37219545 -0.16038945 -0.22317675 0.12690532
000330 d9 79 c3 bd 4c 6b 0e be be 2d 9d 3e 05 a8 9e be
       -0.09544725 -0.13908118 0.3069896 -0.30987564
000340 d4 53 68 be 4e 10 8e be 85 12 66 3e 5f 60 b6 be
       -0.22688228 -0.27746814 0.22468002 -0.356204
000350 73 24 ce bc 2d b9 42 3e 46 90 7a be cb 20 ef 3e
       -0.025163865 0.19015951 -0.24469098 0.46704707
000360 48 ac ff 3e 16 68 91 be 82 65 ef bd fb 42 2e be
       0.49936128 -0.28399724 -0.11689283 -0.17017739
000370 0c dd 00 3e cf 04 da bc 37 a4 af 3e 42 70 a1 3d
       0.12584323 -0.026613621 0.34304973 0.078827396
000380 0d 43 b8 bc ef 14 29 3e fc 17 a7 bd 42 5d ec bd
       -0.02249291 0.16511892 -0.081588715 -0.11541225
000390 d8 da 52 bb b7 d6 f0 bd 55 06 00 be 29 eb 29 bd
       -0.0032173898 -0.117597036 -0.12502415 -0.04148403
0003a0 59 3f a4 3d f5 83 b3 3d 46 82 c3 3e 7f c9 96 be
       0.08019895 0.08765403 0.38185328 -0.29450604
0003b0 3a f5 f1 3e fe fb 40 be 36 b8 93 3e ed ce 53 3f
       0.47257406 -0.18846127 0.2885148 0.8273762
0003c0 7f f1 c3 be 29 b1 6b 3e ee b6 55 3e 92 1f 5a be
       -0.38270184 0.230168 0.20870563 -0.21301106
0003d0 f9 d5 97 be 80 88 72 be ca 09 01 3e a6 74 2f 3e
       -0.29655436 -0.23684883 0.1260139 0.17134342
0003e0 b7 11 cc 3d f2 4e 8c 3d 22 6e 98 bc 43 32 2d 3f
       0.09964316 0.06850995 -0.018607203 0.6765482
0003f0 31 48 5f be 4f 05 97 3e 16 6e d9 3e 1e aa 12 bd
       -0.21804883 0.29496238 0.424668 -0.035806768

bias f4 [17]
000000 6e 26 7a 3c 9a 2b f7 3d 49 0a 2f 3e a0 af 57 bd
       0.015267951 0.12068863 0.17093767 -0.052657723
000010 4e 47 f4 bd e4 96 c1 bd 9c 1b 3f 3e e5 3d 23 be
       -0.11927663 -0.09452608 0.18662876 -0.1594158
000020 59 2c e1 3d 4d 4f 67 3d 35 a1 59 be d5 08 6a bd
       0.10994787 0.05647211 -0.21252902 -0.05713733
000030 c7 99 1b 3e 20 45 23 3e ba 4c 2b be e0 69 ee 3c
       0.1519538 0.15944338 -0.16728488 0.02910322
000040 4b 7b 07 bd
       -0.033076566
