models/weighted/a19lds19b0.007g0.02d0.1h13e 9.pt (torch, 127324 bytes, 26 tensors)

weight_ih_l0 f4 [52, 4]
00000000: 0a34 92bc c48e 9fbd 6548 74be 4ad7 9f3e
00000010: 7713 6bbe 22e0 a5be aeae 7f3e b50b 8f3e
00000020: de47 8c3e e2ee 503c 9abe 2c3e a63f c0bd
00000030: 748b a2be a8d8 8abd 4037 37be 7ca1 cfbd
00000040: a1d5 c5bc 3dee 3cbe a218 75be fde9 a1be
00000050: f903 f13d 0ebc 27be 91dd 4a3d 0eca 173e
00000060: b78f 7c3e 2ac8 46be 9e6f 183e cb13 c03d
00000070: c1ba 1f3e f980 94bd 4a87 dabd bd35 083e
00000080: 8a9d 8ebc b8f5 203e 0c3d beba 6ec7 e73c
00000090: d3ed 53be e98d 0ebe 317b ec3c 2b3e 72be
000000a0: 5426 abbc cc17 a5bd f826 73bc aabe b0bd
000000b0: dc39 08bf 8450 6dbd 75fa ab3e d918 aa3d
000000c0: ad40 92be 4f3a 15bc b789 bf3d 38d8 1a3e
000000d0: a5fe 8dbd d53b 2ebe 233f 543e b279 f13e
000000e0: 3ecb 39be a2c0 adbd beb9 e7bd f82e c6bd
000000f0: 0e7e 76bd 89e2 b9be fcbc 2fbe a805 f13d
00000100: 8054 a53d 7fc6 9fbe df3b 7e3e 4819 44be
00000110: 4c6b 8d3e d675 7d3e ad84 29bc 5f74 79be
00000120: 2030 4dbe a6b9 9fbd 050b debd 47e1 41be
00000130: 91ca c63c 00e1 3c3e c9c1 04be 8e4f 483e
00000140: bb79 eb3c 2fde 953d 6717 55bd 04b5 843c
00000150: e2d7 09bd d550 113d 6028 e13d 49aa d53d
00000160: ea1b 6c3e f150 f4bd 0828 55be 8180 ba3d
00000170: 2459 6abe a9b8 98be dfc7 86bd c750 8d3e
00000180: 6f8b 433e 596d 583d 4b80 9bbe 5bc8 f9bc
00000190: 90ca c7bb e3f6 adbe 73cd 873d 0907 b83e
000001a0: d692 9a3b 0a67 0c3e 382a b0be f0f1 7abc
000001b0: f1cf 78bd 63af 5cbe 4bb8 d23d 9ab5 88be
000001c0: ae37 f53e 5b94 a9be d387 ad3d 20ee 243e
000001d0: 3ff1 18be 5d99 a63d 5f0f 6e3d 68c7 683d
000001e0: ddea 293e 250e 443e 36a1 18bd c1d5 b83c
000001f0: 42ae 7fbe 79d7 91be df3e 2b3e 1576 753e
00000200: d9f9 aebd bc25 243e d33e 8a3e db2d 61be
00000210: 81bf 0f3d a912 98be 7eda 00be 9ac1 e03d
00000220: 75ec f4bd c1af 7fbe ab0f 6e3e 8e27 053e
00000230: 8aa9 3cbe b39a 343e dc7b 64be 672f a03e
00000240: b924 2dbe 0cdf 673e e0b2 1b3d f3d4 aabe
00000250: f84e f7bd d449 2ebd f24b babe 2082 18be
00000260: e76d 09be d2d0 acbc d6fc 9b3e 3aab 2abe
00000270: f816 94bc 936d 5b3e 90ac 4e3e 3da8 c33d
00000280: c4bf ccbd 0d0c 4ebe 0699 693d d25e bcbd
00000290: 8fd8 343e cbb3 11be c456 0b3e d67e be3d
000002a0: 6b51 9fbd dfb9 8dbd 8239 8abe 3603 1b3e
000002b0: a6a8 ef3d fc49 8e3c 706b 2c3e b3d5 613b
000002c0: 1a29 8bbe 0a70 30be 719e 9e3c 1a1b 71bb
000002d0: b312 f4bd f652 01bd 4f70 c4be 1297 0e3d
000002e0: 2bd1 773e 1d77 e0bd 95d3 a7bd 0c7a f0bd
000002f0: db24 303d 14d8 243e c31a 57bd ba22 fc3d
00000300: bb98 503b 81ee c43c 1758 853e 92b3 b7be
00000310: ed9d 7b3c 3365 68bc 31ec 773e 9ff7 a53e
00000320: 19b0 263e 45dc 8ebe f669 9b3e c7e5 6e3e
00000330: c33d a73d 9a9c a13e febf e83b 44b3 3c3e
-0.01784708 -0.07790902 -0.23855741 0.3121894 -0.22956644 -0.32397562 0.24968979 0.2793862
0.2739858 0.012752267 0.16869584 -0.0938714 -0.3174702 -0.06779605 -0.1789217 -0.101382226
-0.024149718 -0.18450256 -0.23935178 -0.3162383 0.11768336 -0.16380331 0.04952771 0.14823171
0.24664198 -0.19412294 0.14886329 0.09378775 0.15598585 -0.07251162 -0.106703356 0.1330175
-0.017409105 0.15718734 -0.0014514043 0.028293338 -0.20696191 -0.13921322 0.028867336 -0.23656528
-0.0208923 -0.080611795 -0.014840834 -0.08630116 -0.53213286 -0.057938114 0.3358952 0.083055206
-0.2856497 -0.00910814 0.09352439 0.15121543 -0.06933335 -0.17015012 0.2072721 0.4716316
-0.18143937 -0.084840074 -0.113147244 -0.09676927 -0.06017881 -0.36305645 -0.17161936 0.11768657
0.08072758 -0.31206128 0.24827527 -0.19150269 0.27620924 0.24751982 -0.010346574 -0.24360798
-0.2003789 -0.077990815 -0.108419456 -0.18933593 0.024266513 0.18445206 -0.12964548 0.19561598
0.028744569 0.07317769 -0.05202427 0.016199596 -0.033653148 0.035477478 0.10994029 0.1043287
0.23057523 -0.11929501 -0.20816052 0.091065414 -0.22885567 -0.29828385 -0.06581091 0.2760069
0.19096158 0.052838657 -0.30371317 -0.030491045 -0.0060971454 -0.33977422 0.06630983 0.35942867
0.0047172112 0.13711181 -0.3440721 -0.015316471 -0.060745183 -0.2155128 0.10289057 -0.2670105
0.47894043 -0.33121 0.08473172 0.16106462 -0.14935778 0.081347205 0.058120128 0.056830794
0.165935 0.1914602 -0.037263118 0.022562863 -0.24968818 -0.28484705 0.16723202 0.23970826
-0.085437484 0.1603002 0.27001056 -0.21990149 0.03509474 -0.29701737 -0.12583348 0.109744266
-0.11959163 -0.24969389 0.23248164 0.1300337 -0.18424049 0.17637138 -0.22312874 0.31286165
-0.1690854 0.2264368 0.038012385 -0.33365592 -0.12075609 -0.042550877 -0.36386067 -0.14893389
-0.1342083 -0.021095667 0.30466336 -0.1666688 -0.018077359 0.21428518 0.20183015 0.09553573
-0.09997514 -0.20121785 0.0570307 -0.09197773 0.17660736 -0.14228742 0.13607317 0.09301536
-0.07779201 -0.06920218 -0.26997 0.15137944 0.11702089 0.017369263 0.16837859 0.003445965
-0.27179796 -0.1723024 0.01936266 -0.0036789835 -0.11917629 -0.03157326 -0.38366935 0.03481204
0.24200885 -0.10960219 -0.08194653 -0.117420286 0.043003898 0.16098052 -0.052515756 0.12311311
0.0031829316 0.024039509 0.2604377 -0.3587919 0.015357477 -0.014184284 0.24211194 0.32415482
0.16278113 -0.27902427 0.3035428 0.2332984 0.08166077 0.3156479 0.0071029654 0.1842776

weight_hh_l0 f4 [52, 13]
00000000: 064b 6a3d 8529 26be faec 7f3e 24e7 973e
00000010: b6cb 5abe eba7 bb3c bd63 a53c 7305 a0bd
00000020: 0b14 843e e77d 30bd a882 8cbe d871 b3be
00000030: 82cd 1b3e 2642 8cbd 42f0 7abe 716b bfbd
00000040: 080e 3abd f7ac 5b3e 1cd4 603e 5953 86bc
00000050: a293 cb3c d1c2 2e3e a9ea 8dbd 1225 2cbe
00000060: 2063 413e aa2a c33c 24a5 263e 8589 07be
00000070: e6ae 1dbc 1adb bb3d fbf4 23bd ac54 0ebe
00000080: 8b9b 26be 6f6a 1bbd bdd4 92bd 7147 d43a
00000090: 17e8 4f3c afbc 173e b3e4 bebd 940e 633e
000000a0: 3d51 943d 9023 5c3d 881b 76be d79b c7bd
000000b0: 43e0 d33d 9ae5 353e 49ce 6f3e ddc2 ed3d
000000c0: 2c75 8cbd 048f a8be 53d1 77be 6472 5a3e
000000d0: 90a8 b1bc 6f89 4eba 447a d43d a6ac 3abe
000000e0: 83f5 8e3d 587f 69be c4d0 85be 5b2b a93e
000000f0: b25d f83d cdb8 583e ea0b f03d e386 ed3c
00000100: 11f8 ccbb 69dc 713e ba69 9d3d 4e8a 4cbe
00000110: 3233 623e 699c a93d 2462 f0bd 13e2 6ebe
00000120: a1bd fdbc cac6 433d 3461 09be c51d 89be
00000130: d41a dfbc 4e48 c3bc 88c5 02be 089d 52be
00000140: cb22 24bd 4818 7d3e df7a efbd 1aa2 853d
00000150: 2b41 8dbd c69c 8c3d 2482 1a3d 60d3 2b3e
00000160: d088 80be 060d 62be e833 14be 7d6b edbd
00000170: 9939 96bd 0b1b 783e 38e6 28be e2ea a33e
00000180: c9a0 1ebd 5a99 b5bd 6825 873e b02e adbd
00000190: f743 3b3e fb16 10be 309a 493e 15ae b2bd
000001a0: 6472 823e 2db8 c5be 2b34 86be 30da 413e
000001b0: 04fc dfbe f7f6 ed3e f626 523e a7ba 243e
000001c0: 740e 753d bb0b 6d3d a96c 2bbc 9bfa 1dbe
000001d0: 13aa 1f3e 4e67 a53c 19fb 5ebe 334b 7fbd
000001e0: 2aca 843d 2c06 8d3d 2e08 73bd 11f7 853d
000001f0: cb21 943d 4973 96bd 0b42 4abe 54de 823d
00000200: f41e 9bbe baf5 e93c c7f4 043e b2d2 e53c
00000210: 16d4 f33d 9633 153d 1d71 6c3e 08da e33c
00000220: 5c3b 25bb 44b9 583e fd2d 53be b66a 71be
00000230: dfa4 d93d ffd0 8dbe 1f9f fe3d 98a2 e9bd
00000240: f67a 883e 5599 033e c32c 0dbe 7fb8 15bd
00000250: 45c1 373e eeae 793b c265 283e df95 813e
00000260: 65b8 55bd 8c5a 453e fd44 8dbb e55a 8d3d
00000270: 6653 323d 7e87 6ebc 9a9e dbbd 6cca cabd
00000280: 89e5 4e3e 1097 75bc e9b8 a2bd 0c90 a13e
00000290: 32ef bc3e ac50 a4be 5272 9ebd 6b57 ddbd
000002a0: 106e 11bd 24c4 cfbc 7567 a43c 172c 25be
000002b0: 62fa 63be 6ad9 abbd d0f8 4d3d 49b4 6abe
000002c0: 6e17 0bbd 5300 263e ca42 e83d 88ac 963d
000002d0: fa08 ad3d df95 82be f193 a5bc 17e2 543e
000002e0: 0d0d dcbd 9324 4abe b9d5 673e 0012 26be
000002f0: 3f0e f83c 0e28 1a3e 8c94 49be e232 05be
00000300: 63d2 1d3e c304 53bc 9424 25be fd22 77be
00000310: 7f55 733e 2733 7abe b75c d1bd 1e74 b53e
00000320: 99cd e83d 6458 efbd 2ba0 163b c171 cf3d
00000330: c77d 89bd fd33 6dbe f353 1b3d a256 fbbd
00000340: 0762 8f3c 8786 e038 b6b6 c6bc d593 273e
00000350: b6a8 353e 840e 04be 4beb 24bd cd16 6abe
00000360: 86a5 60be 17fe e8bd 0ffb 173e 4273 19be
00000370: fb96 723e fc29 b6bd af26 893e e16c fb3d
00000380: 699c 9ebd 114f d53d 4f0a ecbd 0b34 3a3e
00000390: c8e4 8fbe 14ec e43d b557 bd3d 7344 933d
000003a0: 26f4 313d f2d3 a83e d379 a53d 41e6 4a3e
000003b0: eaa6 843e 7b95 5c3e 6296 b63e 6410 0c3d
000003c0: f136 68be d9f9 8b3e 77e5 80be 7cda 203e
000003d0: a696 e8bd 14ed 413d 19e1 3d3e 80b3 033f
000003e0: 4d2f 10be 0006 afbe a02e 9abd be3e 25bd
000003f0: fc88 643d 1d22 d7bc 094f 13bd a4bf 5fbe
0.057200454 -0.16226776 0.24992743 0.29668534 -0.21366772 0.022907218 0.02018916 -0.07813539
0.25796542 -0.04308882 -0.27443433 -0.35047793 0.15215114 -0.06848554 -0.24505714 -0.09346665
-0.045423537 0.214527 0.21955913 -0.016397165 0.02485067 0.17066504 -0.069295235 -0.16811016
0.1888547 0.023824055 0.16273934 -0.13236053 -0.009624219 0.0917265 -0.040028553 -0.13899487
-0.16270272 -0.0379433 -0.07169483 0.0016195608 0.012689612 0.14818071 -0.09320965 0.2217353
0.072420575 0.053744853 -0.2403394 -0.09746521 0.10345509 0.17763367 0.23418535 0.11609433
-0.06858286 -0.32921612 -0.24200945 0.21332699 -0.021686822 -0.00078787556 0.10374883 -0.18229923
0.069804214 -0.22802484 -0.26135838 0.3304089 0.12127246 0.21164246 0.117210224 0.028994983
-0.0062551578 0.23619236 0.07686181 -0.19974634 0.22089842 0.08281786 -0.11737469 -0.23328428
-0.030974211 0.047797002 -0.13415986 -0.26780525 -0.027234472 -0.023838188 -0.12770665 -0.20567715
-0.040072244 0.24716294 -0.11693358 0.06525059 -0.068971954 0.0686584 0.037721768 0.16779852
-0.2510438 -0.2207528 -0.14472926 -0.115927674 -0.07335205 0.24229066 -0.16494071 0.3201514
-0.038727555 -0.0886714 0.26395726 -0.084561706 0.18287645 -0.14071266 0.19687724 -0.0872461
0.25477898 -0.38617077 -0.26211676 0.18930888 -0.4374696 0.46477482 0.20522675 0.16086827
0.059828237 0.057872515 -0.010462918 -0.1542763 0.15592222 0.020190861 -0.21775474 -0.062327575
0.06483872 0.06885943 -0.059333973 0.06541265 0.07233008 -0.07346208 -0.19751756 0.06390062
-0.30297053 0.028559554 0.12984 0.028054569 0.119056866 0.03642615 0.23090024 0.027813926
-0.0025212383 0.21164423 -0.20623012 -0.23575863 0.1062715 -0.27698514 0.12432694 -0.114079654
0.26656312 0.1285146 -0.13786606 -0.036552902 0.1794482 0.003809865 0.16445068 0.25309655
-0.052177805 0.19272822 -0.0043112026 0.069021024 0.043536566 -0.014558671 -0.1072361 -0.0990189
0.20204748 -0.014989629 -0.07945425 0.31555212 0.36901242 -0.32092798 -0.077366486 -0.10807689
-0.035505354 -0.025362082 0.020068863 -0.161301 -0.22263482 -0.08391078 0.050286114 -0.22920336
-0.03395789 0.16211061 0.11340864 0.073571265 0.08448978 -0.25504968 -0.020212146 0.20789371
-0.10744677 -0.19740514 0.22640122 -0.16217804 0.03028023 0.15054342 -0.19685572 -0.13007692
0.15412287 -0.012879553 -0.16127235 -0.2413444 0.23763083 -0.24433576 -0.10222762 0.35440153
0.1136734 -0.11686781 0.002298365 0.10129119 -0.06713443 -0.23164363 0.037921857 -0.12272383
0.017502798 0.0001070621 -0.024257045 0.16364987 0.1774014 -0.12896162 -0.040263455 -0.2286026
-0.21938142 -0.11376589 0.14841865 -0.14985374 0.23690407 -0.08894727 0.26787326 0.122766264
-0.077446766 0.10415471 -0.11525404 0.18183915 -0.28104234 0.11177841 0.092452444 0.0719079
0.04344573 0.329742 0.08079877 0.19814397 0.25908595 0.21541397 0.35661608 0.03419532
-0.22677208 0.27339056 -0.25175068 0.15708345 -0.11356859 0.047345236 0.18542899 0.5144577
-0.14080544 -0.34184265 -0.07528424 -0.04034304 0.0557947 -0.026261384 -0.035964046 -0.21850449

bias_ih_l0 f4 [52]
00000000: ee8c cdbc f429 27be 0681 013e 24f2 4b3e
00000010: 4c08 bf3d 5596 88be 4dcc 2b3e 629d 423e
00000020: ce20 eb3d c5aa c7bc b204 b43d df81 323e
00000030: 94fc 993d 4966 3d3e 6aa6 5fbd dbd1 59be
00000040: 95d7 d13d 88ce 48bc 9af6 553e 44d2 ccbd
00000050: 8e1b 613e 339b 873e a0df f8bc ba56 f13d
00000060: eabc 42bc 2b0c e9bd 7730 383e 662a 383d
00000070: dbd1 f5bd 939b bdbc 40fc 253e 7ed4 01be
00000080: 0105 843e 1a09 89be 525b 903e 3af1 b23d
00000090: 7fce c7bd 6881 aebd e24b 483e 4562 3ebe
000000a0: 15f2 49bd 1476 fc3d a240 8bbe 8e2f 7bbe
000000b0: eb04 8a3e 6d94 5a3d b7a0 e2bc 5cf0 8a3d
000000c0: 9c05 1ebe de82 97bd 41e4 903c 902d 903e
-0.025091615 -0.16324598 0.12646875 0.19916588 0.093277544 -0.26677194 0.16777153 0.1900535
0.114808664 -0.024373421 0.08789958 0.17432354 0.075188786 0.1849605 -0.054602064 -0.2127146
0.10246197 -0.012256272 0.20894852 -0.100010425 0.21983168 0.26485595 -0.03038007 0.1178412
-0.011885861 -0.11379274 0.17987238 0.04496231 -0.120029174 -0.023145473 0.16209507 -0.12678716
0.25785068 -0.26764756 0.28194672 0.087374166 -0.09756183 -0.08520776 0.19560197 -0.18592174
-0.049303133 0.12327209 -0.27197748 -0.2452986 0.26956877 0.053364206 -0.027664525 0.06784126
-0.15431827 -0.07398008 0.017686965 0.2815976

bias_hh_l0 f4 [52]
00000000: 2600 c0bd d3bf 4e3e 850c f2bd b946 7d3e
00000010: 2432 9bbd 0905 c5bc 1149 45be 0987 2fbd
00000020: 70ac c4bd caf6 58be 1cf7 5dbe 578f 81bd
00000030: ae8c 8ebd 42f5 6b3e d815 e43d 2c63 e2bc
00000040: c06c 16be 4522 273d a550 eb3d 07d8 463d
00000050: c2f2 40be 76ad fe3d 4ea4 bb3d 8188 30bc
00000060: a250 45be 1740 03be ca2a 30be 7e46 ef3d
00000070: adb7 1d3d 1e11 57be e8ab 82be a732 83be
00000080: 06eb 183e efec 20be 8f5e 0f3e 02f2 1f3d
00000090: 7539 543e 6592 bb3c 8484 36bb 095b ba3d
000000a0: d0a3 70bc 96fc 123e a408 f73d 30a7 c0bd
000000b0: 4802 d63c f1dd 0f3e e0ff d1bc e07a 8d3e
000000c0: 7830 253e 2c8e 0b3d f9ea 30be a6c4 3fbe
-0.09375028 0.20190363 -0.11818794 0.2473401 -0.07577923 -0.024050253 -0.19266154 -0.04285339
-0.09603202 -0.21187893 -0.21676296 -0.06326168 -0.06960426 0.23042777 0.11136979 -0.02763518
-0.14689922 0.040804166 0.11489991 0.048545863 -0.18842605 0.12435429 0.09162198 -0.010774733
-0.1926904 -0.12817417 -0.17203823 0.11683367 0.038505245 -0.21002623 -0.2552178 -0.25624582
0.14933404 -0.15715383 0.14000915 0.039049156 0.20725043 0.022896955 -0.0027849982 0.09099395
-0.014687493 0.14354166 0.12062195 -0.094068885 0.026124135 0.14049508 -0.025634706 0.2763281
0.1613177 0.034071133 -0.17277135 -0.18727359

weight_ih_l0_reverse f4 [52, 4]
00000000: 95f3 38be 111a 8c3e 8fb0 e23e 13dc 48bc
00000010: 9579 863e 8bfb 9d3d 16b4 bfbd f622 1b3d
00000020: 2163 41be 479c 363e bda7 8c3c 2079 bd3e
00000030: 5ad9 95bd 8701 503c d2f3 81be 5333 e6bc
00000040: 790a 42be 8753 873e 87a1 493d 876c 113e
00000050: 8214 fa3d ebef f83d 52d2 ce3d 474c 973e
00000060: 3670 13be 5b1e b23c 025d df3b 09b3 fb3d
00000070: ef33 2ebd b7ad 21bb 4c59 d1bd 34f9 df3b
00000080: 2197 72bd f5e0 c6bd 7c4f efbe 012e 083d
00000090: d5ab a13e 4f14 413e e32f 34be 9af6 043e
000000a0: 0b18 25be c537 c6bd 8f2d 853d 64ff 03bd
000000b0: 14e0 61be 0a5f ca3d db14 2ebe 2fde 083e
000000c0: 46a0 e6be 39ba f43c 439d 9cbe 4ed4 ba3d
000000d0: 03fe 10be d692 56be a447 9a3a 5d73 4f3e
000000e0: 0a1d 453d 57c1 eb3c b464 c03e 24df 673e
000000f0: 9039 773e 61dd 27be a3c9 1f3e fda4 373c
00000100: 2549 383d 8156 46bd d7f1 8dbd 9bba 33be
00000110: d53b d33c d0e0 313e 34f4 f83c 40ca 873e
00000120: a79b a23c 8664 943d 4052 57be fd93 3fbe
00000130: 1aac 60be 2714 8bbe aa12 843c 0bd9 703e
00000140: 018c 52bd cc68 253e d1b9 8d3c b442 a33b
00000150: ab83 50bd 7d94 6ebe 8fb0 b3be c481 a1bc
00000160: 9809 04be 89b4 af3e cb21 c6bd c38b 98bd
00000170: a44c c4bd 6664 823e 1220 543e c679 bb3e
00000180: d600 113e c4f2 793e 017f e43c 2491 9e3d
00000190: 4816 4dbe 1203 4f3c ca73 bebd ccc8 6e3e
000001a0: b6e0 aebe 1150 5f3e b468 91be d0ed 023e
000001b0: b352 21bd 23dc 913d a73a edbd 70cf eebd
000001c0: 822a 4ebe cd92 7bbe dcd5 0bbe 06bb bdbd
000001d0: bf62 38be 5614 c63e a9c1 e1bd b557 0bbe
000001e0: 6323 2e3d cad3 93bd 5f47 db3d 62d5 9a3e
000001f0: 8770 7fbd e399 743e 07ad 7b3d 0f0b 4e3e
00000200: 54e7 a63e 7868 95be 45fd b2bd e4e2 013d
00000210: a9bd acbc 5049 eabd c045 7c3e 7bf7 8ebe
00000220: 7713 963e fcab 1dbe 2ed7 6abe a309 9d3e
00000230: d56a 95bd aa21 d53c ec77 98be 34bb d0b9
00000240: 2453 953e 5fae 36be 4f35 863e 2267 983e
00000250: 898b fb3c 8081 8e3e 70fd 303c 33a3 a83e
00000260: 1183 3bbe 46ac 2cbe a175 45be 07d9 39bd
00000270: 69a1 77be 4edd 01be 3cd4 4bbe 57bc c9bc
00000280: 38f9 c53d 4b6d 7abe f0c5 443e 550b 1a3d
00000290: f875 043e 44e4 12be ef0c 82bd e104 11be
000002a0: 601c ac3c 91fa c0bc 0251 80be 9aa8 293d
000002b0: a865 76be fa77 45ba c006 c53e f370 18be
000002c0: 954d ae3d 3128 d7bc 7a72 57be 90e7 fc3c
000002d0: 1d6a dbbc aa12 8bbe 2f5f 013e 82b1 37be
000002e0: 28d9 793d fe21 9bbe 4a1e 08be ac6b 0d3e
000002f0: 1c4b ba3d 5de6 3b3e c48d 403e 386b 00be
00000300: 5d7e 44bd 3188 1b3d 4ba9 48be eb61 ffbb
00000310: 45c8 eb3e f871 883e 75d2 b0be fb9b fcbd
00000320: a1e9 4b3e 714c 193d 3f57 83bd 2208 1ebe
00000330: c205 e1bd 195c 30be 6847 d2bd df69 723e
-0.18061669 0.27363637 0.4427533 -0.012259501 0.26264635 0.07713994 -0.093605205 0.03787514
-0.18885471 0.17833053 0.017169828 0.37006474 -0.07316847 0.012695677 -0.25381333 -0.028100645
-0.18949308 0.26430914 0.04922631 0.14201556 0.12210943 0.12155136 0.10098709 0.29550382
-0.14398274 0.02174299 0.0068165073 0.122900076 -0.042529996 -0.0024670193 -0.1022211 0.0068351272
-0.05922616 -0.09710876 -0.4674033 0.033246998 0.3157641 0.18855403 -0.17596392 0.12984696
-0.16122453 -0.09678606 0.0650283 -0.03222598 -0.22058135 0.098814085 -0.17000143 0.13366006
-0.45044154 0.029873954 -0.3058873 0.09122525 -0.14159398 -0.20954451 0.0011770618 0.20258851
0.048123397 0.028778715 0.3757683 0.22643715 0.24143052 -0.16393043 0.15604262 0.01120877
0.04499163 -0.04842234 -0.06930893 -0.17551653 0.025785366 0.17370915 0.030389883 0.26521492
0.019849611 0.07245736 -0.2102747 -0.18708797 -0.21940652 -0.27163813 0.016122181 0.23520295
-0.05140305 0.16153258 0.017300518 0.004982317 -0.05090682 -0.23298831 -0.3509564 -0.019715197
-0.12894285 0.34317425 -0.09674414 -0.074485324 -0.095849305 0.25467223 0.20715359 0.36616343
0.14160475 0.24409014 0.027892591 0.07742527 -0.20028031 0.012635009 -0.09299429 0.23318785
-0.34155816 0.21807887 -0.28400195 0.12786031 -0.03938551 0.07122066 -0.11583453 -0.11660659
-0.20133403 -0.24567719 -0.136558 -0.092641875 -0.18006419 0.3868739 -0.11023266 -0.13607676
0.042514216 -0.0721813 0.10706972 0.30240923 -0.062363174 0.23886828 0.06144431 0.20121406
0.32598364 -0.29181266 -0.087397136 0.03171052 -0.02108653 -0.114397645 0.24635983 -0.27923188
0.29311725 -0.15397638 -0.22933647 0.30671415 -0.07295767 0.026017029 -0.29778993 -0.0003981233
0.29164994 -0.17839955 0.26212546 0.29766184 0.030706184 0.27833176 0.010802612 0.3293701
-0.18311717 -0.16862592 -0.19283153 -0.04537299 -0.24182667 -0.12682077 -0.1990518 -0.02462594
0.09666675 -0.24455754 0.19216132 0.037608463 0.12935627 -0.14344889 -0.06350123 -0.14162017
0.021009624 -0.02355698 -0.25061804 0.041420557 -0.24062216 -0.00075328315 0.38481712 -0.14886837
0.08510891 -0.026264282 -0.21039763 0.030872136 -0.026783997 -0.27162677 0.12633966 -0.17938808
0.060998112 -0.3029937 -0.13292804 0.13810605 0.09096357 0.18349595 0.1880408 -0.125409
-0.047972072 0.03797168 -0.1959583 -0.007793655 0.4605123 0.2664945 -0.34535566 -0.123344384
0.19913341 0.037426416 -0.06413125 -0.1543279 -0.10987426 -0.17222632 -0.10267526 0.23673199

weight_hh_l0_reverse f4 [52, 13]
00000000: 5e9e c4bd 6383 c3be 8366 093d 4ff2 9cbd
00000010: d080 df3e 4a25 bd3e 6e45 523d 0eac 5f3e
00000020: 09ca 133e 2897 cebc c8ed 8c3e e218 f53d
00000030: c66f 29be 900d 48bd 9c6f eebd d5af 933e
00000040: 4681 c0be 7442 be3c a422 943d b9a8 db3d
00000050: d8ed 66bc df96 ea3c 5dd5 923d 0f67 7ebc
00000060: b1ab ef3e a023 593e 76be 88bd edff fbbd
00000070: ecb8 8cbd ef0d 813d 0cf8 28be 3be5 b5bd
00000080: b3d4 00be 5306 dc3e 2599 e4be 2e0c 973b
00000090: e5cb 443e cfb1 f03e 2240 9bbe 5af0 8ebe
000000a0: 2b1d 95be 33bd b4bd ef44 bebe 4587 68be
000000b0: 17c1 593e 6518 adbc 389d a3bc 0b22 7a3d
000000c0: 4d7d b43e 2204 3d3e 0cce 2bbe bdc6 183e
000000d0: 2778 0f3d d89c d03d 2f3d 613e 9b53 17bd
000000e0: f3b6 61be 8e1e 2c3c 7365 aeba 25a9 813e
000000f0: e756 1f3e 6000 f4bb 4734 98be d65d 323e
00000100: 9842 a5bd c3f6 1c3e 460d bf3c 68f5 73bd
00000110: 97bc e23d 1250 7f3e c691 973e 747a 843d
00000120: 9b9a 8cbe 4dec adbe a71b 863e 4828 65bd
00000130: ed4d f7bc 8f17 b2bd 3ea4 d2bd 48eb 08be
00000140: e222 b0bd 6286 433d e421 2f3e 33b3 a93d
00000150: 0078 7cbd 6a5c 723c 1d60 b53d 31a4 79bc
00000160: c59d 3b3e a9e6 a93d d763 213e aa4e 82b9
00000170: 5d1c 1bbd e612 54bd 7b47 a0bd a6c0 033e
00000180: f52f 3f3e 65a8 41be 0985 003e e1f2 203e
00000190: 09dd 813d a8b4 debd ffab 593e 68ee b83e
000001a0: c08d 933e 0ae3 b33d acc4 a03e a0d3 453d
000001b0: d543 303e f3c0 5e3e 2d6d 2d3d 8c55 28be
000001c0: 7a57 0fbf a905 713c 1fbb 583d b0eb 003d
000001d0: 2922 9a3e 2bb0 4b3e 71a5 04be d361 f23d
000001e0: b196 0bbe 638a 343e 9cb4 5e3e b4a1 96bd
000001f0: af6e 783e 2cea 813c c50d 9c3d c5c6 473d
00000200: 9cda 82be fea3 8fbc 733a 813e 764d b83d
00000210: c735 46bd ba1e 13be 1389 303e 13ba 47be
00000220: 7719 843d ec76 ac3e 3424 163d 7575 da3d
00000230: 80dd 0cbe 3a1b 34bd 9855 af3d a302 3abe
00000240: de03 ad3c 2567 cabd c92b 8cbe 96c4 673e
00000250: aa74 bf3d fcc0 4d3e 9185 33bd 8a95 833e
00000260: d1bf c1be 857e 9dbd 9da2 70bd 35c2 49bd
00000270: de34 623e cdbb 90be 4c32 7dbd 7cd4 193e
00000280: fb39 06be 4aa5 ffbe 4d85 0d3e 05fb b43c
00000290: 5ce7 ac3d 2dca 59be a10d 133e d207 4f3d
000002a0: 14d8 923e 5c96 3c3e a9d6 d43c 9512 d6bc
000002b0: 8ed8 3bbe 221f 02be 6b7f 803c d557 bc3e
000002c0: edd4 80be e6e8 a0be ab79 2e3e d2b5 44bd
000002d0: fa04 983d 570e 47be 3a09 1f3e f4a6 c9be
000002e0: cec4 dfbc 3e3d 4abe 7665 a3be 7d0a 2fbe
000002f0: 6ebe 223e d5dd 3b3e 9f40 67be f9b0 d03d
00000300: fa5c 423d a10b eebd 9ad0 2f3e 39c6 1ebd
00000310: 137d c03e a390 7bbe aabd edbd b63e 113d
00000320: 94c2 06bd 09bc b53d 00ce f53c 4aa9 243e
00000330: 9bc0 03be 1ff3 ab3c c2a4 c63d 6cce e0bd
00000340: f0db 813e 36fc fd3d 60c0 e2bb 6011 a3bd
00000350: 3600 a43e 3856 44be ee01 073e d858 ba3d
00000360: 5b63 8abe d88c b7be 0c34 67bd 0fc3 81be
00000370: 7fad 4abe c1ff b33d 7b06 68bd 64b6 cabd
00000380: de58 d2bc a796 523d 51fe d23d d6dd 183e
00000390: 4596 783e 860a e93d 26d3 debd 950d 93be
000003a0: d856 52bd ee89 1c3e 39c9 b6be 129e 803e
000003b0: aa51 44bd 39f3 8ebd 3e95 803e 32cb 2f3c
000003c0: 0ac5 dc3c 0037 8ebb 951c 6fbe 0648 433b
000003d0: b966 34be d255 87bd e99f 2ebd 1c0b 8f3e
000003e0: f4e2 92bc 1d0a 04be 9527 4d3e 1919 923d
000003f0: 1249 16bd 69f4 d0bd 7daf 1c3b f2b4 98bd
-0.09600519 -0.38186178 0.03354503 -0.07663404 0.43652964 0.36942512 0.051335745 0.21842977
0.14432539 -0.025218561 0.27525163 0.11967637 -0.16546544 -0.04884106 -0.116423815 0.28845087
-0.37598628 0.023225047 0.0723317 0.10725541 -0.014094792 0.028636394 0.07169602 -0.015527501
0.46810678 0.21204996 -0.066769525 -0.12304673 -0.068712085 0.06301486 -0.16500872 -0.08881613
-0.12581138 0.42973575 -0.4464809 0.004609606 0.19218405 0.47010657 -0.30322367 -0.2791775
-0.29123816 -0.088251494 -0.37161967 -0.22707851 0.21265064 -0.021129796 -0.019972429 0.061067622
0.35251847 0.18458608 -0.1677782 0.14919563 0.035026696 0.101861656 0.21995996 -0.036944967
-0.22042446 0.010505332 -0.0013305381 0.2532436 0.15560494 -0.0074463338 -0.29727384 0.17418608
-0.080693424 0.15328507 0.023321759 -0.05956021 0.11071127 0.24932888 0.29603404 0.064686686
-0.27461705 -0.33969346 0.26192972 -0.05594662 -0.030188525 -0.086959 -0.10285233 -0.13371003
-0.08600403 0.04773558 0.17102772 0.08286133 -0.06163788 0.014792541 0.08856223 -0.0152369
0.18321903 0.08295948 0.15760742 -0.00024854142 -0.037868846 -0.051775835 -0.07826134 0.12866458
0.18670638 -0.18911894 0.12550749 0.15717651 0.06340987 -0.10874301 0.21257018 0.3611939
0.28819084 0.08783539 0.3140005 0.048297524 0.17213376 0.21753292 0.042340446 -0.16438884
-0.55992854 0.014710822 0.052912828 0.03147477 0.30104187 0.19891421 -0.12953736 0.11835065
-0.13631703 0.17630915 0.21748585 -0.07355061 0.24260972 0.015858732 0.07619814 0.048773546
-0.2555741 -0.017534252 0.25239906 0.089991495 -0.04839113 -0.1436719 0.1723979 -0.19504575
0.064501695 0.3368448 0.03665562 0.106669344 -0.1375637 -0.043971278 0.085612476 -0.18165068
0.021120008 -0.098829545 -0.27377155 0.22633585 0.09348424 0.20093149 -0.04382855 0.25700027
-0.37841657 -0.07690147 -0.05874883 -0.049257476 0.2209048 -0.2826828 -0.061815545 0.15022463
-0.13108055 -0.49930793 0.13820381 0.022092352 0.08442566 -0.2126853 0.14360668 0.050544567
0.2868048 0.18416733 0.025981264 -0.026131907 -0.18344328 -0.12707189 0.015685758 0.3678576
-0.2516245 -0.31427687 0.170386 -0.04802496 0.07422824 -0.19439064 0.15530863 -0.39385188
-0.027315523 -0.19749925 -0.31913346 -0.17093845 0.15892956 0.18346341 -0.22583245 0.10190005
0.04745195 -0.11623312 0.17169419 -0.03876326 0.37595424 -0.24566893 -0.11608441 0.035460196
-0.032900408 0.088737555 0.030005455 0.16080204 -0.12866442 0.020989953 0.09699394 -0.10976872
0.25363111 0.12401621 -0.0069199055 -0.079622984 0.3203141 -0.19173515 0.1318433 0.09098977
-0.27028927 -0.35849643 -0.05644612 -0.2534413 -0.19792746 0.087890156 -0.056646805 -0.098980695
-0.02567714 0.051413205 0.10302413 0.14928374 0.24276073 0.1137896 -0.10880117 -0.287213
-0.051352352 0.15286991 -0.35700396 0.25120598 -0.047929443 -0.06979985 0.25113863 0.010729598
0.026949424 -0.0043400526 -0.23350747 0.0029797568 -0.1761731 -0.06608166 -0.04263297 0.27938163
-0.017930485 -0.12894483 0.2003463 0.07133693 -0.03669078 -0.102028675 0.002390831 -0.074563876

bias_ih_l0_reverse f4 [52]
00000000: ddf5 523c 9847 153e bb65 6bbe c9a8 62be
00000010: 637f 1cbe a869 f6bd bf7e 833e 0833 84be
00000020: 89a5 5abe 1488 2e3d a6c3 803e d58a 3dbe
00000030: 585d 6cbc a25f 823e 498f 373e a96d 943b
00000040: c6dc 113c e3a5 123e 9980 873e ff90 f03d
00000050: 505b 90be b5bd 2a3e 7ced 81be 6330 8ebe
00000060: f479 183e e607 873e ce96 7cbd 753a 863e
00000070: 65b8 40be ab3d 1dbe 1de0 d2bd 3bd3 c73d
00000080: 356d cf3d 29f5 5a3d d7ba 223e 0674 3fbd
00000090: b0de c43d e630 86be 5c47 b6bd 1c87 6dbe
000000a0: 3eee 0c3e 0557 fe3d 7551 a9bd 5fd1 dd3d
000000b0: 615f 42be 6c12 45be 87d1 f2bd 84ff 8fbc
000000c0: 1e9f bcbc e092 05be 55f0 4e3e b4f6 8cbd
0.012876001 0.14578092 -0.22988026 -0.22134699 -0.15282969 -0.12031871 0.25682637 -0.25820184
-0.21352209 0.042610243 0.25149268 -0.18509991 -0.014426552 0.25463587 0.17925753 0.004529674
0.008902734 0.14321093 0.264653 0.11746406 -0.28194666 0.1667393 -0.253765 -0.2777129
0.14890271 0.26373214 -0.061667256 0.26216474 -0.18820341 -0.15355556 -0.102966525 0.09757086
0.101282515 0.05345646 0.15891586 -0.046741508 0.09612787 -0.26209182 -0.089003295 -0.23196071
0.13762757 0.124189414 -0.0826749 0.1083095 -0.18981697 -0.19245309 -0.118563704 -0.017577894
-0.023025092 -0.1304431 0.20208867 -0.068829924

bias_hh_l0_reverse f4 [52]
00000000: 973a 3a3e f6f6 4b3e 759e 33bd 4db2 873e
00000010: 1c07 3d3e 26c7 15bd f4fc 83bc c61d ddbd
00000020: 14b5 383e 762f e0bb e60f bb3c a474 b8bd
00000030: 8fbd 343e 88c0 2bbe 62a5 8e3e 3f15 cc3c
00000040: 3b75 193e 687f 03be 4f54 26be f838 20be
00000050: db15 d73d f1f3 12bd c6f9 22be b9c0 be3d
00000060: ea05 5abe 3edb 5b3e 0519 58be 5933 80be
00000070: 1f3a 513e 6f9f 89be 7e21 63be 0c1b 54be
00000080: 07d1 073e bd81 75be 8b7a 04be fd53 6bbe
00000090: b156 fabd 6c16 213d 0dfc 35be 8fd6 d4bd
000000a0: 1ad9 643d b076 263e 037c d8bc 6d1f 2ebe
000000b0: 7b39 333e aa95 003d 3010 ac3c 997c 6b3e
000000c0: c645 d9bc fdda 933d 9f5f 163d c8b6 0bbe
0.18186413 0.19918427 -0.04385229 0.2650322 0.18459743 -0.036566876 -0.016111828 -0.107966945
0.18037826 -0.0068415953 0.02283473 -0.090066224 0.17650436 -0.16772664 0.27860552 0.024912475
0.14986126 -0.1284157 -0.16243099 -0.15646732 0.105022155 -0.035877172 -0.15915594 0.09314103
-0.21291319 0.21470353 -0.21103294 -0.25039175 0.20432328 -0.2687945 -0.22180745 -0.20713443
0.13263331 -0.23975272 -0.12937371 -0.22981258 -0.12223566 0.039328024 -0.17771931 -0.10392486
0.055871107 0.16256213 -0.02642632 -0.17004175 0.17502396 0.03139273 0.021003813 0.22996749
-0.026522528 0.07219503 0.036712285 -0.13643944

weight f4 [16, 260]
00000000: e3de 153d e106 b3bd 3a39 5e3d de90 74bd
00000010: bf5f 563d 6dd3 833d 60eb 0c3e 528e 52bd
00000020: 2ab3 84bd 9051 e53c 16fd aabd 63c7 bfbd
00000030: 01b6 083e 5937 553e 0346 903b 56ba ffbd
00000040: eeb2 223d a7d3 1a3d 6e34 503d e9d9 3dbd
00000050: df3a 363d 3779 603d 5cae 173d eed8 12bc
00000060: f47b d53d ac6f 2dbe 22d0 bf3c c287 16be
00000070: bee1 203d faff b03d 2917 0f3e acea ae3d
00000080: e15e 55bc 199d ffbd 821c 5a3d e938 233e
00000090: e76a 123c c73f 883d 4bf6 aebd 3b49 0ebd
000000a0: 4aac a5bd af0b c43c b163 0bbd 68fe d23b
000000b0: 240e 61bb 6478 733c 84b2 93bd 7b18 a2bd
000000c0: b1c1 acbd 0fe3 48bb 796b c23c 2d87 81bd
000000d0: 5633 78bd e457 d1bd b2b3 453c 71ca 2bbe
000000e0: 7cd8 563e 1f97 5ebd bd99 b6bd b2bd 53bd
000000f0: 1813 983d e621 78bd df20 7f3d 471c ee3d
00000100: c3fe 18be a6ce a53c 5009 b03d b801 04b9
00000110: c22e c93a 1e4f be3d 1ff0 953d 19ea a0bd
00000120: fe0a fbbd 3431 1dbe 797c d2b8 6f85 d33d
00000130: e1ee 81bd cc3f df3d 653a 9f3d 4647 3f3d
00000140: 4300 b6bd 7259 173d e433 23bd 6ea7 c13d
00000150: 6039 bdbd 5478 b1bd cf0f 453e c402 393e
00000160: 0d6b 6d3d d5e5 143e e4ec 873d 4fab c9bc
00000170: 1c5b 09bb 5735 6cbd 551d 92bd 5a6c e6bd
00000180: f887 4d3d 7e89 afbc b23e 463e acab 093c
00000190: c3dc 9f3d 5333 e4bd 0bdf 013d 2109 8e3d
000001a0: b444 5bbc e779 14be 061f 52bd bf93 d2bd
000001b0: 104c ccbc 7ae2 7e3d 5471 80bd c034 11bd
000001c0: c29f 9bbd ac58 2e3d 9467 423d edd9 013e
000001d0: b726 b6bc 0270 393d 019b 963d 2b4b 63bc
000001e0: 99e0 b6ba 2b35 fbba a394 193d 9aed 273d
000001f0: 9009 953d 6d9b 40be e22a a1bd 1945 5f3d
00000200: bbb1 1dbe da61 25be e687 c8bd 576a 8d3d
00000210: 69c6 fbbd 1103 943d 42c2 6a3d cdb4 2d3d
00000220: 2870 8b3d ed35 c7bd 98c5 733d d936 b83c
00000230: b878 aa3d 3c5e a4bd ea0d 0a3d 58f2 d5bd
00000240: c87a 16be 98ff ab3c f18c 963d 5e64 4d3c
00000250: ba70 c23d 5eff 77bd ca3d 1c3d 11e1 7d3c
00000260: db75 6a3d f1d6 933d 083c e83c 3f8c 14be
00000270: 5251 bdbd da49 883d 528d 0dbe 6f97 fcbc
00000280: eca9 ecbc d5da 6fbb 1eb0 0dbe 560a afbd
00000290: e615 663d 2cd2 87bd 0760 123e 8345 4aba
000002a0: 19f6 0abd 7bd3 7d3d 4e34 cfbd 40e5 0f3e
000002b0: f7ae 9c3d 9c1d 923c 0d16 e5bd f3df ec3c
000002c0: 2d17 6a3c 31e9 843b 894b 893d 0db8 993d
000002d0: 4c48 2ebe 4450 ffbd e9b1 80bd 2044 f13c
000002e0: c53a 3a3d 92a2 403d 6f0d bebd 331d 91bd
000002f0: a1f5 b83c 755f 91bd e27e 823d 6021 41bc
00000300: aa2d 49be bf2b 153b a138 99bc b21d bcbd
00000310: b380 073d ac2f dcbd f781 793c 8c43 233d
00000320: b3a7 323d 0ce2 b53d 9d63 ab3d 5282 8d3c
00000330: 79d0 45be c903 f23d 8f1a a9bc ec69 e7bc
00000340: 5101 dd3d bd14 0b3d 8b76 373d 632b a5bd
00000350: 0e0e c03c 26c5 e9bc 0b5f 603d f879 1e3d
00000360: de68 2c3c d13b c1bc c086 05bd 3742 a2bb
00000370: dae9 a93d d7cb f1bd 2623 11be 95e7 f63d
00000380: 1a5a cbbd 0c2b ddbd 8bed 4abd d941 09be
00000390: 7264 803c e5bf 933c b585 82bd 2d3d b7bc
000003a0: a92a 84bd e17d c0bc 153a 9dbc 5e86 0d3d
000003b0: e81e 603c db44 20bd 1041 9bbc 0ea4 df3c
000003c0: 7148 b13d 6c93 c6bc d498 67bd b2fa 953d
000003d0: eab6 babc 1caf 903c 9733 c33d 219a 24bc
000003e0: c16e 863d aa67 89bd 0eac 043d e432 7f3d
000003f0: 2386 07bd c98a 433d 5283 d6bd 579b 3e3d
0.036589514 -0.087415464 0.054253794 -0.05970847 0.052337404 0.06436811 0.13761663 -0.05140526
-0.06479485 0.027992994 -0.083490536 -0.09364202 0.13350679 0.20821895 0.0044028773 -0.12486713
0.039721422 0.037799504 0.05083125 -0.046350393 0.044489738 0.0548031 0.037031516 -0.008962853
0.10424033 -0.1693713 0.023414675 -0.14700225 0.039277785 0.08642574 0.13973679 0.08540854
-0.013023109 -0.12481136 0.053249843 0.15939678 0.00893662 0.066527896 -0.085430704 -0.034737807
-0.08089502 0.023931352 -0.03403062 0.006439019 -0.0034340704 0.014860246 -0.072117835 -0.079148255
-0.08435381 -0.0030652916 0.023732888 -0.06324611 -0.060595833 -0.10221842 0.0120667685 -0.16776444
0.2098102 -0.05434334 -0.08916042 -0.05169458 0.07425517 -0.060579203 0.062287208 0.11626487
-0.14940934 0.02024014 0.08595526 -0.00012589141 0.0015349018 0.09292434 0.0732119 -0.078571506
-0.12257956 -0.15350801 -0.00010036765 0.10328185 -0.06344391 0.1090084 0.0777481 0.04669883
-0.08886769 0.036950536 -0.03984441 0.09455763 -0.09239459 -0.08665529 0.19244312 0.18067461
0.05796342 0.14540799 0.0663698 -0.02461782 -0.0020958846 -0.057668056 -0.07134501 -0.11251135
0.050178498 -0.021427866 0.19359854 0.008402746 0.07805779 -0.11142602 0.03170685 0.06935335
-0.013383079 -0.14499627 -0.051299118 -0.102820866 -0.024938613 0.062227704 -0.062716156 -0.035450697
-0.07598831 0.042565033 0.04746206 0.12680788 -0.022235258 0.045272835 0.073537834 -0.013872902
-0.0013952433 -0.0019165626 0.037495267 0.04099808 0.072772145 -0.1880929 -0.07869507 0.054509256
-0.1539983 -0.16150609 -0.097915456 0.06905048 -0.12293703 0.07227147 0.057314165 0.042408753
0.068085015 -0.097270824 0.059514612 0.02248709 0.083238065 -0.08025786 0.033704676 -0.10446614
-0.14695275 0.0209959 0.07351101 0.012536136 0.09494157 -0.06054627 0.038144864 0.015495555
0.057241302 0.07218731 0.028348938 -0.14506625 -0.09244026 0.06654711 -0.1382344 -0.030833928
-0.028889619 -0.003659894 -0.13836715 -0.08546893 0.056173228 -0.06631884 0.14294444 -0.00077160465
-0.033926103 0.06196926 -0.10117398 0.14052296 0.076505594 0.017836384 -0.111858465 0.028915381
0.014287752 0.004056119 0.0670386 0.07505808 -0.17019767 -0.12466481 -0.06283934 0.02945143
0.045466203 0.04703004 -0.09279906 -0.070856474 0.022578062 -0.07098285 0.06371857 -0.011787742
-0.19646326 0.002276167 -0.01870376 -0.091853514 0.03308172 -0.1075128 0.01522874 0.03985934
0.04361696 0.08881006 0.08368609 0.017274056 -0.19317807 0.11817128 -0.020642547 -0.02824875
0.10791267 0.033955324 0.044790786 -0.08064916 0.023444202 -0.02853639 0.05477814 0.038690537
0.010523049 -0.023588093 -0.03259921 -0.004951741 0.08296557 -0.118064575 -0.14173564 0.120558895
-0.09929295 -0.10799226 -0.049542945 -0.13404025 0.015672896 0.018035838 -0.06373159 -0.022368038
-0.06453449 -0.023497524 -0.019192735 0.03455197 0.013679244 -0.039128166 -0.018951923 0.027299907
0.08656395 -0.024240218 -0.056542233 0.07323207 -0.022792298 0.017661624 0.09531324 -0.010046513
0.065640934 -0.067092255 0.032390647 0.062304392 -0.033086907 0.047739778 -0.10474266 0.046534862

bias f4 [16]
00000000: f408 e33a 219b 2abc 051e e1bc ce92 213d
00000010: 3f87 2a3d 4458 133d 8e31 febb 8db2 4ebc
00000020: fec6 573b 7b0f e9bb e402 0cbd 4fea 0e3d
00000030: 8391 a3bc b7f8 f9bc ebea 56bc d21a 053d
0.0017321394 -0.010412962 -0.027480135 0.039446644 0.041632887 0.03597285 -0.007757372 -0.012615812
0.0032925005 -0.007112441 -0.034182444 0.034891423 -0.019966846 -0.030514104 -0.013117532 0.03249628

weight f4 [19, 16]
00000000: 6678 8d3d 7e80 c7be eb98 02be 1c7a 53bd
00000010: a670 d4bd 0aa9 6abe 975b 943e eddf 113e
00000020: c724 fcbe e7a1 ab3c 0328 06be aa75 c83d
00000030: 88cc 13bf 375e c1bd 3be7 0fbe 62ff a0be
00000040: 1824 783b bca7 d5bd 89d2 ef3d aa04 92bc
00000050: 99db 6cbe 4e2b a8bd a545 c1be 295b dd3e
00000060: bd83 99bd 5dd5 4abe 8d65 a5be b0f7 34be
00000070: fba5 c7be 82df 3c3e 455e a1be f079 ba3d
00000080: b7ef 16be 8dd9 473e b86d 88be a567 403e
00000090: 1c98 2e3e ecd9 c6be a7e0 123e cd67 a53e
000000a0: 800e 20be 5e61 eab9 1ceb 88bd 9a86 41be
000000b0: e486 a13d 6ec7 79bd 5e7a 5bbe 281e 083e
000000c0: 9c02 1ebe 025a cebe 43f2 dbbd 3cbe 59be
000000d0: e3dd 783e 8799 af3e a8ab 3abe 4449 66be
000000e0: 4230 8fbe 8859 153d a45b 173e 9478 52be
000000f0: d09e ccbe 6d71 423e bea5 cfbd e4e1 973e
00000100: 1af4 fa3d de87 253e 659d c5bc 4fa4 813e
00000110: f6bd a93d c277 a53d a143 ca3c a67f aa3e
00000120: 825e 3f3d a7dd 0ebd 433b b83e 3305 ea3e
00000130: 0930 753e 7b3a 78be d4a9 06bd 00a1 643c
00000140: ab2a f93e 65e8 f03d 2ce6 b13e 6dd9 ddbe
00000150: 9715 fb3d fae1 8fbe 6942 28be 3144 033d
00000160: 4033 7f3e e6de 85be 2d2f 353e e690 72be
00000170: 0141 ecbc 14ea b9be 8173 b8bd 3014 1f3e
00000180: 11fc 9a3e 3b40 753e 7cc6 1abf f799 3dbe
00000190: 0ec2 b3be 4a88 83be d61c 3d3d 0fe7 cb3e
000001a0: 4d54 b33c 8e75 9b3e 70a3 3dbd 9f5d 6e3e
000001b0: e8c2 863d 27df be3e 05c7 3cbe 54a6 b4bd
000001c0: 0ed7 c63c 97e8 933d ba2e 023e 03ab c6bd
000001d0: 1cbc 1a3e a565 253e d671 e03d 9fb8 02be
000001e0: 9863 4fbe 053d 6ebe 043c 6bbe 6266 34bd
000001f0: df90 cd3e 4d9f 813e 1253 87bc 9286 913c
00000200: e92e e43e b125 993e 9640 0cbe c051 77bd
00000210: 1a32 d73d c3bb 693d 08ae ec3d 6aa9 d2bd
00000220: 3073 7b3e d463 0e3d cbcf fe3d a241 623e
00000230: f2f3 cebd 06ef fdbd da7c 1bbd 13ba 2fbe
00000240: 79e3 04bd eb10 bcbd 0b71 2cbe 949f b4be
00000250: abd7 463d b3f5 3abc f488 893d c66b bebe
00000260: 5671 2fbd bd6b a83e cce7 bdbd 0235 c9bd
00000270: cc21 38be 4e43 683c 592b 0dbd 68d4 2b3e
00000280: 3afb 56be fc98 bebe 8500 7fba 19a2 a0be
00000290: 9335 1a3e 7fbc 323e 25ad 8fbe af5b 68be
000002a0: 553a 9b3d 36a9 f63e 48e5 403f 2b36 193d
000002b0: 2e95 55bd 743a e0be 85c7 f83c 2ca6 9a3d
000002c0: c4f8 2dbe b35d 13be 2a2a dd3e f0a9 993d
000002d0: 936a 0abe db49 613d 63d1 023e 03d1 333e
000002e0: 7745 f3bd b07b 93bd aaba 873d 31d8 1fbc
000002f0: 882c 9a3e 6e40 3bbe 2123 1dbe 37d4 72be
00000300: 9980 943e 05e9 303e c15b 5a3e 9ddc cdbe
00000310: 3d8f 9cbe f7d6 e6be 162d a2be aa49 e4bd
00000320: 6a01 4cbe 95c2 fabd 84da c5be 46fb 00bf
00000330: c3ac 763e 5b9a 6fbe a9f4 a23e 1295 b73d
00000340: be86 1bbe 7092 f4bd cc3e 21be 6207 be3d
00000350: 205d 0a3d 101d 673f 6e1b ee3d 5960 df3e
00000360: 80ae 413d 8b3d 7c3d 07aa fbbd d61e fe3c
00000370: 2bd4 debe 4095 573e aace ec3e 0299 3e3e
00000380: 463a d7be 0388 39be 988e a1be 770c 623e
00000390: a0fa 923d 2640 183e a0b9 c6bd 2ad5 9abe
000003a0: 80c0 ec3d 10a8 31be 7783 61be ca60 b83e
000003b0: f941 d0bd fb7e 653e 65b5 633d 77de b03d
000003c0: feba 093d aae2 a1be 81bd b5bd bcc8 60be
000003d0: 0be9 c83e 501f 733e c69f 42be 21d2 1e3e
000003e0: a6d8 d8be 87ef f73c 3c17 b4be 6a82 6fbe
000003f0: 1389 71be 7e23 de3e 187a c9be 1c79 353e
0.0690773 -0.3896522 -0.12753646 -0.051630124 -0.103730485 -0.22916046 0.28976128 0.14245577
-0.4924681 0.020951224 -0.13101201 0.09788068 -0.57733965 -0.09441798 -0.14053051 -0.31444842
0.003786331 -0.104323834 0.11710078 -0.01782449 -0.23130645 -0.08211385 -0.37748447 0.43233612
-0.0749583 -0.19807954 -0.3230404 -0.1767261 -0.3899382 0.18444636 -0.31517234 0.09105289
-0.14739881 0.19516583 -0.2664621 0.18789537 0.17050213 -0.38838136 0.1434351 0.32305756
-0.15630531 -0.00044704502 -0.066854686 -0.18899003 0.078870565 -0.060981207 -0.21433398 0.13292754
-0.15430683 -0.40303046 -0.10739567 -0.21263975 0.24303393 0.3429682 -0.18229544 -0.22488886
-0.27966505 0.036462337 0.14781052 -0.2055381 -0.39964914 0.18988581 -0.10139035 0.29664528
0.1225359 0.1616511 -0.024122903 0.2532067 0.08288185 0.080794826 0.024690451 0.33300513
0.04672099 -0.034879353 0.35982713 0.45707092 0.23944105 -0.24241059 -0.032876804 0.013954401
0.48665366 0.11763076 0.3474592 -0.43329945 0.12259977 -0.28102094 -0.16431583 0.032047454
0.24921894 -0.2614662 0.17693777 -0.23688087 -0.02883959 -0.363114 -0.090064056 0.15535045
0.30270436 0.23950283 -0.60459113 -0.18515764 -0.3510899 -0.25689918 0.04617008 0.3982472
0.021890784 0.30363125 -0.046298444 0.23277901 0.06580144 0.37279627 -0.18435295 -0.08820787
0.024272468 0.07222097 0.12713137 -0.09700587 0.1511082 0.16152056 0.109592125 -0.1276574
-0.20252836 -0.23265465 -0.22972113 -0.044042952 0.4014959 0.2531685 -0.016519103 0.017764363
0.4456704 0.2991157 -0.13696513 -0.060380697 0.10507603 0.05706383 0.11556631 -0.102862194
0.2455566 0.034763172 0.12441977 0.2209535 -0.101051226 -0.12399106 -0.037960865 -0.17160825
-0.032443497 -0.09182914 -0.16839997 -0.35277998 0.04854552 -0.011411118 0.06715575 -0.371916
-0.042832695 0.32894698 -0.09272727 -0.098245636 -0.17981642 0.014176203 -0.034465168 0.16780245
-0.20994273 -0.37226093 -0.00097275554 -0.3137367 0.150595 0.17454718 -0.28061786 -0.22691225
0.07579485 0.48175973 0.75349855 0.037405174 -0.052144222 -0.43794596 0.030368576 0.07551226
-0.16989428 -0.14391212 0.4319623 0.07503116 -0.13517217 0.055002075 0.12775187 0.175602
-0.11878484 -0.07201326 0.066274 -0.009756134 0.301121 -0.18286297 -0.15345432 -0.23713766
0.29004362 0.1727639 0.21324064 -0.40207377 -0.30578032 -0.4508588 -0.31675023 -0.11146863
-0.19922414 -0.12244145 -0.38643277 -0.5038341 0.24089341 -0.23398726 0.31827286 0.0896398
-0.15188119 -0.11941993 -0.15746611 0.09278752 0.033780217 0.9027872 0.116263255 0.43628195
0.047285557 0.06158213 -0.122882895 0.031020563 -0.43521246 0.21053028 0.46251422 0.18613055
-0.42036647 -0.1811829 -0.31554103 0.22075067 0.07176709 0.1486822 -0.09703374 -0.30240756
0.11560154 -0.17349267 -0.22022806 0.36011344 -0.10168833 0.2241172 0.055592913 0.08636182
0.033625595 -0.31618243 -0.088740356 -0.21951574 0.39240298 0.23742414 -0.19006261 0.15509845
-0.4235279 0.030265583 -0.35173976 -0.23389593 -0.23587446 0.43386453 -0.39350963 0.17721981

bias f4 [19]
00000000: 77dc dd3d 7092 69bd 6b2b 453e babe 6a3d
00000010: ad9a bbbd 4381 11be 8cf9 ddbd 3fb3 3fbe
00000020: 1412 b0bd 6c20 e93c 1980 193e dc82 b7bc
00000030: 3fa9 a73d 562f 83bd 35b5 c83d 0068 18be
00000040: 0e3e 15be 6f1b f1bd b70c 3b3e
0.10833066 -0.05702442 0.19254844 0.057310797 -0.091603614 -0.14209466 -0.10838613 -0.1872072
-0.08597198 0.028457843 0.14990272 -0.022401266 0.08186578 -0.06405513 0.098001875 -0.14883423
-0.14574453 -0.11772811 0.18266569

weight f4 [19, 16]
00000000: 9556 703e f062 533d 9d4f c13c dfe3 173e
00000010: f852 07bf cc98 893e 50bb f63d addb 90bb
00000020: ba83 3ebd 7fdb cd3e 9deb f33d 30f3 95bd
00000030: 5cd8 9a3e 2689 05be a087 3d3d aaaa 25be
00000040: ca77 333e 4b5f 1ebe 5798 9c3e be82 cb3d
00000050: ecc3 d83d 6548 54bd 02b6 ecbd 19d0 6ebd
00000060: d05b aabe cca4 6d3e 3e5f babd d37e f5be
00000070: 11e9 c93d dde4 4c3c 06a8 d83c 82a2 e6bc
00000080: 4eea 03be ba04 3abe c821 c8bd e5f4 e73e
00000090: bd07 d63e 662d 8e3e 0df7 9e3d 0022 6fbe
000000a0: 1fd9 d8bd 4139 a3be f0a2 15bb 8522 81bb
000000b0: f73c 063e 422a a13e 16d2 4dbe a47e 583e
000000c0: ac39 173e 35a4 8f3d 9ab2 04be 09da 3bbc
000000d0: fdbb 37bd d6e3 5bbe 011e 06bf daf5 163e
000000e0: b76b 09be 5f08 023e 559c 17be e402 de3d
000000f0: eba3 14be d8eb b7be fa77 e6bd 0d0e 223f
00000100: ec9a d63e efd2 ce3e 95fd 0a3e 8399 95be
00000110: 64dc aabe e6bb ad3d 33dc 1f3e 4b58 c6bd
00000120: 6979 3dbe 1859 c33e 0fe0 75bd f350 bb3d
00000130: 1940 073f 99e9 c03d 950b b4be 2376 b83e
00000140: 62cb 8d3d 1fee d13d 51fb 0c3f 9398 7f3d
00000150: c009 52bc 6a4c a43d 79dd 66be 0f35 8abd
00000160: 7680 99be 803f c73c 35b5 b4bd b4c5 b23d
00000170: e18c a3be b4d1 b6be 17c2 9cbe 07d7 673e
00000180: e9f1 0abf bcbd 423d 01ad 373e 80e7 aabe
00000190: 51c9 1f3f 1913 503e 719f e5bd e281 d5bd
000001a0: ef8e 50be 60e7 5b3e a3b6 b2be 15e8 c13e
000001b0: d727 fb3d 866e 98be 686e 40be c043 263c
000001c0: 0b7b fa3e 0f0b 42be 2b90 03be 31be 1ebd
000001d0: 0202 dc3c 3427 52be ff2a 143a 759c debd
000001e0: a096 07bd 0935 153e 6a95 debd 1b4f c83d
000001f0: 949a 4c3c ceac 8abc 9eb5 0fbe e2c7 4fbd
00000200: a0eb 43be 3681 c83e 9bc9 ad3d c7f3 4dbe
00000210: 47e9 753e 6a04 0e3e 2bc0 92bd ba9a 703e
00000220: b2d7 f03d 4768 b03d 1ea6 833e f48a 723e
00000230: 5b6f cd3c e816 e53d 8e90 3e3e 13bd 46be
00000240: 5068 16bd 3010 a0be 2b41 dbb9 0fd4 15be
00000250: 8d6b 0e3d c4b1 a9bd ea1c f0bd 74ab 91be
00000260: 4e0e b2bd d80c 2abe d30d a0bc 4598 a03e
00000270: 8a10 4e3d cbc5 20be fcc9 903e e2f9 2e3d
00000280: 091e 2f3e 068b 22be 7a3f 49be 4e46 fb3d
00000290: d1ff 64bd e50b 7ebe 7394 a43e 6a5e a0bd
000002a0: d400 6dbc dfdd 8dbe 9803 aa3d 739b c8be
000002b0: 964b 993c 7309 383c 4d8b c9bd d12e d7bd
000002c0: 0f04 d3bd ae1c df3d bf25 b0be 4dc0 23bd
000002d0: b252 3cbd 45cf 66be fb85 84be 3fa7 d43e
000002e0: 6635 e73c 457f 0e3e d972 d93e 8686 d83e
000002f0: 6764 bc3e 3c6d 893d 0699 98be 1e13 933e
00000300: 1d2e 92bd e49d d8bd ac18 7938 a0fb efbe
00000310: d760 aa3c cad8 dbbd cb02 8b3c a659 8e3e
00000320: 1c58 34be 36b2 d83c 3623 7dbe cf41 f4be
00000330: df2c 91be ed8b 3f3e e7c4 a9bd 6178 06be
00000340: 6a84 203d fde2 3b3d fd80 df3e 66f6 50be
00000350: e9bb 0ebf 439f f1bc b95a d43e 0d3a a83d
00000360: 5870 00bd a044 553e 28ae 33be 7abb b8be
00000370: 425d 423e b69d 06bf e24b 83bd 10b4 9a3b
00000380: 1a65 66be 9296 bd3e b847 1a3e 22e2 abbd
00000390: 4341 563e 6973 7dbe f9ea 0cbe fe22 2dbe
000003a0: b535 573e aeb1 37be 8cfb bdbe 346c 9cbe
000003b0: 70be 0fbe e741 81bc 1a00 ffbe 02cd 77be
000003c0: 21aa 3b3d 4924 ce3e 11f2 eabd 3b81 293e
000003d0: 1b99 ab3b be5e bf3c f216 a8bb a94a 7bbe
000003e0: c15b 4abd 10af 2ebe 4fd0 06be 1f34 9cbe
000003f0: 29ad 843d cfc0 ac3e e2d5 893e 0fd7 8b3e
0.23470528 0.051608026 0.023597533 0.1483302 -0.52860975 0.26874387 0.12047446 -0.0044207186
-0.046512343 0.40206525 0.11910174 -0.07321775 0.30243194 -0.13040599 0.04627192 -0.16178384
0.17526165 -0.15466039 0.30584976 0.099370465 0.10584244 -0.051826853 -0.11558153 -0.058303926
-0.33273172 0.23207396 -0.09100197 -0.47948322 0.09858907 0.012505737 0.026447307 -0.028153662
-0.12882349 -0.18165866 -0.09772068 0.45304027 0.4180278 0.2776901 0.07761965 -0.23352814
-0.105882876 -0.3187962 -0.0022832714 -0.0039408826 0.13109194 0.31477553 -0.20099673 0.2114206
0.14768094 0.07013742 -0.12958756 -0.011465558 -0.044857014 -0.21473631 -0.5238953 0.14742222
-0.13419996 0.12698506 -0.1480573 0.10840395 -0.14515655 -0.35922122 -0.112533525 0.6330269
0.4191507 0.40395305 0.13573296 -0.29218683 -0.3337127 0.084831044 0.15611343 -0.09684809
-0.18503346 0.3815391 -0.060028132 0.09146299 0.5283218 0.09419555 -0.35165086 0.3602763
0.06923558 0.10250496 0.5507098 0.062401365 -0.012819707 0.08022387 -0.22545423 -0.067484014
-0.2998082 0.024322271 -0.08823625 0.08729115 -0.3194342 -0.35706866 -0.3061683 0.2264062
-0.54275376 0.047544226 0.1793709 -0.33379745 0.6241656 0.20319785 -0.11212052 -0.10425164
-0.20367025 0.21474981 -0.34904966 0.37872377 0.12263458 -0.29771823 -0.18792117 0.010147989
0.48922 -0.18949531 -0.12847964 -0.0387556 0.026856426 -0.20522767 0.0005652159 -0.108696856
-0.03310263 0.14571013 -0.10868342 0.09780713 0.012488026 -0.016928103 -0.14034125 -0.050727732
-0.19132853 0.3916108 0.08485719 -0.20112525 0.2401477 0.13868871 -0.071655594 0.23496523
0.117598906 0.08613639 0.25712675 0.23685819 0.025077512 0.1118601 0.1860983 -0.19408064
-0.036720574 -0.3126235 -0.0004181949 -0.14631675 0.034770537 -0.08285859 -0.11724265 -0.2845112
-0.08694135 -0.16606462 -0.019537842 0.31366172 0.05030874 -0.15700452 0.28279102 0.042718776
0.17101301 -0.15873346 -0.1965312 0.12269269 -0.055908028 -0.24809225 0.32144508 -0.07830508
-0.0144655295 -0.27708337 0.08301467 -0.39181098 0.0187128 0.011232722 -0.09841023 -0.105069764
-0.103035085 0.10894142 -0.34403798 -0.039978314 -0.045977302 -0.22540005 -0.2588347 0.4153385
0.028223705 0.13915737 0.42470434 0.42290133 0.3679535 0.06710288 -0.29804248 0.28725523
-0.07137702 -0.1057699 5.9389204e-05 -0.46871662 0.02079813 -0.107347086 0.016969105 0.2780277
-0.17611736 0.026452165 -0.24720463 -0.47706458 -0.28354546 0.18705721 -0.08289509 -0.13131858
0.03918878 0.04587077 0.43653098 -0.20406494 -0.5575548 -0.029494887 0.41475466 0.08214197
-0.03135714 0.2082696 -0.17546904 -0.36080533 0.18980888 -0.525844 -0.06410958 0.004721172
-0.22499505 0.3702894 0.15066421 -0.08392741 0.20923333 -0.24751057 -0.1376151 -0.1690788
0.21016581 -0.17938873 -0.37105978 -0.30551302 -0.1403749 -0.015778495 -0.49804765 -0.24199298
0.045816544 0.40262058 -0.11471952 0.16553204 0.0052367575 0.023360606 -0.0051296884 -0.245402
-0.04940391 -0.17058969 -0.13165401 -0.30508515 0.0647834 0.3374085 0.26920992 0.27312514

bias f4 [19]
00000000: 7122 8a3d dcac 1fbe 18b7 dfbd 80f7 033e
00000010: 7362 55be 3ae6 03be c616 07be 4684 1ebe
00000020: 5615 27be 8776 afbd b074 393e ab17 093d
00000030: d8c0 a93d 00bb 413e 6a08 0b3e cec1 24bd
00000040: b329 2d3e 731e ff3d 0358 a0bd
0.067448504 -0.15593284 -0.10923594 0.12887383 -0.20838337 -0.12880793 -0.13192281 -0.15480146
-0.16316733 -0.08567529 0.18110919 0.033469837 0.08288735 0.18918991 0.13577428 -0.04022389
0.16910438 0.124569796 -0.07829287
