models/weighted/a19lds19b0.007g0.02d0.1h13e 19.pt (torch, 127354 bytes, 26 tensors)

weight_ih_l0 f4 [52, 4]
00000000: 86e2 44bd 718c 3fbd ccc2 4abe 4589 b23e
00000010: 7c4b 67be 65e2 9bbe ffa7 893e 6dbf 993e
00000020: 8416 b03e 05af 9d3d 1ce7 343e abdd c2bd
00000030: 53eb 9dbe c38c bfbd f356 24be fca3 b2bd
00000040: d3e2 4cb9 80e7 03be 53bd 4dbe 39a8 a1be
00000050: 46bd 053e bf51 3bbe 73e9 8c3d 5f1c 0d3e
00000060: 93da 883e f188 4abe 492d 0e3e 8288 de3d
00000070: 1bde f43d 13ea 3cbd ca69 babd 75d7 1b3e
00000080: 8a63 51bd 4dc6 403e 7a1b 313c d7aa 683d
00000090: 4c2e 30be 9445 b8bd 37c9 903d 2f1c 3dbe
000000a0: 3735 40bd ef3c c5bc cc08 0b3c 0c47 c9bd
000000b0: 2c99 0fbf 0819 9fbd d04d b23e 7f02 b93d
000000c0: 8256 83be 564a 1cbc d1cc 043e 9b7f 553e
000000d0: 6131 cdbd f347 25be ae37 7a3e f20a 023f
000000e0: 50a8 14be 7bb7 bbbd 8ae2 b9bd 00a3 febd
000000f0: 27a3 bc3c 1cb4 a6be eaaf edbd cf4a 1a3e
00000100: 27d6 b43d 3c55 b0be 7c9b 843e beaa 32be
00000110: d29b aa3e ddfe 993e 5560 433d 4923 6ebe
00000120: 89d6 40be b78f b7bd fd88 a2bd 8af7 4cbe
00000130: fe1f 313d 3105 473e afdd 18be 1f28 5d3e
00000140: b5da 84bb 9b28 cf3d fc3c fabc 46e5 bf3c
00000150: 9a21 8ebd bd16 a43d bcf0 073e 2cbc fe3d
00000160: 62ad 813e e4e8 87bd 136e 44be d860 013e
00000170: 57ca 89be f6e7 75be 608b 0fbd 08b9 913e
00000180: 47da 263e b3f2 5b3d 548d 96be f039 16bd
00000190: b15f 70bc d5a7 a3be cfa0 bf3d af5b b63e
000001a0: 4fed 423d b76d 0e3e 20f7 c3be 1ef4 1ebd
000001b0: de7b 3cbd e71b 6abe 1749 f73d 4f60 99be
000001c0: d11d 0c3f e16c cabe 00cd 853d a00b 1d3e
000001d0: bd2e 22be 0ab6 c33d 0b7b 1f3d 674c 2b3d
000001e0: 655b 3d3e f91c 773e 4188 90bd 4bad 0b3d
000001f0: d45b 86be 64c2 87be 8e33 1d3e 0a43 803e
00000200: ca67 8abd 9aaa 1a3e 514e 873e ca3a 5abe
00000210: 30c9 973d 6166 a5be 56c5 10be a0d9 b83d
00000220: 94c1 25be 93b6 63be 3b2c 753e d152 1e3e
00000230: 3905 65be 3461 673e e1ad 85be 3ae9 ba3e
00000240: b0f2 67be a2ec 8e3e a5b2 783d 6a93 aabe
00000250: 53fd bcbd 6fda 7abd bfc6 c0be 234e 1cbe
00000260: cd73 00be df71 bebc d89b ac3e 2823 58be
00000270: 44c3 5fbd 519e 603e 9ebd 853e 5503 fe3d
00000280: 834c a4bd 94a0 41be fe37 b13d b8da a0bd
00000290: 62a6 803e 8a5e b9bd affa 3c3e a056 f83d
000002a0: 3258 8dbd 5297 dcbd 2950 7dbe 291b 2d3e
000002b0: 8d68 1e3e e350 9a3d 1cf4 613e b53f 573c
000002c0: 82e7 89be ab1e 45be a682 543d 709b 85bc
000002d0: 27de d3bd d0b9 eabc e409 cdbe 7ce0 343d
000002e0: 8487 533e 1f45 adbd c5b2 58bd a26c ecbd
000002f0: 06f6 ce3c e635 463e d0e2 07bd 9cad 023e
00000300: df3d c93c c983 b53d 2f23 973e 803e a4be
00000310: f8b2 f3bb d274 193d 4848 8e3e 46cb af3e
00000320: 864f 0f3e 77e7 8ebe cbcd a43e 0257 683e
00000330: 4c5c d13d 2552 9d3e 7d80 3b3d 1707 403e
-0.048067592 -0.046764795 -0.19800872 0.34870353 -0.22587389 -0.30446163 0.26885983 0.3002886
0.34392178 0.07699398 0.17666286 -0.09514936 -0.308436 -0.0935302 -0.16048793 -0.08722684
-0.00019539455 -0.12881279 -0.20091753 -0.31573656 0.13060483 -0.18292902 0.068804644 0.13780354
0.2672926 -0.19778802 0.13884462 0.108658805 0.11956426 -0.046121668 -0.09102209 0.15218909
-0.05112032 0.18825646 0.010809774 0.05680355 -0.17205161 -0.08997646 0.07069629 -0.18467782
-0.04692575 -0.024076907 0.008485984 -0.09828004 -0.56093097 -0.07768446 0.3482499 0.09033679
-0.25651938 -0.009539207 0.12968756 0.20849459 -0.10019184 -0.16140728 0.24435303 0.5079795
-0.14517331 -0.091658555 -0.09076412 -0.124334335 0.023027016 -0.32559288 -0.116058186 0.150676
0.08829909 -0.3444003 0.25899875 -0.17447945 0.33322006 0.30077258 0.04769929 -0.23255648
-0.18831839 -0.08962958 -0.07936285 -0.20016304 0.0432434 0.19435574 -0.14928316 0.21597336
-0.004054392 0.10115167 -0.030546658 0.023424756 -0.06940003 0.080121495 0.13275427 0.12438235
0.25327593 -0.06636217 -0.19182615 0.12634599 -0.26912186 -0.24014267 -0.035045028 0.2846148
0.16294204 0.053698253 -0.294047 -0.036676347 -0.014671252 -0.31963983 0.09356844 0.35616824
0.047589596 0.1390904 -0.3827448 -0.038807027 -0.046016566 -0.22862206 0.12074488 -0.2995629
0.54732996 -0.39536193 0.06533241 0.15336466 -0.15838142 0.095562056 0.038935702 0.04182091
0.18491895 0.24132146 -0.07057238 0.034100812 -0.26241934 -0.26515496 0.15351698 0.25051147
-0.067580774 0.15104142 0.26426938 -0.21311489 0.0741142 -0.3230467 -0.14137778 0.09025884
-0.16187125 -0.22237615 0.23942654 0.1546128 -0.22365274 0.22595674 -0.26109222 0.36506063
-0.22651172 0.27914912 0.060717244 -0.33315593 -0.09228005 -0.06124347 -0.3765163 -0.15264182
-0.12544174 -0.023247657 0.3371265 -0.21107161 -0.05462958 0.21935393 0.2612123 0.12402979
-0.08022406 -0.18908912 0.08653258 -0.07854217 0.2512694 -0.09051235 0.18455003 0.121258974
-0.069015875 -0.107710496 -0.2473761 0.16904892 0.1546957 0.07534959 0.22065777 0.0131377475
-0.2693444 -0.1924998 0.05188241 -0.01630947 -0.103451066 -0.028653055 -0.40046608 0.044159397
0.20657164 -0.084604494 -0.052904863 -0.115441576 0.025263797 0.19356498 -0.03317529 0.12761539
0.024565635 0.08863027 0.2951903 -0.32078934 -0.007437106 0.037464924 0.2778952 0.34334773
0.1399518 -0.2791097 0.32188258 0.22689441 0.10222682 0.30726734 0.045776833 0.18752705

weight_hh_l0 f4 [52, 13]
00000000: 4888 e63c 4323 3dbe d23b 5d3e 134c 8e3e
00000010: 484a 63be c225 d83b 85f8 453d c305 d7bd
00000020: 324b 953e 7465 e13b 19ed 7abe 03e5 c1be
00000030: 028a 363e 3b00 9dbd bf5f 57be 688d 9bbd
00000040: a26f 86bd 52eb 623e a854 463e 010a d63b
00000050: 3732 63bb bfec 473e 8215 98bd e82d 1fbe
00000060: be09 1d3e 7ae3 633d 02ce bf3d dedb ecbd
00000070: e65a 453d 285e b13b fb0e c13c 1d4b 64be
00000080: e71c a3bd 221e f7bd f265 2c3c 6659 e83c
00000090: 65d2 ae3d 8274 823d 0129 62bc 1d09 553e
000000a0: 5f9b 7e3d 537e 273d 6898 77be b7c0 c4bd
000000b0: 56f4 cc3d 158e 413e 2cfa 673e a7d0 033e
000000c0: 80f3 66bd fb6b 9ebe 62d7 77be 46ee 6b3e
000000d0: e233 83bd 3da0 31bc 329a d13d f878 7fbe
000000e0: 58a4 f93d 2cbc 95be 9675 4abe 3c8c 883e
000000f0: 295e 3c3e 005d 803e 11fc 303e f384 0ebd
00000100: f18b 593d 2464 6f3e 83fd b63d a78b 32be
00000110: 7ae1 563e 4a4c b03d 3a3e ffbd a80a 6dbe
00000120: 4dcf 09bd 5c15 403d b808 1cbe 4d61 8bbe
00000130: 5702 00bd 380e d4bc 1bf8 1ebe 4f1a 45be
00000140: 2d80 15bd 267e 783e 24b3 14be a324 8a3d
00000150: f568 72bd 6fa8 893d 88ca 523d f23b 1c3e
00000160: 832f 75be 95e5 65be ad75 03be 0811 d1bd
00000170: 7bf6 e4bd 0ba5 653e bfb4 2dbe 6506 b53e
00000180: 7dfb 44bd 72d3 a6bd 2e9f 813e a472 9fbd
00000190: 5212 673e 9c7a 0fbe d673 443e 4001 bdbd
000001a0: c29a 723e fc4a d7be ed92 a5be 6972 523e
000001b0: 3250 ecbe 8024 f43e 0d36 5c3e 25e5 1f3e
000001c0: dc21 ab3d e092 e53d 44e9 173c f6b2 25be
000001d0: 8837 383e 2c94 e9bc 9176 70be 6493 42bd
000001e0: 835c aabb 3612 033e c7b8 03be 9459 0c3e
000001f0: 6f6a 7e3a 8e28 adba fdb6 14be 8fd3 fa3d
00000200: 945b bfbe b807 c43d d331 013e dc19 a5bc
00000210: 58e8 7d3d 82b0 ffba e0b9 993e 9fac d8bc
00000220: b4fa 4e3d 9333 1f3e d02e 24be 2936 27be
00000230: 47a5 243e 553e 9dbe 3e4e 253e a1af efbd
00000240: 5df9 7f3e 0aed e73d 5f7a 04be 6862 53bd
00000250: b9e3 403e 06b3 ad3a d161 2c3e 098d 843e
00000260: 0e29 f2bc 6da7 3e3e 2cc8 e0bb cd83 903d
00000270: 5268 033d 376a 5dbc ebc3 06be 4da4 00be
00000280: 56ee 823e 8e3e 60bd 0a0a 2ebd 566a 8d3e
00000290: ccf5 cb3e 7c27 93be 5832 01bd 6aff 03be
000002a0: 2cc2 deba 60f7 18bd f4a9 a6bb 58b0 44be
000002b0: 692a 66be a2c5 e0bd e15e 593d 82c3 61be
000002c0: 9bc1 2abd 464d 343e 8747 223e d23a a63d
000002d0: d627 983d 2644 7dbe 72df aebc 08e3 613e
000002e0: c8de cdbd 21b7 53be 217a 673e 0a19 33be
000002f0: 227e 2b3d ebf1 0b3e 4f17 3cbe d959 07be
00000300: 7245 223e a6ee dcbc 5623 16be 5185 94be
00000310: 7662 4d3e 7a92 59be d0f7 3abe 8992 e23e
00000320: 8596 f93c 9835 0dbd 568b a0bd e3a8 363e
00000330: 0034 98bc d0c5 20be 2239 04bd dfe2 4cbd
00000340: cf55 b23b 2637 a7bb 6d7d 2abd 7468 2d3e
00000350: 42fc 263e 9a96 febd ae30 0fbd 2afc 6abe
00000360: 57d9 57be d9cb d9bd caa0 273e bf88 15be
00000370: b568 813e 61dd 18be 29af 8f3e 131d e83d
00000380: e2a9 12be a0a6 133e eea9 36be 6255 7e3e
00000390: 6b30 b1be de8a 3a3e 83d5 fd3d a9f7 093e
000003a0: 4e25 e2bc d030 cc3e 1904 8c3d 52cd 593e
000003b0: a8e0 913e 80aa 4a3e 9287 bb3e 18e2 ab3c
000003c0: 6337 5ebe 85f9 863e ba21 7abe 4209 103e
000003d0: 240c e3bd 199a 133d 65f1 433e 5707 f83e
000003e0: 9879 11be 8596 aabe f795 b6bd f404 7dbd
000003f0: 523d 4f3d b565 16bc 6632 37bd b087 49be
0.028141156 -0.18470483 0.21604851 0.27792415 -0.22196305 0.006596298 0.04833271 -0.10499146
0.29158932 0.0068785492 -0.24504508 -0.37870035 0.17826083 -0.076660596 -0.21032618 -0.075953305
-0.06564261 0.2216008 0.19368231 0.0065319543 -0.0034667382 0.19523905 -0.07425977 -0.15544856
0.15335748 0.05563686 0.09365465 -0.11565374 0.04818239 0.0054128356 0.023566714 -0.22294278
-0.07964497 -0.12066294 0.0105223525 0.028362941 0.08536223 0.06369878 -0.013803721 0.20804258
0.062159892 0.040891957 -0.24179232 -0.0960707 0.10007541 0.18901856 0.22654027 0.12872563
-0.056384563 -0.30941758 -0.24203256 0.23040113 -0.0640638 -0.010841426 0.102344885 -0.2494849
0.12189549 -0.29245126 -0.19771418 0.2666949 0.18395294 0.25070953 0.17283656 -0.03479476
0.053111974 0.23378044 0.08935072 -0.17436086 0.2098445 0.08608301 -0.12463041 -0.23148596
-0.033644963 0.04689537 -0.15237701 -0.27222672 -0.03125223 -0.025885686 -0.15524332 -0.19248317
-0.03649919 0.24266872 -0.14521462 0.06745269 -0.059182126 0.06721579 0.05146268 0.15257242
-0.23943906 -0.2245086 -0.12837858 -0.102083266 -0.11179825 0.2242624 -0.1696348 0.3535644
-0.0480914 -0.08145799 0.25316757 -0.07785538 0.22565582 -0.14011616 0.19184813 -0.09228754
0.23691848 -0.42049396 -0.32338658 0.20551457 -0.46154934 0.47684097 0.21504994 0.15614755
0.083560675 0.11209655 0.009271923 -0.1618155 0.17989933 -0.028513037 -0.2348273 -0.047503844
-0.0051990165 0.12799916 -0.12863456 0.13706046 0.0009705191 -0.0013210939 -0.1452293 0.12247383
-0.37374556 0.09571785 0.12616663 -0.020153932 0.06198916 -0.001950756 0.30024624 -0.0264495
0.050532058 0.15547018 -0.16033483 -0.16329254 0.16078673 -0.30711618 0.16143128 -0.117034204
0.24997468 0.113245085 -0.12937306 -0.05160752 0.1883687 0.0013252206 0.16834189 0.2588885
-0.029560592 0.18618555 -0.0068598 0.07056389 0.03208191 -0.013514093 -0.13160674 -0.12562676
0.2557246 -0.054747157 -0.042490043 0.2762019 0.39835966 -0.28741062 -0.031542152 -0.12890401
-0.0016995124 -0.03734529 -0.005086178 -0.19207895 -0.22477116 -0.109751955 0.053069 -0.22047237
-0.041688543 0.17607602 0.15847598 0.08116688 0.07429473 -0.24733028 -0.021346781 0.22059262
-0.10052258 -0.20675327 0.22605182 -0.1749002 0.041868336 0.13666503 -0.18368267 -0.13217868
0.15846804 -0.026969265 -0.14661917 -0.29007962 0.20057091 -0.21247283 -0.18258595 0.44252422
0.030467281 -0.03447494 -0.07839076 0.17837863 -0.018579483 -0.1570046 -0.03228105 -0.05002105
0.005442358 -0.0051030098 -0.04162352 0.16934377 0.16307166 -0.12431069 -0.034958534 -0.22947755
-0.21079002 -0.10634584 0.1636993 -0.14602946 0.25275198 -0.149282 0.28063324 0.113336705
-0.14322618 0.14419031 -0.1783826 0.24837258 -0.34607252 0.18217036 0.1239424 0.13473381
-0.027605679 0.3988099 0.06836719 0.2126973 0.28491712 0.19791603 0.3662687 0.020981833
-0.21700816 0.26362243 -0.24426928 0.14066032 -0.110863 0.03603563 0.19135053 0.484431
-0.1420654 -0.33317962 -0.08915322 -0.0617723 0.05059559 -0.009179522 -0.044725798 -0.19680667

bias_ih_l0 f4 [52]
00000000: 2d32 1c3c 7286 03be 0264 563e b168 543e
00000010: e909 273e 2d19 88be 7937 303e 8288 4b3e
00000020: f601 013e caaf 3b3d b5f6 0d3e 543a 333e
00000030: 8812 e43d 42e4 473e 1fc2 1cbd 758a 07be
00000040: 29f0 d33d aeb0 643d 8848 603e afd1 b5bd
00000050: 8af0 653e ff05 903e f027 ab3c 9472 193e
00000060: 91dc adbc a177 c7bd 6d41 3b3e 0f8b 3d3d
00000070: 83f1 e3bd f51c 06bd 8c45 373e 699a 05be
00000080: c46d 883e 4301 87be 3ac8 903e 01db a23d
00000090: 9cfb c5bd a9df b8bd 09aa 443e 1004 1dbe
000000a0: f214 7fbc 5688 523e f033 87be 7171 34be
000000b0: da2d 8a3e 23c8 643d c606 7bbc b1fa b03d
000000c0: 5fba aebd 8117 c0bc c737 b33c 88ba a33e
0.009533447 -0.12844256 0.20936587 0.20743062 0.16312374 -0.26581708 0.17208661 0.19876292
0.12598404 0.045821942 0.13863643 0.17502719 0.11136347 0.19520667 -0.038271066 -0.13236411
0.10348541 0.055832557 0.21902668 -0.088778846 0.2245504 0.28129575 0.020893067 0.14985114
-0.021223338 -0.09739614 0.18286677 0.046275195 -0.11130049 -0.03274246 0.17897624 -0.13047184
0.26646245 -0.2636815 0.2827776 0.07951928 -0.09667131 -0.09027035 0.19205488 -0.15333581
-0.015568959 0.2055982 -0.26406813 -0.176214 0.26988107 0.055854928 -0.015321439 0.086415656
-0.08531641 -0.023448708 0.021877183 0.3197825

bias_hh_l0 f4 [52]
00000000: 3f2d 72bd 5563 723e 1d8d 10bd a6de 823e
00000010: 946a c2bb 5c32 bdbc e5dd 40be 5cda 0bbd
00000020: 4fc9 adbd 7e15 11be af02 2abe 6f1e 80bd
00000030: 6ded 08bd 3b73 763e f9c3 023e 19ec 573d
00000040: 7e60 15be 5403 df3d 8bf4 ff3d 39d9 743d
00000050: c61d 3cbe 492c 103e 1853 123e 73f5 ad3c
00000060: 65e0 4ebe aaeb e4bd d419 2dbe d4f6 f13d
00000070: 4e78 413d e3e4 60be 8a0e 74be 9115 85be
00000080: 94bc 213e 40dd 1cbe 4838 103e 268b ff3c
00000090: db22 553e 8319 923c 917d cfbb 8917 fd3d
000000a0: bb07 9c3c e249 673e bd9d 033e baab ccbc
000000b0: 3091 d83c de6a 123e 18c5 59bc 69fd 963e
000000c0: e9d8 6b3e 1644 ad3d 84a0 2cbe aeaa 18be
-0.05912518 0.23670705 -0.035290826 0.25560492 -0.0059331153 -0.023095302 -0.18834646 -0.03414379
-0.08485662 -0.14168355 -0.16602586 -0.06255805 -0.033429552 0.24067394 0.1277007 0.052715395
-0.1458759 0.10889307 0.12497815 0.059777472 -0.18370733 0.14079393 0.1428951 0.021235203
-0.20202787 -0.11177762 -0.16904384 0.11814657 0.047233872 -0.21962313 -0.23833671 -0.25993016
0.15794593 -0.15318775 0.1408397 0.03119428 0.20814078 0.01783443 -0.0063321074 0.123580046
0.019046655 0.22586778 0.12853141 -0.02498423 0.026436418 0.14298579 -0.01329162 0.29490212
0.23031963 0.08460252 -0.16858107 -0.14908859

weight_ih_l0_reverse f4 [52, 4]
00000000: 422a 3abe bcae 9d3e 0f81 ed3e 26e7 06ba
00000010: 5ab5 a33e 51b3 933d f28a 75bd 37b2 703d
00000020: b00f 4cbe 7cbc 593e d659 a6bb 9f8a d83e
00000030: a4bf 4bbd b457 943d 694d 82be a416 a5bc
00000040: 1c6b 4dbe 4153 993e 25cf 383d 8fa0 103e
00000050: 9465 3a3e 074e 3b3e 39e3 f63d b7a8 b03e
00000060: 0ebb 99bd 3415 b83d 3c4f 463b 1eb2 c33d
00000070: e09f 84bd 7e4f b93b 48f9 acbd 11fb 343d
00000080: e75f 643c a2ca fdbc 0412 dbbe 0d1f c03c
00000090: 95fe a23e b5b7 643e 3211 3abe 6ef9 0e3e
000000a0: aae6 30be f03d dfbd 285b a63d 923b c5bc
000000b0: acde 3dbe 3d29 8e3d 48d3 00be d31a c63d
000000c0: 511f eebe e222 123d 8c49 94be e4f9 ec3d
000000d0: 2702 e7bd 6575 72be e32d 1e3d 0b5c 473e
000000e0: 2265 c33d 9fbd 2e3c 025d c23e 9ec3 6d3e
000000f0: e53a 6c3e 0eda 08be b971 083e 6553 773d
00000100: f5c1 8e3d 85c9 bfbb 1d14 a0bd 212d 37be
00000110: 0852 bf3c c5ae 563e 86c8 9f3c 6635 893e
00000120: 831c b83d 5f74 b43d fc47 1dbe 3dfe 21be
00000130: 187b 16be ea9a 9ebe 32e1 063d 7e93 773e
00000140: 72d2 61bd e61f 2c3e c6be 613c c601 c03c
00000150: c244 043c 691b 3cbe 7815 8fbe 46aa e23c
00000160: 14f4 07be 4837 c03e 08b2 d1bd fa4b 68bd
00000170: 825d ebbd 2752 813e fbd8 5c3e 40b3 b63e
00000180: 66d0 373e 3d1c 4d3e 5b38 8e3d 0ace a73c
00000190: 56dc 5dbe bb8f 843c ca23 9ebd f8f9 823e
000001a0: a831 b2be d507 7c3e 0e7a 9ebe 8803 0d3e
000001b0: 1dad 4e3c cc6e 8a3d 039f 1bbe 6577 11be
000001c0: d892 41be a749 8cbe f58a e9bd 5fef 0bbe
000001d0: 2b3a 4dbe ef5f b43e 86c7 dfbd f05c 13be
000001e0: bc63 5b3d 43f8 d9bd c46c e43d 6641 9c3e
000001f0: 8610 f3bd 6d46 973e 10bb 6c3d d306 773e
00000200: 097c cb3e b9ac b2be 1e3f d1bd 84e6 9d3b
00000210: 8542 e0ba 4d3b f4bd 4e2e 893e 43a5 a1be
00000220: fce1 ba3e fc94 5bbe 9237 88be 18a9 953e
00000230: 3cbb 92bd 447c 81bb cf85 95be 1a3f 42bc
00000240: d8b1 903e 9a20 29be ae09 8f3e c5b1 9d3e
00000250: f11d a1bb 3216 a73e 6d3b 0fbd 475e b83e
00000260: 39d6 2dbe 5036 31be d24f 57be 55a0 8ebd
00000270: 95be 77be df21 04be 0ebd 30be 755f 56bc
00000280: ce11 3a3e 2c38 88be e0cf 6d3e 4789 713d
00000290: d04e 173e edd2 ffbd a543 c5bd 5c57 b9bd
000002a0: cffd 723d 7059 bb3c ae4b 90be 3264 e83c
000002b0: 9ee7 74be 7063 093d 0c1e bc3e 7777 10be
000002c0: 55cd 1c3e e1b6 f63c 64f4 25be 79cb a73d
000002d0: 3f43 4e3d 761b 5fbe cf3b 0c3e cac6 54be
000002e0: 8a91 5c3d 24b0 9dbe 2214 ecbd 238b 333e
000002f0: 6470 263e fa18 7f3e dc2f 773e 6393 dabd
00000300: c79c 3cbd 22c3 893d 6288 56be 8dd6 ec3b
00000310: 7e10 e63e ff12 7a3e cba0 a7be 9b31 ecbd
00000320: 453d 6f3e 5e15 b53b 0b8f 31bc c5c6 4cbe
00000330: e6ed fdbd cce7 28be 999d c8bd c43c 873e
-0.18180183 0.30797374 0.46387526 -0.0005146138 0.31974298 0.07211936 -0.05994696 0.05876371
-0.1992786 0.21263307 -0.0050766272 0.4229326 -0.04974331 0.072432905 -0.25449684 -0.020152397
-0.2006039 0.2994633 0.045119423 0.14123748 0.18202811 0.18291484 0.12055058 0.3450372
-0.07506381 0.08988419 0.003025963 0.095554575 -0.06475806 0.005655228 -0.08445984 0.044184748
0.0139388805 -0.030980412 -0.42787182 0.023452306 0.31834856 0.22335704 -0.18170622 0.13962337
-0.17275491 -0.109004855 0.081228554 -0.024076257 -0.18541974 0.06941459 -0.12580597 0.09673085
-0.46508268 0.035677798 -0.28962362 0.115711 -0.112797074 -0.23677595 0.03861798 0.19468705
0.09540774 0.010665326 0.37961584 0.23219153 0.23069341 -0.13364431 0.13324632 0.060382266
0.06970588 -0.0058528804 -0.07816336 -0.17888309 0.023354545 0.20965107 0.019504797 0.26798552
0.08989813 0.088112585 -0.15359491 -0.1581964 -0.14695394 -0.30977565 0.032929607 0.24177358
-0.055132337 0.16809043 0.013778394 0.023438346 0.008073034 -0.18369831 -0.27946067 0.027669083
-0.13276702 0.37542176 -0.10239035 -0.056713082 -0.114924446 0.2525799 0.21567146 0.35683632
0.17950591 0.20030303 0.06944343 0.02048399 -0.21666083 0.016181817 -0.0772167 0.25581336
-0.3480351 0.24612363 -0.30952495 0.13770878 0.012614516 0.06759414 -0.15197377 -0.14205702
-0.18903673 -0.27399942 -0.11403457 -0.13665532 -0.2004172 0.35229442 -0.10926728 -0.14390922
0.05356191 -0.10643055 0.11153558 0.30518645 -0.11868386 0.29545918 0.057795584 0.24123697
0.3974307 -0.34897402 -0.10217117 0.0048187394 -0.0017109668 -0.11925373 0.2679314 -0.31571397
0.36500537 -0.21443552 -0.26604897 0.2923057 -0.071646184 -0.003951581 -0.2920365 -0.011855865
0.28260684 -0.16516343 0.27937073 0.3079969 -0.0049168994 0.3263412 -0.034968782 0.36009428
-0.1697625 -0.17305875 -0.21026543 -0.06964175 -0.24193795 -0.12903546 -0.17259619 -0.013084282
0.18170854 -0.26605356 0.2322383 0.05896881 0.14776158 -0.12491403 -0.09632043 -0.090498656
0.059324082 0.022869796 -0.2818274 0.02836809 -0.2391648 0.033542097 0.36741674 -0.14108072
0.15312703 0.0301165 -0.16206509 0.08193106 0.0503571 -0.2178782 0.1369469 -0.20778957
0.053849734 -0.30798447 -0.115272775 0.17533545 0.16253811 0.24911872 0.2413935 -0.10672643
-0.046047952 0.06726672 -0.20950463 0.007227725 0.44934458 0.24421309 -0.32739863 -0.11532899
0.23363216 0.005526229 -0.010837327 -0.199977 -0.12398891 -0.16494673 -0.09795684 0.26413548

weight_hh_l0_reverse f4 [52, 13]
00000000: fffd 0dbe 763e c3be c4f4 833c 1053 e0bd
00000010: 2b9b d73e ff68 a33e 287e c43d ff84 653e
00000020: 23eb 2d3e 8a0a 50bd 53a9 a13e ba04 a63d
00000030: 3d90 41be 0b3a e6bd 33be dfbd c3de 633e
00000040: 40a2 e1be bd7a 1dbd 8ac5 203d 8d55 253e
00000050: 6c88 30bd 833b f93c a5ac b73b fe1b 1c3d
00000060: 4dba d13e de24 163e 2f03 54bd 09a8 dcbd
00000070: e1b0 bcbd 482d 5c3d 73ef 47be a417 a5bc
00000080: d3fa 2ebe 167a d03e ad86 02bf b81f 9ebc
00000090: 5510 333e 6d42 f13e ea99 a8be 9b47 99be
000000a0: 630e a1be 5a1c cebd 3860 c6be ea26 7fbe
000000b0: daa2 5b3e 4ee8 a7bc df34 43bc 830d b93c
000000c0: c880 a93e 3ee8 463e 9348 42be eb87 053e
000000d0: ca49 b53c 48ee df3d 3df1 573e 2a4d 42bd
000000e0: 42b3 77be 5f17 5d3b 5a72 f1bb 77d5 8a3e
000000f0: 9f19 013e eaa2 a0bc 192c 97be 4a6a 1a3e
00000100: 24b8 c5bd de37 893d a64e c13d 6014 18be
00000110: 3852 8f3c 36e1 293e 7846 723e 4c0d 163e
00000120: 258f abbe a8c3 a8be 7a9f 313e bb39 003d
00000130: a31c f8bd 1f13 35be f1d6 36be adce b4bd
00000140: ed3c 29be 8661 05bd 5e1b c73d da8d d43c
00000150: 6fd4 673c 1a87 1dbd e83a f43d 63e7 babd
00000160: 8b24 833e 7480 853b a885 a43d 29e5 09bd
00000170: 075d 56bd a7e6 99bd aa9f d3bd 70f3 d73d
00000180: ea1c 353e 6709 27be 75d7 e73d 2d6e 233e
00000190: fb6c 163d 1e3e a9bd efc6 433e 4b7d ac3e
000001a0: 3b3a 4d3e 5960 cf3d 2ee8 623e 668b 36bd
000001b0: 1a7c a93d 395d 353e b903 e93d f986 51be
000001c0: 63c7 1bbf 1c2c 9dbd b884 0c3e 21d1 79bd
000001d0: 33a5 563e 980f 433e fbf1 02be c8df df3d
000001e0: 80cb 15be 0fbe 213e 77e1 6a3e 0a2d b4bd
000001f0: 6cb6 7e3e ec5c b1bc 5cca 823d c1be 5a3d
00000200: 73c9 89be de47 f4bc 8a7f 853e 1857 7d3d
00000210: fda1 04bd eda9 04be 135c 393e e31c 39be
00000220: 158e 423d ed23 b43e d75f 783c 2ad5 eb3d
00000230: 5f21 1abe defa f4bc 3235 c83d f166 6bbe
00000240: 3e25 2b3d 235b 02be add4 a2be 54b9 523e
00000250: cea0 dc3c 9ea9 843e d1c4 68bd bc47 9d3e
00000260: e70e d1be 8ed7 ccbc 3e53 d3bd 45f2 a3bd
00000270: eff3 563e 65ef 9ebe 670c 78bd 4e7d 123e
00000280: 9e41 0abe 46ed fabe bf5d 0a3e d619 d33c
00000290: 9740 883d 84b8 61be fa56 1f3e d05a 453d
000002a0: 13dc 8f3e 4cc4 1e3e 1ee6 323d d55e 2bbd
000002b0: c557 57be 959e 12be 96df 02bd edf4 cd3e
000002c0: 0294 6ebe 1be1 98be 679f 1c3e 47f2 8cbc
000002d0: 3579 253d 6b4e 5cbe f1ea 0e3e 7bdc c9be
000002e0: 5fb3 3dbd 3753 63be 9f70 abbe 1967 31be
000002f0: 4adb 313e 3879 303e 3ac9 6bbe 6d46 a43d
00000300: 3593 883d 7558 0dbe c2ee 193e 3f5b 89bc
00000310: f7b6 ca3e b623 88be 45af f2bd c594 093c
00000320: b8e4 0b3d f396 1d3d 4c39 2e3c c6a7 bc3d
00000330: f4cc 17be 0d83 acbb 2877 d03d 7d12 06be
00000340: 6a6f 6c3e b16d d73d 119d eebc f271 d0bd
00000350: 819f 933e 04cc 3fbe 89ee 083e dc85 c03d
00000360: 30f5 a0be 2d1b c6be 0c37 32bd 3ca6 8fbe
00000370: 4b08 67be 7d40 a63d 2a19 3cbd 221c dbbd
00000380: 201b 06bd 2a59 0a3d 03a8 d43d 1517 0d3e
00000390: 3e79 813e 9ed1 b13d d491 f3bd f73a 95be
000003a0: 3b6b 88bd 3db9 0f3e 9d2c d3be a830 b13e
000003b0: 6371 f9bd 94f2 11be df2d 3c3e cac5 a3bc
000003c0: 759c a83d 1626 67bd 1496 63be 1796 86bd
000003d0: 6625 edbd 3644 0cbe 3a63 eabd f842 803e
000003e0: d713 4e3d 1ee4 33be b260 243e 3a1b cf3c
000003f0: 6a33 7ebd 8941 93bd 8b81 b9bc 2e8f 6cbd
-0.13866423 -0.3813359 0.016107924 -0.10953343 0.4211057 0.31916043 0.09594375 0.22414015
0.16984229 -0.0507913 0.31574497 0.0810637 -0.18902679 -0.112415396 -0.109249495 0.22252946
-0.440691 -0.03844713 0.039250888 0.16145916 -0.043098852 0.030423885 0.0056052976 0.038112633
0.4096245 0.14662501 -0.05176085 -0.10774238 -0.092134245 0.05375412 -0.19524936 -0.020152874
-0.1708787 0.40718144 -0.5098675 -0.019302234 0.17486699 0.4712099 -0.32929927 -0.29937443
-0.3145629 -0.100640014 -0.38745284 -0.24917188 0.21448842 -0.020496514 -0.011914461 0.02258945
0.33106065 0.19424531 -0.18972997 0.1304013 0.022129912 0.109341204 0.21088119 -0.04743687
-0.24189475 0.0033735854 -0.007368368 0.27115986 0.1260743 -0.019608933 -0.2952583 0.15079609
-0.09654263 0.06700109 0.09438829 -0.14851522 0.01749526 0.16589817 0.23659694 0.1465351
-0.33507648 -0.32961774 0.17345992 0.031305056 -0.12114837 -0.17683075 -0.17855431 -0.08828483
-0.16527148 -0.03256371 0.09722017 0.025946546 0.014149769 -0.03845892 0.11925298 -0.09126165
0.25613818 0.0040741507 0.080333054 -0.03366581 -0.05233481 -0.075146966 -0.10333188 0.10544479
0.17686811 -0.1631218 0.11320392 0.15959997 0.036725026 -0.08263801 0.19118856 0.3368934
0.20041744 0.10125799 0.22158882 -0.044566534 0.082756236 0.17711343 0.11377663 -0.20461644
-0.60851115 -0.07674429 0.13722503 -0.060990456 0.20961456 0.19048917 -0.1278762 0.10931355
-0.1462841 0.15795158 0.2293757 -0.08797653 0.24874276 -0.021650754 0.06386253 0.053404573
-0.26911506 -0.029819425 0.26073867 0.061850637 -0.032381047 -0.12955447 0.1810153 -0.18077426
0.04749878 0.3518366 0.015159569 0.11515267 -0.15051793 -0.029904779 0.09775771 -0.22988488
0.041783564 -0.12730078 -0.31802884 0.2057851 0.026932146 0.25910658 -0.056828324 0.3071879
-0.40831682 -0.025005128 -0.103186116 -0.080051936 0.20991491 -0.3104202 -0.060558703 0.14305612
-0.13501593 -0.4900915 0.13512324 0.025769155 0.066529445 -0.22043043 0.15560523 0.04818231
0.2809759 0.15504569 0.043676488 -0.041838486 -0.21029575 -0.14318307 -0.03195151 0.40225926
-0.23298648 -0.29859242 0.15295182 -0.01720537 0.040398795 -0.21514289 0.1395681 -0.39426026
-0.04631364 -0.22199713 -0.3348436 -0.17324485 0.17368808 0.17233741 -0.2302598 0.08021245
0.066687025 -0.13803275 0.15032485 -0.016767142 0.39592716 -0.26589745 -0.11849836 0.008397286
0.03415367 0.038474035 0.010633778 0.09211688 -0.14824277 -0.005264646 0.10178977 -0.1309299
0.23089376 0.10518969 -0.02912763 -0.10177983 0.2883263 -0.1873017 0.13372244 0.09400532
-0.31437063 -0.38692608 -0.043509528 -0.28056514 -0.22561757 0.08117769 -0.045922436 -0.10698725
-0.032740712 0.03377644 0.10383608 0.13778336 0.25287813 0.086825594 -0.11893049 -0.2914655
-0.066610776 0.14035507 -0.41244975 0.34607434 -0.1217983 -0.14252692 0.18376873 -0.019991774
0.08232967 -0.056432806 -0.22225219 -0.06571596 -0.11579399 -0.13697895 -0.11444707 0.25051093
0.05031189 -0.17567489 0.16052511 0.025281537 -0.06206075 -0.07190234 -0.022644779 -0.057753734

bias_ih_l0_reverse f4 [52]
00000000: 1664 f73c 6ad3 563e 84d2 59be c887 4dbe
00000010: 5b1c 0fbe cd61 0fbd e361 a73e ad39 6abe
00000020: 30c7 00be 51cc 603d 058e 7e3e fbbb 16be
00000030: ac51 c8bb 4652 8c3e d5f8 4c3e b2b5 9e3c
00000040: d7b8 103d 3e57 1e3e 6051 aa3e de12 1f3e
00000050: b004 8dbe 4652 803e da16 71be e7e6 92be
00000060: 4fac 1d3e 9b3f 8a3e 4333 66bd ce85 883e
00000070: e63c 4dbe 2261 3abe e4ba dfbd d1a6 db3d
00000080: 658d b83d ce68 763d be9b 223e f292 86bd
00000090: d558 d93d 9601 85be 7226 d0bd 43b9 56be
000000a0: 4eb0 4a3e b181 153e e21a 83bd 32d8 023e
000000b0: cc16 d6bd ac9d f9bd ecec b8bd a1dc 8d3d
000000c0: 1661 33bc b2c3 03be 1254 743e 07c7 78bd
0.030199092 0.20979086 -0.21271712 -0.20071328 -0.1397566 -0.03500538 0.3269187 -0.22873564
-0.12575984 0.05488235 0.24858864 -0.14720146 -0.0061132517 0.2740652 0.20016797 0.019373748
0.035332527 0.15462968 0.3326521 0.15534541 -0.2754264 0.2506277 -0.23543873 -0.2869179
0.15397762 0.27001652 -0.05620123 0.26664585 -0.20042762 -0.18201116 -0.109243184 0.10725177
0.09011344 0.060158543 0.15879723 -0.06570996 0.106126465 -0.25977772 -0.10163583 -0.20969109
0.19793817 0.14600255 -0.06401612 0.12777784 -0.10453567 -0.12188277 -0.09029564 0.06926847
-0.01094844 -0.1286762 0.23860195 -0.060736682

bias_hh_l0_reverse f4 [52]
00000000: b8f7 4b3e 67c1 863e 13a3 dabc cf42 923e
00000010: 246a 4a3e 4baa 473d 6b1a 5d3d 05c5 a0bd
00000020: b949 893e 8af2 b13b d545 a33c 0eae 55bd
00000030: cf40 3d3e 40db 17be 1e5a 993e c4d7 223d
00000040: 9f85 343e 259c efbd 8465 c1bd 4fdd f2bd
00000050: 7870 e43d 85a7 443d 9e35 10be e4e6 ab3d
00000060: 8fd3 54be 9f4a 623e 1a80 52be 14d0 7bbe
00000070: 9eb5 443e 3631 98be e98e 69be 3d31 4abe
00000080: 4bc2 f83d d9a4 6ebe a499 04be 63c0 7ebe
00000090: 8bdc e5bd a190 2a3d 8feb 42be db3a a7bd
000000a0: a5f0 ed3d decc 3c3e d986 febb e62f 1abe
000000b0: bc46 853e e5d1 d03d 54d1 493d 7235 a23e
000000c0: 64ae 6cbc 7279 973d 35f7 953d 206d 03be
0.19918716 0.2631943 -0.026689088 0.28566596 0.19767052 0.04874639 0.053980272 -0.078500785
0.26814058 0.0054305242 0.01993076 -0.052167945 0.18481754 -0.14829731 0.29951566 0.03975655
0.17629097 -0.11699704 -0.09443191 -0.118586175 0.11154264 0.04801132 -0.14082953 0.08393648
-0.20783828 0.22098778 -0.2055668 -0.24591094 0.19209906 -0.29725045 -0.22808422 -0.19745345
0.121464334 -0.23305072 -0.12949234 -0.24878077 -0.11223706 0.041641835 -0.19035171 -0.08165523
0.11618165 0.18437526 -0.00776754 -0.15057334 0.2603053 0.10196284 0.049271896 0.316814
-0.014445875 0.07396211 0.073225416 -0.12834597

weight f4 [16, 260]
00000000: fd30 fc3c 889e d0bd 00cd 633d a877 81bd
00000010: 32e4 0e3d e194 943d 63fa 093e c814 4ebd
00000020: 155b 4abd 8a16 513d 0c33 e1bd 7b29 d0bd
00000030: 4df6 023e c40e 693e 6f81 9bbb a306 14be
00000040: e4c3 133d b556 2a3d e52a ec3d cfc8 57bd
00000050: 94e2 a7bb c923 5c3d 44ea cf3c 4a4a 4bbc
00000060: d090 013e a6e0 36be b89c 663d 7d99 54be
00000070: c251 043d 5d02 a33d f11f 263e 273c b93d
00000080: 3208 92bc 2273 fbbd 5c9e 7b3d 92d2 643e
00000090: dc01 fcbc d25b a93d 5a42 fabd a025 2c3b
000000a0: 87e5 a8bd ae27 e83a 3a4c 0ebd 754e b53b
000000b0: 2c7c 8d3d f256 84bc a9c8 04be 4483 c2bd
000000c0: 7f38 c1bd 5134 acbc 9dc4 573d 67f5 9dbd
000000d0: bfd5 4dbd 9754 12be a969 08bd 5140 1ebe
000000e0: e65e 5c3e 51a3 50bd 1894 b4bd e0ec 6ebd
000000f0: b78e ab3d 02d6 adbb 0e05 a73d ed80 dc3d
00000100: f085 16be 459c 343d 3c8a af3d c7ff 99bc
00000110: c341 813c ebd7 873d 152a 103e 479a 06be
00000120: c911 02be 6190 5ebe ddc8 8abc 0d94 8e3d
00000130: 264e 3bbd 9c75 d03d fa90 c83d 3b62 2b3b
00000140: 116a 11be 4fe8 523d 5e35 5abb c78e bf3d
00000150: 6852 a9bd 477d c7bd 52bc 493e 37b5 713e
00000160: 3cb2 a73d 11c9 203e bc56 873d d943 7d3b
00000170: 5caa bc3a 4799 94bd 45d9 82bd 4c27 04be
00000180: 76cc f03d ac3d 91bd 5232 2d3e a6b2 39bd
00000190: 85d4 853d f564 0dbe 27fa 4d3d 9b8f 7d3d
000001a0: a93d 6fb9 c516 3fbe df94 d6bd 93f3 acbd
000001b0: 4174 c53b b921 833d d736 5abd 6e62 31bd
000001c0: 64c8 8bbd f7ef c53d 4a22 8c3d f162 0e3e
000001d0: 27ec 8cbc eb4f 803d cea6 0b3d 435a 68bc
000001e0: 4bff 9c3b f969 64bc 515e c93d e531 d3bb
000001f0: c8f8 8b3d f386 7fbe 3a5a babd 8d7e 1b3d
00000200: d7f3 0ebe 460c 31be 43c8 d7bd a665 303d
00000210: e985 44be 52d2 ce3d 8850 6d3d c5a1 523d
00000220: 3a2e a13d 52a8 d7bd b0a7 9d3d d41c a33d
00000230: e1af 053e 00b5 b1bd d85d 913d 5473 d1bd
00000240: fbed 46be 350c 023d 1942 ad3d 180d ffbb
00000250: e833 153e 47f2 e1bd 91b9 863d c0d5 55bd
00000260: 4ee8 493d ac36 5e3d 2f2a 0a3d c698 20be
00000270: bcbb fcbd 83ee c83d 04f2 49be e21a 87bb
00000280: 235b 55bd f123 1a3c 3ca6 00be ad2d c3bd
00000290: c15b a53d 2de9 6abd 6de4 423e 04ef aebc
000002a0: 4d61 9e3c 3bbe 103d 8a3d 0cbe cdf0 133e
000002b0: 7371 953d 073d f73b f439 0abe 7476 f83c
000002c0: f57f 4f3d 759e e8bc 5a90 6e3d a57d ae3d
000002d0: 3216 47be 9fab 02be a096 bebd 2929 843d
000002e0: 7cb6 3a3d 14cc 663d b914 e2bd e022 83bd
000002f0: ecaf 1a3d f48a 9ebd 2c31 b13d 6a4b 21bd
00000300: 42bb 32be eb95 95bb e713 c73c b13b debd
00000310: 6725 e83c a9b0 f1bd 69a2 343b a090 283d
00000320: 53a1 853c 38ba ef3d 8b01 ae3d a0b5 183d
00000330: 87f8 4ebe d0ad 0a3e 5d14 12bd a93a f2bc
00000340: 1ad1 c43d eb6b 923c 3fe2 c43c 138e a1bd
00000350: 7257 ca3c fb10 ecbc 1990 8e3d 269c 123d
00000360: bd2c d83c b0b6 65bb f077 86bc 9ea4 2b3c
00000370: 199a c83d 0682 d3bd b917 03be 3b39 e13d
00000380: 0e63 cebd 53a8 e5bd f172 7dbc 8a21 15be
00000390: ce90 06bc ccfc a83c da4b 89bd 52d4 febc
000003a0: bf82 29bd d501 febc c496 0dbd 68d4 d23c
000003b0: 3b0c 7ebc 6e1c 04bd 144e 02bd 11f8 e63c
000003c0: 9fd2 c23d 969f e0bc ae44 25bd 8ea4 b93d
000003d0: 8009 ffba a8d3 943c cfd1 ea3d 54aa 3cbc
000003e0: 8b49 5e3d d3f0 8ebd 2ba4 093d d9fa 623d
000003f0: e56f 38bc 6bf9 073d d478 d5bd c22a cc3c
0.030785078 -0.101864874 0.055615425 -0.06321651 0.034885593 0.07254959 0.13474421 -0.050312787
-0.04940327 0.051046886 -0.109960645 -0.10164162 0.12789269 0.22759539 -0.0047456543 -0.14455657
0.036075488 0.041586597 0.11531619 -0.05268174 -0.0051234458 0.053745065 0.025380261 -0.012407849
0.12652898 -0.17859134 0.056301802 -0.20761676 0.032304533 0.07959435 0.16223122 0.09044676
-0.017826173 -0.12277819 0.06143032 0.22345951 -0.030762605 0.082694665 -0.12219687 0.0026267543
-0.08246904 0.0017712021 -0.034740664 0.0055330344 0.069084495 -0.01615474 -0.12967171 -0.09497693
-0.09434604 -0.02102104 0.05267774 -0.077128224 -0.050252672 -0.14290081 -0.03330389 -0.15454222
0.21520576 -0.050937 -0.08817309 -0.05833137 0.0837683 -0.0053050527 0.08155261 0.10766778
-0.1469953 0.044094343 0.08571288 -0.018798722 0.015778428 0.0663298 0.14078553 -0.1314479
-0.12702097 -0.21734764 -0.016941482 0.06961832 -0.045728825 0.10178682 0.09793277 0.002615108
-0.14200617 0.051491078 -0.003329597 0.093534045 -0.08267671 -0.09740692 0.19700745 0.23604284
0.081882924 0.15701701 0.0660834 0.0038645177 0.0014394033 -0.07255798 -0.06389097 -0.12905616
0.11757748 -0.07091841 0.16913727 -0.045336388 0.065346755 -0.13808043 0.050287392 0.06190453
-0.00022815786 -0.1866103 -0.10477614 -0.084448956 0.0060258214 0.064029165 -0.053274956 -0.04330676
-0.06825331 0.0966491 0.068424776 0.1390493 -0.01720245 0.06265243 0.034094624 -0.014181676
0.0047911755 -0.0139412815 0.098324426 -0.006445157 0.06834561 -0.24953823 -0.090992406 0.037962485
-0.13960205 -0.17289838 -0.10536244 0.04306569 -0.19191708 0.10098709 0.05793813 0.051423807
0.07870145 -0.105301514 0.076979995 0.07964483 0.13055374 -0.08677101 0.070979774 -0.10227075
-0.1942672 0.031749923 0.08459873 -0.0077835433 0.14570582 -0.11032539 0.06578363 -0.0522058
0.04929381 0.054251358 0.033731636 -0.15683278 -0.12340495 0.098111175 -0.19721228 -0.0041230777
-0.052088868 0.009407983 -0.12563413 -0.09530196 0.08074141 -0.05735128 0.1903245 -0.021354206
0.019333506 0.035337668 -0.1369535 0.14447327 0.07297029 0.007545117 -0.1349867 0.03032992
0.05065914 -0.02839587 0.058243133 0.085200585 -0.1944206 -0.12760781 -0.09306073 0.06453163
0.045584187 0.056346968 -0.11039109 -0.06403136 0.03776543 -0.07741347 0.08651957 -0.03937856
-0.17454246 -0.0045649908 0.024301482 -0.10851229 0.028338147 -0.118012734 0.0027562624 0.04115355
0.016312277 0.1170544 0.08496388 0.037282586 -0.20211993 0.13542867 -0.03566395 -0.029568987
0.096101955 0.017873725 0.024033664 -0.07888427 0.0246999 -0.02881669 0.06961078 0.035793446
0.02638852 -0.0035051517 -0.016414613 0.0104762595 0.09795017 -0.103275344 -0.12802018 0.10997244
-0.10077487 -0.11213746 -0.015469299 -0.14563575 -0.008213235 0.020628355 -0.06703921 -0.031107102
-0.041384455 -0.031006733 -0.03456761 0.025736049 -0.015505846 -0.032253675 -0.031812742 0.02819446
0.09512829 -0.027419847 -0.0403487 0.090645894 -0.0019457787 0.018167332 0.11465799 -0.011515219
0.054269355 -0.06979527 0.03360383 0.05541501 -0.0112571465 0.033196848 -0.10423437 0.024922732

bias f4 [16]
00000000: a351 e83b 86e0 3bbc bb70 dabc c2bf 203d
00000010: 8263 3c3d a4ce 373d 7253 18bc c3e9 e3b9
00000020: c2bc e13b 3164 d0ba e402 0cbd 7679 103d
00000030: a1fc 71bc 9e5e e3bc eb64 73bb 0449 fe3c
0.00708981 -0.011467105 -0.026665082 0.039245375 0.045993336 0.044874802 -0.009297239 -0.0004347098
0.0068889568 -0.0015899 -0.034182444 0.035272084 -0.014769704 -0.027755078 -0.003713901 0.031040676

weight f4 [19, 16]
00000000: 4652 ea3d f602 c7be 7033 f3bd 84c9 36bd
00000010: e0c5 abbd aad0 7abe d71f 943e 6301 5d3e
00000020: c065 fdbe 13ec 763c 0328 06be 346c d83d
00000030: e696 1cbf a6a6 8ebd 858f b0bd eff4 a0be
00000040: 0aa0 933b 9683 d5bd 5b47 093e a6bd aabc
00000050: 744d 66be d18a 5bbd 7ec1 c0be 51fc e03e
00000060: 44b0 99bd 7728 3bbe 8d65 a5be 49a2 2ebe
00000070: 11f0 cbbe 5e94 4a3e c531 94be d560 ba3d
00000080: bfd6 05be f11f 483e 2f53 97be 628c 413e
00000090: 8ec0 ff3d bd94 debe b2a4 143e 7f7c c83e
000000a0: e672 25be 7dba 84bd 1ceb 88bd 44bd 65be
000000b0: 947e c93b 4eac a6bd 2f07 28be 8c1a 083e
000000c0: dcaf 51be 2771 cebe 6378 c0bd 066e 58be
000000d0: 4c0f 853e cc27 df3e ddfb 38be d293 98be
000000e0: f0f7 8bbe 9a5e 013e a45b 173e 9ea4 2ebe
000000f0: 631d c3be 966c 603e 1619 39be 98d4 973e
00000100: 478d 253e e747 263e e9c9 9dbd 035b 7d3e
00000110: 8fb8 e33c 41e4 bbbb 71c5 c53c 8fe1 ce3e
00000120: 6470 1c3d b1c4 04be 433b b83e 98a0 cb3e
00000130: 15a9 213e c031 94be 70ed e43c a3a9 683c
00000140: 8943 0f3f 5f3b f33d 3daf b33e 5c95 debe
00000150: 3f92 c53d ac05 c3be bfbb 28be 5bac 0f3e
00000160: 7013 783e 437e bcbe 2d2f 353e 7dde 83be
00000170: 5d15 b5bd 25f8 bdbe 3c70 a53c 7557 1f3e
00000180: d9ec ae3e 32c3 763e ade0 1abf ac25 3bbe
00000190: cb01 b7be 1b24 9fbe 1d99 373d b3d4 f43e
000001a0: 6967 873c f115 8d3e 70a3 3dbd 7798 713e
000001b0: daef bb3c 914d c33e c785 e6bd 95b1 b3bd
000001c0: 4f50 ab3b 6a0e 943d e4f8 043e ba43 c2bd
000001d0: 6695 033e 6903 2f3e 68f4 e33d c0a3 26be
000001e0: e0ed 50be 9fba 81be 043c 6bbe 1072 13bd
000001f0: 4624 c33e 6abb 823e 2ad4 d83b 8566 973c
00000200: 3e25 f83e ee04 993e 4760 22be e341 7bbd
00000210: ab77 aa3d baf5 75bc 8108 eb3d 94ea 02bd
00000220: 92d8 743e b88c 2dbd cbcf fe3d 494b 4b3e
00000230: 5ee7 febd 563d 1dbe 99f5 c2bc 7a9c 2fbe
00000240: f162 aebc f7ca babd f03d ebbd ab40 b5be
00000250: d717 ca3d 55cf 603d ded1 8a3d 557f ccbe
00000260: 25cc 12bd 44e4 c03e cce7 bdbd bf25 3dbd
00000270: 8abe fbbd 6110 873d 3c9e 123d a5e3 2b3e
00000280: 234c 55be 962f bebe e58a 82bc be50 9cbe
00000290: 0eff 093e f1ce 663e 9790 8fbe a019 2ebe
000002a0: e157 993d 782d 033f 48e5 403f 2b42 413d
000002b0: fc55 00be 4627 d4be f678 3c3d 150d 9c3d
000002c0: 239e 4fbe fe82 12be 6255 db3e 4ecf 963d
000002d0: a63b 13be 1b9d 893d 4e19 043e 8a27 ee3d
000002e0: a07d f4bd c7c5 85bd aaba 873d 2557 35bc
000002f0: c361 b03e 1805 4abe 9930 3ebe 17cc 72be
00000300: 6fd5 a33e 8593 303e ae83 6e3e 364e c9be
00000310: 1669 9cbe 2467 e6be 358a a1be cab1 3dbd
00000320: eb2b 50be 478c 28be 84da c5be e2d5 febe
00000330: 3dca 523e 4e77 5dbe 87b3 c73e 1485 b83d
00000340: e3d8 5abe 5abb f2bd f853 61be 2202 b53d
00000350: 2f41 32bc fd82 753f abaf ef3d 3ee0 bf3e
00000360: 246c 393d fabb be3d 07aa fbbd 23fc 2dbc
00000370: e45d 05bf 5023 373e 7e94 c83e 5f8e 3e3e
00000380: 8c69 f9be 0112 3abe 6052 8cbe c0ff 593e
00000390: 3bf7 073e aca6 803e 561e c6bd 76c2 cfbe
000003a0: 4024 fc3d 3a5a 7ebd 7783 61be d465 d23e
000003b0: a600 bfbc 3912 8a3e 3c29 37bd 21d8 af3d
000003c0: 8ce9 aa3d 74e4 a0be df85 f1bd 1093 60be
000003d0: 58cd bc3e 02f3 1f3e a6bc 43be ecff 733e
000003e0: dada ddbe 977e 16bd 3c17 b4be 986d 8ebe
000003f0: 7eac 99be fb70 d33e a18f a3be a575 353e
0.11441474 -0.38869447 -0.11875045 -0.044625774 -0.08387351 -0.24493662 0.28930542 0.2158256
-0.49491692 0.015070933 -0.13101201 0.10567513 -0.6116775 -0.069653794 -0.08621124 -0.3143687
0.004505162 -0.10425489 0.13406126 -0.020842385 -0.22490484 -0.053599183 -0.37647623 0.43942502
-0.07504323 -0.18277155 -0.3230404 -0.17054094 -0.39831594 0.1978316 -0.2894422 0.091005005
-0.130702 0.19543435 -0.29555652 0.18901208 0.12487899 -0.43472853 0.14515951 0.39157483
-0.16157112 -0.06480882 -0.066854686 -0.2243548 0.0061491225 -0.08138333 -0.1640899 0.13291377
-0.20477241 -0.40320703 -0.09397962 -0.2113572 0.25988233 0.4358505 -0.18064828 -0.29800278
-0.273376 0.12633744 0.14781052 -0.17054984 -0.38108358 0.21916422 -0.18075976 0.29654384
0.16167174 0.16238366 -0.07704527 0.2474175 0.027797965 -0.005733997 0.024141999 0.40406463
0.03819312 -0.12965657 0.35982713 0.3977096 0.15787156 -0.28944206 0.02794525 0.014200601
0.55962425 0.118765585 0.35094634 -0.43473327 0.09647035 -0.38090265 -0.1647787 0.14030592
0.24226165 -0.3681508 0.17693777 -0.25755683 -0.08841965 -0.37103382 0.02019512 0.15560706
0.34165075 0.24097899 -0.6049908 -0.1827609 -0.35743555 -0.31082234 0.044823755 0.47818527
0.016528802 0.27555802 -0.046298444 0.23593317 0.022941519 0.38145116 -0.11255985 -0.087741055
0.0052280794 0.07229312 0.12985569 -0.09485574 0.1284996 0.17091145 0.11130601 -0.16273403
-0.20403242 -0.25337693 -0.22972113 -0.03599745 0.38113612 0.2553361 0.006617089 0.018481502
0.48465914 0.29886574 -0.1585704 -0.06134213 0.08323606 -0.015012199 0.11476231 -0.031961992
0.2391074 -0.042370528 0.12441977 0.19852938 -0.124464735 -0.15355429 -0.02379875 -0.17149535
-0.021287413 -0.09120744 -0.11486423 -0.354009 0.09867828 0.054885227 0.0677831 -0.39940897
-0.03583922 0.37674153 -0.09272727 -0.046178576 -0.12292202 0.06594921 0.035795435 0.16786058
-0.20829825 -0.3714568 -0.01593537 -0.3053035 0.13476202 0.2253988 -0.2804 -0.17001963
0.07487465 0.51241255 0.75349855 0.047182243 -0.125328 -0.41436213 0.046013795 0.07619683
-0.20275168 -0.14307782 0.4283858 0.07363759 -0.14378223 0.067194186 0.12900278 0.11628635
-0.119380236 -0.06531864 0.066274 -0.01106814 0.34449586 -0.19728506 -0.18573226 -0.23710667
0.31998774 0.17243774 0.2329242 -0.39317483 -0.30548924 -0.45000565 -0.31550756 -0.04631213
-0.20329253 -0.16459762 -0.38643277 -0.49772555 0.2058496 -0.21627542 0.39004156 0.09009758
-0.21371798 -0.11852141 -0.22004688 0.088382974 -0.010879799 0.95903 0.11703428 0.3747577
0.045269147 0.093131974 -0.122882895 -0.010619196 -0.5209639 0.17884564 0.3917579 0.18608998
-0.48713338 -0.1817093 -0.27406597 0.21288967 0.13277905 0.2512716 -0.09673755 -0.4057805
0.12311602 -0.062097766 -0.22022806 0.41093314 -0.023315739 0.26967028 -0.04471706 0.08586145
0.08345327 -0.31424296 -0.11793112 -0.219311 0.36875415 0.15620044 -0.19114932 0.23828095
-0.43331033 -0.03674182 -0.35173976 -0.27817988 -0.30014414 0.41297135 -0.31945518 0.17720659

bias f4 [19]
00000000: ecdf f53d 3b95 41bd b642 2f3e b9fa a13d
00000010: 0720 0dbe c0f2 1ebe 07e2 dabd 95d7 3dbe
00000020: 92e6 dfbd 5d30 973d 91a5 1f3e 3463 f1bc
00000030: 5201 bf3d 72d9 c8bd a1eb 143e c2fd 34be
00000040: 4108 f6bd 8558 0cbe 0484 4b3e
0.120056 -0.047261458 0.17115292 0.0790915 -0.13781749 -0.1552229 -0.106876425 -0.1853927
-0.1093265 0.073822714 0.15590502 -0.029466249 0.09326424 -0.098070994 0.1454301 -0.17674926
-0.12013293 -0.13705643 0.19874579

weight f4 [19, 16]
00000000: f35c 4a3e 15d2 4b3d 6cab 0cbc 22e0 153e
00000010: 1422 0bbf e0eb 7b3e 3618 f63d 9e1d acbd
00000020: b605 5fbd 3950 d13e 9deb f33d 3d50 d8bd
00000030: 0295 a63e 80bd 2cbe 24e4 3bbd 91ff 25be
00000040: 7491 1e3e 932f 1ebe 41da 9d3e b124 c13d
00000050: 95ab e33d be28 08bd f493 efbd e1dd e3bd
00000060: e46e a7be f298 913e 3e5f babd 5a24 f3be
00000070: c5ad 023e b5d7 5e3c a757 c3bc 02bd eabc
00000080: 435a 04be 0a88 3abe 7b87 babd 236c e93e
00000090: 206b db3e 77ec 8a3e 8b67 9f3d 3669 75be
000000a0: 927b dfbd 6721 91be f0a2 15bb 2afd e2ba
000000b0: 7ad5 213e 6416 a23e 3b2b 68be 111f 583e
000000c0: 8396 f03d 4771 8f3d e931 02be f85e 69bc
000000d0: d5b0 f1bc eda7 3fbe 2bc1 05bf 6f09 993d
000000e0: e49c 09be 5380 3d3e 559c 17be c095 e13d
000000f0: d0a4 c3bd 1004 babe 9a4b 3dbe c5f7 213f
00000100: a1fb c23e 81ec ce3e 7a4d ea3d fb27 97be
00000110: 4efe b0be 882e bd3d 9dc6 1f3e 4ae0 1fbe
00000120: edf9 3cbe d2be cc3e 0fe0 75bd a998 8f3d
00000130: c89a 063f 8bac 953d 6afc ccbe 77dc b73e
00000140: 3a3b 353d 5d84 d23d dbcd 0c3f debb 833d
00000150: c39f ec3a 45f7 c53d 884c 66be 40a5 f5bd
00000160: e30c 9cbe 9979 8e3d 35b5 b4bd 14f1 b53d
00000170: a1a7 8bbe 54eb b7be c159 b7be a830 673e
00000180: 6bbd 04bf efaa 413d 818f 3e3e d535 aabe
00000190: f673 203f 47e4 2c3e 22be e4bd b65a 51bd
000001a0: 3eb4 55be 6088 573e a3b6 b2be f7cf c23e
000001b0: 4c7e 043e c83c 96be 6138 fabd 2713 273c
000001c0: 2e38 e93e e729 42be fd9c e4bd bc1a 3bbd
000001d0: c249 443d ddb9 20be 3dae 6039 f7f8 36be
000001e0: 7406 dbbc cd63 663e 6a95 debd c5e4 e93d
000001f0: ca57 8a3d c26e 42bb bb43 55be 487a 51bd
00000200: d632 7abe 095a c83e 27f0 4a3d 7ad6 53be
00000210: b024 613e b591 003e 4a41 91bd ce3d 153e
00000220: d376 ee3d 1a2c de3d 1ea6 833e 7bfe 4c3e
00000230: de7d 2e3d 9c54 8f3d f893 b53d 1714 47be
00000240: 3a53 dbbc be02 a0be 4938 f23c 6113 1abe
00000250: 12bf 8c3d 01f5 2cbd 3637 f0bd 988a 8dbe
00000260: 3461 b1bd c4b4 bbbd d30d a0bc d864 ae3e
00000270: 6a57 cb3d def8 01be 1698 8a3e 12d9 2c3d
00000280: d083 243e 3e5f 22be 1a26 2fbe a764 fa3d
00000290: 6f88 aabc aeda 51be 2c5e a43e 5368 fabd
000002a0: e602 23bc 7dae 43be 9803 aa3d b554 bdbe
000002b0: d2a8 8d3d 3eb8 033d 69ac 29be 4173 d7bd
000002c0: b397 0bbe 2fa0 de3d 2687 b5be d55e 33bd
000002d0: 686f 3abd 7044 68be fe3c 85be 21ed b03e
000002e0: 69a8 f33c 22e3 1e3e d972 d93e 7f8f ce3e
000002f0: cdea ce3e 1330 2f3d a0c9 b2be 4de5 923e
00000300: 8ac0 edbd bd22 ddbd 503c e9bb 65a2 f1be
00000310: bccf 063d 48d2 afbd e057 903c 61f2 483e
00000320: 50a7 31be ec66 a43d 3623 7dbe 7300 f8be
00000330: 5a20 62be da3f 2c3e d26d 2dbe 03d1 06be
00000340: 6616 643b 5fa6 3c3d 9537 d83e 021d 54be
00000350: 53fe 0cbf e274 8bbb 970f d43e 04cd cf3b
00000360: 7809 f1bc 06a6 883e 28ae 33be b3c3 bbbe
00000370: 9474 503e 67fa 08bf 7a10 17be e743 943b
00000380: 6eb0 5ebe 346e bd3e 65f9 2c3e cb8e acbd
00000390: b625 6f3e 7650 65be ee8a 0cbe 9d40 2cbe
000003a0: bcab 593e 3778 07be 8cfb bdbe 4726 94be
000003b0: 6190 d9bd f423 b13a e97d fabe 1ef4 77be
000003c0: 8e0f 453d d5f4 cd3e 9c5e c4bd 1bba 233e
000003d0: 3dc0 fd3c 13cc 053d 0c77 93bb 69fb 87be
000003e0: 7dc1 43bd 4d5d ebbd 4fd0 06be a3ac 95be
000003f0: e7b8 f13d 61db b13e 9981 5f3e 33be 8b3e
0.1976202 0.049760897 -0.008585792 0.14636281 -0.54348874 0.24601698 0.120163366 -0.084040865
-0.054448806 0.40881518 0.11910174 -0.10562179 0.3253556 -0.16869164 -0.04587187 -0.16210772
0.15485173 -0.15447836 0.30830577 0.094308265 0.11116711 -0.03324198 -0.11698142 -0.111263044
-0.3270179 0.28437 -0.09100197 -0.47488672 0.127616 0.013601233 -0.023845507 -0.02865458
-0.12925057 -0.18215957 -0.09107872 0.45590314 0.42855167 0.27133533 0.07783421 -0.23965916
-0.10912241 -0.28345796 -0.0022832714 -0.001731788 0.15804091 0.31657708 -0.22672741 0.21105601
0.11747458 0.07004028 -0.12714352 -0.014243834 -0.029503265 -0.18716402 -0.52247876 0.074725024
-0.13438755 0.18505983 -0.1480573 0.11014891 -0.0955292 -0.36331224 -0.18485871 0.6326869
0.38082603 0.40414813 0.11440559 -0.2952269 -0.3456902 0.09237391 0.15603109 -0.15612903
-0.18454714 0.39989334 -0.060028132 0.070115395 0.5257993 0.073083006 -0.40036327 0.3591039
0.044245936 0.102791525 0.5500161 0.06432317 0.0018052984 0.096663035 -0.22490132 -0.119944096
-0.30478582 0.06956787 -0.08823625 0.08883873 -0.27276328 -0.3592173 -0.35810664 0.22577155
-0.5185153 0.047282156 0.1860943 -0.33244196 0.6267694 0.16883956 -0.111690775 -0.0511119
-0.20869538 0.21048117 -0.34904966 0.3804929 0.12938803 -0.29343247 -0.12217785 0.010197437
0.45550674 -0.18961297 -0.11162756 -0.045679793 0.047921903 -0.15695901 0.00021427214 -0.1786841
-0.026736476 0.22499008 -0.10868342 0.114205875 0.06755026 -0.0029668068 -0.20826618 -0.051142007
-0.24433455 0.3913119 0.049545433 -0.20687285 0.21986651 0.12555583 -0.07092531 0.14574358
0.11643758 0.108482555 0.25712675 0.20018952 0.042600505 0.0699856 0.088661134 -0.19441257
-0.026773084 -0.31252092 0.029567854 -0.15046455 0.06872381 -0.04222584 -0.11729281 -0.276448
-0.08661118 -0.09165338 -0.019537842 0.34061313 0.09928782 -0.12692592 0.27069157 0.042199202
0.16065907 -0.15856645 -0.17104378 0.12226229 -0.02081701 -0.20493576 0.32103097 -0.122269295
-0.0099494215 -0.19109531 0.08301467 -0.3697869 0.069169655 0.03215813 -0.16569676 -0.1052003
-0.13632087 0.10870396 -0.35454673 -0.04379161 -0.0455164 -0.22682357 -0.26023096 0.34555915
0.02974339 0.15516332 0.42470434 0.40343854 0.40413514 0.042770457 -0.34919453 0.28690568
-0.116089895 -0.107976414 -0.0071177855 -0.4719421 0.032912955 -0.0858503 0.017620027 0.1962371
-0.17348981 0.08027443 -0.24720463 -0.48437843 -0.22082654 0.16821232 -0.16936424 -0.13165669
0.003480339 0.0460571 0.42229906 -0.2071419 -0.5507557 -0.004255877 0.41418144 0.0063415784
-0.02942346 0.26689166 -0.17546904 -0.36672744 0.20356971 -0.53507084 -0.14752379 0.004524696
-0.2174699 0.3699814 0.16892011 -0.08425673 0.2335423 -0.22393975 -0.13724872 -0.16821523
0.21256918 -0.13229452 -0.37105978 -0.28935453 -0.10623241 0.0013514743 -0.48924187 -0.24214217
0.048110537 0.40225855 -0.09588358 0.15988962 0.030975455 0.032665323 -0.0045002755 -0.26558998
-0.047791947 -0.11492405 -0.13165401 -0.29233274 0.118028454 0.34737685 0.21826781 0.27293548

bias f4 [19]
00000000: 8e26 3d3d c012 1cbe 6b42 d7bd 7366 063e
00000010: ad3a 62be 88a0 00be 44c2 04be 8cbe 0fbe
00000020: d994 40be fe41 7dbd 70e5 473e 6918 b13c
00000030: 6994 9b3d 9e3b 3d3e 6c4c 193e 4d9e dcbc
00000040: d408 283e e0a6 dc3d 9668 a1bd
0.046179347 -0.15241528 -0.10510715 0.13125019 -0.22092696 -0.12561238 -0.12964731 -0.14037532
-0.18806781 -0.061830513 0.19521117 0.021618085 0.07596666 0.18479773 0.14970559 -0.026930952
0.16409618 0.107740164 -0.07881276
