models/a19lds19b0.007g0.02d0.1h13.pt (torch, 127234 bytes, 26 tensors)

weight_ih_l0 f4 [52, 4]
000000 d0 05 9d 3e 96 b2 af 3e 91 89 cd bc 3d c8 8b 3d
       0.30668497 0.34315938 -0.02509001 0.06825302
000010 5c da a8 be 8f 3b 9e 3e 95 fc 25 3d ba ce c5 3d
       -0.32979095 0.30904815 0.040524084 0.096585706
000020 b4 45 7b be af 55 62 be 60 c2 03 be 3c af 87 bc
       -0.24538308 -0.22102998 -0.12867117 -0.01656305
000030 f8 39 31 3e ab c6 64 3e 3c 9b 92 3b 54 be 0b 3e
       0.1730727 0.22341411 0.004474072 0.13646823
000040 15 16 b5 3e b9 b1 11 bf bb 83 43 be 59 46 00 3e
       0.3536841 -0.5691181 -0.1909322 0.12526836
000050 01 5a 49 be f6 69 d7 3d 77 1f bb 3e ca ab 22 bd
       -0.1966324 0.10518257 0.36547443 -0.039714612
000060 81 cd 8b bd 6f 23 80 be 39 cd 89 be 53 b4 07 3d
       -0.06826306 -0.25027034 -0.26914385 0.033130955
000070 fb 71 91 be bf 0d be 3d 64 50 6b be 2b d8 f0 3d
       -0.28407273 0.092799656 -0.22979885 0.11759981
000080 ca 17 40 be ec e6 8e be b1 f3 a3 bd 95 fb 4e 3d
       -0.18759075 -0.27910554 -0.08005465 0.050532896
000090 e0 cb 47 bd 3c 23 94 3e ad 47 ba be b2 95 fb 3d
       -0.048778415 0.28933132 -0.3638281 0.122844115
0000a0 c1 60 3d 3d 5d e6 4f be 3d 9c 75 bd ca 5c a5 bc
       0.04623485 -0.2030272 -0.059963454 -0.020185847
0000b0 e0 70 00 3e 4a 3c 28 be fc e1 52 3c e8 47 90 3e
       0.12543058 -0.16429248 0.012871262 0.2817986
0000c0 f0 41 af bc db 32 73 bd 12 6a cf bd 3c 1d 12 3e
       -0.021393746 -0.05937467 -0.10127653 0.14268965
0000d0 0c 3d 5a 3e 35 7c e6 be b4 0c 56 3e bd 37 61 be
       0.2131235 -0.45016637 0.20903283 -0.21993919
0000e0 73 6d 04 be eb 11 1a be fe f3 2b 3d 29 16 3d 3e
       -0.12932377 -0.15045898 0.041980736 0.18465485
0000f0 5a 4a 6f 3e e4 8f b9 bd bc 79 b6 bc 72 62 b5 be
       0.23368207 -0.09060648 -0.022274844 -0.3542667
000100 42 61 e7 bd a1 9b d0 3d 21 82 cc bd 41 2e 4e bd
       -0.11297847 0.10185934 -0.099857576 -0.05033708
000110 30 db 40 3e 47 ab aa 3d 33 1e 6b 3e fa d6 e7 bd
       0.18833613 0.0833345 0.22960739 -0.113203004
000120 3b a5 94 3e 20 bd 3b 3e 97 db 59 be 64 81 45 3c
       0.2903231 0.18333864 -0.21275173 0.012054775
000130 80 e3 e0 3d f0 57 b7 bb b9 8d 36 3e bb d6 86 bc
       0.10980892 -0.0055951998 0.178275 -0.016459813
000140 86 db 58 bc 75 b7 cf 3d 0f 10 49 3e ea 92 84 bd
       -0.013235932 0.101424135 0.19635032 -0.06473334
000150 34 2f 32 be 7a 8b ae bd 8e 41 c1 bd ba 85 ff 3d
       -0.17400819 -0.08522697 -0.09436332 0.12476678
000160 a8 5b 81 bd e0 7b 9e 3d 2f f4 1d 3d 0e 8b f3 3d
       -0.0631631 0.07738471 0.03856295 0.11891757
000170 54 ab e3 3e a7 3e ed 3c 2d 0f de ba e4 e2 b3 be
       0.4446665 0.028960539 -0.0016941779 -0.3513404
000180 59 ac 80 3e e9 54 89 3e e9 cb 53 3d a0 62 b2 bd
       0.2513149 0.26822594 0.051708136 -0.087102175
000190 ed 4a 23 be a8 b8 16 3e e0 61 9b 3e 33 07 de 3d
       -0.1594655 0.14718878 0.3034811 0.10841217
0001a0 c0 63 51 be 3f 20 f6 bd 10 f2 83 3d 94 7c 4a 3d
       -0.20448208 -0.12017869 0.06442654 0.049435213
0001b0 7a 60 6a 3d ac a2 96 3e 74 c3 e6 3d 05 d0 a6 be
       0.057220913 0.29420984 0.112677485 -0.3258058
0001c0 24 2f 3a bd 23 c6 13 3d c8 ac 45 3e 0f 82 b0 3c
       -0.045455113 0.03607763 0.19304192 0.021546392
0001d0 0a bc 8d 3e d6 71 da bc be 44 98 bd a4 ae 45 3e
       0.27682525 -0.02666561 -0.074349865 0.19304901
0001e0 37 5c 7d ba 2f ac 23 be 5f 96 42 be 89 19 49 3d
       -0.0009664925 -0.15983652 -0.19002675 0.049096618
0001f0 a1 59 83 be d1 82 63 3d fd ee 02 be 9d 4d 49 3e
       -0.2565432 0.055544678 -0.1278648 0.19658513
000200 11 e6 6f bc 9a 47 ab 3e 00 4f a6 be 66 14 46 bc
       -0.014642254 0.33453065 -0.32482147 -0.012089824
000210 bb 97 ec bd 2f 3a 75 bd 4c e4 6d be 22 3c 1e be
       -0.11552378 -0.05986994 -0.2323162 -0.15452626
000220 78 6f 17 3e 1f 29 e2 bb f6 6f 59 bd 84 dc 53 be
       0.14788616 -0.0069018747 -0.05308529 -0.20689589
000230 32 c7 8f 3d 37 27 b0 3e 6a ec ac bd 4c 8e 04 3e
       0.07020415 0.3440492 -0.0844353 0.12944907
000240 a5 c3 b3 bd e2 d4 54 3e fc cb 67 3e e9 3a 9d bd
       -0.087775506 0.20784333 0.22636408 -0.07677252
000250 08 e5 d0 3e fe 8c 76 be 70 d0 11 3e e2 c1 a5 3c
       0.40799737 -0.24077222 0.14239669 0.020234052
000260 37 65 07 3e e2 d9 f5 3c 99 54 96 bd 31 7f 89 3e
       0.13222204 0.030011121 -0.073403545 0.26854852
000270 92 59 d0 3d a9 b1 55 be ab eb 96 3d b9 c3 51 be
       0.10173334 -0.20868553 0.07369169 -0.20484819
000280 43 3d 4b 3e f8 76 7b be 3d 7b d8 3e 57 b1 d5 3e
       0.19847588 -0.24557102 0.42281523 0.41736862
000290 f7 56 9a be 22 62 ae 3e 23 f1 43 3d 75 d8 4a bc
       -0.30144474 0.34059244 0.047837388 -0.012380709
0002a0 77 03 f0 3d 9c 17 63 3e a7 7b 39 be 27 d5 9c bc
       0.11719411 0.22176975 -0.18113576 -0.019144608
0002b0 a0 5e 89 3e a7 1b ca bd fb fe 7d bd d5 6d 69 be
       0.26830006 -0.098685555 -0.062010746 -0.22795804
0002c0 95 61 dc bd 16 3f cd bc 70 0d 28 be 31 9f 85 be
       -0.107608 -0.025054496 -0.16411376 -0.26098016
0002d0 77 5e 34 3d 4e e7 18 be 06 79 8a 3e f4 78 69 3e
       0.0440354 -0.14931986 0.2704546 0.22800046
0002e0 c7 02 9c be bf 26 8b bd 55 7c b5 bd 6c 93 96 be
       -0.3047087 -0.067944996 -0.08861605 -0.2940935
0002f0 d7 c5 9a 3e 81 ae dc 3d 35 6d 94 3d 22 3a 8c be
       0.30229065 0.107754715 0.07247392 -0.27388102
000300 e8 0c 0a 3e 81 5e 47 3e 10 b2 d7 3d ca 5a 86 bd
       0.13481486 0.19469644 0.105320096 -0.065602854
000310 f5 b1 0a 3e 60 10 d5 be a8 a0 d6 be 84 6e 9c be
       0.13544448 -0.41614056 -0.41919446 -0.30553067
000320 26 7e 43 be 90 8d b7 bd d9 41 5c 3d c2 18 62 be
       -0.1909109 -0.08962548 0.053773735 -0.22079757
000330 44 74 5d 3d ff 7e 28 bd 53 53 11 be 8b b2 af bc
       0.054065958 -0.041136738 -0.14191942 -0.02144744

weight_hh_l0 f4 [52, 13]
000000 cc e8 83 3e e9 33 2a 3e d6 a1 21 3e 59 52 4f bd
       0.25763547 0.16621365 0.15784392 -0.050615642
000010 3b 90 24 3c 7d ec e0 3e a0 66 9c bd 1c 62 1c be
       0.010044153 0.43930426 -0.07636762 -0.15271801
000020 16 23 c6 bc 7a 47 e9 bd c5 a1 86 3e 5d 70 6c 3e
       -0.024186652 -0.11390586 0.26295295 0.23089738
000030 f0 7f 91 3e 9e 57 c5 be ed b8 18 bc 52 c8 e5 bd
       0.2841792 -0.3854341 -0.0093214335 -0.11219849
000040 13 a2 55 3c f0 fc b7 be e5 cb 82 3c 49 53 c3 3c
       0.01303913 -0.35935163 0.015966365 0.023843424
000050 6f 1f b8 be a4 13 0c 3d 0f 78 92 3e df be e2 3e
       -0.35961482 0.03419842 0.28607222 0.44286248
000060 03 31 4e be 8e 4a 00 3f 09 6c 25 be df 08 c7 bc
       -0.20135884 0.5011376 -0.16154493 -0.024296222
000070 d9 b9 09 3e 1a 46 47 bc 94 82 ac be 17 e3 81 3e
       0.13449802 -0.01216271 -0.33693373 0.25368568
000080 f9 66 1d 3e 98 2d 4e 3e 25 37 9d 3d dd 33 97 be
       0.15371312 0.2013458 0.076765336 -0.29531756
000090 d6 11 2e 3e d6 55 6e 3d 2a 22 a0 bc 9c 05 5c 3d
       0.16998991 0.05818733 -0.01954754 0.053716287
0000a0 55 ba 4f bc a3 1d 64 3e e6 24 ea 3d 6d fc aa be
       -0.012678702 0.2227693 0.11432819 -0.3339571
0000b0 85 76 98 3e 01 f1 3a be a4 08 32 be 1f 8a 4b 3e
       0.29777923 -0.18255998 -0.17386109 0.19876908
0000c0 0f 8f 1c bc 68 52 84 3d 7e ff 33 3e 4c 69 99 bd
       -0.009555592 0.0646103 0.17577931 -0.07490787
0000d0 4a 13 44 be df f9 b5 bd 05 95 dd bd 71 96 d8 3e
       -0.19147983 -0.0888555 -0.10819439 0.42302278
0000e0 c4 9b 24 be 82 6d 2b 3e 10 fd c7 ba 13 0c bc 3d
       -0.16075045 0.16740993 -0.0015257914 0.091819905
0000f0 64 e6 0e 3d 5e ee d9 bd b3 c5 fc bd 99 57 ca 3c
       0.034887686 -0.10641168 -0.12342396 0.024699973
000100 59 e0 dc 3d 90 b2 37 3e 9a bf 10 3e 3d b2 8b 3d
       0.107849784 0.1793921 0.1413559 0.06821106
000110 ef 51 2e 3e cb 4c 37 3e 7f c4 33 3d b0 c9 cb 3d
       0.17023443 0.17900388 0.043888565 0.09950578
000120 b9 ed 31 be f0 02 64 3e bb 6c 1d 3d ef a5 cf bc
       -0.1737584 0.22266746 0.03843377 -0.025347678
000130 05 7e 62 bd a6 3b 9f be b1 39 8b 3e 92 92 1a bd
       -0.055295963 -0.31100196 0.27192453 -0.037737437
000140 79 70 c8 bd 38 f9 11 3e 84 57 af bd 1c b7 58 3e
       -0.097870775 0.14255226 -0.08561614 0.211636
000150 e6 2e e1 3d 30 9c 23 bd 68 43 b9 3e 5e b8 74 3e
       0.10995273 -0.039943874 0.3618424 0.23898456
000160 2c 0e 39 3e 80 60 7f be de 8c d8 3c b2 6f 63 be
       0.18071812 -0.24939156 0.026434358 -0.22210577
000170 2f 8b 2f 3d 8a f6 43 3e 76 c3 62 be 50 5a 8a 3c
       0.042857345 0.19137016 -0.22144875 0.016888767
000180 4d 82 f0 3d 91 a7 9a be a0 96 a4 be 68 9c a2 3d
       0.11743603 -0.30205968 -0.32146168 0.079399884
000190 cc b9 bf be 25 60 c4 3d 21 b5 bb 3d 1a be 57 3c
       -0.3744644 0.095886506 0.09165407 0.013167882
0001a0 ef b3 03 be 9e 52 42 be d5 9d 15 3e 7a f9 9a bc
       -0.12861608 -0.18976828 0.1461099 -0.018917788
0001b0 c6 46 b5 3d 42 d9 02 be 91 23 0c be 0a 43 25 3e
       0.088513896 -0.1277819 -0.13685443 0.16138855
0001c0 ae d9 9a 3e e8 a8 61 3e d5 6c 0b 3e 9d 6f 73 bd
       0.302442 0.22037089 0.13615735 -0.059432615
0001d0 87 c1 07 3e 5c 8e 33 3d a8 d2 33 3d 36 18 8d be
       0.13257419 0.043836936 0.04390207 -0.27557534
0001e0 5e 53 94 3e 03 d3 f2 bd b4 1b a1 3b 6e a3 36 be
       0.28969854 -0.118566535 0.0049166325 -0.17835781
0001f0 79 a9 cd be a5 a9 e4 3d a1 f1 e8 3d 7f d2 a4 3c
       -0.4016836 0.111651696 0.11374212 0.020119904
000200 48 2d d4 3d 2e 18 4d bc 61 13 63 3e 1d 82 54 be
       0.10360199 -0.012517972 0.22175361 -0.2075276
000210 4c 03 7c 3d 96 9b bb bc bf 90 af 3d 1f d3 b3 bd
       0.06152658 -0.022901338 0.0857253 -0.087805025
000220 b2 d3 87 be 38 96 91 bc b7 61 35 3e 65 a9 d4 bd
       -0.26528698 -0.017771825 0.17713057 -0.10383872
000230 b8 4c a2 3d b6 f7 14 3e e5 41 e9 3c ff a9 9e 3e
       0.07924789 0.14547619 0.028473804 0.30989072
000240 59 a0 2c 3d 5f a1 95 bd cb e1 83 be 00 10 29 bd
       0.042145107 -0.0730617 -0.25758204 -0.041275024
000250 f7 18 47 3e 07 2e 85 3d 27 1b 0b be a3 5d 4e 3d
       0.19443117 0.0650292 -0.13584577 0.050382268
000260 4a ac 1e bd 86 44 95 3c 12 4a 71 3e 84 d5 ef 3d
       -0.038738526 0.018221151 0.23563412 0.11710647
000270 a2 8f 9e 3d de f5 9d 3e 62 ac 92 3d 39 82 91 be
       0.077422395 0.30851644 0.07161786 -0.28419665
000280 ce 9a 46 3d a7 f2 7b 3d 9e 11 5a bc 80 5e 3f be
       0.048487477 0.06151071 -0.013309864 -0.18688393
000290 6f 14 32 be 08 7d 1d be 82 9d fe bc a2 8c 8c bc
       -0.17390607 -0.15379727 -0.031080965 -0.017156903
0002a0 96 e7 0f 3e 18 fc b2 3e 81 01 3d be f3 fc ed 3d
       0.14053187 0.34957957 -0.18457605 0.11620512
0002b0 26 24 22 3e d7 7e e8 bc 0a dc 81 3e a6 69 0c 3e
       0.15834102 -0.028380794 0.2536319 0.13712177
0002c0 47 63 f8 bd 14 76 5f be 0b 63 46 3e 7c 72 97 be
       -0.12128311 -0.21822387 0.1937372 -0.29579532
0002d0 23 46 73 be d6 4e 8d 3e 06 91 42 bd 48 9e b4 3e
       -0.23757224 0.2759921 -0.047501586 0.3527701
0002e0 75 d4 4e be 90 19 08 3e 38 0b ac 3e dc 83 19 be
       -0.20198233 0.13291001 0.3360231 -0.14991707
0002f0 4c 68 5a be 32 f3 11 3e dc c1 52 3d c2 50 18 bc
       -0.21328849 0.14252928 0.05145441 -0.009296598
000300 60 a9 43 be 6e 07 ad 3d 58 1f 01 be fc 3a d1 bd
       -0.1910758 0.08448683 -0.12609613 -0.102163285
000310 94 5d 4e be 96 89 b6 be e8 43 a4 3e 73 fb 9b be
       -0.20152885 -0.35651845 0.32083058 -0.30465278
000320 8b 86 1f 3e 93 78 ae be c9 06 99 3e d3 45 2a 3e
       0.15578668 -0.34076366 0.2988799 0.16628198
000330 44 14 11 bd 71 70 0e 3e ae 6a c2 bd 03 15 7a 3e
       -0.035419717 0.1391008 -0.09493004 0.24422078
000340 7e d6 1a 3e 7b b9 a6 3e 97 a6 21 be 9e b8 7a bf
       0.15120885 0.32563385 -0.15786205 -0.97937953
000350 fa b9 67 be d8 c4 8a be 82 90 ba 3d 89 58 f7 bd
       -0.22629538 -0.27103305 0.09109594 -0.120774336
000360 b3 12 09 be f1 3a 61 be ea 0d ee 3d 3c 4d 10 be
       -0.1338604 -0.2199514 0.11623748 -0.14091963
000370 f8 6e 64 be ba 39 6f 3e 0a 01 38 3d b8 bd c0 3c
       -0.22307956 0.23361865 0.044922866 0.023527965
000380 b3 19 24 3e 3d 63 c9 bd 45 4a 9c 3e 21 09 c1 bd
       0.16025428 -0.09833381 0.30525413 -0.09425569
000390 a7 f8 95 be e7 b2 2a bd 92 95 2d 3e cb b3 17 3e
       -0.2929127 -0.04167452 0.16951588 0.1481468
0003a0 bb d8 9f bd 8d 03 54 3d 9e 52 6a 3d ce c3 31 3e
       -0.0780501 0.0517612 0.057207696 0.1735985
0003b0 84 0c ce 3e c9 81 d5 bd c5 96 5c 3b d3 1a 51 be
       0.40243924 -0.10425145 0.0033659202 -0.20420389
0003c0 d6 4f 59 be 95 ef 34 be aa 57 04 be b6 75 8a 3e
       -0.21221861 -0.17669518 -0.12924066 0.2704293
0003d0 ed de b5 3e 8d a8 9a bd a4 a8 7d bd 7f 8b e4 bd
       0.3552164 -0.0755168 -0.061928406 -0.11159419
0003e0 92 ad ef 3c 53 ac 88 3d 2f 65 0c be 4f da 21 be
       0.02925757 0.06673493 -0.13710473 -0.15805934
0003f0 f1 fc 0a 3e 2c 00 2d 3e 3e 31 9a 3d db 3c b8 bd
       0.13573052 0.16894597 0.075289235 -0.08995982

bias_ih_l0 f4 [52]
000000 15 6e 77 bd 22 e6 b5 3c 64 65 21 3e a9 c9 35 3e
       -0.060407717 0.022204462 0.15761334 0.17752708
000010 2d 78 0c be fa 88 2b 3e 93 07 80 bd 93 c5 59 be
       -0.13717718 0.16751471 -0.06251445 -0.21266775
000020 4f e0 64 3e 47 51 2e be c3 6f 7f be 26 c5 25 3d
       0.22351192 -0.17023192 -0.24944977 0.04047122
000030 af 6b f1 3d cb 54 53 3d 65 33 cb 3d 3b 7c 03 3e
       0.11788117 0.051594537 0.09921912 0.12840359
000040 37 e2 c4 3c 64 78 7a 3e a4 67 ba 3d 35 93 3b be
       0.024033649 0.24459988 0.09101799 -0.18317874
000050 fb e5 7e be 37 d6 4d bc c6 f4 e7 3d 39 8c 50 3d
       -0.24892418 -0.01256328 0.11325984 0.050914977
000060 9c f6 c2 bd 7a bb 2e bd f7 0f 7a 3e c4 96 83 3e
       -0.09519693 -0.04265926 0.24420153 0.25700963
000070 8a 56 13 3d 34 37 88 3e bf 14 8c be f6 77 26 be
       0.035971202 0.26604617 -0.27359578 -0.16256699
000080 2e 66 65 3e bf 04 20 3e 71 d6 51 be 9a b9 48 be
       0.2240226 0.1562681 -0.20491959 -0.19602051
000090 3e a6 22 be 24 f5 8a be b0 78 75 3d 34 e7 5f be
       -0.15883729 -0.27140152 0.05992955 -0.2186554
0000a0 f8 da 26 bd 7c 56 09 be 87 83 84 3d 7a 6d 28 be
       -0.04073617 -0.13411897 0.06470399 -0.16448012
0000b0 ec 1a 50 3e 89 3d 4e be e3 b7 84 3e f4 e0 86 3e
       0.2032277 -0.20140661 0.25921544 0.263435
0000c0 58 72 74 3d e4 d5 02 be ea de 82 be f6 68 97 3c
       0.05967936 -0.12776905 -0.25560695 0.018482666

bias_hh_l0 f4 [52]
000000 61 66 90 3e 66 80 21 bd 88 8f 8e 3e 1c 3b 28 3d
       0.2820311 -0.03942909 0.2784388 0.041071996
000010 af ab 79 3e f1 ac 79 3e bb 85 81 be be 8d 0f 3e
       0.24381898 0.24382378 -0.2529734 0.14018914
000020 d8 82 12 3d 5a ce 4a be ba fa 39 be b8 e8 f8 bd
       0.035769314 -0.1980528 -0.18162051 -0.121537626
000030 5e ba 4f bd 35 ac a0 bc 4f 99 98 bd b2 5a 98 3b
       -0.050714843 -0.019613365 -0.07451116 0.0046494836
000040 77 7f 70 bd 2b a6 1a 3e 79 7d 4c 3e 90 fd 1e 3e
       -0.05871531 0.1510245 0.19969739 0.15526414
000050 77 91 0e be c3 03 d0 bd 68 9d 03 3d 9f 19 fe 3d
       -0.13922678 -0.101569675 0.032132536 0.124072306
000060 c6 c7 1f be d3 6c 1a bd b5 47 58 3d 40 ad 58 3e
       -0.15603551 -0.03770144 0.05280276 0.2115984
000070 07 86 86 be 60 8e 03 be 19 ae 8b bd 76 6e dc 3d
       -0.2627413 -0.1284728 -0.06820316 0.10763256
000080 64 55 81 3e b9 0b cf 3d 51 93 0b be 44 57 39 3d
       0.2526046 0.10109658 -0.13630415 0.04524924
000090 2e 4e 57 be 57 60 8d be 6d 6f 50 3e 1f d7 97 3e
       -0.21025917 -0.27612564 0.20355006 0.29656312
0000a0 67 54 80 3e e6 86 1e 3c 30 33 68 3e c1 ba c9 3a
       0.25064394 0.009675717 0.22675776 0.001539074
0000b0 c2 f5 3e 3c fa c7 19 3e f0 a8 67 3d ae 56 54 bd
       0.011655273 0.15017691 0.056557596 -0.051840477
0000c0 a7 c6 e6 3d 20 32 12 be f4 4a 83 3e 36 8d c9 bd
       0.11268359 -0.14276934 0.25643122 -0.09841387

weight_ih_l0_reverse f4 [52, 4]
000000 ae 21 dd bd d3 c2 40 bd 21 25 23 be f5 2a 6e be
       -0.107974395 -0.0470608 -0.15932132 -0.23258574
000010 04 33 35 3e 02 a1 30 3e 67 48 04 bd fc 92 cb be
       0.17695242 0.1724892 -0.03229561 -0.39760578
000020 35 de f3 bd e5 03 b6 be 65 a7 31 3e 41 fc 8b 3e
       -0.11907617 -0.35549846 0.17349012 0.27340892
000030 9f a1 da be 29 ca 2e bd 39 6e 1a 3b 53 89 8e 3e
       -0.42701432 -0.042673264 0.0023564233 0.27839145
000040 7f 5b dc 3d b6 f4 eb 3d b3 f9 40 3e 84 9d 63 be
       0.10759639 0.11521284 0.18845253 -0.22228056
000050 c4 69 cd 3c 70 1d cb bc 5f b8 16 3e 77 c0 e1 3d
       0.025074847 -0.02479431 0.1471877 0.11023038
000060 d0 22 29 3c b5 84 f0 be 51 6f 2d be 17 ea 68 3d
       0.010323241 -0.46976247 -0.16936995 0.05686387
000070 a2 46 3e bb 4b e3 dc bd c9 05 48 be f8 2f 1a be
       -0.00290338 -0.1078554 -0.19533457 -0.15057361
000080 6e c2 60 bd df eb aa bd c4 f6 1b be 59 74 d7 3e
       -0.054872923 -0.0834577 -0.15230852 0.42080954
000090 a3 8e 91 be fd 46 d7 bc ea 3e 21 3e 6b 30 39 3d
       -0.28429136 -0.026278967 0.15746656 0.04521219
0000a0 7f 78 8a 3e 58 f8 a6 bd 5f c0 4e 3e 44 1a 7b be
       0.27045056 -0.081528366 0.20190571 -0.24521738
0000b0 cf 9e f7 3d 63 c0 ae bd 2d 66 2b 3e 9e 32 11 bc
       0.12090837 -0.085327886 0.16738196 -0.008862166
0000c0 77 64 00 3e 63 1b 95 bd c7 08 1e 3d 1a f3 1d 3e
       0.12538324 -0.07280614 0.03858259 0.15424767
0000d0 67 d9 64 3d 9f 07 42 be 00 af 8d 3e 1d e7 6a 3e
       0.055871394 -0.1894822 0.27672577 0.22939725
0000e0 e1 dd b1 3d d1 2d 44 be 08 91 9f 3d ac 85 f2 bd
       0.08684898 -0.19158103 0.077913344 -0.11841902
0000f0 0d 1a 90 3b af 28 4b be ff ae 6f 3e 57 b1 75 3d
       0.0043976367 -0.19839738 0.234066 0.059983578
000100 18 c9 04 3e b5 95 04 be c2 e4 f8 3d b8 a5 f8 bd
       0.12967336 -0.12947734 0.12153007 -0.12140983
000110 4b 79 40 3d fc 34 e8 3d 38 d3 12 bd fd 3a 0f 3e
       0.046990674 0.11338231 -0.035845965 0.13987346
000120 77 21 ed bd ee c5 f5 3d 6f af c0 bd fc 78 28 3e
       -0.115786485 0.12000643 -0.09408461 0.16452402
000130 bb c3 13 be bc 6a e7 3d 17 66 a1 3d 76 74 09 bd
       -0.14430134 0.11299655 0.078808 -0.03355833
000140 47 4a 92 be 77 1f 9a bd bb 6b 3c be 02 42 94 bc
       -0.28572294 -0.07525533 -0.18400471 -0.018097881
000150 49 3a 6b 3e 6a 8b a6 3d dc d7 1d 3d 12 2e 68 3e
       0.22971453 0.0813206 0.038535938 0.22673824
000160 bd dd 82 3e d2 d8 bc 3c 53 72 9a bd 5e 2c 15 be
       0.25559798 0.023052607 -0.07541337 -0.14567706
000170 a3 d0 c2 3e 4b c7 bc be eb 76 86 bc f6 93 cb bd
       0.38049802 -0.36870798 -0.016414126 -0.09940331
000180 93 4e fc bd 38 6e 12 3b b2 3a 14 3e 9d af 17 3e
       -0.12319674 0.0022343528 0.14475515 0.14813085
000190 3a 3d 02 be 2e 89 a9 3c 83 ae 20 3e d2 fc 34 3e
       -0.12718669 0.020695295 0.15691571 0.17674568
0001a0 4f d4 f0 3c 11 0f 84 3d 13 42 f6 be 2d 28 9c 3e
       0.029398112 0.06448186 -0.48097286 0.30499402
0001b0 17 b2 b5 3c f0 2c c4 3d 5d ee cf be 0f 40 2c be
       0.022179646 0.09578884 -0.40611544 -0.16821311
0001c0 85 83 8d bd 60 35 63 be 67 b2 91 3e 10 02 06 3e
       -0.06909851 -0.2218833 0.28456423 0.13086724
0001d0 00 a4 6e bc 2c dd a5 bd 6c 9b 17 3e 92 3c 9f bd
       -0.014565468 -0.08098826 0.14805382 -0.07775225
0001e0 82 89 b1 bd 8f 07 c9 3e f6 80 af 3d ad 8f aa 3c
       -0.08668806 0.3926358 0.08569519 0.020820463
0001f0 cb ee 45 3d 9b 99 28 bb bc 4c cf 3d 2e 0f 11 be
       0.048323434 -0.0025726322 0.10122058 -0.14165947
000200 fc e4 bc bc 54 fd 83 3e 23 80 be 3d 0a 34 82 3e
       -0.023058407 0.25779212 0.09301784 0.25430328
000210 57 e3 1d 3e 67 86 ca 3e 85 3d 27 bd 05 c3 3a be
       0.15418755 0.39555666 -0.040830154 -0.18238457
000220 76 16 ac be c4 c6 1a 3e 44 e5 ca 3d 18 ca a3 3d
       -0.33610886 0.15114886 0.0990701 0.07997531
000230 73 52 35 be f7 f1 70 bd 9e db bf be e0 41 9a 3e
       -0.17707233 -0.058824506 -0.37472242 0.30128384
000240 ac 4c 06 be 5f ba 14 3e b8 b1 0a 39 f2 85 33 bc
       -0.13115185 0.1452422 0.00013226911 -0.010957228
000250 30 f9 5e 3c f4 c6 2d 3e 0e 5e 02 3e 15 2c 8a 3e
       0.013609216 0.16970426 0.12731192 0.26986757
000260 20 e8 82 3e d6 6b 47 bc 47 91 0b 3e 11 54 81 3d
       0.25567722 -0.012171706 0.13629638 0.063148625
000270 4c 14 70 3d a3 c8 86 3e a7 2b 82 be 6a 90 1a 3e
       0.058613107 0.2632495 -0.2542393 0.15094152
000280 59 da 87 3c 41 e4 8c be 7a 21 1d 3e 76 8e 9c 3e
       0.016583608 -0.27517894 0.15344802 0.3057744
000290 e8 30 17 3e 40 70 a6 3e 4a fe 50 3e c1 1b c1 bd
       0.1476475 0.32507515 0.20409504 -0.09429122
0002a0 4b b5 27 3e cc e9 87 bd 32 1e 5e be ab dc 2a 3e
       0.16377752 -0.0663639 -0.21691206 0.1668574
0002b0 ff 73 9c be 3f 24 a2 bd de 3b e7 bd ca 99 45 bc
       -0.30557248 -0.0791707 -0.11290716 -0.012060592
0002c0 00 1d 56 38 f2 12 ac bd 6b ac e9 3d 1a 4a f8 3d
       5.1048584e-05 -0.08402051 0.11409839 0.12123509
0002d0 4f ab d3 bc 0a 89 f5 3d e6 e8 42 3e 4a f6 04 bd
       -0.025838522 0.11989029 0.19034156 -0.032461442
0002e0 b8 b0 c0 bd af e1 52 be 38 03 0e bd 12 9b 4c bd
       -0.094087064 -0.20593904 -0.03467104 -0.049952574
0002f0 40 5b 86 3d d7 8a 47 3d 35 e8 0e 3e 7e 7c 44 3d
       0.06560373 0.048716392 0.13955767 0.047970288
000300 b7 23 a6 3e a8 f4 78 bc ba af b5 3d 56 fa 06 bf
       0.32449123 -0.015195049 0.08871408 -0.5272573
000310 bb e1 cd bd 1f 2f 8e 3c 8a 3d ab bd 56 06 4c be
       -0.1005282 0.017356453 -0.08361347 -0.19924292
000320 d5 e9 29 bd 85 e7 d4 bc 7a 2e 85 bc f5 22 2e bd
       -0.041482765 -0.025989303 -0.016257513 -0.042513806
000330 7a 7d b3 bd c1 08 5c bc 7f c1 86 3e a3 13 26 bd
       -0.08764167 -0.0134298215 0.263195 -0.04054607

weight_hh_l0_reverse f4 [52, 13]
000000 85 af 0e bd 6f b8 f2 bd 26 c3 8e 3d 96 22 27 be
       -0.034835357 -0.11851584 0.06970815 -0.16321787
000010 4b 9c 8b 3d e9 3c 1a be 02 36 c2 3d 4a 62 8b bd
       0.0681692 -0.15062298 0.094829574 -0.068058565
000020 e9 34 3f be e8 a9 84 3e 33 e7 9d 3d b1 a1 86 be
       -0.18672527 0.25910878 0.077101134 -0.26295236
000030 67 91 69 bd a2 a4 e0 3d 76 1b 49 be 94 b9 b1 3e
       -0.057023432 0.10968901 -0.19639382 0.34711897
000040 d4 ce 72 be 5f 82 b7 bd dd c7 02 be 84 1f db bd
       -0.23711711 -0.08960413 -0.12771554 -0.106993705
000050 06 00 3a be 19 f2 e6 3d f6 e8 78 3d ad 8c 36 3c
       -0.18164071 0.11276645 0.060769044 0.011141938
000060 50 45 34 3e 1e e1 71 3d d6 aa 96 3d 89 89 12 3d
       0.17604566 0.05905258 0.07356803 0.035775695
000070 64 8b 54 bc f1 af 0e 3d a3 7e 35 3e ba a2 88 3e
       -0.012972686 0.03483576 0.1772409 0.2668665
000080 83 42 e6 3b 72 66 50 3e f0 05 73 3e fb 04 95 bd
       0.007026972 0.2035158 0.23732734 -0.072763406
000090 74 28 b8 3d bb f4 19 3e 9a d8 78 3c 6f e2 38 be
       0.08992091 0.15034764 0.015188361 -0.18055128
0000a0 f8 0e 27 be d4 e5 9e 3d e7 e2 48 3e eb 1b 56 bb
       -0.16314304 0.0775868 0.19617806 -0.003267045
0000b0 07 84 52 3e d8 3c cd 3a 90 b7 15 be 92 b6 32 bd
       0.20558177 0.0015658392 -0.14620805 -0.043631144
0000c0 63 69 ba 3e 22 46 ba 3d bb 63 d7 3d fc ca 8a 3e
       0.3640853 0.09095408 0.10517069 0.2710799
0000d0 53 8b 11 be ad f6 7a 3d c8 3f 25 3e 57 ee 86 be
       -0.14213304 0.061270405 0.16137612 -0.26353714
0000e0 81 cc 7f 3e 46 8d 83 3e 37 61 a4 3d 49 6c 05 bd
       0.24980356 0.2569372 0.08026355 -0.032573972
0000f0 58 d4 05 bd af 9f 01 3f 88 96 20 3e 0e 60 04 bc
       -0.03267321 0.5063428 0.15682423 -0.008079542
000100 5a 8d ef 3d 9e 7d 09 be 89 f1 57 bd 3b da 6c be
       0.116968825 -0.13426825 -0.05272058 -0.23130123
000110 3d ae c9 3e 78 ff bc 3d 17 de 9c 3e c7 07 94 3c
       0.39390746 0.09228414 0.3063819 0.018070115
000120 0a 80 2f bd 82 27 ce be 01 88 5f 3d ea 67 0b be
       -0.042846717 -0.40264517 0.054573063 -0.13613859
000130 ce c8 c2 3d e8 e0 87 bd aa dc 9f be 0c ba ee 3d
       0.09510957 -0.06634694 -0.3122304 0.116565794
000140 4f e2 6f 3c 70 c1 cb bd fa 4a 8b 3d 77 76 85 3e
       0.0146413585 -0.09949005 0.0680141 0.26066944
000150 bf 81 b2 3d a1 4b 1a 3e c3 2a 6f be 5f 20 e9 bd
       0.08716153 0.15067913 -0.23356156 -0.113831274
000160 84 3f 09 3d cd 47 0f 3e ed 1b 39 3e 27 01 cd 3a
       0.03350784 0.13992234 0.18077059 0.0015640602
000170 c6 4f 75 bd f9 84 e8 bc 98 3c 95 3c a5 02 88 bd
       -0.05989053 -0.028383719 0.01821737 -0.066411294
000180 91 b8 76 bb dc 81 81 bd 30 fe 0f be 0f 78 f5 bd
       -0.0037646631 -0.06323597 -0.14061809 -0.1198579
000190 13 ca 99 3b 03 d8 ed 3c d9 40 82 3e 84 08 b1 bd
       0.0046932786 0.029033666 0.254401 -0.08644202
0001a0 0a 39 9c be 7a d2 84 be b2 58 f3 bc f6 d5 83 be
       -0.30512267 -0.2594183 -0.02970538 -0.25749177
0001b0 e4 14 ca 3d 62 64 ad bc 1a 9c 6e be d3 d6 27 3d
       0.09867266 -0.02116603 -0.23301736 0.040976357
0001c0 6f 52 43 3b d0 cb 00 be 43 15 87 3e c1 0f 17 3d
       0.0029803773 -0.12577748 0.2638341 0.03688026
0001d0 2f 64 2f be 9c d3 bc 3c 21 c0 ca bd e1 f2 c8 bd
       -0.17128061 0.023050122 -0.09899927 -0.098119505
0001e0 af df e2 3e 4e e0 0c bd c4 1a 07 3e d4 20 9c 3e
       0.44311282 -0.0343936 0.13193804 0.30493796
0001f0 ab 85 e9 3d 7d c0 d4 be 61 f2 b3 bd 16 22 95 be
       0.11402448 -0.41553107 -0.087864645 -0.29127568
000200 23 33 8c 3e da 4c 33 3d a6 de 83 be 77 66 35 bd
       0.27382764 0.043774463 -0.25755805 -0.04428717
000210 26 f0 1a be 8e aa 66 3d d7 7c 7e 3a 30 8f 78 3e
       -0.15130672 0.056314997 0.00097079336 0.24273372
000220 5d e8 97 bd 12 11 b6 be 7a f6 59 3c 13 9e 80 3e
       -0.07417367 -0.355599 0.0133033935 0.251206
000230 78 21 df bd 1c 23 05 3e c1 55 3f be c8 42 12 3d
       -0.108950555 0.13001674 -0.18685056 0.03570822
000240 f1 86 03 be 0b fc cf 3e be 6e ba be d9 f7 04 3c
       -0.12844445 0.4062198 -0.36412615 0.008115732
000250 43 19 68 be 10 93 2f bd 04 b7 98 bd ef 53 a9 bd
       -0.22665887 -0.04286486 -0.074567825 -0.08267962
000260 c6 07 15 bd 93 bb 6d be d6 77 0f 3f 91 d9 56 be
       -0.036384366 -0.23216085 0.5604223 -0.20981432
000270 c9 0a c3 3c 08 35 a1 3e 50 1f fe 3d e9 11 84 bd
       0.023808854 0.31485772 0.12408316 -0.064487286
000280 ee ea 2a 3e 40 2f d4 3e b1 c6 25 3e f8 41 c1 3d
       0.16691181 0.414423 0.16189076 0.09436411
000290 5c 04 b9 bd 84 80 f7 bd e5 ba 8a 3d e5 4c 4e 3e
       -0.090340346 -0.12085059 0.067739286 0.2014652
0002a0 fa 65 39 be f9 5b bb 3d 02 5e 59 3e ed 42 d2 3e
       -0.18105307 0.09148402 0.21227267 0.41066685
0002b0 c8 13 8f be c3 1e b6 bd 38 90 16 3c 5e 26 56 3e
       -0.2794478 -0.08892586 0.009189658 0.20913073
0002c0 9e 29 63 be 99 43 41 be c3 70 49 bd e0 2e b3 be
       -0.22183844 -0.18873443 -0.049179804 -0.349967
0002d0 19 00 97 bd 57 d7 b4 bd 58 8f 15 be d4 59 09 bd
       -0.073730655 -0.08830135 -0.14605463 -0.033532932
0002e0 0a 04 2b be 00 37 b6 bc ce 66 da bc 00 17 31 bd
       -0.1670076 -0.022243023 -0.02666035 -0.043234825
0002f0 c7 1d aa 3e 87 41 aa 3d 87 35 be 3e c9 bc fa 3d
       0.33225843 0.083132796 0.37150213 0.12243039
000300 79 8f 6d bd 30 ff 96 be b5 f2 bc be 20 a5 51 3e
       -0.057998154 -0.29491568 -0.3690392 0.20473146
000310 a3 e1 9e 3d ba 4c 0e bd 06 20 fa 3c 52 50 1c be
       0.077578805 -0.03474114 0.030532848 -0.15265015
000320 fa 8e 06 be c0 10 6a bd df 84 94 3d 8c b8 c3 be
       -0.13140479 -0.05714488 0.07251906 -0.38226736
000330 4d 0e 38 be 08 ae 6b 3e 21 ad 4f 3d 13 f6 a6 3d
       -0.17974205 0.23015606 0.050702218 0.08152404
000340 17 45 2c be 71 49 d5 3d c4 58 11 be 0b 16 88 bd
       -0.1682323 0.104143985 -0.14194018 -0.06644829
000350 aa 6f 81 3e 36 8a 2c be 4b 70 06 3e 3a 9c 06 bd
       0.25280505 -0.16849598 0.13128774 -0.032863833
000360 1f 34 ed bd 6b bb 8f 3d f5 17 45 3d 1f ca 22 be
       -0.11582207 0.07018169 0.04811855 -0.15897416
000370 ed 7e ce 3d 0b b6 ac bd b5 5b 02 3e ba ee 60 3d
       0.10082803 -0.084331594 0.12730296 0.054915167
000380 6c 7c ac 3d f7 c0 0f be 81 98 23 bd 9b 89 80 be
       0.08422169 -0.14038454 -0.03994036 -0.25104985
000390 10 b2 82 bd c2 2e 93 bd 1f 44 aa be 9d 1b 20 be
       -0.06381619 -0.07186653 -0.33255097 -0.15635534
0003a0 f2 15 62 3d 55 b1 bc 3d ff 11 39 be 1a 78 47 3d
       0.05519671 0.09213511 -0.18073271 0.048698522
0003b0 01 f9 3c 3e 66 77 cc bd df 5e 01 3e c4 23 66 3d
       0.18454362 -0.09983711 0.12633847 0.056186453
0003c0 a9 23 28 be 99 0c b4 bd 40 2d 97 3e 0f ef a9 bd
       -0.16419853 -0.08791465 0.2952671 -0.0829755
0003d0 36 5c 16 3e d4 36 e5 3d 8e 08 0f bc d6 4d e4 3d
       0.14683613 0.11192098 -0.008730067 0.111476585
0003e0 b7 13 64 3e f4 15 80 be 58 22 48 bd 3f ca 42 3e
       0.22273146 -0.2501675 -0.048860878 0.19022463
0003f0 ed 7c 4e 3e d6 6b 36 3d 4b e7 59 bd e8 ac 04 bf
       0.20164843 0.044536434 -0.053199094 -0.51826334

bias_ih_l0_reverse f4 [52]
000000 bb 77 fd 3d fe 4c de bd e9 cd 13 be 20 c3 c0 bd
       0.123763524 -0.10854529 -0.14434017 -0.09412217
000010 67 72 4f 3d bc ce 98 bd b7 7a 88 be 57 8a 39 3e
       0.050646212 -0.074613065 -0.26656124 0.18119179
000020 b4 9f ed bd bd c3 77 3e 72 70 24 be 4e 7d 5e be
       -0.116027266 0.24195762 -0.1605852 -0.21727487
000030 67 6d 67 3e 8a 07 18 be 41 b5 02 3e 4d 4e 17 be
       0.22600327 -0.14846626 0.12764455 -0.14775963
000040 58 f6 fd bb 3d 41 e2 3b 46 f7 10 3c 06 b3 41 be
       -0.0077503137 0.0069047497 0.008848017 -0.18915948
000050 29 9f 26 3d c0 98 ae 3c 41 3d d9 bc 90 aa dd bd
       0.04067913 0.021313071 -0.026518466 -0.10823548
000060 a5 45 5b 3e 8b 9d f0 3b 5d 3c 2f 3e f9 b4 05 be
       0.21413286 0.0073429993 0.1711287 -0.13057317
000070 11 5a 88 bd 6e 38 29 bd 9c 75 2e bd f5 a6 96 bc
       -0.06657804 -0.04131358 -0.04259263 -0.018390158
000080 22 e0 f5 3d 4d c6 96 b9 63 33 df bd 5f e5 84 be
       0.120056406 -0.00028757975 -0.10898473 -0.25956246
000090 3e 97 2c bd c3 76 f9 bc 4c 97 1f be 87 46 dc bc
       -0.042136423 -0.030452138 -0.15585059 -0.026889099
0000a0 86 88 8e be 14 bf 22 3e 07 ac 6c 3e 33 60 19 3e
       -0.27838534 0.15893203 0.23112498 0.14978103
0000b0 64 14 1b be 00 f4 2d bd 1a 64 8d bd 58 a9 58 3e
       -0.15144497 -0.042469025 -0.069038585 0.2115835
0000c0 27 b3 7e 3d 1b 11 ed bc 97 4b ed 3d e4 d5 23 3d
       0.06218257 -0.02893882 0.11586683 0.039998904

bias_hh_l0_reverse f4 [52]
000000 64 f9 8f 3e 49 57 60 be de a6 ab 3c 08 59 17 3e
       0.28119957 -0.21908297 0.020953592 0.14780056
000010 a0 9f 58 be 98 6b 1c 3e 94 5c d9 3d 7b fd 50 bd
       -0.21154642 0.15275419 0.10613361 -0.051022988
000020 a4 41 0a 3d c1 94 91 bd 87 48 23 3d d7 db dd bd
       0.033754006 -0.07108451 0.03986409 -0.10832947
000030 c4 97 d9 3d 54 3f e5 3d de fc db bd de 14 85 3e
       0.1062465 0.111937195 -0.1074159 0.25992483
000040 56 3f 54 bd cc e1 c4 bd 3a 7a c0 3d 42 70 8a be
       -0.051818214 -0.0961338 0.09398313 -0.2703877
000050 6b 87 e1 bc c4 7d 2a 3e a6 dc 65 3e 8e d1 0b 3e
       -0.027530393 0.16649538 0.22447452 0.13654158
000060 a9 eb a8 3d 32 92 ca 3d c6 3f 77 3e 70 6f 7b 3e
       0.082480736 0.09891166 0.24145421 0.24554229
000070 81 b8 10 3e b1 f4 31 be 4a 64 5b bd 6f fe 72 bc
       0.14132883 -0.17378499 -0.05356244 -0.0148311695
000080 7b 1c 5f bd e0 39 64 3e 8d 50 24 bd 40 1e 76 be
       -0.05447052 0.22287703 -0.04011588 -0.24034977
000090 dc 77 8e bd 9e 61 7c 3d ea bd 27 bd c3 21 14 3e
       -0.06956455 0.061616533 -0.0409526 0.14466004
0000a0 21 65 8a be d9 ae 51 3e db c4 2b be 22 07 6a be
       -0.2703028 0.20476855 -0.16774313 -0.22854283
0000b0 67 b8 49 3e be 3b 46 3d ed 3c d2 3d e7 f3 22 be
       0.1969925 0.04839682 0.10265527 -0.15913354
0000c0 cf 85 81 3e 27 27 36 be 04 51 81 bb 5c 3e 88 be
       0.252974 -0.17788373 -0.0039464254 -0.26610076

weight f4 [16, 260]
000000 b7 9f 92 bd c9 27 6d bd 05 a7 45 bd 45 49 30 3d
       -0.071593694 -0.05789927 -0.048254985 0.043038625
000010 00 81 39 be 36 9e 21 3e 73 d6 36 3d 8b b4 17 be
       -0.18115616 0.15783009 0.04463811 -0.14814965
000020 77 37 98 bd 72 37 97 3d a2 80 83 bd 3d ae 32 3d
       -0.07432454 0.07383622 -0.06421019 0.043623198
000030 93 8f 97 3d 98 46 37 bd c6 b7 f9 3d 3b e1 93 3c
       0.074004315 -0.044745058 0.12193255 0.018051734
000040 9b 74 c1 3c 59 f6 12 3d 4e f8 54 b9 eb ae 4d 3e
       0.023615172 0.035879467 -0.00020310396 0.20086257
000050 9d 7d 04 3d b0 89 fa 3d bd 2e 8a 3c df a4 b3 3d
       0.032346357 0.12233293 0.01686799 0.08771681
000060 13 79 33 bd 33 70 a4 bd 81 80 d7 3d 1d d9 31 bd
       -0.043816637 -0.08029213 0.10522557 -0.043419946
000070 2e 5a 25 3d 5a ae 2c be 16 a1 1f bc 20 84 06 3e
       0.040369205 -0.16863385 -0.009742996 0.13136339
000080 1d d4 55 3d b1 c6 dc bd eb 9f 17 bd 1c 29 c1 bb
       0.05220424 -0.10780085 -0.037017744 -0.005894793
000090 86 8a f8 3d 66 79 a6 3d f3 1a 58 bd 73 7e 14 3e
       0.12135796 0.08128624 -0.052760076 0.14501362
0000a0 de 25 d6 bd 31 fd bf bc ac 00 8c 3d b6 e9 78 bd
       -0.10456441 -0.02343616 0.06836066 -0.06076976
0000b0 14 c2 bb 3d ec fd 15 bc da d8 1f 3c 85 7e 4a 3d
       0.09167877 -0.009154778 0.009756291 0.049437065
0000c0 31 99 e6 3d 69 29 4d 3d 31 d0 5a 3d 10 d1 d3 3b
       0.11259688 0.05008832 0.053421203 0.006464131
0000d0 fd d3 9e bd 3d 2a 71 3b 00 77 86 bd 3d 52 86 3d
       -0.07755277 0.0036798858 -0.06565666 0.065586545
0000e0 19 73 59 bd cd c3 9d 3b d9 2a 35 3d 53 ce 03 3e
       -0.05308828 0.004814601 0.044230316 0.12871675
0000f0 24 32 f4 3c db 65 41 3e 38 02 e3 3b b5 f7 4d 3d
       0.029809065 0.18886511 0.0069277547 0.05028506
000100 82 a6 3b 3d 0a 84 53 bd 8a 6d 22 3d 21 2e 96 3d
       0.04581309 -0.051639594 0.039655246 0.07333017
000110 ea 73 1b 3c 49 64 80 bc 71 b1 ad 3d 34 70 fc 3d
       0.009488085 -0.01567282 0.0848111 0.123260885
000120 68 51 e2 bd 10 53 87 bc e9 0e ea bc 0d 23 07 3e
       -0.11050683 -0.0165191 -0.028571563 0.13196965
000130 59 b1 f7 3d 2b 28 c6 3b 7e 2f 1c 3e a8 f8 28 bd
       0.12094373 0.006047269 0.15252492 -0.041252762
000140 9a 3c d2 3c a0 13 16 be 2d 3d c1 bc 8f d3 a7 bd
       0.025663663 -0.14655924 -0.023588741 -0.081946485
000150 96 21 28 3e a6 46 2e bb 17 ca af bc c7 6a 25 3e
       0.16419062 -0.0026592403 -0.021458669 0.16154014
000160 68 71 2c 3d 5f 9f 26 3b ff 55 08 be dc 1d 18 3e
       0.04210034 0.0025424582 -0.13314055 0.1485514
000170 44 f7 8f bc 5b 10 05 3d 19 ef d2 bd 01 e4 8e 3d
       -0.01757396 0.0324863 -0.102995105 0.06977082
000180 60 c1 d4 bd ed c4 09 3e 87 c1 d0 bd e1 24 34 bd
       -0.10388446 0.13454027 -0.101931624 -0.043980483
000190 82 13 c4 3c 5a fb 1c 3e 78 a2 f4 bd cf 98 84 3d
       0.023935083 0.15330258 -0.11945051 0.064744584
0001a0 6f 70 9c 3d 40 d8 26 bd 5b e8 2f 3d 80 d7 40 3a
       0.076386325 -0.040733576 0.0429462 0.0007356331
0001b0 da 6a ec bc f7 4e c3 bd 6b 9e c8 bb 60 c8 27 bd
       -0.028859545 -0.09536546 -0.0061224005 -0.040962577
0001c0 ac b7 91 bd b5 58 1d 3d e3 93 cd bd 33 91 a0 3c
       -0.07115111 0.038414676 -0.10037973 0.019600486
0001d0 94 a6 12 bd 0e 0f a3 bd d8 b0 e8 bc f7 e2 19 be
       -0.035803393 -0.07961856 -0.028404638 -0.15027986
0001e0 ed fc 96 bd 30 2b 72 3c 77 6c ba bd 4f d8 b7 3d
       -0.073724605 0.0147808045 -0.09102719 0.089768045
0001f0 3b 69 42 3d c7 73 1e bd 30 3a f2 3b 8e 27 fa 3d
       0.047463637 -0.038684633 0.0073921904 0.12214576
000200 d8 08 d9 3b fa 6c b7 3d 57 1a 8c bd a6 51 07 3e
       0.0066233687 0.089563325 -0.068409614 0.1321474
000210 12 4c 59 bd 17 1f 49 bb 28 e9 6d 3d 23 1b 46 bd
       -0.053051062 -0.0030688697 0.058083683 -0.048365723
000220 fa f8 d7 bd 51 1a 78 bd 51 e3 7f 3d 20 39 7f bd
       -0.105455354 -0.060571972 0.062472645 -0.062310338
000230 4d 9f 33 be 3b 12 6f bd 84 b6 25 bc 1b bc d9 3d
       -0.17541237 -0.058366995 -0.010114316 0.106315814
000240 1b 55 df 3d be fc 65 3e 29 e6 4d bd e6 df e1 3d
       0.109049045 0.22459695 -0.050268326 0.11029033
000250 ee d9 96 3d 14 55 5b bd 58 dd 67 bc b7 4e 07 be
       0.073657855 -0.053547934 -0.014151894 -0.13213621
000260 e7 3b 15 3e d8 59 9c bd ce 20 33 bd 4a fb 98 bc
       0.14573632 -0.07634324 -0.043732457 -0.018674511
000270 98 17 12 3d 29 d7 6d bd 5e 98 8a 3d 71 08 0a bd
       0.035667032 -0.05806652 0.06767343 -0.033699457
000280 58 86 bb bd 66 f2 09 bd a4 cd e1 3d 3d 37 ce 3b
       -0.091564834 -0.033678435 0.11025551 0.006293206
000290 49 1b 1c 3e 35 78 65 3d 95 58 19 3e f6 f2 a0 3c
       0.15244783 0.05602284 0.14975198 0.019647103
0002a0 99 b9 7d bd ca c1 06 3e f7 42 ba bd 44 78 3c bd
       -0.061944578 0.13159862 -0.09094804 -0.04601313
0002b0 8b 29 a4 3d 00 15 c4 3c ba c3 1a 3e 21 d0 28 3c
       0.08015736 0.023935795 0.15113726 0.010303528
0002c0 ab 74 ae bc fa e9 29 3d ba 2f c2 bd a7 11 46 bd
       -0.021295866 0.041482903 -0.09481759 -0.04835668
0002d0 38 18 76 bc 70 2f 77 bc 35 91 7b 3e 8b 45 d3 bd
       -0.015020423 -0.015086994 0.24567111 -0.10315999
0002e0 18 98 2d 3d 7e 6c dd 3b c5 ff 87 bd 35 7d 65 3d
       0.042381376 0.006757318 -0.06640581 0.05602761
0002f0 c6 f6 33 3e 0e 39 33 3d d5 3a b8 bd 3b 73 a2 3c
       0.17574605 0.043755583 -0.08995596 0.019830337
000300 ff a1 07 bd 4d fe 36 be b7 3b 10 bd 5d db 2b bc
       -0.033113476 -0.17870446 -0.0352132 -0.010489312
000310 1a ca 7d 3d 32 86 84 bd 3a a8 c3 3d 2e 91 4d bd
       0.061960317 -0.06470908 0.09553571 -0.050187282
000320 a2 fe f2 ba 98 31 9e 3d 13 1a 9b bd 2f 0f b7 bd
       -0.0018539021 0.07724303 -0.07573333 -0.08938443
000330 f3 c3 92 3d 77 bc 0c bd ff 5e 01 bd 7c 8f af bd
       0.071662806 -0.03435942 -0.031584736 -0.08572289
000340 86 8b 9f bd ec 72 a1 3d 51 8f 52 bc 0d ce 4f bd
       -0.07790284 0.07883248 -0.012851552 -0.050733615
000350 67 2e c7 bc 5a 9d b7 3d 6d 14 0e 3d 35 3f c4 bd
       -0.024314119 0.08965559 0.03468745 -0.09582368
000360 48 d3 eb 3d 97 a9 8a 3d 26 7f 27 3c 96 a7 87 3d
       0.11514908 0.06770628 0.010223186 0.06623761
000370 b1 8c de bd 78 bc b7 bd 97 7f 85 3d 95 aa e6 bd
       -0.108666785 -0.089714944 0.065184765 -0.11263005
000380 45 8b 08 3d a7 08 bc 3d fc 0c 81 3d 3f 63 54 3d
       0.033335943 0.09181338 0.06301305 0.05185246
000390 ab 53 05 be 19 b6 e9 3b 66 ba 3a be 0a e3 0f bd
       -0.13020198 0.0071323034 -0.18235168 -0.03512863
0003a0 fb db 3c bd 3a 64 56 bd 1d 5a b4 bc 45 90 97 3c
       -0.046108227 -0.052341677 -0.022015626 0.01850141
0003b0 71 3c 95 3d 92 94 d7 bd a0 97 86 bb e7 f4 c5 bd
       0.07286919 -0.105263844 -0.0041074306 -0.09665852
0003c0 00 c7 9e bd d7 87 a9 3c 6a c5 11 bd 2a ec 8b 3a
       -0.077528 0.020694656 -0.03558866 0.0010675241
0003d0 28 db 35 3d 91 35 60 bd e2 11 94 bc 55 70 f5 bd
       0.044398457 -0.054738585 -0.018074933 -0.11984316
0003e0 92 20 22 3e 37 64 1b be 81 ea 2f 3b 58 50 aa bc
       0.15832737 -0.15174948 0.0026842656 -0.020790264
0003f0 ac 80 20 3d e6 31 1c bc 98 1f bf 3c f9 a2 06 be
       0.03918521 -0.009533381 0.023330495 -0.13148107

bias f4 [16]
000000 75 e3 a2 3c 42 2a 45 3d 50 7a 6f 3d 75 ea bf bc
       0.01988385 0.048136003 0.058466256 -0.023427228
000010 af 99 14 3c c0 3e b5 3d 49 b6 0c 3d b0 52 b5 3c
       0.009069844 0.08849859 0.03435353 0.022134155
000020 ca a4 83 3d 81 64 77 bd c2 3f a8 3c e6 7e 0c bd
       0.064279154 -0.060398582 0.020538215 -0.034300707
000030 6c 2e 1b 3d 81 bd 4c bd 31 cb d6 bc 32 5e 8f bc
       0.03788607 -0.049985413 -0.026219936 -0.01750097

weight f4 [19, 16]
000000 9c 0f 9c be 38 e0 98 bd b3 0c 35 3e 83 81 31 be
       -0.3048066 -0.07464641 0.17680626 -0.17334561
000010 ae 4a e0 3e 3e a4 5d 3c d1 ef 83 be 29 97 3d be
       0.43806976 0.013527928 -0.25768903 -0.18514694
000020 c3 47 72 3e d8 01 22 3f ea 2e c0 3e 72 8f ae be
       0.23660187 0.63284063 0.37535793 -0.34093815
000030 21 7d a3 3e 52 f7 0b 3e 5c c6 db bd 8c 0a e5 3d
       0.31931403 0.13668564 -0.107311934 0.11183652
000040 dc d8 c0 bd 95 25 19 bf 2c d2 65 be 74 19 81 3e
       -0.09416363 -0.5982297 -0.22443455 0.25214732
000050 a0 cf 5a be 8a 55 94 bd 68 bd 06 be c3 7b f2 bd
       -0.21368265 -0.07242878 -0.1315819 -0.11840012
000060 37 2c 7e 3e 92 a3 70 3e c2 45 dd bd 5a fa 15 3e
       0.24821554 0.23499897 -0.10804321 0.14646283
000070 61 d2 ea 3e c2 38 1e 3e 7c f2 5d 3d 20 6b 82 3e
       0.4586363 0.15451339 0.05418633 0.25472355
000080 6b c2 54 3e 47 a7 74 be 6f e2 26 be 26 ab a5 3e
       0.2077729 -0.23891936 -0.16297315 0.32357138
000090 92 cb 5b be af b2 87 3c 9e 0a 11 3e b1 da 17 3e
       -0.21464375 0.016564695 0.14164206 0.14829518
0000a0 ca ea 71 3e 4d 66 f8 3d ec 09 42 3e 95 0a 38 be
       0.23624721 0.12128887 0.18949097 -0.17972787
0000b0 8c ec 8c be 83 19 05 be 0f 52 2f 3e 2d 9d 16 3f
       -0.2752422 -0.12998013 0.17121147 0.5883358
0000c0 69 6f f3 3e 25 62 3b 3e 26 43 d5 be de e0 04 3e
       0.47545937 0.18299158 -0.41652793 0.12976405
0000d0 f3 13 03 3e 1d b1 d6 3b 9f c7 05 be 48 59 d9 3e
       0.12800579 0.0065518753 -0.1306443 0.4245093
0000e0 13 02 df bd 1b 96 5c 3f 79 89 90 3d 93 3f 08 3f
       -0.108890675 0.8616654 0.07057471 0.53222007
0000f0 1a 90 96 be 87 1e 19 be 95 04 1e be 97 ff 9d 3e
       -0.29406816 -0.14953052 -0.15431435 0.30859062
000100 49 18 6f bd cd c6 d6 3e a6 44 88 be ac 2a 3e be
       -0.05837277 0.41948548 -0.26614875 -0.18570966
000110 ba fd b7 3e 39 78 97 bd a2 de 03 3f 25 75 53 be
       0.35935766 -0.073959775 0.51511586 -0.20650156
000120 8c c9 28 3f 21 98 b9 be 6d 8f b4 3e 98 c4 69 be
       0.65932536 -0.36248878 0.35265675 -0.22828901
000130 c9 b5 18 3e 2b b2 0d bd 92 2b 96 3e 61 da 5e be
       0.14913096 -0.034593742 0.29330117 -0.21762992
000140 5c 14 0a 3e 80 57 ed be 2a f3 ee bd 33 9f a4 3e
       0.13484329 -0.4635582 -0.116674736 0.3215271
000150 be 6c 91 3e d3 d9 93 bd 9d 92 9a 3d aa d7 45 3e
       0.28403276 -0.07219281 0.075474955 0.1932055
000160 ed 2f c9 3d f3 b7 78 3e e7 81 5c be 4a ff 91 bc
       0.09823594 0.24288921 -0.21533929 -0.017821927
000170 f3 82 0c 3e 50 fe 87 be 89 dc ba be 73 3a c6 be
       0.13721828 -0.26561213 -0.3649638 -0.38716468
000180 07 42 c4 be dc e2 b7 3d e9 1c 71 3e 86 08 b2 be
       -0.38331625 0.08978817 0.23546185 -0.34772128
000190 1e ad d8 3e 09 18 57 bd 66 57 ee 3c c3 36 eb bd
       0.42319578 -0.052513156 0.02909441 -0.11485054
0001a0 25 69 8d bc 4a c8 1f 3e 65 9a 1e be 01 50 a3 3d
       -0.01726205 0.15603748 -0.15488584 0.07974244
0001b0 bf 64 ba 3e 96 95 5e 3e 08 a7 83 be 92 43 3e 3e
       0.36404988 0.2173675 -0.25713372 0.18580464
0001c0 1b 80 80 3d 45 8a 74 bd 96 ac ac bd 60 84 7c 3e
       0.06274434 -0.059702177 -0.08431356 0.24659872
0001d0 6b c2 27 3f 0c 44 cc be c5 82 d6 3d 7e da 1f bd
       0.65531033 -0.39895666 0.10474161 -0.03902673
0001e0 3f a3 6b 3f 12 20 df 3e fe 84 f9 bd fa 47 46 be
       0.9204597 0.43579155 -0.12183569 -0.19363394
0001f0 9c 57 c8 be 6a ff 23 3e 56 da 9b 3d 0f 0f b9 bd
       -0.3912934 0.16015401 0.07610004 -0.09036075
000200 94 a2 f5 bc 45 4f 77 3e ce c2 24 be 97 b8 e1 bd
       -0.02998475 0.24151333 -0.16089937 -0.11021536
000210 e1 7d 26 3e 78 c2 7f be 7e d8 5f be 93 2f 73 3c
       0.16258956 -0.24976528 -0.21859929 0.014842886
000220 2b 4a b3 3e 6f 19 08 be 9f b8 2b 3e c8 af 20 bd
       0.35017523 -0.13290952 0.16769646 -0.039230138
000230 02 0a fd 3c 0a 55 eb ba 51 e7 a1 3d b9 2c 55 bc
       0.030888561 -0.0017954421 0.07905448 -0.013011151
000240 86 40 9e bc 16 4c 4b 3e a5 15 00 3e 04 27 a0 be
       -0.019317877 0.19853243 0.12508257 -0.31279767
000250 ca 56 a5 be d2 b5 ba 3e 1f 38 82 3e 3f f3 e8 bd
       -0.32292777 0.36466843 0.25433442 -0.113745205
000260 67 75 02 bb 9b 89 fe 3e 6c 8d 7f 3e 63 5d f9 be
       -0.0019906403 0.4971436 0.24956292 -0.4870406
000270 c1 fe 3f 3e 47 dc 72 3d 72 71 f1 bd 45 24 62 be
       0.18749525 0.059292104 -0.11789216 -0.22084148
000280 31 ea 1b be 74 bc 61 3e ec 48 32 be de 09 62 be
       -0.15226056 0.22044545 -0.1741063 -0.22074077
000290 49 fd 32 3e b3 c9 f1 3b 23 c4 1b 3c a6 5f e2 bc
       0.17479433 0.0073787807 0.009507212 -0.0276335
0002a0 b4 3c c2 3e 25 49 df 3d a4 2b 3a 3e 00 5b cf 3e
       0.37936938 0.10902623 0.1818071 0.40499115
0002b0 f0 f5 b4 3d 2e 42 89 bd d0 64 7c bc 5f 13 d1 3d
       0.08835971 -0.06702076 -0.015404895 0.10208773
0002c0 a5 b0 a8 bd 55 92 89 3d bf 2b 33 3e 63 6f 26 3e
       -0.08236817 0.06717364 0.17497157 0.16253428
0002d0 56 96 fb 3d 4d b7 9c 3d 96 10 8f 3c 46 27 0d be
       0.12284534 0.07652149 0.017463963 -0.13784513
0002e0 78 b5 97 3e b0 3d 33 be e6 d4 d2 bc 74 b2 a9 be
       0.29630637 -0.17504 -0.025736284 -0.3314396
0002f0 28 cb 10 3e a1 b2 df be aa 00 16 3d 69 1e bc 3e
       0.14139998 -0.4369097 0.036621727 0.3674195
000300 b1 f8 38 3e d3 4a c1 3d ae da 75 be 2d 8d 89 bb
       0.18063618 0.094381 -0.24009201 -0.0041977377
000310 eb c5 f3 bd 90 7e 44 3d 20 07 80 bd 21 76 32 3e
       -0.11902984 0.047972262 -0.06251359 0.17427875
000320 fb 58 80 3e cd a7 8b be 11 76 bd bd 06 31 73 3d
       0.25067887 -0.2727646 -0.09251035 0.059372924
000330 43 fa 90 3e a6 28 eb 3d da 45 6c 3d 32 82 51 3d
       0.28315935 0.114823624 0.057683803 0.051149555
000340 92 62 bb be e8 7a 26 3e ac 7a 50 3c 50 bc 8b bd
       -0.3659864 0.16257823 0.01272456 -0.06823027
000350 19 4d b1 3d 25 1c 7b 3d d2 e0 01 be e2 d0 41 bc
       0.08657283 0.061306138 -0.12683418 -0.011829587
000360 f7 4e 74 be 72 57 22 3e 43 88 72 3e 27 a4 7b be
       -0.23858248 0.1585367 0.23684792 -0.24574338
000370 ac b2 32 3e 94 b4 46 bc 5b ad 46 3f 48 dd 84 3d
       0.1745097 -0.012128014 0.7760827 0.064875185
000380 e4 47 e2 3d 7c 97 a9 3e c5 fa f4 bd b6 67 f9 bd
       0.11048868 0.33123386 -0.11961893 -0.121779844
000390 3b 9c 4b 3e 7d 79 83 be cd e5 88 be 3e d9 34 3e
       0.19883816 -0.25678626 -0.26737824 0.17660996
0003a0 0f 8f 07 3e 39 37 6b 3e 97 4d 78 be ae a7 c6 3d
       0.13238166 0.22970285 -0.24248348 0.09699951
0003b0 7b d7 ec be 6b cf 4d be cd db 09 3f 6f 53 c7 3d
       -0.4625815 -0.20098655 0.53851014 0.097327106
0003c0 25 fe f4 3d 81 67 56 bd 29 87 5c be 03 76 eb be
       0.11962537 -0.052344803 -0.21535935 -0.45988473
0003d0 cf e6 85 be d3 3c f1 3d 83 c0 13 3d 92 f9 a0 3e
       -0.26152655 0.117791794 0.036072265 0.31440407
0003e0 2e 39 5c bc 71 3b ba 3d 43 2c 2e 3d 08 c9 91 3b
       -0.013441367 0.09093369 0.04252268 0.0044490136
0003f0 03 50 64 3e a6 8d 45 bd b4 82 97 3e bd 75 e3 be
       0.22296147 -0.04823079 0.29591906 -0.44425765

bias f4 [19]
000000 4e d2 05 3e 7b 38 30 3e 59 d9 ba bd ff 76 f9 bd
       0.13068506 0.17209046 -0.09123487 -0.121809
000010 7e 0e c4 3d 98 cb be 3d db b5 66 bc 3c 3a 8a 3d
       0.09573077 0.09316176 -0.014081444 0.067493886
000020 dc ea 65 3e 84 65 cc bd 15 9a 73 be b5 59 e8 bd
       0.22452873 -0.099803 -0.23789246 -0.11345235
000030 4f a1 16 be 33 82 26 bc cd a6 95 bd 22 b8 90 be
       -0.14709972 -0.010162878 -0.07307205 -0.28265482
000040 1d a0 01 be 34 19 52 be 98 db 2e 3e
       -0.12658735 -0.20517427 0.17075956
