models/a19lds19b0.007g0.02d0.1h13.pt (torch, 125867 bytes, 26 tensors)

weight_ih_l0 f4 [52, 4]
0	0x3e983388	0.29726815
1	0x3edcda42	0.43135267
2	0xbdf8022c	-0.12109789
3	0x3db8011f	0.08984589
4	0x3df1e219	0.11810703
5	0xbc8d5ef9	-0.0172572
6	0x3d1de198	0.03854522
7	0x3c017e5c	0.007903662
8	0x3d303c4f	0.043026265
9	0x3f02753a	0.50960124
10	0x3eab3f1a	0.3344658
11	0xbeb0b37c	-0.34511936
12	0xbd91b67e	-0.07114886
13	0xbe7e6d23	-0.2484632
14	0x3e379436	0.17927632
15	0xbe3c2991	-0.18375231
16	0xbe500a61	-0.20316459
17	0x3e2414b4	0.16023523
18	0xbe9d107d	-0.30676642
19	0xbea685a9	-0.3252385
20	0xbe4c155e	-0.19930026
21	0x3edf53d1	0.43618634
22	0x3a0ef75a	0.00054537284
23	0x3ed1c04c	0.40967023
24	0xbe193f69	-0.14965595
25	0x3e5b455b	0.21413176
26	0xbe4d54d0	-0.20051885
27	0xbe877001	-0.2645264
28	0xbd656173	-0.056001138
29	0x3d58fef7	0.05297753
30	0xbd2578f7	-0.040398564
31	0xbe2cb6bd	-0.16866584
32	0xbcba2600	-0.022723198
33	0x3c8cc262	0.017182533
34	0xbd9ca8d7	-0.07649391
35	0x3e997a2f	0.2997603
36	0xbed27e2f	-0.41111895
37	0x3c937c09	0.01800348
38	0x3cc3ce00	0.02390194
39	0x3ce8c982	0.028416399
40	0x3e9f6f22	0.31139475
41	0x3db14c8e	0.0865718
42	0xbe4dd3ad	-0.20100279
43	0x3c5a61eb	0.0133290095
44	0x3dd28702	0.10279657
45	0x3e424837	0.1897286
46	0xbe78b1ae	-0.2428653
47	0xbd0b4277	-0.033998933
48	0x3da8f5d5	0.08250014
49	0x3d9593dd	0.07303593
50	0xbda1e7d1	-0.079055436
51	0xbc43af8d	-0.01194371
52	0x3cc8dcb5	0.024519304
53	0xbe855ae4	-0.26045907
54	0x3e62c508	0.22145474
55	0x3f043974	0.51650167
56	0xbeab51d4	-0.33460867
57	0x3ea8a19f	0.32935807
58	0xbdf7d54a	-0.121012285
59	0xbe866376	-0.26247758
60	0xbe4d2234	-0.20032579
61	0x3dcdeaf5	0.1005458
62	0x3f08dd82	0.53462994
63	0xbeb79cf6	-0.3586194
64	0xbdaff211	-0.085910924
65	0x3dce87a2	0.10084464
66	0x3f0981da	0.5371376
67	0xbdfb57b8	-0.122725904
68	0x3dfc7332	0.12326659
69	0xbe3972c9	-0.18110193
70	0x3d931246	0.0718122
71	0xbe25c70e	-0.16189215
72	0xbe3f6902	-0.18692401
73	0x3dfb607e	0.12274264
74	0xbd3e0765	-0.04639377
75	0x3ea6938d	0.32534447
76	0x3da7d89d	0.081956126
77	0x3c8f725f	0.017510591
78	0xbd78effe	-0.06077575
79	0xbe0d68d9	-0.13809527
80	0xbc40bcbc	-0.011763748
81	0x3d2454b3	0.040119838
82	0x3e92e810	0.28692675
83	0x3d7e8250	0.062135994
84	0x3c64304f	0.013927533
85	0x3e671357	0.22565971
86	0xbde8db48	-0.113699496
87	0xbe31276c	-0.17300195
88	0xbf1caa4b	-0.61197346
89	0x3eae5276	0.34047288
90	0xbeb1a78e	-0.34698147
91	0xbefb1ef6	-0.4904706
92	0x3ce39c93	0.027784621
93	0xbea8aaf8	-0.3294294
94	0x3ee77da6	0.4521305
95	0x3e57868b	0.21047418
96	0xbe86be89	-0.26317242
97	0x3ee745fe	0.45170587
98	0xbc2af8ba	-0.010435278
99	0xbabdb151	-0.00144724
100	0xbd616bd8	-0.05503449
101	0xbe3778ec	-0.17917222
102	0x3dab2db3	0.08358326
103	0xbd327054	-0.043564156
104	0xbe71262a	-0.23549715
105	0xbcdd57c7	-0.027019395
106	0x3e2a11ef	0.16608404
107	0xbdc37ce1	-0.09545303
108	0xbe9922a6	-0.29909247
109	0x3eb9934f	0.362452
110	0xbe673b14	-0.2258113
111	0xbade4786	-0.0016958572
112	0x3e8a2cbe	0.2698726
113	0xbe92bc5c	-0.28659332
114	0xbe59b8a9	-0.21261849
115	0xbb7f24df	-0.003893189
116	0xbd89a1dc	-0.06720325
117	0xbe740272	-0.23829058
118	0x3dc2de9a	0.09515114
119	0x3e12ceec	0.14336747
120	0x3e200909	0.15628447
121	0x3ed29c37	0.41134807
122	0xbe43bbde	-0.19114634
123	0xbd850893	-0.06495776
124	0x3d8b731c	0.06809065
125	0x3e7d6098	0.24743879
126	0x3e293dc0	0.16527462
127	0xbdbef56a	-0.09324153
128	0x3f2b0be6	0.6681503
129	0xbe2d93e4	-0.16950947
130	0x3e47eaf9	0.19523229
131	0xbe3f7b98	-0.18699491
132	0xbd156e54	-0.03648217
133	0x3cb4ef7b	0.02208685
134	0x3dd16145	0.10223631
135	0x3d983352	0.074316636
136	0xbdb7c3c7	-0.089728884
137	0xbea900cd	-0.33008423
138	0x3e8120a8	0.25220227
139	0x3c8ff180	0.01757121
140	0xbe72c909	-0.23709501
141	0x3df9bf7e	0.12194727
142	0x3c7ed069	0.015552619
143	0xbcd381ec	-0.025818788
144	0xbe395f4d	-0.1810276
145	0x3d793664	0.060842887
146	0xbc1c5e78	-0.0095440075
147	0xbe100cd3	-0.14067392
148	0xbdbccbc0	-0.0921855
149	0xbd556430	-0.0520975
150	0xbe0e200a	-0.1387941
151	0x3e2fa784	0.17153746
152	0x3e67a90c	0.2262308
153	0xbe1e779c	-0.15475315
154	0xbdbeb5ea	-0.09312041
155	0x3cf1c263	0.029511636
156	0x3eb9cc92	0.36288887
157	0x3eb96427	0.36209223
158	0xbd04d363	-0.032428157
159	0xbde2ebdc	-0.11080143
160	0xbde605f7	-0.112316065
161	0x3e38b143	0.1803637
162	0xbe271364	-0.1631599
163	0x3ed125a4	0.4084903
164	0xbd8b87d8	-0.068130195
165	0x3cb018c6	0.021496188
166	0xbc70f71d	-0.014707354
167	0x3e958027	0.29199335
168	0xbe47ec1c	-0.19523662
169	0x3d961f54	0.07330194
170	0xbe08389f	-0.13302849
171	0xbdf17ff8	-0.11791986
172	0xbc0c2e07	-0.008555896
173	0x3ea9da06	0.3317415
174	0xbd25d911	-0.040490214
175	0xbda81d4c	-0.08208713
176	0xbd8ca318	-0.06867045
177	0x3e66894a	0.22513309
178	0xbe94602b	-0.2897962
179	0xbb922f73	-0.004461223
180	0xbc7d5434	-0.01546197
181	0x3d54483a	0.051826693
182	0x3db5f040	0.08883715
183	0xbe6e0414	-0.23243743
184	0xbd02d4df	-0.03194129
185	0x3d8311c6	0.063998744
186	0x3e099e1d	0.13439222
187	0x3e3572b1	0.17719533
188	0x3da0f2bd	0.07858799
189	0x3dde8237	0.1086468
190	0xbe8e083b	-0.27740654
191	0xbdf7aca0	-0.120934725
192	0x3c9a7f88	0.01885964
193	0x3da8d0fb	0.08242985
194	0x3dc9de8f	0.09856903
195	0xbe96e678	-0.2947271
196	0xbe94a20f	-0.2902989
197	0x3e2d4e25	0.16924341
198	0x3e1c0eff	0.15240096
199	0x3e058b58	0.13041437
200	0x3e88041b	0.26565632
201	0x3e326204	0.17420202
202	0x3e58a9bc	0.21158499
203	0xbe10d278	-0.14142787
204	0xbdea8b86	-0.11452393
205	0x3d01d144	0.031693712
206	0xbc4b9abc	-0.012427028
207	0xbcdd257c	-0.026995413

weight_hh_l0 f4 [52, 13]
0	0xbe36f150	-0.17865491
1	0xbe5695de	-0.20955607
2	0xb99044a4	-0.00027516962
3	0xbdcae342	-0.09906627
4	0xbe946a59	-0.28987387
5	0x3db40c90	0.087914586
6	0xbe19f97a	-0.15036574
7	0x3e06381a	0.13107339
8	0x3ed9e1c7	0.42555067
9	0x3c561b0d	0.013067973
10	0xbe4c31d6	-0.19940886
11	0xbe30e25d	-0.1727385
12	0x3df22ca2	0.11824919
13	0x3e32ddb5	0.17467387
14	0xbdb4b3df	-0.0882337
15	0x3e095c07	0.13414012
16	0x3e453714	0.19259292
17	0x3def5fe5	0.11688212
18	0x3e22beab	0.15893047
19	0xbeabc324	-0.33547318
20	0x3e20e594	0.15712577
21	0xbe220f3a	-0.15826121
22	0xbe09bba5	-0.13450487
23	0xbe0299d9	-0.12754
24	0xbe6ec14b	-0.23315923
25	0x3e8da7d4	0.27667105
26	0xbe86305d	-0.26208773
27	0x3d930b51	0.07179893
28	0x3e3fa4bb	0.18715183
29	0x3cf8ebe8	0.030385926
30	0x3dc1b772	0.094588175
31	0xbd80f070	-0.0629586
32	0xbc4bd21d	-0.012440232
33	0x3e22d9e1	0.15903427
34	0xbeb06672	-0.3445316
35	0xbde7c9ba	-0.11317773
36	0x3d12974f	0.03578883
37	0xbd23bf0d	-0.039977122
38	0x3dc8ecda	0.09810801
39	0xbed1bce4	-0.40964425
40	0x3e1e75f6	0.15474686
41	0xbe3a6437	-0.18202291
42	0xbea95c27	-0.3307812
43	0x3ce7a5a2	0.028277222
44	0xbbde0d3f	-0.0067764814
45	0xbe11e59f	-0.1424775
46	0xbd9651ea	-0.073398426
47	0xbdd290e3	-0.10281541
48	0xbe61bdd6	-0.22045073
49	0xbeaabbd3	-0.33346424
50	0xbe264bff	-0.16239928
51	0xbeda2a20	-0.42610264
52	0x3c931ac8	0.017957106
53	0x3e10fb34	0.14158326
54	0xbed8d646	-0.42350978
55	0x3ea433bd	0.32070723
56	0x3e1253ec	0.14289826
57	0xbcc79c50	-0.024366528
58	0x3d78910b	0.0606852
59	0xbd0e8f9f	-0.034804936
60	0x3c402571	0.011727677
61	0xbec6f96c	-0.3886217
62	0xbc9bc76b	-0.019015988
63	0xbd67ea56	-0.056619965
64	0xbdf9aec7	-0.12191539
65	0xbcfd5afc	-0.030927174
66	0x3e3d9ce3	0.18516879
67	0xbcc63742	-0.02419627
68	0xbe7397e1	-0.23788406
69	0x3e3ffe85	0.18749435
70	0xbe6b28c5	-0.22964771
71	0xbe880aa1	-0.2657061
72	0x3dc65fec	0.096862644
73	0x3e1aac9a	0.15104905
74	0x3e166f32	0.14690855
75	0x3e9aac6d	0.30209675
76	0xbe2aae74	-0.16668111
77	0x3d7ff26f	0.062487062
78	0x3b071e97	0.0020617598
79	0x3f02ab78	0.5104289
80	0x3dc62021	0.09674097
81	0xbd64e321	-0.05588067
82	0x3dedfceb	0.11620506
83	0xbe2966f1	-0.16543175
84	0x3da33f3c	0.079710454
85	0xbccac258	-0.024750873
86	0x3e05e839	0.13076867
87	0xbd1958c1	-0.037438158
88	0x3e5746a3	0.2102304
89	0xbd5e55c1	-0.054281
90	0x3d556288	0.05209592
91	0xbe0dc830	-0.13845897
92	0x3d18e08b	0.037323516
93	0xba1fafe4	-0.00060915784
94	0xbdee1ea3	-0.11626937
95	0xbe3a50b8	-0.18194854
96	0x3d1e16a5	0.038595814
97	0xbdb34147	-0.08752685
98	0xbd9c8765	-0.07643012
99	0xbd830c11	-0.06398786
100	0xbe8c46db	-0.27397808
101	0x3d96fafd	0.07372091
102	0xbe1ef14b	-0.15521733
103	0x3ce5896e	0.028019633
104	0x3e93812f	0.28809497
105	0x3cd0500b	0.025428792
106	0xbe8e92ce	-0.27846378
107	0x3e47bf87	0.19506656
108	0xbd89c988	-0.06727892
109	0xbdd6055e	-0.104502425
110	0xbc6a2a20	-0.01429227
111	0xbe2b5196	-0.16730341
112	0xbe74e846	-0.2391673
113	0xbe5f4fc7	-0.21807776
114	0x3d09f17b	0.03367756
115	0x3e3bcb79	0.18339337
116	0xbe26566e	-0.16243908
117	0x3ceb1912	0.028698478
118	0x3db8011d	0.08984587
119	0x3d7868de	0.060646884
120	0xbdb5febc	-0.08886477
121	0x3b6adb4d	0.003583628
122	0xbe1187f4	-0.14212018
123	0xbe81ab6c	-0.25326097
124	0x3dc0dd37	0.094171934
125	0x3f0392ed	0.51396066
126	0x3e7d4c49	0.24736132
127	0xbd62eef5	-0.05540367
128	0xbe167419	-0.14692725
129	0x3e82eb7f	0.25570294
130	0x3e96730d	0.29384652
131	0x3cbbeb36	0.022939306
132	0xbd7060a2	-0.058685906
133	0xbdbcaedb	-0.092130385
134	0xbc283409	-0.010266312
135	0xbe10b0dd	-0.14129968
136	0xbd33992f	-0.04384726
137	0x3eb16095	0.34644
138	0xbdbbc7dc	-0.091689795
139	0xbee573a5	-0.44814792
140	0x3df1825d	0.11792443
141	0xbcf3f8cd	-0.029781723
142	0xbc1d0ab3	-0.00958507
143	0xbe25d75c	-0.16195434
144	0x3e197cf7	0.14989077
145	0xbdc1369a	-0.094342425
146	0x3cc283d8	0.023744509
147	0x3d4abcca	0.04949645
148	0x3c2286e2	0.009919854
149	0xbef9bcfe	-0.48777002
150	0x3ebec872	0.37262303
151	0x3d9c664e	0.076367006
152	0xbd0563c7	-0.03256586
153	0x3e9d92fb	0.307762
154	0xbe0b604d	-0.13610955
155	0xbeaafbec	-0.33395326
156	0x3e0fbe37	0.14037405
157	0x3e4e8d8e	0.20171186
158	0xbd90becf	-0.07067644
159	0x3db15380	0.086585045
160	0xbe8eacc9	-0.278662
161	0xbdb21890	-0.08696091
162	0xbdcb909b	-0.09939691
163	0x3ea61229	0.3243573
164	0xbe679f66	-0.226194
165	0x3b4e47fc	0.0031476011
166	0x3cb9863a	0.022647012
167	0xbd1f6af1	-0.038920347
168	0xbdd91952	-0.106005326
169	0x3e7f1d91	0.24913622
170	0x3dbe90c3	0.09304955
171	0xbe8ac25f	-0.27101418
172	0xbdcf2fba	-0.10116525
173	0xbe0085ca	-0.12551036
174	0xbe439da6	-0.19103107
175	0x3c5e5263	0.013569447
176	0xbe3ae39e	-0.18250892
177	0xbb9362de	-0.00449787
178	0x3bb6b510	0.0055757836
179	0x3e83277c	0.25616062
180	0xbe30a04f	-0.17248653
181	0x3dccfce6	0.10009174
182	0xbe130f2d	-0.14361258
183	0x3ddebb1a	0.108755305
184	0xbe1f462a	-0.15554109
185	0xbe6860ff	-0.22693251
186	0x3e6b425e	0.22974536
187	0x3c8f19c1	0.017468335
188	0xbd4c19b4	-0.0498292
189	0xbe78b03e	-0.24285981
190	0xbcbf8ff4	-0.023384072
191	0xbdb96f0f	-0.09054386
192	0x3c8ea82f	0.01741418
193	0xbe089ca8	-0.1334101
194	0x3e277b49	0.16355623
195	0xbe3f62d5	-0.18690045
196	0xbdb8f13d	-0.090303876
197	0xbc4a032d	-0.012329859
198	0x3e44c5f7	0.19216143
199	0x3c77728f	0.0151029965
200	0x3de387a2	0.11109854
201	0x3ce1d79e	0.027568635
202	0x3d1feafd	0.03904246
203	0x3e32df7f	0.1746807
204	0xbea9de50	-0.33177423
205	0xbcb1ecfb	-0.021719446
206	0x3d3613ac	0.044452354
207	0xbafc7863	-0.0019261952
208	0xbe24a03e	-0.16076753
209	0x3dba916d	0.09109769
210	0xbcb61014	-0.022224464
211	0x3e42cb4c	0.19022864
212	0x3da7d674	0.081952006
213	0x3e36afe9	0.17840542
214	0x3e9373ab	0.28799185
215	0x3eb064f3	0.34452018
216	0xbcbfc2d6	-0.023408335
217	0x3e628cb2	0.22123984
218	0xbe878adb	-0.26473126
219	0xbe1b701d	-0.15179487
220	0xbe1a76f1	-0.15084435
221	0xbe2a0587	-0.16603671
222	0x3e7207c6	0.23635778
223	0x3d461315	0.04835804
224	0x3e008270	0.12549758
225	0xbe7332f5	-0.23749907
226	0xbdcc083c	-0.09962508
227	0x3e06df36	0.13171086
228	0xbc84fb41	-0.016233088
229	0x3e4b9476	0.19880852
230	0xbd802358	-0.06256741
231	0x3e90148f	0.28140685
232	0xbd7f6b00	-0.062357903
233	0x3dfb830e	0.12280856
234	0x3d3a100e	0.045425467
235	0x3e96943f	0.29409978
236	0x3d8c63bd	0.06854961
237	0x3d92b5ba	0.07163568
238	0x3d6106c4	0.054938093
239	0x3cc60489	0.024172084
240	0xbd1b625e	-0.037935607
241	0xbecf41ee	-0.40479988
242	0x3e37b01d	0.17938276
243	0x3e1876e3	0.14889102
244	0xbda16a10	-0.07881558
245	0xbda3e933	-0.080034636
246	0xbde8e01f	-0.11370873
247	0xbe486e50	-0.19573331
248	0x3dfc30a3	0.12313964
249	0xbd020255	-0.031740505
250	0xbe4fbe9c	-0.20287555
251	0x3db19d7e	0.086726174
252	0x3d3f6cc6	0.046734594
253	0x3e1a80b0	0.15088153
254	0x3e0be057	0.13659798
255	0xbe887f35	-0.2665955

bias_ih_l0 f4 [52]
0	0xbe5489f8	-0.20755756
1	0x3df74478	0.12073606
2	0x3e04aaf5	0.1295584
3	0xbd578a77	-0.052622285
4	0x3df3c9fe	0.11903761
5	0x3d161cdf	0.036648627
6	0xbe267fc0	-0.1625967
7	0xbe4482ba	-0.19190493
8	0x3d3f767f	0.046743866
9	0xbe0dad25	-0.1383558
10	0x3dfc0b03	0.12306788
11	0xbde28576	-0.11060612
12	0xbdec422f	-0.11536061
13	0x3e145aca	0.14487758
14	0xbce3c634	-0.027804472
15	0x3e83ddf7	0.25755283
16	0xbe5299a0	-0.20566416
17	0x3e69baa1	0.228251
18	0x3e5c9fed	0.21545382
19	0xbe4a2b3b	-0.19743054
20	0x3e8adf09	0.27123287
21	0x3d5bc592	0.053655215
22	0xbe3dadb9	-0.18523301
23	0x3e3f9b48	0.18711579
24	0xbe0948fc	-0.13406748
25	0xbd9615b8	-0.07328361
26	0xbd4018af	-0.04689854
27	0xbe1296bc	-0.14315313
28	0xbe4298c2	-0.19003585
29	0xbc88fb5b	-0.016721418
30	0xbd2d2fbc	-0.04228185
31	0xbc3e4517	-0.011613152
32	0xbe7fac7e	-0.24968144
33	0x3e83b1c1	0.25721553
34	0xbe3fec2d	-0.18742438
35	0xbe8660ef	-0.2624583
36	0xbdce2a94	-0.10066715
37	0xbe29b2f8	-0.16572177
38	0xbe79ed88	-0.24407017
39	0xbe0c0789	-0.1367475
40	0x3e1eaedb	0.1549639
41	0x3ea238b8	0.31683898
42	0x3e1cb4de	0.1530337
43	0x3ea1ad8e	0.31577724
44	0x3d88f82b	0.06687959
45	0x3e4da1a0	0.20081186
46	0xbdb3be40	-0.08776522
47	0x3e80ec67	0.2518036
48	0xbd3c9f41	-0.046050314
49	0xbe18466c	-0.14870614
50	0x3e46d35c	0.19416565
51	0xbd9fb8b3	-0.077989005

bias_hh_l0 f4 [52]
0	0x3e4795e6	0.19490775
1	0x3e8afec9	0.2714751
2	0x3e2e6f22	0.17034581
3	0x3e94a3e4	0.2903129
4	0x3e83afa9	0.25719956
5	0xbe2ed2f3	-0.17072658
6	0x3dcd9147	0.10037475
7	0xbdc972b6	-0.098363325
8	0xbe53323d	-0.20624633
9	0xbe837b8e	-0.25680202
10	0x3e5f88e0	0.21829557
11	0x3d5223a4	0.05130352
12	0xbdcb592d	-0.09929118
13	0x3e8d0fec	0.2755121
14	0x3d5d1a1e	0.053979985
15	0x3e99b967	0.30024263
16	0xbda6c1a5	-0.081424035
17	0x3e5eda93	0.21763067
18	0x3dd8b4c8	0.10581356
19	0xbd740dcf	-0.05958348
20	0x3d900d6d	0.07033811
21	0xbd73b5f8	-0.05949971
22	0xbd53d384	-0.05171539
23	0x3db53c33	0.08849373
24	0x3c17b745	0.009260003
25	0x3e858dac	0.2608465
26	0x3d3147f1	0.0432815
27	0x3cf8e84e	0.030384209
28	0x3e42762e	0.18990394
29	0x3e1adb36	0.15122685
30	0x3e224b1d	0.15848966
31	0x3de7367c	0.11289689
32	0xbe512e5a	-0.20427838
33	0x3e06aa48	0.13150895
34	0x3b14bf81	0.0022697153
35	0xbe02f723	-0.12789588
36	0x3d13f20d	0.03611951
37	0x3e4e8d59	0.20171107
38	0x3e04f2d0	0.1298325
39	0x3df67d6c	0.12035641
40	0x3e96b9ab	0.29438528
41	0xbd959dee	-0.07305513
42	0xbe47b007	-0.19500743
43	0x3e9a0a20	0.3008585
44	0xbc23b83f	-0.009992658
45	0x3e64e38a	0.22352424
46	0x3e9cc2fc	0.3061751
47	0xbcd1f2c7	-0.02562846
48	0x3ba37c4a	0.0049891816
49	0x3e682319	0.22669639
50	0x3e73a4cf	0.23793338
51	0xbdee4fb0	-0.11636293

weight_ih_l0_reverse f4 [52, 4]
0	0x3e96d9f7	0.2946317
1	0x3ee697e8	0.4503777
2	0x3d588c2f	0.052868064
3	0xbe57121d	-0.21003003
4	0xbd6e6fdb	-0.058212142
5	0x3c8266b3	0.015918111
6	0xbeb8b47e	-0.36075205
7	0xbdb06f4a	-0.08614977
8	0xbe1e0236	-0.15430531
9	0x3d76a01c	0.060211286
10	0xbec02378	-0.3752706
11	0x3a757429	0.00093633175
12	0x3dd29611	0.10282529
13	0x3e1d92ea	0.15388075
14	0x3e99a1c4	0.3000623
15	0x3e3db2c8	0.18525231
16	0x3e2873a9	0.16450371
17	0x3e76bc02	0.24095157
18	0x3e765775	0.240568
19	0xbc80d8b9	-0.015728341
20	0xbeda9906	-0.42694873
21	0x3e8900b6	0.26758355
22	0x3dbbb29d	0.09164927
23	0x3cb60b60	0.02222222
24	0x3e5f13bb	0.2178487
25	0xbe8e368c	-0.2777599
26	0x3deb286a	0.11482318
27	0x3e3f1bca	0.18662944
28	0x3b6a2414	0.003572707
29	0xbdb19da6	-0.08672647
30	0xbdae8477	-0.085213594
31	0xbdd4635d	-0.103705145
32	0xbe28c621	-0.1648183
33	0x3e2c282e	0.16812202
34	0x3d9e3b18	0.07726115
35	0xbcfb457a	-0.030672777
36	0x3e1800c3	0.1484404
37	0x3da32020	0.07965112
38	0x3e84b1f7	0.25917026
39	0x3ebde13e	0.3708591
40	0x3ded2049	0.115784235
41	0x3e655606	0.22396097
42	0x3e2d89f8	0.16947162
43	0x3e23f2f2	0.16010645
44	0xbe1350ac	-0.14386243
45	0x3e760b5d	0.24027772
46	0x3d4871ff	0.04893684
47	0xbe33305c	-0.17498916
48	0x3eaddca6	0.33957404
49	0x3e74b079	0.23895444
50	0x3d45eef6	0.048323594
51	0x3dba5494	0.09098163
52	0xbdb6d2cf	-0.08926927
53	0xbed1d008	-0.40979028
54	0xbe22cf1d	-0.1589932
55	0xbdaaecf9	-0.0834598
56	0xbc91a5fe	-0.017779347
57	0xbbbf41c2	-0.0058366964
58	0xbea3111f	-0.31849
59	0xbdaf40c7	-0.08557277
60	0x3e4b0275	0.19825156
61	0x3dcbc84f	0.09950315
62	0xbeab22e6	-0.33425063
63	0x3c63ef16	0.013911983
64	0x3cea0320	0.028565943
65	0x3eaabfac	0.3334936
66	0x3e49d350	0.19709516
67	0x3dc351b8	0.09537071
68	0xbe2d6dea	-0.1693646
69	0x3ee36594	0.44413435
70	0xbe0f06cc	-0.13967437
71	0xbd181121	-0.03712571
72	0xba81bf2f	-0.0009898896
73	0x3deff96f	0.117174976
74	0x3df4512d	0.119295456
75	0x3ebdc9d1	0.37068036
76	0xbe915e4e	-0.2839226
77	0xbe89e90d	-0.26935616
78	0x3e3880b7	0.18017851
79	0x3dac3e97	0.084103756
80	0x3e19accf	0.15007327
81	0x3df89dcb	0.121394716
82	0x3e211ff6	0.15734848
83	0xbc87e16b	-0.01658698
84	0xbe558bd6	-0.20854124
85	0xbebf6aa9	-0.37386063
86	0xbe0a5486	-0.13508806
87	0xbdfbc011	-0.12292493
88	0xbdab32b1	-0.08359278
89	0xbe62110c	-0.22076815
90	0x3d8e4fc8	0.06948811
91	0xbbb46642	-0.005505354
92	0xbd3524da	-0.044224598
93	0x3cf992a0	0.030465424
94	0x3e135760	0.143888
95	0x3e95723e	0.29188722
96	0xbeb2aa08	-0.3489535
97	0x3d5bb365	0.05363788
98	0xbe4fd60b	-0.20296495
99	0x3dedb780	0.116072655
100	0x3ce6478f	0.028110294
101	0x3e661dff	0.2247238
102	0x3da139d8	0.07872361
103	0x3dfb7a3f	0.12279176
104	0xbe47151a	-0.19441643
105	0xbe362be2	-0.17790177
106	0x3e982454	0.29715216
107	0x3e67f120	0.22650576
108	0xbe8e3511	-0.2777486
109	0x3df7e413	0.121040486
110	0xbc67b687	-0.014142639
111	0xbe4bff20	-0.19921541
112	0x3efb1155	0.4903666
113	0xbcd86477	-0.026415093
114	0xbdc13670	-0.09434211
115	0x3cffbf9c	0.031219296
116	0x3e3c5109	0.18390287
117	0x3d9376f6	0.072004244
118	0xbc722c83	-0.01478112
119	0xbe8de17c	-0.27711093
120	0xbdb4e67c	-0.08833024
121	0x3dbe48c9	0.092912264
122	0x3cb25cf5	0.021772841
123	0xbd37027d	-0.044680107
124	0x3e45d2ca	0.19318691
125	0x3d6b7595	0.05748518
126	0x3e9429ea	0.28938228
127	0xbe91ced4	-0.2847811
128	0xbd50b1ca	-0.050950803
129	0x3e3d9c89	0.18516745
130	0xbe90f92e	-0.2831511
131	0xbe9326b0	-0.28740454
132	0xbe81d6c6	-0.25359172
133	0x3d7a1e37	0.06106397
134	0x3e97c9dd	0.29646197
135	0xbd32822a	-0.043581165
136	0xbe2f14f3	-0.17097835
137	0xbcb622b1	-0.022233339
138	0x3e937b12	0.28804833
139	0xbd5c5a1a	-0.053796865
140	0xbf03733e	-0.5134772
141	0x3bb9c2eb	0.005668988
142	0xbe42c3f6	-0.19020066
143	0x3e084c44	0.13310343
144	0xbcb0c298	-0.021577165
145	0xbe55ef63	-0.208921
146	0x3e44d3f5	0.1922148
147	0x3e1aa3fb	0.15101616
148	0x3d9d6009	0.07684333
149	0xbce4b067	-0.027916146
150	0x3e2351d0	0.15949178
151	0xbe10b21b	-0.14130442
152	0x3d1bc35a	0.0380281
153	0x3d1f816b	0.038941782
154	0x3e2554bb	0.16145603
155	0xbc23fbdb	-0.0100087775
156	0x3cbaf63b	0.02282249
157	0x3c4cb157	0.012493453
158	0x3ca688f3	0.020328974
159	0xbeaf4fc0	-0.34240532
160	0x3dc8875e	0.09791444
161	0x3c8ef88b	0.017452499
162	0x3e960ac2	0.29305083
163	0xbe32ecfa	-0.17473212
164	0xbeb2d1f4	-0.34925807
165	0x3d308867	0.043098833
166	0xbdeb8b0b	-0.1150113
167	0xbe3e4f05	-0.18584831
168	0xbec9f227	-0.3944256
169	0x3eae675b	0.3406323
170	0x3cce662b	0.025195202
171	0x3e166d6e	0.14690182
172	0xbe1af8ea	-0.15134016
173	0x3e0b70d2	0.13617256
174	0xbef11be0	-0.4709158
175	0xbe0ca6ac	-0.13735455
176	0x3e65a35b	0.22425596
177	0xbdf635f8	-0.120220125
178	0xbf007314	-0.50175595
179	0x3ddade3d	0.1068692
180	0x3e17c2f6	0.14820465
181	0x3bb2327c	0.005438147
182	0xbeb11145	-0.34583488
183	0x3e423b58	0.1896795
184	0x3e13941a	0.14411965
185	0xbd9c9d25	-0.076471604
186	0xbd10cd07	-0.03535178
187	0x3e3e0fb2	0.18560675
188	0x3e63d2b3	0.22248344
189	0x3c54af49	0.012981244
190	0xbea00c73	-0.31259498
191	0x3d49bfd7	0.04925522
192	0xbb868905	-0.0041056895
193	0x3e8a9f71	0.2707477
194	0x3e63c79f	0.22244118
195	0xbe11cad5	-0.1423753
196	0xbea8edd5	-0.3299395
197	0xbd637ccd	-0.05553894
198	0x3e00535f	0.12531804
199	0xbddf4347	-0.10901504
200	0xbe60bfd9	-0.21948184
201	0xbe9b8965	-0.3037826
202	0x3e0f776b	0.14010398
203	0xbe288f49	-0.16460909
204	0x3dccd912	0.100023404
205	0xbd90a89d	-0.070634104
206	0x3e10c256	0.14136633
207	0xbe043cbc	-0.12913793

weight_hh_l0_reverse f4 [52, 13]
0	0xbe506e3a	-0.20354548
1	0xbe84700b	-0.25866732
2	0x3d907a5d	0.07054589
3	0x3d571b5a	0.05251632
4	0x3d9998cf	0.07499849
5	0x3e2d4c9a	0.16923752
6	0x3d994f7d	0.07485864
7	0x3ce959b4	0.028485157
8	0xbe97cc1c	-0.2964791
9	0x3e9ed8a6	0.31024665
10	0xbd13d34b	-0.036090177
11	0x3d9d5e9a	0.076840594
12	0xbd2fc3fd	-0.04291152
13	0xbe3fecdf	-0.18742703
14	0xbd3f0962	-0.046639808
15	0xbe394a14	-0.18094665
16	0xbcd8d881	-0.026470425
17	0xbdcf8a74	-0.1013383
18	0xbce6d95e	-0.02817982
19	0xbe6410d8	-0.2227205
20	0x3ccb9644	0.024851926
21	0x3d5b208b	0.053497832
22	0x3e34f9ef	0.17673467
23	0xbd6214ec	-0.055195734
24	0xbd5c8b9c	-0.05384408
25	0x3dad7713	0.08469977
26	0xbb322072	-0.0027179983
27	0xbe3947bf	-0.18093775
28	0xbdef3809	-0.1168061
29	0x3df4e833	0.11958351
30	0x3d5b23d2	0.053500958
31	0x3cd87aaa	0.026425678
32	0xbe442576	-0.19154915
33	0x3e03b491	0.1286185
34	0x3db74baa	0.08949979
35	0xbe46651d	-0.19374509
36	0xbdddec14	-0.10836044
37	0x3d9d080c	0.076675504
38	0xbd77aa91	-0.0604654
39	0x3ccca1c4	0.02497948
40	0x3df1cadc	0.118062705
41	0xbeca1a15	-0.39473024
42	0x3f0dafe3	0.55346507
43	0x3e65d13d	0.224431
44	0x3e96cc14	0.29452574
45	0xbec23633	-0.37931976
46	0xbe4b86f4	-0.198757
47	0x3e166089	0.14685263
48	0xbd456039	-0.04818747
49	0x3e61f54d	0.22066231
50	0xbd035440	-0.03206277
51	0x3e5057f7	0.20346056
52	0x3e2e186a	0.170015
53	0xbd241cd2	-0.040066548
54	0x3da30820	0.07960534
55	0xbe6e7383	-0.23286252
56	0xbc348fd6	-0.011020621
57	0x3caddd54	0.021223702
58	0xbecca088	-0.39966226
59	0xbd6b8f03	-0.057509433
60	0x3e91a94c	0.28449476
61	0xbc958d4c	-0.018255852
62	0xbd52eaa3	-0.0514933
63	0xbcf4a4b2	-0.02986369
64	0xbddd0506	-0.10791974
65	0xbdd30bb7	-0.10304969
66	0x3e9151f9	0.28382853
67	0xbca655af	-0.020304529
68	0xbe5f3493	-0.21797399
69	0x3e55f3e0	0.20893812
70	0x3da4b2cc	0.08041915
71	0x3ebb4670	0.36577177
72	0x3e42305c	0.1896376
73	0x3de3c2a3	0.111211084
74	0xbe0b4826	-0.13601741
75	0xbb8dc43e	-0.0043263724
76	0x3c50e0be	0.012748895
77	0xbe7e6fa5	-0.24847277
78	0x3ca9c3ed	0.020723308
79	0xbe0fd7c2	-0.14047149
80	0xbe715a0c	-0.23569506
81	0xbd86b9d8	-0.06578416
82	0x3ed80c7c	0.42197025
83	0x3e2b7d58	0.16747034
84	0x3eb04983	0.34431085
85	0xbebbc400	-0.36672974
86	0x3f19258c	0.59822917
87	0xbd815926	-0.06315832
88	0xbd0d5a82	-0.034510143
89	0x3ddd696e	0.10811125
90	0xbd366666	-0.04453125
91	0x3da88b9c	0.082297534
92	0x3d069cce	0.032864384
93	0xbe46e025	-0.19421442
94	0x3cb25a24	0.021771498
95	0xbe0e4ff3	-0.13897686
96	0x3c951a76	0.018201094
97	0xbe81e0d9	-0.25366858
98	0x3e8679a4	0.2626468
99	0x3f0cd2eb	0.55009335
100	0x3e95289d	0.29132548
101	0xbe359ee9	-0.177364
102	0x3d990d76	0.074732706
103	0xbd09de12	-0.03365905
104	0xbd63dd10	-0.055630744
105	0x3e8a51dd	0.27015582
106	0xbeb9349d	-0.36172953
107	0x3c036794	0.0080203
108	0x3e030f46	0.12798795
109	0x3c57d388	0.013172992
110	0x3d55bf24	0.05218424
111	0xbd08873b	-0.03333209
112	0x3decdb0e	0.11565219
113	0xbe1e7694	-0.15474921
114	0x3e5409f6	0.20706925
115	0x3d202ae0	0.03910339
116	0xbe9aef01	-0.3026047
117	0x3de9374b	0.113874994
118	0xbe648c53	-0.22319154
119	0x3dd8a352	0.10578026
120	0x3d5e7d49	0.0543187
121	0x3db9f3f9	0.09079737
122	0x3df09dcd	0.11748848
123	0xbde3f30b	-0.11130341
124	0x3d037dfb	0.032102566
125	0x3d4d09c3	0.050058138
126	0x3dd41149	0.103548594
127	0x3e057c07	0.13035594
128	0xbd28a4ee	-0.041172914
129	0x3e78b4d4	0.2428773
130	0x3d9617df	0.07328772
131	0xbcd4cdfc	-0.025977127
132	0xbe3b16c0	-0.18270397
133	0xbc218ae1	-0.0098597715
134	0x3e49c01e	0.19702193
135	0x3f007dc9	0.5019193
136	0xbd5821d3	-0.052766632
137	0xbdb95a49	-0.09050424
138	0x3ec21a3f	0.3791065
139	0xbe6ba99b	-0.23013918
140	0xbd4431dc	-0.047899112
141	0x3d951669	0.07279665
142	0xbcaffaf2	-0.021481965
143	0x3c55c3fd	0.0130472155
144	0xbce46454	-0.027879871
145	0x3d708222	0.058717854
146	0x3e30a848	0.17251694
147	0xbe8df1ce	-0.27723545
148	0xbdfc0045	-0.12304739
149	0xbe88054b	-0.26566538
150	0xbe590750	-0.21194196
151	0x3e1628db	0.14664023
152	0xbc013a04	-0.007887367
153	0xbe538de8	-0.20659602
154	0xbe0e19d2	-0.13877037
155	0x3d666923	0.05625261
156	0xbe216159	-0.15759791
157	0x3eb19a9b	0.34688267
158	0xbe13ca99	-0.14432754
159	0xbd6bfec3	-0.057616007
160	0xbe0ced91	-0.137625
161	0xbea8f5b9	-0.32999972
162	0x3ed16ea6	0.4090473
163	0xbe84e8e1	-0.25958923
164	0xbda6a10a	-0.081361845
165	0x3cf0ed67	0.029410077
166	0xbdd30fb1	-0.10305727
167	0x3d05a713	0.032630038
168	0x3d13ac19	0.036052797
169	0x3e17c5c9	0.14821543
170	0x3e2483cc	0.16065902
171	0xbe22098f	-0.15823959
172	0xbe172491	-0.14760043
173	0x3e5e4097	0.21704327
174	0x3d278f0a	0.040907897
175	0xbebc905e	-0.36828893
176	0xbe04c214	-0.1296466
177	0xbe451e19	-0.19249763
178	0xbec2a861	-0.38019088
179	0xbeceeca1	-0.4041491
180	0x3df4eb89	0.11958987
181	0x3df2a622	0.118480936
182	0xbce9bc1e	-0.028532084
183	0xbd5323e5	-0.051547904
184	0x3ce100a4	0.027466126
185	0xbd9abf26	-0.0755599
186	0xbdf58a06	-0.119892165
187	0xbe7b3553	-0.2453206
188	0xbdd0fc5a	-0.10204382
189	0x3b14515f	0.0022631509
190	0xbe9bd8a5	-0.30438724
191	0x3d00d81e	0.031456105
192	0x3e652dc3	0.22380738
193	0xbe90df7f	-0.28295514
194	0xbe12bdf1	-0.1433027
195	0x3d982bee	0.07430254
196	0x3d50b2cf	0.050951775
197	0xbe9822be	-0.29714006
198	0x3dc5b303	0.096532844
199	0xbc10c72d	-0.00883655
200	0xbc3cb00d	-0.011516583
201	0x3db3a145	0.08770994
202	0x3e3a5f4f	0.1820042
203	0xbe432c0c	-0.19059771
204	0x3e863e1e	0.26219267
205	0xbc4c49b6	-0.012468746
206	0xbe6533b2	-0.22383001
207	0xbefb0a02	-0.49031073
208	0xbe9129d9	-0.2835224
209	0xbd446eee	-0.047957353
210	0xbe82ad00	-0.25522614
211	0x3e367a14	0.17820007
212	0x3e0a70f0	0.13519645
213	0xbdca8805	-0.09889225
214	0xbd86c720	-0.06580949
215	0x3e0bfbce	0.13670275
216	0x3ebb773d	0.3661441
217	0xbcc6ee47	-0.024283541
218	0x3ed4f6ac	0.41594446
219	0x3e8c31f6	0.27381867
220	0xbde02a33	-0.10945549
221	0x3e92f133	0.28699645
222	0xbe83e3de	-0.25759786
223	0xbe83b36d	-0.25722829
224	0xbdd0af0a	-0.10189636
225	0x3daa8db2	0.083278075
226	0x3eba7d35	0.3642365
227	0x3de93fbb	0.11389109
228	0x3d44c870	0.048042715
229	0xbea3b444	-0.3197347
230	0xbe01f7b4	-0.12692147
231	0xbd558d8b	-0.05213694
232	0xbdbc25b1	-0.091868766
233	0xbec6b0ae	-0.3880667
234	0xbd89ee58	-0.067349136
235	0x3d9f72d9	0.07785577
236	0xbd88e328	-0.066839516
237	0x3e46f1e8	0.19428217
238	0x3e646805	0.22305305
239	0xbc7f63f6	-0.015587797
240	0x3de63b8e	0.11241828
241	0xbd98ba67	-0.074574284
242	0x3cfcbbb6	0.030851226
243	0x3dd4b627	0.10386305
244	0xbe81547e	-0.25259775
245	0xbe24e3e3	-0.16102557
246	0xbdefb4ed	-0.11704431
247	0x3eb6aafa	0.3567732
248	0xbd259bdb	-0.04043184
249	0xbe0c358b	-0.136923
250	0x3d3ed94a	0.04659394
251	0xbe46ebd9	-0.19425906
252	0xbd5aaf58	-0.053389877
253	0xbe1a06b5	-0.15041621
254	0x3d99f314	0.075170666
255	0x3d6ae40b	0.057346385

bias_ih_l0_reverse f4 [52]
0	0xbd929170	-0.07156646
1	0xbe29ac4e	-0.16569635
2	0x3e90d646	0.28288478
3	0xbe639ee7	-0.22228585
4	0x3d6e20dd	0.05813681
5	0x3e81fdfb	0.25389084
6	0x3e6ef51d	0.23335691
7	0xbe44f5fa	-0.19234458
8	0xbe2c61dd	-0.16834207
9	0x3e24aad9	0.16080798
10	0xbd14e785	-0.036353607
11	0xbe2d20b5	-0.16907008
12	0x3e01d656	0.12679419
13	0xbe6b1486	-0.22957048
14	0x3d3364e3	0.043797385
15	0xbda5e211	-0.08099759
16	0xbe22c55e	-0.15895602
17	0x3d9a6b6f	0.075400226
18	0xbd7a1453	-0.06105454
19	0x3c969af2	0.01838443
20	0x3e28fbf7	0.16502367
21	0xbda2c995	-0.07948605
22	0x3e4d13d7	0.200271
23	0xbe4b26fd	-0.19839092
24	0x3e719a27	0.2359396
25	0xbe13e837	-0.14444052
26	0xbd9dfd46	-0.07714324
27	0xbdc0457f	-0.09388255
28	0x3e03ac1c	0.12858623
29	0x3d18e934	0.037331775
30	0xbd8e6b2a	-0.06954034
31	0xbe873582	-0.2640801
32	0x3cb38920	0.021915972
33	0xbe770f19	-0.24126853
34	0xbd684c14	-0.05671318
35	0x3ccaded3	0.024764454
36	0x3e36bb96	0.17844996
37	0xbd7da6bf	-0.0619266
38	0xbe19d549	-0.15022768
39	0x3cb0ba20	0.021573126
40	0xbe158ded	-0.14604922
41	0x3d46abc9	0.04850367
42	0x3e8838f1	0.26605943
43	0x3dbb8c3f	0.09157609
44	0x3e156583	0.14589505
45	0x3e41ee66	0.18938598
46	0x3da9534c	0.08267841
47	0xbd1ee5d2	-0.038793392
48	0xbcfc35e0	-0.030787408
49	0x3e669f96	0.22521815
50	0xbc625234	-0.013813544
51	0xbd4e90c8	-0.050431043

bias_hh_l0_reverse f4 [52]
0	0x3e651acf	0.22373508
1	0x3e460e5a	0.19341412
2	0x3e3bff6e	0.18359157
3	0x3e5eee79	0.21770658
4	0x3e242174	0.16028386
5	0xbe7a7b83	-0.24461178
6	0x3e4d1de5	0.20030935
7	0xbd831d14	-0.064020306
8	0x3d6dae11	0.05802733
9	0xbde70fd8	-0.11282319
10	0xbdd15223	-0.102207445
11	0x3e8687ff	0.26275632
12	0xbe35afa6	-0.17742786
13	0x3e25c155	0.16187032
14	0xbd47c99e	-0.04877626
15	0xbdbb1473	-0.0913476
16	0x3e598202	0.21241
17	0x3d9cdcbd	0.0765929
18	0x3d8ac600	0.06776047
19	0x3e684c87	0.22685443
20	0xbe4ebc3f	-0.20188998
21	0x3e7b579f	0.24545144
22	0xbd7a22a7	-0.061068203
23	0x3e461b4e	0.19346353
24	0x3e84d2ab	0.25941977
25	0x3e7810ab	0.24225108
26	0x3df5b7b2	0.11997928
27	0xbdb5de8a	-0.088803366
28	0xbe8fd506	-0.2809221
29	0x3e36590b	0.17807405
30	0x3e2b7869	0.16745152
31	0xbe6086a3	-0.2192636
32	0x3e0294b3	0.12752037
33	0x3d99a9f1	0.07503117
34	0x3e30d4c9	0.17268671
35	0xbdd13887	-0.1021586
36	0xbd8b344a	-0.06797083
37	0xbe66d493	-0.22542028
38	0xbe76bff1	-0.24096657
39	0x3e05193d	0.12997909
40	0x3dd6c480	0.10486698
41	0xbe85e7c2	-0.2615338
42	0xbe880948	-0.2656958
43	0x3e667691	0.22506167
44	0x3e9b0ed6	0.30284756
45	0x3e68752e	0.2270095
46	0xbd818506	-0.063242
47	0x3e1b1b45	0.15147121
48	0x3e7bd6e1	0.24593689
49	0x3d2c3171	0.04203934
50	0x3d60036f	0.054690775
51	0x3e8123d6	0.25222653

weight f4 [16, 260]
0	0x3c8071a5	0.01567919
1	0xbd183571	-0.03716034
2	0xbc47eb85	-0.012202148
3	0x3b8cb4c8	0.0042940117
4	0xbdfc3440	-0.123146534
5	0xbdcbc517	-0.09949701
6	0x3c75452b	0.014970104
7	0xbd04dde8	-0.03243819
8	0xbd9bd481	-0.07608891
9	0xbb36884a	-0.002785223
10	0x3dfe2d50	0.124109864
11	0xbdcf17e0	-0.10111976
12	0xbdcebb15	-0.10094277
13	0xbd3d0c40	-0.04615426
14	0x3e313994	0.1730712
15	0xbc1ce37f	-0.009575724
16	0x3b9dccc7	0.004815671
17	0x3cb6ac0a	0.022298831
18	0xbc17ae49	-0.009257861
19	0xbcc66c07	-0.024221433
20	0xbce9159a	-0.028452683
21	0x3db6b952	0.08922066
22	0x3c62bddb	0.01383921
23	0xbe2608a6	-0.16214237
24	0xbc8d9b05	-0.017285833
25	0xbd59efd3	-0.05320723
26	0x3e19515b	0.14972441
27	0xbcfd0bf0	-0.030889481
28	0x3d471f03	0.04861356
29	0x3d170b72	0.03687615
30	0xbc0e95c0	-0.008702695
31	0xbc13e427	-0.009026564
32	0xbda48101	-0.08032418
33	0xbd261894	-0.040550783
34	0x3cc096f3	0.023509478
35	0xbe0ec7f7	-0.13943468
36	0x3d63f3c8	0.05565241
37	0xbe211a41	-0.15732671
38	0x3d27b7e8	0.04094687
39	0xbdb38129	-0.0876487
40	0xbdc6ed86	-0.09713273
41	0xbd9147d7	-0.070937805
42	0xbdc3911e	-0.09549163
43	0xbdad5577	-0.08463567
44	0x3d0baf5f	0.034102794
45	0x3c555cae	0.013022585
46	0x3c4f479b	0.012651349
47	0xbd961b4c	-0.07329425
48	0xbd1879f5	-0.037225682
49	0xbcb7e17b	-0.022446385
50	0xbde2d585	-0.11075882
51	0x3cfb7c0c	0.030698799
52	0x3dbb26fe	0.091382965
53	0xbc94756d	-0.0181224
54	0xbd85e902	-0.06538583
55	0xbd966308	-0.073431075
56	0xbd85f1dc	-0.06540272
57	0x3d6b5298	0.057451814
58	0x3cdf895c	0.027287178
59	0x3ca21400	0.019784927
60	0xbd791768	-0.060813338
61	0x3d256039	0.04037497
62	0xbd055184	-0.032548442
63	0x3d4c9fce	0.04995709
64	0x3e13cd22	0.1443372
65	0x3d02c430	0.03192538
66	0x3dfc0de2	0.123073354
67	0xbdadc8be	-0.08485554
68	0xbe0e3163	-0.13886027
69	0xbcf3d189	-0.029763
70	0x3d2d19db	0.042260986
71	0xbe132935	-0.14371188
72	0x3dfd145c	0.12357399
73	0xbe60a847	-0.21939193
74	0x3a25e8c6	0.00063289364
75	0x3dcfd72f	0.10148465
76	0x3dc3ba08	0.09556967
77	0x3ced7cc2	0.028990153
78	0x3e32013f	0.17383288
79	0xbcaf4593	-0.02139548
80	0x3e1a08b0	0.15042377
81	0x3cd847e1	0.026401462
82	0xbdf62668	-0.12019044
83	0x3cf67006	0.030082714
84	0xbd72a92b	-0.059243362
85	0x3d131511	0.035908762
86	0x3cadfa5b	0.021237543
87	0x3c8644bf	0.016390203
88	0x3dbd5448	0.09244591
89	0xbb64fc08	-0.0034940261
90	0xbe08507e	-0.13311955
91	0xbbfefc4a	-0.00778154
92	0xbb9a7bc3	-0.0047144606
93	0x3ce1cfe0	0.027564943
94	0xbcae2f35	-0.021262744
95	0xbd32fd60	-0.04369867
96	0xbd1ab031	-0.037765685
97	0x3df3b83b	0.119003735
98	0x3c2e1717	0.010625622
99	0xbd23675c	-0.039893493
100	0xbdbaa65d	-0.091137625
101	0x3df317dd	0.11869786
102	0x3d22628a	0.039644755
103	0xbe1a299a	-0.15054932
104	0xbc20dd05	-0.00981832
105	0x3ce7e827	0.028308941
106	0xbde05c6e	-0.109551296
107	0xbe0c188b	-0.13681237
108	0x3dbcf868	0.09227067
109	0xbe2dd6f2	-0.16976526
110	0xbe112e58	-0.14177835
111	0xbca7376c	-0.02041217
112	0xbc97795b	-0.018490484
113	0xbd3c69fa	-0.045999505
114	0xbd8b34ce	-0.06797181
115	0x3d583196	0.052781664
116	0xbdb74906	-0.08949475
117	0xbdbcb517	-0.09214228
118	0xbddbb319	-0.107275195
119	0xbd3a460b	-0.045476954
120	0x3e249b97	0.16074978
121	0xbd6acd97	-0.057324972
122	0x3e0f6280	0.14002419
123	0xbd801069	-0.0625313
124	0x3e649af1	0.2232473
125	0xbc9123c4	-0.01771725
126	0x3d6e5695	0.05818804
127	0x3c8c2415	0.017107049
128	0x3e05e1be	0.13074395
129	0xbd8c3c28	-0.068474114
130	0x3d34e1cf	0.04416066
131	0x3e3d63d7	0.18495117
132	0xbc7dd7ba	-0.015493328
133	0x39f2dd85	0.00046322882
134	0xbda109f9	-0.0786323
135	0xbb1d7646	-0.0024026795
136	0xbcc84171	-0.024445267
137	0x3c822ed4	0.01589147
138	0x3e20992d	0.15683432
139	0x3e1c95b4	0.15291482
140	0xbcfc5010	-0.030799896
141	0x3e083228	0.13300383
142	0x3e28570d	0.16439457
143	0xbd20e3f8	-0.039279908
144	0x3da4acfa	0.08040805
145	0xbc5d9017	-0.013523123
146	0xbde49a1c	-0.111622065
147	0xbd13d4a0	-0.036091447
148	0x3c3e19a3	0.011602792
149	0x3c1db716	0.009626171
150	0xbd31b468	-0.04338494
151	0x3d30d918	0.043175787
152	0x3e18d666	0.14925537
153	0x3d3c21f3	0.045930814
154	0xbe16a0c2	-0.14709762
155	0x3e23c36a	0.15992513
156	0xbd1745f2	-0.03693194
157	0xbb2c5dc7	-0.0026301013
158	0xbd876b5b	-0.06612273
159	0x3dc060f0	0.09393489
160	0x3d836e46	0.06417517
161	0x3cbf3391	0.023340018
162	0xbe0b126a	-0.13581243
163	0xbd8889de	-0.06666921
164	0xbdc92f70	-0.09823501
165	0x3cfc9a60	0.03083533
166	0xbc4b8c00	-0.012423515
167	0xbd9e870b	-0.07740601
168	0xbc5a76dc	-0.013334002
169	0x3d0b022a	0.03393761
170	0xbdfd4d82	-0.12368299
171	0x3bed6303	0.007244469
172	0x3dfdfe9c	0.124020785
173	0xbdda9fcb	-0.10675009
174	0xbc572c21	-0.01313308
175	0xbda7fa15	-0.08201996
176	0xbd92cf6d	-0.071684696
177	0xbca56bbb	-0.020192971
178	0x3db57fb1	0.08862246
179	0xbd43d126	-0.04780688
180	0x3d8d65ed	0.069042064
181	0x3d8751b4	0.066073805
182	0x3862bb5b	5.4057087e-05
183	0xbd358e96	-0.044325434
184	0xbddc9f7f	-0.10772609
185	0x3ca23e9a	0.019805241
186	0x3c552876	0.013010135
187	0x3c8283f8	0.015932068
188	0x3d6a9f2b	0.0572807
189	0x3dc335f4	0.09531775
190	0xbcd172ca	-0.025567431
191	0xbac7561c	-0.0015208158
192	0xbdcb62f6	-0.09930985
193	0x3d633a05	0.055475254
194	0x3b0a3e27	0.0021094175
195	0xbd9f2e7f	-0.0777254
196	0x3d31eff7	0.04344174
197	0xbde2e035	-0.1107792
198	0x3d5956eb	0.053061407
199	0x3bf737c3	0.007544489
200	0xbb8942af	-0.0041888575
201	0x3c941a59	0.01807897
202	0x3e3fcf4a	0.18731418
203	0x3e2fefc5	0.17181309
204	0x3d9282f6	0.07153885
205	0x3ce93de8	0.028471902
206	0xbdeaf86b	-0.11473163
207	0x3a65e45a	0.0008769684
208	0x3d1bc3f6	0.03802868
209	0x3dfafff3	0.1225585
210	0xbe2cc423	-0.16871695
211	0x3c163a1f	0.009169131
212	0xbdcd8af8	-0.10036272
213	0x3cccd194	0.025002278
214	0xbcaf01b9	-0.021363126
215	0xbdbf40d6	-0.09338538
216	0xbdc4de04	-0.096126586
217	0xbb386e42	-0.002814189
218	0xbd754f57	-0.059890117
219	0x3d5377e8	0.051628023
220	0xbda719a7	-0.0815919
221	0x3d937d13	0.072015904
222	0x3dae292f	0.08503949
223	0x3d0c528f	0.03425842
224	0xbb1fefec	-0.002440448
225	0xbc9c597b	-0.019085636
226	0xbc35e86c	-0.011102777
227	0x3d4e6950	0.050393403
228	0x3ded3abf	0.115834706
229	0x3da4c5e8	0.0804556
230	0x3db69cb8	0.089166105
231	0x3c32118e	0.010868443
232	0xbbba5b47	-0.0056871506
233	0xbd0f95d3	-0.035054993
234	0x3dc93e66	0.09826355
235	0xbd7b624e	-0.061373048
236	0x3e111076	0.14166436
237	0xbdc8ed5a	-0.09810896
238	0xbd8187d9	-0.06324739
239	0xbdb93d3c	-0.09044883
240	0x3d8f25c6	0.069896266
241	0xbd7716a9	-0.060324345
242	0xbd540c67	-0.05176964
243	0x3d992217	0.07477205
244	0x3cfcb33f	0.03084719
245	0xbdd45a49	-0.10368783
246	0xbd0d826c	-0.034548208
247	0x3da307ec	0.07960495
248	0xbdbd6a02	-0.09248735
249	0x3c6d1989	0.01447142
250	0x3dc3ee37	0.0956692
251	0xbdb8da2a	-0.090259865
252	0x3d9f1a41	0.077686794
253	0x3cf7b308	0.030236736
254	0xbe108a05	-0.1411515
255	0x3db8b4a0	0.090188265

bias f4 [16]
0	0xbc8599b3	-0.016308641
1	0xbd50e580	-0.05100012
2	0x3d011441	0.031513456
3	0x3d34fed9	0.044188354
4	0xbd5a3de9	-0.0532817
5	0x3c96f489	0.01842715
6	0xbd29b7fe	-0.041435234
7	0xbbef3038	-0.0072994493
8	0x3d3a1b41	0.045436148
9	0x3d133d97	0.03594741
10	0xbca21229	-0.01978405
11	0xbc83f773	-0.016109204
12	0xbc5070db	-0.012722219
13	0xbd0659e9	-0.03280059
14	0x3cf85206	0.03031255
15	0x3cbfc7ee	0.023410764

weight f4 [19, 16]
0	0xbca84824	-0.020542212
1	0x3ddd6693	0.1081058
2	0x3e32e75d	0.1747107
3	0x3d2ac234	0.041689113
4	0x3e05d1f0	0.13068366
5	0x3d2c4e94	0.042067125
6	0x3e95f2cf	0.2928681
7	0xbe4a7850	-0.19772458
8	0x3e9fe578	0.31229758
9	0xbe329b95	-0.17442162
10	0x3bb169a0	0.005414203
11	0x3d9181da	0.07104845
12	0xbf4685f8	-0.7754817
13	0xbe76b5eb	-0.24092834
14	0x3ec4c4bf	0.38431355
15	0xbe27872c	-0.16360158
16	0x3e609faa	0.21935907
17	0xbe90afd8	-0.28259158
18	0x3d82caba	0.06386323
19	0xbe62ed41	-0.22160818
20	0x3e1e56b8	0.15462768
21	0xbee08853	-0.43854007
22	0x3e0629b7	0.1310185
23	0x3d7fa450	0.06241256
24	0x3cad341a	0.021143008
25	0x3c918d3a	0.017767537
26	0xbe197356	-0.14985403
27	0x3cc7e69b	0.024401953
28	0xbd79f612	-0.061025687
29	0x3f05d427	0.52276844
30	0x3db53c04	0.08849338
31	0xbe5a3b3f	-0.21311663
32	0xbd279cfb	-0.040921193
33	0x3d16fa1e	0.036859624
34	0xbddf4ad8	-0.10902947
35	0xbe9d8b52	-0.30770355
36	0xbd145c51	-0.036220852
37	0xbcc6aed3	-0.024253285
38	0x3e406c00	0.18791199
39	0xbe85a3ae	-0.2610144
40	0xbf15aaf1	-0.5846396
41	0x3f0cdf07	0.5502781
42	0x3ef0fa9b	0.47066197
43	0x3ea82a4e	0.32844776
44	0x3dd24295	0.10266606
45	0xbe7e451f	-0.24831055
46	0x3e00c101	0.12573625
47	0x3e4961af	0.1966617
48	0x3b94f155	0.0045453706
49	0x3df64fc6	0.12026934
50	0x3e2e8538	0.17043006
51	0x3d05c2bc	0.032656416
52	0xbee4f36e	-0.44716972
53	0xbe72d8ff	-0.2371559
54	0x3dfcde80	0.12347126
55	0x3e9048b2	0.28180462
56	0xbe61b6ed	-0.22042437
57	0x3dd704fa	0.10498996
58	0x3e5d3086	0.21600541
59	0x3d5481b4	0.051881507
60	0x3e8c124a	0.27357703
61	0x3efe8ab8	0.4971521
62	0xbebb3ef6	-0.36571473
63	0x3c825423	0.01590926
64	0xbe4e79d8	-0.20163667
65	0x3e0dfd4a	0.13866153
66	0x3ed89ac9	0.42305592
67	0xbdf66ce8	-0.12032491
68	0x3ea90b88	0.3301661
69	0x3de7318f	0.112887494
70	0xbcba2738	-0.02272378
71	0x3dab1066	0.08352737
72	0x3cab7e29	0.020934181
73	0x3e22715f	0.1586356
74	0xbf1a8c28	-0.6037011
75	0xbe64fb2b	-0.22361438
76	0xbd5e5b59	-0.054286335
77	0x3ec5f469	0.38663033
78	0x3dd08c61	0.10183025
79	0xbe0a9c2d	-0.13536139
80	0xbdb535c8	-0.088481486
81	0xbdfbe48d	-0.12299452
82	0x3f1b4587	0.60652965
83	0xbe1c7983	-0.15280728
84	0xbecb15b5	-0.39665
85	0x3e379dc9	0.17931284
86	0x3c94640a	0.018114109
87	0x3e4b3858	0.19845712
88	0xbea600c6	-0.32422465
89	0xbe301f24	-0.17199379
90	0x3f493c9b	0.786081
91	0xbe08ca5b	-0.13358442
92	0x3d6420c0	0.055695295
93	0x3e8306f4	0.25591242
94	0x3e04fe0b	0.12987535
95	0xbe616db3	-0.22014503
96	0x3e72a3c1	0.2369528
97	0xbd052183	-0.032502662
98	0x3d869c9f	0.06572842
99	0xbe8c1bdc	-0.27365005
100	0x3e433e64	0.19066769
101	0x3e03dc4c	0.12877005
102	0x3d93e3ff	0.07221221
103	0xbef918a5	-0.48651615
104	0x3e3cc8f4	0.18436033
105	0x3e65e570	0.22450805
106	0x3de8424b	0.113407694
107	0x3db6ea0b	0.08931359
108	0x3df2c26f	0.118534915
109	0x3f0b77d7	0.54479736
110	0x3e2b83fa	0.16749564
111	0x3f1e6368	0.6187043
112	0xbe3c0578	-0.18361461
113	0xbc9075bb	-0.017634263
114	0x3e498e0d	0.19683094
115	0x3ea80db4	0.32822955
116	0xbd0572ea	-0.032580294
117	0x3e86ec48	0.26352143
118	0x3ee81511	0.45328572
119	0xbecebbf3	-0.4037777
120	0x3e668820	0.22512865
121	0x3d8abc93	0.06774249
122	0xbf244bb8	-0.6417804
123	0x3d868f3e	0.0657029
124	0xbb496645	-0.0030731123
125	0x3e1906ef	0.14944051
126	0xbeb544ad	-0.35403958
127	0x3ea2764f	0.31730887
128	0xbd313a01	-0.043268207
129	0xbe8e3dbc	-0.27781475
130	0x3e4fbe32	0.20287398
131	0xbe8895ee	-0.26676887
132	0xbd4e2525	-0.050328393
133	0xbb52f07e	-0.0032186802
134	0xbf024446	-0.50885427
135	0x3ee48ad8	0.4463718
136	0xbcbf8705	-0.023379812
137	0xbe4e9077	-0.20172296
138	0xbc9c5b6d	-0.019086564
139	0x3eaa064d	0.33207932
140	0x3d45ad46	0.04826095
141	0xbe9f76c7	-0.31145307
142	0xbec8ca37	-0.39216778
143	0x3e8f691c	0.2800988
144	0xbe3fab21	-0.18717624
145	0xbf28d9fb	-0.6595761
146	0x3dadd9ab	0.084887825
147	0x394e2900	0.00019660965
148	0x3b306576	0.0026915944
149	0x3e700321	0.23438694
150	0xbd3be52c	-0.045872852
151	0xbd2058f7	-0.039147343
152	0x3e3dbfe9	0.18530239
153	0x3d4dd6fc	0.050253853
154	0xbe908b04	-0.2823106
155	0x3c326ec1	0.010890664
156	0x3ec9b98c	0.39399374
157	0x3e842ed7	0.25816986
158	0xbbb24c31	-0.0054412116
159	0x3e11af3b	0.14227001
160	0xbe67f85a	-0.22653332
161	0xbe94d328	-0.2906735
162	0x3d501c14	0.050808027
163	0x3cd4f07f	0.025993584
164	0xbe329e5e	-0.17443225
165	0xbddbfa46	-0.10741095
166	0xbd2fd576	-0.04292818
167	0xbd9ef4fb	-0.0776157
168	0x3ebd8aee	0.37020057
169	0x3dbd46e8	0.0924204
170	0x3cc159d9	0.023602413
171	0xbc013e7f	-0.007888435
172	0x3e1bac27	0.1520239
173	0xbe32bab9	-0.17454042
174	0x3df8e0c8	0.121522486
175	0x3e1fc3b5	0.15602
176	0xbd37806c	-0.044800207
177	0x3e900599	0.2812927
178	0xbe4203cd	-0.18946762
179	0xbd9f37b7	-0.07774299
180	0x3dc6179e	0.09672473
181	0xbe04c0f3	-0.1296423
182	0x3ea4af7a	0.32165128
183	0xbe10bc20	-0.14134264
184	0xbc09d30e	-0.008412136
185	0x3eb9146b	0.3614839
186	0xbeaae221	-0.33375648
187	0xbd829ba7	-0.063773446
188	0x3d80bf0c	0.06286439
189	0x3e28d5db	0.1648783
190	0xbe8a1a99	-0.26973417
191	0x3db17dbf	0.08666562
192	0x3db5afac	0.088713974
193	0x3e6312e9	0.22175182
194	0x3ac7b648	0.0015236819
195	0x3e4fd80b	0.20297258
196	0xbdc7a22d	-0.097477295
197	0x3ef851f5	0.48500028
198	0x3b822ec3	0.0039728596
199	0xbea37c76	-0.31930894
200	0xbdca2993	-0.09871211
201	0x3c5dc639	0.0135360295
202	0xbed6e292	-0.41969734
203	0xbe4fee94	-0.20305854
204	0x3e072ab4	0.13199884
205	0x3e684cfc	0.22685617
206	0xbe212a89	-0.15738882
207	0xbeabeb9f	-0.33578202
208	0x3f1144a9	0.5674539
209	0xbc63e5e7	-0.013909793
210	0x3e8d3931	0.27582696
211	0x3d53e2fc	0.05173014
212	0xbe672d93	-0.22575979
213	0x3d8d7ff3	0.0690917
214	0x3e9737c5	0.29534736
215	0x3d4a51b1	0.049394313
216	0x3e5b9393	0.21443014
217	0xbe89f597	-0.26945183
218	0x3dc5cdee	0.096584186
219	0x3e2d88fd	0.16946788
220	0xbea3801f	-0.31933686
221	0xbe8a3261	-0.2699156
222	0x3e794188	0.24341404
223	0xbeb13887	-0.3461344
224	0xbeb42c56	-0.35190076
225	0x3d762a9e	0.060099237
226	0xbe1384d8	-0.14406145
227	0xbc9409ae	-0.018071022
228	0xbece2f34	-0.40270388
229	0xbe8593a8	-0.26089215
230	0xbe1ab8fa	-0.15109625
231	0xbe53def1	-0.20690514
232	0x3e55066f	0.20803235
233	0xbe168dbe	-0.14702508
234	0x3d568b2a	0.05237881
235	0x3c33e246	0.010979241
236	0x3e3bd692	0.18343571
237	0xbea70641	-0.3262196
238	0xbd34a532	-0.044102855
239	0x3e89963c	0.26872432
240	0x3df4d500	0.11954689
241	0x3e77aeba	0.24187747
242	0xbe004c15	-0.12529023
243	0xbe0278e3	-0.12741427
244	0xbdb2ca30	-0.087299705
245	0xbe3e0fb4	-0.18560678
246	0x3d2ad91c	0.041710958
247	0x3e11dd8e	0.14244673
248	0x3ed9452f	0.42435595
249	0xbdc11fc9	-0.09429891
250	0x3d737a01	0.059442524
251	0xbe332f95	-0.1749862
252	0x3ec73dda	0.38914376
253	0x3e76f402	0.24116519
254	0x3e416059	0.1888441
255	0xbe51f247	-0.20502578

bias f4 [19]
0	0xbdba24f9	-0.09089083
1	0x3e4d4c4d	0.20048638
2	0x3da03f8b	0.0782462
3	0x3d0b9a1b	0.034082513
4	0x3e4d5886	0.200533
5	0xbd9e7d9c	-0.07738802
6	0xbdf011b8	-0.117221296
7	0xbe0f7dab	-0.14012782
8	0x3e46ac16	0.19401583
9	0x3cfa8a4a	0.03058352
10	0xbda1ce0f	-0.07900631
11	0x3ddead3e	0.10872887
12	0xbda99d5d	-0.08281968
13	0xbde1d107	-0.11026197
14	0xbd553081	-0.05204821
15	0x3e0e3e82	0.13891032
16	0x3e541087	0.2070943
17	0xbe0f4c1a	-0.13993874
18	0xbdaadaf6	-0.08342545
