models/a19lds19b0.007g0.02d0.1h13.pt (torch, 127234 bytes, 26 tensors)

weight_ih_l0 f4 [52, 4]
0	0xbe15a7a2	-0.14614728
1	0x3e12dc72	0.14341906
2	0x3e10b8b0	0.14132953
3	0x3d280514	0.041020468
4	0x3eb95bbb	0.36202797
5	0x3d4705a2	0.048589356
6	0x3e6df494	0.2323783
7	0x3d63d308	0.055621177
8	0xbea67722	-0.32512766
9	0xbda4a51c	-0.080393046
10	0xbdee720f	-0.11642849
11	0x3e5589f7	0.2085341
12	0xbde7efdd	-0.11325047
13	0x3ea70601	0.32621768
14	0x3ec4305d	0.38318148
15	0xbcc03d3d	-0.0234667
16	0xbde17746	-0.11009078
17	0xbdbe603d	-0.092957
18	0x3ef0464f	0.4692864
19	0x3e81c68a	0.25346786
20	0x3ebf7bff	0.3739929
21	0x3d4e3053	0.050339054
22	0x3dc752b3	0.097325705
23	0x3e585d07	0.21129237
24	0x3d05e2a5	0.03268685
25	0x3e5eaa20	0.21744585
26	0xbe3aaba3	-0.18229537
27	0x3e83b923	0.25727186
28	0xbdd5d8bd	-0.1044173
29	0xbe5156fc	-0.20443338
30	0xbe186faa	-0.14886346
31	0x3e027fc0	0.12744045
32	0xbe0516f0	-0.12997031
33	0x3e0cb41f	0.13740586
34	0xbeefe9ed	-0.4685816
35	0xbd8f5453	-0.069985054
36	0xbe0aca47	-0.13553725
37	0x3eec17d9	0.46111944
38	0xbccafb1d	-0.024777943
39	0xbcda93d3	-0.026681816
40	0x3d6dc4c4	0.05804898
41	0xbde35ac9	-0.111013
42	0xbced6c44	-0.02898229
43	0xbe16fe07	-0.14745341
44	0x3e0bacbb	0.1364011
45	0x3dcee579	0.10102362
46	0x3c7fb0f8	0.0156061575
47	0x3e1359b0	0.14389682
48	0x3cbf9c72	0.023390029
49	0x3ca5ecd2	0.020254526
50	0x3dd2cc9e	0.10292934
51	0x3d681ce1	0.056668166
52	0x3bebc7a0	0.007195428
53	0x3e88b8dd	0.2670354
54	0xbde2e4ba	-0.110787824
55	0xbc4d3eba	-0.012527162
56	0x3e63137d	0.22175403
57	0xbe947596	-0.2899596
58	0x3e4048b9	0.18777741
59	0x3e56c759	0.20974483
60	0x3e0f9969	0.14023365
61	0xbd413897	-0.04717311
62	0x3e165cb4	0.14683801
63	0x3d590ca6	0.052990578
64	0x3d6c538b	0.05769686
65	0xbd8901af	-0.06689774
66	0xbd980bf5	-0.074241556
67	0xbe309713	-0.1724513
68	0x3e32a5be	0.17446038
69	0x3d9f72f6	0.07785599
70	0xbdedbe61	-0.116085775
71	0xbe86004d	-0.26172104
72	0x3cd07ea3	0.02545101
73	0xbea77045	-0.32702842
74	0xbe44fb6e	-0.19236538
75	0xbe105ba8	-0.14097464
76	0x3d635286	0.055498622
77	0xbb2a9a2d	-0.0026031837
78	0xbd56c58f	-0.0524345
79	0x3c8d4066	0.017242622
80	0xbe823c73	-0.25436744
81	0xbdc1aa38	-0.09456295
82	0x3d6470cc	0.055771634
83	0xbe854e3e	-0.26036257
84	0x3e553673	0.20821552
85	0xbea6bdec	-0.32566774
86	0x3efbb13b	0.49158654
87	0x3d793091	0.060837332
88	0x3e8a7035	0.27038732
89	0xbd272e9d	-0.04081594
90	0x3e7babd8	0.24577272
91	0x3e208ee9	0.15679516
92	0x3e364135	0.17798312
93	0x3e03ddb8	0.12877548
94	0xbe1caf15	-0.15301163
95	0xbe27d2b1	-0.16388966
96	0xbe862014	-0.2619635
97	0x3c9e57b5	0.019328931
98	0x3e81b8ae	0.25336212
99	0xbc412563	-0.011788699
100	0xbddc15ab	-0.1074632
101	0x3dcace15	0.09902588
102	0x3d8a61d2	0.06756939
103	0xbd2b59c4	-0.041833654
104	0xbe4b2938	-0.19839942
105	0x3e48634f	0.19569133
106	0xbe4f81db	-0.2026438
107	0x3e44ecd2	0.19230965
108	0x3d7dbd78	0.06194827
109	0x3d0eb92c	0.034844562
110	0xbdbfe231	-0.093693145
111	0x3e77dfdb	0.24206488
112	0x3ca215a8	0.019785717
113	0x3dbd0fc9	0.092315264
114	0xbe51e9bb	-0.20499317
115	0xbd3d64ca	-0.046238698
116	0x3e8a8255	0.2705256
117	0xbe0340ae	-0.12817642
118	0x3e9649af	0.2935309
119	0x3dc6034b	0.09668597
120	0xbea5a10c	-0.32349432
121	0x3e36fc4a	0.17869678
122	0xbd6976da	-0.05699811
123	0xbd8861d5	-0.06659285
124	0xbe24370c	-0.16036624
125	0xbd9b4a3f	-0.07582521
126	0xbd559913	-0.052147936
127	0xbe906f74	-0.28210032
128	0xbefd0d68	-0.4942429
129	0xbe2cc8ff	-0.16873549
130	0xbde11d44	-0.1099191
131	0xbe38fa9e	-0.18064353
132	0x3d2ae1cf	0.041719254
133	0x3e337607	0.17525493
134	0xba91f8df	-0.0011136791
135	0x3d650c7e	0.055920117
136	0xbd8a5cd1	-0.067559846
137	0x3c05c4b7	0.008164576
138	0xbe867005	-0.2625734
139	0x3e8d2031	0.27563623
140	0xbd29a5f5	-0.041418035
141	0xbe0ca79e	-0.13735816
142	0x3e3328bd	0.17496009
143	0x3ea53b86	0.32271975
144	0xbeaf257e	-0.34208292
145	0xbe9d8271	-0.3076358
146	0x3b256607	0.0025237815
147	0x3eb7c804	0.35894787
148	0x3c5f38c5	0.013624375
149	0x3eba48da	0.36383706
150	0x3e78a7ff	0.24282835
151	0xbe3a0c6f	-0.18168806
152	0x3e4856ca	0.19564357
153	0xbe20d19e	-0.15704963
154	0xbeb4cd02	-0.3531266
155	0xbe4adff5	-0.19811995
156	0xbdb564ee	-0.088571414
157	0xbe8e3897	-0.2777755
158	0x3eb42c52	0.35190064
159	0x3e708b49	0.23490633
160	0x3e6862e7	0.22693978
161	0x3e23d7cf	0.16000293
162	0x3e8bad72	0.27280766
163	0xbe7bf27a	-0.24604216
164	0x3e912c0e	0.28353924
165	0xbcb1ba5c	-0.021695308
166	0xbd29c523	-0.04144777
167	0x3dce2a9b	0.1006672
168	0xbce8f43c	-0.028436773
169	0xbb5b7cb2	-0.0033491072
170	0x3d9cd405	0.07657627
171	0xbdc727a3	-0.09724357
172	0xbdde6c19	-0.10860462
173	0xbe02742a	-0.12739626
174	0xbf0e0537	-0.5547671
175	0x3bca3404	0.0061707515
176	0x3c7ac7fd	0.01530647
177	0x3d46a856	0.04850038
178	0xbdabb9d4	-0.08385053
179	0x3c4b1d88	0.0123971775
180	0xbde5d549	-0.112223215
181	0x3ce1b463	0.027551835
182	0xbde27ac6	-0.110585734
183	0xbdfb7d60	-0.12279773
184	0xbeb94655	-0.36186472
185	0xbe526925	-0.20547922
186	0x3e8b5f52	0.2722116
187	0x3e0c372f	0.13692926
188	0xbe2d2ae4	-0.16910893
189	0x3e1fcb40	0.15604877
190	0x3d96b74f	0.07359182
191	0xbded1f49	-0.11578233
192	0xbda39f9e	-0.07989429
193	0xbe4efd56	-0.20213827
194	0x3e2ee6c8	0.17080224
195	0xbd0e4fee	-0.034744196
196	0x3e7911d5	0.24323209
197	0xbd73bda5	-0.05950703
198	0x3e04f544	0.12984186
199	0x3e4c2529	0.1993605
200	0x3e391c8b	0.18077295
201	0x3e985a5c	0.2975644
202	0xbe4a97d6	-0.19784483
203	0xbe9d6d95	-0.30747667
204	0xbe65303e	-0.22381684
205	0xbd77aec5	-0.060469408
206	0xbd088191	-0.03332669
207	0xbe5c3e59	-0.21508159

weight_hh_l0 f4 [52, 13]
0	0x3e0cf1d7	0.1376413
1	0xbeb2d9a7	-0.3493168
2	0xbebd8644	-0.370165
3	0x3ef4ad90	0.47788668
4	0x3dd87649	0.10569436
5	0xbe3c90c9	-0.18414606
6	0x3dec39e1	0.11534477
7	0xbef1b579	-0.47208765
8	0xbe224eef	-0.15850423
9	0x3e15dd15	0.14635117
10	0x3d555802	0.052085884
11	0x3dbacfd7	0.091216736
12	0xbda9375b	-0.08262511
13	0xbdf64341	-0.120245464
14	0x3d0d0f8d	0.03443866
15	0x3d267b8c	0.040645167
16	0xbdac0d9b	-0.084010325
17	0xbdb4f0e2	-0.08835007
18	0x3c5438f2	0.01295303
19	0xbe715375	-0.23566993
20	0xbe007f35	-0.12548526
21	0xbd16e68b	-0.036840957
22	0x3d3ea792	0.046546526
23	0x3d4b004b	0.049560826
24	0x3cfc8e93	0.030829703
25	0x3ea4f126	0.32215232
26	0x3d53b063	0.051681887
27	0xbdc1c926	-0.09462194
28	0xbe67b444	-0.2262736
29	0x3de3ff84	0.1113272
30	0xbea43780	-0.32073593
31	0xbcefa999	-0.029255675
32	0x3d1817ba	0.037132002
33	0xbccb51d7	-0.024819298
34	0x3a0ab131	0.0005290686
35	0xba9f39b1	-0.0012147931
36	0xbe41c8d7	-0.1892427
37	0xbe3edb42	-0.18638328
38	0xbe966131	-0.29371026
39	0xbd143a4b	-0.036188405
40	0x3ea27af2	0.31734425
41	0x3d2c8fe2	0.042129405
42	0xbddd6088	-0.108094275
43	0xbe56ebfa	-0.20988455
44	0x3ee94612	0.45561272
45	0xbda139cf	-0.07872354
46	0x3d135719	0.035971735
47	0x3bd90562	0.006622956
48	0x3dcc222a	0.09967454
49	0x3e57e803	0.21084599
50	0xbc00c518	-0.007859491
51	0x3e06c40e	0.13160726
52	0xbe0d9f21	-0.13830234
53	0xbe0228b5	-0.12710841
54	0xbc9bf152	-0.019035969
55	0x3e03ce5c	0.12871689
56	0x3d82ac67	0.063805394
57	0x3c40d9c2	0.0117706675
58	0xbdc3c08e	-0.09558211
59	0xbe0edffa	-0.13952628
60	0x3d3c4219	0.045961473
61	0xbdb847da	-0.089980796
62	0xbd73e9d4	-0.059549168
63	0x3e4411c5	0.19147404
64	0xbd95cefd	-0.073148705
65	0xbdbdf5ae	-0.09275375
66	0xbe237e29	-0.15966095
67	0xbe1f52c7	-0.15558921
68	0x3ce3b675	0.027796963
69	0xbc772623	-0.015084776
70	0xbc2dd8c4	-0.010610763
71	0x3dc36f09	0.09542663
72	0xbe31bb36	-0.17356572
73	0xbde4548e	-0.1114894
74	0xbdee4921	-0.11635042
75	0x3e8dc0ee	0.27686256
76	0x3d1a130c	0.03761582
77	0xbf05b5d8	-0.52230597
78	0x3e8dbd08	0.27683282
79	0x3e2cb924	0.168675
80	0xbe5e3ff4	-0.21704084
81	0xbe9122a1	-0.28346732
82	0x3e973a34	0.29536593
83	0x3d07fef4	0.033202127
84	0xbde10d66	-0.10988884
85	0x3d43a449	0.047764096
86	0x3e9c72fa	0.3055647
87	0x3d06e4d9	0.03293309
88	0x3e3cc83a	0.18435755
89	0x3e40e84b	0.18838613
90	0xbd685bce	-0.056728177
91	0xbdbb3b7b	-0.091422044
92	0x3e3afe51	0.18261077
93	0xbd118059	-0.035522792
94	0x3c8d2a5d	0.017232114
95	0x3dc62e82	0.096768394
96	0x3e628047	0.22119246
97	0xbd9289a6	-0.071551606
98	0x3f099af3	0.5375206
99	0x3cba258e	0.022722986
100	0xbe46987e	-0.19394109
101	0x3ece99c4	0.4035169
102	0x3b4a3900	0.0030856729
103	0xbdcf8437	-0.1013264
104	0xbd95d03e	-0.0731511
105	0xbd944453	-0.07239594
106	0xbe0933ec	-0.13398713
107	0x3e8c2c99	0.27377775
108	0x3e4a22d8	0.19739854
109	0x3e75448c	0.2395193
110	0x3e337c30	0.17527843
111	0xbdd06dd2	-0.101771966
112	0xbe5e601e	-0.21716353
113	0xbd1be375	-0.038058717
114	0x3e0a10f2	0.13483027
115	0xbdeedb66	-0.11662941
116	0xbf0814d7	-0.531568
117	0x3e616d6c	0.22014397
118	0x3e946abd	0.28987685
119	0xbe56a33c	-0.20960706
120	0xbe1db270	-0.154001
121	0x3da8da92	0.08244814
122	0xbe692cf6	-0.22771057
123	0xbe90c086	-0.28271884
124	0x3e16625d	0.1468596
125	0x3e5b10bd	0.21393104
126	0xbc37ff69	-0.011230328
127	0xbccbc3c6	-0.024873625
128	0x3e7e9d76	0.24864754
129	0x3d573091	0.05253655
130	0x3e11e58f	0.14247726
131	0x3edbc50d	0.42923775
132	0xbe7b4e38	-0.24541557
133	0xbcf3f1a8	-0.029778317
134	0xbe9b3336	-0.30312508
135	0xbec08b21	-0.37606147
136	0x3bbaab37	0.00569668
137	0x3da4e70e	0.08051883
138	0xbe145a3c	-0.14487547
139	0xbd926413	-0.07147994
140	0x3dbc184e	0.09184323
141	0xbc7e9149	-0.015537568
142	0x3eee08ba	0.46491033
143	0x3dbf40db	0.09338542
144	0xbdf376f3	-0.11887922
145	0xbd0c9112	-0.034318037
146	0x3e1adfce	0.15124437
147	0xbf25b85f	-0.6473445
148	0x3ec3c44c	0.382357
149	0xbdb0e4aa	-0.08637364
150	0xbe46550c	-0.1936838
151	0xbde4735a	-0.11154814
152	0x3e3e1e5a	0.18566266
153	0x3e3ad5c4	0.18245608
154	0xbe04b874	-0.12960988
155	0x3d1d6c6e	0.038433485
156	0xbdc110b6	-0.094270155
157	0x3e9681d7	0.29395935
158	0xbe8da961	-0.27668288
159	0xbe39fccf	-0.18162845
160	0x3e14a006	0.14514169
161	0xbe28afec	-0.16473359
162	0x3e264524	0.16237313
163	0x3d88b1f0	0.06674564
164	0x3ddcc517	0.107797794
165	0x3e1d295a	0.15347806
166	0x3dad9286	0.08475213
167	0x3cbb4506	0.022860061
168	0x3e87f6cd	0.26555482
169	0xbd936dd8	-0.071986854
170	0x3d8cd9bd	0.06877468
171	0xbd231116	-0.039811216
172	0xbdb4728d	-0.08810911
173	0xbdbee6c2	-0.09321357
174	0xbe69ace6	-0.22819862
175	0x3e20d614	0.15706664
176	0x3c47fee6	0.012206769
177	0x3e0cc5f4	0.13747388
178	0xbd9f3955	-0.07774607
179	0xbe0465f5	-0.12929519
180	0x3e536df6	0.20647416
181	0xbdc115b9	-0.094279714
182	0xbe22ef40	-0.15911579
183	0x3cbfda34	0.023419477
184	0xbccc405d	-0.024933035
185	0x3df6a40a	0.12043007
186	0xbe20b319	-0.1569332
187	0xbe9aeebc	-0.30260265
188	0xbe64390d	-0.22287388
189	0xbcea9125	-0.028633663
190	0xbe1c3926	-0.15256175
191	0x3dae9fca	0.08526571
192	0x3decc042	0.11560108
193	0xbeada76c	-0.33916795
194	0xbd223eda	-0.03961072
195	0xbc3ecd0b	-0.011645566
196	0xbdfdeee5	-0.12399081
197	0xbe1a2b93	-0.15055685
198	0x3dad9a32	0.08476676
199	0xbe094623	-0.13405661
200	0x3e96059a	0.2930115
201	0xbcee7ee9	-0.02911325
202	0xbbf84489	-0.0075765294
203	0x3e11137a	0.14167586
204	0xbd1a6883	-0.037697326
205	0x3d6d2f0b	0.05790619
206	0xbe1d4a7d	-0.15360446
207	0x3eb9a561	0.36258987
208	0xbe98eee6	-0.29869765
209	0x3d899f1e	0.06719802
210	0xbea96c37	-0.33090374
211	0x3e3f03f7	0.18653856
212	0xbe186577	-0.14882456
213	0x3d9486b7	0.07252257
214	0xbcb90974	-0.022587515
215	0xbe05c46d	-0.13063212
216	0xbeb18e02	-0.34678656
217	0x3db9efba	0.09078927
218	0xbd808fc8	-0.06277424
219	0x3da3db9f	0.08000874
220	0x3d4bdc9a	0.04977093
221	0x3e6325c2	0.22182372
222	0xbdbdfd14	-0.092767864
223	0x3e1ff3cb	0.15620343
224	0xbe21da40	-0.15805912
225	0x3d27b059	0.040939663
226	0x3dcda2c1	0.100408085
227	0x3e0316c6	0.12801656
228	0x3e24c1a0	0.16089487
229	0xbe3fd4e0	-0.18733549
230	0x3e9834c0	0.29727745
231	0xbe4db707	-0.2008935
232	0xbd821ff8	-0.06353754
233	0x3e377163	0.17914347
234	0x3eeec6ff	0.46636197
235	0xbce18868	-0.027530864
236	0x3f0e7a0c	0.5565498
237	0x3e582096	0.2110618
238	0xbd79b217	-0.060960855
239	0xbddc96ab	-0.10770925
240	0xbdb09ccb	-0.08623656
241	0x3da128c3	0.07869103
242	0xbd609e42	-0.054838426
243	0x3e5adec1	0.21374036
244	0xbd1a13ae	-0.037616424
245	0x3d9cfb21	0.076650865
246	0xbe807934	-0.2509247
247	0x3e34a80d	0.17642231
248	0x3ec0924f	0.37611625
249	0xbe33d892	-0.17563084
250	0xbc80fb51	-0.015744837
251	0x3e535d24	0.20640999
252	0x3d6d626d	0.057955194
253	0xbc80d6dd	-0.015727455
254	0x3d942c1a	0.07234974
255	0x3eb2bae3	0.34908208

bias_ih_l0 f4 [52]
0	0x3dd2f813	0.10301223
1	0x3ded63b6	0.11591284
2	0x3d4b3906	0.04961493
3	0x3e196b3e	0.14982316
4	0x3e3a61aa	0.18201318
5	0x3c1cc63c	0.009568747
6	0xbe09e773	-0.13467197
7	0xbe3bbdd1	-0.18334128
8	0x3ddd30f5	0.108003534
9	0xbe47c6f6	-0.19509491
10	0x3cee26c1	0.029071214
11	0xbe83537f	-0.2564964
12	0xbe57ac74	-0.2106188
13	0x3bfc2333	0.0076946258
14	0x3e489e87	0.19591723
15	0xbd180e91	-0.037123267
16	0x3da78e67	0.08181458
17	0xbbd58221	-0.0065157567
18	0x3e5b01c4	0.21387392
19	0x3e85c9ad	0.2613043
20	0x3e266623	0.162499
21	0xbdc52f77	-0.09628194
22	0x3e2cdc17	0.16880833
23	0xbd857bbf	-0.06517743
24	0x3e63d518	0.22249258
25	0xbe60923e	-0.21930787
26	0xbd81b041	-0.06332446
27	0x3e50fc67	0.20408784
28	0x3d8762c7	0.06610637
29	0xbe100ea5	-0.14068086
30	0xbe661248	-0.22467911
31	0x3e6db534	0.23213655
32	0xbce3cccb	-0.027807614
33	0x3e42b42f	0.19014047
34	0x3e5d0d5e	0.2158713
35	0x3e511759	0.20419063
36	0xbe7ff351	-0.24995162
37	0xbd176e76	-0.036970578
38	0x3e152627	0.14565335
39	0xbd45ad2a	-0.048260845
40	0x3e7ba4ea	0.24574628
41	0x3e4510a9	0.19244637
42	0xbe1d30b8	-0.15350616
43	0xbe3a7bfc	-0.18211359
44	0xbd898c7b	-0.06716248
45	0x3e6d0afd	0.23148723
46	0xbe8e8235	-0.27833715
47	0x3dcfa893	0.10139575
48	0xbe68f59f	-0.22749947
49	0xbdbbc0f8	-0.09167665
50	0x3dbeacac	0.09310278
51	0x3e7b8e83	0.24566083

bias_hh_l0 f4 [52]
0	0xbd4f847d	-0.05066346
1	0xbbdfcdc1	-0.0068299477
2	0xbe399be8	-0.1812588
3	0x3e0718f1	0.13193108
4	0xbd9d5364	-0.07681921
5	0x3d1f8cf9	0.0389528
6	0xbe26c571	-0.16286255
7	0x3dcc249c	0.0996792
8	0xbb039469	-0.0020077473
9	0xbe711366	-0.23542556
10	0xbe456a75	-0.19278891
11	0x3e83b609	0.2572482
12	0xbd2df814	-0.042472914
13	0x3e01adeb	0.12664
14	0xbd42933f	-0.047503706
15	0xbdd402f0	-0.10352123
16	0x3d92365b	0.07139274
17	0x3e46d4b2	0.19417074
18	0x3e494932	0.19656828
19	0xbe3a7e79	-0.18212308
20	0x3d40832a	0.047000088
21	0x3d8b0e26	0.06789808
22	0x3cc341ee	0.023835149
23	0x3e610837	0.2197579
24	0x3d7d49f5	0.06183811
25	0xbe61ad9c	-0.22038883
26	0x3d755994	0.05989988
27	0x3e49b2b8	0.19697082
28	0x3e0a7303	0.13520436
29	0xbe0801a1	-0.13281871
30	0xbe18e6d7	-0.14931808
31	0x3e993d5e	0.29929632
32	0xbdf140e8	-0.11779958
33	0xbe097723	-0.13424353
34	0x3e1afe16	0.15135989
35	0xbe76ad68	-0.24089587
36	0xbdb91f74	-0.09039202
37	0x3e802fd7	0.250365
38	0xbe7f1b39	-0.24912728
39	0x3ddcd430	0.10782659
40	0x3e0b5611	0.1360705
41	0x3db708b3	0.08937206
42	0xbdef9e8d	-0.11700163
43	0xbdd8dea0	-0.10589337
44	0xbe48e18c	-0.1961729
45	0x3d918128	0.07104713
46	0x3e1f3c6e	0.15550396
47	0xbe1ff1c2	-0.15619567
48	0xbe3f35b8	-0.18672836
49	0x3e326051	0.17419554
50	0x3defdab8	0.11711639
51	0x3e79b643	0.24385934

weight_ih_l0_reverse f4 [52, 4]
0	0x3db058d4	0.086106926
1	0x3d28299a	0.0410553
2	0xbde21aa7	-0.1104024
3	0x3e0303b9	0.12794389
4	0xbe0cbc08	-0.13743603
5	0x3e17c933	0.14822845
6	0x3e08c1cd	0.13355179
7	0x3e85e432	0.26150662
8	0xbe56ce90	-0.20977235
9	0x3da9cd06	0.08291058
10	0x3e40c76c	0.18826073
11	0xbe9878ed	-0.2977976
12	0x3eb52eae	0.35387176
13	0x3e4b419d	0.19849248
14	0xbe1716d9	-0.1475481
15	0x3da53e34	0.08068505
16	0x3e398556	0.1811727
17	0x3d8cf376	0.06882374
18	0xbd98c02d	-0.074585296
19	0x3df3596f	0.118822925
20	0x3d5068a0	0.05088103
21	0x3cfc79e4	0.03081984
22	0xbde36097	-0.111024074
23	0x3f0f63e1	0.5601178
24	0x3e53d3da	0.20686284
25	0x3e9123fe	0.28347772
26	0xbd9bd762	-0.076094404
27	0x3e23c7e0	0.15994215
28	0x3e8148da	0.25250894
29	0x3e7c65fd	0.2464828
30	0x3d10b220	0.035326123
31	0xbdf5655b	-0.11982223
32	0x3ded074c	0.115736574
33	0xbd53977a	-0.05165813
34	0xbdde6723	-0.108595155
35	0xbea95df7	-0.33079502
36	0xbbb8391e	-0.0056220433
37	0x3da1fb0e	0.07909213
38	0x3d5fcaf5	0.054636914
39	0xbdcbe3c5	-0.09955553
40	0xbd871d2b	-0.0659736
41	0x3e2b6fdc	0.1674189
42	0xbe4d1873	-0.20028858
43	0xbe1bed93	-0.15227346
44	0xbda123f3	-0.07868185
45	0x3d1d6ccd	0.03843384
46	0xbed565c6	-0.4167921
47	0xbc37632b	-0.011193077
48	0xbed72557	-0.42020676
49	0x3d987c5b	0.07445594
50	0x3dfcab3a	0.123373464
51	0x3cd1410b	0.02554371
52	0x3e233c9b	0.15941088
53	0xbe132f54	-0.14373523
54	0x3cd73769	0.026271539
55	0xbd100a3d	-0.035166014
56	0x3de7579c	0.11296007
57	0x3cf74f28	0.030189112
58	0xbd83fff0	-0.064453006
59	0xbd992036	-0.07476847
60	0x3eebc544	0.4604894
61	0x3e725ad2	0.23667458
62	0xbc450988	-0.012026198
63	0xbe0d5b9d	-0.13804479
64	0xbd8df16b	-0.069308124
65	0xbecc12c4	-0.39858067
66	0x3dfddc3e	0.123955235
67	0x3e0875c9	0.13326181
68	0x3d51f018	0.051254362
69	0xbd7bbfb6	-0.061462127
70	0x3e3a1fbf	0.18176173
71	0x3e8949cd	0.26814118
72	0x3cf4dfc8	0.029891863
73	0x3e641b5c	0.22276062
74	0x3d1dc6b8	0.03851959
75	0xbeaad9fc	-0.33369434
76	0x3e0f5561	0.13997413
77	0xbd8d52ed	-0.069005825
78	0xbe0dab2e	-0.13834831
79	0xbdcfc59c	-0.10145113
80	0x3ec09cc3	0.376196
81	0xbd556594	-0.052098826
82	0x3e2105c3	0.15724854
83	0xbdb0fd41	-0.08642054
84	0xbcf8c24d	-0.030366087
85	0x3d737b09	0.059443507
86	0xbe092b1b	-0.1339535
87	0xbe19ee40	-0.15032291
88	0x3e12a659	0.14321269
89	0xbe0e0df7	-0.13872515
90	0xbb5e15aa	-0.0033887425
91	0x3e5d9b17	0.21641193
92	0x3df520a4	0.11969116
93	0x3a7a84fc	0.00095565594
94	0x3c1f0fd9	0.009708368
95	0xbdf9b573	-0.12192812
96	0xba306bd4	-0.0006729935
97	0xbdb04ae3	-0.086080335
98	0x3e643271	0.22284867
99	0x3c8576c5	0.016291985
100	0x3c98f3dc	0.018670969
101	0x3d43dace	0.04781609
102	0xbcae1e0f	-0.021254567
103	0x3e8761f8	0.26441932
104	0x3da9be53	0.082882546
105	0xbeb0d6d3	-0.34538898
106	0x3e3b1127	0.18268262
107	0x3dd94fa6	0.10610895
108	0x3d2df00c	0.042465255
109	0x3c75d69e	0.015004782
110	0xbe463bb8	-0.19358718
111	0x3df4d071	0.119538195
112	0x3de915c4	0.113811046
113	0x3e329559	0.17439784
114	0xbe06a9c0	-0.13150692
115	0x3dba262f	0.09089314
116	0xbd9c4a3f	-0.07631349
117	0xbe1c196c	-0.15244073
118	0x3e2bc290	0.16773438
119	0x3ebcfbd4	0.3691088
120	0xbe340ea1	-0.17583705
121	0x3ecf2946	0.40461177
122	0xbdb74c6b	-0.089501224
123	0x3dc1541b	0.0943987
124	0xbe101407	-0.1407014
125	0xbb7ca19a	-0.003854847
126	0x3e076fe3	0.13226275
127	0xbba5531c	-0.005045308
128	0x3c0d1727	0.008611477
129	0xbe3847a2	-0.17996076
130	0xbe322844	-0.17398173
131	0xbde85d54	-0.11345926
132	0x3e3014a8	0.1719538
133	0xbe4d73e3	-0.20063739
134	0x3d2144cd	0.039372254
135	0x3cf5b852	0.029995117
136	0x3e3e351d	0.18574949
137	0xbe0a8482	-0.1352711
138	0xbee3fd57	-0.4452922
139	0xbed29a36	-0.4113328
140	0x3da9d8d7	0.08293312
141	0xbefdfa4a	-0.49605018
142	0x3db84225	0.08996991
143	0xbcd8fe56	-0.026488464
144	0xbd8d266f	-0.06892096
145	0xbee58f2c	-0.44835794
146	0x3ea49a22	0.32148844
147	0x3d2a2f05	0.041548748
148	0xbe8229bb	-0.25422463
149	0x3e36cad3	0.17850809
150	0x3e5d8551	0.21632887
151	0xbe42fc5e	-0.19041583
152	0x3e9a47dd	0.30132952
153	0xbcd018c3	-0.025402432
154	0xbdb6274c	-0.08894214
155	0xbc33ea2f	-0.010981127
156	0x3e36f619	0.17867316
157	0xbe1fe685	-0.1561528
158	0xbdce53fc	-0.100746125
159	0xbe2d8761	-0.16946174
160	0x3eaa46be	0.33257097
161	0xbe1dac67	-0.15397798
162	0xbda92056	-0.08258121
163	0x3e58e8a1	0.21182491
164	0x3c6ead13	0.014567631
165	0x3da56e31	0.08077658
166	0x3ddcfdf7	0.107906274
167	0xbe8cb053	-0.27478275
168	0x3e641b1e	0.2227597
169	0xbdd505c0	-0.10401487
170	0xbd91d17c	-0.07120034
171	0x3d65ebc6	0.056133054
172	0x3e5c153f	0.2149248
173	0xbe34356e	-0.17598507
174	0xbe48a80e	-0.19595358
175	0x3df5ecee	0.120080814
176	0xbe7703ce	-0.24122545
177	0xbbcfd3b5	-0.006342376
178	0x3c673c80	0.014113545
179	0x3e53dc0a	0.20689407
180	0x3d0e9dd4	0.034818485
181	0x3e2f0049	0.17089953
182	0x3e02c3b0	0.12769961
183	0x3e9dc357	0.30813095
184	0xbd860896	-0.065446064
185	0xbc274374	-0.010208953
186	0x3e1bc1d3	0.15210657
187	0xbd19c688	-0.03754285
188	0xbd16b095	-0.036789495
189	0x3ed60719	0.4180229
190	0x3d1aedee	0.037824564
191	0xbe999bab	-0.30001578
192	0x3e7aa8c8	0.24478447
193	0xbc0020b8	-0.007820301
194	0x3e6f2ec1	0.23357679
195	0xbdddbd68	-0.10827142
196	0x3de39e6d	0.11114202
197	0x3d962f43	0.07333233
198	0x3e67ace4	0.22624546
199	0x3e2aea7f	0.16691016
200	0x3e8790be	0.26477617
201	0xbe91b43d	-0.28457823
202	0xbdd62193	-0.104556225
203	0xbcfb4d5c	-0.030676536
204	0xbc4eb31f	-0.012615948
205	0xbe01196e	-0.12607357
206	0x3d014474	0.031559423
207	0xbe8c31dd	-0.27381793

weight_hh_l0_reverse f4 [52, 13]
0	0x3c075468	0.00825987
1	0xbe407ffc	-0.18798822
2	0xbda4ce93	-0.080472134
3	0x3b904278	0.004402455
4	0x3e861ed7	0.26195404
5	0x3e854604	0.2602998
6	0x3e1664f2	0.14686945
7	0xbe8d65ac	-0.27616632
8	0xbe0f9a11	-0.14023615
9	0xbdb8b8b9	-0.09019608
10	0xbc016cfb	-0.007899518
11	0x3e69df40	0.2283907
12	0x3e63f36f	0.22260831
13	0x3e57beb4	0.21068841
14	0x3e18b56f	0.14912961
15	0x3df5dc77	0.12004941
16	0xbde71154	-0.11282602
17	0xbd93784a	-0.07200678
18	0x3e21a955	0.15787251
19	0xbdc05fe2	-0.09393288
20	0x3dd94c37	0.1061024
21	0x3d81175d	0.06303284
22	0xbd9a89eb	-0.07545837
23	0x3d9f87f9	0.077896066
24	0x3d6aabd0	0.05729276
25	0x3d80c407	0.06287389
26	0xbe3438db	-0.17599814
27	0xbdd7e1c2	-0.10541107
28	0xbd87e37d	-0.06635187
29	0xbd89b21b	-0.06723424
30	0xbe94f3d9	-0.2909229
31	0x3ce42e43	0.02785409
32	0x3c198f4d	0.0093725445
33	0x3e1fd24b	0.15607564
34	0x3b562d97	0.0032680982
35	0xbbbfbc92	-0.0058513368
36	0x3cb7dc00	0.022443771
37	0xbe28e399	-0.16493072
38	0x3b4ce8c0	0.003126666
39	0x3b20c2ff	0.002453029
40	0xbe34e91d	-0.1766705
41	0x3e305175	0.17218573
42	0xbe5353d5	-0.20637448
43	0x3e0573e3	0.13032489
44	0x3dc28dfd	0.09499738
45	0x3dacc63a	0.08436246
46	0x3c46a0e0	0.0121233165
47	0x3da4ab01	0.08040429
48	0xbe4ae6d6	-0.1981462
49	0x3da9763f	0.08274507
50	0xbdf7d61a	-0.121013835
51	0x3ad56e64	0.0016283509
52	0x3e340f25	0.17583902
53	0xbd84653c	-0.064646214
54	0x3e99cff5	0.3004147
55	0xbf204be4	-0.626158
56	0x3edab5ad	0.42716733
57	0x3d648fbf	0.05580115
58	0x3df45b6e	0.11931501
59	0x3e2dc86d	0.16970988
60	0xbe6c0b4c	-0.23051184
61	0x3e05f3f9	0.1308135
62	0x3dce7d1d	0.10082457
63	0xbd9744cd	-0.073861696
64	0x3e0ea01f	0.13928269
65	0x3d9deac2	0.07710792
66	0xbe6a48fd	-0.22879405
67	0xbe19733f	-0.14985369
68	0xbdbf313f	-0.09335565
69	0x3daff1b1	0.08591021
70	0xbe9d4850	-0.30719233
71	0xbe3b5f6d	-0.18298121
72	0x3dd250e3	0.10269334
73	0x3cea72ca	0.028619189
74	0x3c62bce7	0.013838983
75	0x3e4d2abc	0.20035833
76	0x3e69dd37	0.22838293
77	0x3e09db4b	0.1346256
78	0xbb9ca622	-0.0047805468
79	0xbe131c83	-0.14366345
80	0xbe6ce17f	-0.23132895
81	0xbd9b4a79	-0.07582564
82	0xbe052f9c	-0.13006443
83	0x3e8005ec	0.25004518
84	0x3cb2f46b	0.021845063
85	0xbe886f9a	-0.26647645
86	0x3dd05085	0.10171608
87	0x3de406f8	0.11134142
88	0x3da3bf8a	0.079955176
89	0xbdb21b3f	-0.08696603
90	0x3c7a4233	0.015274572
91	0x3ca2cf03	0.019874102
92	0x3d0e4304	0.03473188
93	0xbceadd7c	-0.028670065
94	0x3e339699	0.17537917
95	0x3d93eedb	0.072232924
96	0xbe3057a4	-0.17220932
97	0x3e0db9ba	0.1384038
98	0xbe6ca7ec	-0.23110932
99	0x3ee9813d	0.45606413
100	0x3e36a1c1	0.17835142
101	0x3c8b73b6	0.017022949
102	0xbe1b6746	-0.15176114
103	0xbd429715	-0.047507364
104	0xbded6990	-0.115924
105	0xbdc6add1	-0.097011216
106	0xbd5e9ffa	-0.054351784
107	0xbdaf01ff	-0.085453026
108	0x3dbc7a7c	0.092030495
109	0xbe502692	-0.20327213
110	0x3dcf561f	0.10123848
111	0x3ea56a94	0.32307875
112	0x3ecafd34	0.39646304
113	0xbd9a2cbe	-0.07528065
114	0x3e2a9f31	0.16662289
115	0xbe85e9fb	-0.26155075
116	0x3ea1e89e	0.31622785
117	0xbe28222e	-0.16419289
118	0xbe6e7a29	-0.23288788
119	0x3dd9f85b	0.10643073
120	0x3dbac9d6	0.091205284
121	0xbdb1cd51	-0.08681739
122	0x3d504142	0.050843485
123	0x3e4155c7	0.18880378
124	0x3e2be9ba	0.16788378
125	0xbe14b596	-0.14522395
126	0xbde32d54	-0.1109263
127	0xbe227762	-0.15865853
128	0xbe6914d9	-0.22761859
129	0xbcb8dc2e	-0.022565927
130	0xbc88afb3	-0.016685342
131	0x3e9368e8	0.28790975
132	0x3e54ffac	0.20800656
133	0xbda74e63	-0.08169248
134	0x3d325590	0.04353863
135	0xbd1ffacf	-0.03905755
136	0x3e8af23d	0.27137938
137	0xbdb90458	-0.09034032
138	0x3b934bbf	0.0044951136
139	0xbd8a363d	-0.067486264
140	0x3ea9a8a8	0.33136487
141	0x3e4a21c0	0.19739437
142	0xbeac63ab	-0.3366979
143	0xbdf8b473	-0.12143793
144	0x3e09b77e	0.13448903
145	0x3dd48d21	0.10378481
146	0x3d75d10e	0.060013823
147	0x3d962e9c	0.07333109
148	0x3e0c2add	0.13688226
149	0x3d2e5be4	0.042568102
150	0xbd6bb454	-0.05754502
151	0x3d640cf5	0.05567642
152	0xbe00f766	-0.12594375
153	0x3e865af8	0.2624128
154	0xbe9ec0ee	-0.3100657
155	0x3dd0bc5b	0.10192176
156	0xbde5cab6	-0.11220305
157	0x3e64f173	0.2235773
158	0xbe44b315	-0.1920894
159	0x3e08333d	0.13300796
160	0xbeb0b51d	-0.34513178
161	0x3e02a389	0.12757696
162	0x3d01d720	0.0316993
163	0xbdc86621	-0.097851045
164	0xbc214f27	-0.009845532
165	0x3ce5ec54	0.028066792
166	0xbe5ca65d	-0.21547838
167	0x3eaf82fc	0.3427962
168	0x3e28e006	0.16491708
169	0xbd3ba6fe	-0.045813553
170	0xbb4ac408	-0.0030939598
171	0xbe172e7d	-0.14763828
172	0x3e0adce3	0.13560824
173	0xbe270748	-0.16311371
174	0xbe9fde19	-0.31224135
175	0x3e1a4bf1	0.15068032
176	0x3d4a8119	0.049439523
177	0x3c021adb	0.007940973
178	0x3ea99bd0	0.33126688
179	0x3db31829	0.087448426
180	0xbe4b0718	-0.19826925
181	0x3da01364	0.078161985
182	0x3d49335e	0.049121253
183	0xbeade210	-0.33961535
184	0xbc2b13c3	-0.010441723
185	0xbd32e211	-0.043672625
186	0xbd768674	-0.06018682
187	0xbe2fb77e	-0.1715984
188	0x3e13eec6	0.14446554
189	0x3e3a8675	0.18215354
190	0x3dfd0112	0.1235372
191	0xbdafde50	-0.085873246
192	0xbec1bf0f	-0.3784108
193	0xbd9ce904	-0.07661632
194	0x3e8796a2	0.2648211
195	0x3d4ae591	0.049535338
196	0xbe4d1113	-0.20026045
197	0x3c49b36e	0.012310846
198	0x3bc4a96e	0.006001643
199	0x3e65e685	0.22451217
200	0x3d5e88d0	0.054329693
201	0xbdd78d31	-0.10524977
202	0xbe7b04a7	-0.24513493
203	0x3d450119	0.04809675
204	0xbe0a4458	-0.13502634
205	0xbd875083	-0.06607153
206	0xbcbfe94b	-0.023426672
207	0x3e043f52	0.1291478
208	0x3d4ee26d	0.050508905
209	0x3ec1dbc4	0.3786298
210	0x3e07153a	0.13191691
211	0xbc075bbe	-0.008261619
212	0xbea77e94	-0.3271376
213	0xbeb36ac6	-0.350424
214	0x3ecbf3fb	0.3983458
215	0x3df24a78	0.1183061
216	0x3e0e9c87	0.13926898
217	0x3e4e877f	0.20168875
218	0xbe38436b	-0.17994468
219	0xbeed6ad2	-0.4637056
220	0x3bc9dd50	0.0061604157
221	0x3e2278e3	0.15866427
222	0xbe05f5e8	-0.13082087
223	0x3d94dddf	0.07268881
224	0xbe49432d	-0.19654532
225	0x3e9620cb	0.29321894
226	0xbca761e5	-0.020432422
227	0xbe005c35	-0.12535174
228	0x3da11cf6	0.07866852
229	0x3ca1b74f	0.019740729
230	0xbe07e96b	-0.13272636
231	0x3c82bb72	0.015958522
232	0xbe7118da	-0.23544636
233	0xbe391c4a	-0.18077198
234	0x3dbb8f13	0.091581486
235	0xbde01051	-0.10940612
236	0x3e7879c9	0.24265207
237	0x3e22a896	0.15884623
238	0xbef9382e	-0.48675674
239	0x3e2aae2a	0.16668001
240	0xbc968299	-0.01837282
241	0x3eab52c2	0.33461577
242	0x3d4ce50f	0.050023135
243	0xbeabbf4d	-0.33544388
244	0xbcfe19c2	-0.031018142
245	0x3e98beab	0.29832968
246	0x3e373909	0.17892851
247	0xbc1e0443	-0.009644571
248	0x3d76746b	0.06016962
249	0xbe665410	-0.22493005
250	0x3e72395f	0.23654698
251	0x3e84b233	0.25917205
252	0xbe29fb71	-0.16599824
253	0xbdfce51c	-0.12348387
254	0xbe26f1c7	-0.16303168
255	0x3ea9f1c1	0.33192256

bias_ih_l0_reverse f4 [52]
0	0xbd9e8287	-0.0773974
1	0x3e28827d	0.16456027
2	0x3e1fc55d	0.15602632
3	0xbc6344c7	-0.013871378
4	0x3e7e2bbf	0.24821375
5	0xbe263929	-0.16232742
6	0x3e7bbdc1	0.24584104
7	0x3e13f051	0.14447142
8	0xbd6bde82	-0.057585247
9	0xbe04afb9	-0.12957658
10	0x3c22c5fc	0.0099348985
11	0x3e197c9e	0.14988944
12	0xbdb44ac5	-0.08803324
13	0x3c4d258d	0.01252116
14	0xbe709d0c	-0.23497409
15	0xbe4299ef	-0.19004034
16	0x3de78f91	0.1130668
17	0xbe18398c	-0.14865702
18	0x3e91f632	0.28508145
19	0xbe31ced1	-0.1736405
20	0x3c0894d7	0.008336267
21	0xbd0084d7	-0.031376686
22	0x3e33a613	0.17543821
23	0xbc9de9ad	-0.019276464
24	0x3e67e51a	0.22645989
25	0xbe7d2cbf	-0.247241
26	0xbe828832	-0.25494534
27	0xbe3b745e	-0.1830611
28	0xbd8c9356	-0.068640396
29	0x3d312cc4	0.043255582
30	0x3e854201	0.2602692
31	0x3bcf6ad1	0.006329872
32	0x3e099171	0.13434388
33	0xba00f925	-0.0004919938
34	0xbd6a4928	-0.057198673
35	0xbcb47349	-0.022027628
36	0x3e8f83ec	0.28030336
37	0x3e600a0c	0.21878833
38	0x3b8c2635	0.0042770156
39	0xbd13b71a	-0.03606329
40	0x3c6bb2e8	0.014385916
41	0xbe32728f	-0.17426513
42	0x3e376f2a	0.179135
43	0x3ceed823	0.029155796
44	0xbded3bee	-0.11583696
45	0x3da5a9b2	0.080890074
46	0xbe4f4ad3	-0.20243387
47	0xbcc40b99	-0.023931311
48	0x3dbf9bc6	0.09355883
49	0x3db476a3	0.08811691
50	0xbe44e79e	-0.1922898
51	0xbe38e72c	-0.18056935

bias_hh_l0_reverse f4 [52]
0	0xbe16420c	-0.14673632
1	0xbe221aa4	-0.15830475
2	0x3e08fd2d	0.13377829
3	0xbd949732	-0.07255401
4	0x3de3842c	0.11109194
5	0x3e7ae99a	0.24503174
6	0x3e93a205	0.2883455
7	0x3cf23810	0.029567748
8	0xbe1fd72b	-0.15609424
9	0xbe8598a1	-0.2609301
10	0xbe8b9921	-0.27265266
11	0xbe401196	-0.18756709
12	0x3e6b49c9	0.22977366
13	0x3d9b42d4	0.07581106
14	0x3e7692fa	0.24079505
15	0x3e29167a	0.1651248
16	0xbce82e6b	-0.028342446
17	0xbcd7386f	-0.026272027
18	0xbc792214	-0.015205879
19	0xbe6bd6bc	-0.23031133
20	0xbd761501	-0.060078625
21	0x3e757a33	0.23972397
22	0x3e45de74	0.1932314
23	0x3e6c16fb	0.23055641
24	0x3e950f94	0.29113448
25	0x3e4247a8	0.18972647
26	0xbd761286	-0.06007626
27	0xbd83ef61	-0.06442142
28	0xbc173d30	-0.009230897
29	0x3e49d520	0.19710207
30	0x3b6988ae	0.0035634446
31	0x3db89685	0.09013084
32	0xbe7696b1	-0.24080922
33	0x3e23e499	0.16005172
34	0xbe51f831	-0.20504834
35	0xbe2ba128	-0.16760695
36	0x3d206baf	0.039165195
37	0xbdc5c4de	-0.0965669
38	0x3cd8f13b	0.026482215
39	0xbd31e3fd	-0.043430317
40	0xbe12e9c4	-0.14346987
41	0x3e87dfc9	0.26537922
42	0xbd1a049f	-0.037602063
43	0xbe3f3435	-0.18672259
44	0x3e83095f	0.25593087
45	0xbde806fe	-0.11329459
46	0xbdaa80be	-0.08325337
47	0xbe46bcc9	-0.19407953
48	0x3dff55db	0.124675475
49	0x3e0e5646	0.13900098
50	0xbe6189d5	-0.22025235
51	0x3e454d77	0.19267832

weight f4 [16, 260]
0	0xbd1ab15f	-0.03776681
1	0xbe1063ad	-0.14100523
2	0xbdad09fd	-0.08449171
3	0xbc91338f	-0.01772478
4	0x3cf5b795	0.029994765
5	0x3d4e24bb	0.050327998
6	0x3d232f5c	0.039840087
7	0xbdc002e7	-0.093755536
8	0x3d477a19	0.048700426
9	0x3dca7efd	0.09887502
10	0xbd07ff07	-0.033202197
11	0x3d1694b8	0.036762923
12	0xbdc15d26	-0.09441595
13	0xbc06efce	-0.008235885
14	0x3dcbb71f	0.09947037
15	0xbe3dfd8b	-0.1855375
16	0x3c3e9f3a	0.011634642
17	0x3d77a283	0.060457718
18	0x3d8d6581	0.06904126
19	0xbe226bb0	-0.15861392
20	0x3993e327	0.00028207267
21	0xbd95895b	-0.07301589
22	0xbd5b5431	-0.053547088
23	0x3d742a79	0.059610818
24	0xbda8e00d	-0.08245859
25	0xbddb0a6a	-0.10695346
26	0xbd6d067f	-0.057867523
27	0x3ba91a79	0.0051606265
28	0xbcead98c	-0.028668188
29	0x3a6aa06a	0.0008950295
30	0xbda2ca97	-0.07948797
31	0xbe1b2cb9	-0.15153779
32	0xbd0552a1	-0.032549504
33	0x3d6af451	0.057361905
34	0xbcccc30e	-0.024995353
35	0x3d4b56d6	0.04964336
36	0xbdc9031a	-0.09815045
37	0x3bd90d37	0.00662389
38	0x3d3626e3	0.04447068
39	0xbbb6cd98	-0.005578708
40	0xbe382dd6	-0.17986235
41	0xbd6b7934	-0.057488635
42	0xbde9473a	-0.113905385
43	0x3e19a6e9	0.15005077
44	0xbc8ad0d3	-0.016945278
45	0x3e01043b	0.1259927
46	0x3e7996ae	0.24373886
47	0xbb9acb84	-0.004723968
48	0xbd9e54a4	-0.07730988
49	0xbd7ba051	-0.061432187
50	0x3db01528	0.08597785
51	0xbd7455c4	-0.059652105
52	0xbcfc5b72	-0.030805323
53	0x3da38895	0.07985035
54	0x3d255322	0.040362485
55	0xbd186738	-0.037207812
56	0xbda59223	-0.08084514
57	0x3b295e89	0.00258437
58	0x3a1fa42e	0.00060898333
59	0xbdbddcec	-0.09270653
60	0xbd1f843f	-0.03894448
61	0xbc237cee	-0.009978516
62	0xbc53a81c	-0.012918498
63	0x3d856bcb	0.065147005
64	0xbcabdc11	-0.02097896
65	0x3d141914	0.03615673
66	0x3d79bc6c	0.06097071
67	0xbd33e846	-0.043922685
68	0x3d7498cb	0.059716027
69	0xbd7b9f47	-0.061431196
70	0x3c1f0f80	0.009708285
71	0x3d241761	0.04006136
72	0xbbc7264e	-0.0060775643
73	0x3e306215	0.17224915
74	0x3d75a923	0.059975754
75	0x3dcfdb83	0.101492904
76	0xbe25f00a	-0.16204849
77	0x3d1e3591	0.038625304
78	0x3e01b237	0.1266564
79	0x3dd6d09e	0.10489009
80	0x3d3f3435	0.046680648
81	0x3dd6f5c5	0.104960956
82	0x3cb02349	0.0215012
83	0x3d9ed479	0.0775537
84	0x3bd2bb23	0.006431
85	0xbd954e27	-0.07290297
86	0xbda1ea0f	-0.07905971
87	0x3d46e165	0.048554797
88	0xbe6382bc	-0.2221784
89	0xbd571ec4	-0.052519575
90	0xbd290f63	-0.04127444
91	0xbded482f	-0.115860336
92	0x3d31e0b9	0.043427203
93	0x3d384104	0.04498388
94	0x3dc0b089	0.094086714
95	0xbce6bcbb	-0.028166166
96	0xbd7400ce	-0.05957108
97	0x3bba20bb	0.0056801713
98	0xbb8ce7bf	-0.004300087
99	0xbcdbb5fc	-0.026820175
100	0xbd3331bf	-0.043748613
101	0x3df6292b	0.12019571
102	0x3e3aac19	0.18229713
103	0xbe128267	-0.14307557
104	0x3e2141ad	0.1574771
105	0x3ccb7c71	0.024839612
106	0xbdaf2b50	-0.08553183
107	0x3deaabf7	0.11458581
108	0x3d429a9b	0.047510725
109	0x3deba6be	0.11506413
110	0x3de8e86b	0.11372455
111	0xbc7fdb68	-0.015616275
112	0xbda98c54	-0.082787186
113	0x3e390a53	0.18070345
114	0xbde8621f	-0.1134684
115	0x3cfd9ccf	0.030958561
116	0xbc059d96	-0.008155247
117	0x3cd2c3a3	0.025728052
118	0x3c93bb37	0.018033607
119	0xbde2f2b4	-0.11081448
120	0xbd9185ba	-0.071055844
121	0xbce39b90	-0.027784139
122	0x3cf8fdc4	0.030394442
123	0xbb8b3224	-0.0042479206
124	0x3cf25eaa	0.029586155
125	0x3da207ed	0.07911668
126	0xbcc64758	-0.024203941
127	0xbdc5f828	-0.09666473
128	0xbddc9b8b	-0.10771855
129	0xbc7cfcf4	-0.015441168
130	0xbd9d1160	-0.0766933
131	0x3c9c7815	0.019100228
132	0x3d13bb08	0.03606704
133	0xbc3d9b60	-0.011572689
134	0x3cda2683	0.026629692
135	0xbd969149	-0.0735193
136	0x3ceaf9b9	0.02868353
137	0xbe1f382b	-0.1554877
138	0xbe0ae9b6	-0.13565716
139	0x3d4b7315	0.049670298
140	0xbd43f2e1	-0.04783905
141	0xbd34b344	-0.044116274
142	0x3caffcba	0.021482814
143	0x3d51ac7d	0.05118989
144	0xbd673ae3	-0.056452643
145	0xbe0a61b5	-0.13513835
146	0x3d20f75d	0.039298404
147	0x3d8155bf	0.06315183
148	0x3d0b4f88	0.034011394
149	0xbdd0ebf1	-0.10201252
150	0x3c8a0aed	0.016850913
151	0x3d82a42a	0.06378968
152	0x3d1410e5	0.036148924
153	0x3e33e6e5	0.17568548
154	0x3e3c8293	0.18409185
155	0xbdc314c2	-0.095254436
156	0x3e448c0f	0.19194053
157	0x3c3ffc34	0.011717845
158	0x3e01672c	0.12637013
159	0x3db435a4	0.08799294
160	0xbd6ee5cd	-0.058324624
161	0x3da11228	0.07864791
162	0x3d0b74f8	0.034047097
163	0x3db5b090	0.08871567
164	0x3d407086	0.04698231
165	0xbc7310f0	-0.014835581
166	0xbd469576	-0.04848238
167	0xbd180d63	-0.03712214
168	0x3d35c186	0.04437401
169	0xbdac69a6	-0.08418588
170	0xbcc2eece	-0.023795512
171	0xbdc4eed0	-0.09615862
172	0xbc2fd75e	-0.0107325
173	0x3c545692	0.012960093
174	0xbd09da01	-0.03365517
175	0x3ce1db38	0.027570352
176	0x3dffb3cd	0.12485466
177	0xbc9a8ab7	-0.018864973
178	0xbdd6d8e4	-0.10490587
179	0xbde5439d	-0.11194537
180	0x3d7f7cfd	0.062375057
181	0x3cb301b9	0.021851407
182	0xbd979163	-0.07400777
183	0xbd3562a9	-0.044283543
184	0x3e504550	0.2033894
185	0xbcd26dce	-0.025687125
186	0xbd938ae2	-0.07204224
187	0x3cb49f99	0.022048758
188	0xbd8b7a86	-0.06810479
189	0x3dcd0bc8	0.10012013
190	0x3db25b67	0.0870884
191	0x3e1c8a81	0.1528721
192	0xbdea8662	-0.11451413
193	0xbc35b248	-0.011089869
194	0x3c70454a	0.014664957
195	0xbde7d83e	-0.11320542
196	0x3d64c233	0.055849265
197	0xbc71b3fe	-0.014752386
198	0x3d178805	0.036994953
199	0xbc222150	-0.009895638
200	0x3db053cb	0.08609732
201	0xbcec7078	-0.028862223
202	0xbd62b9c9	-0.05535296
203	0xbc3b0e9a	-0.0114170555
204	0xbe5b4d3c	-0.21416181
205	0x3cc5a991	0.024128707
206	0x3d0909ee	0.033456735
207	0x3bc73e86	0.0060804514
208	0xbcc58333	-0.024110412
209	0x3d860fd4	0.06545988
210	0xbdfbdb8e	-0.12297736
211	0xbd554b1f	-0.052073594
212	0x3e03a758	0.12856805
213	0x3dc14e93	0.09438815
214	0xbd12d447	-0.035846975
215	0x3ded23bd	0.11579082
216	0x3e1421a9	0.14465965
217	0x3df82c45	0.12117819
218	0xbd278473	-0.040897798
219	0x3d893273	0.066990755
220	0x3ce5a142	0.028030995
221	0xbcf727d1	-0.030170353
222	0x3df74455	0.1207358
223	0x3df2a137	0.118471555
224	0x3d168a1d	0.03675281
225	0xbdc9da5a	-0.098561004
226	0x3d8ce7b6	0.06880133
227	0x3ddb4247	0.10706001
228	0x3e14751e	0.14497802
229	0x3c0cd2f3	0.008595216
230	0xbce5e419	-0.028062867
231	0x3ba2bdb6	0.004966463
232	0xbdd9a430	-0.106270194
233	0x3da1b376	0.078955576
234	0xbd90e608	-0.07075125
235	0xbda6fae7	-0.081533246
236	0x3dd92052	0.10601868
237	0x3c61efab	0.013790051
238	0x3db40363	0.087897085
239	0xbd4ba540	-0.04971814
240	0xbd02805d	-0.031860698
241	0xbcb6c931	-0.022312732
242	0xbd198925	-0.037484307
243	0xbd95106d	-0.072785236
244	0x3dff0073	0.124512576
245	0x3dea9ea7	0.11456042
246	0x3d175c7e	0.03695344
247	0xbd569365	-0.05238666
248	0xbda843d7	-0.082160644
249	0xbaa09dbb	-0.0012254039
250	0x3b0c26f3	0.002138552
251	0x3d072e8c	0.033003375
252	0xbd9696d8	-0.0735299
253	0xbd40bc4d	-0.047054578
254	0x3e0ffeef	0.14062093
255	0x3de3c169	0.111208744

bias f4 [16]
0	0x3d1d17ff	0.038352963
1	0x3d1c51c2	0.038163908
2	0xbcdb9857	-0.02680604
3	0x3d278415	0.040897448
4	0xbcabe7aa	-0.02098449
5	0x39df4a5a	0.0004258927
6	0xbd5973a0	-0.053088784
7	0xbd315021	-0.043289308
8	0xbd691963	-0.056908976
9	0x3d1ac576	0.03778597
10	0xbcb1d001	-0.02170563
11	0x3d6fad00	0.058514595
12	0x3ccbec91	0.024893077
13	0xbbe9168c	-0.0071132835
14	0x3cad633b	0.02116548
15	0xbd51bb68	-0.051204115

weight f4 [19, 16]
0	0x3f0c3ac2	0.5477716
1	0xbe2fd373	-0.17170505
2	0xbe4108fe	-0.18851086
3	0xbe7c7a99	-0.24656142
4	0x3e558776	0.20852455
5	0x3f06e772	0.5269691
6	0x3eb2e475	0.34939924
7	0xbe48e047	-0.19616805
8	0x3d81a5e0	0.06330466
9	0x3e0972cd	0.134227
10	0xbe1bfc8e	-0.1523306
11	0xbdb5ca01	-0.0887642
12	0xbd0a0293	-0.03369386
13	0xbef91e08	-0.48655725
14	0xbcd80ea8	-0.026374176
15	0x3db73c94	0.08947101
16	0xbea3cc7c	-0.31991947
17	0x3e8351c1	0.2564831
18	0x3e35cd33	0.17754059
19	0x3d606bac	0.054790184
20	0xbe2568f4	-0.16153318
21	0xbe7269e7	-0.23673211
22	0xbe9cd898	-0.30633998
23	0x3ef93450	0.48672724
24	0xbf07ee3b	-0.53097886
25	0x3df0039d	0.11719439
26	0xbef76ed5	-0.48326746
27	0xbcc6c123	-0.024262017
28	0xbc9a1f18	-0.018813655
29	0xbeb2407a	-0.34814817
30	0xbbc216ed	-0.005923143
31	0xbeb3d00e	-0.3511967
32	0xbe0e603e	-0.13903901
33	0x3d6aea70	0.057352483
34	0x3ecef68e	0.4042248
35	0x3e7de4ca	0.24794307
36	0xbe2c0cca	-0.16801754
37	0x3db52699	0.088452525
38	0x3e9b43a3	0.3032504
39	0xbe7a1c93	-0.24424963
40	0x3ea1e39f	0.31618974
41	0xbf1ce6fd	-0.6128996
42	0xbbf5faad	-0.0075066895
43	0xbf4d9192	-0.8030025
44	0x3e1d28c9	0.1534759
45	0x3c4be603	0.012444976
46	0x3cc86f6c	0.024467193
47	0xbc137697	-0.009000442
48	0xbe143c9a	-0.14476243
49	0x3eb5c79a	0.35503846
50	0xbe8e7dc0	-0.27830315
51	0xbd135776	-0.03597208
52	0xbd9becac	-0.07613501
53	0x3d699ec2	0.05703617
54	0x3f0df7b1	0.5545607
55	0x3e935fae	0.28783935
56	0xbd4ecca7	-0.05048814
57	0xbdbe6591	-0.09296716
58	0x3d6f635e	0.058444373
59	0xbed3b645	-0.41349998
60	0x3eab3e03	0.3344575
61	0x3e8f6691	0.2800794
62	0xbd14f594	-0.036367014
63	0x3cb248e7	0.021763278
64	0xbccdf684	-0.025141962
65	0xbe8970eb	-0.26843962
66	0x3eabe2a3	0.33571348
67	0x3def3ffb	0.11682125
68	0xbeb2a902	-0.34894568
69	0xbe866a90	-0.26253176
70	0x3e3199c5	0.17343815
71	0x3ea3a6f2	0.31963307
72	0xbe90f50d	-0.2831196
73	0x3dec4045	0.11535696
74	0xbe3bc929	-0.18338455
75	0x3f25bc17	0.6474013
76	0xbe42ddd8	-0.19029939
77	0x3eb813cc	0.35952604
78	0xbddff656	-0.10935657
79	0x3c44fb12	0.01202275
80	0x3f0554fd	0.52082807
81	0xbd1e0d69	-0.038587008
82	0x3e37b967	0.17941819
83	0xbec8b820	-0.39202976
84	0x3e0beca7	0.13664494
85	0xbe2b558b	-0.16731851
86	0xbe298808	-0.16555798
87	0xbd095e4a	-0.033537187
88	0xbd466ba0	-0.048442483
89	0x3dc5490b	0.096330725
90	0x3e251964	0.16122967
91	0xbe5268db	-0.20547812
92	0x3d3342dd	0.043764938
93	0x3eb19943	0.34687242
94	0x3d0d3508	0.034474403
95	0xbe5e283a	-0.21695033
96	0x3ecfa620	0.4055643
97	0xbdc74a1c	-0.09730932
98	0xbe7ca3a8	-0.24671805
99	0xbe4db3c8	-0.20088112
100	0xbe251ad8	-0.16123521
101	0xbed8e74b	-0.42363963
102	0xbe85b70f	-0.26116225
103	0x3f061046	0.5236858
104	0xbca593c8	-0.02021207
105	0x3ee5489e	0.44781965
106	0x3e038bc9	0.12846293
107	0x3e41dbe0	0.18931532
108	0xbe62bb14	-0.22141677
109	0x3db31be8	0.08745557
110	0x3da46274	0.08026591
111	0xbe99a7f6	-0.30010957
112	0xbdd98e1c	-0.10622808
113	0x3b029048	0.0019922424
114	0xbd9b1ffa	-0.075744584
115	0x3e4da115	0.20080979
116	0xbe000fe0	-0.12506056
117	0x3e7974f8	0.24361026
118	0xbd9fd7b9	-0.07804818
119	0x3e8bdaef	0.2731547
120	0x3e81be4d	0.253405
121	0xbe94ce2a	-0.2906354
122	0xbd5aa8e8	-0.053383738
123	0x3d582701	0.052771572
124	0xbc8c0e39	-0.017096626
125	0xbdf97089	-0.121796675
126	0x3cb6a5c5	0.022295842
127	0xbdd9c6c4	-0.10633615
128	0xbd98e5b4	-0.074656874
129	0x3d7dafc3	0.061935198
130	0xbe279930	-0.1636703
131	0xbf097934	-0.53700566
132	0xbd6c30a8	-0.05766359
133	0x3ed6a142	0.41919905
134	0xbda31498	-0.07962912
135	0x3d16e650	0.036840737
136	0xbbd0e2d4	-0.0063746963
137	0xbec34ff3	-0.38146934
138	0xbdddfb9e	-0.10839008
139	0xbe44ab95	-0.19206078
140	0xbe43ea24	-0.19132286
141	0x3dd70971	0.10499848
142	0xbd8619fc	-0.06547925
143	0x3e720e71	0.23638321
144	0xbc8e3b8f	-0.017362384
145	0x3f037244	0.5134623
146	0xbe169511	-0.14705302
147	0x3eabf6c3	0.33586702
148	0xbe9980be	-0.29981035
149	0xbd2b9919	-0.041894052
150	0x3da2f503	0.079568885
151	0xbe9d7c50	-0.30758905
152	0xbdc645c0	-0.096812725
153	0x3f00af3b	0.5026738
154	0xbea362c9	-0.31911305
155	0xbea68c09	-0.32528713
156	0x3ea083e8	0.31350636
157	0xba23f606	-0.0006254617
158	0xbd0f2d5f	-0.03495538
159	0x3ebb2cf8	0.36557746
160	0xbe2c64da	-0.16835347
161	0x3bebc35d	0.00719492
162	0x3cc0ea8a	0.023549337
163	0xbe648b55	-0.22318776
164	0x3eeb072a	0.45903903
165	0x3d836b94	0.06417003
166	0xbe20d84c	-0.1570751
167	0xbe3ab16b	-0.18231742
168	0xbeb7dc6a	-0.3591035
169	0xbe89f29d	-0.26942912
170	0x3e0fe552	0.14052323
171	0x3e9c3ec5	0.3051664
172	0x3ba84819	0.005135548
173	0x3e639f39	0.22228707
174	0x3e106cc0	0.14103985
175	0x3e52aa25	0.20572717
176	0x3de47571	0.11155213
177	0xbd5d3bb4	-0.054012015
178	0x3eec6e26	0.46177787
179	0x3e2082e7	0.15674935
180	0xbe242d25	-0.16032846
181	0x3d90998f	0.07060539
182	0x3d6c3350	0.057666123
183	0x3e0f7d53	0.14012651
184	0xbf4df18d	-0.804467
185	0x3d982a49	0.0742994
186	0xbe9816c1	-0.2970486
187	0xbe09d447	-0.13459884
188	0x3cf1cecf	0.02951756
189	0x3d84e795	0.06489483
190	0xbd9c9ac8	-0.0764671
191	0xbeed7b61	-0.46383193
192	0x3e053597	0.13008724
193	0xbe1e1bd0	-0.15440297
194	0x3e97b916	0.29633397
195	0x3f252a0c	0.64517283
196	0xbdbf093f	-0.093279354
197	0xbdb2cac4	-0.08730081
198	0x3d367361	0.044543628
199	0xbe0a8c6d	-0.1353013
200	0x3f4fc92f	0.81166357
201	0xbed63955	-0.41840616
202	0x3db548dc	0.088517874
203	0xbeb2b53f	-0.34903905
204	0xbbe36adc	-0.006940229
205	0x3cd94c51	0.026525648
206	0x3ec5657b	0.38553986
207	0xbe074d59	-0.132131
208	0xbe100177	-0.14063059
209	0x3e89cbff	0.2691345
210	0xbe7421f2	-0.23841074
211	0xbe0eb084	-0.13934523
212	0xbe202dbe	-0.1564245
213	0x3c3e3726	0.011609828
214	0x3e0966f9	0.13418187
215	0x3d96d162	0.07364155
216	0xbc3a009c	-0.011352684
217	0xbdf3105f	-0.11868357
218	0x3e3e3332	0.18574217
219	0x3e0d3fa5	0.1379381
220	0xbcb24c08	-0.02176477
221	0x3e3e3552	0.18575028
222	0xbe761a0b	-0.24033372
223	0x3dca19db	0.09868213
224	0xbe1ac4c5	-0.15114124
225	0xbe44726c	-0.19184273
226	0x3d832fae	0.064055786
227	0x3ebd10bf	0.3692684
228	0xbe09ef69	-0.13470234
229	0xbd8eacfb	-0.06966587
230	0x3db913c5	0.09036974
231	0x3e87000e	0.2636723
232	0x3d0e0613	0.03467376
233	0x3d95dd8b	0.073176466
234	0x3eae2475	0.3401219
235	0xbe294ad9	-0.16532458
236	0xbe672e30	-0.22576213
237	0x3df8fd43	0.12157681
238	0x3eb249bb	0.34821877
239	0x3e09b002	0.13446048
240	0xbdf72042	-0.120666996
241	0x3da6efaa	0.08151181
242	0xbe3ced05	-0.18449791
243	0x3ef135f2	0.4711147
244	0xbe7cb99b	-0.24680178
245	0x3ca7660c	0.020434402
246	0xbe1472d0	-0.14496922
247	0x3e9fc955	0.31208292
248	0xbd86e8ca	-0.0658737
249	0x3eb35e29	0.35032776
250	0xbe22fce9	-0.1591679
251	0xbdc989f3	-0.09840765
252	0x3e42421c	0.18970531
253	0x3d7a2470	0.061069906
254	0xbec5c1ba	-0.38624364
255	0xbd601d75	-0.054715592

bias f4 [19]
0	0xbcacbdc5	-0.021086583
1	0x3e18ca72	0.14920977
2	0x3dcd58a6	0.10026674
3	0x3d36ff81	0.04467726
4	0xbdaec2e7	-0.085332684
5	0xbe23ce0c	-0.1599657
6	0x3e33bff7	0.17553698
7	0xbd06b72f	-0.03288954
8	0x3cb7b78c	0.02242639
9	0xbe050836	-0.12991413
10	0xbe6b9396	-0.23005518
11	0xbc5b9396	-0.013401886
12	0x3da28846	0.07936148
13	0xbe768f80	-0.24078178
14	0x3e0a3029	0.13494934
15	0x3e5910cb	0.21197812
16	0xbe01dff8	-0.12683094
17	0x3dbc37ea	0.09190352
18	0x3d03cf6e	0.032180242
