models/a19lds19b0.007g0.02d2h13.pt (torch, 126707 bytes, 26 tensors)

weight_ih_l0 f4 [52, 4]
00000000: 676a dbbd 10e9 fcbd 99df 023e 4a6f aa3c
00000010: 94b1 e2be 41a1 8f3e ddca 943e 7bfa 82be
00000020: 7e34 32be a95f 97bd d2f8 8abe e889 e43e
00000030: 4cc2 c43e 1393 b3be 27d5 1cbe 9ff0 443e
00000040: f7e6 a23e 7138 f63e 8b7f 793e cd70 1d3f
00000050: 760c d6bd cb8d dcbd 1917 8bbe ef22 cb3e
00000060: 5895 bcbd 2e6b c33e 6365 a53e f76f bf3e
00000070: 51c7 c53d 7514 1b3f a1a8 5f3d 5f50 b23e
00000080: 203f bb3e 8de0 19be d56b df3d 14a5 b23e
00000090: 3b97 1d3e 0c50 2b3f e8e9 523d 95e7 b83e
000000a0: b03b b83e 184e 8d3e a8a4 b8bd a048 2a3e
000000b0: a90e 0b3e 58ee 4a3e 2476 ba3d 62e5 9ebd
000000c0: 2d5b f23d 0526 ab3c aefb 833d 63cf d73e
000000d0: 62b3 b13e 6ec7 743e 62b6 e83e 43a1 663e
000000e0: fedb 68be 2798 453e 9d45 c53e 7012 283e
000000f0: f832 bf3d eb29 72be e3ad a5bd 5ca7 d73e
00000100: 5980 cfbd f68b 2cbe 46f8 19be f2c2 c7be
00000110: a65f b6be 2c85 873e 5cb1 d4be db93 52be
00000120: 36a1 683e 67a3 443e 5564 c53b 9b64 033e
00000130: cbcf f83e 0688 a4be eaf4 37bd 5290 af3e
00000140: 510f 3e3e aad7 ed3e 6919 823d b062 f9be
00000150: ddcf 5fbd 1e1d febe bdd5 5abe fdba fabe
00000160: e6dd ddbe b063 123f 5023 5d3e 7964 84be
00000170: cb5d 573e a964 f13d 8493 a5bb 9002 813d
00000180: 7a41 8a3e 817f e8bd 9c54 303e 6188 4c3e
00000190: 4f39 23be aee1 a5be e048 be3e 2fc6 09be
000001a0: c6a8 27be 3db2 8fbd c278 1f3e 37ea bdbe
000001b0: 9285 26bd f6f1 c7be d2e8 e7be ca1e 1a3e
000001c0: 006b b53e 1b2f 83be 1aeb 77ba 6999 fb3e
000001d0: 0e54 c43e 6ed6 5a3e e320 63be d57c d3be
000001e0: 49d6 35bc e5c8 5cbe 482f 683f dacb 5bbe
000001f0: c9ec ab3e 9550 a33d 9d89 a6be 292c 783d
00000200: b594 303e a2ab e4be caaa 24bc c1c7 91be
00000210: 2f26 f53a 7a33 96be b91c 48be fc3c d03e
00000220: b37a aa3e 1ed4 cebe c89e 0dbe 9c51 3a3f
00000230: 3bee 77bc d15e 993e 789f f93d 8316 31be
00000240: 5d2c fc3e a66f 6e3e cb1b d6be 660a 063f
00000250: 911c 293e dc86 0cbe 7b1a 403e 3e08 e9bd
00000260: db81 95bd e9fa 1fbf c5d3 843d 385f 16bd
00000270: 4112 863e ed08 50bc a93c f93d 2dc4 503e
00000280: 547f 253c 8e51 f53d 931e 6abe fe88 313d
00000290: 959c c8bc 3e07 50be e261 343e 9990 d93e
000002a0: 9809 113f 8525 623c 1cf8 e93e 3a77 103e
000002b0: 18af 94bd c751 383e 48c5 92bc 7d38 0e3f
000002c0: 2ab1 1b3e d867 ebbe 46c1 cc3e 36ba 3cbe
000002d0: 5777 a03e 3aae 6c3e 2247 fd3d f497 753d
000002e0: 4ad0 ccbd aba3 e83e 9905 67be e05b 6abe
000002f0: 07a2 a93e 6fce b33e c941 8c3d 7c73 3c3e
00000300: 82c9 babc 2c20 963d d367 d23e 0aac 41be
00000310: b1af b5be 83b9 8bbd d953 2c3e 22ab b83e
00000320: 3d05 2a3f af2b 7b3e 4214 0abf 3ffe c2be
00000330: 62d2 bc3e 9277 3abe d5f1 fd3d d00c 0fbe
-0.10713654 -0.12349141 0.12780608 0.02080502 -0.44276106 0.28052714 0.29061022 -0.25581726
-0.17402837 -0.073912926 -0.2714296 0.44636464 0.38429487 -0.35073146 -0.15315686 0.19232415
0.31816837 0.48089936 0.2436506 0.61500245 -0.104515955 -0.10769232 -0.2716606 0.3967509
-0.092081726 0.3816771 0.32303914 0.3739011 0.09657157 0.6057809 0.054604176 0.34826943
0.36571598 -0.15027066 0.10909239 0.3489157 0.15389721 0.66919017 0.0514926 0.36114183
0.35983038 0.27598643 -0.09015781 0.16629267 0.13579811 0.19817483 0.09104565 -0.07758595
0.11833797 0.020892153 0.064444885 0.4215041 0.3470717 0.23904201 0.45451647 0.22522454
-0.2274017 0.19296323 0.38529673 0.16413283 0.093358934 -0.23648803 -0.08089807 0.42119873
-0.10131902 -0.16850266 -0.15036115 -0.3901592 -0.3561985 0.2646879 -0.41541564 -0.20564215
0.22717747 0.19202958 0.0060239234 0.12831347 0.48596033 -0.32135028 -0.044911303 0.34289795
0.1856053 0.464536 0.06352503 -0.48708105 -0.054641593 -0.4963159 -0.21370597 -0.48970786
-0.43333358 0.5718336 0.21595502 -0.25857905 0.21031873 0.117867775 -0.0050529856 0.06299317
0.2700308 -0.113524444 0.17219776 0.199739 -0.1593983 -0.32398742 0.37164974 -0.13454507
-0.16372976 -0.07016418 0.15573409 -0.37092754 -0.040654726 -0.3905179 -0.45294815 0.15050808
0.35433197 -0.25621876 -0.0009457335 0.4914048 0.3834538 0.21370861 -0.22180514 -0.41306177
-0.011098453 -0.2156101 0.90697145 -0.21464482 0.3357909 0.07974354 -0.32526866 0.06058899
0.17244227 -0.44662195 -0.010050485 -0.28472713 0.0018703396 -0.29336149 -0.19542207 0.40671527
0.33296737 -0.40396208 -0.13830101 0.72780776 -0.015132482 0.29955152 0.121886194 -0.17293744
0.49252596 0.23284778 -0.4181808 0.52359617 0.16514803 -0.1372332 0.18760101 -0.11378525
-0.073001586 -0.62492234 0.06485704 -0.0367119 0.26185802 -0.012697441 0.12169773 0.20387335
0.010101158 0.11978446 -0.22863226 0.043343537 -0.024488727 -0.20315263 0.17615464 0.42493132
0.56655264 0.013802891 0.45697105 0.14107981 -0.07259959 0.17999946 -0.017916337 0.55554944
0.15204301 -0.45977664 0.39991206 -0.18430409 0.3134105 0.23113337 0.12367083 0.059959367
-0.100006655 0.4543737 -0.22560729 -0.2288661 0.3313143 0.35118434 0.06848485 0.18403429
-0.022801165 0.07330355 0.41094837 -0.18913284 -0.35485604 -0.06822493 0.1682886 0.36068064
0.66414243 0.24528383 -0.5393716 -0.380846 0.3687926 -0.18209675 0.123996414 -0.13969731

weight_hh_l0 f4 [52, 13]
00000000: 2cdf dabd 2b38 04be 475a 593e 0a24 95be
00000010: f48b ca3d 59ed 843e 6b73 ccbe fab5 6cbe
00000020: 5ab6 5a3e b5b1 963e 751e 6fbe 8379 913d
00000030: ab5d cabd 50b6 ffbc 9ca7 173e 3302 cb3d
00000040: 8b44 d7be 8924 c13d 8567 0e3d 1e98 ebbe
00000050: 75be 833d e953 87be e4d3 cd3e 6ef9 6c3e
00000060: 51dd 023d 28b4 96bd 681d 7f3e 5c77 8fbe
00000070: b5c5 293d 34dd b6bd 6bef 973d eed6 99be
00000080: dd11 8f3e ab8a 2b3e dbc3 723e dd48 81bd
00000090: 3089 d73e 649e 8d3e 5c83 9a3e 945e 8abe
000000a0: 6c71 c1be be74 5abc a027 1c3e 2ce6 ffbd
000000b0: 9b24 c9be 806f 6cbd 0407 b4bd 7da8 1cbf
000000c0: 7378 d03e 7d74 be3e c921 9b3e 4c81 aa3d
000000d0: b1a4 64be d00a f9be bcea 003f e7c8 0a3e
000000e0: b700 aa3d 7206 0ebe 3094 763e 54cd e5be
000000f0: a5d3 7abe 7326 af3e cdd9 463e e0e4 2c3f
00000100: 4033 fd3e 7ad3 b9bd 09cb 963e 3c90 8e3d
00000110: 99fb cf3d 9076 153e cdd7 e1bc 8ea3 983e
00000120: 3f15 b0be 7e49 853e 64ce c33d 27b6 723d
00000130: 08c8 38be da01 2a3e 7b4b a73e 1d65 6abe
00000140: 4226 de3d 9bc0 8dbe 1e41 a03e 771a cbbe
00000150: 805d 4ebe ccdb abbe 40c9 b23c 322a 913d
00000160: 7126 a63e 00a7 db3d 0733 323f 80c0 41be
00000170: 675c d3bd 09a0 37be 90ea 02be 3838 673c
00000180: c15e 36bd 2fc2 b1be 2d7b eb3c e4bb 06bf
00000190: 2369 aabd 55d8 f43d 29a8 033f 7b2e 93bd
000001a0: 0cb0 97be 99bd ffbe 66c0 923e 4c38 033e
000001b0: abf3 cabd dd3b 5fbe dbaa 043f 6dfa 7fbe
000001c0: de49 81be 5e6c 693e 017c 71bb f03a 603f
000001d0: ba47 613e 3735 213d 0e06 903c f0a4 8ebe
000001e0: 22be 1abe 7e32 223d d4a3 ccbe c307 cdbe
000001f0: 2870 8a3e 54bf 23be 2622 cf3c fc79 703e
00000200: 3900 8fbc a875 6c3d 3491 5bbb 41cb 14bf
00000210: f1d6 88be e2b2 07bc a12f 453e e95d 9ebc
00000220: ec87 e6bd c43a 7bbe 6971 03bf 7c7a d03e
00000230: 39c7 c2bc e48b d8bc cc47 883c 39fb adbd
00000240: afb1 ad3d d1c4 993d aa4a bc3e edd5 963e
00000250: 8c66 293e 0187 ff3e 90af 6a3e 92db 91be
00000260: 44a8 dc3e a4ea 67be 7966 853e b6ea 163f
00000270: be2f 113e 357b da3c 94e2 b5be eb5c 773e
00000280: a28e 64be bc6a 9bbe b6b5 ab3e 4a13 81be
00000290: d56e 2d3e dd00 a0bc 7e6a 8dbc a7e2 bf3d
000002a0: 1eee c93e cbd3 e6bd 7279 54bb add2 383c
000002b0: 9da5 8ebe ca3d 193e c906 cf3d 2aa9 593e
000002c0: e828 0c3c 4fd0 053e a4c1 f83c 6b73 efbd
000002d0: 34a6 b13e 40bd 853e b5c3 b0be a082 603e
000002e0: 44d8 bc3d 5029 c1be f25d d73b 8af0 3dbe
000002f0: 654f a1bd 7568 0a3e cc7b afbd 54f2 03be
00000300: 5b87 873e e480 d73d 4323 103d 7abd 933d
00000310: 70b1 b9bb b3a4 fc3e 825c 2cbd 11e6 4bbe
00000320: 6242 093f 9584 a4bd 0c45 d8bd 193a 39be
00000330: c2c5 303e b093 ff3d a29c 4f3e 1467 893d
00000340: e634 823d 1396 abbd c22a 3ebe 284b d63d
00000350: f7b4 9cbe e6d9 b53d cd67 debd 095e 733d
00000360: b8e0 b8be 8ce7 833e bcc5 503e 8db9 8f3e
00000370: 8f10 7f3b 2596 ec3d ffed 3d3e 5560 aebe
00000380: 637a b43e d9cc 49be abac 9c3e 701f e33e
00000390: efb7 943e c4ef bf3e 2230 0fbf e3fd 08bd
000003a0: 5328 edbd 49ff 83bd 3e11 013e 7bb7 44be
000003b0: ca72 50bc 6fe6 0f3f 11be 4a3e 9454 cfbd
000003c0: f349 fdbd cf96 9f3d 2096 72be 108a 0a3e
000003d0: 5ba9 793e 4cf3 923e dab5 3abc 322b 8cbe
000003e0: 92ba 86bd ec00 2c3e f602 ebbe a83b 07be
000003f0: 2836 26be 18b7 d7be a908 f4bc 3962 24be
-0.10687098 -0.12912051 0.21225844 -0.29129058 0.09889975 0.25962332 -0.39931807 -0.23116294
0.21358624 0.29432455 -0.23351462 0.07103255 -0.09881147 -0.031214863 0.14810032 0.09912529
-0.42044482 0.09430797 0.034766693 -0.46014494 0.06432811 -0.26431206 0.40200722 0.23142025
0.031949345 -0.07358581 0.24913561 -0.2802075 0.041448314 -0.0892891 0.07418712 -0.3004679
0.27943316 0.16752116 0.23707525 -0.06312726 0.42096853 0.27659905 0.30178344 -0.27025282
-0.37781847 -0.013333498 0.1524949 -0.12495074 -0.3928574 -0.057723522 -0.087904006 -0.6119459
0.40716895 0.37198249 0.30299214 0.08325443 -0.2232845 -0.48641062 0.50358176 0.135532
0.083009176 -0.13869646 0.24079967 -0.44883215 -0.24494798 0.34209022 0.19419022 0.67536736
0.49453163 -0.09073539 0.2945178 0.06961104 0.1015541 0.14596009 -0.027568722 0.29812282
-0.3439121 0.26032633 0.0956085 0.059255745 -0.18045056 0.16602269 0.32674775 -0.22890134
0.10847141 -0.2768601 0.3129968 -0.3966863 -0.20152855 -0.3356613 0.02182448 0.07088126
0.32451203 0.10725212 0.6960911 -0.18921089 -0.10320359 -0.17932142 -0.12784791 0.014112525
-0.044523958 -0.34718463 0.028745258 -0.5263045 -0.083208345 0.119553246 0.5142847 -0.071866
-0.296265 -0.4994934 0.28662413 0.12814444 -0.09909757 -0.2180018 0.51823205 -0.24997874
-0.2525167 0.22795245 -0.0036847594 0.8758993 0.22000018 0.03935739 0.017581012 -0.27860212
-0.15111592 0.039598934 -0.3996874 -0.40044984 0.27038693 -0.15990955 0.025284838 0.23484033
-0.01745616 0.057729393 -0.0033503296 -0.5812264 -0.26726487 -0.008282395 0.1925645 -0.01933189
-0.11256394 -0.24534136 -0.51344925 0.40718448 -0.023776637 -0.026433893 0.016635798 -0.084951825
0.08481156 0.07508243 0.36775714 0.29460087 0.16543025 0.49907687 0.22918534 -0.2848783
0.43097126 -0.22648102 0.26054743 0.5895189 0.14178368 0.026670078 -0.35524428 0.24156539
-0.22320035 -0.3035487 0.33537072 -0.2521003 0.1693681 -0.019531662 -0.017262693 0.093694024
0.39439481 -0.11270865 -0.003242102 0.011280698 -0.27860728 0.14964977 0.10108716 0.21255937
0.008554675 0.13067745 0.030365773 -0.11691936 0.34697115 0.2612095 -0.34524313 0.2192483
0.09220937 -0.3772683 0.0065724785 -0.1854879 -0.078764714 0.1351641 -0.08568534 -0.1288541
0.26470456 0.10522631 0.03518988 0.07213874 -0.005666904 0.49344406 -0.04208041 -0.19911982
0.5361692 -0.080331005 -0.10560045 -0.18088569 0.17262939 0.12479341 0.20274594 0.06709114
0.06357746 -0.08378234 -0.18570998 0.10463554 -0.30606815 0.088794515 -0.10859642 0.05941585
-0.36108947 0.25762594 0.2038793 0.28071252 0.0038919782 0.11552075 0.1854782 -0.3405787
0.35249624 -0.1970705 0.30600485 0.44359922 0.2904658 0.37487614 -0.5593282 -0.03344525
-0.11579957 -0.06445176 0.12604234 -0.19210617 -0.01272268 0.5621099 0.19799067 -0.10123554
-0.1236762 0.07792436 -0.2369008 0.13529229 0.2438101 0.28701246 -0.011395896 -0.27376705
-0.06578554 0.16797227 -0.45900697 -0.13206351 -0.16231596 -0.42131877 -0.029789286 -0.16053094

bias_ih_l0 f4 [52]
00000000: e7de 2d3e 0939 e63e 1ed4 7b3e 5ff4 8b3d
00000010: ed6f cc3e 7e53 1e3d b90b 963e 23bc d43d
00000020: 71fe 2e3f d24e 8839 d763 63bd 9928 353e
00000030: 695e 033e aec3 d83e f5a9 673d aea2 f23c
00000040: c65a 51be bb2e d4be d5c5 9b3e f47f 46bd
00000050: e8bb 0c3e 850d f7be 7a42 3b3e 418b dd3d
00000060: a910 39be 1165 3abe a2b6 1b3a 0a34 16be
00000070: 27b0 803d 4ebf 81be 85c2 143e c240 edbd
00000080: 5649 a7be ecb5 21be 9e35 eabd 51a2 9b3e
00000090: 6265 e83d 5da6 013e 5e70 463e 0df5 ffbd
000000a0: 5586 833e f1e9 c93e ca70 853e 9354 293e
000000b0: 69df 1e3d 4393 293e 3264 8e3e c903 163f
000000c0: be47 c03e 1b64 303e f241 a13e 0b31 a13e
0.16979562 0.4496539 0.24592635 0.068337195 0.39929143 0.038653843 0.2930582 0.10387447
0.68356997 0.00025998667 -0.055515137 0.17691268 0.12828983 0.42336792 0.056558568 0.029618587
-0.20444784 -0.41441903 0.3042437 -0.04846187 0.13743556 -0.48252502 0.18287078 0.10817576
-0.18072762 -0.18202616 0.0005939995 -0.14668289 0.062835984 -0.25341266 0.14527328 -0.11584617
-0.32673138 -0.15792054 -0.11436008 0.30397275 0.11347462 0.12661119 0.19378802 -0.124979116
0.25688425 0.39436296 0.26062614 0.16536169 0.03878728 0.16560082 0.27810818 0.58599526
0.37554735 0.17225687 0.31495625 0.3148273

bias_hh_l0 f4 [52]
00000000: 7206 c63e 4bf8 a53e fbab ab3e e7af 1c3e
00000010: 23b1 0a3f 1366 243e 3a84 e33d 1211 70bd
00000020: 7e05 fc3e 680a 6c3d 6547 a23d c337 9fbc
00000030: 7a1d c03e ee5e d43d 11ce 933e 1b54 393d
00000040: beb4 38be 63af bdbe 4694 a2bd 6596 773e
00000050: 7e4b 2c3e 9dad c5be 6f69 d9bc b702 60be
00000060: 39c8 1c3d e658 aa3e 7b5c 90be 8190 9d3d
00000070: d259 703e 6733 d73d a972 25be 8ae8 a53d
00000080: 3136 2c3e 18b4 a3bc 16c5 2a3e e061 b33d
00000090: 4efa a3bc 0b4a 853d 7e3e 553e 4446 163e
000000a0: efe3 9d3e 30a1 bebd 41e6 6d3e a70d 0e3e
000000b0: 43f3 303e 33a0 ae3d 48fb a7bd abda b93e
000000c0: 4ebf 833e 856f 893e 9fbb 8d3d 2bcf c13e
0.38676792 0.32415995 0.33529648 0.15301476 0.5417654 0.16054563 0.111092046 -0.05861003
0.4922294 0.05762711 0.07923774 -0.019435769 0.3752249 0.10369669 0.28868154 0.045246225
-0.18037698 -0.37047872 -0.07938437 0.24178465 0.16825673 -0.3860902 -0.026539532 -0.21876036
0.038276885 0.3327095 -0.28195557 0.076935776 0.23471764 0.10507851 -0.1615702 0.08100994
0.16817547 -0.019983336 0.16676745 0.087589025 -0.020016816 0.06508263 0.2082462 0.14675242
0.30837962 -0.09308088 0.23232366 0.13872395 0.17280297 0.08526649 -0.08202225 0.36299643
0.2573189 0.26842895 0.069205515 0.3785337

weight_ih_l0_reverse f4 [52, 4]
00000000: aa4d 8d3e 5c1b bcbe 385f be3e 1747 7abd
00000010: c5dd 253f d698 5fbd d6aa d43e 9d60 713d
00000020: aa7b 24bd a0e5 493e 6768 fb3e fe58 afbe
00000030: b143 f9bc b0e5 d23d 168b 8f3e 23db 643e
00000040: 7e96 33be cb83 cc3e c425 3b3e 2e1d 4e3e
00000050: 11d2 953e f977 553e 730e 263f e500 e4bd
00000060: f926 dc3d aa7a b2be a844 9cbe 1805 fe3d
00000070: f371 2a3d d1da acbe a293 d13e 513b d63d
00000080: fc11 563d e15d 483e 9c21 703e 98de 27be
00000090: bdfc 63be a67f 75be f0a7 973e 102f 43be
000000a0: b1e4 5d3e ef21 c93d 414e c6bd 5326 013f
000000b0: 9b5f f63e 6d44 8e3e 86de a03e 3e2d 8e3e
000000c0: 3708 8fbe 274f 813c 9bc2 8e3e 5fe1 9c3e
000000d0: 715f 9fbe 6455 c43d 2bf7 2ebe 0c40 4c3d
000000e0: 511d c13e 205a 91be 3b4a 073f c8f4 023d
000000f0: c77a 683d 8d67 763e 30bc 4bbe 42c6 14be
00000100: c24e 3c3e 16b7 c0bd 66c1 3a3e 4356 b93c
00000110: 8f2a 8abe 1177 c13c b00f d33e ee9f 61bd
00000120: 3be2 2b3e 086c 3bbd 2e71 d43d 1e6f d33e
00000130: 213e cc3e 6f4c 18be 00c8 273d 1169 cb3e
00000140: a6e7 babe 1a4a eb3d 35b2 3d3e 4fcb 8dbe
00000150: 0cb3 acbd efc9 91be 8d24 c7be 716a 8bbd
00000160: 9359 e53e b768 42bb 0270 013f 5ec8 40be
00000170: 23d1 a43d 3fca a6be 16f3 953c 4d05 443d
00000180: 84a0 e8bd 341a 91be 3306 14bf f21e 1ebe
00000190: e71f 813e 9fe8 303d c838 6cbd 95fc 0fbd
000001a0: 3189 143f 5ee0 0ebe 2f8e afbe a1b9 58bd
000001b0: 7425 af3e 94f9 383e 439e 0a3e 4433 bbbe
000001c0: be74 fbbe 8bed 593e de99 ad3d e63f 0fbe
000001d0: 19a6 48bd c810 293e 6172 ccbe d755 023f
000001e0: d07c 333d f36c 80be d4ae 89bd f314 44be
000001f0: e2a1 413e b700 a1be 902f fd3e ce63 1d3d
00000200: 00ae 76be 65b1 08bc a7a3 59bd 9654 55be
00000210: 21d0 0a3f 8382 253c 5cc2 f8be 55a7 b73e
00000220: 3d9c 1dbe 5764 edbe 1d54 853e d36e f23e
00000230: e804 08bf 63db e1be fa23 c73c 43dd 023e
00000240: 67bc afbe df8f 073e 0b18 863e 2808 25bf
00000250: ea6a ff3e d5d5 d1bd 4e53 54be 0159 de3e
00000260: 1852 a83b 968f c93c 8bfc 423e 6a88 1ebf
00000270: 38d4 de3e fe60 94bd f2c3 d53e ccd0 0ebe
00000280: 8405 d83e 9484 8dbd 7f54 c43d b167 08be
00000290: d834 a03e 59fc 0a3d 245e 3cbe 7721 0e3e
000002a0: 96c5 fc3c a671 5d3d 7b87 5d3e 795e 113f
000002b0: 060f ffbe 2adb 093f c709 38be b6f5 9b3e
000002c0: f76d e23d 4eef fcbe ce6d f73e 39e5 cdbd
000002d0: 7ce9 093f 25f8 0fbe 0988 c43c cd18 0c3e
000002e0: 644e 7d3e 49d2 193e 1a21 b4bd 64c0 3c3d
000002f0: b337 973d db8a 853e 0ca5 923c ae81 ecbe
00000300: 7368 a13d 597c 8dbd c5cc e43e 7ce3 86be
00000310: 7932 4a3e 9809 eabe 04be d1be 98a9 bd3e
00000320: 7c23 2a3f cd9b b43c 93d1 9ebc 0707 0f3e
00000330: 50c4 82be 0e01 1c3e 0902 863e 28ff 133f
0.27598315 -0.36739624 0.3718202 -0.061102953 0.6479152 -0.054589115 0.41536587 0.05893003
-0.040156998 0.19716501 0.4910309 -0.34247583 -0.030427786 0.10297716 0.28035802 0.22349219
-0.17537877 0.399443 0.18276125 0.20128319 0.2926183 0.20846547 0.648658 -0.11132983
0.10749621 -0.3485921 -0.3052113 0.12403315 0.041612577 -0.33760694 0.40932947 0.104605325
0.052263245 0.19567062 0.23450321 -0.16393507 -0.22264381 -0.23974475 0.29620314 -0.19060922
0.2166927 0.098209254 -0.096828945 0.50449103 0.48119816 0.2778658 0.31419772 0.27768892
-0.27935955 0.015784813 0.27882847 0.30640694 -0.31127504 0.095865995 -0.17086475 0.049865767
0.3771768 -0.28389072 0.5284764 0.031971723 0.056757715 0.24062939 -0.19896007 -0.14528754
0.18389419 -0.09409921 0.18237838 0.02262414 -0.26985595 0.023616346 0.41222906 -0.05508416
0.16785519 -0.045757324 0.1037315 0.41295713 0.3989115 -0.14872907 0.04096222 0.39728597
-0.3650486 0.11488743 0.18525012 -0.27694175 -0.08432588 -0.28474376 -0.38895074 -0.068074115
0.44794902 -0.0029664466 0.50561535 -0.18826434 0.08047702 -0.32576177 0.018304389 0.047856618
-0.11358741 -0.28340304 -0.5782196 -0.15441492 0.25219652 0.043190595 -0.05767134 -0.03515299
0.5802184 -0.13952777 -0.34288165 -0.052911405 0.34208262 0.18063956 0.13536935 -0.3656255
-0.49112505 0.21282022 0.084766135 -0.13989219 -0.048986528 0.16510308 -0.39931014 0.5091223
0.043820202 -0.25083122 -0.06722799 -0.19148616 0.1890941 -0.31445858 0.4945035 0.03842526
-0.24089813 -0.008343075 -0.053134587 -0.20833048 0.5422383 0.010101917 -0.48585784 0.35869852
-0.15391631 -0.46365616 0.26040736 0.47350177 -0.53132486 -0.4411269 0.024309147 0.12779717
-0.34323427 0.13238476 0.26190218 -0.6446557 0.49886256 -0.10245863 -0.20734903 0.4342728
0.0051367395 0.0246046 0.1904165 -0.619269 0.43521285 -0.07245062 0.41751057 -0.13946837
0.42191708 -0.06910053 0.09586429 -0.13320805 0.31290317 0.033932064 -0.18395287 0.13879953
0.030855935 0.05406346 0.21633713 0.5678478 -0.4981615 0.5385004 -0.1797248 0.304609
0.110561304 -0.49401325 0.48325962 -0.100534864 0.53871894 -0.14059503 0.023990648 0.13681336
0.24736935 0.15021624 -0.08795376 0.046081915 0.07383671 0.260825 0.017900966 -0.46192688
0.0788125 -0.06908483 0.44687477 -0.26345432 0.19745816 -0.45710444 -0.40965283 0.37043452
0.66460395 0.022046948 -0.019387042 0.13967524 -0.255404 0.15234777 0.26173428 0.5781121

weight_hh_l0_reverse f4 [52, 13]
00000000: 1577 b3bd b305 a33e 8c01 abbd 9c45 b0be
00000010: 43ef ccbe b234 553f ddb4 bcbe 0d3e 9c3e
00000020: 774e 27be b597 09be c1ad 9fbe 761a 6c3e
00000030: 38d6 99bd d56a 39bc 7bf4 a23e 3475 e03d
00000040: d03b 183e 7e88 b4be 37c8 a93d fc4c 73be
00000050: dd7a 5b3e f176 473b 7815 693d 85d8 0fbf
00000060: 929b 03be c943 013d d7ab bebe b5a1 5c3d
00000070: c066 233e 7a83 98bd b4a7 a63d bb22 363e
00000080: c6ae 80be 9657 bf3d a1cf 793d 0bdb 91be
00000090: 0e4e cf3d 90ad 02bd 617d ab3d aebb a7bc
000000a0: c79d cd3e f8a6 c1be d929 903d c5b3 3ebe
000000b0: 308c b33e 3034 b0bd 8855 9dbe f874 243e
000000c0: fbc6 a0bc da7f 09be 51d0 a43d 7539 a23e
000000d0: ce10 083d 82a8 613d e830 923d d0a1 cebe
000000e0: ecaa 12be 42c4 9c3e 7a6c e83c a49b 0d3e
000000f0: 8fdd 773e 85dc 0f3c 628d acbd 1cc2 363d
00000100: 648b 493e 7f73 e4be 9b38 9cbd 4ddd 353d
00000110: 3297 5ebd 3879 3abe a334 c43e 13cf 253c
00000120: f9ad 08bc b659 4cbe 873c 1abe fde1 903e
00000130: 967d eebd ef31 163f e047 923d df5d 8f3e
00000140: 86dc 633d cd3a 32be d400 0cbf 8d0a 31be
00000150: 7599 4fbd eaed bb3c 595d 91be 509c 4dbe
00000160: d961 293c a863 933e ffd6 ffba 22a8 10be
00000170: 1283 413e 3cbc 57be a597 ae3d 4b49 eabe
00000180: 19c1 c03e df84 93be 48ae e9bc 60e3 5cbd
00000190: e90f 2abe 2dfb 0dbe b084 3b3f a622 083e
000001a0: f2c1 273e 651c 8d3c 5173 c53d 31ed 8aba
000001b0: 53e4 033d 334d 803e e0d5 d1bb d2d7 a93e
000001c0: 824a 21be b128 a9be a27a f0be 61ef 6ebd
000001d0: 1da1 433b 64b0 bbbe 0ce2 863c 6e90 97be
000001e0: 4517 5abe c1db 11bf 8c0f d6bc 6f0c 10be
000001f0: f0c5 1abe 8c60 c43d 3df8 4dbe 86a6 96bd
00000200: 8dec 953d 112f 7f3d 908c 643e a1b4 203e
00000210: 6d49 bfbe 6019 2f3d f9eb d23d 59b5 c33d
00000220: 4c12 fdbe dd2e 6d3b 9749 af3d 2a6f 93be
00000230: 2b5b 5abe 6a99 043c 096e 503e 7912 6cbe
00000240: 1e7d b93e a607 3ebf bbd0 fabd e84b cabe
00000250: b226 463f 87bc 4fbf 852d 353d 5534 ed3d
00000260: cc92 e3be 9520 f2be 0f2c 083f baa9 ec3e
00000270: f6a4 32bd cd86 553d 1460 2cbf 1268 ffbb
00000280: ea0d 9fbe b100 1d3e f383 63be cafe d43d
00000290: 485b f6be 5c20 ed3d 0e34 2cbe 7cd9 043d
000002a0: a5eb fe3e 078a a63d b2a8 67be c50a 15bd
000002b0: caf1 80be 93f6 c9bd ffce 65be 385c cb3e
000002c0: fcee 1abe 9efa 3fbd ad3c 623e 9de6 ea3d
000002d0: eedd 42be 8e7d 08bd 5245 73be 6625 f9bd
000002e0: 6d30 27be 8711 04be b156 89be 4310 d23d
000002f0: cb3d 803c 2967 013c 54ff 2fbe 1b0e 87be
00000300: 3179 823c 6c45 cebd b1d4 223e 775a f2bd
00000310: 40c7 79bd 86dc 4cbe b23d a53e cc96 a53c
00000320: 254e 883d 739f 2fbe c9b7 56be d2c1 1abd
00000330: aeed 423e f2e3 51be 3fff 033f 0810 6c3e
00000340: a4ef 8cbe 607e a1be e966 a3bd d839 413e
00000350: 2c36 f03c 2435 df3d f373 3b3d 1d7d c1bd
00000360: 2430 96be 01dd bcbc cf07 583e c103 6d3e
00000370: 9179 20be 2d79 08be 98da 793b 355f a33d
00000380: dd15 393d 167e c6bc 425b 2c3e 3bb7 6bbe
00000390: b3e0 13be 471f f33d 0ac5 853e 03b4 b1bd
000003a0: c3c6 db3e 9156 c23c d25a 923e 8d5b 103e
000003b0: db10 6fbd bdd3 d1bd 5b0f c83e 7a9d 28be
000003c0: 69a7 b5bd 810e 0e3d 6b36 b63e f427 df3b
000003d0: 081a 043e f8f9 ff3d c771 16bd 395f 23be
000003e0: eda0 3cbd 77f8 3fbd 245c 0f3e 79d2 98bd
000003f0: c4b6 64bd d4d7 8ebd 016e 263e 1299 c83c
-0.087629475 0.31840286 -0.083499044 -0.34428108 -0.40026292 0.8328353 -0.36856738 0.3051609
-0.16338526 -0.13436778 -0.3118725 0.23056969 -0.07511562 -0.011316975 0.3182715 0.10959855
0.14866567 -0.35260385 0.08290141 -0.23759836 0.21433587 0.0030435885 0.05690524 -0.5618976
-0.12852314 0.031558786 -0.37240478 0.053865153 0.15957165 -0.07446952 0.081374556 0.17786686
-0.25133342 0.093428776 0.060989026 -0.2848743 0.101223096 -0.031903803 0.083735235 -0.020475235
0.40159437 -0.378227 0.07039232 -0.18623264 0.35067892 -0.08603704 -0.30729318 0.16060245
-0.019626131 -0.13427678 0.08047546 0.3168446 0.03321915 0.055092342 0.071382344 -0.40357828
-0.14323014 0.30618483 0.028372038 0.13828903 0.24205612 0.008780603 -0.08425404 0.04461871
0.1968208 -0.44619367 -0.07627984 0.044400502 -0.05434341 -0.18210304 0.3832141 0.010120171
-0.00834226 -0.19956097 -0.15062152 0.28297415 -0.11645047 0.5866994 0.07142615 0.28001305
0.05563023 -0.17405243 -0.54688764 -0.17289181 -0.050683457 0.022940595 -0.2839153 -0.2007916
0.01033827 0.2878697 -0.001951903 -0.14126638 0.18897656 -0.210679 0.08525018 -0.45759043
0.37647322 -0.2881231 -0.028525487 -0.05392778 -0.16607632 -0.13865347 0.7324934 0.13294467
0.16382578 0.017225454 0.096411355 -0.0010599253 0.03220017 0.25058898 -0.0064036697 0.3317247
-0.15751079 -0.33038858 -0.4696856 -0.05833376 0.002985067 -0.36658013 0.01646521 -0.2960238
-0.21297939 -0.5697594 -0.02613046 -0.14067243 -0.1511457 0.09588727 -0.20114227 -0.073559806
0.07320509 0.062300745 0.22319245 0.15693904 -0.37360707 0.04274881 0.102989145 0.09556074
-0.49428022 0.0036191263 0.08558958 -0.2879575 -0.2132384 0.008093217 0.20354475 -0.23053922
0.3622827 -0.7423042 -0.122468434 -0.39511037 0.77402794 -0.81147045 0.044232864 0.11582247
-0.44447935 -0.47290483 0.5319223 0.4622324 -0.04361435 0.05213051 -0.67334104 -0.0077943886
-0.31065303 0.15332295 -0.22218303 0.1040016 -0.48116517 0.11578438 -0.16816732 0.03243397
0.49789158 0.081317954 -0.22622946 -0.036387224 -0.2518447 -0.098614834 -0.22442244 0.39718795
-0.15130228 -0.046869867 0.22093458 0.11469767 -0.19029972 -0.033322863 -0.23756912 -0.12165336
-0.16327067 -0.12897311 -0.26823953 0.10257008 0.015654465 0.00789813 -0.17187244 -0.2637795
0.01592693 -0.10071835 0.15901448 -0.11833661 -0.060981035 -0.20005998 0.32273632 0.020213507
0.0665553 -0.17150669 -0.20968546 -0.037782498 0.1903598 -0.2049711 0.5156135 0.2305299
-0.2752658 -0.3154173 -0.07978613 0.18869722 0.029322706 0.10898808 0.045764875 -0.094476916
-0.29333603 -0.023054602 0.21096729 0.23145963 -0.15671374 -0.13327475 0.0038124677 0.07977144
0.045186866 -0.024230044 0.16831687 -0.23019116 -0.14441185 0.118712 0.2612689 -0.08676913
0.4292508 0.023722919 0.28584915 0.14097424 -0.058365684 -0.10245464 0.39074215 -0.16466323
-0.088698216 0.0346818 0.35588393 0.0068101827 0.12900555 0.1249885 -0.0367296 -0.15954293
-0.04605191 -0.046867814 0.13999993 -0.074620195 -0.05583836 -0.0697476 0.162529 0.024487052

bias_ih_l0_reverse f4 [52]
00000000: eb8d 033e e16a 8d3e 8957 41be 7258 a33e
00000010: fa3d f1bd d2a2 cd3e 25d0 e53d 9d4d af3e
00000020: b789 6b3c 0064 843e 450e bc3e abef 3a3f
00000030: daba 8a3e be95 0bbd cd71 32bd 77d4 5f3d
00000040: fa05 2abe 0c5a 2bbe 229d 91bd 67a4 f0bc
00000050: c2d0 993e 02e8 38be 36b1 a43e f4ee 833d
00000060: caeb cdbe a598 28be a50b 1e3e d3fc 843e
00000070: 748f 58be af31 2e3e 9523 a1be 8315 2f3e
00000080: 4721 2cbe 410d 913e 41a9 13be 3708 883d
00000090: 73e4 61be 15ae 78be 5075 23bb f603 533e
000000a0: 0bdc 933e 4d67 753e 31dc a63e 6b0c 5b3e
000000b0: fbaf f73e fa23 d6bd 1ba1 cd3e 6a76 253d
000000c0: 7dd1 903e ca7b 413e 3ae3 233f dd3f 1d3e
0.12847106 0.27620605 -0.18881048 0.31903416 -0.11779399 0.40163285 0.11221341 0.34238902
0.0143760955 0.25857544 0.36729637 0.73021954 0.2709568 -0.034078352 -0.04356556 0.05464598
-0.16603842 -0.16733569 -0.07110049 -0.029375268 0.30042082 -0.18057254 0.3216645 0.06442061
-0.40218955 -0.1646448 0.1543413 0.2597414 -0.21148473 0.1701114 -0.3147246 0.1709805
-0.1680957 0.28330424 -0.14420034 0.06642192 -0.22059803 -0.24285157 -0.002494175 0.2060698
0.28878817 0.23965187 0.32589868 0.21391456 0.4837645 -0.10456081 0.40161976 0.04039613
0.28284827 0.18894878 0.64018595 0.15356393

bias_hh_l0_reverse f4 [52]
00000000: f120 a83e fb7e 453d 8150 2ebe c82d aa3e
00000010: 018a a63e b561 afbd c951 723e 117f 033f
00000020: 07e5 c93e ed2e e5bc d9fc 973e 2fa1 463f
00000030: 8aee 133e 5280 9bbe 99f6 143e 9362 f73d
00000040: 1487 023e d476 463e 08c1 68bb ae6e 9c3e
00000050: 2940 603d c2d4 4bbe d522 813d 1c03 243e
00000060: 44ff b2be 06ec 96bd 1d67 3dbe 508c 243e
00000070: 3a2d 44be 6861 7ebd dd75 93be dd21 323e
00000080: 4536 c3be ac41 a43d c57c 58be 1bd1 81be
00000090: 9fb5 a8be 898f 493e ae4d 06bc cdf4 d13d
000000a0: 34d8 713e 2945 4e3e b1be c03e 17e1 693e
000000b0: df55 fa3e 005e 853d 004b 303e a417 c73e
000000c0: 28df 853c c236 aebc 2c9f 3e3f ce27 863e
0.32837632 0.0482168 -0.17022897 0.33238053 0.32527164 -0.08563558 0.23664011 0.5136576
0.39432546 -0.027976478 0.29685095 0.77589697 0.14446464 -0.30371338 0.14547195 0.120793484
0.1274684 0.19381267 -0.0035515446 0.30553192 0.054748688 -0.1990538 0.06305472 0.16016811
-0.34960377 -0.07369237 -0.18496366 0.1606915 -0.19157878 -0.062104613 -0.2880086 0.1739573
-0.38127342 0.080203384 -0.21141346 -0.25354847 -0.32951066 0.1968366 -0.008197231 0.1025177
0.23617631 0.2014357 0.37645486 0.22839771 0.4889364 0.0651207 0.1721611 0.38885224
0.01634176 -0.021266345 0.74461627 0.26202244

weight f4 [16, 260]
00000000: 5dc7 b03c 6096 2fbd 39b2 58be dc8b 4dbd
00000010: 3bcc 50bd 99e2 6cbe daea 5ebe 9099 28be
00000020: 4182 63be 39f1 bb3d 2d4b 153d 19b3 69bd
00000030: 1030 29be b16e c9be c1ca 243d f05f 1bbe
00000040: 8372 a03c eead 1bbe faac 1fbe c065 c5bc
00000050: 0266 c7bd 0cd8 8dbd 8522 8fbd e36c ed3d
00000060: d4a2 2abe ef9e 8abc a205 4c3c 520a c13d
00000070: 01cb b23c eac2 c43c 8505 08be 9e14 b43c
00000080: 56b7 45be 8731 243c ef13 0a3e 7bf2 33bd
00000090: 66b4 7d3c f796 b33d ea85 9abd 8016 adbc
000000a0: 9c9c 44bd 60a0 04be 88aa 113d e58e 423e
000000b0: 53f7 b63d 9789 cd3c 8113 4b3d 2863 803d
000000c0: 5e95 da3c d4af 98bd d76a c03e 1981 243d
000000d0: 8c31 b13c 2ea0 c23d e9cb 36bd 63d2 6abe
000000e0: 2eb7 02bc 7201 5fbc 6fd2 33be 2d46 fb3c
000000f0: 8b82 a8bd 417c 0d3e 8cfa 64bd 70d4 4fbc
00000100: d69f fabc a66b 8ebe 2304 55be 57a5 ccbd
00000110: 9111 e4bd d859 c9bd ea77 413e e030 1a3d
00000120: 3fc7 f5bd b650 0a3d 5fab 7bbe 18b9 723d
00000130: 13ca 3ebe f054 9a3d 2ff4 253d bc49 1dbe
00000140: 52f3 ad3d 2e3c 3fbe 1fac 293e bf64 fb3d
00000150: 080a 18be 8804 893c 30d0 83bd 5e17 cc3d
00000160: 2414 45bd e171 843e 3455 893d 6c05 8cbd
00000170: d938 a23d 86c4 9b3c ee3b e33c defa 9dbd
00000180: ac5d 45bd 6a0b e6bd e88f b93d 766a 0bbb
00000190: 4a3e 92ba 5696 22be 994a f5bc eaee 82bd
000001a0: 46fc 4d3d fef4 32bd 5cd1 a9bc 879e 03bd
000001b0: f06a 15be 7d4f 9f3d a372 05be 6b8b cd3d
000001c0: bf06 153e ad2a 05be 269b 803d 3d22 59bd
000001d0: 903f 773d 0b28 c53d c868 f2bd 8850 0dbd
000001e0: 90d3 8cbd 76b1 03be 8211 123d f27d b9bc
000001f0: b400 373e 13d9 8c3d e095 1dbd fa31 07bd
00000200: ddae 173d 0b02 98be 507d d23d 8813 dd3b
00000210: 0bd7 b2bd 1af8 febd 697a 88bd 8510 003c
00000220: 5fd9 f7bd c4b3 e6bd ffaa 5cbc 0f56 cf3c
00000230: fdcc 533d 702b 32bd fdb0 55bd 1daf 343e
00000240: f4cc 59bd 230d 3e3e 913b d33d 7391 17be
00000250: 5a46 9dbd bafb 4e3c fcd8 123d 5861 c4bd
00000260: 6a0f e13d c91e f9bd 4c12 513e 763b 953d
00000270: 3c26 fdbd efbd a9bd d46d 4b3e 51d5 f53d
00000280: 9f1a e53d 1f1b 7d3d 4591 10be 9ec7 8fbd
00000290: cbb5 dc3d d79d 073e bd3e 563e 0b11 0f3d
000002a0: 7cdf 0f3e 4778 77be c3a2 bbbd d359 bcbd
000002b0: 3d21 853d 3bf6 34be eae3 ad3d 8149 acbd
000002c0: 0d4c fcbd fa80 263e 8ebd 2a3d 655e 09bd
000002d0: 94f8 223d 408a 82bc a7ce 213c 6aae 2bbe
000002e0: c112 f83d 1b15 31bd 0eac 09bd 96ce 4a3c
000002f0: 8d05 56bd 1152 25be 299e 5abd b9b1 34be
00000300: c6c8 303d a8a4 7bbd 9bc4 f13d df2d 0d3e
00000310: 7505 633d 875b 3bbd 11fa 5f3c b47a d1bc
00000320: a02c 593d af0d a5bd c443 a33d c3c9 86bd
00000330: 9a54 42bd 5b03 abbd 9a0d 84bd 5619 73bd
00000340: f61b 7abd 302d 46be 6546 4cbe dacd 22bd
00000350: 3b19 e73d 1f5a 94bd f177 7fbd 18b8 09bd
00000360: 235d d1bc faaf 3bbd 1d54 4fbc b365 2d3e
00000370: a47a 5b3c 8382 673d 37da fbbc f4d3 353e
00000380: b956 363d 0b4e de3d 9256 9d3c c08f 583d
00000390: 25e6 493c 5971 a2bd c196 57bd c4b3 123d
000003a0: 75b4 c3bd 7af0 053e e54e ae3d fd0b 04bd
000003b0: 88f6 a73d e86c 933c 50ef 41be 711f ee3d
000003c0: e506 09be ab17 2d3d 01ab 903e c356 d0bc
000003d0: 9102 ba3d 0e14 fb3d c46e 67bd 2e45 bcbd
000003e0: f486 13be 0ddd aa3c 12d8 843e 4f79 403d
000003f0: bbb0 cdbd d6b3 19bd 5544 1e3e b695 733d
0.021579439 -0.04286802 -0.21161737 -0.05018221 -0.05097602 -0.23133315 -0.21769276 -0.1646483
-0.22217657 0.09176869 0.036448646 -0.057055566 -0.1652224 -0.39342263 0.040232424 -0.15173316
0.019585853 -0.15203068 -0.15593329 -0.02409637 -0.09736253 -0.06925973 -0.06989006 0.11593034
-0.16663677 -0.016921489 0.012452515 0.094257966 0.021825315 0.024018724 -0.13283356 0.021982487
-0.19308218 0.010021574 0.13484167 -0.04393242 0.015484905 0.08769029 -0.07545073 -0.021128893
-0.048000917 -0.12951803 0.035563022 0.18999822 0.08933892 0.025090022 0.049579147 0.062689126
0.026682552 -0.074554116 0.37581512 0.04016218 0.021630071 0.09503208 -0.044628058 -0.22931819
-0.007978244 -0.013611184 -0.17560743 0.03067311 -0.08228024 0.1381693 -0.055903003 -0.012684926
-0.030593794 -0.27816504 -0.2080236 -0.099924736 -0.11136163 -0.098315895 0.188934 0.037644267
-0.12000894 0.03376838 -0.24577092 0.05925855 -0.18631773 0.07535732 0.040516075 -0.15360159
0.08493675 -0.186753 0.16569565 0.12275075 -0.14847577 0.016725793 -0.06436193 0.099653944
-0.04811491 0.25868133 0.06705704 -0.06836972 0.07920999 0.019014608 0.027738538 -0.07713865
-0.048185036 -0.11232646 0.09060651 -0.0021273172 -0.001115748 -0.15877661 -0.029942797 -0.063932255
0.050289415 -0.043690674 -0.020729713 -0.032133605 -0.14591575 0.07778833 -0.13032012 0.100363575
0.14553355 -0.13004561 0.06279592 -0.053011168 0.060363352 0.09626778 -0.11836392 -0.03450063
-0.0687629 -0.12860665 0.035661228 -0.022643063 0.17871362 0.06877341 -0.03847301 -0.033006646
0.037031997 -0.2968906 0.10277808 0.006746713 -0.087324224 -0.12449665 -0.06663973 0.007816439
-0.12102007 -0.11264756 -0.013468503 0.02530959 0.051709164 -0.043498456 -0.052170742 0.17644925
-0.053173974 0.18559699 0.10314096 -0.14801578 -0.07679434 0.0126332585 0.035851464 -0.09588879
0.10989268 -0.12164075 0.20417136 0.07286732 -0.12360808 -0.0828818 0.19866115 0.120035775
0.11186718 0.061793443 -0.14117916 -0.07020496 0.10776862 0.13243805 0.2092237 0.034928363
0.14050096 -0.24166976 -0.09161904 -0.0919682 0.0650048 -0.17672054 0.08490737 -0.08412457
-0.12319193 0.16260138 0.04168468 -0.033537287 0.039787844 -0.015935063 0.00987593 -0.16765752
0.12112952 -0.04323302 -0.03361135 0.0123783555 -0.052251387 -0.16144587 -0.05337349 -0.17645921
0.043160222 -0.061436325 0.11805078 0.1378703 0.055425126 -0.045741584 0.01367046 -0.025571205
0.053021073 -0.080592506 0.0797191 -0.06581452 -0.047443964 -0.083502494 -0.06447907 -0.059350334
-0.061061822 -0.19353175 -0.19948728 -0.039747097 0.11284109 -0.07243752 -0.062370244 -0.03362283
-0.025557106 -0.04582212 -0.0126543315 0.16933326 0.013395939 0.05652095 -0.030743701 0.17756635
0.0445163 0.10854729 0.019206319 0.052871466 0.012322937 -0.079317756 -0.052634005 0.03581597
-0.09555904 0.13080016 0.08511142 -0.032237995 0.08201319 0.017996266 -0.18938947 0.11627091
-0.13381536 0.0422589 0.28255466 -0.025431996 0.09082521 0.122596845 -0.05650212 -0.091928825
-0.1440695 0.020857358 0.259461 0.04699069 -0.10043474 -0.03752502 0.15455754 0.059468947

bias f4 [16]
00000000: c8d1 253d 9442 d8bc 23c4 363d 02e4 2c3c
00000010: c3d6 a53d 95f8 943d 88fc ff3c 883f c0bb
00000020: 4c25 2b3d 5b85 863c cddd 243d 3fac 403d
00000030: 01a8 343c 1674 943c 254e e13c 1352 a03d
0.040483266 -0.026398934 0.044620644 0.010552408 0.08097603 0.07273976 0.031248346 -0.0058669485
0.041783616 0.01642101 0.04025059 0.047039267 0.011026383 0.01812176 0.027503083 0.078281544

weight f4 [19, 16]
00000000: 8fea c53e 12b0 6bbe cabe 863e 8d3f 84be
00000010: 1050 1bbf c63f 99be 0728 48bd a8ba dd3e
00000020: 83a5 813e 6886 2f3f c741 a23d 38cd 3ebe
00000030: 89e7 773e dff4 1dbe e862 183f 412d d63e
00000040: 1b34 663e 6932 0cbe 77cc 573e 8a50 4a3d
00000050: ee65 00bf 0835 8b3e ebb2 803d 3d32 f93e
00000060: 9000 4cbf 4b3a 97bc 9793 293e f04f b3bd
00000070: 82cf b7bd 2aba 993e 0be0 133d d363 15be
00000080: bad5 16bc 5779 9ebc 57f8 d4bc 403c 883c
00000090: 6316 02bd dca0 503d b3c5 b03c 7a0b 003d
000000a0: 411e 7ebd 1f2d 0e3c cd20 d0bd b5bb 8fbc
000000b0: db97 893c 9117 05bd 73dd 1abd a1ca 7b3d
000000c0: c690 a5be 8ad8 343e 5bf9 ad3e 72a6 4fbe
000000d0: 3e50 b8be daa0 cb3e c3da 933d 157d b9be
000000e0: 2c77 a5be 0ba2 babd 8c84 923e 5923 2a3e
000000f0: 251a cfbd 172d 353f e7f4 273e c795 e9be
00000100: a78d 213c 51a2 50bd a655 99bd 6994 9f3d
00000110: 69e7 a3bd 391b e73c 025e c13d 04b6 ad3d
00000120: bded 0fbe 607d 473c 9277 dfbd 674f 43bd
00000130: 0bcf 613d 946f 1bbe c52d e4bd beb5 423e
00000140: 867e 4b3d 9c68 0b3e 312b ddbc b11b 27bd
00000150: d867 b7bb bc7e e63c cdec 0dbd 9d3f 90bc
00000160: f861 b83c 4b6a 57bc afec 433e 375d 96bc
00000170: 0501 0d3d 45a4 cebc ddd6 a53c b504 dabb
00000180: 8560 09bf 84ee 06be 9551 193e 2e30 813d
00000190: 5797 85be 98e5 8a3d 242d d13e 03e6 833d
000001a0: c698 e13e 2dba 08bf 4d1d 36bf f60f c53e
000001b0: ee47 8b3e 4d63 7fbe 1efd a7be 1364 953e
000001c0: 7228 013f 8029 273e 516a 0c3f e28e 91be
000001d0: 8dd0 59be b83a c7bc d0ff d93e 7a42 3c3e
000001e0: e39a ac3d 5c7b 90be 9b13 e5bd aaec d8bd
000001f0: caea cabe 2146 a7bd c8c3 d83d 0cf7 4bbe
00000200: 308f a73d 378f 673e 004e 313e ed5e 01bf
00000210: bd37 123e 97f3 513c 6d8b 9e3e 8136 b2be
00000220: 6365 80be 7e72 f43e 21fc 2c3d 222d c9be
00000230: 0a13 bdbe 6e4e 543d 894c 813e cf09 6c3e
00000240: 73b7 f6bd 24a8 643e dbc8 f13d b2b1 a23d
00000250: 02fe 953d 0710 07be b51d f23c f36c 34bc
00000260: 292f 213d 1d3a 943c 74f3 bdbe fbde a53d
00000270: e62d b6bd 0800 013e 592a d43c 0e52 6ebd
00000280: 230a a6bd a145 c93e 6afd 433d a685 743d
00000290: 99a8 9a3c 9a17 43bd b1e2 323d b07b 883c
000002a0: f162 99bc 58d0 ab3c f034 553d d5f6 2e3d
000002b0: 2e2a 54bd a0f7 3c3d 328c 5fbc 49a2 043b
000002c0: f138 273e 682c 933d 6fa9 fbbd 6693 ccbd
000002d0: 1e55 6fbd b2e8 133e 36d9 8abd 3b3d a0bc
000002e0: 399d 73bb 7037 f7bc 958e 1a3e 56cf bbbd
000002f0: d65b f63d 7770 17be 7715 6f3c 4810 463d
00000300: 9970 30bd ef64 38be ce5c f63d 326f 363e
00000310: 875d 9cbd 3953 7cbd 15f8 8f3d 457f 4c3d
00000320: d86d 0c3e 027b 593d 2070 3f3e eb09 c13d
00000330: 07ab 2ebe 0637 203d e235 943d 1ceb 85be
00000340: a045 20bd 77a2 e8be 75e2 89be 4e1e 553f
00000350: 7f09 25be 9dd6 70bd a753 f43e 88ba 15be
00000360: b2cb 013f 5691 a8be 720a e03d fa42 1abf
00000370: 2df2 253e b32e bb3d 375d 4bbe d467 7abe
00000380: 30bf bf3e ac51 70be e2e5 cbbd c267 90be
00000390: d4a7 ccbd f5c4 3dbe a36c f23e 5cc8 8cbd
000003a0: 7f6e efbe 2e4f 283f 9c45 ecbd 61d9 b13e
000003b0: a89a 133f 029d 21be ff2a 963d bc71 f4be
000003c0: bb00 253f 2bc7 c4be a51d 053e 7889 e93d
000003d0: 349c 86be 1718 fd3c fdbe 3eb9 79bf eabe
000003e0: 5a0b e83d 23f7 363e 58c9 2d3d 9814 803e
000003f0: cba1 8bbd 7152 a13e 8f15 14bf 45b5 ec3d
0.38655517 -0.23016384 0.26317436 -0.25829735 -0.6066904 -0.29931468 -0.048866298 0.4330647
0.25321588 0.6856446 0.07922702 -0.18632972 0.24209417 -0.15425442 0.5952592 0.418314
0.22480814 -0.13691105 0.21074091 0.049393214 -0.5015553 0.27188897 0.06284126 0.4867114
-0.7968836 -0.018460413 0.16560207 -0.08755481 -0.08975126 0.30024844 0.036102336 -0.14588861
-0.00920623 -0.019344969 -0.025997324 0.016630292 -0.03175963 0.050934657 0.021578645 0.031260945
-0.06204057 0.00867775 -0.10162506 -0.01754556 0.016796043 -0.032493178 -0.037808847 0.06147254
-0.32337016 0.17660728 0.33979306 -0.20278338 -0.3599872 0.39771158 0.0721946 -0.36228243
-0.32317483 -0.091129385 0.2861675 0.16615047 -0.101124085 0.70771927 0.16402017 -0.45622084
0.009860433 -0.050936047 -0.07487039 0.07791979 -0.08003122 0.028211223 0.09441759 0.08481982
-0.14055534 0.012175888 -0.10911478 -0.047683146 0.055129092 -0.15179282 -0.11141542 0.19014642
0.04968121 0.13614124 -0.026998134 -0.040797893 -0.005597096 0.028136604 -0.03464966 -0.017608458
0.022507653 -0.013147901 0.19133256 -0.018354995 0.0344248 -0.025224814 0.020244056 -0.006653393
-0.536629 -0.13176924 0.14972527 0.06308018 -0.26092026 0.06782073 0.40854752 0.06440356
0.4406187 -0.5340908 -0.7113846 0.3848874 0.27203315 -0.24940224 -0.328103 0.29177913
0.5045234 0.16324425 0.54849726 -0.28429323 -0.21270962 -0.024319991 0.42577982 0.18384734
0.0842798 -0.28219116 -0.1118538 -0.10592015 -0.39632255 -0.08167673 0.10584217 -0.1991846
0.08181608 0.22613226 0.17314911 -0.5053547 0.14279075 0.012814424 0.30965748 -0.34807208
-0.25077352 0.477436 0.042232636 -0.39292246 -0.36928588 0.05183261 0.25253704 0.23050617
-0.12046709 0.22329766 0.11805888 0.07944049 0.07323839 -0.13189708 0.029555181 -0.011012304
0.039351616 0.018094117 -0.37099802 0.08099171 -0.08895473 0.12597668 0.0258991 -0.058183722
-0.08107402 0.39310935 0.047849096 0.05969777 0.018879222 -0.04762993 0.04367322 0.016660541
-0.018723937 0.02097337 0.05205244 0.042715866 -0.05179804 0.04613459 -0.013644265 0.002023833
0.16330315 0.07186204 -0.12288176 -0.099890515 -0.058430783 0.14444235 -0.06779711 -0.019560447
-0.003717257 -0.030177802 0.15093453 -0.091704056 0.12029235 -0.14788996 0.01459252 0.04835537
-0.04307613 -0.18007253 0.1202942 0.17815855 -0.076350264 -0.061602805 0.0702974 0.04992606
0.13713777 0.053095825 0.18695116 0.0942572 -0.17057429 0.039114974 0.0723684 -0.26155937
-0.0391289 -0.4543645 -0.26930586 0.83249366 -0.16116904 -0.05879842 0.47720072 -0.14621937
0.5070144 -0.32923383 0.10939492 -0.6025845 0.16205664 0.091397665 -0.19859777 -0.2445367
0.37450552 -0.23468655 -0.09955956 -0.2820416 -0.09992948 -0.18532164 0.47348508 -0.06874153
-0.4676399 0.6574582 -0.115367144 0.3473616 0.5765786 -0.1578255 0.073324196 -0.47743022
0.6445424 -0.38433203 0.1299959 0.11403173 -0.2629105 0.030895276 -0.0001819096 -0.45849207
0.1133029 0.17867713 0.042428344 0.25015712 -0.06817969 0.3150821 -0.57845396 0.11558012

bias f4 [19]
00000000: 9203 81bd e52c 00be 7ede 91bd 96f8 893c
00000010: 2025 053e 1d26 ce3c 7735 2a3e 0eab 82bd
00000020: 5b2e 82be 08fb 0dbe 8a81 b6bd d838 3c3d
00000030: 3f57 dcbd 935c 4e3e 33a2 d8bd a1af c93d
00000040: 2ae2 943c dce6 afbd 2c05 1d3e
-0.06299509 -0.12517126 -0.07122515 0.016842168 0.13002443 0.025164658 0.16621958 -0.06380282
-0.2542599 -0.13865292 -0.08911426 0.045952648 -0.10758828 0.20152502 -0.10577812 0.09847952
0.01817425 -0.08588955 0.15334004

weight f4 [19, 16]
00000000: 2413 66be 55ca 6fbe 2d3e 54bc 8df5 a8bd
00000010: 1d2b 84bd d000 abbe a2a0 afbd eaa9 883c
00000020: b602 fa3c c6b2 093d 1bcb 4bbe cc09 c03d
00000030: b68c 04be 661d 3a3d 55dc 45ba 761a febd
00000040: f90f 15be 2675 69bc a1ad afbd eb8c 54bd
00000050: 43af d4bd 706b abbd 3e38 e6bd b46d 22bc
00000060: fe2a 373c 743a 9bbc 011e 223e 41da 203a
00000070: 0025 3cbd 7b59 a63c 36f8 2dbd d247 05be
00000080: 9e34 8e3d e24a 3ebf 73fe 13be 3028 9ebd
00000090: 7d0b a2bd 2798 de3d 59b4 96bd 75d8 253b
000000a0: ab6f 113c aac8 71bd d73b 813e 1ac5 80bd
000000b0: 5a89 513d 8791 09be 789a 12bd b1c3 13bb
000000c0: 5bda e2bd b902 88be 2cdf d93b 2c3c f9bd
000000d0: 1a55 6ebd 67b5 7ebe cb1a 01be 89a3 37bd
000000e0: 0bfb f43d 2d23 d33c 397f a2bd 4f4b b43d
000000f0: a4a7 febd 5105 15bb 14ff bc3d e36c 46be
00000100: 4385 43be 2acd 8cbc 0de9 843b 2bcf 043e
00000110: 983d a7bc cab9 c4bd 123f 8e3d e5b8 843d
00000120: c8cb 81bd b89d 103c 54e6 ea3d 2242 8a3d
00000130: c56c d0bd 6200 1f3c 2310 e0bd 3474 fd3c
00000140: da45 a4bc 6f2b 97be 90d8 1fbd 3efd d9bb
00000150: f21c 0fbd f880 aabc 3752 f9bc 7f64 453c
00000160: df64 103c 3a45 91bc 030d 1e3e 3a9c f83a
00000170: c286 8fbc 5808 00bd 21e3 febc e4c3 c4bc
00000180: 217a 97bd f747 a2be fdd9 d7bd 511f 4abd
00000190: c468 debd e8b4 0dbe 4af7 18be 8a3d c0bc
000001a0: 5312 d93d 4e5c 96bd e7ae dcbe 7eca 9dbc
000001b0: f885 67bd dd39 c6bc 7152 31bc e201 f6bd
000001c0: a466 8ebe f3ad ccbd e088 603d 18e7 383d
000001d0: 0e61 13be 3924 a2be 25bb 7cbc 5cae 063d
000001e0: c2cd c53b f9a2 3b3d 8c54 1fbe eade 003e
000001f0: f64a 3bbe c025 6c3e 0dc8 93bd 1f0a 0dbe
00000200: 1ddb 99be a59f 293e 6687 1dbd e730 92bc
00000210: 1ac0 16be f7bd 87be 8222 71bd 72db c93c
00000220: f3ed 853c d0e7 4d3d 6b85 3dbe 0fba 8b3c
00000230: 849e 0abe 9800 1d3e bc1d 86bd 6d1c 16be
00000240: a2d4 d7bd 5b34 c63e 6c68 49bc d83c 133d
00000250: c563 6bbd 37b8 c2bc c26d 063d 9b6d 453d
00000260: 0e91 79bd 2e20 e23c 8637 483e 3846 de3c
00000270: 5307 9fbd a15c 9e3c 8e92 9abd 5b91 c0bb
00000280: 93fc b5bd aea8 163e b731 94bd fed1 b83d
00000290: 7f20 5abd 82e7 d33c 6b48 b73c 2eab 563d
000002a0: 7ef4 50bd 37d6 f7bc f92d bf3d c676 1f3c
000002b0: cd88 e3bc 172c aabd 0d70 d2bd 5586 4f3d
000002c0: 4c18 5f3c 6e4d 2e3d 7090 97bd 4c40 38bd
000002d0: 6bf8 8dbd f031 ca3c a698 34bd 4e74 963c
000002e0: 4a9c 01bb 9a25 c1bc aa71 c73e c5b7 dfbc
000002f0: 8157 8e3b 3879 6cbd a8bf 0cbd 20cc 89bc
00000300: 74f7 b4bd 7041 cd3e 550a 30bc cae4 f23c
00000310: 0c3b f8bc 4f87 71bd 0d96 21bd e8b4 973c
00000320: 59b3 823c 9554 6bbc 44e0 c5bc 9e67 133d
00000330: edb8 cabc 139c 253d d72e 13bd 0e53 06bd
00000340: 405f 80be 4169 c5be d17f f639 c7c6 513d
00000350: 6a12 93bd e2e7 68be cd0c 90bd 1086 8bbc
00000360: e4d3 28bd 2e10 ccbc 8747 4f3e dc61 863d
00000370: 6110 0cbe 8c3e 1a3e 9673 f1bd 5f42 bcbd
00000380: 0865 6fbe 1046 693e 80e8 12be 4a3b a03d
00000390: f79a 3fbe a301 c8bd 2ee3 4c3d a526 363d
000003a0: 7ff0 ccbd c461 2abd f2e2 c3be 304f 4d3c
000003b0: f82a 27be 6e9f 61bd 4d85 4abe dd2f 083c
000003c0: e840 a1bd aa7e 14be 198d 6cbd e39f 48be
000003d0: c9b3 7fbe 98ac 90bd a8e7 4dbe 2a8c 74bb
000003e0: 5d1e c3bb 1d5e 213b 550b 47bd 50ea b5bc
000003f0: 9a4e e7bb f3c7 6f3e 4fdc 0cbd df6c 4ebe
-0.22468239 -0.23417027 -0.012954277 -0.0824996 -0.06453536 -0.33399057 -0.0857556 0.016682584
0.03051887 0.033617757 -0.19901697 0.093768686 -0.12944302 0.045438193 -0.00075477856 -0.12407391
-0.14556874 -0.014249122 -0.08578039 -0.051892202 -0.10384991 -0.083701015 -0.11241196 -0.009913851
0.011179684 -0.018948771 0.15831758 0.0006136038 -0.045933723 0.02030634 -0.04247304 -0.13015679
0.0694363 -0.7433301 -0.14452533 -0.07722509 -0.079123475 0.108688645 -0.07358617 0.002530602
0.008876721 -0.05902926 0.25240967 -0.06287594 0.05115638 -0.1343442 -0.035791844 -0.002254706
-0.11076804 -0.26564577 0.0066489186 -0.1216968 -0.058186628 -0.24873887 -0.12607877 -0.044833694
0.11961945 0.025773609 -0.07934422 0.088034265 -0.12434319 -0.0022738765 0.0922834 -0.19377474
-0.19093804 -0.017187674 0.004056102 0.12969653 -0.020415112 -0.09605749 0.069456235 0.06480578
-0.06337696 0.008826666 0.11469713 0.06750895 -0.10176996 0.009704681 -0.10940578 0.030939199
-0.02005284 -0.29525325 -0.03902489 -0.0066525033 -0.034939714 -0.02081345 -0.03043471 0.012047886
0.008813112 -0.017733205 0.15434651 0.0018967458 -0.017520312 -0.031257957 -0.031114163 -0.02401919
-0.07396341 -0.3169553 -0.10539625 -0.049346272 -0.10859826 -0.13838542 -0.14938083 -0.023466844
0.10599198 -0.073418245 -0.4310219 -0.019261595 -0.056524247 -0.024197513 -0.010822878 -0.12012078
-0.27812684 -0.09994116 0.054818034 0.045142263 -0.14392492 -0.3166826 -0.015425478 0.032881126
0.006036491 0.04580972 -0.15559596 0.12585035 -0.18290314 0.23061275 -0.07215891 -0.13773392
-0.30049983 0.16564806 -0.038459204 -0.017845584 -0.14721718 -0.2651212 -0.0588708 0.024640772
0.016348815 0.0502699 -0.18507926 0.017056493 -0.13537031 0.15332258 -0.0654864 -0.14659281
-0.10538603 0.3871182 -0.0122929625 0.035946697 -0.057468195 -0.023769481 0.032819517 0.04820023
-0.06092935 0.027603235 0.1955243 0.027133092 -0.07765069 0.019331278 -0.07547484 -0.0058767027
-0.08886065 0.14712784 -0.07236045 0.09024428 -0.053253647 0.025867227 0.022373399 0.052409343
-0.051014416 -0.030253513 0.093349405 0.009732908 -0.027775193 -0.08309191 -0.10275278 0.05066522
0.013616633 0.04255431 -0.07400596 -0.044983193 -0.069321476 0.024682015 -0.04409089 0.018366005
-0.0019776993 -0.0235775 0.38953906 -0.027309308 0.0043439274 -0.05773279 -0.034362465 -0.016820967
-0.088362604 0.40088987 -0.010744651 0.02965011 -0.030301593 -0.05896693 -0.03944974 0.01851888
0.01595466 -0.014363428 -0.02415479 0.03598749 -0.024746383 0.040432047 -0.03593334 -0.03279405
-0.2507267 -0.38556865 0.00047016007 0.05121496 -0.071812466 -0.22744706 -0.070336916 -0.0170317
-0.0412177 -0.024910059 0.2024213 0.06561634 -0.13678123 0.15062922 -0.117896244 -0.09192347
-0.23378384 0.22780633 -0.14346504 0.078238085 -0.18711458 -0.09765937 0.050021343 0.044470448
-0.100068085 -0.041597143 -0.38259083 0.012531087 -0.16324985 -0.055083685 -0.19777413 0.008312193
-0.07873708 -0.14501444 -0.05775175 -0.19592242 -0.24970926 -0.0706417 -0.20107901 -0.003731499
-0.0059545473 0.0024622746 -0.04859479 -0.022206455 -0.0070589306 0.23416118 -0.03438979 -0.20158719

bias f4 [19]
00000000: 0595 843e a2cf 8f3e f54e 663e 6a72 8c3d
00000010: 5778 003e 1f98 1e3e d6d8 0fbd 8409 ae3d
00000020: 3995 c73d 7989 013e 5ea8 51bb 4ac6 7e3e
00000030: c8c1 dd3d 98b9 b6be 2c85 7dbc 2bf4 7a3d
00000040: 7699 84be a6f0 ebbd 6d20 5abe
0.25894943 0.280881 0.22491057 0.0685776 0.12545906 0.15487717 -0.0351189 0.08497909
0.09745259 0.12650098 -0.0031991224 0.24880329 0.108279765 -0.35688472 -0.015473645 0.061268013
-0.2589833 -0.115205094 -0.21301432
