models/a19lds19b0.007g0.8d2h13.pt (torch, 126679 bytes, 26 tensors)

weight_ih_l0 f4 [52, 4]
000000 c3 8e 6f be c4 7a f1 3b 2d 48 bf 3d 3b aa 3b be
       -0.23394303 0.007369371 0.09339938 -0.18326657
000010 f7 88 ec be 20 e6 ad 3e 34 52 2a 3e 57 18 36 bf
       -0.46198246 0.33964634 0.1663292 -0.7113089
000020 49 2d 82 be 9f dd 70 b9 c1 f0 37 bd c3 28 64 3e
       -0.25425175 -0.00022970744 -0.044907335 0.22281174
000030 1a 76 d4 3e 2f fd 2f bd cc 68 40 be 18 43 4f 3e
       0.41496354 -0.042966064 -0.18789977 0.20240438
000040 4a 87 c1 3e d7 9a da bd 97 a2 8e 3e 37 1f 5a 3f
       0.3779853 -0.106740646 0.2785842 0.8520388
000050 89 69 ae bd 5a 7e 1e 3e d8 6d 0e be fc 08 5b 3d
       -0.08516223 0.15477887 -0.1390909 0.053475365
000060 3a 56 12 bd ab de bb 3e 70 0d 32 3e fe 45 b6 3e
       -0.035726763 0.3669332 0.17387938 0.35600275
000070 04 ea bd 3d 42 f0 4e 3f db d0 46 3d 92 33 ce 3e
       0.092731506 0.80835354 0.048539024 0.4027372
000080 81 d9 1f be f2 16 ac be 1a e0 94 3d 03 c2 37 3f
       -0.15610315 -0.33611256 0.072693065 0.71780413
000090 5b 24 0f 3e 7a 20 46 3f 40 ef 0f 3e 93 23 c8 3e
       0.13978712 0.77393305 0.1405611 0.3908964
0000a0 23 a5 a6 3e 70 e4 5b 3e bd 5e 84 3e 3a 65 51 be
       0.32547864 0.2147386 0.2585353 -0.20448771
0000b0 ce 73 08 3e 96 e0 9b bc ee 90 28 3d c0 61 e5 3d
       0.13325426 -0.01902799 0.04115384 0.11200285
0000c0 f2 9d 26 3e ae 07 65 bd e6 6e 03 bd 24 0f e2 3e
       0.16271189 -0.055915527 -0.032088183 0.44152176
0000d0 29 a8 74 3d c9 da bd 3e c0 f6 00 3f 43 71 39 3e
       0.059730683 0.37080982 0.5037651 0.18109612
0000e0 50 46 ae be 63 64 16 3f 1e 0c ba 3e 77 a5 39 bd
       -0.3403802 0.5874693 0.3633737 -0.045323815
0000f0 27 c9 dd 3d 44 58 49 be e4 70 ff bd 0e 3d 14 3e
       0.108293824 -0.19662577 -0.12472704 0.14476416
000100 87 77 5d be 67 00 47 3e fb 62 58 3e f5 39 99 bf
       -0.21627627 0.19433747 0.21131508 -1.1970812
000110 66 aa 12 bf e8 b1 13 3d 1d b0 56 3e b8 5e 0b be
       -0.5729126 0.036058336 0.2096562 -0.13610351
000120 a3 37 d3 3e 0c f6 0a be 74 b7 83 bd 34 ff 00 3f
       0.41253385 -0.13570422 -0.06431475 0.5038941
000130 20 94 02 3f 7e 42 bd bd 8f 6e f4 bd 9f 8c 6e be
       0.5100727 -0.09241198 -0.1193515 -0.2329583
000140 07 bc fb 3e 41 30 10 3f fe ec 69 be 17 06 6a be
       0.4916689 0.5632363 -0.22844312 -0.22853886
000150 d3 7b be bd e7 fe 37 bf 59 9b d0 3d bd 23 58 3d
       -0.09300961 -0.71873325 0.1018588 0.052768458
000160 75 ae a3 be 84 d1 1b 3f 8b cd 8d 3e 37 fe de bd
       -0.31969038 0.6086657 0.2769588 -0.108883314
000170 6e a5 77 3e db 89 92 3e a9 d3 5a be 7d 51 68 3e
       0.241842 0.286208 -0.21369804 0.22687335
000180 8e 3b 41 3e 20 87 7c be 80 07 22 3e a9 a3 d3 3e
       0.18870375 -0.24660921 0.15823174 0.413358
000190 b9 41 ec be 7d f9 b0 be d1 16 08 3f 3e ba 34 be
       -0.46143892 -0.34565344 0.53159815 -0.17649171
0001a0 86 54 e2 bb f3 0f 5f be 21 0e b7 3d b6 81 47 be
       -0.0069070486 -0.21783428 0.08938242 -0.19483075
0001b0 7f 81 81 bd c1 8a a3 be aa 30 d9 be f6 ca d9 3d
       -0.063235275 -0.31941798 -0.4241994 0.10634415
0001c0 db d2 a7 3e 5c a9 a6 be c2 9d d9 3d 21 03 cc 3e
       0.32778057 -0.32551086 0.10625793 0.39846137
0001d0 c2 d2 dc 3e 7f 53 67 bc 5d 4d 6a be ba fa 08 bf
       0.43129545 -0.014119028 -0.22881074 -0.5350758
0001e0 94 7e 89 bd 92 8d 28 bd 81 6a 1f 3f 48 fb 14 be
       -0.06713596 -0.041150637 0.6227189 -0.14548981
0001f0 00 30 b1 3e 7a 56 85 3d 0e 21 fc be 47 94 9f 3c
       0.34606934 0.06510635 -0.4924397 0.019479884
000200 c5 f0 3a 3e 97 07 12 bf 6a 1e b8 bd 7f 23 91 bc
       0.18255909 -0.5704283 -0.08990176 -0.017717121
000210 2d 6f 7c 3d 0f ee d8 be 90 6b 6d be 44 1a 09 3f
       0.061629463 -0.42369124 -0.23185563 0.53555703
000220 ac b8 50 bd eb ad 8d be 56 12 05 be 06 cf 43 3f
       -0.050957367 -0.2767175 -0.12995276 0.7648777
000230 c8 b7 28 bd d5 ac b8 3e ab 26 7b 3e d7 aa 7f be
       -0.041190892 0.3606936 0.2452647 -0.24967514
000240 29 a5 e5 3e d7 b9 fa 3e bd da 86 be d1 59 1e 3e
       0.4485257 0.4896991 -0.2633876 0.1546395
000250 60 fa d7 3d 27 e6 9c bd f0 8e 29 3e ba 98 c8 3d
       0.10545802 -0.076610856 0.16558433 0.09794755
000260 fa bb 3f be 4e fc 0e bf e1 62 2d 3d ff 04 15 3e
       -0.18724051 -0.55853736 0.042330626 0.14552687
000270 3b 25 e2 bd 22 2c 90 3e f5 f8 4d 3e 1a d0 1c 3e
       -0.110422574 0.2815867 0.20114501 0.1531376
000280 2b 1f 76 be c0 94 c5 3e d3 fb 69 be 07 68 1e be
       -0.24035327 0.3859005 -0.2284997 -0.15469371
000290 a6 e6 9e bc 38 70 22 bd 49 ce e1 3d 07 63 e5 3e
       -0.019397091 -0.0396578 0.11025674 0.44802114
0002a0 40 d7 ce bd 1e ab 22 3f cb ca 16 3f 03 bc 34 be
       -0.100996494 0.63542354 0.5890319 -0.17649846
0002b0 42 fa 63 bc e0 00 76 be 25 70 00 3e 48 13 18 3f
       -0.013914647 -0.24023771 0.1254278 0.5940442
0002c0 45 5c af 3e 79 a9 94 be 1b 05 c3 3e e5 d9 63 be
       0.34250084 -0.29035547 0.38089833 -0.22251089
0002d0 58 92 b8 3e 83 a3 9b 3e 8a 99 69 3d d3 10 54 bb
       0.3604915 0.30398187 0.057031192 -0.003235866
0002e0 ab 6a 86 bd 80 a3 1e 3f e0 ef 97 be c8 34 2f 3d
       -0.06563314 0.6196823 -0.29675198 0.042774945
0002f0 23 c2 f4 bd f8 47 d0 bd 62 8d 28 3e e3 b2 05 3f
       -0.11951091 -0.10169977 0.16460183 0.52226084
000300 4a 14 09 3d 4e 4d cd 3d 52 e2 ed 3e c1 89 84 be
       0.033466615 0.1002451 0.4646173 -0.25886348
000310 26 31 3f 3c 55 b4 b1 bc 36 62 e5 3b b3 86 b6 bd
       0.011669433 -0.021692434 0.007000233 -0.089124106
000320 7c fd e7 3e 32 00 1a be 21 01 d6 be 12 c1 3f 3d
       0.4531058 -0.15039137 -0.41797736 0.046814986
000330 a1 8f 8f 3d 5f 19 8d be ff 57 1c 3e fb f5 1c be
       0.07009817 -0.2755842 0.15267943 -0.15328209

weight_hh_l0 f4 [52, 13]
000000 17 8a 20 bd 14 ef 0f be cf af 00 3e 0b 80 98 be
       -0.039194193 -0.14056045 0.12567066 -0.2978519
000010 bf e2 15 3d e7 32 e0 bb 2e 41 c9 be fe 38 93 be
       0.036593195 -0.0068420055 -0.3930754 -0.2875442
000020 ee a2 56 3e 23 0b 92 3e 06 31 9f be 3d 84 50 3d
       0.2096059 0.28524122 -0.3109209 0.050907362
000030 cf 31 7d bd 4e 50 31 3d d9 45 61 3e 3f 52 4a 3d
       -0.06181508 0.043289475 0.21999301 0.049394842
000040 79 1d 88 be 17 2a 48 3c 7a 92 4b 3c 2e 02 a8 be
       -0.26584986 0.012217066 0.012425059 -0.32814163
000050 c8 a5 23 3e c3 61 a3 be e1 74 a2 3e 4a e7 3b 3e
       0.1598121 -0.31910524 0.31729797 0.18349949
000060 23 fb 54 bd 40 04 b0 bd 01 63 6a 3e 55 18 bb be
       -0.051997315 -0.085945606 0.2288933 -0.36542
000070 bc 28 46 bc a6 7e 03 be 9e e1 fd bd f2 9c 96 be
       -0.012094673 -0.12841281 -0.12396549 -0.29416615
000080 b8 53 f5 3d 50 26 7d bc 2e 91 ce bb 11 12 12 3d
       0.11978859 -0.015451029 -0.006303928 0.03566176
000090 c5 31 ef 3e 05 16 4e 3e 51 83 49 3e 18 c7 83 bd
       0.4671766 0.20125587 0.19679 -0.064344585
0000a0 06 52 c3 be 65 ea f6 bc da 33 8f bd 2b d1 63 bc
       -0.38148516 -0.030141065 -0.06992312 -0.01390485
0000b0 82 21 08 bf 61 94 4e be 00 1b 21 be 55 dd 94 bf
       -0.5317613 -0.2017379 -0.15732956 -1.1630045
0000c0 2c 27 ad 3e 14 cc 57 3e 04 74 9c 3d 03 94 56 be
       0.33818948 0.21073943 0.07639316 -0.209549
0000d0 1a 87 27 bd 67 14 d2 be 39 4c 31 3f 34 4c 07 bf
       -0.040900327 -0.4103119 0.6925693 -0.5285065
0000e0 04 e5 98 3e 97 28 97 be fe 7c 2f be ea a5 af be
       0.29862225 -0.29523155 -0.17137524 -0.3430627
0000f0 50 63 36 be c9 77 74 3e 5b 0a 8c 3d ee b9 7c 3e
       -0.17811322 0.2387382 0.06837913 0.24680302
000100 bc ec cf 3e 18 02 6d be a1 54 be 3d 7d e1 d9 bd
       0.40610301 -0.2314533 0.092934854 -0.106387116
000110 0a 0f 2b 3e 2c f9 34 3e 15 6c 2a bc 16 a2 fc bc
       0.16704956 0.17673177 -0.010401745 -0.030839007
000120 58 6f 0f bf 29 80 38 be eb 3b 50 3e f7 05 18 3e
       -0.5602927 -0.18017639 0.20335357 0.14846025
000130 e2 03 08 be 17 f4 83 bd fe bb 01 be b8 aa 3f bf
       -0.13282731 -0.06443041 -0.1266937 -0.7486987
000140 db 75 16 3e 4f 79 45 be 51 84 9e bc 9b 37 25 be
       0.14693396 -0.19284557 -0.019350203 -0.16134493
000150 4d 9e 31 bf 24 83 a0 bf 52 48 72 bf bf 03 09 3f
       -0.6938217 -1.2540021 -0.946416 0.5352134
000160 2c 14 54 3f 61 a5 26 3e 5b 5b bc 3e eb 33 44 be
       0.8284328 0.16274025 0.3678845 -0.1916043
000170 e6 17 6e be 9e 22 42 be 91 f8 cd be fe 91 e8 3d
       -0.23251304 -0.18958518 -0.40228704 0.11355971
000180 bc b7 a9 3d a2 a5 84 be 31 c2 27 be 7c df 19 bf
       0.08286998 -0.25907618 -0.16382672 -0.60106635
000190 fc 72 f1 3b f4 e7 02 3e 1a 62 e1 3e 64 9c bf 3c
       0.0073684435 0.12783796 0.44020158 0.023390003
0001a0 62 31 82 3d 0b d3 83 bd 36 66 8f 3d 56 33 03 bd
       0.06357075 -0.064367376 0.07001917 -0.03203138
0001b0 4a 68 61 bd 87 86 6d 3e 74 92 13 3f 8e 8c 72 3e
       -0.0550311 0.2319585 0.57645345 0.2368643
0001c0 bd 67 8c bd 3d 36 1f be 2e ae 87 be ac 9a 4e 3e
       -0.06855724 -0.15548034 -0.26500076 0.2017619
0001d0 4b ad c8 3d 0e 46 2d bd 35 11 94 bd 90 a3 74 be
       0.09798678 -0.042303137 -0.072298445 -0.23890519
0001e0 14 47 b3 be 02 72 d6 bc b3 b6 ba be 84 1e 32 bf
       -0.35015166 -0.02617741 -0.36467513 -0.69577813
0001f0 71 ea 0a 3e fd 8d a5 bd e4 ff a4 3d e1 38 8b 3e
       0.13565995 -0.08083723 0.0805662 0.27191833
000200 ac 34 07 bd 10 0a b0 3d 15 a6 b5 3d f9 58 b6 be
       -0.033009216 0.08595669 0.08869568 -0.35614756
000210 51 b4 1a be 4f bc bc bc 6f 84 20 3e bd 93 5a bd
       -0.15107848 -0.023039011 0.1567552 -0.05336355
000220 05 26 8c 3d 2f c5 a5 bd 94 67 ac be c3 b8 88 3e
       0.06843189 -0.080942504 -0.33672774 0.26703462
000230 6a 06 50 3c fa e8 d4 3d 50 ed ba 3e 22 6a 88 bd
       0.012696842 0.10395999 0.3650918 -0.06660868
000240 b1 61 a5 3b c0 f9 ae 3c ca 5a e1 3d 5a 3f 7d 3d
       0.005047046 0.021359324 0.11003645 0.061827995
000250 f3 61 03 3e f9 76 6a 3e 6e 21 a3 3d 56 9a 1c bf
       0.12830333 0.22896947 0.079653606 -0.61173
000260 51 14 0b 3f 87 38 26 be e3 4c 08 3e 4c be ad 3e
       0.54327875 -0.16232501 0.1331058 0.33934247
000270 10 2c 6e 3e 48 dc 9a 3d bb ec c1 be 2e 62 0c be
       0.23258996 0.075615466 -0.37875924 -0.13709328
000280 f0 29 02 be 0f 6b 1b 3a 23 6f de 3c c0 56 79 be
       -0.1271131 0.0005928734 0.027152603 -0.24349499
000290 d6 23 b2 3e cb 5b 89 bc c0 d3 12 be 16 87 0b bd
       0.34792966 -0.016767403 -0.14338589 -0.034064375
0002a0 19 29 9c 3e 15 af f5 bc f3 db 12 3d 8f 17 f6 bd
       0.30500105 -0.029990712 0.03585429 -0.12016212
0002b0 25 a4 87 be f7 8e 45 bc 5e 32 e9 3c 04 5b 0e 3e
       -0.2649242 -0.012058011 0.0284664 0.13901907
0002c0 ad 98 27 bd 8f fc 4e 3e 83 58 22 bc e5 15 73 be
       -0.040917087 0.20213531 -0.009908798 -0.23738821
0002d0 84 98 aa 3d 4a 84 dc 3d 8e f3 a3 be 82 90 84 3e
       0.08329871 0.1076742 -0.32021755 0.258915
0002e0 78 a1 b4 3c 3e 3f 6b be c5 a4 bb bd 0d 4a 89 be
       0.02204965 -0.22973344 -0.09162287 -0.2681431
0002f0 ad 01 60 3b 46 eb 3f 3e ea 23 3d 3d 0d 6c 38 be
       0.0034180686 0.18742093 0.04617683 -0.18009968
000300 90 db 40 3e 13 c0 c3 3d dc 54 0a 3d 0f 0a e4 3d
       0.18833756 0.095581196 0.033772334 0.11134731
000310 f7 28 d3 3b c5 dc c5 3e 17 24 b7 bc c7 1b 69 bd
       0.0064440924 0.38644996 -0.022356076 -0.056911256
000320 8e b9 d8 3e 74 35 4d bc 68 b0 1c be 94 7d f0 bd
       0.42329067 -0.012524951 -0.15301669 -0.11742702
000330 fd bd 0c 3e c9 b7 a7 3c c0 5d 50 3e 3a f2 18 3e
       0.1374435 0.020473378 0.20348263 0.14936152
000340 6e 3a c4 bd 8f ef 1c be 77 b0 f2 bd 0c 09 18 3d
       -0.09581457 -0.1532576 -0.11850064 0.037118003
000350 d3 b7 e8 be 72 eb 18 3e 8d 46 df be 41 e3 ac bd
       -0.45452747 0.14933565 -0.43608513 -0.08441783
000360 ce ac c9 be 93 b3 cf 3e f3 d6 33 3e 6a c0 6e 3e
       -0.39389652 0.40566692 0.17562465 0.23315588
000370 ab e8 e8 bd 2e ec d9 bd 4a 3e 37 be 41 3e 85 bd
       -0.11372503 -0.10640751 -0.17894855 -0.065060146
000380 d4 12 da bd a4 1c a1 bd 41 f9 d7 be e3 78 44 3e
       -0.106481224 -0.07866791 -0.42182353 0.1918674
000390 b3 59 df bd 74 cd a3 bc c8 ca 47 be 41 83 f8 3d
       -0.10905781 -0.019995429 -0.19510949 0.1213441
0003a0 7e ca 86 3e ca 4a 92 3e 23 06 7c 3e c8 6c 2f be
       0.26326364 0.28572685 0.24611716 -0.1713134
0003b0 8d 7d d0 bd f7 01 f7 3e 07 d5 9c 3d 6e af 61 be
       -0.10180197 0.48243687 0.07657819 -0.22039577
0003c0 94 77 75 be b1 06 e3 3d 6e fb 42 be e0 9c f6 3d
       -0.23971397 0.11085261 -0.19041225 0.1204164
0003d0 04 66 24 3e a5 dc bc 3e 68 f8 9c bc 46 90 f8 be
       0.16054541 0.36887088 -0.019161418 -0.48547572
0003e0 41 17 6f be 11 91 20 3e 00 6f ff be 20 13 16 bf
       -0.23348714 0.15680338 -0.49889374 -0.5862293
0003f0 3c 4f 88 be 38 95 43 bf 94 1e cb be 34 ba 37 bf
       -0.2662295 -0.76399565 -0.39671767 -0.717685

bias_ih_l0 f4 [52]
000000 ef e9 b7 3d 4c c4 b8 3e d3 7b 83 3e 6d fa 91 3d
       0.08980166 0.36087263 0.25680408 0.07127843
000010 e1 d5 97 3e 51 fc 44 3e 26 22 92 3e 73 00 63 3e
       0.29655364 0.19236876 0.28541678 0.2216814
000020 a3 7a d4 3e 10 c8 3a 3d a2 41 0c be c9 53 f6 3d
       0.41499814 0.04560095 -0.13696912 0.120276995
000030 c4 4a 83 3d 23 61 ad 3e 90 0e 7e 3c 2d fe 7a bd
       0.06410745 0.33863172 0.015506402 -0.061277557
000040 d9 b2 be bd c7 27 04 be a5 c1 9d 3e 6c 98 86 bd
       -0.09311456 -0.12905799 0.30811802 -0.06572041
000050 72 46 40 3e 2f be 52 be f0 a4 8d 3e a0 5f e4 3d
       0.18776873 -0.20580362 0.276649 0.111510515
000060 41 45 63 be 5b 33 62 be 74 c8 c9 3c d7 7a 11 be
       -0.22194387 -0.22089903 0.024631716 -0.14207016
000070 7a 38 04 3d 16 d1 87 be 37 7e 31 3e 93 ea 0e be
       0.032280423 -0.26526707 0.17333303 -0.1395667
000080 6a ea a4 be 87 a5 fc bd 3c f8 1c be 83 2c 9d 3e
       -0.32210094 -0.12336259 -0.15329069 0.30698022
000090 81 4b 19 3e 76 f3 29 3e 97 42 66 3e 33 a8 2e be
       0.14970209 0.16596779 0.2248634 -0.1705635
0000a0 d5 5b 56 3e 91 55 c3 3e 50 1a 7a 3e 77 44 ac 3d
       0.20933469 0.3815122 0.244241 0.08411496
0000b0 d4 87 f6 3d 42 be 2d 3e 54 62 be 3e a1 71 cf 3e
       0.12037626 0.16967109 0.37184393 0.4051638
0000c0 8a 36 c3 3e a3 28 2a 3e 37 1c 5b 3e 05 72 6f 3e
       0.38127548 0.16617064 0.21397482 0.23383339

bias_hh_l0 f4 [52]
000000 4b 11 9d 3e 3b 07 71 3e 8b 3d b1 3e 2d b3 1f 3e
       0.30677256 0.23537914 0.34617266 0.15595694
000010 99 c7 e0 3e 22 e7 a0 3e 5b df d3 3d 97 78 72 3d
       0.4390228 0.3142634 0.10345336 0.059197035
000020 70 06 65 3e 95 e0 d2 3d 36 30 11 bb b1 cb 9b bd
       0.22365737 0.10296742 -0.002215398 -0.076072104
000030 d2 40 9f 3e 3a 48 9b 3c 7a 92 7d 3e 15 fb 3a bd
       0.3110414 0.018955339 0.24762908 -0.045649607
000040 9d 66 8d bd bc 52 ae bd e9 a3 9a bd e2 e9 65 3e
       -0.069043376 -0.08511874 -0.07550795 0.224525
000050 e6 d5 5f 3e d1 fc df bd d6 b3 89 3d 66 98 5c be
       0.2185894 -0.10936893 0.06723754 -0.2154251
000060 99 b3 40 bb 57 72 96 3e 9a 0d 84 be 3a 02 a7 3d
       -0.0029403924 0.2938411 -0.25791627 0.081547216
000070 2c 0f 51 3e 9d ed be 3d e1 b6 08 be 8f a6 6a 3d
       0.20415944 0.09322665 -0.13351013 0.05728775
000080 3f f6 30 3e e5 c7 6e 3c 18 e7 02 3e 60 8b b9 3d
       0.17281435 0.014574026 0.12783468 0.09059787
000090 1e ca 84 3c fd e4 d5 3d b7 10 75 3e db 2f cf 3d
       0.016209658 0.10444067 0.23932157 0.101165496
0000a0 6e 8b 85 3e 62 f1 d8 bd 3e 1f 5d 3e 2b 6d 6b 3d
       0.2608294 -0.10592915 0.21593949 0.057477158
0000b0 a9 3f 82 3e c5 f6 b6 3d 51 e1 3f 3c 09 88 3a 3e
       0.25439194 0.08933786 0.011711434 0.18215956
0000c0 0c ae 86 3e 6e 51 86 3e 5e 25 02 bd 81 57 98 3e
       0.26304662 0.26234 -0.031773917 0.2975426

weight_ih_l0_reverse f4 [52, 4]
000000 ee 74 38 3e 08 37 67 be d1 e4 81 3e 7f a2 c2 3d
       0.18013355 -0.22579587 0.25369886 0.0950365
000010 fb 07 1a 3f d2 5e 1a 3e fa ad 96 3e 01 99 13 be
       0.6016843 0.15075234 0.2942961 -0.14413835
000020 f4 3f e4 bd 15 e2 74 3e 9d 1e 38 3f 2c 92 07 bf
       -0.111450106 0.23914368 0.7192171 -0.52957416
000030 76 6a 2d 3d 26 57 a2 3d cd eb 4d 3e 5d fc 48 bd
       0.042337857 0.079267785 0.20109482 -0.049068797
000040 d8 bf 83 be a8 0d 17 3f 1b c0 51 3e cc c5 8f bd
       -0.25732303 0.5900521 0.20483439 -0.07020149
000050 f5 cc 93 3e de 69 f2 3d 4c ca 1b 3f 9d 2e a6 3b
       0.28867307 0.11836599 0.60855556 0.0050714747
000060 a8 14 b6 bb 0e 79 68 be 06 64 85 be 0c 78 6a bc
       -0.0055566616 -0.22702429 -0.26052874 -0.014310848
000070 d4 7e 08 be a1 86 af be 19 b4 e1 3e f8 35 91 3e
       -0.13329631 -0.342824 0.44082716 0.28361487
000080 12 ec e6 3d e0 ce 6d 3e c0 52 3d bc 4e ef ec 3b
       0.112754956 0.23223448 -0.011555374 0.007230676
000090 a1 13 c9 be b7 8e 12 be 28 9b a9 3d df 69 ba 3e
       -0.39272788 -0.14312254 0.08281547 0.36408898
0000a0 b3 a7 2e 3e 94 94 b3 3e b0 a0 0a bd 2a ce 9e 3d
       0.1705616 0.35074294 -0.03384465 0.077541664
0000b0 40 ea ef 3e 14 23 b3 3d d8 e2 4c 3f 8f 1d 99 3e
       0.46858406 0.08746925 0.80033636 0.29905364
0000c0 e7 75 50 be 0d b1 c0 3d 7f 80 88 3e 26 ff 07 3e
       -0.20357476 0.0940877 0.26660535 0.13280925
0000d0 64 8f e6 3d ac 37 33 3e 44 ff b4 bd 1a c6 67 be
       0.11257818 0.17501706 -0.088377506 -0.22634163
0000e0 da 7b bd 3e 80 b6 cc bd c4 f0 4f 3e b1 6a 0e 3e
       0.37008554 -0.099957466 0.20306689 0.13907887
0000f0 d5 2c 1a be 2f 93 40 3e b2 82 8d 3e ce 0c bc be
       -0.15056165 0.18806146 0.27638775 -0.3672852
000100 49 b4 3d 3d 42 4a 61 3d 0f 4e 98 3e 91 a4 1f 3e
       0.04631451 0.05500246 0.29747054 0.15590121
000110 bb ec 94 be 44 04 65 bd cf 02 19 3f 4d d4 82 be
       -0.2908686 -0.05591227 0.5976991 -0.25552598
000120 d1 9a 6b 3e 2b ac 02 3e 15 b3 28 3e 82 04 da 3e
       0.23008277 0.1276099 0.16474564 0.42581564
000130 3e d2 a5 3e 6f 25 a8 be 24 48 4d 3e 34 4d 8d 3e
       0.32386965 -0.3284106 0.2004705 0.27597964
000140 e1 f1 0f bf 85 f5 80 3e 99 6e f1 3d fa c5 b5 3d
       -0.5622845 0.25187317 0.11788673 0.08875652
000150 f0 e8 0e be 23 1d 97 be c1 2f 25 be b4 b6 06 be
       -0.13956046 -0.29514417 -0.16131498 -0.13155633
000160 e0 41 b8 3e f3 26 2b be 4a bc a6 3e d6 11 26 3f
       0.3598776 -0.16714077 0.32565528 0.64870965
000170 f2 6a 02 3e 90 7a 49 be 9d 42 b8 bd 94 dd dd bc
       0.12736109 -0.1967566 -0.089970805 -0.027083196
000180 63 2b a2 be 18 82 64 bd e2 af ac 3d 73 a3 d4 be
       -0.31673726 -0.05578813 0.084319845 -0.41530952
000190 7c e2 db 3d 03 ae 27 3e bd 35 1d bd 97 b3 ac 3d
       0.10736558 0.16374974 -0.038381327 0.084326915
0001a0 3c 36 9c 3e 12 1e 63 be 90 d2 c0 be c0 4c db 3d
       0.30510128 -0.2217944 -0.37660646 0.10707998
0001b0 cb 7a 45 3e ac 8b 0a 3f d6 0f 2e be de 1b f0 be
       0.19285123 0.5411937 -0.16998228 -0.4689626
0001c0 aa 97 e0 be 16 f0 72 3e 84 88 7f bd b9 65 e4 3d
       -0.4386571 0.23724398 -0.06238605 0.111522146
0001d0 a9 1f 36 bd 8f 78 bc 3e 59 db 86 be 51 84 89 3e
       -0.044463787 0.3681073 -0.26339224 0.26858762
0001e0 8e 58 a4 3d 89 8b 17 bf 6a 75 b3 3c 48 5b 83 3d
       0.08024703 -0.5919729 0.021906573 0.06413895
0001f0 61 b8 8d 3e f2 a6 61 be 44 72 9f 3e 23 7c 9a 3d
       0.27679732 -0.22036341 0.31141865 0.075432085
000200 bc fa 2a be fd bb 3b 3e 13 8d 50 be db df 12 be
       -0.1669721 0.1833343 -0.20366316 -0.14343207
000210 3c c5 c4 3e 7e a4 c3 3d 28 08 ea be b3 f8 f0 3e
       0.38431728 0.09552859 -0.45709348 0.47064742
000220 e3 e3 55 be b5 5a 21 bf 2b fd 8d 3e 16 09 f9 3e
       -0.20887713 -0.6302903 0.27732214 0.48639745
000230 ee 37 ab be eb 65 0d bf da b0 07 3e 3a 9a a5 3d
       -0.33441108 -0.5523364 0.13251057 0.08086057
000240 6c fc 29 be f3 25 96 be 49 fb 8c 3e 5c 13 a0 be
       -0.16600198 -0.29325828 0.27535465 -0.3126477
000250 47 00 d5 3e c4 22 b8 3e 3e 77 bf bd df 79 c3 bc
       0.41601774 0.35964024 -0.093489155 -0.023861824
000260 ed 2a 4e bd 80 f9 ce 3e eb ab e7 3d ba 85 d5 be
       -0.050333906 0.40424728 0.113120876 -0.41703588
000270 5f 2c d6 3e d5 c1 e3 3c 7b 5d d2 3d dd 45 41 be
       0.41830727 0.027802387 0.10271736 -0.18874307
000280 7f 33 04 3f e3 df 8e be 2f cc a7 3c 66 52 81 3e
       0.51641077 -0.27905187 0.020483105 0.25258178
000290 e0 3d 25 3e 6a 10 4e 3e fb fb 8a 3c 24 b2 05 3d
       0.16136885 0.20123449 0.016965857 0.03264059
0002a0 22 99 c3 be 04 dc b0 3e d7 d7 c5 3e e2 97 f6 bd
       -0.3820277 0.3454286 0.38641235 -0.12040688
0002b0 31 91 eb be ac a3 5d 3f af 55 42 be a2 03 0a bc
       -0.4600921 0.8657787 -0.18977998 -0.008423718
0002c0 aa 29 28 be 26 fa d8 be 9d fb c3 3e 7a 50 50 3e
       -0.16422144 -0.42378348 0.38277903 0.203432
0002d0 75 84 0c 3f e5 e0 b0 bd 2a bf a0 bd 02 7d fb 3d
       0.54889613 -0.08636645 -0.07848962 0.12279703
0002e0 24 ec 29 bc 29 e0 09 3e 54 78 d6 be 68 ad 1d 3f
       -0.010371242 0.13464417 -0.41888678 0.6159272
0002f0 e5 af 0a 3e df a7 8a 3e f5 40 76 bd 92 2e c6 bd
       0.13543661 0.270812 -0.06012054 -0.09676851
000300 1f cc 76 bd 53 3c 57 3e 1b b8 c3 3e 1e b8 2e bc
       -0.06025326 0.21019106 0.382264 -0.010664014
000310 07 f3 ae 3d 75 07 32 be 87 f2 01 bf 00 ba 8c 3e
       0.085424475 -0.17385657 -0.5076069 0.27485657
000320 ca ac e0 3e 90 a2 9c bd 50 96 4d 3e da 00 50 be
       0.43881828 -0.07648194 0.20076871 -0.20312825
000330 c3 b3 a0 be ed 8e 4e 3e f5 27 c2 3d 0a 30 02 3f
       -0.31387147 0.2017171 0.094802774 0.5085455

weight_hh_l0_reverse f4 [52, 13]
000000 2d f6 07 bd b9 ec 51 bc 7e a9 90 3d e4 b0 95 3e
       -0.033193756 -0.012812787 0.07063578 0.2923652
000010 fa 95 c3 be 03 0b 84 3e af 86 2c be 11 af 14 3f
       -0.3820036 0.2578965 -0.16848253 0.5807963
000020 79 e1 5a be 7b 41 cd 39 6a b7 93 be 7d 1f 9f 3e
       -0.21375073 0.00039149434 -0.2885087 0.3107871
000030 51 d8 a2 3d 83 8a ee be 08 4b 94 3e f7 2d 75 3d
       0.07951415 -0.4659005 0.28963494 0.05985829
000040 1b 1c 91 3e 03 44 1b bf 30 38 60 3e 4a 4d 8e be
       0.28341755 -0.6065065 0.21896434 -0.27793342
000050 c9 99 54 3d b2 18 90 3d 0c ce b1 3c b6 d3 10 bf
       0.051904473 0.0703596 0.021704696 -0.56573045
000060 60 d6 1e be 02 e4 11 3f f4 96 02 bf 38 f2 01 3e
       -0.15511465 0.5698854 -0.51011586 0.12690055
000070 fb e0 37 3e 97 20 5c 3d 26 f1 a5 3d f7 d8 b8 3d
       0.17956917 0.053742018 0.08102636 0.09025758
000080 91 11 81 be 57 b8 11 3e 9e 2a 8a bc e2 88 c1 be
       -0.25208715 0.14230476 -0.016866025 -0.37799746
000090 7c fb 9e 3d 25 f3 32 be e6 5a f0 3d 46 7a 92 be
       0.077628106 -0.17475565 0.117360875 -0.28608912
0000a0 1b 8d 14 3f 1d d9 b9 be 5f 40 8d 3e bc a2 b5 3b
       0.5802781 -0.36298457 0.27588174 0.005543081
0000b0 53 94 a4 3e 59 60 ad bd f9 06 49 be e0 a6 c1 3d
       0.32144412 -0.084656425 -0.19631566 0.09455657
0000c0 fc 39 5b be 40 72 2c be 60 ea 00 3c 39 65 e8 3e
       -0.21408838 -0.16840458 0.007868379 0.45389727
0000d0 e3 7c a6 3d cd b3 3a bd e4 0c 17 3e b2 78 f3 be
       0.08129289 -0.045581628 0.14751011 -0.4755302
0000e0 77 0f 3d 3c 8d 45 9d 3e 33 b4 a6 3d 56 86 9a 3d
       0.011539332 0.30717126 0.08139839 0.07545154
0000f0 29 0e bc 3e b8 38 20 3e f9 7c 0e bc d3 76 96 be
       0.36729553 0.15646636 -0.008696788 -0.2938753
000100 f0 ce 83 3d e0 e2 ce bd b4 92 aa bd 44 b8 56 3d
       0.064359546 -0.10101867 -0.08328763 0.052421823
000110 b3 3f e3 3d b1 82 be bc b6 98 bc 3e bd 52 02 bd
       0.11096134 -0.023255678 0.3683526 -0.031817187
000120 85 f0 20 3e 78 06 e7 bd c5 50 f6 bd f2 00 35 3e
       0.15716751 -0.11280531 -0.12027124 0.17676142
000130 40 4d 02 be e9 70 57 3e 86 f6 c6 3d 6b 29 a8 3e
       -0.12724781 0.21039166 0.09714989 0.328441
000140 4e c9 a7 3c 68 3c 58 bc 8a 0c 03 bf 0a d4 7f be
       0.020481732 -0.013197996 -0.5119101 -0.2498323
000150 6f 8c c6 bc 31 cf 77 3d a7 99 b5 be 65 10 86 be
       -0.024236886 0.060500327 -0.3546879 -0.26184383
000160 e4 c0 4a 3c 17 95 8d 3e 1c da 32 3d 4d 89 0a bd
       0.01237509 0.2765281 0.043665037 -0.033822346
000170 34 ce d5 bd 43 15 be bd d5 15 dc 3d f8 5b af be
       -0.10439721 -0.09281399 0.10746352 -0.34249854
000180 fc 51 0f 3f 74 b1 a1 be 76 b2 e1 3c f5 7e 1e 3e
       0.55984473 -0.31580698 0.027550917 0.15478118
000190 1f a9 26 3d 21 22 9e bd 4b 8f 22 3e 2f 96 40 be
       0.04068863 -0.07721353 0.15874974 -0.1880729
0001a0 ba 5e 19 be 64 3c 30 be 77 ae 56 3e 6d 90 b7 3e
       -0.14977542 -0.17210537 0.2096499 0.35852376
0001b0 41 37 29 3d fe 08 db 3c e1 1e 88 bd aa 19 c8 3e
       0.04131246 0.026737686 -0.06646515 0.3908208
0001c0 64 04 1a be 83 65 bb be a9 8a f3 be f5 40 86 be
       -0.15040737 -0.36600885 -0.47566727 -0.26221433
0001d0 ba d2 51 3e ce 23 ec be be 47 8d bd 53 ae 57 be
       0.20490542 -0.46121067 -0.06898449 -0.21062593
0001e0 3e 8d 9a 3d d0 f9 05 bf 90 70 04 be 08 0b 32 3c
       0.07546471 -0.5233431 -0.12933564 0.010866888
0001f0 d4 10 ce bd a8 ab 10 3e b3 91 f1 bd 3a c1 e2 bc
       -0.100618035 0.14127982 -0.11795368 -0.027680028
000200 7d da ac be ba 0e 0e 3c 30 30 9d 3e 05 17 c8 3d
       -0.33760443 0.008670503 0.30700827 0.097700156
000210 3c 7e b8 be 04 39 93 3e 9e 86 c9 3d ff 64 ed 3c
       -0.3603381 0.28754437 0.09840129 0.028978823
000220 c5 55 e5 be 18 c6 0c 3e 4d aa 8a bd 33 32 47 be
       -0.44792 0.13747442 -0.067707635 -0.19452743
000230 8a 7f 52 be 03 09 d6 bd d3 43 22 3e 87 7f 54 be
       -0.20556465 -0.104509376 0.15846185 -0.20751773
000240 2d 92 b3 3d b2 a1 02 bf b2 54 f4 3e 55 93 61 be
       0.08768115 -0.5102798 0.47720867 -0.22028859
000250 2c 96 fb 3e e3 5e 14 bf e0 36 00 3f f0 b1 d1 bd
       0.4913801 -0.57957286 0.5008373 -0.10239017
000260 a2 c5 de be bf 97 d9 be 1d b0 01 3e b9 e7 84 3e
       -0.43510157 -0.42498586 0.12664838 0.2595804
000270 3f 20 e6 bc 19 5f bd bd 21 e4 09 bf 8a 74 81 3e
       -0.028091548 -0.09246654 -0.5386372 0.25284225
000280 a8 ee a8 be a1 55 13 3e 0e ab 02 be af e6 56 3e
       -0.3299458 0.14388134 -0.12760565 0.20986436
000290 b2 4c 21 be fc ed 03 bc 24 8d 67 be ea 92 2b be
       -0.15751913 -0.008052345 -0.22612435 -0.16755262
0002a0 1e cd 8e 3e d7 53 04 be 3b fb 8c bc 98 96 88 be
       0.27890867 -0.12922607 -0.01720964 -0.26677394
0002b0 fa 6b 78 bd f0 a1 6e be af 8a 26 3d 6c 45 41 3e
       -0.06064985 -0.23303962 0.040659603 0.18874139
0002c0 12 e2 ad 3d 62 c3 35 be df ab 0a bd c7 7c 17 be
       0.08490385 -0.17750314 -0.033855315 -0.14793693
0002d0 eb cb 17 be 4d 23 5f 3e 77 5e 76 be 24 45 4c be
       -0.14823882 0.2179081 -0.24059473 -0.1994825
0002e0 c8 fe bc bd 45 6f 47 be fc 78 89 be ce 9b 13 bd
       -0.09228283 -0.1947604 -0.26850116 -0.03603726
0002f0 59 84 97 3d 07 84 3c bd 38 a0 88 be ab 09 5d be
       0.0739829 -0.04602435 -0.26684737 -0.2158572
000300 74 c9 03 3e 0b 5c c8 bd 67 b5 cc 3e 86 12 7b be
       0.12869817 -0.09783181 0.3998215 -0.24518785
000310 e0 06 3d 3a a5 4d 5e be c0 96 82 3e 53 b8 d0 3c
       0.0007210802 -0.21709307 0.25505638 0.025478518
000320 ff 2a b6 3d 12 0c 47 be 86 b2 8a be 1a d4 0a be
       0.088949196 -0.19438198 -0.27089328 -0.13557473
000330 39 4b 03 3e 79 fc 44 be 2c b8 bf 3e b0 10 b8 3e
       0.12821664 -0.19236936 0.374452 0.35950232
000340 e7 b5 25 bf 33 d4 89 3d 0e ab b9 be db b2 af 3e
       -0.64730686 0.06729927 -0.36263317 0.34316143
000350 98 2f 0e be ab 3e 9c 3e 7d 63 40 be 64 8e 05 3e
       -0.13885343 0.30516562 -0.18787952 0.13042599
000360 e7 2e a8 be d9 28 c7 be 0c e3 ae bd 70 d8 f1 3e
       -0.32848284 -0.38898352 -0.085393995 0.4723544
000370 3d 93 77 3e 32 19 0c be 9f e4 d5 bd e9 c7 26 3e
       0.2417726 -0.13681486 -0.10443997 0.16287197
000380 4d ab f7 bc cc 86 fc 3d 25 04 23 3e 00 42 1b be
       -0.03023305 0.12330398 0.1591955 -0.15161896
000390 e7 71 6c be 1b 97 6a 3e 76 58 c0 3e 9d bc 9d 3c
       -0.23090325 0.22909205 0.3756749 0.019254977
0003a0 db 29 76 3d 1a 3d 9e bd bc 1f 57 3e bd ee 8e 3e
       0.06009851 -0.07726498 0.210082 0.27916518
0003b0 6b 66 3b be 89 af 6c bd f7 2b af 3e e5 95 7d bd
       -0.18300788 -0.05778459 0.3421323 -0.06191053
0003c0 23 9b 6e be 79 3a 66 3e 79 24 2e 3e 23 11 14 be
       -0.23301367 0.22483243 0.170061 -0.14459662
0003d0 80 2b cf bc e7 c4 14 3e 01 fe 0d 3e a2 8e 9e bd
       -0.025289297 0.14528237 0.13866426 -0.07742049
0003e0 71 82 1e bc 4c de c3 bc 1a fd 52 3e 5f 9f e2 3c
       -0.009674654 -0.02390971 0.20604363 0.027663885
0003f0 71 99 31 be 68 3f 03 3c e3 15 64 3e 43 09 43 3c
       -0.1734369 0.008010723 0.22273974 0.011904064

bias_ih_l0_reverse f4 [52]
000000 88 9c fb 3c 75 0a 94 3e ae 58 41 be a5 ca 91 3d
       0.030714288 0.28914228 -0.18881485 0.071187295
000010 0f c4 03 be b4 37 b0 3e 2a b6 a6 3d 9f aa 9b 3e
       -0.12867759 0.34417498 0.08140214 0.3040361
000020 52 2c d2 bb 1c 4d 88 3e aa 39 9d 3e 75 4e 13 3f
       -0.006413975 0.2662133 0.30708057 0.5754159
000030 6a 75 06 3e 70 b5 fb 3d aa ac d6 bd 05 c2 7a 3d
       0.13130727 0.12290466 -0.10482152 0.061220188
000040 d6 93 94 3c 02 4c 76 be 9b dc 00 3d 73 c6 d2 bd
       0.0181369 -0.24052432 0.031460386 -0.102917574
000050 c4 83 ab 3e 9b e1 06 be d3 60 b1 3e 48 a4 3e 3d
       0.33498967 -0.13171999 0.34644184 0.04654339
000060 e1 d3 4c be d7 14 32 be 20 fb d7 3d 91 3e ed 3d
       -0.200027 -0.17390762 0.10545945 0.11584199
000070 7a c4 5a be 8f 07 81 3e 4a 83 83 be fa 87 29 3e
       -0.21364012 0.2520108 -0.25686103 0.16555777
000080 c1 0f ab bd 5d 1c 95 3e 19 0b 28 be 67 5b 0a 3e
       -0.08352614 0.29123202 -0.16410483 0.1351143
000090 0f 56 7c be 49 f1 53 be d5 31 79 3d d0 b1 8e 3d
       -0.24642204 -0.20697512 0.06083854 0.06967509
0000a0 59 71 8b 3e ca d5 96 3e 57 b6 42 bd b6 f9 78 3e
       0.27234915 0.29459983 -0.047537174 0.24314007
0000b0 91 7a 9d 3e c6 6b 2a be 0b 2d b0 3e 21 4c d6 3c
       0.30757573 -0.16642675 0.34409365 0.026159348
0000c0 4d 0f c5 3e 85 35 06 3e 2d 3a cd 3e c4 23 03 bd
       0.38488236 0.13106354 0.40083447 -0.03201653

bias_hh_l0_reverse f4 [52]
000000 12 27 6c 3e 34 7e 7a 3d 8e 51 2e be 8d 20 ad 3d
       0.23061779 0.061155513 -0.17023298 0.08453474
000010 77 f7 a0 3e c1 87 12 be 53 c5 52 3e b1 5a f3 3e
       0.314388 -0.14309599 0.20583086 0.4753013
000020 24 40 bf 3e 31 9a a6 bc 7b 50 72 3e a7 ff 1e 3f
       0.37353623 -0.020337196 0.23663513 0.62108845
000030 65 b4 9d 3b ec 40 16 be ba 79 ac 3d a3 6c 02 3e
       0.0048127645 -0.14673203 0.08421655 0.12736754
000040 fe 8f 9f 3e a8 09 f7 3d b5 c5 ca 3d b7 8f 6d 3e
       0.31164545 0.12062389 0.09900991 0.23199354
000050 77 eb b6 3d 3c ce 19 be 6a df b3 3d 10 b4 11 3e
       0.0893163 -0.15020078 0.08782847 0.14228845
000060 d9 fa 16 be 69 e5 a9 bd f4 74 6f be ab 8c 89 3c
       -0.14744128 -0.0829571 -0.23384458 0.016790709
000070 40 62 46 be 0c 2a a2 3c 21 ab 6b be 54 94 2c 3e
       -0.19373417 0.01979544 -0.23014499 0.16853458
000080 67 e9 97 be 97 7d b4 3d b3 de 6c be 8f 4a 3d be
       -0.2967026 0.08813017 -0.23131828 -0.18485473
000090 b1 ed b5 be 4f 4c 6e 3e 9d d5 61 3d f7 c4 0a bd
       -0.35532907 0.23271297 0.055135358 -0.033879247
0000a0 26 04 61 3e be 44 83 3e 0c d3 45 3b 08 e7 83 3e
       0.21974239 0.25638384 0.0030185608 0.257622
0000b0 93 20 a0 3e 8a 5e 55 3b c6 c8 ea 3d ed cd bf 3e
       0.31274852 0.003255757 0.11464076 0.37461796
0000c0 ea 71 f2 3d 2f 1b a2 bd c7 58 01 3f 26 8d 9c 3d
       0.11838134 -0.07915341 0.5052609 0.076441094

weight f4 [16, 260]
000000 cd 02 9e bc 5c 9f b1 3d b5 30 2f bd 9d 5a f4 3d
       -0.019288445 0.086729735 -0.04277106 0.119313456
000010 d4 c2 60 bd 39 68 be bc be 28 53 3d 57 0a ca bc
       -0.054873303 -0.023243057 0.051552527 -0.024663134
000020 fc 4e 33 bc ef ce 09 3b 2c 8a 12 3e c4 83 a3 3d
       -0.010944124 0.0021027883 0.14310521 0.07984117
000030 ee 17 e9 3b b6 28 2e be 38 f1 b6 3d e1 8e 43 be
       0.0071134483 -0.17007717 0.089327276 -0.19097473
000040 7f 6b 79 bd 14 63 1c bd b6 35 d3 bd 45 b3 be bd
       -0.060893532 -0.038180426 -0.10312979 -0.09311537
000050 fc 7f 28 3d cb 55 a3 bd eb a8 67 bd f2 61 99 3d
       0.04113768 -0.07975348 -0.056557577 0.07489385
000060 78 a3 4d 3c ee 69 90 3d 81 a2 78 bc dc 97 29 3d
       0.012551181 0.070514545 -0.015175463 0.04140459
000070 96 3e 1e ba 96 c7 47 bb bf b2 7e 3e a8 75 3f 3d
       -0.0006036548 -0.0030483953 0.24872874 0.046743065
000080 b4 72 5b bd 56 3d 45 bd 23 8a b4 bd 30 31 32 3c
       -0.053576186 -0.048154198 -0.0881541 0.010875985
000090 8f 40 d8 bd ef 98 03 3c c1 fa 26 3d 6b 77 52 be
       -0.105591886 0.008032068 0.04076648 -0.20553367
0000a0 ba 30 82 bc 6d a3 f3 bd df 5b a9 3b 94 7c 38 3e
       -0.015892375 -0.11896405 0.0051684226 0.18016273
0000b0 ab 58 de 3d fc b5 4e 3d aa d0 8b 3d 29 38 81 bd
       0.10856756 0.050466523 0.06826909 -0.0630954
0000c0 9e f1 05 bd 23 83 25 bd ac c6 01 3e 1f 45 89 bc
       -0.032701127 -0.040408265 0.12673444 -0.016756592
0000d0 97 c6 28 bd 31 b9 d6 3d 05 c1 1c bd 50 c4 8b 3d
       -0.041205015 0.10484541 -0.038270015 0.06824553
0000e0 72 35 f6 bd 2c 28 8d bc d6 46 30 3c 1f d4 dc 3c
       -0.12021913 -0.01723107 0.010759076 0.026956616
0000f0 c0 f2 52 3d cc 62 d9 3d 23 19 a4 ba 64 ac a9 3d
       0.051501036 0.10614547 -0.0012519698 0.08284834
000100 48 68 68 3b 42 bd 8e bc 89 85 3d be 59 61 00 be
       0.0035462547 -0.01742423 -0.18507971 -0.12537135
000110 03 0f d1 3d e1 fd dc bd 20 d5 0c 3e 27 94 7b 3c
       0.102079414 -0.10790611 0.13753176 0.0153551465
000120 5d 47 04 bc 39 ff 85 bd 74 8f 97 be 11 87 49 3c
       -0.008073655 -0.065428205 -0.29601634 0.012300269
000130 69 a8 8d 3c e4 4a 18 bc 9e 06 47 3c be 90 1a be
       0.017292218 -0.009295199 0.012147574 -0.15094277
000140 f8 47 90 3d f3 00 01 be 95 72 cb 3d dc 61 29 3c
       0.07044977 -0.12598018 0.09933964 0.010338273
000150 09 15 d9 39 4c 6d 18 bb 64 64 db bd 63 07 d0 3d
       0.00041405138 -0.0023258505 -0.10712507 0.10157659
000160 3b 23 cc 3c e2 4e 62 3e 81 bd 10 3d fa bf 1a bd
       0.024919143 0.22100404 0.035336975 -0.03778074
000170 84 65 ad 3d 79 f2 bc 3b ec 7c b8 3d 21 05 cf bd
       0.08466628 0.0057662097 0.09008202 -0.101084
000180 c8 2b 07 bd 76 d9 ee bd db e4 9d bc 80 13 d3 bd
       -0.033000737 -0.11662571 -0.019274166 -0.10306454
000190 85 da c4 ba dd ce 02 be bb e6 eb 3d 14 ba b0 3d
       -0.0015018737 -0.12774225 0.11518618 0.086292416
0001a0 63 2f 33 3d f2 75 0f 3d 7b e4 37 bd a9 fd 2f bc
       0.043746363 0.03502459 -0.04489563 -0.01074163
0001b0 33 df 8d bd c6 7c bf 3d 36 af 7a bc 1a 59 a0 3d
       -0.069273375 0.093499705 -0.015300563 0.07829495
0001c0 9f 87 84 bd 89 65 d9 bd 69 a2 5e 3d db 9d fb bd
       -0.0647118 -0.106150694 0.054354105 -0.12285968
0001d0 cd a5 f7 3d 35 c0 9a 3b 72 f8 e5 bd ea 7e e1 bc
       0.12092171 0.00472262 -0.11229028 -0.027526338
0001e0 21 3f 38 bd a4 ae ef bd 03 4d 12 ba 31 1d 16 bd
       -0.04498208 -0.11703232 -0.00055809336 -0.036648933
0001f0 98 65 14 3e 87 ef e8 3d aa e0 cd bc 34 bd 48 bb
       0.1449188 0.11373811 -0.025131542 -0.0030630352
000200 45 aa 83 3e 2a d6 60 bd d8 b0 ba 3d 4c b9 35 bc
       0.25715843 -0.054891743 0.091157615 -0.0110915415
000210 6a ba 30 be f1 cf 69 be 30 21 10 bd ed 7f 6e bd
       -0.17258611 -0.2283323 -0.0351879 -0.05822747
000220 21 1c 44 bd 65 45 0f be c7 d0 fb bd 59 4b 92 3d
       -0.04787839 -0.13991316 -0.122956805 0.07143278
000230 b0 54 bf 3c 22 3c a5 bd fc 37 17 be c6 fe c2 bd
       0.023355812 -0.0806811 -0.1476745 -0.095212504
000240 91 85 9e bc 4e 9e 4b 3e 85 7b e1 3d af 20 6b be
       -0.019350799 0.19884607 0.110098876 -0.22961687
000250 3d 97 bf bd f9 d1 a6 3d b4 81 69 bd ad 67 0e be
       -0.09355018 0.08145518 -0.05700846 -0.13906737
000260 58 66 b9 3d 09 33 ab bd e8 34 d8 3c 27 b4 33 3d
       0.09052724 -0.083593436 0.026392415 0.04387298
000270 37 ef 23 be 3b 98 8c bd b5 5d 32 3e 0a 60 64 3e
       -0.16009222 -0.06864973 0.17418559 0.22302261
000280 f0 3e 26 3e 26 f6 7e bd e1 59 05 bd c4 db d5 bd
       0.16234946 -0.062246464 -0.03255642 -0.104423076
000290 7c 69 47 bd 63 d3 09 3e dd 5c 20 3e c4 c6 4f 3d
       -0.048684582 0.13459544 0.15660425 0.050726667
0002a0 78 ea 5f 3e d3 28 2b bd a2 16 22 be 7d 62 af bd
       0.21866786 -0.04178698 -0.15828946 -0.08563707
0002b0 ca a2 5b 3d 25 f2 c9 bd 42 22 91 3d e1 82 ba bd
       0.053622045 -0.098606385 0.07086612 -0.091069944
0002c0 1d 48 3f bd ab 79 0c 3d 4a be e6 3d 8d 49 fc bc
       -0.046699632 0.03429572 0.112667635 -0.03079679
0002d0 ef 15 db 3b 66 0e b5 b9 e0 cf fc 3c 3e 9b e3 bd
       0.0066859643 -0.00034533738 0.030860841 -0.111135945
0002e0 93 b9 79 3d dc 66 90 bd a4 fd e5 3b 0f 80 1b bd
       0.060967993 -0.07050869 0.0070187617 -0.037963923
0002f0 1d 86 a6 bc 36 ad f8 bd 3d c9 12 3d 98 c5 28 be
       -0.020327622 -0.12142412 0.035836447 -0.16481626
000300 9c 00 80 3d aa 65 fe bd d6 76 e6 3d 65 87 43 3e
       0.06250116 -0.12421735 0.11253135 0.19094618
000310 e6 81 0a 3e 5e 9b 14 bd 95 b7 c2 bc 68 15 96 3d
       0.13526115 -0.036280982 -0.02376918 0.07328302
000320 1a 38 25 3e e0 6c 00 be ad df f3 3c cd 17 a7 bd
       0.16134682 -0.12541533 0.029769743 -0.081588365
000330 7b a4 f5 3c 9e 60 ec bd 5e 3d c0 bc fd 74 06 be
       0.029985657 -0.11541866 -0.023466762 -0.13130565
000340 5b aa 20 bd d4 df 0b be 61 1e 2e be bc f3 e4 bc
       -0.039224964 -0.13659602 -0.17003776 -0.027948253
000350 75 8c c6 3c 2d f4 89 bd fb 3c be bd 62 85 09 bd
       0.024236897 -0.06736026 -0.09288975 -0.03357447
000360 33 52 2b 3d a8 73 5b bd c5 dc 7a bc 2a 24 12 3e
       0.04182644 -0.053577095 -0.015311425 0.14271608
000370 b2 ca 18 3d b8 ee 61 3d d3 6f 37 3b 7e e1 53 3e
       0.03730268 0.0551593 0.0027990236 0.20691487
000380 95 e6 32 3d 8a 1b 28 3e 03 55 9b 3d d2 0e 16 3d
       0.04367693 0.16416755 0.07584574 0.036635228
000390 8c 23 f4 3d 41 cb 84 bc b7 70 45 bd 46 9e a4 bc
       0.119208425 -0.0162102 -0.048203196 -0.020095002
0003a0 7c 87 81 bd 5f fa 83 bd a4 ce d6 3d 21 c7 17 3d
       -0.0632467 -0.06444239 0.10488632 0.03705514
0003b0 ac 03 8e 3d 97 b2 f0 3d 9a 6e c1 bd c3 7b cf 3d
       0.06934294 0.11752813 -0.09444924 0.101310275
0003c0 70 fc e2 bd a2 64 3d 3a d3 fd 6d 3d b5 03 55 bd
       -0.11083305 0.0007224773 0.058103394 -0.05200549
0003d0 35 14 0f 3d c4 9a ed 3d 52 2b 31 39 d6 d1 67 3e
       0.03493138 0.11601785 0.00016896173 0.2263864
0003e0 8d 47 9b bd 99 12 ea bc 86 5f 45 3e e1 cb 0a 3e
       -0.075820066 -0.028573321 0.1927472 0.13554336
0003f0 8f 61 5d bd 19 5f ba bd 96 4c af 3e 5e 18 f8 3c
       -0.054048117 -0.0910017 0.34238118 0.030285057

bias f4 [16]
000000 ab b5 31 3d 94 42 d8 bc ca 6d 4f 3d 5c 7d 66 bc
       0.043386143 -0.026398934 0.050641812 -0.014067974
000010 67 14 98 3d e7 3c 87 3d 4a 37 a7 3c 06 a1 21 bd
       0.074257664 0.06603413 0.020412106 -0.039460205
000020 ab e3 56 3b 29 c8 3e 3c 6d bb 58 3d 8d 89 21 3d
       0.003278951 0.011644402 0.05291312 0.03943782
000030 bd f8 6d 3c bd 9e a5 ba 93 20 51 3b b9 60 5e 3d
       0.014524636 -0.0012635809 0.0031910285 0.05429146

weight f4 [19, 16]
000000 13 20 f8 3e 12 b0 6b be 1b 84 bf 3e 90 01 f4 bd
       0.4846197 -0.23016384 0.37405476 -0.119143605
000010 ca 2c f6 be 35 54 16 be d0 24 94 bb d7 e3 d4 3e
       -0.48081046 -0.1468056 -0.00452099 0.41580078
000020 af 20 50 3e 80 04 d2 3d 9c f5 33 3e 39 b2 04 be
       0.20324968 0.102547646 0.17574161 -0.12958612
000030 d9 e0 79 3e 79 92 85 bb 62 0a f8 3e f0 14 95 3e
       0.24402179 -0.004076299 0.4844542 0.29117537
000040 ce 58 b1 bc 69 32 0c be 0d 30 9a 3e 43 82 cf bc
       -0.02164879 -0.13691105 0.30114785 -0.025330668
000050 ce dd c1 be 8e 4a 5a 3e 47 c4 41 3f 93 f7 89 3e
       -0.37864536 0.21317503 0.7569012 0.26946697
000060 e2 0e bb be 53 b0 9a 3e b9 55 94 3e 7e 9a 40 3d
       -0.36534792 0.3021265 0.2897165 0.047022335
000070 e3 0b 0a be 60 61 04 3e 8c 00 d4 bc 60 8e 79 be
       -0.13481097 0.1292777 -0.025879167 -0.24370718
000080 e7 45 80 bc 57 79 9e bc 04 a2 d4 3e 73 37 9a be
       -0.015658332 -0.019344969 0.41529858 -0.3012043
000090 9f 83 14 be 04 88 f5 3d 18 a5 2c 3f 5a 12 9b 3d
       -0.14503334 0.119888335 0.67439413 0.0757186
0000a0 2b b7 41 bd 45 6b d4 3e 86 e8 bd bd 98 4d 35 3e
       -0.047293823 0.4148809 -0.09272866 0.17705381
0000b0 e8 2f 87 3d 3d cf a4 3c f8 bd 45 be f8 e5 3c be
       0.06600934 0.02011835 -0.19310749 -0.18447101
0000c0 ef 94 0b be 8a d8 34 3e eb d6 87 3e 95 0d 85 be
       -0.13631032 0.17660728 0.26531157 -0.25986925
0000d0 91 92 a2 be fb b1 a8 3e ce b5 a1 3f d0 08 8f be
       -0.31752446 0.32948288 1.2633607 -0.2793641
0000e0 bb c9 86 be d4 25 31 3f d1 d1 4c 3e 98 43 28 3e
       -0.26325783 0.69198346 0.20001914 0.16432035
0000f0 cb db 7c be 21 f0 1d 3f 07 27 a5 bd b6 8d 18 bf
       -0.2469322 0.6169453 -0.080640845 -0.59591234
000100 09 0b d5 3d 51 a2 50 bd 11 1a bd bd fc 3b 18 bd
       0.104024954 -0.050936047 -0.092334874 -0.03716658
000110 d9 58 dc 3c 54 2b 89 3c 5e 45 72 3e cc 12 7d 3e
       0.026897835 0.016744293 0.23659274 0.24714202
000120 38 ca 7b 3e ff 14 cc 3e 54 be 5d bc 34 37 9a bc
       0.24588859 0.3985977 -0.013534147 -0.018825151
000130 ff ae 2c 3e 1b 3c c0 bc d4 52 a8 be 81 48 0e be
       0.1686363 -0.02346616 -0.32875693 -0.13894846
000140 3c 05 b6 3d 9c 68 0b 3e e1 de 9d bc a4 7a aa bd
       0.08887717 0.13614124 -0.019271316 -0.08324173
000150 c2 ef 26 bd 6d 6a 56 3d 9f a2 ad 3e 74 0f d8 3e
       -0.040755995 0.05234759 0.33913133 0.4219929
000160 c5 c3 d8 bb 6b 4d 6d 3e 07 da dd 3d a2 6f 88 bc
       -0.0066151344 0.23174064 0.10832601 -0.016654793
000170 19 88 3c 3c d0 60 f8 bd 1a 58 48 3a 65 9e 06 be
       0.011507058 -0.121278405 0.00076425227 -0.1314636
000180 ae 44 cc bd 84 ee 06 be a6 00 72 3c df 21 89 3e
       -0.09974037 -0.13176924 0.014770662 0.26783654
000190 57 a4 d9 bd 70 df 14 3e 24 63 13 3e 2b 9a 55 3d
       -0.106270485 0.1453836 0.14393288 0.05214898
0001a0 2d b3 d1 3d 25 e3 e3 be b0 34 19 bf 56 62 85 3e
       0.10239253 -0.44509235 -0.5984602 0.26051587
0001b0 ca a1 6d 3e c3 d1 79 be 6a 0d f5 bd 81 5b 9a 3e
       0.23206249 -0.24396424 -0.11965449 0.30147937
0001c0 39 17 92 3e 80 29 27 3e 93 24 e6 3e e2 fa 81 be
       0.28533342 0.16324425 0.4494978 -0.2538672
0001d0 62 66 60 bd d0 ac bd 3d 3f 88 9e 3e b1 91 41 3e
       -0.05478514 0.09261477 0.30963323 0.18903233
0001e0 ef b5 6c 3e a7 d0 bf 3e 87 a6 10 be 8c d0 e8 bd
       0.23116277 0.37463877 -0.14126025 -0.11367902
0001f0 1b 18 d3 bd 44 99 0b bb 9c 69 f2 3d cf a7 89 be
       -0.10307332 -0.002130107 0.1183655 -0.2688584
000200 c1 c1 67 3d 37 8f 67 3e 04 7f 6f 3d e2 d8 3d be
       0.056581262 0.22613226 0.05847074 -0.18539765
000210 a5 84 c6 3d 5b e6 0a 3d 68 fe 07 3e 0b 0b b7 bd
       0.09693269 0.03391109 0.13280642 -0.08937653
000220 46 b9 90 b9 ee d5 67 3e 69 2a 5f 3d 79 b7 e7 bd
       -0.0002760386 0.22640201 0.054483805 -0.113142915
000230 03 ed bd bd b7 a2 19 3c 98 4f 0e 3e 6e f6 3e 3c
       -0.09273722 0.009377173 0.1389755 0.011655433
000240 52 3f 45 bd 24 a8 64 3e 35 26 a3 3e ea 7e 39 be
       -0.04815609 0.22329766 0.31865087 -0.1811482
000250 4e a3 a9 3e 5a a3 3f bd d6 dc 93 be dd 02 45 3e
       0.33132404 -0.046786644 -0.28879422 0.19239374
000260 36 44 18 3e d5 80 93 be 7e 3c cb be 69 a8 a0 3e
       0.1486977 -0.2880923 -0.3969459 0.31378487
000270 c2 c0 b2 be 49 e6 90 3d 23 f7 dd bd 3f 6e 48 3e
       -0.34912688 0.070751734 -0.10838153 0.19573306
000280 3d 3e a0 bd a1 45 c9 3e 11 91 99 3d 57 c7 b1 bd
       -0.07824371 0.39310935 0.07498372 -0.08680599
000290 2c 7c e7 bc f3 c4 7e bc 47 66 4a bd 2c dc e0 bd
       -0.028257452 -0.015549886 -0.049413946 -0.109794945
0002a0 2d 0b 96 bd 72 30 23 be da 1b 1f 3d eb e5 a5 3b
       -0.0732635 -0.15936449 0.03884492 0.0050628087
0002b0 2d fb 18 3e c7 e1 81 bd 37 45 d1 bd ca 65 dd 3d
       0.14939566 -0.06341892 -0.1021828 0.1081043
0002c0 2b d0 a3 bd 68 2c 93 3d 6d cd db 3c 0f ee 4b be
       -0.07998689 0.07186204 0.026831353 -0.19915031
0002d0 0d 84 ef 3c db ca 83 3e 4d 5a a2 be 86 eb ec 3d
       0.029237771 0.25740704 -0.3170952 0.1156836
0002e0 39 1c 0e be 39 eb fa bd 5a b3 20 3e 88 33 90 be
       -0.13877954 -0.122518964 0.15693417 -0.28164315
0002f0 54 a5 e1 be 61 ce 4f bd f4 9d dd 3e 58 db 54 3d
       -0.44071448 -0.050733928 0.4328457 0.051966995
000300 de 26 23 3d ef 64 38 be 86 85 d2 3d 30 95 76 3e
       0.03983199 -0.18007253 0.10279374 0.24080348
000310 e9 51 8b be a1 b1 c4 3d 1e 6a 6d 3f c4 72 96 3e
       -0.2721093 0.096041925 0.92740047 0.29384434
000320 f9 a7 70 3d d5 f8 22 3f fe 48 31 3e d9 f1 35 3e
       0.05875394 0.6366094 0.17313 0.17768039
000330 d3 a7 95 be 9e db bd bd 6e c9 b9 3d 96 b0 10 bf
       -0.29229602 -0.09270404 0.09071623 -0.5651945
000340 42 d6 a2 3d 77 a2 e8 be 51 34 19 be 41 68 29 3f
       0.07951023 -0.4543645 -0.14961363 0.66174704
000350 e8 e7 ed bd fe 97 0c 3d 93 de 58 3e fe 58 70 bd
       -0.11616498 0.03432464 0.21178655 -0.05867862
000360 44 36 5d 3e f6 14 4e 3d 67 87 41 3e e0 ff 07 bf
       0.21602732 0.05031296 0.18899308 -0.5312481
000370 ac 4c cf 3c da a2 ae 3d a2 89 28 be 06 dd 4c be
       0.025305115 0.08527155 -0.16458753 -0.20006189
000380 94 64 c9 3e ac 51 70 be fa 7d 69 3d c5 2c 7b be
       0.39334548 -0.23468655 0.057004906 -0.24528797
000390 b6 91 65 bd a2 3a 1a bd a0 94 15 3f f4 86 cf bd
       -0.056047164 -0.037653573 0.5842991 -0.10133162
0003a0 e7 ec 98 be dc 94 27 3f a5 f7 8f bd 11 82 dc 3d
       -0.29868242 0.65461516 -0.07029656 0.10766996
0003b0 79 bc 26 3e eb 95 ff bd 12 45 ab 3d c4 2f d2 be
       0.16282834 -0.124797665 0.083627835 -0.41052067
0003c0 6f e8 98 3e 2b c7 c4 be e7 29 62 bb 44 85 2c 3d
       0.29864833 -0.38433203 -0.003450984 0.04211928
0003d0 13 85 4a be 7e bd ae 3c 1c df f2 bd e7 b7 89 be
       -0.19777326 0.021330591 -0.11858961 -0.2689812
0003e0 89 82 01 be 58 74 76 be 51 40 87 3d 62 8c 66 3d
       -0.12647451 -0.24067819 0.06604064 0.056286223
0003f0 96 3b dc bd e1 6c 32 3e 45 d9 ef be 03 db c0 3c
       -0.107535526 0.17424347 -0.4684545 0.023541933

bias f4 [19]
000000 3b 78 18 3d 72 14 91 be 6e a3 b9 bd da 43 ac 3d
       0.037224036 -0.2833591 -0.09064375 0.08411379
000010 ac 17 04 3d 1f 03 46 be a1 5e 9b 3e bc 10 0b 3d
       0.032249138 -0.19337128 0.30345634 0.033951506
000020 9a e7 e3 bd 8f b5 93 bd 95 ab 09 3c 91 1b e2 bc
       -0.11128159 -0.07212364 0.008402725 -0.027601035
000030 ee 34 19 be 82 78 58 3e 65 a7 29 be bf 5e 81 3d
       -0.14961597 0.2113972 -0.16567762 0.063168995
000040 c8 83 26 3e 9b 9d 14 be d3 34 3a 3d
       0.16261208 -0.14513247 0.045460533
