models/a19lds19b0.007g0.02d0.1h13.pt (torch, 127234 bytes, 26 tensors)

weight_ih_l0 f4 [52, 4]
0	0x3d8036e4	0.062604696
1	0x3db67e62	0.08910824
2	0xbe2e1214	-0.16999084
3	0xbeb8a0d8	-0.36060214
4	0x3e1b77af	0.15182374
5	0x3e53e1c4	0.20691592
6	0xbd64e542	-0.0558827
7	0x3e8183de	0.2529592
8	0x3d782079	0.060577843
9	0x3eb7b1fc	0.3587798
10	0xbde9125c	-0.11380455
11	0xbe19057a	-0.14943495
12	0x3e2d21f6	0.16907486
13	0x3e8d6277	0.27614185
14	0xbe99d2ac	-0.30043542
15	0xbdfff52e	-0.12497936
16	0x3e28b294	0.16474372
17	0x3d63aec2	0.055586584
18	0x3d3923ba	0.045200087
19	0x3cbc4125	0.022980282
20	0x3d54b694	0.051931933
21	0x3e1d50f3	0.15362911
22	0x3d4eace8	0.050457865
23	0x3e0cc909	0.13748564
24	0xbe38536d	-0.18000574
25	0x3ca4c475	0.02011321
26	0x3db3199c	0.08745119
27	0x3e87067a	0.2637213
28	0x3e10f804	0.1415711
29	0x3e605e4f	0.21910976
30	0x3da57dc4	0.080806285
31	0xbcb2ffde	-0.021850523
32	0x3d81c1ac	0.06335768
33	0xbd04bc16	-0.032405935
34	0x3d41ee58	0.047346443
35	0xbe94d2b1	-0.29066995
36	0xbe836139	-0.25660113
37	0x3cc3ccc5	0.023901353
38	0x3e1204a7	0.14259587
39	0x3da95386	0.08267884
40	0x3e22930b	0.15876405
41	0x3e879765	0.26482692
42	0xbe9536a8	-0.29143262
43	0xbe96c7fc	-0.2944945
44	0xbd8c4e79	-0.06850905
45	0xbddcd2b5	-0.10782377
46	0xbde36353	-0.11102929
47	0xbd722f19	-0.059126947
48	0x3c9058b2	0.017620418
49	0x3ea9bd79	0.3315237
50	0xbd1ca961	-0.03824747
51	0x3dc7fd69	0.09765131
52	0xbdd6e708	-0.104932845
53	0xbe4b49a0	-0.19852304
54	0xbcc8a630	-0.024493307
55	0x3ec7378f	0.38909575
56	0xbca6af03	-0.020347124
57	0xbc0b16ab	-0.008489291
58	0xbd1da2a3	-0.03848518
59	0xbdb53610	-0.08848202
60	0x3bd20159	0.006408852
61	0xbdcf798f	-0.10130607
62	0x3e132251	0.1436856
63	0xbd124896	-0.035713755
64	0x3e158bef	0.14604162
65	0xbb6f533d	-0.003651812
66	0xbc79ee62	-0.015254589
67	0xbdff8f9e	-0.12478565
68	0x3e25ba0c	0.16184253
69	0xbd4817a5	-0.048850674
70	0x3d0eaea9	0.034834538
71	0x3eb33e4d	0.3500847
72	0xbd928cdb	-0.07155772
73	0x3f039310	0.51396275
74	0x3e39e832	0.18154982
75	0xbe67df2d	-0.22643729
76	0xbe1972b0	-0.14985156
77	0x3d7a6ebf	0.061140772
78	0x3e6caaf7	0.23112093
79	0xbb3a487b	-0.002842455
80	0x3e2a7e44	0.16649729
81	0x3e0777cc	0.13229293
82	0xbd0c5498	-0.034260362
83	0x3e2f27e3	0.1710506
84	0x3db735c2	0.089458
85	0xbeccacbc	-0.39975536
86	0xbdb92346	-0.09039931
87	0x3e6ab1d7	0.22919403
88	0x3e20f59b	0.15718691
89	0xbde43f26	-0.11144857
90	0x3cb447d7	0.022006912
91	0xbe489fe7	-0.19592248
92	0x3db052bb	0.086095296
93	0x3e923a16	0.2855994
94	0xbd3f0955	-0.04663976
95	0x3d21007c	0.039307103
96	0x3dd4d10c	0.10391435
97	0xbd99566c	-0.07487187
98	0x3e87e7ff	0.26544186
99	0x3daaed5f	0.08346056
100	0x3d5a4a54	0.05329354
101	0xbdaecda2	-0.08535315
102	0xbe28bff1	-0.1647947
103	0x3d0c0a1f	0.03418934
104	0x3ce8b97a	0.028408755
105	0x3e0c61d7	0.13709198
106	0xbdffd797	-0.124922924
107	0x3d35a5a4	0.04434742
108	0xbe8dd6ce	-0.27702945
109	0x3dd3dc63	0.1034477
110	0xbe8fae15	-0.28062502
111	0xbc7c78ab	-0.015409629
112	0x3de88a8e	0.11354552
113	0xbe0ea627	-0.1393057
114	0xbdbef505	-0.093240775
115	0x3cfa938d	0.030587936
116	0x3ee93d84	0.45554745
117	0x3df4457d	0.11927316
118	0x3d6d5d6e	0.05795043
119	0x3e47c099	0.19507064
120	0x3e8af282	0.27138144
121	0x3e0e1089	0.13873495
122	0x3dfe8bc0	0.12428999
123	0x3e5adf98	0.21374357
124	0x3e58cc1c	0.21171612
125	0x3d5207b3	0.051276874
126	0xbc6bbb70	-0.01438795
127	0x3e52bb0b	0.20579164
128	0x3ea5f3eb	0.32412657
129	0x3d96a74d	0.07356129
130	0x3cb25a68	0.021771625
131	0x3ec1e383	0.3786889
132	0x3d0129d0	0.031534016
133	0xbd65db8b	-0.056117576
134	0xbddad415	-0.10684983
135	0xbd7382b9	-0.05945084
136	0xbe140cd6	-0.14458022
137	0xbd89d8df	-0.06730818
138	0x3e1d29ad	0.1534793
139	0xbd65c28e	-0.056093745
140	0xbeb72fcc	-0.35778654
141	0x3e866127	0.26245996
142	0xbd64a20c	-0.055818602
143	0x3d752d73	0.059857797
144	0x3e637099	0.22210921
145	0x3d6ef43c	0.05833839
146	0xbda1db33	-0.07903137
147	0xbdef28ea	-0.116777256
148	0x3b41272d	0.0029472813
149	0xbd766ac5	-0.060160417
150	0x3e1d2785	0.15347107
151	0x3ec98591	0.39359716
152	0xbe3baaee	-0.18326923
153	0x3db19b41	0.086721905
154	0xbe4fa8a8	-0.20279181
155	0xbe041bac	-0.12901181
156	0x3e09455e	0.13405368
157	0xbd911d67	-0.07085686
158	0x3f06b8a8	0.52625513
159	0x3ec85711	0.39128926
160	0xbe58a568	-0.21156847
161	0x3d94912f	0.07254254
162	0xbdeecb04	-0.11659816
163	0x3c9ae7fb	0.018909445
164	0x3e850ae0	0.2598486
165	0xbe1320c5	-0.1436797
166	0x3e4be509	0.19911589
167	0x3d85d3a0	0.06534505
168	0xbd15aa6f	-0.03653949
169	0x3dc0ff0d	0.09423647
170	0xbecdb6ad	-0.40178433
171	0xbe729712	-0.23690441
172	0xbea3c31e	-0.319848
173	0xbd80b076	-0.06283657
174	0x3d5897ca	0.052879132
175	0x3de4cd43	0.11171963
176	0x3e6b5ff2	0.22985819
177	0xbe918272	-0.28419834
178	0xbde8aff2	-0.11361684
179	0xbd8f2e2b	-0.06991228
180	0xbe2d83eb	-0.16944854
181	0xbd03b215	-0.032152254
182	0x3e8f5495	0.27994218
183	0x3d0a6db1	0.033796016
184	0x3cbbf028	0.022941664
185	0xbe46d747	-0.1941806
186	0xbe1cf29d	-0.15326925
187	0xbe44cb39	-0.19218148
188	0x3e176f73	0.14788608
189	0x3d741847	0.059593465
190	0xbe173333	-0.14765625
191	0x3ca2d8e3	0.01987881
192	0xbf0ec6e0	-0.5577221
193	0x3e052416	0.13002047
194	0x3dbe0569	0.09278376
195	0x3d026d2c	0.031842396
196	0x3d597231	0.053087417
197	0x3cff44e4	0.03116078
198	0x3e839f20	0.2570734
199	0x3cc92e1b	0.024558118
200	0x3c8e06e5	0.017337272
201	0x3ce4d7cd	0.027934933
202	0x3d90c240	0.070683
203	0xbd05e2b1	-0.032686893
204	0xbe030b8b	-0.12797372
205	0x3e3c54a9	0.1839167
206	0x3e8ae8c0	0.271307
207	0x3e049877	0.12948786

weight_hh_l0 f4 [52, 13]
0	0xbdc5773c	-0.09641883
1	0x3ea44f71	0.3209186
2	0xbd102cd6	-0.03519901
3	0xbe8a28bf	-0.26984212
4	0xbe05039f	-0.12989663
5	0xbdd3dc90	-0.10344803
6	0xbe26bdf0	-0.16283393
7	0x3e1b2ff5	0.15155013
8	0xbe8e31d9	-0.27772406
9	0x3ecb5af7	0.39717838
10	0xbd76d21d	-0.060258973
11	0xbe6f8e27	-0.2339407
12	0x3d0283a5	0.031863827
13	0x3cab306c	0.020897113
14	0x3d2e4b8a	0.04255251
15	0xbe2b56da	-0.1673235
16	0xba292613	-0.0006452512
17	0xbe54b868	-0.2077347
18	0x3dd45495	0.10367695
19	0xbd041cae	-0.032253914
20	0xbc8536e3	-0.016261524
21	0x3e45d744	0.19320399
22	0x3dfed4b0	0.12442911
23	0x3d954c73	0.07289972
24	0xbe731fc9	-0.23742594
25	0x3c88c50d	0.016695524
26	0x3d079968	0.033105284
27	0x3e1279e8	0.14304316
28	0xbde59920	-0.11210847
29	0x3e4437a6	0.19161853
30	0xbdbe2235	-0.09283868
31	0x3d127978	0.035760373
32	0xbea12c78	-0.3147924
33	0xbe0ae0b0	-0.13562274
34	0x3da2d476	0.0795068
35	0x3cb37250	0.021905094
36	0x3df070af	0.11740243
37	0x3ea8987b	0.32928833
38	0x3e8668b0	0.26251745
39	0x3dacbc76	0.084343836
40	0xbdf0fd51	-0.11767066
41	0xbe6622f7	-0.22474276
42	0x3e8e2e61	0.2776976
43	0x3e1966d3	0.1498063
44	0xbdd34463	-0.10315778
45	0x3e181390	0.14851213
46	0x3dee801a	0.11645527
47	0xbe063e81	-0.13109781
48	0x3e15e2a2	0.14637235
49	0xbc8280d0	-0.015930563
50	0x3e2bc1de	0.16773173
51	0xbce3d05b	-0.027809313
52	0x3e4ccd48	0.20000184
53	0x3e8c695e	0.2742414
54	0x3e06ac15	0.13151582
55	0xbd0bfb39	-0.03417513
56	0xbe2ed568	-0.17073596
57	0x3c333d82	0.010939958
58	0x3ddbaade	0.1072595
59	0xbcb2dcc4	-0.021833785
60	0xbb9038cb	-0.0044013015
61	0x3eb684ac	0.35648096
62	0xbe467e8c	-0.19384211
63	0x3e8eb912	0.27875572
64	0x3ca2cc11	0.019872697
65	0xbe192ce4	-0.1495853
66	0xbd13842e	-0.03601473
67	0x3e2148ec	0.15750474
68	0xbe2c1ef3	-0.16808681
69	0x3bb233f6	0.005438323
70	0xbe905f51	-0.2819772
71	0x3dec49ef	0.11537539
72	0xbcc27229	-0.023736076
73	0xbcb3125d	-0.021859342
74	0xbea01e19	-0.31272963
75	0xbb993433	-0.004675412
76	0x3e4c37d9	0.19943179
77	0xbe839978	-0.25703025
78	0x3dfaa211	0.12237943
79	0x3e23152a	0.15926042
80	0x3e2d8f22	0.16949132
81	0x3e1ab6a1	0.1510873
82	0xbdd865a8	-0.105662644
83	0xbe336f44	-0.17522913
84	0xbecbec8c	-0.39828908
85	0xbec3fde4	-0.3827964
86	0x3e9d44a1	0.30716422
87	0xbe96fc13	-0.29489192
88	0xbdee530f	-0.11636936
89	0xbe78bf9d	-0.24291845
90	0x3da772c9	0.081761904
91	0xbe551aa6	-0.20810947
92	0xbdf130c8	-0.117768824
93	0x3df1706e	0.117890224
94	0x3e8c6b99	0.2742584
95	0x3db185fb	0.08668133
96	0x3bcd4a61	0.00626497
97	0xbe6e9a33	-0.2330101
98	0xbdc3f949	-0.09569032
99	0xbd981892	-0.074265614
100	0x3e250086	0.16113481
101	0x3e0e3902	0.13888934
102	0x3e8718f1	0.26386216
103	0x3b472e25	0.0030392495
104	0x3e09ec7e	0.13469121
105	0x3e50007c	0.20312685
106	0xbdb8b7a8	-0.09019405
107	0x3d684260	0.056703925
108	0xbe21a911	-0.1578715
109	0xbe1ac800	-0.15115356
110	0xbe00ea28	-0.12589324
111	0xbea51a75	-0.32246748
112	0xbe8f843b	-0.2803057
113	0x3e4788a2	0.19485715
114	0xbe564321	-0.20924045
115	0x3cd16022	0.025558535
116	0x3e8ecf5c	0.27892578
117	0x3e6c6e56	0.23088965
118	0xbeb7e97b	-0.3592032
119	0x3e109ebc	0.14123052
120	0x3e69b439	0.22822656
121	0xbd4e162e	-0.05031412
122	0xbe4dd70e	-0.20101568
123	0x3dbf0336	0.09326784
124	0x3e3e8402	0.18605044
125	0x3d20cf1d	0.03926002
126	0xbd83316b	-0.0640591
127	0x3e269d9f	0.16271065
128	0xbe2b8d58	-0.16753137
129	0xbe3faa1a	-0.18717232
130	0x3e27e6f5	0.16396697
131	0x3dbda81a	0.092605785
132	0x3d7e6eca	0.062117375
133	0xbe09295e	-0.13394687
134	0xbdf3c91c	-0.11903593
135	0xbe2e3cf2	-0.17015436
136	0x3df1bc48	0.1180349
137	0xbbdfcf9c	-0.006830169
138	0x3e50c539	0.20387734
139	0x3dc04041	0.093872555
140	0x3dc00128	0.093752205
141	0xbe00a7dd	-0.12564035
142	0xbdd036f7	-0.10166734
143	0xbd6ed1cd	-0.05830555
144	0xbddda870	-0.108231425
145	0xbe127c59	-0.14305247
146	0xbd8c78b5	-0.068589605
147	0x3dfc5cda	0.123223975
148	0x3d52c3d0	0.051456273
149	0x3d8afe7d	0.06786821
150	0x3da2bca5	0.07946137
151	0xbdd60f4d	-0.10452137
152	0x3ea5cebf	0.32384297
153	0xbde61493	-0.11234393
154	0x3da662ad	0.0812429
155	0xbeec2d10	-0.4612813
156	0x3e040464	0.128923
157	0x3dff6fdc	0.12472507
158	0x3dd33f9c	0.10314867
159	0xbdd56596	-0.104197666
160	0x3df7e7cb	0.12104758
161	0x3e47888b	0.19485681
162	0xbe1cd57e	-0.15315816
163	0xbe82559f	-0.2545595
164	0xbd081c0b	-0.03322987
165	0x3e4ee517	0.20204578
166	0xbd630e74	-0.055433705
167	0xbe0009bc	-0.12503713
168	0xbe345e16	-0.17614016
169	0x3e04c3cf	0.1296532
170	0xbe01d8b0	-0.12680316
171	0x3e330b70	0.17484832
172	0x3d8f06ed	0.06983743
173	0xbe276159	-0.16345729
174	0xbe4ce372	-0.20008639
175	0xbd639441	-0.055561308
176	0x3e673e35	0.22582324
177	0xbe818246	-0.25294703
178	0xbd19d768	-0.037558943
179	0x3e1ed2b1	0.1551006
180	0xbd49849b	-0.049198728
181	0x3d0d8961	0.034554843
182	0xbdfb1d68	-0.12261468
183	0xbe0d3c40	-0.13792515
184	0x3e73ce71	0.2380922
185	0x3d95f66a	0.073223904
186	0xbd188eb4	-0.037245467
187	0x3e8767f1	0.26446488
188	0xbe11f8c7	-0.14255057
189	0xbe93bfb7	-0.28857204
190	0xbc27ba25	-0.010237251
191	0xbe0017b7	-0.12509046
192	0x3e302cf4	0.17204648
193	0x3e9c15cc	0.3048538
194	0xbd4fbaca	-0.050715245
195	0x3d868db4	0.065699965
196	0x3d05d139	0.032670233
197	0x3e6c5e57	0.23082863
198	0x3c226fa9	0.009914317
199	0x3e8f4ea9	0.279897
200	0x3e64e65d	0.22353502
201	0xbdfb70a7	-0.12277346
202	0xbee3f2e4	-0.44521248
203	0x3e9a593e	0.3014621
204	0xbd41972f	-0.04726332
205	0xbe28da2f	-0.1648948
206	0xbc1cf0b6	-0.009578874
207	0xbdc7d4fa	-0.09757419
208	0x3e9c807e	0.30566782
209	0xbe197935	-0.14987643
210	0x3df4fb34	0.11961976
211	0xbc935fa2	-0.017989937
212	0x3d73ab5a	0.059489585
213	0xbc6a4909	-0.0142996395
214	0xbe1dd526	-0.15413341
215	0xbe5c42ea	-0.215099
216	0x3d4af9a8	0.049554497
217	0xbdfb4439	-0.12268872
218	0xbe286ea5	-0.16448458
219	0xbdcb0fd6	-0.0991513
220	0xbe8c551a	-0.27408677
221	0xbde2ff54	-0.11083856
222	0xbc41a719	-0.011819624
223	0xbe133137	-0.14374243
224	0xbe38f3bf	-0.18061732
225	0xbe03bcd9	-0.12865008
226	0xbd2a170b	-0.04152588
227	0xbe6631da	-0.22479954
228	0xbe800b16	-0.25008458
229	0xbe223542	-0.15840629
230	0xbe6f7d2d	-0.23387595
231	0xbdf32d5d	-0.11873887
232	0xbe244b9d	-0.16044469
233	0xbe99f974	-0.3007313
234	0x3dd332ad	0.103124
235	0xbd3c9d79	-0.046048615
236	0xbe97d281	-0.2965279
237	0xbe3b28f0	-0.18277335
238	0xbe38aba6	-0.18034229
239	0x3e4df511	0.20113017
240	0xbe249ad8	-0.16074693
241	0xbe4dbc0b	-0.20091264
242	0xbe01477b	-0.12624924
243	0x3e15ead9	0.14640369
244	0x3d0abc83	0.033871185
245	0xbdf29fd6	-0.118468925
246	0x3d0f4388	0.034976512
247	0xbdda7120	-0.10666108
248	0xbc90fb4e	-0.017697956
249	0xbd4d3c36	-0.05010625
250	0xbcc052be	-0.023476955
251	0x3d806739	0.06269688
252	0x3d1f28a2	0.03885711
253	0xbe21c4ea	-0.15797773
254	0x3d3961f2	0.045259424
255	0x3e4acef1	0.19805504

bias_ih_l0 f4 [52]
0	0xbda51d2d	-0.080622055
1	0x39d7a4f4	0.00041130895
2	0xbe5050f9	-0.20343389
3	0xbe654247	-0.22388564
4	0x3e6b6867	0.22989045
5	0x3e87c859	0.2652004
6	0x3e31e8ed	0.1737401
7	0xbe4de8f4	-0.20108396
8	0x3e718771	0.23586823
9	0xbc7cda37	-0.015432886
10	0xbe85745e	-0.26065344
11	0x3ceaab16	0.028646033
12	0xbe71a347	-0.23597442
13	0xbc3cfcb3	-0.011534858
14	0xbe551fff	-0.20812987
15	0x3e8f81d1	0.2802873
16	0xbd5e9673	-0.0543427
17	0xbddbc89b	-0.10731622
18	0x3e09af12	0.1344569
19	0xbe151824	-0.1455999
20	0x3e2b558e	0.16731855
21	0xbe35a019	-0.17736854
22	0x3e5310de	0.20611903
23	0x3d22a263	0.039705645
24	0xbc5b4de7	-0.013385273
25	0x3d5c13e9	0.053729925
26	0xbe43729e	-0.19086692
27	0xbe2ee02e	-0.17077705
28	0x3d8e7bde	0.069572195
29	0x3e2ce8b8	0.1688565
30	0xbdc776e7	-0.09739476
31	0x3e6cc6c8	0.23122704
32	0x3e368422	0.17823842
33	0xbd8d38c2	-0.06895591
34	0xbe8610d6	-0.2618472
35	0x3ce686c0	0.028140426
36	0xbe61ca4a	-0.22049823
37	0xbdf3cfbd	-0.11904857
38	0xbe5cb318	-0.21552694
39	0xbe46b2b6	-0.1940411
40	0xbd4f7f26	-0.050658368
41	0xbd3b04c5	-0.045658845
42	0x3e13572a	0.14388719
43	0xbe6b158e	-0.22957441
44	0x3c9c660b	0.019091627
45	0xbc954810	-0.018222839
46	0x3d2c8097	0.04211482
47	0xbdbcef71	-0.09225357
48	0xbe96b21e	-0.29432768
49	0xbddeea72	-0.10884561
50	0x3de5dc48	0.11223656
51	0x3db401cd	0.08789406

bias_hh_l0 f4 [52]
0	0xbe1a7592	-0.15083912
1	0xbdf429e1	-0.1192205
2	0x3e4538ed	0.19259997
3	0xbcc906dd	-0.024539405
4	0x3e6ca195	0.23108514
5	0x3e6d09f2	0.23148325
6	0x3e3d166a	0.18465582
7	0x3d46f9e5	0.04857816
8	0x3e4e1fe4	0.20129353
9	0x3e33dfa9	0.17565788
10	0x3e128cda	0.14311543
11	0xbd59c687	-0.053167846
12	0x3e87d5e5	0.26530376
13	0xbcd4b3df	-0.025964675
14	0xbe5933c0	-0.21211147
15	0xbdd1b508	-0.10239607
16	0xbe14c3d6	-0.1452783
17	0xbd1cca31	-0.038278762
18	0xbd5859d4	-0.05282004
19	0x3e85c731	0.26128533
20	0x3ccb871a	0.024844695
21	0x3e884b0f	0.26619765
22	0x3e6e8531	0.23292996
23	0x3dad8979	0.084734865
24	0x3e7cdee9	0.24694408
25	0xbe62076d	-0.22073145
26	0x3e13025f	0.14356373
27	0xbe0cb790	-0.13741899
28	0x3e92f9c5	0.28706184
29	0x3e1f140f	0.15534995
30	0x3d52f836	0.051506244
31	0xbddd300f	-0.10800182
32	0x3e80c3b2	0.25149304
33	0xbe15430e	-0.1457636
34	0xbe41582b	-0.1888129
35	0xbd808d4c	-0.0627695
36	0xbd9cc026	-0.07653837
37	0xbe85ec07	-0.26156637
38	0xbcbf1dc0	-0.023329616
39	0xbe59ede3	-0.21282153
40	0xbe8f3ed6	-0.27977628
41	0x3cae254d	0.02125802
42	0x3dda1b61	0.10649753
43	0xbe132b70	-0.14372039
44	0xbe364e0d	-0.17803212
45	0xbe4de514	-0.20106918
46	0xbe597ae7	-0.2123829
47	0xbe2b0eb1	-0.16704823
48	0xbceae703	-0.028674608
49	0xb9ba2ab2	-0.00035508495
50	0xbe6aa251	-0.22913481
51	0xbdbca0d2	-0.092103615

weight_ih_l0_reverse f4 [52, 4]
0	0xbcc5c2bc	-0.024140708
1	0x3ea7fe5f	0.32811257
2	0x3ecdc2cb	0.40187678
3	0xbda8dc91	-0.08245195
4	0xbd7a101a	-0.061050512
5	0x3d7d9c60	0.06191671
6	0x3d3074a4	0.043079987
7	0xbd2f2a1e	-0.042764775
8	0xbd35e9b1	-0.04441232
9	0x3e15f0f6	0.146427
10	0xbd1769ed	-0.036966253
11	0x3da46858	0.080277145
12	0x3e0539e6	0.13010368
13	0x3e7528e7	0.23941384
14	0x3e4786c2	0.19485
15	0xbd974e67	-0.07388001
16	0xbe305fa9	-0.17223991
17	0x3d11dc8f	0.03561073
18	0xbdf7fdaa	-0.121089295
19	0xbd4ca4aa	-0.049961723
20	0xbe6c9995	-0.23105462
21	0x3db78054	0.089600235
22	0x3e472d6c	0.19450921
23	0x3d652f77	0.05595347
24	0x3d8441f2	0.064578906
25	0xbe2aa2f5	-0.16663726
26	0xbe23a3bd	-0.1598043
27	0x3e7d1a44	0.24717051
28	0xbe36b5fb	-0.17842858
29	0x3da408e8	0.08009511
30	0x3ca5e3c4	0.020250209
31	0x3ea6ffe9	0.3261712
32	0xbe8bfadc	-0.27339828
33	0x3be52b36	0.0069936765
34	0x3cb4912a	0.022041876
35	0x3b2cf6a0	0.0026392117
36	0x3e023f50	0.12719464
37	0x3ea44b8d	0.3208889
38	0x3d868de7	0.065700345
39	0x3d31f4ec	0.043446466
40	0x3db32f12	0.08749212
41	0x3e1e98c1	0.15487958
42	0x3d5cfa5b	0.053949695
43	0xbea2310e	-0.3167805
44	0x3ddf9769	0.10917551
45	0xbe940ef5	-0.2891766
46	0xbe16dd26	-0.14732799
47	0xbddda926	-0.10823278
48	0x3db44bf9	0.08803553
49	0xbd37cd02	-0.044873245
50	0x3d64e4b0	0.055882156
51	0x3d1bb3fe	0.03801345
52	0x3e567387	0.20942508
53	0xbe90e719	-0.28301314
54	0x3d4ea145	0.050446767
55	0x3db7b1d9	0.089694686
56	0xbd813340	-0.06308603
57	0x3c191b05	0.009344821
58	0x3e02eb61	0.12785102
59	0x3e64d15d	0.22345491
60	0x3eab75ef	0.33488414
61	0xbcb4ef84	-0.022086866
62	0x3e27155e	0.16316745
63	0xbe4afffe	-0.19824216
64	0x3e9ca143	0.30591783
65	0x3e45819a	0.1928772
66	0xbdac1ec2	-0.08404304
67	0x3dae565c	0.085125655
68	0x3ececdce	0.40391392
69	0x3e084039	0.13305749
70	0xbe7cc89d	-0.24685903
71	0xbd65d86d	-0.056114603
72	0x3d84249a	0.06452294
73	0xbe2ad6bb	-0.16683476
74	0x3cf169c2	0.029469375
75	0x3e5e1767	0.21688615
76	0x3e21542f	0.1575477
77	0x3e1b1871	0.15146042
78	0x3dfbd56b	0.122965656
79	0x3c49599b	0.01228943
80	0x3dca55c8	0.09879643
81	0xbef82761	-0.48467544
82	0xbe88e985	-0.2674066
83	0xbdb713c2	-0.089393154
84	0x3e8580f8	0.26074958
85	0x3d206248	0.03915623
86	0xbeba0aac	-0.36336267
87	0xbe55f941	-0.20895864
88	0x3e1ca369	0.15296711
89	0x3e5c7bcb	0.21531598
90	0x3c5c0ded	0.013431055
91	0x3e3d3d52	0.18480423
92	0xbcc45842	-0.023967866
93	0x3d1240bb	0.035706263
94	0xbcabb0f0	-0.020958394
95	0x3d89bd26	0.0672553
96	0x3ef0cd30	0.47031546
97	0xbe814825	-0.25250354
98	0xbd887936	-0.06663744
99	0xbda6bb14	-0.08141151
100	0xbd23cdd2	-0.039991207
101	0x3edece63	0.43516836
102	0xbd6e9942	-0.058251627
103	0xbdf1bea4	-0.1180394
104	0x3e0a2b64	0.13493115
105	0xbd776a7f	-0.060404297
106	0xbcb61d03	-0.02223063
107	0x3ea70718	0.326226
108	0x3e6e0296	0.23243174
109	0xbe00ae7f	-0.12566565
110	0x3ee04bf2	0.43807942
111	0xbe1800c4	-0.14844042
112	0xbe416f25	-0.18890055
113	0xbd1d670b	-0.038428348
114	0x3ea08480	0.3135109
115	0xbd80d5fa	-0.06290813
116	0x3ec7bb83	0.39010248
117	0x3d50f192	0.05101163
118	0x3e4bd313	0.19904737
119	0xbcf08289	-0.029359119
120	0x3e1a15d8	0.15047395
121	0xbe41b7fc	-0.1891784
122	0x3c7bc096	0.01536574
123	0x3e0ba8c4	0.13638598
124	0xbe0f9f79	-0.14025678
125	0xbe42bc18	-0.19017065
126	0xbd9427df	-0.07234167
127	0x3d3fba07	0.04680827
128	0x3d0beb0e	0.034159712
129	0xbd88aef0	-0.06673992
130	0xb97c9aa4	-0.00024090201
131	0xbac6592d	-0.0015132778
132	0xbd9a9e77	-0.07549756
133	0xbda50377	-0.080573015
134	0xbe31aacd	-0.17350312
135	0x3e106b81	0.1410351
136	0x3eb4ea4b	0.35335
137	0x3ddce395	0.10785595
138	0x3e4919e4	0.19638783
139	0xbe76dd51	-0.24107863
140	0x3e79218a	0.243292
141	0x3dbcc39d	0.09216998
142	0x3e3c3332	0.18378904
143	0xbbb139e0	-0.0054085106
144	0x3dc4e63d	0.09614227
145	0x3df86d92	0.12130274
146	0x3e4509aa	0.19241968
147	0xbe3a41da	-0.18189183
148	0xbe602809	-0.21890272
149	0x3d928f5c	0.0715625
150	0xbc6ff7fe	-0.014646528
151	0xbebb03b4	-0.36526263
152	0xbe3fb46b	-0.18721168
153	0x3e39723b	0.18109982
154	0x3e105028	0.14093077
155	0x3ddb9137	0.10721057
156	0xbdd6ffef	-0.10498034
157	0x3da9a76d	0.08283887
158	0x3e037439	0.12837304
159	0x3e2d272b	0.16909473
160	0xbea343a5	-0.31887546
161	0x3e04ca0d	0.12967701
162	0xbd99b801	-0.07505799
163	0x3e2c8fff	0.16851805
164	0xbe15d530	-0.14632106
165	0x3e036532	0.12831572
166	0x3f10b340	0.56523514
167	0x3e36d895	0.17856057
168	0x3db8e395	0.09027783
169	0xbe264948	-0.16238892
170	0x3cb78bdf	0.022405563
171	0x3d125eb7	0.03573486
172	0xbe2182ca	-0.15772548
173	0xbd13d739	-0.036093924
174	0xbd66d5a6	-0.056356095
175	0xbdb1c6f4	-0.086805254
176	0xbe57a1d3	-0.21057825
177	0x3e3b1040	0.18267918
178	0xbe82c263	-0.2553893
179	0xbeafd7a2	-0.34344202
180	0xbddda4c8	-0.10822445
181	0x3de2d316	0.11075418
182	0x3e827143	0.25477037
183	0x3e94739c	0.28994453
184	0xbe120714	-0.14260513
185	0xbe17c6eb	-0.14821975
186	0xbf0d99ea	-0.5531298
187	0xbd6a99ca	-0.05727557
188	0x3cee749c	0.029108338
189	0xbdb4be55	-0.088253655
190	0xbd9e183e	-0.077194676
191	0x3cf9d108	0.030495182
192	0xbe0ba6d1	-0.13637854
193	0xbe6616da	-0.22469655
194	0xbdb5bc82	-0.08873846
195	0x3e396019	0.18103065
196	0x3ec77eac	0.3896383
197	0x3e208cb5	0.15678675
198	0x3e4ababd	0.19797798
199	0x3de8d26e	0.11368261
200	0xbe068d13	-0.13139753
201	0x3e5bee0e	0.2147753
202	0x3d746cf8	0.059674233
203	0x3da63053	0.08114686
204	0x3de2f228	0.11081344
205	0x3d868f24	0.06570271
206	0x3e080454	0.13282901
207	0xbe6dda80	-0.23227882

weight_hh_l0_reverse f4 [52, 13]
0	0x3d3e22b3	0.04641981
1	0xbc52a234	-0.012856055
2	0xbd9a24e5	-0.07526568
3	0x3def796f	0.116930835
4	0x3d80d99d	0.062915064
5	0x3eab2ea4	0.3343402
6	0x3e664a6c	0.22489327
7	0x3e30d669	0.17269291
8	0xbbeaefa1	-0.0071696793
9	0x3c806428	0.015672758
10	0xbe8e26f6	-0.277641
11	0xbe2e298f	-0.17008041
12	0x3e45737f	0.1928234
13	0xbce9fb1d	-0.028562123
14	0x3dca9830	0.09892309
15	0xbdb42446	-0.08795981
16	0x3df66620	0.120311975
17	0x3cb5b3fa	0.022180546
18	0xbe145c2a	-0.14488283
19	0xbe227604	-0.15865332
20	0x3e123349	0.14277376
21	0xbe7349c9	-0.23758616
22	0x3d9f0571	0.0776471
23	0xbdfbf13d	-0.12301872
24	0xbe3a0cbb	-0.18168919
25	0x3dbd2351	0.09235252
26	0xbdaecd6d	-0.085352756
27	0x3e110818	0.14163244
28	0x3da8b545	0.082376994
29	0xbe9d3067	-0.3070099
30	0xbe8cbeb2	-0.2748924
31	0x3e06bb1e	0.13157317
32	0xbda6d19d	-0.08145449
33	0x3e4815b2	0.19539526
34	0xbd578c0a	-0.052623786
35	0x3ef5170f	0.47869155
36	0x3dde4bc4	0.10854295
37	0x3ec2720c	0.37977636
38	0x3e2d6793	0.16934042
39	0x3e654be3	0.2239223
40	0x3dbcd24b	0.09219798
41	0x3eb9ab1a	0.36263353
42	0xbd5260e4	-0.051361933
43	0xbe348f3d	-0.17632766
44	0x3e047e81	0.12938882
45	0x3dc37eef	0.09545695
46	0xbd3c31a3	-0.045945775
47	0x3e101d2a	0.14073625
48	0xbd92dcda	-0.0717103
49	0x3c6b171d	0.014348772
50	0x3e4c2f5b	0.1993994
51	0x3e3659c4	0.1780768
52	0x3db08db2	0.08620776
53	0x3dc9c67f	0.09852313
54	0xbd0a0233	-0.033693504
55	0xbe3c0631	-0.18361737
56	0x3daaf420	0.083473444
57	0x3e05d19e	0.13068244
58	0x3ea44edf	0.32091424
59	0xbda75e60	-0.081722975
60	0x3e46133c	0.19343275
61	0xbd1875d3	-0.03722174
62	0xbe431e2b	-0.19054477
63	0x3d98d54b	0.074625574
64	0xbdb8796a	-0.09007533
65	0xbe6a593d	-0.22885604
66	0xbe27994c	-0.16367072
67	0xbd1f864e	-0.038946442
68	0x3d01f553	0.0317281
69	0xbe089357	-0.13337456
70	0xbe6c0768	-0.230497
71	0x3eac7bdf	0.33688256
72	0x3ebf6389	0.37380627
73	0x3d63b561	0.0555929
74	0x3d9a67e9	0.075393505
75	0xbb0cafb2	-0.0021467027
76	0xbe9b7733	-0.3036438
77	0xbd9b1c4c	-0.075737566
78	0xbd740523	-0.05957521
79	0xbc47d571	-0.0121968845
80	0x3c0b83b3	0.008515286
81	0xbe018cdb	-0.12651388
82	0x3dc1637f	0.094428055
83	0xbdbfcc1b	-0.09365102
84	0xbd48bea9	-0.049009953
85	0x3df718c0	0.120652676
86	0x3d355479	0.044270013
87	0xbe0c1533	-0.13679962
88	0xbaf2bca4	-0.0018519354
89	0xbe50c241	-0.20386602
90	0xbea183e9	-0.31545952
91	0xbdeb0ed3	-0.11477437
92	0x3e40ae83	0.18816571
93	0xbea531a1	-0.32264426
94	0x3e5b0053	0.21386842
95	0x3d280463	0.04101981
96	0xbda2cc5a	-0.07949133
97	0xbdfd4199	-0.123660274
98	0x3e81497d	0.2525138
99	0xbe1ca10c	-0.1529581
100	0xbe6f21bc	-0.23352712
101	0xbdc9b3fa	-0.09848781
102	0x3e75faf0	0.24021506
103	0xbd13efa1	-0.0361172
104	0xbec85775	-0.39129224
105	0xbf35ebdb	-0.7106301
106	0x3d9cdc90	0.076592565
107	0xbed98990	-0.42487764
108	0xbeb0cb8f	-0.34530303
109	0xbce4a002	-0.027908329
110	0xbbb2d7fd	-0.0054578767
111	0xbd9bc1dc	-0.07605335
112	0xbe6ed28b	-0.23322503
113	0xbe0b48e3	-0.13602023
114	0xbe1c19d5	-0.15244229
115	0x3e002bc3	0.12516694
116	0x3acac1f1	0.0015469176
117	0xbcd9d18d	-0.02658918
118	0x3ea3df68	0.32006383
119	0xbd8f3512	-0.06992544
120	0x3d0be69e	0.03415548
121	0x3c9c01a1	0.019043745
122	0x3e36a37a	0.17835799
123	0xbe2235d0	-0.1584084
124	0xbe0c7e32	-0.13720015
125	0xbef1f646	-0.47258204
126	0xbdf7036d	-0.120612
127	0x3db4346e	0.08799063
128	0x3e79f718	0.24410665
129	0xbe53b8fd	-0.20676036
130	0x3e8b4f82	0.27209097
131	0xbdac56a0	-0.0841496
132	0xbed077b9	-0.4071634
133	0xbcec6467	-0.02885647
134	0x3e773ee8	0.2414509
135	0xbd667a17	-0.056268778
136	0x3bf4b588	0.0074679293
137	0xbd85d06c	-0.06533894
138	0xbe573f31	-0.210202
139	0xbc18be7d	-0.00932276
140	0xbe281c42	-0.1641703
141	0xbe000ac8	-0.12504113
142	0xbdc432a8	-0.095799744
143	0xbd13e855	-0.03611024
144	0xbeaf0734	-0.34185183
145	0x3e8f4fa9	0.27990463
146	0xbe15a627	-0.14614163
147	0xbc9b212e	-0.01893672
148	0x3cabd4d4	0.020975508
149	0xbe34096f	-0.17581724
150	0xbda99fe4	-0.0828245
151	0x3e59c253	0.21265535
152	0x3e080968	0.13284838
153	0x3da2e849	0.07954461
154	0x3b859f03	0.0040777936
155	0xbcbc7c52	-0.0230085
156	0xbc232337	-0.009957126
157	0x3e821e65	0.25413814
158	0xbddcc59f	-0.10779881
159	0xbdc9a27d	-0.09845445
160	0x3dafd10c	0.085847944
161	0xbda9ed46	-0.082972094
162	0xbe1892e5	-0.14899786
163	0x3e7fd88c	0.2498495
164	0x3ca8759d	0.020563895
165	0xbe6901e2	-0.22754624
166	0x3e6704e8	0.22560465
167	0x3e8af649	0.27141026
168	0xbe908efa	-0.28234082
169	0x3eb63f17	0.3559501
170	0xbe66344c	-0.22480887
171	0xbdaf983b	-0.085739575
172	0xbdb08827	-0.08619719
173	0xbdd34324	-0.103155404
174	0x3e1c6c3e	0.15275666
175	0xbdbe0b3a	-0.09279485
176	0x3cffb22e	0.031212892
177	0x3c97ed65	0.018545816
178	0x3e38ddee	0.1805341
179	0xbd55470a	-0.0520697
180	0xbef8b296	-0.4857375
181	0xbe895f55	-0.26830545
182	0x3e0cba75	0.13743003
183	0x3c57df24	0.013175759
184	0xbee69a4e	-0.450396
185	0xbe6a050b	-0.22853486
186	0x3d2e3087	0.042526748
187	0x3d65c46b	0.056095522
188	0xbe38a8ed	-0.1803319
189	0xbe3d96eb	-0.18514602
190	0x3e60a83b	0.21939175
191	0x3ebb36e1	0.36565307
192	0xbde75756	-0.11295955
193	0xbe87eddf	-0.2654867
194	0xbc59cf91	-0.013294117
195	0x3e13345d	0.14375444
196	0x3dcba8f1	0.099443324
197	0x3ddb9263	0.107212804
198	0x3e47361e	0.19454238
199	0xbd85be17	-0.065303974
200	0xbc949d8d	-0.018141532
201	0x3e8e526f	0.27797267
202	0x3e5d741a	0.2162632
203	0x3e245eb1	0.16051747
204	0x3e18edca	0.1493446
205	0x3da944cb	0.08265074
206	0x3db5e10f	0.08880817
207	0x3d2fc1a2	0.042909272
208	0x3e3240d4	0.17407542
209	0xbdf6c7f6	-0.12049858
210	0xbc5ea0b1	-0.0135881165
211	0xbc591b99	-0.013251209
212	0xbe220c8a	-0.15825096
213	0x3d023e98	0.031797975
214	0x3efee621	0.4978495
215	0xbda78710	-0.08180058
216	0xbe4df601	-0.20113374
217	0x3d9a37da	0.07530184
218	0x3e210c8e	0.15727445
219	0x3d692579	0.056920502
220	0x3e7f35cb	0.24922864
221	0x3e4c6e67	0.1996399
222	0x3d4f41fe	0.050600044
223	0x3dba7793	0.09104838
224	0xbed44336	-0.41457528
225	0xbe0478fa	-0.12936774
226	0x3e55a1a2	0.2086244
227	0xbedbfff6	-0.4296872
228	0x3e449b37	0.19199835
229	0xbd91eddd	-0.07125447
230	0xbed36051	-0.4128442
231	0x3e45420f	0.1926348
232	0xbd1ff748	-0.039054185
233	0xbe75e4dd	-0.24013086
234	0x3e40c838	0.18826377
235	0xbe191a27	-0.14951383
236	0xbba4b64d	-0.0050266148
237	0xbed19249	-0.4093192
238	0xbd9c10c2	-0.07620384
239	0xbde2bba9	-0.110709496
240	0x3da1b431	0.07895697
241	0xbe251204	-0.16120154
242	0xbe76162f	-0.240319
243	0xbe6d96c3	-0.23202042
244	0xbe3ab6d5	-0.18233807
245	0xbe677e2b	-0.22606723
246	0x3d8e0e99	0.06936378
247	0x3e89c0b3	0.2690483
248	0x3eb18c78	0.34677482
249	0x3ea027b2	0.31280285
250	0x3d913e10	0.070919156
251	0xbe453f91	-0.1926253
252	0x3e06222a	0.1309897
253	0x3db06f43	0.086149715
254	0x3d50ed78	0.051007718
255	0x3cfcd209	0.030861871

bias_ih_l0_reverse f4 [52]
0	0x3d1e3f07	0.038634326
1	0xbe578585	-0.21047027
2	0x3dd1da2d	0.10246692
3	0xbd3d78ea	-0.04625789
4	0xbd7b70c1	-0.061386827
5	0xbda1ec4a	-0.07906397
6	0xbe5169ef	-0.20450567
7	0xbe64f03d	-0.22357269
8	0xbe555194	-0.20831901
9	0x3da8b6dd	0.082380034
10	0x3e432808	0.1905824
11	0xbdb23e17	-0.08703249
12	0xbe3e81a5	-0.18604143
13	0x3e5dae86	0.21648607
14	0x3e0b9f3a	0.13634959
15	0x3dc1ff4f	0.094725244
16	0xbe68f9fe	-0.22751614
17	0xbe63ee19	-0.22258796
18	0x3d8bed48	0.06832367
19	0xbe500ad7	-0.20316635
20	0xbde314af	-0.110879295
21	0xbd33abd1	-0.04386503
22	0xbe1abd5a	-0.15111294
23	0xbcedea39	-0.02904235
24	0xbde36060	-0.111023664
25	0x3e631a13	0.22177915
26	0x3e79be28	0.24388945
27	0x3e8c1f2f	0.2736754
28	0x3e039f9b	0.12853853
29	0x3e8e700b	0.27819857
30	0x3daa2ce2	0.08309342
31	0x3e0189fb	0.12650292
32	0x3e029843	0.12753396
33	0x3e2abd97	0.16673885
34	0x3e849e22	0.25901896
35	0x3e345fa7	0.17614613
36	0x3e4e4e9b	0.20147173
37	0xbe93bfaa	-0.28857166
38	0x3d792eb4	0.060835555
39	0x3ce47a3c	0.027890317
40	0x3e7630ba	0.24042025
41	0xbe006fb5	-0.12542613
42	0x3c4ddad9	0.012564384
43	0xbe0cc210	-0.13745904
44	0xbda38ef0	-0.079862475
45	0x3d2012ef	0.039080556
46	0x3e177a08	0.14792645
47	0x3e1c15e4	0.15242726
48	0xbd880ea0	-0.066434145
49	0x3e66f1c3	0.22553162
50	0xbe3074a5	-0.17231996
51	0xbccd70d2	-0.025078211

bias_hh_l0_reverse f4 [52]
0	0x3e35a3d4	0.17738277
1	0x3e3acc70	0.18242049
2	0x3e35fd46	0.17772397
3	0x3de1d26d	0.11026464
4	0xbe7343b7	-0.237563
5	0x3e92746b	0.28604445
6	0xbc87999f	-0.016552744
7	0xbe53808d	-0.20654507
8	0x3de34e85	0.11098961
9	0xbe4bed3d	-0.19914718
10	0xbd67ffa5	-0.056640286
11	0xbe442f96	-0.19158778
12	0xbd1f8c9b	-0.03895245
13	0xbe721a6a	-0.23642889
14	0xbcc018d4	-0.023449339
15	0xbdf7199d	-0.12065432
16	0x3e879fbc	0.26489055
17	0x3e47ae83	0.19500165
18	0x3e6cf1a6	0.23139057
19	0x3e70e833	0.23526077
20	0xbdba1b02	-0.090871826
21	0x3de86eab	0.11349233
22	0x3e8ef52d	0.2792143
23	0x3e822184	0.25416195
24	0x3df9ae00	0.12191391
25	0xbd7ff53e	-0.06248974
26	0x3e25c138	0.16186988
27	0x3e3211ba	0.17389575
28	0xbdf4fb72	-0.11962022
29	0x3e2ba773	0.16763096
30	0xbe4f1795	-0.2022384
31	0x3d330fec	0.043716356
32	0x3e84c07c	0.25928104
33	0xbdbeefdb	-0.093230926
34	0x3e7517e7	0.239349
35	0x3e844053	0.25830325
36	0xbe16f790	-0.14742875
37	0x3cbd9535	0.023142437
38	0xbcb332d8	-0.02187483
39	0xbe807467	-0.25088808
40	0x3c7b9939	0.015356355
41	0xbd045b89	-0.032313857
42	0xbe00010c	-0.125004
43	0x3e5fde74	0.21862203
44	0x3e861985	0.26191345
45	0xbdae1431	-0.08499945
46	0x3d8f3113	0.06991782
47	0x3e0fd65f	0.1404662
48	0x3d660837	0.056160178
49	0xbda7e33e	-0.0819764
50	0x3db55018	0.08853167
51	0x3e05d2cf	0.13068698

weight f4 [16, 260]
0	0x3c55ebd9	0.013056719
1	0x3e25be8a	0.16185966
2	0xbc74eea8	-0.014949478
3	0x3d1a058b	0.037602942
4	0x3cf8fdf8	0.03039454
5	0xbe458151	-0.19287612
6	0x3d90e687	0.070752196
7	0x3dccdb2a	0.1000274
8	0xbd8712f7	-0.06595414
9	0x3ccd2578	0.02504228
10	0x3c2bae9d	0.010478643
11	0xbd2441d0	-0.040101826
12	0x3c961ebb	0.0183252
13	0xbda58ce2	-0.08083512
14	0xbd930c1e	-0.071800455
15	0x3d717e76	0.058958493
16	0x3dc67403	0.09690096
17	0x3d9284c7	0.071542315
18	0x3e00af6c	0.12566918
19	0xbde75155	-0.1129481
20	0x3d20eca5	0.03928818
21	0x3c3333a6	0.010937607
22	0xbdc97383	-0.09836485
23	0x3d11a909	0.035561595
24	0x3d75c6e5	0.060004134
25	0xbd2814b1	-0.041035358
26	0x3dbe3b7c	0.092886895
27	0x3c04795c	0.008085575
28	0xbd8e29db	-0.06941577
29	0xbcfcdf8d	-0.030868316
30	0x3b8c828f	0.0042880247
31	0x3d7a959e	0.061177842
32	0xbd57bd87	-0.05267098
33	0x3da1057b	0.078623734
34	0x3c7d0732	0.01544361
35	0x3bdcd6d9	0.006739479
36	0x3e01188b	0.12607019
37	0x3db38b43	0.087667964
38	0xbdca4b77	-0.09877675
39	0xbd9be20b	-0.07611474
40	0xbcc0aac1	-0.023518922
41	0xbd84e3bc	-0.064887494
42	0x3d7a72dd	0.0611447
43	0xbd4c672a	-0.049903072
44	0x3d886f73	0.06661882
45	0xbdbd9ade	-0.09258054
46	0xbc7f9d73	-0.015601504
47	0xbe1ddd6b	-0.15416496
48	0xbd6cea59	-0.05784068
49	0x3b71936a	0.0036861547
50	0xbdc179b4	-0.09447041
51	0xbca3979c	-0.019969754
52	0x3df1a032	0.11798133
53	0xbd78b98c	-0.060723826
54	0x3d6c8766	0.057746314
55	0xbdc16645	-0.094433345
56	0x3ddf0b0c	0.10890779
57	0x3d951ee5	0.07281283
58	0x3dafc665	0.08582763
59	0x3d7b8c8a	0.061413325
60	0x3d8c18c4	0.06840661
61	0xbdc8457f	-0.0977888
62	0x3d69b6a3	0.05705894
63	0xbcda1edb	-0.026626041
64	0xbd0e45ee	-0.03473466
65	0xbdc07781	-0.093977936
66	0x3cc86073	0.024460053
67	0x3d7af729	0.061270867
68	0x3cd8a811	0.026447328
69	0x3cfeca56	0.03110234
70	0xbe10595c	-0.14096588
71	0xbd3b693e	-0.045754664
72	0xbcf31ce8	-0.02967687
73	0xbd8f3809	-0.0699311
74	0x3b819f48	0.0039557554
75	0x3d9f9761	0.07792545
76	0x3caf8c3e	0.021429177
77	0x3cd9bc4a	0.026579041
78	0x3d6250ae	0.055252723
79	0x3d3c7d8a	0.04601816
80	0xbddf341d	-0.10898612
81	0x3c211390	0.009831324
82	0xbd5c7d67	-0.05383053
83	0xbcee3752	-0.029079113
84	0xbc674166	-0.014114713
85	0xbd3b2b64	-0.045695677
86	0xbcd06d30	-0.02544269
87	0xbb57f5b0	-0.0032952838
88	0x3c92a030	0.017898649
89	0xbdf86abb	-0.12129732
90	0xbc64d232	-0.01396613
91	0xbcce153a	-0.025156606
92	0x3d2e097c	0.042489514
93	0xbc90d82b	-0.017681202
94	0x3e16cc73	0.14726429
95	0xbbf9ddad	-0.0076253028
96	0xbd328641	-0.043585066
97	0xbdca0f3f	-0.09866189
98	0x3d7a079b	0.06104241
99	0xbe05b7d7	-0.1305841
100	0xbe4bce82	-0.19902995
101	0x3d4c8586	0.049932025
102	0x3da0fb16	0.07860391
103	0x3df47cd5	0.11937872
104	0x3d437047	0.047714498
105	0xbd397121	-0.045273904
106	0x3dedfece	0.11620866
107	0x3d0d2f0c	0.034468696
108	0xbd191dc1	-0.03738189
109	0xbddb473c	-0.10706946
110	0x3d7daeff	0.061934467
111	0x3d96101b	0.073272906
112	0xbd8f9152	-0.070101395
113	0xbcb7ed11	-0.02245191
114	0x3d1e6d82	0.038678654
115	0xbd8f01f7	-0.06982797
116	0xbd75ce3c	-0.060011134
117	0xbd1352d6	-0.03596767
118	0xbbe9101f	-0.0071125175
119	0xbdf58499	-0.119881816
120	0x3d3aa145	0.045563955
121	0x3d6fea46	0.05857303
122	0x3dd075c8	0.10178715
123	0x3c4a5ac2	0.01235074
124	0xbd20f1e3	-0.03929318
125	0xbd59f940	-0.05321622
126	0x3d33a8e1	0.043862227
127	0x3d0bb455	0.034107525
128	0xbc0dea2c	-0.008661788
129	0x3d96d727	0.07365256
130	0xbe1b3842	-0.1515818
131	0x3d8f7156	0.07004039
132	0xbe09ac64	-0.13444668
133	0x3ba3d8d0	0.0050002113
134	0xbd885050	-0.066559434
135	0xbcf3e135	-0.029770473
136	0x3c139895	0.009008546
137	0xbc54d379	-0.012989872
138	0x3d515a98	0.051111788
139	0xbd0ff85f	-0.035148975
140	0x3d5f878e	0.054572634
141	0x3c0bbbf9	0.008528703
142	0x3dbabf07	0.09118467
143	0x3d4491ae	0.047990493
144	0x3c53937f	0.012913584
145	0x3e0c7ed2	0.13720253
146	0x3c87e776	0.016589861
147	0xbd51ce36	-0.05122205
148	0x3cb2b921	0.021816792
149	0xbdb0228b	-0.086003385
150	0x3d6925ff	0.056921
151	0xbddeeaed	-0.10884652
152	0xbdbafd70	-0.091303706
153	0x3c59797a	0.013273591
154	0xbd3b965e	-0.0457977
155	0x3e0c7cfd	0.13719554
156	0xbe4352bb	-0.19074528
157	0xbddcbf6e	-0.107787
158	0xbcd42ff9	-0.025901781
159	0x3d5e6a02	0.054300316
160	0xbd525cb2	-0.051357932
161	0xbd2a23a9	-0.041537914
162	0xbdeefa15	-0.11668793
163	0x3de0c4ad	0.10975013
164	0x3d29c9da	0.041452266
165	0xbdbffbd1	-0.09374202
166	0xbde5ad3c	-0.112146825
167	0x3c693345	0.014233415
168	0x3d04bce6	0.03240671
169	0x3dace2f9	0.08441729
170	0xbc11a496	-0.008889338
171	0x3c9763f2	0.018480275
172	0xbcf77ae6	-0.03020997
173	0xbcd15a42	-0.025555734
174	0x3dd0d770	0.101973414
175	0xbd60fc41	-0.054928068
176	0xbdff4554	-0.12464395
177	0xbda7eed4	-0.0819985
178	0xbcb4c8f7	-0.022068484
179	0xbe46a80f	-0.19400047
180	0x3e325198	0.17413938
181	0xbca4a3ca	-0.020097632
182	0xbc99124f	-0.018685488
183	0x3d1ffe8e	0.03906112
184	0x3dba1ecf	0.090879075
185	0xbd80b338	-0.06284183
186	0xbe259a10	-0.16172051
187	0xbbfde731	-0.0077485074
188	0x3da96369	0.08270914
189	0xbd7f9ce7	-0.062405493
190	0xbe1d24b7	-0.15346037
191	0x3e043dba	0.12914172
192	0xbc587afa	-0.013212914
193	0x3c061970	0.008184776
194	0xbddcd754	-0.10783258
195	0x3c9a3d84	0.018828161
196	0x3cd2504b	0.025673052
197	0xbdff517a	-0.12466712
198	0xbd2655be	-0.040609114
199	0xbdc7936f	-0.097449176
200	0x3a4f73bf	0.0007913671
201	0xbca48aaa	-0.020085651
202	0x3d0a1363	0.033709895
203	0xbd4c4eed	-0.049879957
204	0xbb4471fa	-0.0029975162
205	0xbd341a8f	-0.04397064
206	0xbd94f06f	-0.072724216
207	0x3cad13f6	0.021127682
208	0x3d76c898	0.060249895
209	0xbd60668d	-0.0547853
210	0xbd837e69	-0.06420595
211	0x3c737e99	0.014861726
212	0x3d8051de	0.06265615
213	0x3dc2e217	0.095157795
214	0xbd831a8a	-0.06401546
215	0x3db37f10	0.087644696
216	0x3cd2d018	0.025733992
217	0x3bd99328	0.006639857
218	0xbda917d6	-0.082564995
219	0xbe0fb71e	-0.14034697
220	0xbdacbae5	-0.08434085
221	0xbda858ab	-0.08220037
222	0xbba9fe3f	-0.005187779
223	0x3e0def95	0.13860925
224	0xbe00a1f6	-0.12561783
225	0x3dd9c736	0.106336996
226	0xbab84b60	-0.001406055
227	0x3d017432	0.031604953
228	0xba7d6294	-0.00096658734
229	0x3dfb52f5	0.12271682
230	0x3cc6bc56	0.024259727
231	0xbd172516	-0.036900602
232	0x3dd9a2e1	0.1062677
233	0xbdc90f1c	-0.09817335
234	0xbd4d9540	-0.050191164
235	0xbcc03e16	-0.023467105
236	0xbc5aefa8	-0.013362803
237	0x3d01f30b	0.031725924
238	0x3e2cd5bf	0.16878413
239	0x3deee437	0.11664622
240	0x3d6f1034	0.058365062
241	0xbb5fa2aa	-0.0034124055
242	0x3c8fc6ae	0.017550793
243	0xbd93cae9	-0.072164364
244	0xbd35f8f9	-0.044426892
245	0xbddbbea4	-0.10729721
246	0xbc1eff33	-0.009704399
247	0x3d29f9a1	0.04149783
248	0xbcb5008c	-0.022094987
249	0x3d41df2e	0.04733198
250	0xbe5b0fd9	-0.21392764
251	0xbda098a9	-0.078416176
252	0xbd808eef	-0.062772624
253	0x3c729f6d	0.014808518
254	0xbc34e8ba	-0.011041814
255	0x3b03414e	0.0020027938

bias f4 [16]
0	0x3c07cd55	0.008288701
1	0xbcba052b	-0.022707542
2	0xbcb9214d	-0.022598887
3	0xbce9a8cf	-0.028522877
4	0x3be59159	0.007005852
5	0xbd48e31f	-0.049044725
6	0xbac87321	-0.00152931
7	0x3c381aa5	0.011236821
8	0xbd3b2004	-0.04568483
9	0xbd54f63a	-0.051992632
10	0x3d90fcc8	0.07079464
11	0xbd27464c	-0.040838525
12	0x3d47fe20	0.048826337
13	0xbcdcac02	-0.026937488
14	0x3cfd7f17	0.03094439
15	0x3d4ead39	0.050458167

weight f4 [19, 16]
0	0xbd1d285c	-0.038368568
1	0xbed29134	-0.41126406
2	0x3df67def	0.12035739
3	0xbea27862	-0.3173247
4	0xbd1a5e6b	-0.0376877
5	0xbd5cef7e	-0.053939335
6	0x3e168b00	0.14701462
7	0xbeafddff	-0.34349057
8	0xbdfd0d33	-0.12356033
9	0x3d3da4d8	0.046299785
10	0xbe3f7f33	-0.18700866
11	0x3e082cf9	0.13298406
12	0x3dbde56e	0.09272276
13	0x3c941496	0.018076222
14	0xbd9b4754	-0.07581964
15	0xbe8039d1	-0.2504411
16	0xbe97886c	-0.2959627
17	0x3d761334	0.060076907
18	0x3edc3da1	0.4301577
19	0x3d4ac53c	0.049504504
20	0x3dc60bf6	0.0967025
21	0xbe966b33	-0.29378662
22	0xbe656ec1	-0.2240553
23	0x3c3e273c	0.011606034
24	0x3ea03854	0.31292975
25	0xbe8983bd	-0.2685832
26	0xbdbb639c	-0.09149858
27	0xbe28e1cf	-0.16492389
28	0x3d94fcb9	0.072747655
29	0x3d52cf9d	0.051467527
30	0x3db5b004	0.08871463
31	0xbe881040	-0.26574898
32	0x3e67e669	0.22646488
33	0xbdae1c2f	-0.08501469
34	0xbe169cef	-0.14708303
35	0x3e594169	0.21216358
36	0xbe25440b	-0.16139238
37	0x3dec9dac	0.11553511
38	0xbbe89309	-0.007097606
39	0x3e0390f9	0.12848271
40	0xbd4f0ad7	-0.050547447
41	0x3e0f3a4c	0.13987082
42	0x3e1de5a1	0.15419628
43	0xbbe7e1e0	-0.007076487
44	0x3df9d722	0.121992365
45	0x3dbf39d4	0.09337202
46	0x3e99779c	0.29974067
47	0x3e9b8b11	0.30379537
48	0xbf113a78	-0.5672984
49	0xbd821fff	-0.06353759
50	0xbe2bfc98	-0.16795576
51	0x3d8fbda1	0.07018591
52	0x3eb0a427	0.34500238
53	0xbc77ba7c	-0.015120145
54	0x3d08af82	0.033370502
55	0x3c377b76	0.011198869
56	0x3e20a61e	0.15688369
57	0x3d0f3a5c	0.034967765
58	0xbdc25162	-0.09488179
59	0xbecf7cbd	-0.40524855
60	0x3e415a98	0.18882215
61	0xbe3247f4	-0.1741026
62	0xbdf6a458	-0.12043065
63	0x3e031a10	0.12802911
64	0x3eb838e2	0.35980898
65	0x3df46a3b	0.11934324
66	0xbe894e19	-0.26817396
67	0x3d01b351	0.03166515
68	0x3dcd5e4c	0.10027751
69	0x3d4ec843	0.050483953
70	0x3e94082a	0.2891248
71	0x3ed1dc04	0.4098817
72	0xbd4eec16	-0.050518118
73	0x3dee9fab	0.11651548
74	0xbea73763	-0.32659444
75	0x3e67cca0	0.22636652
76	0x3eb8de64	0.3610717
77	0x3d5fcd9d	0.054639447
78	0x3c9087f6	0.017642956
79	0xbe1715f3	-0.14754467
80	0x3dc6f764	0.09715155
81	0xbe9c6c2a	-0.30551273
82	0xbd838830	-0.0642246
83	0x3eaae005	0.33374038
84	0x3c80f8d4	0.01574365
85	0x3db987ad	0.09059081
86	0x3e076c93	0.13225012
87	0xbe00a277	-0.12561975
88	0xbdd119a4	-0.10209969
89	0xbeb0aa77	-0.34505054
90	0x3e14d272	0.14533404
91	0x3ea38c24	0.31942856
92	0xbdbabf8e	-0.091185674
93	0x3e5592b3	0.20856743
94	0xbf06d024	-0.5266135
95	0xbe0c226e	-0.13685009
96	0x3b54c0ca	0.0032463544
97	0xbec243aa	-0.3794225
98	0x3e44ff3a	0.19237986
99	0xbe590b6e	-0.21195766
100	0xbe70ec59	-0.2352766
101	0x3d4767d0	0.048682988
102	0x3eec8812	0.46197563
103	0x3d9ae60d	0.0756341
104	0x3e3b6bef	0.18302892
105	0x3e51449b	0.20436327
106	0xbf116381	-0.56792456
107	0x3ea03c73	0.3129612
108	0xbdb16629	-0.08662064
109	0x3ec7dec8	0.39037156
110	0x3eda9312	0.4269033
111	0xbd046950	-0.032326996
112	0xbd3e1134	-0.046403125
113	0x3d5b1d30	0.053494632
114	0xbd9abde8	-0.07555753
115	0x3d9ba2bd	0.07599399
116	0xbda0ade8	-0.0784567
117	0x3de0bedd	0.10973904
118	0xbf0f07f0	-0.55871487
119	0xbd51b59b	-0.051198583
120	0x3d4b200e	0.049591117
121	0x3dd5890a	0.10426529
122	0x3f6b100f	0.9182138
123	0x3c10f565	0.008847569
124	0xbcdf2cf5	-0.027243117
125	0x3eb581a6	0.35450476
126	0xbe101bfc	-0.14073175
127	0xbee6c566	-0.45072478
128	0xbe36e52c	-0.1786086
129	0x3e8760e3	0.26441106
130	0x3e816e0d	0.25279275
131	0xbd76d7e5	-0.060264487
132	0xbed3d6f2	-0.41374928
133	0x3c8416a5	0.016124079
134	0xbd69f6e2	-0.05712021
135	0x3e829c11	0.25509694
136	0x3d9bf5fb	0.076152764
137	0xbec10832	-0.37701565
138	0x3e236109	0.15954985
139	0xbe3df8c9	-0.18551935
140	0x3ddd55f5	0.10807411
141	0x3dc48359	0.09595365
142	0xbe9578da	-0.29193765
143	0xbe02802a	-0.12744203
144	0xbab430bd	-0.0013747435
145	0x3eee568f	0.46550414
146	0x3eefaad5	0.46810022
147	0xbdb01cee	-0.08599268
148	0x3c2234a9	0.0099002505
149	0xbe97f86d	-0.2968172
150	0xbec187e4	-0.3779899
151	0xbf5164c7	-0.817944
152	0x3e10779d	0.14108129
153	0xbc5d7670	-0.013517007
154	0x3c50c0da	0.012741292
155	0xbdb85709	-0.09000976
156	0x3e83289f	0.2561693
157	0x3f395a74	0.72403646
158	0x3e1654ba	0.14680758
159	0xbd067ef0	-0.0328359
160	0xbd7aff76	-0.061278783
161	0xbd566815	-0.052345354
162	0x3d888197	0.06665342
163	0x3ee65f15	0.44994417
164	0xbe50174b	-0.20321386
165	0xbe1a1e36	-0.15050587
166	0x3ed8ea07	0.4236605
167	0xbeb887f0	-0.36041212
168	0xbd182615	-0.037145693
169	0x3e17ee3d	0.14836974
170	0xbec368cf	-0.381659
171	0x3e82c5bc	0.25541484
172	0xbe5c0edd	-0.21490045
173	0x3dad1730	0.08451688
174	0xbec683d1	-0.38772443
175	0xbebe7318	-0.37197185
176	0x3d3008f5	0.042977292
177	0x3e639225	0.22223718
178	0xbdad4a26	-0.08461408
179	0x3de89283	0.1135607
180	0xbecbdc0f	-0.3981633
181	0xbe8d8065	-0.2763702
182	0x3e99080d	0.29888955
183	0x3dd601c8	0.104495585
184	0x3e07bccc	0.13255614
185	0x3e3cc11e	0.18433043
186	0x3ebfd530	0.37467337
187	0x3eb7a399	0.35867003
188	0xbecbafd1	-0.39782575
189	0x3ec41ddc	0.3830403
190	0x3e8041ea	0.25050288
191	0xbe72c5b2	-0.23708227
192	0xbe39f3e3	-0.18159442
193	0xbeb6af15	-0.35680452
194	0xbebf5278	-0.37367606
195	0x3eb886eb	0.36040434
196	0x3e41d4c0	0.18928814
197	0x3da9f37d	0.08298395
198	0x3e471332	0.19440916
199	0xbe70e540	-0.23524952
200	0xbda35ad4	-0.079763085
201	0xbe8edede	-0.2790441
202	0xbeaba78e	-0.33526272
203	0x3e5efa70	0.21775222
204	0x3e38967a	0.18026152
205	0xbf0842b8	-0.53226805
206	0xbeae3541	-0.34025005
207	0xbe1dbbe6	-0.15403709
208	0xbdd46a39	-0.10371823
209	0xbd77cc9c	-0.060497865
210	0xbe620501	-0.22072221
211	0x3cd8b023	0.026451176
212	0x3ed79681	0.42107013
213	0x3d4de605	0.05026819
214	0xbdfcc7a4	-0.12342766
215	0xbe98e03f	-0.29858586
216	0x3e92b755	0.28655496
217	0xbefdf9c7	-0.49604627
218	0x3dd1ccdd	0.10244153
219	0x3e3ef676	0.18648705
220	0x3d232a5c	0.03983532
221	0xbeabe69b	-0.33574376
222	0x3e9dde24	0.30833542
223	0xbd26c9a4	-0.040719643
224	0xbe7cb67c	-0.24678987
225	0xbe07c017	-0.1325687
226	0xbda941a9	-0.08264477
227	0xbd60e34a	-0.05490426
228	0x3be6fba8	0.0070490427
229	0xbdf079d8	-0.1174199
230	0x3e7bb4f9	0.24580754
231	0x3d49ad0f	0.049237307
232	0xbe612c38	-0.21989524
233	0x3e30c313	0.17261915
234	0xbdc81ac8	-0.09770733
235	0x3cfb79ec	0.030697785
236	0xbd0077c7	-0.03136423
237	0x3d6fc7c2	0.058540113
238	0x3dfe603d	0.124207
239	0x3cd09ad5	0.025464455
240	0xbce1dbb2	-0.02757058
241	0xbda3b29c	-0.079930514
242	0xbe7fe22e	-0.24988624
243	0x3eb64cc9	0.35605457
244	0x3ecc1fe3	0.39868078
245	0x3dff32bf	0.12460851
246	0xbe77ffc4	-0.2421866
247	0xbc2d993f	-0.010595619
248	0xbe0e69a6	-0.13907489
249	0xbe0d4dd4	-0.1379922
250	0x3ce81c3c	0.028333776
251	0xbec8cf08	-0.39220452
252	0x3ce38877	0.027775032
253	0x3dc37e2d	0.095455505
254	0xbef0b4ee	-0.47013038
255	0xbd393a46	-0.04522159

bias f4 [19]
0	0x3e46ec82	0.19426158
1	0xbea77d41	-0.3271275
2	0xbdda11d2	-0.1064793
3	0xbe17d657	-0.14827858
4	0xbe110108	-0.1416055
5	0xbe69f44e	-0.22847101
6	0x3e4f9828	0.20272887
7	0xbe41ef60	-0.1893897
8	0xbe793f7a	-0.2434062
9	0xbdf9b4b8	-0.121926725
10	0x3d819636	0.063274786
11	0x3d5b0618	0.05347261
12	0x3e2f4532	0.1711624
13	0xbde15523	-0.11002567
14	0x3d13a3fa	0.036045052
15	0xbd891a1d	-0.06694434
16	0xbded2ad4	-0.115804344
17	0x3c16da5a	0.0092073325
18	0xbd9b2d1d	-0.07576964
