models/a19lds19b0.007g1.3d2h13.pt (torch, 126679 bytes, 26 tensors)

weight_ih_l0 f4 [52, 4]
-0.23051368 0.012645116 0.04877374 -0.2605855 -0.44748062 0.3724375 0.15937571 -0.76611257
-0.25943303 0.08142138 -0.054232698 0.3380111 0.6900482 0.13703953 -0.19013353 0.1665163
0.27029517 0.16139638 0.20256846 0.58746517 0.0020359491 0.31468523 -0.15874706 0.22063047
-0.0566365 0.38963476 0.22826608 0.40359586 0.2989681 0.763231 0.09268716 0.14843918
-0.11955159 -0.39904863 0.13604048 0.6145961 0.14571218 1.0266361 0.112410724 0.5332701
0.31413788 0.07868358 0.2616266 -0.09093456 0.04355324 -0.09683252 0.10943661 0.19789815
0.089877285 0.22524078 -0.030659812 0.44908231 0.14043072 0.43590966 0.40958464 0.014570921
-0.24336067 0.666874 0.32138819 -0.114454605 0.011867451 -0.31024736 0.01871289 0.35403302
-0.19431125 0.05731132 0.07858506 -0.4740979 -0.95971185 0.096812926 0.3846609 -0.10159086
0.28378645 -0.23969504 0.022676354 0.69280386 0.50898045 -0.14678836 -0.1908171 0.13814187
0.5824634 0.5830593 -0.1572301 -0.36125264 0.13778648 -0.759533 0.040675715 0.22919759
-0.35176826 0.66903144 0.34010756 -0.36729565 0.2300623 0.23196512 -0.21997611 0.18250068
0.105906874 -0.37678987 0.30209747 0.4849015 -0.5013272 -0.62287027 0.6352582 -0.25899303
-0.022073153 -0.15888901 0.07068009 -0.20128271 -0.052729245 -0.29186055 -0.43045142 0.010076227
0.29734358 -0.39536688 0.13375396 0.50233805 0.44143972 0.061343305 -0.31852484 -0.38668624
-0.089957476 -0.2649089 0.6255587 -0.09401109 0.36011434 -0.0049880277 -0.4866383 0.114193454
0.22128852 -0.60112673 -0.09542654 -0.031576402 0.036828976 -0.5960907 -0.20863271 0.6841747
-0.03971435 -0.24188268 -0.09975946 0.80371815 -0.03785984 0.6758661 0.22581014 -0.41064295
0.3687553 0.36257756 -0.23077852 0.442764 0.095797464 -0.14884697 0.19660439 0.13421708
-0.19000526 -0.52221584 0.036703173 0.18146734 -0.07035981 0.43216076 0.08915329 -0.0051101637
-0.1996223 0.5500274 -0.2703323 -0.27418387 -0.044277035 0.19457409 0.12276512 0.32507324
-0.044051234 0.53253704 0.46270433 0.23509328 -0.15710478 -0.26875228 0.21280234 0.49035937
0.4502671 -0.29474425 0.3680166 -0.009503106 0.45104185 0.17549159 0.086763866 0.07143897
-0.23911072 0.52725804 -0.15655506 0.27814028 -0.040635463 -0.13548468 0.044266928 0.7525826
0.18382709 -0.18221894 0.538101 -0.32341278 0.02828371 -0.16710235 0.0845407 -0.097702056
0.3289784 0.035291847 -0.41721377 0.16473505 0.06705687 -0.1771828 0.14281121 -0.13604559
00000000: c70b 6cbe 762d 4f3c f9c6 473d 766b 85be
00000010: 2e1c e5be 21b0 be3e 6333 233e f41f 44bf
00000020: 68d4 84be 41c0 a63d 1b23 5ebd ca0f ad3e
00000030: 00a7 303f 1754 0c3e 5db2 42be 4083 2a3e
00000040: 2164 8a3e 1845 253e 1b6e 4f3e 1e64 163f
00000050: 8f6d 053b 6c1e a13e 978e 22be f4ec 613e
00000060: adfb 67bd 357e c73e 95be 693e 1ea4 ce3e
00000070: 5912 993e 1b63 433f c4d2 bd3d 7100 183e
00000080: 77d7 f4bd 1a50 ccbe 324e 0b3e 2c56 1d3f
00000090: 9335 153e d068 833f 9837 e63d 6484 083f
000000a0: aed6 a03e db24 a13d ecf3 853e e63b babd
000000b0: e264 323d 2150 c6bd 4d20 e03d d0a5 4a3e
000000c0: 9511 b83d 85a5 663e 492a fbbc 1eee e53e
000000d0: 12cd 0f3e 8d2f df3e 14b5 d13e dfba 6e3c
000000e0: 8a33 79be 41b8 2a3f fe8c a43e 2d67 eabd
000000f0: b26f 423c bed8 9ebe c64b 993c d143 b53e
00000100: 87f9 46be 46bf 6a3d 34f1 a03d f6bc f2be
00000110: adaf 75bf db45 c63d 46f2 c43e de0e d0bd
00000120: 754c 913e 9e72 75be c3c3 b93c 985b 313f
00000130: 8b4c 023f b04f 16be 8f65 43be 1075 0d3e
00000140: 521c 153f 6043 153f ed00 21be 1bf6 b8be
00000150: e617 0d3e c170 42bf 949b 263d c6b2 6a3e
00000160: f81a b4be a545 2b3f 9422 ae3e 2d0e bcbe
00000170: 7495 6b3e 4488 6d3e 6b41 61be 75e1 3a3e
00000180: b4e5 d83d 9aea c0be 85ac 9a3e 0245 f83e
00000190: fb56 00bf 6d74 1fbf 48a0 223f bc9a 84be
000001a0: c2d2 b4bc cdb3 22be b9c0 903d 0e1d 4ebe
000001b0: 9ffa 57bd bf6e 95be 2164 dcbe c216 253c
000001c0: 6b3d 983e 876d cabe ccf6 083e 3a99 003f
000001d0: 6304 e23e 1e43 7b3d b015 a3be bdfb c5be
000001e0: a03b b8bd 24a2 87be 9d24 203f e388 c0bd
000001f0: e860 b83e 9c72 a3bb a828 f9be 42de e93d
00000200: 7599 623e 71e3 19bf fd6e c3bd 4256 01bd
00000210: fbd9 163d 6699 18bf d0a3 55be 1326 2f3f
00000220: 84ab 22bd 18b0 77be b04e ccbd 79c0 4d3f
00000230: eb12 1bbd 9005 2d3f c63a 673e cb3f d2be
00000240: 7fcd bc3e c4a3 b93e 3451 6cbe f7b1 e23e
00000250: 7631 c43d 576b 18be a952 493e 3470 093e
00000260: bd90 42be f0af 05bf 1156 163d 93d2 393e
00000270: ce18 90bd 2d44 dd3e 0096 b63d 2973 a7bb
00000280: ca69 4cbe 98ce 0c3f ff68 8abe d461 8cbe
00000290: d65b 35bd 6e3e 473e 476c fb3d 0070 a63e
000002a0: 116f 34bd 5954 083f 95e7 ec3e 4bbc 703e
000002b0: 13e0 20be e699 89be dbe8 593e 6210 fb3e
000002c0: 6989 e63e b8e8 96be ac6c bc3e eab2 1bbc
000002d0: f5ee e63e 11b4 333e 41b1 b13d 984e 923d
000002e0: 71d9 74be 62fa 063f f84f 20be 6768 8e3e
000002f0: 5f71 26bd 7fbc 0abe 3d51 353d 41a9 403f
00000300: 2b3d 3c3e 9a97 3abe fdc0 093f 5c96 a5be
00000310: 3db3 e73c e11c 2bbe ad23 ad3d 0418 c8bd
00000320: db6f a83e 2f8e 103d 0b9d d5be 4eb0 283e
00000330: 1d55 893d 686f 35be 1a3d 123e 894f 0bbe

weight_hh_l0 f4 [52, 13]
-0.009861566 -0.11607165 0.09250896 -0.28822654 0.059294876 -0.046574146 -0.40527186 -0.25367168
0.18792552 0.25726232 -0.35547963 0.010820647 -0.09852952 0.058717858 0.20059001 0.049521826
-0.30511224 0.05525472 -0.03733903 -0.38991737 0.19240484 -0.32058075 0.3075065 0.1571271
-0.054052778 -0.09429097 0.2091376 -0.38284206 0.0110887885 -0.12868388 -0.029701104 -0.29343513
0.15959266 0.026734672 0.049990784 0.0504494 0.4736145 0.21492387 0.23203105 -0.16618945
-0.37473884 -0.034406517 -0.10455357 -0.09826526 -0.42388016 -0.2684308 -0.028078988 -0.9558397
0.26951182 0.19875084 0.0531536 -0.2708258 -0.049191847 -0.5067741 0.5981415 -0.89851516
0.5638672 -0.49841112 -0.35133272 -0.23763382 0.16189235 0.1770432 -0.10753511 0.1400061
0.46102765 -0.17872533 0.061244573 -0.1133648 0.18806058 0.09862808 -0.09237097 0.11060521
-0.54864585 -0.44776314 0.18757424 0.120601825 -0.11771624 -0.11714341 -0.19119741 -0.81291914
0.23432082 -0.38678277 -0.12161203 -0.2976158 -0.8865498 -1.1713724 -0.8175778 0.50471777
0.78526986 0.2644554 0.3533769 -0.19403794 -0.34865096 -0.37430674 -0.67553353 0.13243401
-0.17069593 -0.5980238 -0.5556538 -1.0774866 0.032146458 -0.090463065 0.33027437 -0.047793005
0.027756885 -0.0786728 0.13947788 -0.10902264 -0.055737548 0.1390709 0.51621 0.2085073
-0.15500548 -0.11113341 -0.2761007 0.2093845 0.2043656 -0.051637102 -0.12324992 -0.26165602
-0.48542047 -0.06284586 -0.39985815 -0.8923462 0.13724028 -0.02424018 0.087548 0.22578864
-0.065269195 0.07282727 0.07830387 -0.37382537 -0.103802755 -0.05776204 0.19731675 -0.13671324
0.05096867 -0.09182169 -0.37247735 0.28444567 0.035638824 0.1595313 0.40570444 -0.028627751
0.05847971 0.05039402 0.1307967 0.1620358 0.12322441 0.299549 0.12022907 -0.61165476
0.5088617 -0.18789154 0.13734274 0.4026914 0.20951048 0.05932714 -0.3733123 -0.17419003
-0.023563916 0.05111454 0.023263868 -0.20945975 0.38665125 0.0041303644 -0.14521526 -0.054072242
0.36911815 0.010365029 0.059899833 -0.16238609 -0.21637245 -0.019614697 0.0075553567 0.17799392
0.0072830506 0.13054283 -0.03635452 -0.27976596 0.042606723 0.0748405 -0.2873018 0.2602567
0.044356722 -0.21689579 -0.05798091 -0.2866259 -0.07409231 0.18339397 0.04867819 -0.17767853
0.20842342 0.12496732 0.041226625 0.08891978 0.02028104 0.43538728 -0.061013855 -0.06525541
0.36796242 -0.0008730365 -0.21318762 -0.123669244 0.17507467 0.06272166 0.2448843 0.21907626
0.09854481 -0.10910654 -0.1818215 0.16492826 -0.43483877 0.19988066 -0.32383955 -0.12184984
-0.63156676 0.38631064 0.18847433 0.2409294 -0.13315287 -0.2595198 -0.3020691 -0.0019132212
-0.21031608 -0.13370109 -0.43640506 0.043913957 -0.010311078 0.13521692 -0.17118922 0.15852222
0.29481375 0.1802627 0.29560584 -0.17577961 -0.11161006 0.46305177 0.06841941 -0.24266562
-0.2780645 0.1582022 -0.30082035 0.121712804 0.14516383 0.36608762 -0.035962716 -0.4168561
-0.2316334 0.17833686 -0.57817286 -0.57227784 -0.28459775 -0.85508484 -0.3404012 -0.6868001
00000000: 6892 21bc f9b6 edbd 5675 bd3d 6e92 93be
00000010: 2fdf 723d 88c4 3ebd cb7f cfbe 41e1 81be
00000020: 8c6f 403e e3b7 833e 6d01 b6be 1549 313c
00000030: d8c9 c9bd 2382 703d 7867 4d3e 66d7 4a3d
00000040: ac37 9cbe c652 623d d0f0 18bd 40a3 c7be
00000050: c605 453e 2923 a4be 7e71 9d3e ede5 203e
00000060: 7266 5dbd a01b c1bd 2b28 563e e003 c4be
00000070: c0ad 353c b5c5 03be bb4f f3bc 213d 96be
00000080: 426c 233e ac02 db3c 23c3 4c3d 08a4 4e3d
00000090: 9a7d f23e 0115 5c3e 8c99 6d3e 912d 2abe
000000a0: c5dd bfbe d9ed 0cbd 2f20 d6bd 4c3f c9bd
000000b0: d206 d9be c36f 89be e805 e6bc e9b1 74bf
000000c0: 74fd 893e 5785 4b3e 97b7 593d aea9 8abe
000000d0: 647d 49bd f3bb 01bf cd1f 193f 1705 66bf
000000e0: 9a59 103f be2f ffbe e2e1 b3be 4856 73be
000000f0: 1cc7 253e d04a 353e 5e3b dcbd c25d 0f3e
00000100: d10b ec3e c603 37be 97db 7a3d ce2b e8bd
00000110: f492 403e 85fd c93d fe2c bdbd fc84 e23d
00000120: 0e74 0cbf 3641 e5be 7613 403e 17fe f63d
00000130: 3615 f1bd e2e8 efbd 41c9 43be 781b 50bf
00000140: ccf1 6f3e 6408 c6be ba0f f9bd 1961 98be
00000150: edf4 62bf 88ef 95bf c74c 51bf 2f35 013f
00000160: 7207 493f b366 873e d1ed b43e e2b1 46be
00000170: 6182 b2be 22a5 bfbe c4ef 2cbf c89c 073e
00000180: eaca 2ebe 1618 19bf 543f 0ebf 15eb 89bf
00000190: 01ac 033d b344 b9bd b919 a93e 99c2 43bd
000001a0: 6862 e33c 341f a1bd 4ad3 0e3e 4347 dfbd
000001b0: 0e4d 64bd 9a68 0e3e 5726 043f f082 553e
000001c0: c2b9 1ebe ea99 e3bd 125d 8dbe e468 563e
000001d0: 3745 513e 6d81 53bd 746a fcbd c7f7 85be
000001e0: 0889 f8be 55b5 80bd 35ba ccbe cd70 64bf
000001f0: b788 0c3e 5893 c6bc 5e4c b33d 2335 673e
00000200: dbab 85bd 7726 953d c85d a03d 0a66 bfbe
00000210: 8a96 d4bd e497 6cbd 670d 4a3e 8efe 0bbe
00000220: 86c4 503d 030d bcbd 5ab5 bebe dda2 913e
00000230: 04fa 113d 2c5c 233e 7eb8 cf3e bf84 eabc
00000240: 6c88 6f3d f669 4e3d 92ef 053e b6ec 253e
00000250: 145d fc3d 7d5e 993e a93a f63d 6895 1cbf
00000260: c344 023f a466 40be 93a3 0c3e 912d ce3e
00000270: ea89 563e 0401 733d ca22 bfbe df5e 32be
00000280: 1d09 c1bc 7b5d 513d de93 be3c 9e7c 56be
00000290: 27f7 c53e 0258 873b 4fb3 14be db7a 5dbd
000002a0: 0efd bc3e 15d2 293c 8759 753d 8a48 26be
000002b0: bd90 5dbe 00af a0bc ed92 f73b 0a44 363e
000002c0: a8a6 ee3b 05ad 053e 7ae8 14bd 7c3d 8fbe
000002d0: 6384 2e3d fa45 993d 3919 93be 5e40 853e
000002e0: 65af 353d ee19 5ebe 647d 6dbd a1c0 92be
000002f0: b6bd 97bd a1cb 3b3e c862 473d 5cf1 35be
00000300: f36c 553e deee ff3d 40dd 283d 931b b63d
00000310: 6c24 a63c 15eb de3e aae9 79bd a1a4 85bd
00000320: 9265 bc3e 7ddc 64ba db4d 5abe 4d46 fdbd
00000330: c646 333e 3774 803d f3c2 7a3e 8755 603e
00000340: ddd1 c93d 4073 dfbd 6a2f 3abe f4e2 283e
00000350: 30a3 debe 84ad 4c3e 4cce a5be 698c f9bd
00000360: 5cae 21bf 82ca c53e 6aff 403e 32b6 763e
00000370: 3a59 08be c7df 84be cda8 9abe 0dc5 faba
00000380: 195d 57be f0e8 08be 7c70 dfbe 1fdf 333d
00000390: ccef 28bc 4e76 0a3e 3a4c 2fbe a653 223e
000003a0: d4f1 963e c996 383e a659 973e 92ff 33be
000003b0: d193 e4bd 1f15 ed3e 7a1f 8c3d 567d 78be
000003c0: 785e 8ebe c2ff 213e 2005 9abe 9044 f93d
000003d0: d4a5 143e d66f bb3e a44d 13bd 2a6e d5be
000003e0: 4e31 6dbe f09d 363e 2303 14bf cd80 12bf
000003f0: ccb6 91be d7e6 5abf 1149 aebe 22d2 2fbf

bias_ih_l0 f4 [52]
0.05556567 0.36725974 0.28416792 0.115114756 0.23099142 0.21713105 0.3471727 0.29055965
0.4150236 0.064732105 -0.13584413 0.11319452 0.05839433 0.3077543 0.037172034 -0.040073577
-0.08500838 -0.0787457 0.30670106 -0.06429479 0.2587568 -0.12395225 0.25609595 0.086666666
-0.21880312 -0.21801199 0.015888037 -0.14403288 0.03164226 -0.26306963 0.14990057 -0.12627213
-0.31432655 -0.10444764 -0.122270964 0.29575673 0.16131897 0.15546519 0.22621074 -0.21010701
0.21245196 0.41024163 0.33898717 0.042905953 0.18010944 0.19644582 0.4035423 0.3856183
0.3932306 0.17632729 0.24892372 0.23778929
00000000: d498 633d 7809 bc3e 757e 913e 49c1 eb3d
00000010: 0489 6c3e 9a57 5e3e 9fc0 b13e 3cc4 943e
00000020: f97d d43e 4492 843d b91a 0bbe 87d2 e73d
00000030: e52e 6f3d f991 9d3e b441 183d 3124 24bd
00000040: e018 aebd 6d45 a1bd ec07 9d3e fdac 83bd
00000050: c57b 843e adda fdbd 021f 833e 4b7e b13d
00000060: ed0d 60be 893e 5fbe a127 823c 5b7d 13be
00000070: 509b 013d 10b1 86be 897f 193e 7b4d 01be
00000080: 69ef a0be a5e8 d5bd 3369 fabd 6d6d 973e
00000090: cd30 253e 4432 1f3e caa3 673e 4b26 57be
000000a0: 028d 593e 310b d23e ba8f ad3e 27be 2f3d
000000b0: 9c6e 383e 1829 493e 199d ce3e c36f c53e
000000c0: 8555 c93e 248f 343e dce5 7e3e 097f 733e

bias_hh_l0 f4 [52]
0.27253756 0.24176587 0.37353265 0.19979268 0.37346193 0.3390232 0.16521016 0.12807836
0.2236808 0.12209901 -0.0010897636 -0.0831544 0.3053347 -0.011916468 0.26929533 -0.024445625
-0.06093732 -0.03480576 -0.076925345 0.22595331 0.28957656 -0.027517632 0.04668626 -0.24026923
0.00020101988 0.2967227 -0.2666595 0.07958596 0.20352565 0.09541782 -0.15694304 0.07058308
0.18058568 0.033489063 0.15885366 0.07937105 0.027825817 0.09393648 0.24066892 0.06162168
0.2639517 -0.07720534 0.31068873 0.016268607 0.3141224 0.11610957 0.043412365 0.16261439
0.27500084 0.2724941 0.0031738589 0.301495
00000000: 0b8a 8b3e 7991 773e ac3f bf3e 7496 4c3e
00000010: 6736 bf3e 7394 ad3e da2c 293e f926 033e
00000020: 940c 653e 0c0f fa3d 66d6 8eba db4c aabd
00000030: d454 9c3e 4a3d 43bc 14e1 893e 3142 c8bc
00000040: 6999 79bd 7c90 0ebd 098b 9dbd 4e60 673e
00000050: 6143 943e a86c e1bc 173a 3f3d 2309 76be
00000060: ddc8 5239 0aec 973e 9887 88be f7fd a23d
00000070: 0769 503e 6b6a c33d adb5 20be dd8d 903d
00000080: 74eb 383e d42b 093d 89aa 223e 4a8d a23d
00000090: f8f2 e33c c561 c03d ea71 763e 0467 7c3d
000000a0: ad24 873e d51d 9ebd 9812 9f3e be45 853c
000000b0: a7d4 a03e dbca ed3d 2ad1 313d 6384 263e
000000c0: e9cc 8c3e 5984 8b3e 8400 503b 8d5d 9a3e

weight_ih_l0_reverse f4 [52, 4]
0.08586383 0.039802004 0.24650624 0.013025641 0.63648677 0.3212785 0.14088047 -0.08630785
-0.17408164 0.26524416 0.86551684 -0.69662106 0.033213526 0.11421597 0.3676076 -0.037188023
-0.24062487 0.6046829 0.14332438 0.09908311 0.41671517 -0.20780991 0.63535553 -0.20841767
-0.15533471 -0.1379804 -0.22185592 -0.036717758 -0.094015285 -0.22194572 0.6821225 0.13864148
0.10642114 0.11788208 -0.015632642 0.14127229 -0.39842063 -0.16940528 0.14052647 0.48950586
0.15531787 0.34690523 -0.06672634 0.31352195 0.36290628 0.033855762 0.87213033 -0.046269845
-0.34495026 0.03384488 0.41969767 0.1346955 -0.002160055 0.66624355 -0.040441886 -0.31611753
0.3138743 -0.027193816 0.041023817 0.07851807 -0.32451457 0.28205973 0.38269034 -0.49302223
0.10961144 0.2015485 0.46403828 0.09109561 -0.25799912 -0.01119413 0.6364705 -0.33132
0.4968968 -0.05686993 0.1636565 0.2980968 0.23237278 -0.11956072 0.039789345 0.32579803
-0.4514648 0.194388 0.30192015 -0.15274186 -0.40477043 0.08351533 -0.23000976 -0.28373238
0.3420704 -0.008602158 0.2811697 0.7379928 0.13187695 -0.08538896 -0.10914464 -0.011191971
-0.3686157 -0.06076106 0.5524699 -0.8124111 -0.042821966 0.1965517 0.16644847 0.14174427
0.36713228 -0.36856192 -0.3681566 0.16218056 0.25099546 0.7482524 -0.16305438 -0.5150786
-0.44708776 0.22190626 -0.124218434 0.3200682 -0.027799547 0.3789007 -0.2813043 0.3307895
0.11061611 -0.53426766 -0.0139215235 -0.021362249 0.35231003 -0.2423051 0.33066478 -0.06445337
-0.038643684 0.080556296 -0.19780833 -0.18035522 0.51030624 0.23637353 -0.42121598 0.32769975
-0.30241242 -0.4833538 0.23735298 0.4668131 -0.38640046 -0.49110514 0.16385606 0.07755429
-0.18405107 -0.24699529 0.31071976 -0.58878267 0.5786699 0.24235073 -0.07161051 -0.07068909
-0.07054898 0.3345084 0.16753517 -0.34175682 0.53620344 0.13010809 -0.028134061 -0.20932972
0.5273187 -0.23302582 -0.17681268 0.5526459 0.09845013 0.25031918 0.102709964 0.07699404
-0.36511526 0.5076804 0.19181545 0.0015825239 -0.43485725 0.78866935 -0.12971227 0.057335153
0.052102786 -0.7206574 0.3297762 0.28810856 0.49195814 0.051054675 -0.12798357 0.066923566
-0.1174494 0.13080314 -0.08388731 0.43554252 -0.09524689 0.3762894 -0.0040645255 -0.08229949
-0.29232326 0.33386287 0.3891784 0.22492078 0.104269974 -0.20180368 -0.4024029 0.28448573
0.4039566 -0.21092673 0.586064 -0.63010454 -0.3745535 0.13836445 0.18076508 0.59050447
00000000: 60d9 af3d 6d07 233d 226c 7c3e 8069 553c
00000010: ccf0 223f 9e7e a43e f842 103e 2cc2 b0bd
00000020: 7542 32be 15ce 873e 8392 5d3f c255 32bf
00000030: e80a 083d 10ea e93d 1037 bc3e 7852 18bd
00000040: 5e66 76be 80cc 1a3f a0c3 123e 16ec ca3d
00000050: b15b d53e 1fcc 54be a9a6 223f 716b 55be
00000060: 1010 1fbe bc4a 0dbe 332e 63be 5c65 16bd
00000070: 168b c0bd bd45 63be 959f 2e3f 08f8 0d3e
00000080: 54f3 d93d 296c f13d 0710 80bc afa9 103e
00000090: cafd cbbe 9478 2dbe 2ce6 0f3e 83a0 fa3e
000000a0: a60b 1f3e 909d b13e d2a7 88bd f385 a03e
000000b0: dace b93e 57ac 0a3d ef43 5f3f 7385 3dbd
000000c0: 529d b0be eea0 0a3d 9de2 d63e 9eed 093e
000000d0: b68f 0dbb f08e 2a3f 64a6 25bd 28da a1be
000000e0: 22b4 a03e 91c5 debc 9708 283d 15ce a03d
000000f0: c626 a6be 226a 903e fdef c33e 696d fcbe
00000100: f67b e03d bb62 4e3e 6d96 ed3e 5690 ba3d
00000110: 7618 84be 9667 37bc bbef 223f c6a2 a9be
00000120: 4269 fe3e 72f0 68bd 9295 273e 25a0 983e
00000130: 21f3 6d3e 40dc f4bd 27fa 223d 00cf a63e
00000140: 6526 e7be a60d 473e 4795 9a3e 5d68 1cbe
00000150: 123e cfbe 160a ab3d ae87 6bbe 5f45 91be
00000160: da23 af3e 11f0 0cbc 7af5 8f3e 19ed 3c3f
00000170: c00a 073e 68e0 aebd 3a87 dfbd 875e 37bc
00000180: 32bb bcbe 97e0 78bd ab6e 0d3f 2dfa 4fbf
00000190: 1666 2fbd d944 493e 7871 2a3e 6925 113e
000001a0: c3f8 bb3e 26b4 bcbe 067f bcbe a912 263e
000001b0: 7a82 803e 788d 3f3f baf7 26be 31dc 03bf
000001c0: b0e8 e4be 653b 633e 3c66 febd fbdf a33e
000001d0: e0bb e3bc 46ff c13e 1e07 90be 3e5d a93e
000001e0: b38a e23d c4c5 08bf 1a17 64bc e2ff aebc
000001f0: fb61 b43e d41e 78be e54c a93e 2100 84bd
00000200: d748 1ebd b3fa a43d 448e 4abe 0aaf 38be
00000210: 6ea3 023f e70b 723e 9fa9 d7be 43c8 a73e
00000220: cdd5 9abe 267a f7be a90c 733e 2002 ef3e
00000230: 48d6 c5be 2272 fbbe e2c9 273e c9d4 9e3d
00000240: e277 3cbe 55ec 7cbe a916 9f3e 76ba 16bf
00000250: b623 143f ca2a 783e 88a8 92bd 71c5 90bd
00000260: fc7b 90bd af44 ab3e 578e 2b3e c0fa aebe
00000270: a144 093f 0e3b 053e 6779 e6bc 885a 56be
00000280: 5cfe 063f 529e 6ebe 620e 35be 347a 0d3f
00000290: 39a0 c93d d629 803e 9a59 d23d 0daf 9d3d
000002a0: 63f0 babe 58f7 013f 456b 443e b16c cf3a
000002b0: 9ca5 debe 3ce6 493f 4bd3 04be 44d8 6a3d
000002c0: bb69 553d 017d 38bf 6dd8 a83e f782 933e
000002d0: f0e1 fb3e b51e 513d 200e 03be 390f 893d
000002e0: 5089 f0bd 42f1 053e 1ccd abbd 6eff de3e
000002f0: cd10 c3bd 01a9 c03e b62f 85bb a38c a8bd
00000300: 65ab 95be 13f0 aa3e 6442 c73e a251 663e
00000310: 7f8b d53d a0a5 4ebe c107 cebe 1da8 913e
00000320: 66d3 ce3e 2dfd 57be 4a08 163f 884e 21bf
00000330: 7ac5 bfbe 69af 0d3e 7b1a 393e 4d2b 173f

weight_hh_l0_reverse f4 [52, 13]
-0.26024792 0.011042572 -0.12954359 0.49145654 -0.7272244 0.41532266 -0.34402838 0.58835703
-0.358133 -0.124582306 -0.41699937 0.1453921 0.36717406 -0.86989063 0.18418944 -0.2462997
0.30127728 -0.83148545 0.43175304 -0.53529096 0.07821035 0.02843127 0.14598677 -0.5839356
-0.16818929 0.90811074 -0.5457371 0.13057694 0.19653264 0.07876775 0.015972491 -0.025927946
-0.22286779 0.12599146 -0.03017221 -0.4789879 0.09729331 -0.2507204 0.16706872 -0.3153827
0.55189383 -0.32073224 0.34940526 0.05834262 0.2821485 -0.026482305 -0.14744309 0.2220182
-0.31345746 -0.14478995 -0.25050098 0.464382 -0.065237716 0.00878851 0.047773372 -0.3545568
-0.09618726 0.29141307 0.020561943 0.12551308 0.32873026 -0.009385045 -0.066609494 -0.27169853
0.22144127 -0.14597273 -0.09209568 0.06936084 0.1088193 0.1499755 0.40761453 -0.08055223
0.1846741 0.004060384 -0.09478259 0.18106554 -0.23392624 0.21624643 0.06591165 0.42297983
0.017492842 0.0034669358 -0.56194794 -0.3498627 -0.0021881787 0.088680804 -0.39646232 -0.27158663
0.023261108 0.25854424 0.041720286 -0.26498538 -0.061338935 -0.36547002 0.24184784 -0.5700246
0.7268214 -0.48437595 0.10279981 -0.024901919 0.0152777545 -0.19029163 0.17437036 -0.012813393
-0.18661506 -0.08282937 0.16755475 0.42507902 0.031305067 -0.011469323 -0.15856533 0.34963408
-0.34140465 -0.5373649 -0.53155327 -0.33396226 0.33693078 -0.4128473 -0.14676155 -0.12098724
0.1521155 -0.44238192 -0.28845432 0.05611272 0.010603073 0.17671561 -0.24003446 -0.083614916
-0.33042568 -0.099683166 0.22935961 0.049727567 -0.3667558 0.3400012 0.10751773 0.0027273507
-0.46355915 0.1775591 0.007665125 -0.21727389 -0.23770812 -0.16091259 0.22232023 -0.49469513
0.028218182 -0.5581031 0.4700289 -0.7078015 0.035146605 -0.42583254 0.2831216 -0.1862662
-0.54226077 -0.2675792 0.30793062 0.82020974 -0.095539905 -0.26096812 -0.5677626 0.20631467
-0.46108398 0.163437 -0.18271632 0.115574405 -0.08844648 0.06458697 -0.18829224 -0.30867615
0.33267823 -0.21593638 0.017127158 -0.3349785 -0.008415922 -0.40261492 -0.02504043 0.18391444
0.006639519 -0.39292762 -0.10511049 -0.13598244 -0.13105392 0.28495654 -0.21548611 -0.17343174
-0.10104656 -0.2621761 -0.36416724 -0.1985433 0.18337718 -0.19575018 -0.41261443 -0.2681395
0.25295168 0.10025707 0.41104996 -0.26897472 0.0034707624 -0.212647 0.27073392 -0.05334446
-0.042346567 -0.14657922 -0.28139618 -0.20540261 0.054675125 -0.15728173 0.41174796 0.3922822
-0.80758 0.16538161 -0.5030884 0.41555452 -0.2079196 0.52147824 -0.27558607 0.15661116
-0.35415363 -0.557108 -0.12559192 0.37984002 0.44966874 -0.21997638 -0.08349704 0.10612474
0.024487365 0.03593689 0.07230298 -0.19858555 -0.25053045 0.2203638 0.2547731 -0.009003212
0.07105796 0.01868726 0.13471922 0.32728294 -0.20772785 -0.051334567 0.35582668 -0.046165023
-0.24480152 0.15874371 0.10719418 -0.15017252 -0.015597965 0.26901135 0.16393788 -0.1442285
0.091173485 -0.072052315 0.22466408 -0.077927805 -0.24378689 -0.0021300977 0.19097722 -0.00836105
00000000: 373f 85be e7eb 343c 13a7 04be 31a0 fb3e
00000010: 612b 3abf 2ca5 d43e 7d24 b0be 919e 163f
00000020: 355d b7be 0225 ffbd f180 d5be abe1 143e
00000030: 3dfe bb3e 27b1 5ebf 289c 3c3e fd35 7cbe
00000040: 0441 9a3e 3bdc 54bf bc0e dd3e d408 09bf
00000050: bf2c a03d b2e8 e83c 8e7d 153e ce7c 15bf
00000060: d039 2cbe f279 683f 6db5 0bbf f6b5 053e
00000070: da3f 493e fc50 a13d bed8 823c d866 d4bc
00000080: 7437 64be e803 013e b62b f7bc e73d f5be
00000090: b741 c73d 6d5e 80be 1014 2b3e d779 a1be
000000a0: ea48 0d3f 0437 a4be 3fe5 b23e acf8 6e3d
000000b0: c575 903e 6bf1 d8bc 52fb 16be bd58 633e
000000c0: 7f7d a0be d143 14be aa41 80be 7ac3 ed3e
000000d0: 5a9b 85bd affd 0f3c 03ae 433d 7888 b5be
000000e0: d3fd c4bd 1834 953e 8571 a83c 8086 003e
000000f0: 554f a83e bbc3 19bc 8f6a 88bd 121c 8bbe
00000100: 80c1 623e e079 15be a99c bcbd 0e0d 8e3d
00000110: a7dc de3d 2d93 193e dab2 d03e 91f8 a4bd
00000120: 351b 3d3e f80c 853b 601d c2bd 3f69 393e
00000130: 5c8a 6fbe b46f 5d3e b0fc 863d d090 d83e
00000140: 264d 8f3c 8835 633b d2db 0fbf 3421 b3be
00000150: 8c67 0fbb 489e b53d 1cfd cabe 670d 8bbe
00000160: 148e be3c e95f 843e e4e2 2a3d 2aac 87be
00000170: 893e 7bbd e31e bbbe f6a6 773e 22ed 11bf
00000180: f810 3a3f 2000 f8be b588 d23d 1cff cbbc
00000190: 8c4f 7a3c cfdb 42be 258e 323e 44ef 51bc
000001a0: 0518 3fbe 72a2 a9bd 7993 2b3e f5a3 d93e
000001b0: be39 003d d4e9 3bbc f35e 22be 3d03 b33e
000001c0: 97cc aebe bf90 09bf e013 08bf 1afd aabe
000001d0: 3182 ac3e b960 d3be a948 16be 28c8 f7bd
000001e0: 2ac4 1b3e e27f e2be 49b0 93be 74d6 653d
000001f0: 83b8 2d3c f0f4 343e 98cb 75be 4c3e abbd
00000200: 8e2d a9be b026 ccbd 3fdd 6a3e 22af 4b3d
00000210: 6bc7 bbbe a314 ae3e 4132 dc3d 5abd 323b
00000220: a057 edbe 0dd2 353e bb2b fb3b 0c7d 5ebe
00000230: c269 73be 45c6 24be eaa7 633e ae48 fdbe
00000240: d129 e73c d8df 0ebf a1a7 f03e 7b32 35bf
00000250: e3f5 0f3d b906 dabe 50f5 903e 91bc 3ebe
00000260: 9ad1 0abf 2400 89be 15a9 9d3e 44f9 513f
00000270: 6daa c3bd 9d9d 85be e458 11bf 2744 533e
00000280: 3313 ecbe 075c 273e fd19 3bbe 46b2 ec3d
00000290: 6e23 b5bd 2c46 843d aecf 40be cd0a 9ebe
000002a0: cd54 aa3e 6d1e 5dbe 414e 8c3c 4d82 abbe
000002b0: efe2 09bc 8b23 cebe 9621 cdbc 1154 3c3e
000002c0: 5290 d93b cf2d c9be 2b44 d7bd fb3e 0bbe
000002d0: 0033 06be d3e5 913e 64a8 5cbe 1798 31be
000002e0: 80f1 cebd f23b 86be 2174 babe ef4e 4bbe
000002f0: 3ac7 3b3e bc72 48be 3342 d3be 9549 89be
00000300: e282 813e 9453 cd3d 2475 d23e 0eb7 89be
00000310: bb75 633b 23c0 59be a39d 8a3e b87f 5abd
00000320: 9873 2dbd dd18 16be 2913 90be 1055 52be
00000330: 06f3 5f3d 760e 21be a1d0 d23e 36d9 c83e
00000340: 90bd 4ebf cc59 293e 67ca 00bf 90c3 d43e
00000350: e0e8 54be 997f 053f 9e19 8dbe ad5e 203e
00000360: a053 b5be a19e 0ebf 2b9b 00be 647a c23e
00000370: fb3a e63e 7d41 61be 7f00 abbd ed57 d93d
00000380: ba99 c83c 8f32 133d 9613 943d 035a 4bbe
00000390: 8745 80be 0ca7 613e 9f71 823e 3582 13bc
000003a0: d686 913d 0616 993c d6f3 093e a191 a73e
000003b0: 9cb6 54be 3244 52bd ea2e b63e 8917 3dbd
000003c0: 40ad 7abe b68d 223e 9f88 db3d d3c6 19be
000003d0: 9b8e 7fbc dbbb 893e 55df 273e a3b0 13be
000003e0: 2ab9 ba3d 2a90 93bd 570e 663e 9d98 9fbd
000003f0: 45a3 79be 1c99 0bbb 888f 433e c9fc 08bc

bias_ih_l0_reverse f4 [52]
0.083133414 0.37961048 -0.19744064 0.116558254 -0.081018716 0.3027604 0.06303757 0.44243705
-0.057070088 0.26143986 0.32750317 0.44118297 0.11183442 0.118560575 -0.18475348 0.009690069
0.149121 -0.21058977 0.0013487567 -0.10198609 0.43865302 -0.16310625 0.4302788 0.0662593
-0.15728784 -0.121273816 0.13834772 0.13342898 -0.21622743 0.2608445 -0.27358434 0.12834133
-0.07927438 0.33294928 -0.19948947 0.15233979 -0.20769681 -0.22015539 0.08995794 0.07830484
0.28013137 0.34263235 -0.0009850012 0.27920243 0.32226497 -0.18519743 0.36764908 -0.010735198
0.39471483 0.19575599 0.27100745 -0.017428027
00000000: da41 aa3d 4e5c c23e e12d 4abe 18b6 ee3d
00000010: 24ed a5bd 6903 9b3e d719 813d 1c87 e23e
00000020: 53c2 69bd 72db 853e 7fae a73e bce2 e13e
00000030: 7209 e53d e3cf f23d 0430 3dbe 18c3 1e3c
00000040: 2db3 183e d8a4 57be c4c8 b03a 15de d0bd
00000050: 2197 e03e 5305 27be 814d dc3e f5b2 873d
00000060: 1010 21be 685e f8bd 06ab 0d3e 9ba1 083e
00000070: b96a 5dbe 698d 853e 3f13 8cbe e96b 033e
00000080: 9b5a a2bd 5478 aa3e f846 4cbe f6fe 1b3e
00000090: 79ae 54be 6a70 61be de3b b83d 4a5e a03d
000000a0: 616d 8f3e 826d af3e 281b 81ba 9ff3 8e3e
000000b0: eaff a43e 65a4 3dbe 803c bc3e afe2 2fbc
000000c0: 1018 ca3e 4274 483e 7dc1 8a3e 39c5 8ebc

bias_hh_l0_reverse f4 [52]
0.2830376 0.15162307 -0.17885874 0.12990637 0.3620542 -0.18450864 0.18746357 0.6137002
0.32287782 -0.025115656 0.25705978 0.48685908 -0.014658902 -0.15107654 0.0042843386 0.075837515
0.44262764 0.15055859 0.06889766 0.23292679 0.19297837 -0.18158825 0.1716619 0.1620069
-0.104703106 -0.030323172 -0.20095792 0.034379438 -0.19632147 0.028628739 -0.24687044 0.13131817
-0.29245248 0.12985113 -0.26670083 -0.16762927 -0.31659973 0.21953285 0.08425501 -0.025249038
0.22752282 0.30441684 0.04957171 0.29368642 0.32743812 -0.015514422 0.13819918 0.33772317
0.12821528 -0.014460209 0.37543526 0.09102983
00000000: 4eea 903e 1443 1b3e bf26 37be 2d06 053e
00000010: 2b5f b93e d5ef 3cbe 73f6 3f3e 751b 1d3f
00000020: 3e50 a53e 59bf cdbc 579d 833e 9845 f93e
00000030: e42b 70bc cfb3 1abe a363 8c3b b350 9b3d
00000040: 17a0 e23e 082c 1a3e 371a 8d3d 5c84 6e3e
00000050: 1f9c 453e 45f2 39be 23c8 2f3e 23e5 253e
00000060: 956e d6bd 4d68 f8bc eac7 4dbe 74d1 0c3d
00000070: 7f08 49be d186 ea3c 9bcb 7cbe 4578 063e
00000080: 55bc 95be b2f7 043e 038d 88be 02a7 2bbe
00000090: 5c19 a2be 38cd 603e e48d ac3d 12d7 cebc
000000a0: befb 683e 86dc 9b3e b50b 4b3d 115e 963e
000000b0: f8a5 a73e 3430 7ebc 1684 0d3e 0dea ac3e
000000c0: de4a 033e 83ea 6cbc 0d39 c03e d96d ba3d

weight f4 [16, 260]
-0.048302263 0.09542224 -0.008667436 0.11387266 -0.07089987 0.013592635 0.051601145 0.0074253553
0.037735097 -0.00053828413 0.17858301 0.10206776 0.028746571 -0.2154974 0.12464291 -0.20327447
-0.020797405 -0.058973297 -0.06801661 -0.10526652 0.063058116 -0.076193556 -0.07973384 0.03668363
0.0406267 0.09478592 -0.04427887 0.028083812 -0.0068667233 0.058577027 0.13034904 0.14491266
-0.07369432 -0.050072204 -0.021803645 0.002102805 -0.08599009 0.014003524 0.023334527 -0.19902667
0.03194259 -0.13354164 0.0306129 0.15968303 0.07730625 0.041438513 0.12758322 -0.069203034
-0.068344705 -0.0901156 0.21030568 0.011206694 -0.07044443 0.041624755 -0.077649534 0.054306492
-0.09053062 0.0497871 -0.03485405 -0.021632362 -0.065157555 0.13060173 0.03206576 0.06497045
-0.08891641 -0.011510518 -0.15107977 -0.14504363 0.13748656 -0.13667454 0.1329773 0.013369609
-0.017806452 -0.0681485 -0.3015052 -0.00043292128 0.016338024 -0.0022872493 0.035282657 -0.14237656
0.11539735 -0.20078018 0.0876576 -0.024080435 -0.055538733 0.00493018 0.0025940002 0.13581388
0.031695914 0.22725305 0.090058014 -0.031182984 0.024654254 0.0155473 0.108932465 -0.051671255
-0.01325507 -0.11565723 0.038492873 0.031319767 0.008773992 -0.14537877 0.08856919 0.09539033
0.054338746 0.028346548 -0.015556572 -0.08286642 -0.09199001 0.08213645 -0.0009275057 0.11519861
0.06904703 -0.106647864 0.09234805 -0.09211413 0.1377194 -0.003987106 -0.11204601 -0.024285052
-0.010817633 -0.08966906 -0.026327616 -0.04959293 0.14626034 0.12469535 -0.056144603 -0.040253203
0.23194794 -0.06335385 0.08494165 0.0011756513 -0.12450662 -0.2525269 -0.0074780355 -0.047318447
-0.025203567 -0.12557013 -0.06059295 0.07977035 0.016840843 -0.055029668 -0.0538126 -0.11377199
-0.032503482 0.18851449 0.11260572 -0.19605595 -0.076557316 0.060195237 -0.053905368 -0.13792269
0.093628086 -0.093757495 -0.04979672 0.039648227 -0.16598111 -0.07212293 0.1651563 0.26665193
0.11585277 -0.015897498 -0.049974464 -0.12691829 -0.12277998 0.13153757 0.18987939 0.055582337
0.10920067 0.0012545796 -0.12631324 -0.09083596 0.09070236 -0.13153967 0.06843218 -0.089431494
-0.09819859 -0.07257522 0.038667608 -0.0496615 0.13214658 0.0009909499 0.023407256 -0.0951566
0.082123704 -0.05673803 0.025408832 0.033250388 -0.032280296 -0.09756223 0.08424562 -0.19512977
0.091385454 -0.10231126 0.13601443 0.20726947 0.053112455 -0.008472532 0.018511297 0.020344792
0.1346872 -0.13786352 0.078005075 -0.07622367 -0.002789567 -0.14640479 0.07049008 -0.1218749
-0.042976145 -0.12771985 -0.16145656 0.018975323 0.045536857 -0.025934532 -0.08287182 -0.07455048
0.08376727 -0.06330319 -0.01981651 0.115209274 0.07891205 -0.06154082 -0.15259178 0.16965541
0.04731319 0.12179458 0.08715501 0.016321084 0.08768188 0.051355958 -0.0415895 0.013646343
-0.18469508 0.0844995 0.08433787 0.012709195 0.054163754 0.140136 -0.10360896 0.15156762
-0.09428112 -0.018409792 0.1472071 -0.060226355 0.03722638 0.093664154 -0.0046175267 0.0066715726
-0.051330954 0.044920135 0.26782125 0.0138014415 -0.08205463 -0.049216233 0.23111732 -0.04029325
00000000: 98d8 45bd bc6c c33d dd01 0ebc 1236 e93d
00000010: f333 91bd a5b3 5e3c b95b 533d 6550 f33b
00000020: 1e90 1a3d a31b 0dba 77de 363e e708 d13d
00000030: ee7d eb3c 5aab 5cbe c844 ff3d 2f27 50be
00000040: 525f aabc fc8d 71bd 4b4c 8bbd f995 d7bd
00000050: 9d24 813d 5e0b 9cbd 7f4b a3bd 9341 163d
00000060: 2f68 263d 1f1f c23d c35d 35bd 0610 e63c
00000070: 4002 e1bb 77ee 6f3d 387a 053e fc63 143e
00000080: 0ced 96bd 8318 4dbd 8f9d b2bc 37cf 093b
00000090: 931b b0bd 096f 653c 0d28 bf3c a6cd 4bbe
000000a0: 3cd6 023d 24bf 08be e8c7 fa3c f383 233e
000000b0: bd52 9e3d 6ebb 293d 2da5 023e 52ba 8dbd
000000c0: 4ff8 8bbd 878e b8bd 5f5a 573e 489c 373c
000000d0: 2b45 90bd b87e 2a3d b806 9fbd 7c70 5e3d
000000e0: 1e68 b9bd 8fed 4b3d 1fc3 0ebd 5a36 b1bc
000000f0: 5371 85bd 76bc 053e 6357 033d 3a0f 853d
00000100: cf19 b6bd 9d96 3cbc a8b4 1abe 5186 14be
00000110: 47c9 0c3e 69f4 0bbe 342b 083e 340c 5b3c
00000120: d6de 91bc 7191 8bbd e45e 9abe b6f9 e2b9
00000130: 52d7 853c ade5 15bb 8c84 103d 29cb 11be
00000140: 7255 ec3d 5299 4dbe d485 b33d 5544 c5bc
00000150: 957c 63bd 598d a13b 1a00 2a3b cb12 0b3e
00000160: 93d3 013d 06b5 683e 5670 b83d 7573 ffbc
00000170: b8f7 c93c 1aba 7e3c fc17 df3d 3da5 53bd
00000180: cb2b 59bc b3dd ecbd b4aa 1d3d 2849 003d
00000190: cac0 0f3c 2cde 14be c363 b53d 015c c33d
000001a0: 4e92 5e3d 0537 e83c fee0 7ebc dfb5 a9bd
000001b0: 4265 bcbd 2837 a83d db23 73ba 40ed eb3d
000001c0: 8768 8d3d 326a dabd f920 bd3d 55a6 bcbd
000001d0: 5006 0d3e 45a6 82bb 6178 e5bd 72f1 c6bc
000001e0: 713c 31bc 6aa4 b7bd 03ad d7bc f521 4bbd
000001f0: 45c5 153e 4760 ff3d e2f7 65bd 8be0 24bd
00000200: c383 6d3e aabf 81bd e3f5 ad3d 5018 9a3a
00000210: 54fd febd 354b 81be 4f0a f5bb fdd0 41bd
00000220: b677 cebc 7595 00be 5030 78bd a35e a33d
00000230: cff5 893c ca66 61bd 9a6a 5cbd 4a01 e9bd
00000240: 5f22 05bd f109 413e d49d e63d e4c2 48be
00000250: 15ca 9cbd 488f 763d e0cb 5cbd 9b3b 0dbe
00000260: 15c0 bf3d ee03 c0bd a5f7 4bbd 2e66 223d
00000270: f4f6 29be 30b5 93bd bc1e 293e 9a86 883e
00000280: 3844 ed3d 783b 82bc 06b2 4cbd def6 01be
00000290: 1274 fbbd c9b1 063e be6f 423e 4eaa 633d
000002a0: 9aa4 df3d b570 a43a 4258 01be 3408 babd
000002b0: 29c2 b93d 56b2 06be 2c26 8c3d dc27 b7bd
000002c0: 581c c9bd 51a2 94bd ed61 1e3d db69 4bbd
000002d0: 6f51 073e c3e2 813a 93c0 bf3c 77e1 c2bd
000002e0: 7930 a83d 2366 68bd 2f26 d03c 8f31 083d
000002f0: 5838 04bd b5ce c7bd f888 ac3d 19d0 47be
00000300: 4c28 bb3d 9188 d1bd 5e47 0b3e 733e 543e
00000310: 728c 593d 60d0 0abc 01a5 973c 1faa a63c
00000320: 71eb 093e 182c 0dbe 20c1 9f3d 281b 9cbd
00000330: 2bd1 36bb 23eb 15be 1a5d 903d 8c99 f9bd
00000340: c107 30bd fec8 02be de54 25be 2372 9b3c
00000350: db84 3a3d a874 d4bc b3b8 a9bd ecad 98bd
00000360: 2d8e ab3d 1aa5 81bd 3c56 a2bc d7f2 eb3d
00000370: a49c a13d 3a12 7cbd 0541 1cbe 26ba 2d3e
00000380: 7acb 413d 706f f93d 537e b23d cbb3 853c
00000390: 8f92 b33d a05a 523d c059 2abd e994 5f3c
000003a0: b520 3dbe 130e ad3d 55b9 ac3d 3a3a 503c
000003b0: d0da 5d3d d07f 0f3e ef30 d4bd 8b34 1b3e
000003c0: 7616 c1bd 22d0 96bc 75bd 163e e9af 76bd
000003d0: b07a 183d fed2 bf3d 9f4e 97bb 359d da3b
000003e0: 6840 52bd 2dfe 373d de1f 893e 711f 623c
000003f0: 420c a8bd f696 49bd 05aa 6c3e 890a 25bd

bias f4 [16]
0.06421822 -0.026398934 0.04072099 -0.0030807764 0.076850265 0.072834104 -0.00252653 -0.03940501
0.0044006244 0.0025892684 0.06744446 0.04669476 0.013350462 -0.0017330999 0.0065966295 0.06694199
00000000: d884 833d 9442 d8bc 0ecb 263d dae6 49bb
00000010: ac63 9d3d 0c2a 953d 2494 25bb 2667 21bd
00000020: 1d33 903b b7b0 293b 5220 8a3d 0143 3f3d
00000030: e5bb 5a3c 2f29 e3ba 8a28 d83b e218 893d

weight f4 [19, 16]
0.513638 -0.23016384 0.3887488 -0.11730931 -0.45526874 -0.15845396 0.027209932 0.41734934
0.19484025 -0.09774262 0.19556573 -0.14546932 0.25365505 -0.0038180442 0.49303585 0.26623556
0.03768523 -0.13691105 0.25121948 -0.07795717 -0.38704023 0.23416513 0.24460055 0.27018374
-0.37204823 0.48814473 0.23682374 0.024314852 -0.1306015 0.12877867 0.0101205 -0.33386543
-0.018878661 -0.019344969 0.37944424 -0.3069994 -0.15493247 0.09132335 0.5847898 0.080632776
-0.052224908 0.23912863 -0.054845717 0.2219844 0.07729408 0.019827649 -0.2594364 -0.0957655
-0.15837957 0.17660728 0.20174928 -0.26190013 -0.32551584 0.3436231 0.8742305 -0.27534607
-0.26997846 0.70272225 0.21290119 0.19632314 -0.2829427 0.6171278 -0.09531143 -0.62522846
0.10596057 -0.050936047 -0.13957381 0.071938455 0.016231181 -0.023412941 0.5804213 0.2533056
0.24981327 0.6015295 -0.0319809 0.02712211 0.13386768 -0.023335319 -0.38322213 -0.26386335
0.07781009 0.13614124 -0.09153681 -0.15678051 -0.042140346 0.08203779 0.49939337 0.42324236
-0.0041977647 0.25416362 0.10315248 -0.07548845 0.06223809 -0.121592164 0.0126955155 -0.10980931
-0.07094268 -0.13176924 0.025854422 0.26530594 -0.10873302 0.123851575 -0.13013542 0.057650916
0.10456018 -0.5924324 -0.59080577 0.23330839 0.24858096 -0.24414149 -0.11215742 0.35236388
0.2608255 0.16324425 0.39733818 -0.22523898 -0.09405841 0.0540311 0.2327043 0.19086929
0.22901212 -0.045092016 -0.11674973 -0.06641862 -0.0728054 -0.0021742696 0.050552957 -0.060869917
0.034121 0.22613226 0.1094395 -0.31155652 0.13138537 0.047413107 0.3549394 -0.08988029
-0.0046113688 -0.1383441 0.08230695 -0.14179604 -0.244376 0.009129908 0.24642466 0.25664842
-0.04957154 0.22329766 0.3112791 -0.22029857 0.3383167 -0.044325072 -0.2029538 0.18706222
0.14424452 -0.3315055 -0.4171503 0.31061336 -0.32317778 0.070635825 -0.10888656 0.22599836
-0.10144044 0.39310935 0.092633724 -0.06956413 0.003299452 -0.06570833 0.09437286 -0.105526194
-0.07484245 -0.28044418 0.060060672 0.011739545 0.10187607 -0.063871935 -0.012254739 0.20604162
-0.071099795 0.07186204 0.03764218 -0.19556613 0.027650358 0.26088655 -0.24963498 0.116612464
-0.1442678 0.042256884 0.14766692 -0.25596473 -0.42387712 -0.051016334 0.33370712 -0.004728476
0.01284775 -0.18007253 0.05171774 0.24320823 -0.31788376 0.14577352 0.45846343 0.29905924
0.054984935 0.83310044 0.15997389 0.1710044 -0.28096277 -0.0928562 -0.056817655 -0.7330365
0.05595145 -0.4543645 -0.10210146 0.6468268 -0.11147887 0.034077268 0.24701838 -0.056472592
0.22246347 0.13124695 0.16905837 -0.552282 6.48369e-05 0.08583913 -0.13717566 -0.13577469
0.36034644 -0.23468655 -0.01750035 -0.19892015 -0.0787812 -0.039356615 0.5204067 -0.10206738
-0.2995762 0.6139536 -0.06916094 0.15849708 0.19852886 -0.12529324 -0.06103758 -0.49134523
0.19014364 -0.38433203 0.021236148 0.022232855 -0.25105378 0.028415244 -0.26748487 -0.26735854
-0.13283055 0.025138177 0.071724296 0.08218375 -0.10426842 0.17432535 -0.3675815 0.06530593
00000000: c87d 033f 12b0 6bbe 150a c73e dd3f f0bd
00000010: fc18 e9be c141 22be 5de7 de3c d0ae d53e
00000020: 3484 473e 482d c8bd 6242 483e e9f5 14be
00000030: 13df 813e 2738 7abb 326f fc3e 0750 883e
00000040: d45b 1a3d 6932 0cbe d79f 803e 02a8 9fbd
00000050: 232a c6be fcc8 6f3e 9178 7a3e 8655 8a3e
00000060: 1b7d bebe 1bee f93e ec81 723e f12f c73c
00000070: 66bc 05be 8ede 033e 74d0 253c 69f0 aabe
00000080: 6ca7 9abc 5779 9ebc 8446 c23e 062f 9dbe
00000090: 9ea6 1ebe bd07 bb3d c9b4 153f cc22 a53d
000000a0: c9e9 55bd 23de 743e e7a5 60bd e14f 633e
000000b0: 5c4c 9e3d 986d a23c d9d4 84be b420 c4bd
000000c0: 412e 22be 8ad8 343e 5d97 4e3e c617 86be
000000d0: 03aa a6be 5eef af3e 92cd 5f3f 29fa 8cbe
000000e0: 9e3a 8abe 9be5 333f c502 5a3e ef08 493e
000000f0: dedd 90be 16fc 1d3f a432 c3bd f90e 20bf
00000100: db01 d93d 51a2 50bd 70ec 0ebe 7854 933d
00000110: 41f7 843c 7fcc bfbc 7e96 143f 46b1 813e
00000120: 0dcf 7f3e d6fd 193f 67fe 02bd 302f de3c
00000130: 9c14 093e b629 bfbc b135 c4be 1919 87be
00000140: e55a 9f3d 9c68 0b3e a777 bbbd 128b 20be
00000150: 5b9b 2cbd 6e03 a83d 7db0 ff3e 39b3 d83e
00000160: 678d 89bb bc21 823e 9c41 d33d b099 9abd
00000170: 5eed 7e3d 5005 f9bd da00 503c b4e3 e0bd
00000180: 654a 91bd 84ee 06be a7cc d33c 2ed6 873e
00000190: 6baf debd e5a5 fd3d 3842 05be 5e23 6c3d
000001a0: a623 d63d a6a9 17bf 0c3f 17bf 65e8 6e3e
000001b0: 028c 7e3e 3a00 7abe cab2 e5bd 0a69 b43e
000001c0: ec8a 853e 8029 273e e96f cb3e 0ca5 66be
000001d0: b2a1 c0bd b74f 5d3d 094a 6e3e 3d73 433e
000001e0: 2782 6a3e 68b2 38bd 7c1a efbd 7c06 88bd
000001f0: ff1a 95bd 317e 0ebb 9e10 4f3d bc52 79bd
00000200: 76c2 0b3d 378f 673e d121 e03d 5684 9fbe
00000210: e389 063e 3f34 423d 9eba b53e 2813 b8bd
00000220: f71a 97bb 13aa 0dbe 8c90 a83d fb32 11be
00000230: b43d 7abe 9c95 153c bf56 7c3e 6c67 833e
00000240: 870b 4bbd 24a8 643e f95f 9f3e f395 61be
00000250: d937 ad3e 358e 35bd 1fd3 4fbe 3d8d 3f3e
00000260: d6b4 133e 17bb a9be b994 d5be b708 9f3e
00000270: 8f77 a5be 84a9 903d ebff debd 1d6c 673e
00000280: 01c0 cfbd a145 c93e c0b6 bd3d a377 8ebd
00000290: 9e3b 583b 1792 86bd 8f46 c13d 1e1e d8bd
000002a0: 0047 99bd 6196 8fbe 2e02 763d 3857 403c
000002b0: 67a4 d03d 4acf 82bd 1ac8 48bc 93fc 523e
000002c0: c59c 91bd 682c 933d b02e 1a3d 7d42 48be
000002d0: 0183 e23c ec92 853e 50a0 7fbe 84d2 ee3d
000002e0: f0ba 13be 8e15 2d3d ff35 173e cf0d 83be
000002f0: 6c06 d9be 81f6 50bd a9db aa3e 55f1 9abb
00000300: 5f7f 523c ef64 38be fbd5 533d 940b 793e
00000310: a9c1 a2be a745 153e b8bb ea3e 4b1e 993e
00000320: e237 613d 1246 553f 32d0 233e c71b 2f3e
00000330: 5ada 8fbe 642b bebd a1b9 68bd 48a8 3bbf
00000340: 592d 653d 77a2 e8be 921a d1bd 7196 253f
00000350: 094f e4bd 9b94 0b3d 63f2 7c3e ce4f 67bd
00000360: 77cd 633e 9a65 063e a31d 2d3e 5a62 0dbf
00000370: 0cf9 8738 6dcc af3d c777 0cbe 8508 0bbe
00000380: 547f b83e ac51 70be e55c 8fbc b9b1 4bbe
00000390: 0a58 a1bd 6734 21bd 6039 053f b408 d1bd
000003a0: 0d62 99be 102c 1d3f 40a4 8dbd 0f4d 223e
000003b0: 264b 4b3e df4c 00be 8b02 7abd 9a91 fbbe
000003c0: 04b5 423e 2bc7 c4be 6ef7 ad3c ad21 b63c
000003d0: 1f8a 80be 16c7 e83c c7f3 88be 38e3 88be
000003e0: bb04 08be 94ee cd3c 30e4 923d f44f a83d
000003f0: ae8a d5bd 5882 323e a433 bcbe 1ebf 853d

bias f4 [19]
0.022038518 -0.16724712 -0.077035956 0.06615729 0.01475089 -0.051005688 0.27949348 0.039537083
-0.17824668 -0.09620915 -0.0043931743 0.0025466245 0.010232171 0.20388383 -0.12753125 0.07491493
0.10850532 -0.13314976 0.0064641414
00000000: 1f8a b43c d442 2bbe 07c5 9dbd 797d 873d
00000010: b8ad 713c 57eb 50bd c519 8f3e a3f1 213d
00000020: 4c86 36be 4e09 c5bd 9ef4 8fbb 45e5 263b
00000030: d6a4 273c ecc6 503e 8d97 02be 006d 993d
00000040: 0a38 de3d 6958 08be 26d1 d33b

weight f4 [19, 16]
-0.32363033 -0.23417027 0.33349112 -0.14170772 -0.15483816 -0.38093224 -0.15948491 0.077032045
0.41528156 0.028551104 -0.11819572 0.23946801 -0.19863518 -0.13543122 0.17351787 0.124997966
-0.2626995 -0.014249122 -0.06774067 -0.002527355 -0.16041204 -0.062026344 0.21420065 0.037171688
0.4290773 -0.20969811 0.0753335 -0.12139043 -0.111898385 0.09281976 0.111060426 -0.13990077
-0.44336542 -0.7433301 -0.29387587 -0.36948285 -0.10633674 0.15624848 -0.13586305 -0.05475776
0.12938857 -0.023848534 0.104770556 -0.10173337 -0.048428807 -0.42810374 0.18845753 -0.010212252
0.085994914 -0.26564577 0.40370542 -0.44661388 -0.028534885 -0.26230988 -0.03820695 -0.016181655
-0.0003352034 0.17830545 -0.19311258 0.22401372 -0.31386775 -0.15053776 0.25102386 0.08593893
-0.54702884 -0.017187674 -0.18882142 0.06707301 0.15529537 -0.17377292 0.0042959754 0.16729997
-0.31420138 0.026843416 0.0046669017 -0.2241726 0.06085119 -0.14818414 0.070684716 0.061799932
-0.21257131 -0.29525325 0.10272707 -0.009473402 -0.16907097 -0.094839744 0.27034932 -0.11365512
-0.18134527 -0.3021115 0.036255784 -0.08697976 -0.07212329 -0.26884276 0.0977598 -0.17708887
0.07158216 -0.3169553 0.020436615 0.103274 -0.057888743 -0.3303464 -0.35549495 -0.06384319
0.05839837 -0.023740478 -0.34190217 -0.18203682 0.013555028 -0.26836815 0.26020783 0.10843797
-0.30432135 -0.09994116 0.1219847 0.2509164 -0.21929201 -0.30587974 0.004253806 -0.0049878065
-0.007826415 -0.14956127 -0.25587994 0.3548924 -0.01708826 0.24729589 0.036922414 -0.22994865
-0.47392374 0.16564806 -0.010399711 -0.258623 0.028326051 -0.1888131 0.08074552 0.07449636
0.112552494 0.0071574305 -0.06718462 0.10814137 -0.01289622 0.22871345 0.25535068 0.043383658
-0.48034698 0.3871182 0.040906183 -0.19879815 -0.5588168 0.03257787 -0.15619902 0.2840773
0.07041325 -0.042261556 0.093227096 0.2868298 -0.03416252 0.18943411 0.12406669 0.06931059
-0.32617417 0.14712784 -0.20738813 -0.01009439 -0.16336268 0.14353621 0.7246982 -0.1877816
-0.086847916 -0.1963018 -0.060595244 0.0067753987 -0.25444677 -0.18591908 -0.095072225 0.056434967
-0.07333981 0.04255431 0.093751594 -0.15794654 -0.33133867 0.002073493 -0.30050358 0.2713068
0.19288574 0.074861795 0.22629283 -0.33932972 -0.25670916 0.14634916 0.050625805 0.009216332
-0.30641556 0.40088987 -0.11080075 -0.14950715 0.06505013 -0.07977791 -0.011057406 0.10100254
-0.108742565 -0.12738304 0.09142604 -0.23866715 -0.11083038 0.09025347 0.116061315 0.019180646
-0.59505826 -0.38556865 0.08597971 0.042604573 0.03677503 -0.13235179 -0.30205524 -0.28891233
-0.34130302 0.40362877 -0.028380528 -0.015192688 -0.18329737 0.5266091 -0.08756515 -0.061657883
-0.22991623 0.22780633 -0.019392375 0.42281887 -0.27943307 -0.036309358 0.28177452 0.13832942
0.12765223 -0.23838283 -0.36081094 0.12582664 -0.17204726 -0.23491666 -0.1323138 -0.14702788
-0.17207475 -0.14501444 -0.0014436622 -0.054198362 -0.58392984 -0.017664982 -0.534917 -0.03749745
0.24287322 0.23049514 -0.07441324 0.13728625 0.1433001 0.53746265 0.075602494 -0.16115327
00000000: e0b2 a5be 55ca 6fbe 59bf aa3e d41b 11be
00000010: e58d 1ebe 8d09 c3be 0350 23be fac2 9d3d
00000020: c99f d43e 01e4 e93c 9910 f2bd 1a37 753e
00000030: 0567 4bbe 7bae 0abe abae 313e effe ff3d
00000040: 8d80 86be 2675 69bc 9fbb 8abd fba1 25bb
00000050: 0e43 24be 560f 7ebd 6a57 5b3e 5741 183d
00000060: 05b0 db3e 1abb 56be 7348 9a3d 8c9b f8bd
00000070: fb2a e5bd 4918 be3d a673 e33d 2642 0fbe
00000080: cb00 e3be e24a 3ebf e676 96be db2c bdbe
00000090: 14c7 d9bd 9aff 1f3e af1f 0bbe ac49 60bd
000000a0: 707e 043e 005e c3bc f291 d63d 9659 d0bd
000000b0: 495d 46bd 6a30 dbbe 03fb 403e 4a51 27bc
000000c0: 1a1e b03d b902 88be 7ab2 ce3e 93aa e4be
000000d0: fec1 e9bc 7b4d 86be e47e 1cbd 648f 84bc
000000e0: 3dbe afb9 b495 363e 4ebf 45be da63 653e
000000f0: 46b3 a0be 9226 1abe 3386 803e c000 b03d
00000100: 150a 0cbf 2acd 8cbc 675a 41be 935d 893d
00000110: c005 1f3e 87f1 31be 41c5 8c3b af50 2b3e
00000120: 01df a0be b9e6 db3c cfec 983b 818d 65be
00000130: 193f 793d 95bd 17be 26c3 903d ed21 7d3d
00000140: 4bac 59be 6f2b 97be 9262 d23d 5436 1bbc
00000150: f120 2dbe 573b c2bd 3a6b 8a3e 04c4 e8bd
00000160: 93b2 39be 5cae 9abe f280 143d 7222 b2bd
00000170: 60b5 93bd c2a5 89be 4a36 c83d c956 35be
00000180: ab99 923d f747 a2be b06a a73c 5281 d33d
00000190: bf1c 6dbd 2a23 a9be 6f03 b6be 38c0 82bd
000001a0: 2133 6f3d 647b c2bc cd0d afbe dc67 3abe
000001b0: e815 5e3c 8d67 89be f639 853e ba14 de3d
000001c0: 02d0 9bbe f3ad ccbd 1dd3 f93d 1d78 803e
000001d0: 168e 60be 459c 9cbe 8363 8b3b c170 a3bb
000001e0: 5d3a 00bc 9726 19be b202 83be 75b4 b53e
000001f0: aefc 8bbc 223b 7d3e f53b 173d a977 6bbe
00000200: 22a6 f2be a59f 293e 8d63 2abc 3c6a 84be
00000210: 090c e83c 3958 41be e85d a53d 8c91 983d
00000220: ec81 e63d e188 ea3b 1798 89bd 3979 dd3d
00000230: ab4a 53bc dc33 6a3e 53bd 823e 10b3 313d
00000240: 0af0 f5be 5b34 c63e 3e8d 273d be91 4bbe
00000250: 9e0e 0fbf 5f70 053d a3f2 1fbe 9472 913e
00000260: d234 903d 741a 2dbd d9ed be3d 5bdb 923e
00000270: 00ee 0bbd 04fb 413e ad16 fe3d b6f2 8d3d
00000280: 4d00 a7be aea8 163e 8e5d 54be f162 25bc
00000290: 8c48 27be 28fb 123e d285 393f d249 40be
000002a0: 52dd b1bd 5703 49be b832 78bd 2a04 de3b
000002b0: d946 82be 9261 3ebe 3ab5 c2bd 5a28 673d
000002c0: 2f33 96bd 6e4d 2e3d d600 c03d bdbc 21be
000002d0: 39a5 a9be 71e3 073b 9bdb 99be bae8 8a3e
000002e0: d783 453e 2451 993d 4fb9 673e a0bc adbe
000002f0: 626f 83be 8edc 153e 015d 4f3d 1900 173c
00000300: 80e2 9cbe 7041 cd3e 81eb e2bd 6718 19be
00000310: 0139 853d 9a62 a3bd 1f2a 35bc 6bda ce3d
00000320: 6cb4 debd b370 02be 933d bb3d 2965 74be
00000330: 0afb e2bd d0d6 b83d 8eb1 ed3d bb20 9d3c
00000340: bd55 18bf 4169 c5be 2116 b03d 2282 2e3d
00000350: 6aa1 163d 3a87 07be fca6 9abe 51ec 93be
00000360: 45bf aebe 6ea8 ce3e 487e e8bc c1ea 78bc
00000370: 4eb2 3bbe dbcf 063f 5b55 b3bd fa8c 7cbd
00000380: 296f 6bbe 1046 693e c2dc 9ebc b77b d83e
00000390: da11 8fbe 1fb9 14bd c044 903e 3aa6 0d3e
000003a0: 44b7 023e a11a 74be 36bc b8be b3d8 003e
000003b0: 282d 30be fe8d 70be 457d 07be 7a8e 16be
000003c0: 5d34 30be aa7e 14be 4439 bdba 1aff 5dbd
000003d0: 6d7c 15bf 27b6 90bc 52f0 08bf ed96 19bd
000003e0: c2b3 783e eb06 6c3e f865 98bd c494 0c3e
000003f0: 43bd 123e 2797 093f 7bd5 9a3d 5d05 25be

bias f4 [19]
-0.073094316 0.19815344 -0.05514831 -0.14720178 -0.0029100538 0.14473282 -0.4161017 -0.005973055
-0.08214127 -0.28569034 -0.06799395 -0.03262354 -0.08296434 -0.43321297 0.05006919 -0.21666984
-0.33273414 -0.2912415 -0.29178593
00000000: 79b2 95bd bce8 4a3e 32e3 61bd 10bc 16be
00000010: 9ab6 3ebb d734 143e 480b d5be 9eb9 c3bb
00000020: af39 a8bd 0146 92be 6940 8bbd 43a0 05bd
00000030: 35e9 a9bd 17ce ddbe 5a15 4d3d b3de 5dbe
00000040: 215c aabe 9b1d 95be f764 95be
