models/a19lds19b0.007g1d1h13.pt (torch, 126559 bytes, 26 tensors)

weight_ih_l0 f4 [52, 4]
0	0xbe4436a8	-0.19161475
1	0xbd0a0f8a	-0.033706225
2	0x3dcac071	0.098999865
3	0xbec2112c	-0.37903726
4	0xbecf8166	-0.4052841
5	0x3f10b79a	0.56530154
6	0x3d3e7559	0.04649863
7	0xbecbc900	-0.39801788
8	0xbeb3afb5	-0.3509499
9	0x3e0d2aad	0.13785811
10	0x3cdb9710	0.02680543
11	0xbe032ac0	-0.12809277
12	0x3d9fd0b9	0.078034826
13	0x3bcf8a13	0.0063335984
14	0xbd5a9e1f	-0.053373452
15	0x3d976eeb	0.07394203
16	0x3e33d935	0.17563327
17	0x3dbb6354	0.09149805
18	0x3ecee6ab	0.4041036
19	0x3f5c3cf6	0.8603052
20	0xbe9cae5f	-0.30601785
21	0x3e18bd89	0.14916052
22	0xbe43a7d7	-0.19106995
23	0x3d90fbe8	0.07079297
24	0xbe389970	-0.18027282
25	0x3e76b875	0.24093802
26	0x3e15e9cf	0.14639972
27	0x3e96c028	0.2944348
28	0x3ea7614b	0.32691416
29	0x3f207527	0.6267876
30	0x3df649de	0.12025808
31	0xbe1dab57	-0.15397392
32	0x3de8f766	0.113753125
33	0xbef01691	-0.46892217
34	0xbcbbaf20	-0.022910655
35	0x3e9efa28	0.3105023
36	0x3e85be6d	0.26121846
37	0x3f34753f	0.70491403
38	0x3b8e0f6d	0.004335335
39	0x3ece22d2	0.4026094
40	0x3e5309cd	0.20609207
41	0x3e87c19b	0.26514897
42	0x3e1a5f3c	0.15075392
43	0x3e588c71	0.21147324
44	0xbdca4ebc	-0.09878299
45	0x3de6e8ef	0.11274897
46	0x3e8e0e06	0.27745074
47	0x3d95593a	0.07292409
48	0x3da6f0f9	0.08151431
49	0x3db835f6	0.08994667
50	0xbd46241d	-0.048374284
51	0x3f091a56	0.5355581
52	0x3d86bee4	0.06579378
53	0x3ebeecb6	0.3728997
54	0x3effcd4d	0.4996132
55	0x3da83bb6	0.08214514
56	0xbe81b478	-0.25333
57	0x3f355b12	0.7084209
58	0x3e90ff98	0.28320003
59	0x3e848d36	0.25888985
60	0x3d0e8f98	0.03480491
61	0xbe0df910	-0.13864541
62	0x3dba94be	0.091104016
63	0xbcff2af2	-0.031148408
64	0xbe8bc650	-0.27299738
65	0x3dd11c1f	0.10210442
66	0xbe704c07	-0.23466502
67	0x3e3ab728	0.18233931
68	0xbf671eab	-0.9028117
69	0x3e233523	0.15938239
70	0x3eb71491	0.35757878
71	0xbdbd81e1	-0.09253288
72	0x3ea9a5bc	0.33134258
73	0xbe04ec05	-0.1298066
74	0x3ca9c950	0.020725876
75	0x3f10b764	0.5652983
76	0x3edf76bd	0.43645278
77	0xbd426234	-0.047456935
78	0xbe357aab	-0.17722575
79	0xbf269ba3	-0.6508123
80	0x3f0ab06a	0.54175436
81	0x3ec67bd6	0.38766354
82	0x3d69afba	0.05705235
83	0xbe902376	-0.28152055
84	0xbd4a8c74	-0.049450353
85	0xbf0251db	-0.5090615
86	0xbe9bd617	-0.30436775
87	0xbc5f11fc	-0.013615128
88	0xbe9c1702	-0.30486304
89	0x3f12fbab	0.57415265
90	0x3e921645	0.28532615
91	0xbe998092	-0.29980904
92	0x3e127d26	0.14305553
93	0x3e619c30	0.22032237
94	0x3dd117db	0.10209628
95	0x3e5a663d	0.21328063
96	0x3d159d24	0.036526814
97	0xbe186ac2	-0.14884475
98	0x3eb94418	0.36184764
99	0x3e40c746	0.18826017
100	0xbee71394	-0.45132124
101	0xbebb65b1	-0.36601022
102	0x3f23ab69	0.63933426
103	0xbe0861a2	-0.13318494
104	0xbd8ad649	-0.06779153
105	0xbd5deffe	-0.054183953
106	0xbd0b9b17	-0.034083452
107	0x3e41d7bc	0.18929952
108	0xbe17abc6	-0.1481162
109	0xbebbb6ec	-0.36662996
110	0xbeb17ba1	-0.34664634
111	0x3db15402	0.08658601
112	0x3e2dd02a	0.1697394
113	0xbe2a26d2	-0.16616371
114	0x3e88ff45	0.26757255
115	0x3d0a3fd8	0.033752292
116	0x3ed178ed	0.40912572
117	0x3b5f8eb1	0.003411215
118	0xbeaa589d	-0.33270732
119	0xbee784c8	-0.45218492
120	0x3d8f4f15	0.069975056
121	0xbe11f5d3	-0.14253931
122	0x3f27d50d	0.65559465
123	0xbe63cdd5	-0.22246487
124	0x3eadee99	0.33971098
125	0x3d4c8e10	0.04994017
126	0xbed369d3	-0.41291675
127	0x3ce7e68c	0.028308176
128	0x3e53f271	0.20697953
129	0xbf14cd60	-0.5812588
130	0xbd8fb0f4	-0.07016173
131	0xbe4e0e2e	-0.20122597
132	0xbdf4c007	-0.11950689
133	0xbe657fdc	-0.22412056
134	0xbe7aba0b	-0.24485032
135	0x3ed1a64c	0.40947187
136	0xbd519db3	-0.051175784
137	0xbd98df81	-0.07464505
138	0xbd3037dd	-0.043022025
139	0x3f22d8f2	0.6361228
140	0x3d4ca085	0.04995777
141	0x3ea9747e	0.3309669
142	0x3dea8d6e	0.11452757
143	0xbe3d1c60	-0.18467855
144	0x3e81ca3d	0.25349608
145	0x3ef1fe9a	0.47264558
146	0xbe1c0f50	-0.15240216
147	0x3f260ea1	0.6486607
148	0xbd924cd1	-0.07143558
149	0xbd9fc883	-0.078019165
150	0x3ee04976	0.43806046
151	0x3de3090e	0.110857114
152	0xbe2e06c0	-0.16994762
153	0xbf0078b1	-0.5018416
154	0x3cce8b5a	0.025212932
155	0x3d5791e6	0.052629374
156	0xbc5e3343	-0.013562026
157	0x3e40d49b	0.18831103
158	0x3e0b4ecc	0.13604277
159	0x3dfc699e	0.123248324
160	0xbe1061ab	-0.14099757
161	0x3e4cc7e5	0.19998129
162	0xbeac13f7	-0.33608982
163	0x3e5b5171	0.21417786
164	0xbe5fbc30	-0.21849132
165	0x3e2ac7e0	0.16677809
166	0x3ec2ca43	0.38044938
167	0xbcec7dce	-0.028868582
168	0xbe1de64e	-0.15419886
169	0x3ee472b1	0.44618753
170	0x3f26b1e5	0.65115196
171	0xbd5e48fc	-0.054268822
172	0xbd87119b	-0.06595155
173	0xbe997b46	-0.29976863
174	0x3e65784d	0.22409172
175	0x3ee39767	0.44451448
176	0x3e843c7d	0.258274
177	0xbed4c864	-0.41559136
178	0x3edae0b6	0.42749566
179	0xbe8c0681	-0.27348712
180	0x3ec10f4c	0.37706983
181	0x3d88eb2e	0.06685482
182	0x3e15bc8b	0.14622705
183	0xbe260951	-0.16214491
184	0xbe581714	-0.21102554
185	0x3ee0b896	0.43890828
186	0x3d206df3	0.039167356
187	0xbe80da41	-0.25166515
188	0x3e06ce7a	0.13164702
189	0xbd85ef72	-0.06539811
190	0xbdde7700	-0.10862541
191	0x3e5498f0	0.20761466
192	0xbcc1a08d	-0.023636127
193	0x3d4be88f	0.049782332
194	0x3eed8c7b	0.4639624
195	0xbe4ae025	-0.19812067
196	0xbe310205	-0.17285927
197	0x3c41d185	0.0118297385
198	0x3e2c201f	0.16809128
199	0xbde6f1d9	-0.112765975
200	0x3e3ee289	0.18641104
201	0x3e23001c	0.1591801
202	0xbdfde278	-0.12396711
203	0xbe96fe7b	-0.29491028
204	0x3db0cb6d	0.086325504
205	0xbd30d6c5	-0.04317357
206	0x3e034152	0.12817886
207	0xbd8d9c2e	-0.069145545

weight_hh_l0 f4 [52, 13]
0	0xbc31f239	-0.010860973
1	0xbde492a8	-0.11160785
2	0x3dbbd62a	0.09171708
3	0xbe5d69c1	-0.21622373
4	0x3db7c690	0.0897342
5	0x375c4327	1.3128657e-05
6	0xbea174a0	-0.3153429
7	0xbea96f06	-0.33092517
8	0x3cb956f4	0.02262447
9	0x3e8c5059	0.2740505
10	0xbea2f48d	-0.31827202
11	0x3d27c81b	0.04096232
12	0xbde4510d	-0.11148272
13	0x3d7745d5	0.06036933
14	0x3e44d113	0.1922038
15	0x3d09f38c	0.03367953
16	0xbe8dbc15	-0.27682558
17	0x3dfcd041	0.12344409
18	0xbb387624	-0.002814659
19	0xbee41af4	-0.44551814
20	0x3dd85567	0.10563164
21	0xbedb73cb	-0.4286178
22	0x3e9e85e4	0.30961525
23	0x3e1ad7b4	0.15121347
24	0xbd81f5a4	-0.0634568
25	0xbe091365	-0.13386305
26	0x3e78256c	0.24233025
27	0xbeb5247c	-0.35379398
28	0xbc447aca	-0.011992166
29	0xbe53047e	-0.20607182
30	0x3d8e6915	0.069536366
31	0xbec180f3	-0.37793693
32	0x3e1fec48	0.15617478
33	0x3d76ccb6	0.06025382
34	0x3db46aa4	0.088094026
35	0xbc7b67e7	-0.0153445965
36	0x3ec49aaa	0.3839925
37	0x3e3a29ad	0.1817996
38	0x3e8b7fb8	0.2724588
39	0xbe0db249	-0.13837542
40	0xbeca2cfa	-0.3948744
41	0xbd02b55a	-0.03191123
42	0xbe08e276	-0.13367638
43	0x3e68e6d4	0.22744304
44	0xbeddd970	-0.43329954
45	0xbeeafb83	-0.45895013
46	0xbdb7b301	-0.08969689
47	0xbf8c023d	-1.0938183
48	0x3e8dccab	0.27695212
49	0x3cfdb2ed	0.030969108
50	0xbbb482a1	-0.0055087362
51	0xbe5b6e1b	-0.2142872
52	0xbe3e060e	-0.18556997
53	0xbed0043d	-0.40628234
54	0x3f2cd804	0.67517114
55	0xbf088ba5	-0.5333808
56	0x3ea167f4	0.31524622
57	0xbe21dc7e	-0.15806767
58	0xbe2ab4cb	-0.1667053
59	0xbe7cc667	-0.2468506
60	0x3e716b79	0.23576154
61	0x3e8ebc46	0.27878016
62	0x3e2be0d1	0.1678498
63	0x3e92d906	0.286812
64	0x3f127db0	0.57223034
65	0xbd8af337	-0.06784671
66	0x3dfb20b3	0.12262096
67	0xbe1b8c3f	-0.15190218
68	0x3e1d1915	0.153416
69	0x3ddb5bb6	0.10710852
70	0xbd8c5b74	-0.06853381
71	0xbdb58629	-0.0886348
72	0xbf155bfb	-0.58343476
73	0xbedc6afc	-0.43050373
74	0x3e120dd9	0.14263095
75	0xbcf195ab	-0.029490313
76	0xbe8862e1	-0.2663794
77	0xbe3ef96f	-0.18649839
78	0xbe8cfd01	-0.27536777
79	0xbf6a6def	-0.91573995
80	0x3efc56b6	0.49284905
81	0xbf1c6f41	-0.6110726
82	0x3e9437ce	0.28948826
83	0xbf028b48	-0.50993776
84	0xbf4815c5	-0.7815822
85	0xbf9aeaef	-1.2102946
86	0xbf9f5b87	-1.2449807
87	0x3f04c1dd	0.5185831
88	0x3f3837cc	0.7196014
89	0x3ecb7f5e	0.3974561
90	0x3f1caccc	0.6120117
91	0xbe757da8	-0.23973715
92	0xbddee09a	-0.10882683
93	0xbe4e6095	-0.2015403
94	0xbe3793a4	-0.17927414
95	0x3e0585f8	0.13039386
96	0x3e90944a	0.28238136
97	0xbef2ad1a	-0.4739769
98	0xbd979017	-0.0740053
99	0xbed10d7b	-0.40830597
100	0xbc67364b	-0.014112066
101	0x3e142a38	0.1446923
102	0x3ea46675	0.3210942
103	0x3d38037f	0.04492521
104	0x3d4951ad	0.049150158
105	0xbc66b838	-0.014082007
106	0x3d490041	0.049072508
107	0xbd1e97be	-0.03871893
108	0x3ddb3c0b	0.10704812
109	0x3e7bb20c	0.24579638
110	0x3f036eba	0.5134083
111	0x3e957265	0.2918884
112	0xbcf46197	-0.02983169
113	0xbe2f0449	-0.17091478
114	0xbe9c5dfd	-0.30540457
115	0x3e451278	0.19245327
116	0x3daaa8a0	0.08332944
117	0x3d39cbd9	0.04536042
118	0xbcb6e7b3	-0.02232728
119	0xbe9e56a8	-0.30925488
120	0xbe1f79eb	-0.15573852
121	0x3d9d0caa	0.07668431
122	0xbe849074	-0.2589146
123	0xbf01ba5b	-0.5067498
124	0x3df6f3f6	0.120582506
125	0xbe8283bc	-0.2549113
126	0x3db0a909	0.08625991
127	0x3e693048	0.22772324
128	0xbdd95751	-0.106123574
129	0x3c6d9ca6	0.01450268
130	0x3d19823f	0.037477728
131	0xbec05fdc	-0.37573135
132	0xbe070c4c	-0.13188285
133	0xbd64746a	-0.055775084
134	0x3e156085	0.145876
135	0xbcce896e	-0.025212016
136	0x3d4cebd7	0.050029602
137	0xbd3f6233	-0.04672451
138	0xbe22cfe9	-0.15899624
139	0x3e8eb451	0.27871946
140	0xbb37b36f	-0.0028030535
141	0x3d55b9f7	0.052179303
142	0x3ebbd9e7	0.36689684
143	0xbda3b0b0	-0.07992685
144	0x3d37d781	0.044883255
145	0x3db0db49	0.08635575
146	0x3de6d720	0.112715006
147	0x3e101daa	0.14073816
148	0x3dc93d72	0.09826173
149	0x3e61a464	0.22035366
150	0x3e0dbacf	0.13840793
151	0xbedbce5e	-0.42930883
152	0x3f028168	0.5097871
153	0xbe393ba3	-0.18089156
154	0x3e1cfc54	0.1533063
155	0x3eece83b	0.46270928
156	0x3e74f200	0.2392044
157	0x3daa8a28	0.083271325
158	0xbec4db75	-0.38448682
159	0xbe165744	-0.14681727
160	0x3cccd3a2	0.025003258
161	0x3ca7f582	0.02050281
162	0x3dd3c7af	0.10340821
163	0xbe42f4bf	-0.19038676
164	0x3efb01af	0.49024722
165	0xbc03bfc0	-0.008041322
166	0xbe1b6742	-0.15176108
167	0xbd9f2c05	-0.07772068
168	0x3eb2958f	0.3487973
169	0xbc86747a	-0.016412962
170	0x3c8d0129	0.017212467
171	0xbe153224	-0.14569908
172	0xbe8df410	-0.27725267
173	0x3db14ebc	0.086575955
174	0xbd2e84d4	-0.042607144
175	0x3e2e1301	0.16999437
176	0xbddf895b	-0.1091487
177	0x3b0445cd	0.0020183206
178	0x3be09503	0.006853701
179	0xbe7b195a	-0.2452139
180	0x3da68675	0.081311144
181	0x3dde8361	0.10864902
182	0xbeaf2f78	-0.34215903
183	0x3e35a738	0.1773957
184	0x3df163ae	0.117865905
185	0xbea3f32c	-0.32021463
186	0xbdcbf558	-0.09958905
187	0xbec19f79	-0.3781698
188	0xbe63dc7c	-0.22252077
189	0x3d87c539	0.06629414
190	0xbd6d554f	-0.057942685
191	0xbdf00f2b	-0.11721643
192	0x3e945b17	0.28975746
193	0x3e5a9851	0.21347167
194	0x3d962828	0.07331878
195	0x3d79b7d8	0.060966343
196	0xbd46913b	-0.048478346
197	0x3ee93cf1	0.45554307
198	0xbd8fea4e	-0.07027112
199	0xbd856885	-0.06514076
200	0x3e8c391e	0.27387327
201	0xbd1bb12a	-0.038010754
202	0xbe3dc708	-0.18532956
203	0xbe89941b	-0.26870808
204	0x3e33a370	0.17542815
205	0x3d94919a	0.07254334
206	0x3e9584a2	0.29202753
207	0x3ea0a3be	0.31374925
208	0x3d0aadc1	0.03385711
209	0xbdd890f8	-0.105745256
210	0xbe0bfccd	-0.13670655
211	0x3dc24aac	0.09486899
212	0xbed5fd04	-0.41794598
213	0x3df62547	0.12018829
214	0xbf116528	-0.5679498
215	0xbd95b15d	-0.0730922
216	0xbeb82cbb	-0.35971627
217	0x3eb2f8f9	0.34955576
218	0x3e0f2805	0.1398011
219	0x3e6b55c9	0.22981943
220	0xbdbe768e	-0.09299956
221	0xbdee7b70	-0.116446376
222	0xbe7499ff	-0.2388687
223	0xbd6fa479	-0.058506463
224	0xbe1f7a7b	-0.15574066
225	0xbdf0e85c	-0.11763069
226	0xbebbdc48	-0.366915
227	0xbbdefcbf	-0.006805032
228	0xbc57869b	-0.013154651
229	0x3d7b76cc	0.06139259
230	0xbe72d654	-0.23714572
231	0x3dda92b4	0.10672513
232	0x3e82d077	0.2554967
233	0x3ecf46a5	0.40483585
234	0x3e69e5c2	0.22841552
235	0xbe5db797	-0.21652065
236	0xbdd7d5f0	-0.10538852
237	0x3ef020e5	0.46900097
238	0x3dff4137	0.124636106
239	0xbe6e44c3	-0.23268418
240	0xbed5c370	-0.4175067
241	0x3d6bc921	0.05756486
242	0xbe66ee43	-0.22551827
243	0x3e0a0d6c	0.13481683
244	0x3e19a724	0.15005165
245	0x3eb36b32	0.3504272
246	0xbd320aa8	-0.043467194
247	0xbed5c8db	-0.41754803
248	0xbe8a5fda	-0.27026254
249	0x3e547622	0.20748189
250	0xbf1b7f59	-0.6074119
251	0xbee1d6b8	-0.4410913
252	0xbec3e4af	-0.3826041
253	0xbf6038a1	-0.8758641
254	0xbead561a	-0.33854753
255	0xbf734e70	-0.9504156

bias_ih_l0 f4 [52]
0	0x3d6d4731	0.05792922
1	0x3eb735ca	0.35783225
2	0x3e4285d2	0.18996361
3	0x3d898547	0.06714874
4	0x3eb7877f	0.35845563
5	0x3dc464f6	0.09589569
6	0x3dfb4ddb	0.12270709
7	0x3e301c05	0.17198189
8	0x3ebbb085	0.3665811
9	0x3c94522f	0.018105594
10	0xbe0cb668	-0.13741457
11	0x3e0e33c4	0.13886935
12	0x3d389dfa	0.045072533
13	0x3ea0bd6a	0.3139451
14	0x3d90b823	0.07066371
15	0xbca488a7	-0.020084692
16	0xbdb9bf1f	-0.090696566
17	0xbe18eaf2	-0.14933375
18	0x3ea2bfd2	0.31786972
19	0xbe277c6c	-0.16356057
20	0x3e8bedc5	0.2732984
21	0xbeadf193	-0.3397337
22	0x3e7c078f	0.24612258
23	0x3e3e7a14	0.18601257
24	0xbe64dfc7	-0.2235099
25	0xbe390432	-0.18068007
26	0x3c3730ea	0.011181096
27	0xbe164514	-0.14674789
28	0x3d4f33f2	0.05058665
29	0xbe967d5a	-0.2939251
30	0x3e4e810a	0.20166412
31	0xbe0afa2d	-0.13571997
32	0xbea2f313	-0.31826076
33	0xbe286e8d	-0.16448422
34	0xbdd8b604	-0.10581592
35	0x3ea1d2e5	0.31606212
36	0x3e56830b	0.20948426
37	0x3e12acb0	0.14323688
38	0x3e68d3dd	0.2273707
39	0xbe533db3	-0.20629005
40	0x3e40826e	0.18799755
41	0x3ea6f634	0.32609713
42	0x3e840683	0.25786218
43	0x3d0f90e1	0.035050277
44	0x3d46d890	0.048546374
45	0x3dd39cb2	0.10332622
46	0x3ea70a0b	0.3262485
47	0x3ea7f1a4	0.32801545
48	0x3eb99a40	0.36250496
49	0x3e0295f7	0.1275252
50	0x3e8b1750	0.27166224
51	0x3e7c04e4	0.2461124

bias_hh_l0 f4 [52]
0	0x3e8cbf95	0.27489915
1	0x3e6de92a	0.23233476
2	0x3e8f046f	0.2793307
3	0x3e1b7865	0.15182646
4	0x3f003c93	0.5009243
5	0x3e5f043b	0.21778958
6	0xbd72b8e6	-0.059258364
7	0x3c1b9e00	0.009498119
8	0x3e3372a8	0.17524207
9	0x3d9a9165	0.07547263
10	0xbb2e87b8	-0.0026631188
11	0xbd6b70c6	-0.057480596
12	0x3e9581a0	0.2920046
13	0xbbbba970	-0.0057269856
14	0x3e9b075a	0.30279046
15	0xbb920897	-0.0044565904
16	0xbd8873b1	-0.066626914
17	0xbdd7d90a	-0.10539444
18	0xbd86a97e	-0.06575297
19	0x3e01b9f4	0.12668592
20	0x3e9bb54d	0.3041176
21	0xbe792250	-0.24329495
22	0x3d165f74	0.036712125
23	0xbe104e36	-0.14092335
24	0xbb93b1ef	-0.0045072953
25	0x3eab0963	0.334056
26	0xbe8af10e	-0.27137035
27	0x3d9d6dbb	0.07686945
28	0x3e63cf05	0.2224694
29	0x3d84397b	0.06456276
30	0xbdd76869	-0.105179615
31	0x3d7a6a88	0.061136752
32	0x3e34e43d	0.17665191
33	0xbcd97a26	-0.026547503
34	0x3e33840f	0.17530845
35	0x3dcc236a	0.09967692
36	0x3d9ba131	0.07599104
37	0x3da75733	0.08170929
38	0x3e77a1db	0.24182837
39	0x3d860538	0.06543964
40	0x3e753e6a	0.2394959
41	0xbe25385a	-0.16134778
42	0x3e6b1128	0.22955763
43	0x3c09d5b3	0.008412766
44	0x3e3af189	0.18256201
45	0x3cbc5822	0.022991244
46	0xbd0ac738	-0.033881396
47	0x3dd70f13	0.10500922
48	0x3e7a24d1	0.24428107
49	0x3e650fdf	0.22369336
50	0x3cd44b91	0.02591494
51	0x3e9ea0a5	0.30981937

weight_ih_l0_reverse f4 [52, 4]
0	0xbe91fd27	-0.28513452
1	0xbe7104ca	-0.23536983
2	0x3eb96ebf	0.36217305
3	0x3e4b935f	0.19880436
4	0x3f3ed264	0.7453978
5	0x3cdbc479	0.026827084
6	0x3e6c89a6	0.23099384
7	0x3db4aaec	0.08821663
8	0x3e04fe9f	0.12987755
9	0x3e964ee3	0.2935706
10	0x3f0d7d69	0.55269486
11	0xbebf9c0a	-0.37423736
12	0x3e346ada	0.17618886
13	0x3cda597b	0.026653996
14	0x3dc25531	0.09488905
15	0x3d34c2dd	0.04413115
16	0xbe54d9c0	-0.2078619
17	0x3ee852ba	0.45375615
18	0x3e325eee	0.17419025
19	0x3e3595c4	0.17732912
20	0x3ead6aac	0.33870447
21	0x3d26f96f	0.040765222
22	0x3f019204	0.5061343
23	0xb95d6be9	-0.00021116402
24	0x3ce52512	0.027971778
25	0xbe87f378	-0.2655294
26	0xbe553bf2	-0.20823649
27	0xbdfec464	-0.12439802
28	0xbdf2db7d	-0.1185827
29	0xbe6d1cbc	-0.23155493
30	0x3eb3fafd	0.35152426
31	0xbde70763	-0.11280706
32	0x3d8bc1e7	0.06824093
33	0x3e10925e	0.14118335
34	0x3cf4c37f	0.029878376
35	0x3e281022	0.16412404
36	0xbed09b18	-0.40743327
37	0xbe2803b9	-0.1640767
38	0x3dd0d5eb	0.101970516
39	0x3e9cfe64	0.30662835
40	0x3dac6ac2	0.084188
41	0x3e501e6a	0.20324102
42	0x3d9f6519	0.07782955
43	0x3e707041	0.23480321
44	0x3ea32173	0.31861457
45	0xbe1e38c7	-0.15451346
46	0x3ef341d9	0.47511175
47	0x3f7cc688	0.98740435
48	0x3caf088c	0.02136638
49	0x3ccc253b	0.024920097
50	0x3e1198d8	0.14218462
51	0x3d0ad8d1	0.03389818
52	0x3e07befe	0.13256451
53	0x3d5c102b	0.053726356
54	0xbe2ea9b6	-0.17056927
55	0x3a84b2b2	0.0010124056
56	0x3f8146d8	1.0099745
57	0xbec75cab	-0.38937888
58	0x3e592796	0.21206507
59	0x3e5f0bbe	0.21781823
60	0x3dc8dbff	0.09807586
61	0x3e53dfdb	0.20690863
62	0xbe5bee27	-0.21477567
63	0x3e4c67ce	0.19961473
64	0x3d892318	0.06696147
65	0xbe68597b	-0.22690384
66	0x3eddba96	0.43306416
67	0x3ec5a42f	0.38601825
68	0xbe5a0759	-0.21291865
69	0xbd20a654	-0.039221123
70	0x3f0ded5a	0.55440295
71	0xbe3453e7	-0.17610131
72	0x3e89f658	0.26945758
73	0x3e4bb238	0.19892204
74	0x3da0f282	0.07858755
75	0x3ea727de	0.32647604
76	0x3e9d5720	0.30730534
77	0xbd99e5e3	-0.075145505
78	0x3d0926fa	0.033484437
79	0x3e9a2b7b	0.30111298
80	0xbf0d4098	-0.5517669
81	0x3e8216a0	0.25407887
82	0xbd973ce0	-0.07384658
83	0x3e02d7ea	0.12777677
84	0xbeae83c7	-0.34084913
85	0xbe4b65da	-0.19863072
86	0xbcf0fb91	-0.029416831
87	0xbe4a3750	-0.19747663
88	0x3e783cd4	0.24241954
89	0x3df9c58c	0.12195882
90	0x3e96e0e0	0.2946844
91	0x3f068afc	0.52555823
92	0x3d6135f7	0.054983106
93	0x3cad9d3d	0.021193141
94	0xbe26c135	-0.1628464
95	0x3db8b3f2	0.09018697
96	0xbe3c71e8	-0.18402827
97	0xbe222980	-0.15836143
98	0x3c1f70b5	0.009731461
99	0xbd2085a8	-0.039189965
100	0x3f099e0e	0.537568
101	0x3dbff1c6	0.093722865
102	0xbe316939	-0.17325296
103	0x3d5e9d32	0.054349132
104	0x3ec0c93c	0.3765353
105	0xbe79e7ca	-0.24404827
106	0xbee0e1bc	-0.43922222
107	0x3e0e9f6c	0.13928002
108	0x3e38fb09	0.18064512
109	0x3eab463d	0.33452025
110	0xbe1d20cb	-0.15344541
111	0xbeccde52	-0.40013367
112	0xbf36980f	-0.71325773
113	0x3e048517	0.12941395
114	0x3e1cd3f7	0.15315233
115	0x3daa51a2	0.083163515
116	0x3e1f4f09	0.15557493
117	0x3e334a0d	0.17508717
118	0xbec35ad6	-0.3815524
119	0x3ee4450d	0.44583932
120	0x3df576a9	0.11985523
121	0xbece7626	-0.40324515
122	0xbd8c9201	-0.068637855
123	0xbdd01d29	-0.10161812
124	0x3e970995	0.29499498
125	0xbe2a6021	-0.16638233
126	0x3e8d8b88	0.27645516
127	0x3b1e57ff	0.0024161336
128	0xbe3dfbfe	-0.18553159
129	0x3d1a79c5	0.037713785
130	0xbde07002	-0.10958864
131	0xbe471218	-0.19440496
132	0x3ed2a605	0.41142288
133	0x3e38ab61	0.18034126
134	0xbeea6693	-0.45781383
135	0x3d7bb361	0.061450366
136	0xbe14192e	-0.1446273
137	0xbed7e657	-0.42167923
138	0x3e4c594f	0.19955944
139	0x3ed26e96	0.41099995
140	0xbe8a9a6d	-0.27070943
141	0xbef3e102	-0.47632605
142	0x3e16fd9c	0.14745182
143	0xbcc0f63f	-0.02355492
144	0xbe43db8b	-0.19126718
145	0xbe233b65	-0.15940626
146	0x3e8a4f04	0.2701341
147	0xbeb245ce	-0.34818882
148	0x3eb7958c	0.35856283
149	0x3e43523e	0.19074342
150	0x3d04ab66	0.03239002
151	0x3c03982c	0.008031886
152	0xbe49bed1	-0.19701697
153	0x3ecb65e5	0.39726177
154	0x3e030e34	0.12798387
155	0xbdd02fe8	-0.101653874
156	0x3ee724fc	0.45145404
157	0xbd465212	-0.048418112
158	0x3e826096	0.25464314
159	0xbe51e4ae	-0.2049739
160	0x3f0887e6	0.53332365
161	0x3bc9f565	0.0061632865
162	0xbdddf9f9	-0.10838694
163	0xbc34c63a	-0.011033589
164	0x3ea0b6e9	0.3138955
165	0x3da198f5	0.07890502
166	0xbdc04395	-0.0938789
167	0x3e55cca1	0.20878841
168	0xbe2b8c02	-0.16752627
169	0x3e89e733	0.26934204
170	0x3dbb38c4	0.091416866
171	0x3e298a06	0.16556558
172	0xbefb3ac2	-0.49068266
173	0x3f0f6373	0.5601112
174	0xbda9da3c	-0.08293578
175	0x3e9494a0	0.29019642
176	0xbde48e9e	-0.111600146
177	0xbef28091	-0.47363713
178	0x3e90bf46	0.2827093
179	0x3e793641	0.24337102
180	0x3ee45ea8	0.44603467
181	0x3d13b583	0.036061775
182	0x3d6c6ae5	0.05771913
183	0xbd7e08c7	-0.06202009
184	0xbe0ccbf7	-0.13749681
185	0x3ddc9bcf	0.10771906
186	0xbebf03a2	-0.3730746
187	0x3f1d9579	0.615562
188	0xbdaafcba	-0.08348985
189	0x3e607b79	0.21922101
190	0x3e8255c7	0.25456068
191	0xbe796978	-0.2435664
192	0xbe32ab5b	-0.1744818
193	0x3e99fe26	0.30076712
194	0x3ebb685a	0.3660305
195	0xbdfa5977	-0.12224095
196	0xbd0cb762	-0.034354575
197	0xbd6f1612	-0.058370657
198	0xbf1bc3f4	-0.60845876
199	0x3ed5ea04	0.41780102
200	0x3e5cf3ff	0.21577452
201	0xbe6c4ce3	-0.23076205
202	0xbdcc82fe	-0.09985922
203	0x3ef3dbca	0.47628623
204	0x3d05f359	0.032702778
205	0x3e08f169	0.1337334
206	0x3dbab220	0.09116006
207	0x3c67923a	0.014133984

weight_hh_l0_reverse f4 [52, 13]
0	0x3d71ae06	0.059003852
1	0xbc68e292	-0.014214175
2	0x3dde8596	0.10865323
3	0x3e780d2d	0.24223776
4	0xbe87d33a	-0.2652834
5	0x3e6556fb	0.22396462
6	0xbde95039	-0.113922544
7	0x3effa4df	0.49930474
8	0xbde0e586	-0.10981278
9	0xbbd32537	-0.0064436453
10	0xbe78bc31	-0.2429054
11	0x3e80dadc	0.25166976
12	0x3d07f432	0.033191867
13	0xbe56f182	-0.20990565
14	0x3e90d6ff	0.2828903
15	0x3dc24a5e	0.09486841
16	0x3e3af94d	0.18259163
17	0xbf1931e6	-0.59841764
18	0x3ea577b1	0.3231788
19	0xbeafab83	-0.3431054
20	0x3e6bf805	0.2304383
21	0xbdd399b9	-0.10332055
22	0x3e2e3b7b	0.17014877
23	0xbf2ca09b	-0.67432564
24	0x3e8a240a	0.2698062
25	0x3ef07e9e	0.469716
26	0xbf09f7e9	-0.53893906
27	0x3e4ddf8a	0.20104805
28	0x3d1888ec	0.037239954
29	0x3e427363	0.18989329
30	0xbdac55a2	-0.08414771
31	0x3e5e3828	0.2170111
32	0xbec25ed4	-0.37962973
33	0x3e95251d	0.29129878
34	0xbdb42deb	-0.08797821
35	0xbf008748	-0.5020642
36	0xbd63030e	-0.055422835
37	0xbdae785f	-0.08519053
38	0x3e6af170	0.22943664
39	0xbedc40de	-0.4301824
40	0x3f129cbb	0.572704
41	0xbecde9aa	-0.40217334
42	0x3e44a01e	0.19201705
43	0xbd22ba42	-0.03972841
44	0x3ec43bd3	0.38326892
45	0xbe22999e	-0.15878913
46	0xbe915c4d	-0.28390732
47	0x3e2c4bc3	0.16825776
48	0xbe85dd1f	-0.26145265
49	0xbe19af42	-0.15008262
50	0x3d5e8a37	0.05433103
51	0x3f002216	0.5005201
52	0x3d44b389	0.04802278
53	0x3d56bd44	0.05242659
54	0x3daec1f0	0.085330844
55	0xbea6fe0d	-0.326157
56	0xbdf82568	-0.1211651
57	0x3e625f1c	0.22106594
58	0x3d65f5df	0.056142684
59	0x3e433bdf	0.19065808
60	0x3e4f4469	0.2024094
61	0xbd1c6105	-0.038178463
62	0xbdb65b39	-0.08904118
63	0xbe4bc84b	-0.19900624
64	0x3e0bb32e	0.1364257
65	0xbdb4497a	-0.08803077
66	0xbe13a54e	-0.14418527
67	0x3d9bd9cc	0.07609901
68	0x3e276b56	0.16349539
69	0x3d7688f1	0.06018919
70	0x3e9831b6	0.29725426
71	0xbbff6ca7	-0.007794935
72	0x3e43d2c4	0.1912337
73	0xbe3abd7d	-0.18236347
74	0xbe44f7fd	-0.19235225
75	0x3e464666	0.19362792
76	0xbe2f942c	-0.17146367
77	0x3e5fbaa8	0.21848547
78	0x3dffecf6	0.124963686
79	0x3e9bad92	0.3040586
80	0x3d788931	0.06067771
81	0x3c051f53	0.008125144
82	0xbf00d855	-0.50330096
83	0xbe83ee25	-0.25767627
84	0xbca64313	-0.020295655
85	0x3e0192d5	0.12653668
86	0xbe903222	-0.28163248
87	0xbe83dfbb	-0.2575663
88	0xbc8512b7	-0.016244275
89	0x3e87655f	0.26444528
90	0xbd043b23	-0.03228296
91	0xbd26b7be	-0.040702574
92	0xbcdef53e	-0.02721655
93	0xbde54628	-0.11195022
94	0x3e913206	0.28358477
95	0xbed71803	-0.42010507
96	0x3ec6d1af	0.3883185
97	0xbe597f5f	-0.21239994
98	0x3e0b2c29	0.13591065
99	0xbd9bc69e	-0.076062426
100	0xbdd50464	-0.10401228
101	0xbdff2266	-0.12457733
102	0x3e42b91c	0.19015926
103	0xbc33deb5	-0.01097839
104	0xbd578bef	-0.052623685
105	0xbdc74c3d	-0.09731338
106	0x3e6bcd55	0.23027547
107	0x3e6e0f60	0.23248053
108	0x3e1fe8b8	0.15616119
109	0x3c0eb2da	0.008709634
110	0x3c684d7d	0.014178631
111	0x3e865c7a	0.2624243
112	0xbe78fda5	-0.24315508
113	0xbebd050d	-0.36917916
114	0xbeaed7d4	-0.3414904
115	0xbe8ae233	-0.271257
116	0x3e6a9955	0.22910054
117	0xbeea5eb6	-0.45775384
118	0x3c72b099	0.014812612
119	0xbe21aaae	-0.15787765
120	0x3df891e1	0.12137199
121	0xbef816ef	-0.48454997
122	0xbe8a13a0	-0.26968098
123	0x3d05da02	0.03267861
124	0xbdee01a1	-0.116214044
125	0x3e1e5427	0.15461789
126	0xbe865c49	-0.26242283
127	0xbcdd5efd	-0.027022833
128	0xbe5e5a82	-0.21714213
129	0x3c53823a	0.012909466
130	0x3e5b4247	0.21412002
131	0x3dbefc1c	0.0932543
132	0xbeb4a1dc	-0.3527974
133	0x3e9a1a6d	0.30098286
134	0x3de38fec	0.11111435
135	0x3bce2787	0.006291333
136	0xbeeb5ab3	-0.45967636
137	0x3dec985b	0.11552497
138	0xbd107fb8	-0.035278052
139	0xbe88764d	-0.26652756
140	0xbe7b79e3	-0.24558215
141	0xbe20b116	-0.15692553
142	0x3e621213	0.22077207
143	0xbddc2860	-0.107498884
144	0x3d271052	0.04078705
145	0xbebed882	-0.37274557
146	0x3ebcc360	0.3686781
147	0xbe86e5e0	-0.26347256
148	0x3e265d38	0.16246498
149	0xbedef0f5	-0.4354321
150	0x3e8b8a49	0.2725394
151	0xbde40b26	-0.11134939
152	0xbecf3828	-0.4047253
153	0xbe895e03	-0.26829538
154	0x3e9b780f	0.30365035
155	0x3ed01b00	0.406456
156	0x3e1b723c	0.15180296
157	0xbdb5931a	-0.08865948
158	0xbf20b7ef	-0.6278066
159	0x3e5fb721	0.21847202
160	0xbe230f63	-0.15923838
161	0x3e8f728a	0.28017074
162	0xbe7e9840	-0.24862766
163	0x3e9b328a	0.30311996
164	0xbe5dfeb0	-0.21679187
165	0x3cb62a04	0.022236831
166	0xbe81439a	-0.25246888
167	0xbd9dc080	-0.07702732
168	0x3e7d843a	0.24757472
169	0xbde461d8	-0.11151475
170	0xbd4d2ed7	-0.050093498
171	0xbe4d0a19	-0.20023383
172	0xbd8c2ef3	-0.06844892
173	0xbe80a01e	-0.2512216
174	0xbd77b94c	-0.060479447
175	0x3e65d5c5	0.22444828
176	0x3d590e74	0.0529923
177	0xbc0e8fdd	-0.008701292
178	0xbd5c9ab1	-0.053858463
179	0xbe01a316	-0.12659869
180	0xbe44fe11	-0.19237544
181	0x3dc69513	0.096964024
182	0xbd839685	-0.06425194
183	0xbe77c96e	-0.24197933
184	0xbe707bc0	-0.23484707
185	0x3d508929	0.050912056
186	0xbe8eca27	-0.27888605
187	0x3e503432	0.20332411
188	0xbe118ef5	-0.1421469
189	0x3e8d226c	0.27565324
190	0xbe4006e1	-0.18752624
191	0xbea14200	-0.31495667
192	0xbdcb9496	-0.0994045
193	0xbd883b61	-0.06651951
194	0x3e9b526b	0.30336317
195	0xbe52d392	-0.2058852
196	0x3d78f3e2	0.06077946
197	0xbe8dcf2c	-0.27697122
198	0x3ec7b022	0.39001566
199	0xbd908723	-0.07057025
200	0x3e169c16	0.1470798
201	0xbe869ea4	-0.26292908
202	0xbd3a171c	-0.045432195
203	0xbde4d722	-0.11173846
204	0x3da1e68d	0.07905302
205	0xbe9ec66c	-0.3101076
206	0x3ecf740a	0.40518218
207	0x3ee11288	0.4395945
208	0xbf21780f	-0.6307382
209	0x3dcb7113	0.099336766
210	0xbea55470	-0.32290983
211	0x3ecb301f	0.3968515
212	0xbe332a01	-0.17496492
213	0x3e992c24	0.2991649
214	0xbe35a993	-0.17740469
215	0x3dee1f58	0.11627072
216	0xbe4ae696	-0.19814524
217	0xbefea25d	-0.49733248
218	0xbd949ae7	-0.07256108
219	0x3e958de8	0.29209828
220	0x3e9b9b33	0.30391845
221	0xbe486e10	-0.19573236
222	0xbc16652e	-0.009179397
223	0x3dca6532	0.09882583
224	0x3dcb4e8e	0.099270925
225	0xbbc18e09	-0.0059068245
226	0x3dbf352a	0.09336312
227	0xbe4b324c	-0.19843405
228	0xbe11c880	-0.14236641
229	0x3e15d507	0.14632045
230	0x3e5b9e24	0.21447045
231	0xbd984abc	-0.074361295
232	0x3e18f2c4	0.14936358
233	0xbc5a6ad4	-0.013331134
234	0x3e3c8a3d	0.18412109
235	0x3e72d53e	0.23714158
236	0xbe4476a4	-0.19185883
237	0xbc85b93c	-0.016323678
238	0x3e9e05c1	0.30863765
239	0xbdca87df	-0.098891966
240	0xbe54770b	-0.20748536
241	0x3e2a9df6	0.1666182
242	0x3e25cb3d	0.1619081
243	0xbe523f0d	-0.20531864
244	0x3a6bb329	0.00089912355
245	0x3e2d537b	0.16926377
246	0x3e337259	0.17524089
247	0xbdd5f9f3	-0.10448065
248	0xba35f53c	-0.0006941145
249	0xbd759821	-0.059959535
250	0x3e804597	0.25053093
251	0xbcc04568	-0.023470595
252	0xbdd01aa6	-0.10161333
253	0xbd660869	-0.056160364
254	0x3e847e2e	0.25877517
255	0x3ca75a9e	0.020428952

bias_ih_l0_reverse f4 [52]
0	0xbcf69ef8	-0.0301051
1	0x3e82b8ca	0.25531608
2	0xbd6a3ba9	-0.057185803
3	0x3df69a7e	0.12041186
4	0xbe0d5257	-0.13800941
5	0x3ea2e51f	0.3181543
6	0x3d6f2d5e	0.058392875
7	0x3e5ee6cd	0.21767731
8	0xbd7f81b7	-0.062379565
9	0x3e680303	0.22657399
10	0x3e8f3106	0.2796709
11	0x3eccc33b	0.399927
12	0x3da39c1c	0.0798876
13	0x3dbd0269	0.09228975
14	0x3d73dd13	0.059537005
15	0x3e1fb886	0.15597734
16	0x3cc01d41	0.02345145
17	0xbe457c27	-0.19285642
18	0x3c999711	0.018748792
19	0xbd892cba	-0.06697984
20	0x3e91537b	0.28384003
21	0xbe075e0a	-0.13219467
22	0x3eafb725	0.34319416
23	0x3d9bfaa2	0.07616164
24	0xbdd5d031	-0.104401
25	0xbdb714fb	-0.089395486
26	0x3e0a1e55	0.13488133
27	0x3dca7227	0.09885054
28	0xbe49e8ee	-0.19717762
29	0x3e5ed2ba	0.21760073
30	0xbe8d6273	-0.27614173
31	0x3e2cda08	0.16880047
32	0xbdd708b9	-0.104997106
33	0x3e87572c	0.26433694
34	0xbe277a48	-0.1635524
35	0x3e1c9969	0.15292896
36	0xbe5f2f67	-0.21795426
37	0xbe707452	-0.23481873
38	0x3dabc441	0.08387042
39	0x3da93439	0.08261914
40	0x3e907d3c	0.28220546
41	0x3ea7bd58	0.32761645
42	0x3c15942d	0.009129566
43	0x3e615e6b	0.22008674
44	0x3e96707d	0.29382697
45	0xbe37def1	-0.17956139
46	0x3e8fdf4a	0.28100044
47	0xbd2e54e4	-0.042561427
48	0x3e9d93b6	0.30776757
49	0x3dfbfdc5	0.12304262
50	0x3e87dd68	0.26536107
51	0xbd060479	-0.03271911

bias_hh_l0_reverse f4 [52]
0	0x3e2ddf4f	0.16979717
1	0x3cdfda41	0.027325751
2	0xbd1e1fc1	-0.0386045
3	0x3e08f7e4	0.13375813
4	0x3e9c3086	0.3050577
5	0xbe2d2dab	-0.16911952
6	0x3e3b3571	0.18282105
7	0x3ec723af	0.38894412
8	0x3ea29870	0.31756926
9	0xbd75ad0d	-0.059979487
10	0x3e563f54	0.20922595
11	0x3ee4263f	0.4456043
12	0xbd3ee5f8	-0.046606034
13	0xbe359aed	-0.17734881
14	0x3e7e8a5c	0.24857467
15	0x3e637492	0.22212437
16	0x3ea2487f	0.31695935
17	0x3e2c54b7	0.16829191
18	0x3db0bd5c	0.086298674
19	0x3e892e36	0.2679307
20	0x3d1c5214	0.038164213
21	0xbe1a4af6	-0.15067658
22	0x3dad3953	0.08458199
23	0x3e30091b	0.17190973
24	0xbd543bcd	-0.051814843
25	0x3acbe76c	0.001555664
26	0xbe51548d	-0.2044241
27	0xb9500f78	-0.00019842188
28	0xbe3586b2	-0.17727163
29	0xbc6f6ca7	-0.014613307
30	0xbe7f680e	-0.24942037
31	0x3e2fe664	0.17177731
32	0xbea2e786	-0.31817263
33	0x3d7ad157	0.0612348
34	0xbe6c4df2	-0.23076609
35	0xbe2b0cc3	-0.16704087
36	0xbea75aec	-0.32686555
37	0x3e51c94a	0.20486942
38	0x3da01663	0.0781677
39	0xbcab7e2a	-0.020934183
40	0x3e6b1ab5	0.22959407
41	0x3e942c46	0.28940028
42	0x3d7478bc	0.059685454
43	0x3e703317	0.23456989
44	0x3e991673	0.2989994
45	0xbc21db62	-0.009878965
46	0x3d53247e	0.051548474
47	0x3e9c9e51	0.30589536
48	0x3d2903ff	0.041263577
49	0xbdb288a3	-0.08717468
50	0x3ebd54cc	0.36978757
51	0x3d9b1cb6	0.075738356

weight f4 [16, 260]
0	0xbc9e2d99	-0.019308852
1	0x3d3d5203	0.04622079
2	0xbd9366ad	-0.07197318
3	0xb9e74872	-0.0004411373
4	0xbc9394e2	-0.018015329
5	0xbdd4f88a	-0.103989676
6	0xbd004593	-0.03131635
7	0xbd584b23	-0.05280603
8	0x3ce92128	0.028458193
9	0x3cfddecd	0.030990029
10	0x3dd6b805	0.10484318
11	0x3d11bf00	0.035582542
12	0x3c875af8	0.01652287
13	0xbe33e5d4	-0.17568141
14	0x3d83adfd	0.0642967
15	0xbe45a10a	-0.19299713
16	0xbd3eef84	-0.04661514
17	0xbd891ea4	-0.06695297
18	0xbdabfe14	-0.08398071
19	0xbd9f51bc	-0.077792615
20	0x3caf1f0a	0.021377105
21	0xbd94f5c5	-0.07273439
22	0xbd1820ea	-0.037140764
23	0x3d8cafae	0.06869446
24	0xbcfd7494	-0.030939378
25	0x3dc4ab23	0.09602954
26	0xbd09dfd8	-0.03366074
27	0x3d452492	0.04813058
28	0x3d90f580	0.070780754
29	0xbc91b0a7	-0.01778443
30	0x3ecec7f5	0.4038693
31	0xbcef2b11	-0.02919534
32	0xb9b0d686	-0.00033729168
33	0xbd8e2494	-0.069405705
34	0xbe0781e5	-0.13233145
35	0x3c31b990	0.010847464
36	0xbdb364f9	-0.087594934
37	0x3d9dabe6	0.07698803
38	0x3d82e18a	0.063906744
39	0xbe3bd4bd	-0.18342872
40	0xbaeda5ca	-0.0018131074
41	0xbe08531b	-0.13312952
42	0xb6f358fc	-7.2523235e-06
43	0x3e64a7e2	0.22329667
44	0x3e13c684	0.14431196
45	0x3cc062ba	0.023484576
46	0x3d99b1a4	0.075045854
47	0x3bf03bf5	0.007331366
48	0xbc90072e	-0.017581549
49	0xbd3dcab4	-0.04633589
50	0x3df8402f	0.12121617
51	0xbd068261	-0.032839183
52	0xbc4a6eb7	-0.012355498
53	0x3daf86f0	0.08570659
54	0xbcd93f1d	-0.026519353
55	0x3d82265c	0.06354973
56	0xbe5cd9ee	-0.21567509
57	0xbd23ce68	-0.039991766
58	0xbd463cd8	-0.04839787
59	0x3d4ddad3	0.050257515
60	0x3dc6aed9	0.09701318
61	0x3dcfc149	0.10144288
62	0x3d612dea	0.054975428
63	0x3dc4ff5f	0.09619021
64	0xbba7da7b	-0.0051224804
65	0xbc0de017	-0.008659384
66	0xbe43edf7	-0.19133745
67	0xbdfa8660	-0.12232661
68	0x3e0ab6f0	0.13546348
69	0xbdcdd03c	-0.10049483
70	0x3e0bcf39	0.13653268
71	0x3b744490	0.0037272312
72	0x3c87fc9e	0.01659995
73	0xbd48ceae	-0.04902523
74	0xbe91da08	-0.28486657
75	0xbc1172e6	-0.008877492
76	0xbcef025e	-0.029175933
77	0xbd859283	-0.065220855
78	0x3cd8d9f9	0.026471125
79	0xbe28ab4a	-0.16471592
80	0x3dc906a5	0.098157205
81	0xbe4919b8	-0.19638717
82	0x3d57f2e9	0.05272189
83	0x3d25884a	0.04041318
84	0xbdb08fbf	-0.086211674
85	0x3cb02e8d	0.021506572
86	0xbd8eac7d	-0.06966493
87	0x3dbe262d	0.09284625
88	0x3d02ec3f	0.031963583
89	0x3e82e265	0.2556335
90	0x3d6adbcd	0.057338525
91	0x3be57236	0.0070021404
92	0x3d903ff7	0.0704345
93	0x3bb91ab5	0.0056489357
94	0x3dc6d087	0.09707742
95	0xbdbb8e45	-0.09157995
96	0xbde0cae3	-0.109761976
97	0xbdfa7261	-0.12228847
98	0x3dab424d	0.08362255
99	0xbe02d3bf	-0.12776087
100	0x3c37832a	0.011200706
101	0xbe17a4d3	-0.14808969
102	0x3def9941	0.11699153
103	0x3ddfe8c7	0.10933071
104	0x3d85a5cd	0.065257646
105	0x3ab77831	0.0013997612
106	0xbcf3df0d	-0.029769445
107	0xbc97ea19	-0.018544244
108	0xbe47ab78	-0.19499004
109	0x3e279665	0.16365965
110	0x3cb68d3a	0.022284139
111	0x3e3dec87	0.1854726
112	0x3dc369ff	0.095417015
113	0xbe23285c	-0.15933365
114	0x3d64755e	0.055775993
115	0xbe14c845	-0.14529522
116	0x3de9fd44	0.1142526
117	0x3df5a899	0.11995048
118	0xbdb47a22	-0.088123575
119	0xbd544aff	-0.051829334
120	0x3c231674	0.009954084
121	0xbdb77ab1	-0.089589484
122	0xbd0b8843	-0.034065496
123	0xbd6365c3	-0.05551697
124	0x3e41268c	0.1886236
125	0x3e2a8ba8	0.16654837
126	0xbd046ad2	-0.032328434
127	0xbd1f9e23	-0.03896917
128	0x3e981e6a	0.29710704
129	0xbd5f538a	-0.05452303
130	0x3df870b9	0.12130875
131	0x3d14c631	0.036321823
132	0xbdd47bf6	-0.10375206
133	0xbe6b8b1e	-0.23002288
134	0x3cd4b8e4	0.025967069
135	0xbdb1e66c	-0.086865276
136	0x3c008777	0.007844797
137	0xbd7bcd80	-0.061475277
138	0xbdb12bf7	-0.08650964
139	0x3d4e29e1	0.050332908
140	0x3b6692c6	0.0035182699
141	0xbd993281	-0.07480336
142	0x3c4b55b8	0.012410574
143	0xbdf5cc40	-0.12001848
144	0xbc8b0946	-0.016972195
145	0x3e4c2dfa	0.19939414
146	0x3d8ce47a	0.06879516
147	0xbe4c6488	-0.19960225
148	0xbdd3a497	-0.103341274
149	0x3ce2d18d	0.027687812
150	0xbdb83971	-0.08995331
151	0xbd705461	-0.05867422
152	0x3db2f12e	0.087374076
153	0xbd708dc9	-0.058728967
154	0x3d37707d	0.04478501
155	0x3de8243c	0.11335036
156	0xbe1e862c	-0.1548087
157	0xbdb05e5f	-0.0861175
158	0x3e2cf28c	0.168894
159	0x3e4af271	0.19819047
160	0x3e048782	0.12942317
161	0xbcd62ec7	-0.026145352
162	0xbd706131	-0.05868644
163	0xbd9793b6	-0.074012205
164	0xbc852827	-0.016254498
165	0x3e12aca6	0.14323673
166	0x3e39bd27	0.18138562
167	0x3d428dd8	0.047498554
168	0x3e2782fc	0.1635856
169	0xbe0996b0	-0.13436389
170	0xbd443e68	-0.047911078
171	0xbdcbabd7	-0.09944885
172	0x3dbc4410	0.091926694
173	0xbe650ffc	-0.22369379
174	0x3d2c6b8f	0.042094763
175	0xbd8c554c	-0.068522066
176	0xbe187dbb	-0.14891712
177	0xbd036104	-0.032074943
178	0x3d93c1cf	0.072147004
179	0xbc8e4fcf	-0.01737204
180	0x3d0925b7	0.033483233
181	0x3d7822aa	0.060579933
182	0x3a84d138	0.0010133153
183	0xbe00297e	-0.12515828
184	0x3da655d4	0.08121839
185	0xbdb2d157	-0.08731335
186	0x3d7f600f	0.062347468
187	0xbc5a161d	-0.013310936
188	0xbd0264c5	-0.031834383
189	0xbe0e34fa	-0.13887396
190	0x3d886327	0.06659537
191	0xbe26af6b	-0.16277854
192	0x3d5ff1ec	0.054674074
193	0xbe11407e	-0.14184758
194	0x3e214f95	0.15753014
195	0x3e0cb1ae	0.13739654
196	0x3e0c8185	0.13721283
197	0xbd4d3998	-0.050103754
198	0xbccdc024	-0.025116034
199	0xbb5748f5	-0.0032849882
200	0x3db9639b	0.09052201
201	0xbde48120	-0.11157441
202	0x3d2555db	0.04036508
203	0xbe119c38	-0.14219749
204	0xbc9cceaf	-0.019141523
205	0xbdae1c53	-0.08501496
206	0x3d476a92	0.048685618
207	0xbdb3ba55	-0.087757744
208	0xbd922d7b	-0.07137581
209	0xbe323a4a	-0.17405048
210	0xbe2dedd4	-0.16985255
211	0xbdc26e31	-0.094936736
212	0x3d7f57f5	0.06233974
213	0xbdd08293	-0.10181155
214	0xbe1e9a7e	-0.15488622
215	0xbcf99527	-0.03046663
216	0x3dd184b4	0.10230389
217	0xbd3dae6a	-0.046308912
218	0xbc29d2f8	-0.01036524
219	0x3dfb0b0e	0.12257968
220	0x3d946569	0.07245905
221	0xbd3bd188	-0.04585412
222	0xbd60bd67	-0.05486813
223	0x3e56aa00	0.20963287
224	0x3d36711c	0.044541463
225	0x3dbd6027	0.09246855
226	0x3d011adc	0.031519756
227	0x3d5885e6	0.05286207
228	0x3d8edee2	0.06976105
229	0xbd510971	-0.051034395
230	0xbbe91324	-0.0071128774
231	0xb92cfebf	-0.00016498099
232	0x3d069581	0.03285742
233	0x3c175638	0.009236865
234	0x3d82da6c	0.06389317
235	0xbcb462f6	-0.022019845
236	0x3d963684	0.07334617
237	0x3daf65f9	0.085643716
238	0xbe183de9	-0.14867367
239	0x3d3adc0c	0.04562001
240	0xbe42e2e1	-0.1903186
241	0xbc061c4c	-0.008185457
242	0x3d656143	0.05600096
243	0xbc2653f4	-0.010151852
244	0x3d74887b	0.05970047
245	0x3de0cd76	0.109766886
246	0xbd5f7330	-0.05455321
247	0xbd7abfbc	-0.06121801
248	0xbda1c164	-0.078982145
249	0xbcae6363	-0.021287626
250	0x3e21cafb	0.15800087
251	0x3d802fdd	0.06259129
252	0xbc9b2905	-0.018940458
253	0xbd0e4ec3	-0.03474308
254	0x3e2c87ad	0.16848631
255	0xbbf7bca8	-0.0075603314

bias f4 [16]
0	0x3d4bd5d5	0.049764473
1	0xbcd84294	-0.026398934
2	0x3d25b517	0.040455904
3	0xbc12607b	-0.008934136
4	0x3d88fd0f	0.06688892
5	0x3d8ff926	0.07029943
6	0xba15af98	-0.00057100644
7	0xbd146f1d	-0.03623878
8	0x3cc2880d	0.023746515
9	0xbbd41f4f	-0.006473459
10	0x3da39fcb	0.079894625
11	0x3d0fadf5	0.035078008
12	0x3b6fa3ce	0.003656614
13	0x3c4b760c	0.012418281
14	0x3c6c79ba	0.014433319
15	0x3d8cbef0	0.06872356

weight f4 [19, 16]
0	0x3eebe927	0.4607632
1	0xbe6bb012	-0.23016384
2	0x3eb689c0	0.3565197
3	0xbe13ab0e	-0.14420721
4	0xbee6715f	-0.4500837
5	0xbe1014ed	-0.14070483
6	0x3d84d780	0.06486416
7	0x3ed6b49c	0.4193467
8	0xbdf3da57	-0.119068794
9	0x3ede407a	0.43408567
10	0x3e2509f8	0.16117084
11	0xbde4f1c2	-0.11178924
12	0x3e4eba56	0.20188269
13	0x3c81a719	0.015826749
14	0x3ec87a88	0.39155984
15	0x3e7a6d09	0.24455656
16	0x3d8fe8a5	0.07026795
17	0xbe0c3269	-0.13691105
18	0x3dfac316	0.12244241
19	0xbde8ae30	-0.11361349
20	0xbec1b97d	-0.3783683
21	0x3e3475cd	0.17623062
22	0x3ab399b6	0.0013702426
23	0x3e8afb76	0.27144974
24	0x3e76388b	0.24045007
25	0xbd38c20d	-0.045106936
26	0x3e7f4449	0.24928392
27	0x3c1a40e7	0.009414888
28	0xbcbafb82	-0.022825006
29	0x3e8f693e	0.2800998
30	0x3e01f418	0.1269077
31	0xbe5f2bdc	-0.21794075
32	0x3ce958a0	0.028484643
33	0xbc9e7957	-0.019344969
34	0x3ec69070	0.38782072
35	0xbe8fda5c	-0.28096282
36	0xbe148432	-0.14503554
37	0x3dd06e67	0.101773076
38	0x3e44e3aa	0.19227472
39	0x3d9fd8c0	0.07805014
40	0x3e21de2b	0.15807407
41	0x3c67dadc	0.014151301
42	0xbde563d9	-0.11200685
43	0x3e58c392	0.21168354
44	0x3dc09a95	0.09404484
45	0x3d7c38ec	0.061577722
46	0xbe56dba3	-0.20982222
47	0xbca6ea13	-0.020375287
48	0xbda991f4	-0.082797915
49	0x3e34d88a	0.17660728
50	0x3e9e3eec	0.3090738
51	0xbe8c1cda	-0.27365762
52	0xbe923d9f	-0.28562638
53	0x3ea4c2fa	0.32180005
54	0x3e757e2c	0.23973912
55	0xbe8dfd38	-0.27732253
56	0x3f2487e8	0.64269876
57	0xbdaecb38	-0.08534855
58	0x3e5489f9	0.20755757
59	0x3dd5f6f0	0.1044749
60	0xbe91a37c	-0.2844504
61	0x3f13dc55	0.57758075
62	0xbdc18cc7	-0.09450679
63	0xbf0948d1	-0.53626734
64	0x3e432da0	0.19060373
65	0xbd50a251	-0.050936047
66	0xbde2243a	-0.11042066
67	0x3d95f5a8	0.07322246
68	0x3d0e1344	0.034686342
69	0xbced9c91	-0.02900532
70	0x3e985293	0.297505
71	0x3e80691f	0.250802
72	0xbd00d6bd	-0.03145479
73	0x3ea42e33	0.32066497
74	0xbd8eea13	-0.0697824
75	0xbbad87ad	-0.005295715
76	0x3e182aba	0.14860049
77	0x3d93c2d2	0.072148934
78	0xbee1487a	-0.44000608
79	0xbd2f5f71	-0.04281563
80	0x3cb54327	0.022126747
81	0x3e0b689c	0.13614124
82	0xbc7402d3	-0.0148932515
83	0xbe08aa32	-0.13346174
84	0xbdb04818	-0.08607501
85	0x3d0d13ab	0.034442585
86	0x3ddf73b7	0.10910743
87	0x3ed9b320	0.42519474
88	0x3e65139c	0.22370762
89	0x3dffb8ee	0.124864444
90	0x3e314ea0	0.1731515
91	0xbd751d93	-0.059842657
92	0x3c6e7947	0.014555282
93	0x3e81a3a2	0.25320154
94	0x3e25cb25	0.16190775
95	0xbe21eebf	-0.1581373
96	0xbdb1d0f8	-0.08682436
97	0xbe06ee84	-0.13176924
98	0x3baeb0b0	0.0053311214
99	0x3e903641	0.28166392
100	0xbdd975cc	-0.10618171
101	0x3e02f7f3	0.12789898
102	0x3e81f5a5	0.25382724
103	0x3d64c0bb	0.055847865
104	0xbef892fe	-0.48549646
105	0xbeb86c47	-0.3602011
106	0xbf1190a0	-0.56861305
107	0x3e5c24bc	0.21498388
108	0x3e78f19e	0.2431092
109	0xbeaac5de	-0.33354086
110	0xbdbc944c	-0.09207973
111	0x3eb914fa	0.36148816
112	0x3e5734d8	0.21016252
113	0x3e272980	0.16324425
114	0x3eaffe56	0.3437373
115	0xbe6c6d2a	-0.23088518
116	0xbdba9f83	-0.09112456
117	0x3d55849d	0.052128423
118	0x3e828583	0.25492486
119	0x3e442608	0.19155133
120	0x3e6577fe	0.22409055
121	0xbd908617	-0.070568256
122	0xbd93d4a0	-0.072182894
123	0xbbd1fbde	-0.0064081987
124	0xbdbd8e35	-0.092556395
125	0x3dea3a80	0.11436939
126	0x3e1567cd	0.14590378
127	0xbdd5a1eb	-0.10431274
128	0x3d0d3cc2	0.03448177
129	0x3e678f37	0.22613226
130	0x3de7bfc2	0.11315872
131	0xbea0a528	-0.31376004
132	0x3df96b1f	0.12178635
133	0x3d204fd0	0.039138615
134	0x3e1e2fbd	0.15447898
135	0xbdb2258f	-0.0869857
136	0xbdd7a798	-0.10530013
137	0x3ebd5443	0.3697835
138	0x3d7e71c2	0.062120207
139	0xbde7fcf8	-0.11327547
140	0xbe80d40c	-0.2516178
141	0xbd2f0b90	-0.042735636
142	0x3e559ae4	0.20859867
143	0x3e1b45fc	0.15163416
144	0xbd53a47c	-0.051670536
145	0x3e64a824	0.22329766
146	0x3e967289	0.29384258
147	0xbe35d197	-0.17755733
148	0x3e992ea3	0.29918393
149	0xbd4f4e51	-0.050611798
150	0xbdeec613	-0.116588734
151	0x3e41ac88	0.18913472
152	0xbd9d28a8	-0.0767377
153	0xbdb36b7b	-0.08760735
154	0xbeb55a63	-0.35420522
155	0x3e999bae	0.30001587
156	0xbe9a047e	-0.30081552
157	0xbdfc13eb	-0.123084866
158	0xbe13715e	-0.14398715
159	0x3e8a457e	0.27006143
160	0xbc81e7fd	-0.015857691
161	0x3ec945a1	0.39310935
162	0xbcb6fa3d	-0.02233612
163	0xbd5bf9b6	-0.05370494
164	0x3c02d975	0.007986416
165	0xbdc11ef4	-0.09429732
166	0xbbb524cd	-0.0055280686
167	0xbddb89cf	-0.10719644
168	0xbdd6acef	-0.10482203
169	0x3e89d9f5	0.269241
170	0x3d7d3d3a	0.06182597
171	0x3d58ce35	0.05293103
172	0x3e0787d8	0.13235414
173	0xbde99ecf	-0.114072435
174	0xbd39a556	-0.045323692
175	0x3db8aa01	0.09016801
176	0xbda7daca	-0.081960276
177	0x3d932c68	0.07186204
178	0x3c9b9b04	0.018994816
179	0xbe508cac	-0.20366162
180	0x3ce15e74	0.02751086
181	0x3e78a178	0.24280345
182	0xbe5aeae6	-0.21378669
183	0x3df3c48b	0.11902722
184	0x3e103ff2	0.14086893
185	0xbd8258aa	-0.063645676
186	0x3e2090e9	0.15680279
187	0xbe7d8c3d	-0.24760528
188	0xbed57f84	-0.4169885
189	0x3dbd68a8	0.09248477
190	0x3e9c1bb0	0.30489874
191	0xbc0fc9ed	-0.00877617
192	0xbd48ee07	-0.049055126
193	0xbe3864ef	-0.18007253
194	0x3dcc5081	0.099762924
195	0x3e89e347	0.2693121
196	0xbea9aa72	-0.33137852
197	0x3da04ad1	0.0782677
198	0x3ca4b7b4	0.020107128
199	0x3e9808af	0.29694125
200	0x3ef5a902	0.47980505
201	0x3eb1f608	0.3475802
202	0x3e2cba5f	0.1686797
203	0x3deb7ba7	0.11498194
204	0xbdf2a5a9	-0.118480034
205	0x3d30fa3b	0.04320739
206	0x3dc4806b	0.09594806
207	0xbed12511	-0.40848592
208	0x3d745961	0.05965555
209	0xbee8a277	-0.4543645
210	0xbe0931f8	-0.13397968
211	0x3f258dac	0.646693
212	0xbde38680	-0.11109638
213	0x3cb0cb11	0.021581205
214	0x3eb803bc	0.3594035
215	0xbd6084d1	-0.054814164
216	0x3ed80694	0.4219252
217	0xbe1d6484	-0.15370375
218	0x3e36ca4a	0.17850605
219	0xbefac018	-0.4897468
220	0x3ce6b46f	0.02816221
221	0x3e09d9ec	0.13462037
222	0xbe410c18	-0.1885227
223	0xbe4aabbf	-0.19792078
224	0x3e92cdb4	0.28672564
225	0xbe7051ac	-0.23468655
226	0x3cb6b1ca	0.022301573
227	0xbe3859b9	-0.18002976
228	0xbdf24ed2	-0.1183144
229	0xbe0a274e	-0.13491556
230	0x3e8b1c71	0.27170137
231	0xbdd6bfde	-0.104858145
232	0x3ca5f72d	0.020259464
233	0x3ea05394	0.31313765
234	0xbd5c775f	-0.05382478
235	0x3e4d6320	0.20057344
236	0x3eaea6a4	0.34111512
237	0x3d2d75bc	0.04234861
238	0x3dc764ee	0.09736048
239	0xbe78c4f4	-0.24293882
240	0x3ea545d6	0.32279843
241	0xbec4c72b	-0.38433203
242	0x3d3a86a3	0.045538556
243	0xbaa45d71	-0.0012540055
244	0xbe5c843e	-0.21534821
245	0x3d174cbb	0.03693841
246	0xbe35731d	-0.17719693
247	0xbe886102	-0.2663651
248	0x3df09a2e	0.117481574
249	0xbe2dcf88	-0.16973698
250	0x3d2647f9	0.040595982
251	0x3d8dc92d	0.06923137
252	0xbdb1f51a	-0.086893275
253	0x3e527fa8	0.2055651
254	0xbeb188b3	-0.34674606
255	0xbd872e00	-0.06600571

bias f4 [19]
0	0x3cbd21ab	0.023087343
1	0xbe169bda	-0.1470789
2	0xbdba6939	-0.09102101
3	0x3c1d617b	0.009605761
4	0x3dd081d7	0.10181015
5	0x3d20a730	0.039221942
6	0x3e672d8c	0.22575969
7	0x3d8f2fcd	0.06991539
8	0xbe03cc1e	-0.12870833
9	0xbe02789b	-0.1274132
10	0xbdf5b74c	-0.11997852
11	0x3c07410d	0.008255255
12	0xbcdfa791	-0.027301582
13	0x3e50a249	0.20374407
14	0xbcccfc0f	-0.025022535
15	0x3e025881	0.12729074
16	0x3e1053c1	0.1409445
17	0xbd8be495	-0.06830708
18	0x3cf95f5f	0.030440984
