models/a19lds19b0.007g1d0.8h13.pt (torch, 126679 bytes, 26 tensors)

weight_ih_l0 f4 [52, 4]
000000 66 ae 3b be c2 d2 ad bb 1c 40 4a 3d b4 8e 93 be
       -0.18328246 -0.0053046653 0.049377546 -0.2881981
000010 4a a0 da be ed a4 16 3f 93 90 24 3c 68 56 cb be
       -0.42700416 0.58845407 0.010044235 -0.3971436
000020 ce 1a 9c be 24 be 20 3e c7 0b 85 bd aa be ed bd
       -0.304892 0.15697533 -0.06496387 -0.11608632
000030 59 81 0e 3e a9 ff 40 be 46 27 47 3e e7 59 fc bd
       0.1391653 -0.18847527 0.19448575 -0.12321835
000040 fb c2 ac 3e 0f a3 76 bd 0c 37 ff 3e b7 ea 34 3f
       0.33742508 -0.0602141 0.49846685 0.70670646
000050 aa 82 87 be f5 82 43 3e f9 61 92 be 5e 58 a9 3d
       -0.26466876 0.19092925 -0.28590372 0.08268808
000060 18 20 87 bd d8 a6 be 3e ab 08 d2 3d 25 d3 b0 3e
       -0.06597918 0.37236667 0.102555595 0.3453609
000070 4b c6 8a 3e 6a 2b 08 3f a2 40 13 3e 9d 45 04 3d
       0.2710441 0.53191245 0.14380124 0.03229295
000080 88 5d 51 3d 32 e0 08 bf 03 ac 68 bd d2 a9 f2 3e
       0.05111459 -0.53467095 -0.05680467 0.47395188
000090 52 36 45 3d 9a 2e 48 3f 62 ba e7 3c 1b 3c ef 3e
       0.048147507 0.7819611 0.028287116 0.46725544
0000a0 bf 11 93 3e a0 43 26 3e c2 79 b1 3d 04 6d 04 3e
       0.28724477 0.16236734 0.086658016 0.12932211
0000b0 56 e4 04 bd 2d 4a a8 3d cd ad 2d 3e 03 00 0b 3e
       -0.03244432 0.08217273 0.16960831 0.13574223
0000c0 af 8e 11 3d 57 6a 47 3e 7d e9 2a bd 57 26 f9 3e
       0.035536464 0.19474159 -0.041726578 0.48662063
0000d0 99 0e f3 3d 6f b8 98 3e d4 66 f4 3e f9 4e 69 3e
       0.11868019 0.29828212 0.47734702 0.22784032
0000e0 dc ff 76 be d8 d1 06 3f ec 7b 99 3e 7f 53 22 3e
       -0.2412104 0.52663946 0.29977357 0.15852164
0000f0 16 52 e8 3c a3 bd ab bd 2e bd 96 3c 96 04 db 3c
       0.028359454 -0.0838578 0.018400755 0.026735585
000100 5a 26 d9 be be bd 5d 3e 23 f4 00 be d9 da f2 3d
       -0.42412072 0.21654412 -0.12593131 0.11858148
000110 3c 34 7d bf 14 9d 6e 3e 8c 5e c8 3e 11 d2 d2 bd
       -0.9890783 0.23302108 0.39134634 -0.10293973
000120 94 e1 a5 3e f5 be 8c 3d 93 31 2f be 98 42 be 3e
       0.32398665 0.0687236 -0.17108755 0.37160182
000130 e6 ed d4 3e c6 13 47 be 21 8b 42 be e4 fc a8 3d
       0.41587752 -0.19441137 -0.18998386 0.0825136
000140 e4 31 eb 3e 2f 57 a6 3e 85 07 00 3e aa b5 94 be
       0.459365 0.3248839 0.12502868 -0.2904485
000150 40 f0 af be ef af e0 be 7b 1e 58 be dd 02 77 3e
       -0.34362984 -0.43884227 -0.21105377 0.24122186
000160 43 67 c9 be 87 b7 2d 3f ac 33 7a 3e 76 4a 9e be
       -0.39336595 0.67858166 0.24433774 -0.30916184
000170 5f ae 14 3e dc 3f 41 3e 36 61 2d 3d d8 f2 fe 3d
       0.14519642 0.18872017 0.042329036 0.124486625
000180 15 75 fd 3d 1e e9 77 be 46 d9 7c 3e c9 f5 b6 3e
       0.12375847 -0.24210021 0.24692258 0.35734394
000190 fd d4 ba be f1 96 ec be f0 e5 10 3f 3d 30 e0 bd
       -0.36490622 -0.4620891 0.56600857 -0.10946701
0001a0 ac 5b 6a bd b6 a6 ef bd 81 22 83 3c cd 7b aa 3d
       -0.05721633 -0.117017195 0.016007664 0.083243944
0001b0 5f c0 f4 bd ff f9 f5 be 3c fa 99 be de 26 85 3d
       -0.119507544 -0.48042294 -0.30073726 0.06501554
0001c0 69 ac 06 3e e4 7d 03 be ce 24 82 3e 73 39 4a 3d
       0.13151707 -0.12840992 0.25418705 0.049371194
0001d0 99 e3 d5 3e 8d 35 1d 3d 83 31 03 bf 5c ef a9 be
       0.41775206 0.038381148 -0.51247424 -0.3319043
0001e0 95 5d 89 bd cc 3c eb 3c cb 65 2c 3f e1 9f 98 be
       -0.067073025 0.028715514 0.67342824 -0.29809478
0001f0 1c e5 a3 3e 73 c8 57 bc e4 76 b1 be b0 34 30 bc
       0.32010734 -0.013170349 -0.3466102 -0.010754749
000200 6b 16 34 3e c3 fc 06 bf be 8b 54 bd d2 cd 72 be
       0.17586677 -0.52729434 -0.05189108 -0.23711327
000210 38 cc 93 bd a9 a6 8e be 5b 39 9c be 2e af a7 3e
       -0.07216686 -0.27861527 -0.3051251 0.3275084
000220 b3 35 76 3c f8 48 12 be b1 00 5c bd f4 33 0d 3f
       0.015027451 -0.14285648 -0.053711597 0.551574
000230 7a c3 c4 bd 6f ca b0 3e 33 d2 1b 3e 28 11 90 bd
       -0.09607597 0.34529445 0.15216903 -0.07034522
000240 31 48 89 3e de fe 98 3e 74 23 e5 bd 27 52 fd 3e
       0.2681289 0.29881948 -0.11188403 0.4947674
000250 ec 4a f9 3b 69 01 b3 bd 56 fc b3 3e 77 0e 8a 3d
       0.0076078083 -0.08740503 0.35153455 0.0674104
000260 7a 6d 2f be c4 ee fb be 2b 62 34 3d 95 65 72 3c
       -0.17131606 -0.492056 0.044038933 0.014794727
000270 36 74 82 3d cf 6f ed 3d bb f7 4e 3d d8 ab 95 3e
       0.06369822 0.115935914 0.050529223 0.2923267
000280 61 af 1d be ee f0 25 3e cf c7 81 be 29 87 3b 3e
       -0.15398933 0.16205189 -0.25347754 0.18313278
000290 ff c9 79 be ac 3b 23 3e 5e 8a ae 3e e7 8c 6d 3d
       -0.24393462 0.15940732 0.3408994 0.057995703
0002a0 be ac d4 bd 29 fa e9 3e a8 1c 31 3f f5 b0 fd bd
       -0.103845105 0.4569867 0.6918435 -0.123872675
0002b0 c2 0f 5d bd 7c 7f 81 be 65 21 40 3e 24 d8 b8 3e
       -0.053970106 -0.25292575 0.18762739 0.36102402
0002c0 dd 33 ac 3e fc d7 de be 4d bc c2 3e 2b cd a0 be
       0.3363332 -0.43524158 0.38034287 -0.3140653
0002d0 d1 6e 82 3e 65 3c 5a 3e 6c 19 1f 3c 9d 99 43 bc
       0.2547517 0.21312101 0.009710651 -0.01193848
0002e0 b4 3f 92 be e8 3b 82 3e cc ac f0 3d 21 ca ca bd
       -0.28564227 0.2543633 0.117517084 -0.09901834
0002f0 c4 7d 7d bd 8d b6 3d be 4b fa ab bd 6f dd d7 3e
       -0.061887518 -0.18526669 -0.08397349 0.42161128
000300 c3 41 be 3d 1b f1 b0 3b 56 07 ec 3e 05 67 a4 be
       0.09289887 0.0053998358 0.46099347 -0.32109848
000310 27 10 01 be d2 fe 42 bd 3b f8 9e 3d aa 5e f3 bd
       -0.12603818 -0.047606297 0.0776219 -0.1188329
000320 01 62 5e 3e 3a 7d 45 bd d2 6f aa bd 2c 90 80 be
       0.21717073 -0.04821513 -0.08322109 -0.25109994
000330 ac ba be 3d 20 59 9d be 9f c4 17 3e 95 db 25 be
       0.093129486 -0.3073206 0.14821099 -0.16197045

weight_hh_l0 f4 [52, 13]
000000 35 4f cf bc 9f 6b 08 be 20 6e d1 3d 8e 23 6f be
       -0.025306324 -0.13322304 0.10226083 -0.23353407
000010 39 1f c1 3d 54 bf 64 bb 21 f0 aa be f7 8a b3 be
       0.094297834 -0.003490408 -0.3338633 -0.3506696
000020 ce 83 0c bc db 45 8e 3e 51 b8 99 be 0a bd 72 3d
       -0.008576347 0.2778767 -0.30023435 0.059262313
000030 3c 04 f8 bd 3b 78 b2 3d 7e c9 50 3e f2 46 99 3c
       -0.12110183 0.087143384 0.20389363 0.018710587
000040 fe c2 91 be 17 3f 0b 3e fa cf 10 3d 37 81 c9 be
       -0.2846908 0.13598286 0.035354592 -0.39356396
000050 6c 1f 04 3e 23 50 bc be b0 12 92 3e 01 be 13 3e
       0.12902611 -0.3677989 0.28529882 0.1442795
000060 b9 dc b7 bd dd 5a 1b be 27 b8 79 3e 05 91 be be
       -0.089776464 -0.1517138 0.24386655 -0.37220016
000070 80 9c 01 bc be 1f 72 be 70 0a 29 3d cd 56 ca be
       -0.007910848 -0.23644921 0.04126972 -0.3951935
000080 77 6a ce 3d e0 fe 5b 3d 09 5a 88 3d 1f d4 bc bc
       0.100789 0.053709865 0.06657798 -0.023050366
000090 d5 7f be 3e f7 17 39 3e bc fd 6f 3e b7 b4 56 be
       0.37206903 0.18075548 0.23436636 -0.20967375
0000a0 ac d0 0d bf 16 54 a6 3d 47 62 af be df 02 0d 3f
       -0.55396533 0.08121507 -0.34254667 0.55082506
0000b0 5b 71 e9 be 9e 85 ad be 3a af 35 be d5 61 84 bf
       -0.45594296 -0.33891004 -0.17742625 -1.0342356
0000c0 4e f6 d4 3e 6a 39 f3 3d 13 db 23 3d 16 ea 22 bd
       0.41594166 0.11876185 0.040003847 -0.039774023
0000d0 25 60 07 be 6f ec a5 be 2b 24 10 3f de b2 c6 be
       -0.1322027 -0.32406947 0.5630519 -0.3880834
0000e0 ea f3 d1 3e 4a 8c 95 bd 8b e6 ad bc 54 30 7c be
       0.41006404 -0.07302149 -0.021228096 -0.2462781
0000f0 e1 0f 11 bd a7 f5 46 3e 0b fd 9c 3d 2b a9 55 3e
       -0.035415534 0.19429646 0.076654516 0.20865314
000100 c5 f6 e6 3e 06 41 9b bc 35 d6 40 3e 71 32 32 be
       0.45110145 -0.018951904 0.18831713 -0.17402054
000110 a1 f6 27 3e 64 e2 ae 3d 47 b7 dc 3c c4 ac 52 bd
       0.16402675 0.08539274 0.026942862 -0.051434293
000120 78 07 f8 be 65 f8 21 be 7d 65 c0 3d d4 89 47 bd
       -0.48443198 -0.15817411 0.09394357 -0.048715428
000130 1d 4f 9e be 8e 3a 32 be cb 3c 9f 3d 35 10 01 bf
       -0.30919734 -0.1740515 0.07775267 -0.50415355
000140 3c 64 91 3e f1 88 f9 be b7 b9 f6 3e e3 bc 22 be
       0.28396785 -0.4873729 0.48188564 -0.15892367
000150 ba 4e 0f bf 0b 3c 2e bf 1c 92 48 bf 89 dc 9b 3e
       -0.559795 -0.6806037 -0.78347945 0.30441692
000160 10 a1 f7 3e ac 46 07 3e 47 ef 0c 3f 88 25 42 be
       0.48365068 0.13210553 0.5505261 -0.1895963
000170 4a 57 98 bc d6 9a 78 be 50 b3 47 3d ee 21 2d bd
       -0.01859631 -0.24277815 0.04875499 -0.042268686
000180 cd ff ac 3e 2c c3 b2 be 8c 00 16 3c 99 83 08 bf
       0.3378891 -0.3491453 0.009155404 -0.533258
000190 c2 67 06 be 72 80 db 3d 2f 7f b7 3e b4 ae a9 bd
       -0.13125518 0.107178584 0.3583922 -0.08285275
0001a0 c3 e9 4a 3d 23 05 5c 3c f9 03 c1 3c aa 5a d2 3d
       0.04953934 0.013428959 0.023561465 0.10271199
0001b0 a6 b4 3e be 53 c8 bc 3e 41 cc 13 3f c0 82 93 3e
       -0.186236 0.36871585 0.5773354 0.28810692
0001c0 18 b8 35 bd 14 7f 48 be 1a 86 8b be ee c7 17 3e
       -0.04436502 -0.19579726 -0.2725075 0.14822361
0001d0 56 d0 4c bb b5 27 b2 3d 61 61 04 3c e0 bd a4 be
       -0.0031252108 0.0869898 0.008079858 -0.32176113
0001e0 2b 98 20 be b4 8b 0d 3d a5 da 93 be 14 b0 e0 be
       -0.15683047 0.03455706 -0.2887775 -0.43884337
0001f0 d8 c8 6e 3e b6 95 33 bd f3 29 02 3d 6c ce 36 3e
       0.23318803 -0.043843947 0.031778287 0.17852181
000200 e2 f3 e2 bd 64 94 93 3b dd ae ac 3d 3e 3b ac be
       -0.11081673 0.0045037735 0.0843179 -0.33638948
000210 b5 d7 2b be 92 f6 8a bd 60 93 d4 3d 2c b5 98 bd
       -0.16781504 -0.06785311 0.10379672 -0.07456431
000220 ae f4 88 3d 13 c5 40 ba fa 8b 57 bd 3a a0 67 3e
       0.06687294 -0.0007353585 -0.052623726 0.22619715
000230 9c 04 4b bd 0a fa 2b 3d 66 3e a2 3e 10 9f 91 bd
       -0.049564943 0.041986503 0.3168823 -0.07110417
000240 fc a8 19 3d 6d 81 86 3d 9b a2 ee 3d 5f d6 bb 3d
       0.03751467 0.06567655 0.11652108 0.091717474
000250 84 86 b8 3d 15 91 4e 3e dc 5d 12 3e 6f 71 d9 be
       0.09010032 0.20172532 0.14293617 -0.42469355
000260 af 69 fe 3e 33 61 4c be 89 d9 1b 3e 16 2a ae 3e
       0.49690005 -0.19958954 0.15219702 0.34016484
000270 e9 a2 7f 3e a7 86 98 3d 93 34 c3 be c4 a1 46 be
       0.24964489 0.07447558 -0.38126048 -0.19397646
000280 c7 07 9d 3d 0c 63 c8 bd 3c 18 d7 3d e5 3b 45 be
       0.07667499 -0.09784517 0.10502669 -0.19261129
000290 4c cf ad 3e d3 3c c7 bc 6e 04 3d be 04 b1 50 bd
       0.33947217 -0.024320995 -0.18458721 -0.050950065
0002a0 34 02 ae 3e 07 d8 6d bd 9b 81 12 bd a7 74 da bd
       0.33986056 -0.058067348 -0.035768133 -0.10666781
0002b0 b4 65 a5 be fe ac fa 3d 0f 91 ca bd 7d 8a 10 3e
       -0.32304156 0.12240027 -0.09890949 0.14115329
0002c0 fc 75 18 be fc 16 e8 bd 2f 0b 0e 3d a0 ac 58 be
       -0.14888757 -0.11332509 0.034678634 -0.21159601
0002d0 d2 9a 06 3e ac 6c ef 3d ab 7d a9 be 34 68 34 3e
       0.13144997 0.116906494 -0.3310369 0.17617875
0002e0 e1 36 dc 3d f1 67 a4 be 12 03 de bd e8 b7 bf be
       0.10752655 -0.3211055 -0.10840429 -0.37444997
0002f0 6f f9 fb bd fd 69 aa 3d 4f ff a2 bc 95 ae 00 be
       -0.12303435 0.08320997 -0.019897131 -0.12566598
000300 fd 46 93 3e a9 03 3b 3e 41 9b 3c 3d c3 14 6a 3d
       0.28765097 0.18263115 0.0460465 0.057148706
000310 c7 84 6a bd 7e f8 ea 3e bf ec 95 bd ba f8 b4 bd
       -0.057255533 0.4589271 -0.07320546 -0.08836503
000320 5f 16 8c 3e 3d c6 67 bd 34 7c 38 be 87 4b 9b be
       0.27360818 -0.05658554 -0.1801613 -0.3033106
000330 4a 3f 2f 3e 16 14 8f 3d 96 55 97 3e 10 ab 98 3e
       0.17113987 0.06986253 0.29557484 0.2981801
000340 a8 f0 4e 3d db 25 82 bd 33 d1 1e be a2 a9 ee 3d
       0.050522476 -0.063548766 -0.1550949 0.11653449
000350 8a e1 08 bf ae 9e 17 3e 73 0e 08 bf bf 97 94 bc
       -0.53469145 0.14806625 -0.5314705 -0.018138764
000360 0f 54 4d be 7f 62 a6 3e 11 38 22 3e 15 de 50 3e
       -0.20051597 0.32497022 0.158417 0.20397218
000370 20 da 9e bd bf 83 a5 bd 47 97 fa bd a4 6a a0 bd
       -0.07756448 -0.08081769 -0.12235885 -0.0783284
000380 ec 6e 7a bd 17 8d be bd d0 7e 8c be c0 7b 53 3e
       -0.06114094 -0.093042545 -0.274405 0.20652676
000390 43 0a aa 3c e6 61 12 3e 4d 36 95 be f7 7d 9d 3d
       0.020756846 0.14295158 -0.2914299 0.076900415
0003a0 19 80 8e 3e 12 ab 0e 3f de 6c 91 3e 7d 85 2d be
       0.27832106 0.5572978 0.28403372 -0.16945453
0003b0 d0 be 38 be 38 c5 0e 3f 33 ae 1f bd 30 68 0c be
       -0.18041539 0.5576968 -0.03898449 -0.1371162
0003c0 31 63 d4 be 26 a1 ef 3d cb 87 e1 bd 81 6c 9a 3d
       -0.41481927 0.117006585 -0.110122286 0.07540227
0003d0 ad 97 e0 3d 4b 87 86 3e fa b6 2b be c7 04 c5 be
       0.1096643 0.26275095 -0.16769019 -0.38480207
0003e0 24 35 5e be b5 b4 5f 3e 1b f0 1b bf 6f 5b 73 be
       -0.21699959 0.21846278 -0.60913247 -0.23765348
0003f0 a1 ea a0 be a1 dd 32 bf d9 61 63 be 15 74 45 bf
       -0.31429008 -0.6986943 -0.22205295 -0.7713025

bias_ih_l0 f4 [52]
000000 20 15 6d 3d 44 bd ae 3e c5 99 38 3e 29 0a d7 3d
       0.057881474 0.34128773 0.18027408 0.10499985
000010 a9 43 a0 3e ff b2 61 3d d4 4b 5a 3e 0d f8 1d 3e
       0.3130162 0.055102345 0.21317989 0.15426655
000020 ff e1 b6 3e 76 81 92 b9 34 bf 36 be d1 6b fa 3d
       0.35719296 -0.00027943746 -0.17846376 0.122275956
000030 9e 73 22 3d f8 68 aa 3e 80 cb 5f 3d 0c b4 c5 bc
       0.039661042 0.3328321 0.054637432 -0.024133705
000040 32 3c ac bd 72 6c 1f be 63 e9 83 3e e1 69 da bd
       -0.08409919 -0.15568712 0.25763997 -0.10664726
000050 81 cb 84 3e fb 28 9c be 53 cd 54 3e e1 bf 12 3e
       0.2593651 -0.30500016 0.2078145 0.14331008
000060 bb 7e 66 be 1b 74 4f be b4 34 58 3c d4 ee 0e be
       -0.22509281 -0.20259134 0.013196159 -0.13958293
000070 df 3c 0b 3d b7 3b 97 be e2 c9 40 3e e6 da 1f be
       0.033993598 -0.29537746 0.18827012 -0.15610847
000080 62 cf a3 be 6f e6 60 be 3c a7 ea bd 9b a7 9e 3e
       -0.31994158 -0.21962903 -0.11457679 0.30987248
000090 83 ad 55 3e 5c 28 13 3e 77 77 67 3e b1 02 53 be
       0.2086697 0.14370865 0.22604166 -0.20606495
0000a0 b3 03 44 3e eb 50 a3 3e da ef 90 3e 6c 59 b2 3b
       0.19142036 0.31897673 0.28307992 0.005442789
0000b0 46 6d 7e 3c ab 8e de 3d b9 92 8c 3e 9c cc 98 3e
       0.0155289825 0.108670555 0.2745569 0.29843605
0000c0 5c 77 ad 3e 8d c4 b4 3d d1 fa 78 3e a1 8e 68 3e
       0.33880126 0.088265516 0.24314429 0.22710659

bias_hh_l0 f4 [52]
000000 23 b9 8c 3e d2 f8 5c 3e 74 0e 8a 3e ca 3b 42 3e
       0.27484998 0.21579292 0.26964152 0.1896812
000010 37 35 e9 3e aa 3e 35 3e 43 bb ff 3c e2 a3 06 bc
       0.45548412 0.17699686 0.031217223 -0.008217784
000020 5b d5 29 3e 7b d4 69 3d 55 09 33 bd 8b b3 97 bd
       0.16585295 0.057087403 -0.04371007 -0.07407292
000030 77 bc 92 3e ba 93 57 3c 3c d2 92 3e d8 5a 0b bc
       0.28659412 0.013157779 0.2867602 -0.008505546
000040 db e0 75 bd 7b db e4 bd c4 02 01 be c6 00 3c 3e
       -0.060028892 -0.11174675 -0.12598711 0.1835967
000050 f9 92 94 3e d8 92 55 be ad 0c d1 ba 71 08 3c be
       0.2901838 -0.20856798 -0.0015949212 -0.18362595
000060 09 82 c7 bb 82 d1 9f 3e 73 e8 89 be fe 1b ac 3d
       -0.0060884994 0.3121453 -0.26935157 0.084037766
000070 e4 d0 52 3e 7b 3e 81 3d f8 d6 f2 bd 4d e4 26 3d
       0.20587498 0.06310745 -0.11857408 0.04074507
000080 8b 2a 33 3e 0f 4f a7 bd 98 8b 2a 3e 8c 77 bf 3d
       0.17496698 -0.08169376 0.16654813 0.09348974
000090 e3 f7 99 3d 79 4f a8 3d 25 45 76 3e 6e 7b 86 3d
       0.07517984 0.08218283 0.24049814 0.06566511
0000a0 a3 bf 78 3e a6 83 2c be 94 72 82 3e 76 a1 ad bc
       0.24291854 -0.16847095 0.2547804 -0.021195155
0000b0 3c 22 19 3e 3a 20 e8 3c 86 41 af bd 56 7e 9a 3d
       0.14954466 0.02833568 -0.085574195 0.07543628
0000c0 e8 dc 61 3e 58 dc 3c 3e 05 ad 2a bb c9 e5 94 3e
       0.22056925 0.1844343 -0.002604307 0.29081562

weight_ih_l0_reverse f4 [52, 4]
000000 cc 3e 4b be 51 53 71 be cc 90 92 3e 95 30 1a 3e
       -0.19848174 -0.23566939 0.28626096 0.15057595
000010 14 fd 10 3f 9c cf fe 3c f4 0a 72 3e 6a f8 4d 3e
       0.56636167 0.031104855 0.23636991 0.20114294
000020 d4 d4 24 3e 8b ea b2 3e e4 15 09 3f 97 2c a8 be
       0.16096812 0.34944567 0.5354903 -0.3284652
000030 c0 c0 0b 3e 1d e2 6e 3d 72 b6 e5 3d d6 02 c9 bd
       0.13647747 0.058321107 0.11216439 -0.09814994
000040 a1 05 3e be ea 7f e6 3e ab 2a 21 3e 86 dd 08 3e
       -0.18556835 0.45019466 0.15738933 0.13365754
000050 f0 3d c9 3e 4c a3 ba bc ef 3a de 3e de ec 19 3d
       0.39305067 -0.022782944 0.43404338 0.03757941
000060 a2 08 a4 bd 9f f0 81 be e2 c5 23 be 7f 36 1c be
       -0.08009459 -0.25378892 -0.15993455 -0.15255164
000070 fb f8 44 be 8c 1c 2d be 87 49 63 3f 99 93 84 be
       -0.19235604 -0.16905421 0.8878407 -0.25893858
000080 09 49 a5 3d 6a 6c 89 3d 57 5a 07 3e 42 eb 15 3e
       0.08070571 0.067101315 0.13218056 0.14640525
000090 7a 09 a9 be c1 3e 6d be 36 93 6d 3d c7 fc 34 3e
       -0.33015043 -0.2316847 0.05800172 0.17674552
0000a0 e3 4c 9b 3d d5 f7 7a 3e 05 50 c9 bc f8 e3 c4 3c
       0.07583024 0.24508603 -0.02457429 0.024034485
0000b0 a4 1b 9c 3e 4f 94 5a be 3a 76 be 3e 2a 93 65 3f
       0.30489838 -0.21345638 0.37199575 0.8967768
0000c0 8a ad ff 3d ef 01 a5 3c b5 39 c6 3d ac 12 13 3e
       0.12484272 0.020142524 0.096789755 0.14362592
0000d0 28 e0 c3 3d 3f c1 42 3d 7e f4 e7 bd f1 8e 0d 3d
       0.09564239 0.047547575 -0.1132593 0.034560148
0000e0 3f 77 0a 3f 61 8b e2 bd ff c1 96 3e 86 80 7f 3e
       0.54088205 -0.11061741 0.29444882 0.24951372
0000f0 2d 5e 0c 3e be f1 93 3e 32 e3 6c be 57 97 0b 3d
       0.137078 0.28895372 -0.23133543 0.034079876
000100 9c fe 60 3e 5d 76 12 be 8a b7 c7 3e 16 92 a2 3e
       0.21972126 -0.14302965 0.39007217 0.3175208
000110 72 98 58 be e9 40 c3 bc aa c8 04 3f 8a 1d 1e be
       -0.21151903 -0.023834663 0.5186869 -0.15440956
000120 4b 76 5e 3e 13 67 a2 3e 78 0e 07 3c b7 13 b2 3e
       0.21724813 0.31719264 0.008243196 0.34780666
000130 3f fb 82 3e 5b 80 b4 bd 08 55 6c 3d 1f ed b3 3e
       0.2558231 -0.08813544 0.05769828 0.35141847
000140 b8 f9 25 bf 71 6a 54 3e 59 6e af 3d 57 4f c4 3d
       -0.64834166 0.20743729 0.08565969 0.095854454
000150 96 dc bc be 27 74 76 be 96 22 57 bd cd 57 e5 bc
       -0.36887044 -0.24067746 -0.052523218 -0.027995968
000160 d9 6d d1 3e 82 21 85 bd e2 f3 d4 3e f0 dd 0a 3e
       0.4090412 -0.06500532 0.41592318 0.13561225
000170 6d 88 d0 3d 89 50 0c be 3b 81 46 be c2 3d 72 3d
       0.10182271 -0.13702597 -0.19385235 0.059140928
000180 8b c1 63 3c 5b ad ac be c2 e9 29 be b0 89 1a 3e
       0.013901125 -0.3372601 -0.16593078 0.15091586
000190 db bb 21 3f d1 39 3f 3d 0d d4 20 be 83 e2 c9 3d
       0.6317727 0.046685997 -0.15705891 0.09857657
0001a0 49 b5 b6 3e e8 a9 80 be aa 79 b3 be c2 90 81 3d
       0.35685185 -0.25129628 -0.3505376 0.063264385
0001b0 33 23 29 3e 24 11 91 3e 8f 8a cc bd d0 28 be be
       0.16517334 0.2833339 -0.099873655 -0.37140512
0001c0 ac 6d 4e bf c9 82 e3 3d a2 64 95 3e d6 c2 30 3d
       -0.80636096 0.1110893 0.2917834 0.04315456
0001d0 1d f4 20 3e cc 3f 58 3e 75 e7 c9 be 31 ea ae 3e
       0.15718122 0.21118087 -0.394344 0.3416305
0001e0 b3 e4 af 3d 7a ee c2 be 0e 1f c5 bd 87 2a 2c bd
       0.08588543 -0.38072568 -0.09625064 -0.042032745
0001f0 88 dc b9 3e 30 cb 37 be 4b c7 3f 3e a8 3e a1 3d
       0.36301064 -0.17948604 0.18728368 0.07873279
000200 ba 7b 59 bd 8a 12 6f 3c 0a 20 0c be e2 e4 43 be
       -0.05309651 0.014591822 -0.13684097 -0.1913028
000210 77 c8 82 3e f2 9e 90 3e df 19 d3 be 42 ac 01 bd
       0.25543568 0.28246266 -0.41230676 -0.03165842
000220 93 26 08 be 67 d7 c3 be 5a 21 38 3e 13 89 cc 3e
       -0.13295965 -0.38250276 0.17981473 0.3994833
000230 3b 36 c4 be 87 4b f2 be b4 ef 19 3d 62 df ba 3c
       -0.38322625 -0.47323248 0.037582114 0.022811595
000240 7a c0 41 be ec 6a 03 be 1d 9e 84 3e 6a 4b 88 bd
       -0.1892108 -0.12833756 0.2590188 -0.06655009
000250 61 00 b9 3e ea 6d 2a 3e 21 7f b1 3d 8d 79 13 bb
       0.36133102 0.16643491 0.08666826 -0.002250287
000260 2b a0 71 be ac 0b c6 3e a5 c4 bd 3d ac 6d ae bd
       -0.23596255 0.3868078 0.092660226 -0.08517012
000270 40 60 a4 3e fd 4d e9 bd db 5c 3e 3e 7e f0 a8 bd
       0.32104683 -0.11391828 0.18590109 -0.08248995
000280 4b cf 04 3f 36 49 db bd 66 c8 0a bd 7b 85 e4 3b
       0.51878804 -0.10707323 -0.03388252 0.00697392
000290 d5 5e ac 3e 48 fa 28 3e 34 c7 16 be bc 6e 13 3e
       0.336661 0.16501725 -0.14724427 0.1439771
0002a0 2f b6 7f be ae 1b 94 3e 46 e3 83 3e 8c 9b 89 3d
       -0.24971841 0.28927368 0.25759333 0.06719121
0002b0 05 51 e9 be 2c 8b 0f 3f a5 80 ce bd 56 8f 5e 3e
       -0.45569625 0.56071734 -0.10083131 0.21734366
0002c0 90 37 9a bd 18 c8 ac be 01 60 20 3e 34 02 92 3e
       -0.07530129 -0.3374641 0.15661623 0.28517306
0002d0 12 33 d2 3e 3d 24 9a 3c 21 1c 8d 3d d9 be a1 bb
       0.4105459 0.018816108 0.06890131 -0.004936081
0002e0 5a e0 27 be 36 71 30 3d ec 1c 9d bd 09 a6 fb 3e
       -0.16394177 0.043076716 -0.07671532 0.49150112
0002f0 86 ce 03 be c4 a6 31 3e c3 32 73 3e d0 1b 09 be
       -0.12871751 0.17348772 0.23749833 -0.13389516
000300 1b c5 c6 bd e6 2b 92 3e 7a 5a 06 3e 0f bf 49 bd
       -0.09705564 0.28549117 0.13120452 -0.049254473
000310 5e a6 3f bd 52 27 04 be fe ce fe be e5 60 89 3e
       -0.04678952 -0.12905625 -0.49767298 0.26831737
000320 cd 09 8c 3e ed 53 78 be e8 59 5b be 05 00 af 3e
       0.27351227 -0.24250765 -0.21421015 0.34179702
000330 f8 a6 d7 3d 29 a0 f8 3d 32 08 f6 3d 76 ce 45 bd
       0.10529894 0.12139923 0.12013282 -0.0482926

weight_hh_l0_reverse f4 [52, 13]
000000 62 9c 78 3c 9b 2a e2 3c 21 a6 ed 3d c4 26 41 3e
       0.015174003 0.027608206 0.11603952 0.18862444
000010 8d d5 74 be 85 27 57 3e f8 90 96 bd 58 c3 c4 3e
       -0.23909588 0.21011169 -0.07351869 0.38430285
000020 d3 86 14 be 02 f2 f8 bc 13 f4 40 be be 5b 9a 3e
       -0.14504556 -0.030388836 -0.18843107 0.3014812
000030 5f 27 34 3d f3 13 80 bc 1d a8 5f 3e 06 ed 49 3e
       0.04398286 -0.015634513 0.21841474 0.19719324
000040 b3 b5 59 3c 7c 28 bf be d4 af 35 3e 13 f9 4b be
       0.013287949 -0.37335575 0.17742854 -0.19919233
000050 b2 4f 30 3e af b1 bf 3b b6 83 3f 3e 13 80 09 bf
       0.17217901 0.005850039 0.18702587 -0.5371105
000060 01 db 77 3d 82 f4 90 3e 74 f2 f1 be ac 60 c1 3d
       0.060511593 0.28311545 -0.4725529 0.09442267
000070 a0 81 33 3d 8a 05 0f 3e 82 7a 44 bb ea f3 a5 3e
       0.043824792 0.13966957 -0.0029980247 0.32412654
000080 7d ba cf be 29 fd 83 3e 5b bd b0 bc 92 ee e8 be
       -0.40571967 0.25779083 -0.021574667 -0.45494515
000090 4b 5a 3e bd eb f5 1e bd 83 82 df 3d ce 64 9e be
       -0.04647283 -0.038808744 0.10913565 -0.30936283
0000a0 e9 9b c9 3e c5 1c 81 be 6b c2 31 3e 5d 9f 5f 3c
       0.39376763 -0.25217262 0.17359321 0.013648835
0000b0 65 c7 9d 3e 74 56 b7 bd a2 09 85 be e3 b0 93 3e
       0.30816188 -0.089520365 -0.25983912 0.2884589
0000c0 03 ad 31 be 8a 53 06 be eb 59 87 bd 04 de a7 3e
       -0.17351155 -0.13117805 -0.06608947 0.32786572
0000d0 e7 63 3e 3d 8c bc 75 3d 2a 6c b3 3d c4 56 ad be
       0.046481993 0.059994265 0.08760865 -0.3385526
0000e0 75 93 e4 bd d6 1b 6a 3e 1b 40 88 3d 71 c3 4e 3e
       -0.11160938 0.22862181 0.06652852 0.20191742
0000f0 a8 c5 4b 3e c7 a7 08 bd ad 8b b3 bd 9d e7 42 be
       0.19899619 -0.03336313 -0.087668754 -0.19033666
000100 34 90 fa 3d 85 6b 21 be a9 b6 fd bd 9f 2e cd 3d
       0.12234536 -0.15763672 -0.12388355 0.10018658
000110 b3 d8 21 3e 07 27 0f 3d 9b f4 85 3e b3 d9 85 3c
       0.1580532 0.03494933 0.26163182 0.016339159
000120 76 aa 1e 3e 38 24 26 be 2c 54 3d be af 94 63 3e
       0.15494713 -0.16224754 -0.1848914 0.22224687
000130 7e dd 44 be db b8 89 3e 52 29 f0 3d 71 0f 95 3e
       -0.19225118 0.26898846 0.11726631 0.29113343
000140 ba c9 94 3d 18 61 c0 bc 4c 45 01 bf 7f 92 88 be
       0.07265039 -0.023483798 -0.50496364 -0.26674268
000150 37 47 0c bc 1a c7 c2 3d 29 26 8a be 79 cb 77 be
       -0.008561901 0.09510632 -0.2698224 -0.24198712
000160 6e da 01 3b 9d 06 84 3e d1 04 4e bd 83 fa f4 bd
       0.0019814032 0.25786296 -0.050297562 -0.11961844
000170 7f 59 b8 3d fb bd e9 bd 29 66 a2 3e 0d 5a f4 be
       0.09001445 -0.11413189 0.31718567 -0.47724953
000180 cd f4 88 3e 0a 7b 0d be b5 a8 42 3d 92 c5 2b be
       0.26749268 -0.13816467 0.047524173 -0.16774586
000190 12 fc 6d be c1 f7 d9 bd f6 93 a4 3e 19 25 f0 3c
       -0.23240688 -0.106429584 0.32144135 0.029314565
0001a0 82 d3 f0 3c e5 61 f7 bd 0b 7d 8b 3e 6a 9f 41 3e
       0.02939773 -0.12079219 0.27243838 0.18908468
0001b0 0f 7f 3e 3e 7b 79 c5 3c a7 23 9e 3d 10 83 75 3e
       0.18603157 0.024105778 0.07721644 0.23975778
0001c0 fd 3f 5d be f2 b2 88 be 73 3b a4 be 6d cc 63 be
       -0.21606441 -0.26699024 -0.32076606 -0.22245951
0001d0 94 ea 42 3e c5 bb 56 be b2 9a 36 bd d0 79 52 be
       0.19034797 -0.20970066 -0.044581123 -0.2055428
0001e0 d5 f0 e4 3d 62 8c d1 be 05 c2 38 be a7 a2 f6 39
       0.111787476 -0.40927416 -0.18042763 0.00047041962
0001f0 ff 97 ac bb c9 d2 d5 3d f4 2e 39 be 0e e9 9f bd
       -0.005267143 0.10440595 -0.18084317 -0.078081235
000200 a5 eb 0d be 1b 39 1f be 2a 29 94 3e 9c b3 d9 3d
       -0.13859423 -0.15549128 0.28937656 0.10629961
000210 33 4e 93 be 64 b6 87 3e 5c ea 49 3e fd 32 86 bd
       -0.287706 0.2650634 0.19718307 -0.06552694
000220 8f 62 d4 be c5 f7 90 3d b6 6b 32 3d 4d 58 93 be
       -0.41481444 0.07078508 0.043559752 -0.28778306
000230 38 6e 39 be 37 1c 24 be 06 43 3a 3e 51 25 99 bd
       -0.18108451 -0.16026388 0.1818963 -0.07477821
000240 0d 73 4e 3d 69 b1 a9 be d7 0b 99 3e 4c 6a 1d be
       0.05040269 -0.33143166 0.29891846 -0.1537258
000250 f2 1e fb 3d 78 fa b3 be c9 e3 2c 3e 92 36 dd bd
       0.12261762 -0.3515203 0.16883768 -0.10801424
000260 f9 02 ad be 00 94 45 be 4d 64 a3 3e 44 ff d2 3e
       -0.3379133 -0.19294739 0.3191246 0.41210377
000270 65 db e0 3d 2d dc 5c bc 14 f8 2c bf 1b 3d 92 3e
       0.10979346 -0.013480228 -0.6756604 0.28562245
000280 e9 53 4f be c2 eb a2 3e 97 7a 91 be a9 77 b7 3e
       -0.20246853 0.31820494 -0.2841384 0.3583348
000290 b4 11 6d be b3 25 53 bd d4 8a 9d be 4f f0 43 bc
       -0.23151284 -0.051549625 -0.3076998 -0.0119591495
0002a0 68 ad 8a 3e 95 7b 85 bd 9d 40 3c bd 28 ca 4a be
       0.27085423 -0.06517712 -0.045960058 -0.19803679
0002b0 99 75 fb bd 58 42 6c be 5a 3e df bc 0e 00 73 3e
       -0.12278289 -0.23072183 -0.027251411 0.2373049
0002c0 5d e9 a8 3c 44 ba 03 be c7 29 ff bb c0 37 e8 bd
       0.020619089 -0.12864023 -0.0077869627 -0.113387585
0002d0 8b 95 06 be 91 c2 a0 3d ab 91 80 be 3e 37 a9 be
       -0.13142984 0.078496106 -0.25111136 -0.3304996
0002e0 d8 9f 04 be f4 c0 70 bd 55 16 c6 be 5f 76 00 3e
       -0.129516 -0.058777764 -0.38688913 0.12545155
0002f0 60 02 7c bd 3d ab 21 3e 4c e4 5d be 3f 75 75 be
       -0.061525702 0.15787978 -0.2166912 -0.23970507
000300 7b d7 87 3b 66 91 20 be ac 04 c2 3e fe f7 70 be
       0.0041455603 -0.15680465 0.3789419 -0.23532102
000310 fe 3c 6c 3d db 0c 96 be 67 d1 af 3e cc ab ed bc
       0.057675354 -0.29306683 0.3433945 -0.029012583
000320 6a 2f 16 3e 30 d8 77 be 49 93 81 bc 3c be 4f be
       0.14666525 -0.24203563 -0.015817301 -0.20287412
000330 ac ef 76 3d 49 3b 9d be 4d e1 0b 3f 2b ee de 3e
       0.060287163 -0.30709293 0.54640657 0.43541083
000340 3c 90 fc be 31 ec e7 bd 25 22 a5 be 10 76 89 3e
       -0.49328792 -0.11324347 -0.32252613 0.26847887
000350 79 f0 04 be d5 8d b6 3e 95 b1 46 be 2b 2e e1 3d
       -0.12982358 0.35655084 -0.1940368 0.10995134
000360 98 89 28 be 13 a5 ac be 8d e6 6d bd 35 2b 69 3e
       -0.16458738 -0.33719692 -0.0580812 0.22770388
000370 60 14 16 3e 9a ff 54 be f5 72 d9 3b d7 10 bd 3d
       0.1465621 -0.2080063 0.0066360184 0.092317276
000380 97 22 ec 3d 02 3a 80 bc 66 b0 c3 3d 05 f9 4b be
       0.11530035 -0.01565266 0.0955513 -0.19919212
000390 c8 55 df bd 7b 13 e9 3d af 86 51 3e 3b f8 b3 bd
       -0.10905033 0.11380669 0.20461534 -0.087875806
0003a0 cc 19 29 3e 5b b5 40 bc a2 7f 19 3e 2d c3 78 3e
       0.16513747 -0.0117619885 0.14990094 0.24293204
0003b0 f9 9c 39 be 70 9c ab bc f5 b8 97 3e 6d 7f d0 bd
       -0.18126287 -0.020948619 0.296333 -0.101805545
0003c0 2e 47 42 be 24 0e e4 3d 31 92 22 3e c7 58 16 be
       -0.18972465 0.111355096 0.1587608 -0.14682303
0003d0 18 2a c9 3c 11 a4 33 3e 58 16 61 3e 43 bf ec bd
       0.024556205 0.17543055 0.2198118 -0.11559918
0003e0 28 bc 98 bb a7 e0 70 bd bb 0b 70 3e a7 ce 0c bd
       -0.004661102 -0.058807995 0.23441975 -0.034376767
0003f0 94 6c d0 bd b6 99 62 bd f7 60 71 3e 93 c6 d8 3c
       -0.1017696 -0.05532237 0.23572145 0.026461875

bias_ih_l0_reverse f4 [52]
000000 e9 d2 98 bd b2 48 6d 3e 08 28 8f bc 7a f9 8b 3d
       -0.07462103 0.23172262 -0.017475143 0.06834693
000010 85 70 20 be a0 a6 a3 3e 61 1d 20 3d 1b e2 52 3e
       -0.15667923 0.31963062 0.039090518 0.20594065
000020 c6 1b d3 bd d2 a7 5e 3e 55 90 40 3e d2 ce 97 3e
       -0.10308032 0.21743706 0.18805058 0.2964998
000030 5e e9 dc 3d f6 00 d2 3d 3b b9 4c 3d 8a 62 d8 3d
       0.10786699 0.102540895 0.049981337 0.1056567
000040 8e 98 21 3d 07 38 48 be 01 16 48 3c 1d 78 95 bd
       0.039452128 -0.19552623 0.012212277 -0.072983004
000050 cd 2e 91 3e 88 6f f5 bd d2 c6 a0 3e 96 0f b0 3c
       0.2835602 -0.119841635 0.31401688 0.021491807
000060 5c 4b f2 bd 26 f2 52 bd f1 b9 0b 3e 46 19 e9 3d
       -0.1183078 -0.051500462 0.1364515 0.11381774
000070 a7 fa fe bd 50 8c 5a 3e 9f 97 8e be 91 32 2f 3e
       -0.12450152 0.21342587 -0.27850053 0.17109133
000080 d2 76 9e bd fb 3e 85 3e 81 fc 25 be 2d 2c 96 3d
       -0.07737507 0.26024613 -0.16209604 0.073326446
000090 8b 9b 37 be 53 2b 6e be 10 37 57 3d c4 36 f8 3b
       -0.17930429 -0.23258714 0.052542746 0.007574888
0000a0 0e 5a 84 3e 3a 9f 9f 3e ea 8c ec bb 97 da 49 3e
       0.25849956 0.31176168 -0.0072189467 0.19712292
0000b0 39 cc 94 3e df 37 3c be 36 e9 99 3e cd b8 a7 bd
       0.2906206 -0.18380688 0.30060738 -0.08189545
0000c0 7d 2c 81 3e ac 7d cf 3d 02 89 37 3e 11 94 50 bc
       0.25229254 0.10131392 0.17923358 -0.012730614

bias_hh_l0_reverse f4 [52]
000000 fb 49 00 3e 27 ae 74 3b ae fd 90 3a 20 4f a7 3d
       0.12528221 0.0037335248 0.001106193 0.08169389
000010 35 a2 92 3e b0 aa 2b be 26 71 27 3e 5c 21 c1 3e
       0.2863938 -0.16764331 0.16351756 0.37720764
000020 f5 c1 8d 3e 82 8e 8d bd df dc f0 3d 8e 31 af 3e
       0.2768704 -0.06911947 0.11760878 0.34217495
000030 01 98 98 bc cf 1b 2b be 39 c1 74 3e 67 ed 2f 3e
       -0.018627169 -0.16709827 0.23901834 0.17180406
000040 f2 79 aa 3e d3 98 29 3e 25 5a a3 3d aa 1b 86 3e
       0.33296162 0.16562204 0.07976178 0.2619298
000050 9c 30 1b 3d 0a a5 0d be d0 ee 62 3d db 1a f0 3d
       0.037888154 -0.13832489 0.05540353 0.11723872
000060 42 9b 86 bd e2 97 21 3d e5 b8 4f be a4 f5 71 3c
       -0.06572582 0.039451487 -0.20285375 0.014768038
000070 11 36 d6 bd 44 ee 99 bc c7 e9 80 be ed 3e 32 3e
       -0.10459531 -0.018790372 -0.25178358 0.17406817
000080 c1 c2 94 be 55 14 6a 3d 03 d0 6a be 2f 90 7c be
       -0.29054835 0.057148296 -0.22930913 -0.24664377
000090 ea 90 93 be 49 12 54 3e cc da 3f 3d 79 90 c4 bd
       -0.28821498 0.207101 0.04683952 -0.095978685
0000a0 d0 d5 52 3e f6 0d 8c 3e 6d 82 31 3d 43 af 58 3e
       0.20589375 0.273544 0.043337274 0.21160607
0000b0 47 72 97 3e 84 6f 67 bc 76 b8 91 3d 78 7a 88 3e
       0.29579374 -0.0141257085 0.07115261 0.26655936
0000c0 49 d9 68 bc 94 08 df bd db 3b 91 3e 43 0c c4 3d
       -0.014211961 -0.10890308 0.2836598 0.09572651

weight f4 [16, 260]
000000 4b 72 00 bd 5c df 3a 3d ef f2 93 bd 2f 36 9b 3c
       -0.031359 0.04562317 -0.0722407 0.018946735
000010 89 de 45 bc df 3d c4 bd 6d 44 fc bc a1 de 2a bd
       -0.012076982 -0.095821135 -0.030794347 -0.04171622
000020 55 5a 4a 3d 23 1d 94 3c 76 63 ba 3d af ca 03 3d
       0.049402554 0.0180803 0.09101002 0.032175716
000030 f6 80 7c 3c c4 9f 2a be 5c ad 7a 3d e1 d8 50 be
       0.015411606 -0.16662508 0.061200485 -0.20395233
000040 27 27 56 bd 97 bb 82 bd da 4a c8 bd b0 14 9d bd
       -0.052283432 -0.06383436 -0.09779902 -0.076699615
000050 e4 72 b8 3b 89 f0 87 bd 4b 0b 4d bd e2 67 92 3d
       0.0056289304 -0.06637675 -0.050059598 0.0714872
000060 36 a8 95 bb 9e 6b d1 3d 71 31 ea bc e3 f2 1c 3d
       -0.0045671714 0.102256045 -0.028588029 0.038317572
000070 c7 ae 0b 3d df 8e b9 bc a8 73 a3 3e 21 69 b7 3a
       0.034102228 -0.022651134 0.31924176 0.0013993123
000080 b5 e7 5c bd 92 db 66 bd 90 5c d7 bd 4f 74 f7 3c
       -0.05393191 -0.056361742 -0.10515702 0.030206827
000090 15 13 72 bd 50 e9 61 3d 23 d5 4e 3c 3c 53 2c be
       -0.05910023 0.055154145 0.012624058 -0.16828626
0000a0 b5 37 8f bc ad 7a 17 be 20 5f 93 bb cf ae 51 3e
       -0.017482618 -0.14792891 -0.004497424 0.2047684
0000b0 70 27 db 3d f5 bc 35 3d fa 28 b2 3d 57 5c 34 bd
       0.107008815 0.044369657 0.08699222 -0.044033375
0000c0 3a 35 2d bc 19 bf 5a bd ed 48 1c 3e 08 e1 d6 bc
       -0.010571772 -0.0534049 0.15262194 -0.02623035
0000d0 ca 8e 6a bc 12 bf cc 3d 0c 24 10 bd dd 1c 51 3d
       -0.01431627 0.09997381 -0.035190627 0.051052917
0000e0 63 8a 92 be 12 d3 82 3c f2 45 cc bd ae d4 01 3d
       -0.28621206 0.015969787 -0.099742785 0.031696968
0000f0 26 2f d1 3d c0 81 c1 3d 91 ed 7a 3d 90 40 8a 3d
       0.10214071 0.09448576 0.061261717 0.067505956
000100 29 75 c4 bc 16 36 63 bc 61 c1 40 be fa 26 02 be
       -0.023981648 -0.013867876 -0.18823768 -0.12710181
000110 0b d5 bd 3d ba 81 b0 bd bb 07 1b 3e 58 2a 9b 3b
       0.0926915 -0.086184934 0.15139668 0.0047352724
000120 b7 9a 14 bd d8 8b 51 bc c6 7f 7d be ac ad b9 bb
       -0.03628036 -0.012789689 -0.24755773 -0.0056664553
000130 2c 69 db 3b f5 da 51 bd 2d 57 0a 3d ee 9b 07 be
       0.006695887 -0.051234204 0.033774544 -0.13243076
000140 8b 61 ca 3d a3 b8 21 be 0b 33 2c 3e 03 c2 13 3d
       0.09881886 -0.1579309 0.16816346 0.036073696
000150 77 57 92 bd 3c bc 30 3d 5d 34 90 bd ca 0f c0 3d
       -0.07145589 0.043148264 -0.070412375 0.093780115
000160 dc 0e 1c 3d bb 9b 6c 3e 36 81 b7 3d 77 f1 c1 bb
       0.03810011 0.23106281 0.08960192 -0.0059186774
000170 e7 e2 a1 3d 00 35 80 bb ea f0 87 3d 21 f7 90 bd
       0.07904606 -0.003912568 0.066377476 -0.07078386
000180 55 55 a0 bd 44 ab 08 be 1d 13 00 3d 8e 20 9e bd
       -0.07828776 -0.13346583 0.031268228 -0.07721053
000190 cb 49 7e 3c f3 40 15 be 17 34 05 3e 9b a5 ea 3d
       0.015520523 -0.14575557 0.13008152 0.11457368
0001a0 60 4c 40 3d f3 33 8b 3b 99 be 09 bd c2 17 54 bc
       0.046947837 0.004248136 -0.033629034 -0.012945117
0001b0 08 cd 54 be 0d 2b 1c 3e f4 69 01 3d 96 1e 30 3e
       -0.20781338 0.15250798 0.031595185 0.17199168
0001c0 b7 9c f8 3d 12 0b 17 be f3 1c 80 3d ff 13 0e be
       0.12139266 -0.14750317 0.062555216 -0.13874815
0001d0 90 a4 0f 3e a6 82 5e 3d 46 84 e6 bd b7 35 44 bd
       0.1402762 0.054323815 -0.11255698 -0.04790279
0001e0 64 17 97 bc 8f e5 00 be b0 6e dd bc 90 1a 31 bd
       -0.01844377 -0.1258757 -0.027030319 -0.043238223
0001f0 52 5f 27 3e 79 41 1a 3e d4 59 b4 bc e5 a7 b0 bc
       0.16344956 0.15064038 -0.02201549 -0.021564433
000200 d5 88 70 3e 87 37 07 bd 4a 86 eb 3d 35 e2 d2 3c
       0.23489697 -0.03301194 0.11500223 0.02574263
000210 d5 a3 c3 bd ba 53 7f be 06 69 81 3d 29 3d 84 bd
       -0.09552733 -0.24934283 0.0631886 -0.06456978
000220 c3 65 e6 bc 7e 24 92 bd 3a 46 0c bc 25 c9 51 3d
       -0.028124696 -0.071358666 -0.008561665 0.051217217
000230 e0 c2 c3 3a 44 cc 80 bd 79 20 a9 bc d1 db 04 be
       0.0014935397 -0.062889606 -0.020645367 -0.12974478
000240 4c 83 f6 bc 5c 84 55 3e 62 ac c4 3d 80 4a 5e be
       -0.030091904 0.20851272 0.09603192 -0.21708107
000250 64 10 df bd 88 c6 24 3d 95 26 ed bc 3c 01 b8 bd
       -0.10891798 0.040228397 -0.028949061 -0.089846104
000260 72 94 92 3d 1f 3b af bd 3a 5f 6f 3c 55 a2 eb 3d
       0.0715722 -0.08556198 0.014610106 0.11505572
000270 ca 76 16 be 9c d4 a8 bd ea fe 1f 3e ba 15 5d 3e
       -0.14693752 -0.08243677 0.15624586 0.2159032
000280 b8 4f 11 3e 3d a7 eb bc 79 60 cc bd f1 29 bc bd
       0.14190567 -0.028766269 -0.09979338 -0.09187687
000290 45 46 33 bd 40 a0 0b 3e 15 cd 36 3e 0d 95 1f 3d
       -0.043768186 0.1363535 0.1785167 0.038960505
0002a0 91 4c 00 3e fc b3 9f bd 0c 98 07 bd 18 a4 c1 bd
       0.12529208 -0.07798001 -0.033103988 -0.094551265
0002b0 a4 af 00 3e 2e 9a 3c be c5 e5 23 3d cb f1 dd bd
       0.12567002 -0.1841819 0.040014047 -0.10837134
0002c0 97 79 9f bd d7 51 35 bc cb d4 16 3d a8 ae 1d bd
       -0.07786863 -0.011066875 0.03682403 -0.038496643
0002d0 8f d3 4e 3d a5 1c 50 3d 98 ef 94 3b 7c e0 15 be
       0.050494727 0.050808568 0.0045451634 -0.14636415
0002e0 43 39 b7 3d 39 e2 ea bd db 3f 72 3d 24 2f 12 bd
       0.08946469 -0.1146893 0.05914293 -0.035689488
0002f0 25 0b a7 bc d5 9a 14 be 6b 60 c0 3d ab eb 35 be
       -0.020391056 -0.14512189 0.0939339 -0.17765681
000300 39 56 54 3d 38 05 0d be b9 2c ed 3d b6 b7 ab 3d
       0.05184004 -0.13771522 0.11580796 0.083846495
000310 04 a3 be 3d 10 98 f4 bc 69 16 58 3d 74 ab fa bc
       0.093084365 -0.029857665 0.052755747 -0.030599333
000320 49 a8 83 3d 1a ad cd bd 41 da 8b 3d 90 fd 6a bd
       0.06428582 -0.10042782 0.06828738 -0.057370722
000330 65 56 d2 bc b3 1b cd bd e2 85 63 bd ed 2f bb bd
       -0.025675962 -0.10015049 -0.055547602 -0.091400005
000340 fc 16 94 bd bd ef 40 be f0 f0 1b be 2d df f5 bd
       -0.072309464 -0.18841453 -0.15228629 -0.12005458
000350 42 ff 04 3b ca 33 0b be 28 56 04 be 8e 3b 88 bc
       0.0020293747 -0.13593975 -0.12923491 -0.01662996
000360 11 0b 07 3e 88 6e 59 bd 15 c9 1b bc 06 ed 03 3e
       0.13187815 -0.053083926 -0.009508391 0.12883386
000370 e8 3f 49 3d 8c 84 02 be ae fb 9f bd 5b 74 7f 3e
       0.04913321 -0.12745875 -0.07811676 0.2494673
000380 f5 7c dc 3d 59 6e 9c 3d 56 02 c4 3c 3a 12 40 3d
       0.10766021 0.07638235 0.023926895 0.046892382
000390 43 d4 ac 3d 51 9d 07 3c 19 11 5d bd fe 34 fa bb
       0.08438923 0.008277253 -0.053971384 -0.0076357117
0003a0 21 99 96 bd da c3 c5 3c 98 82 87 3d f2 9b 5f bd
       -0.07353426 0.02414124 0.06616706 -0.05459208
0003b0 9b ad 8b 3d 7c 0e 95 3d 0f 3a 0a be e9 3b 37 3d
       0.06820222 0.07278153 -0.1349871 0.04473487
0003c0 97 03 26 be ef 11 b2 bb 13 80 bf 3c 0d d4 e9 bc
       -0.16212307 -0.0054342668 0.0233765 -0.028543497
0003d0 d6 58 64 3d f0 66 da 3d 7c 44 04 be 1c e5 df bb
       0.055748783 0.10664165 -0.1291675 -0.006832732
0003e0 88 b7 4e 3c 6a e0 eb bc ab 72 a6 3e d5 4d 89 3c
       0.012616999 -0.028793532 0.3250936 0.016760746
0003f0 07 a6 9e bd 10 b2 e7 bc 95 10 8d 3e 58 ad 88 bd
       -0.07746511 -0.028283149 0.27551714 -0.06673688

bias f4 [16]
000000 ae 39 3a 3d 94 42 d8 bc 19 59 25 3d d4 8f 4a bc
       0.045465164 -0.026398934 0.040368173 -0.012363393
000010 53 e0 7e 3d 7d 72 87 3d 6b f6 89 b9 b1 68 14 bd
       0.06222565 0.06613634 -0.00026314272 -0.036232654
000020 a6 f7 f2 3c fd ed d6 bb 41 50 a3 3d b8 47 2f 3d
       0.029659104 -0.006559132 0.079742916 0.042793006
000030 dc 32 71 3b 08 9c aa ba 5c ff 7e 3c 53 90 91 3d
       0.0036803996 -0.0013016472 0.015563812 0.07107606

weight f4 [19, 16]
000000 12 de df 3e 12 b0 6b be 14 9c b9 3e db 0a 1b be
       0.43724114 -0.23016384 0.3625189 -0.1514086
000010 96 22 e4 be 74 1f 0e be 1b f4 90 3d b5 b4 d6 3e
       -0.44557637 -0.13879186 0.070778094 0.41934744
000020 3a 20 de 3d 1e d3 dd 3e f9 b2 1d 3e 38 e6 d7 bd
       0.108459905 0.43325132 0.15400304 -0.105419576
000030 4d 86 4c 3e 09 32 62 bb f0 ae c3 3e af ae 56 3e
       0.19973107 -0.0034514687 0.38219404 0.20965074
000040 e2 fe e1 3d 69 32 0c be 18 2d f6 3d ec 4d 73 bd
       0.11034943 -0.13691105 0.1202032 -0.059400484
000050 70 96 c7 be 21 f3 2a 3e 13 3b 9b 3b 68 f8 8a 3e
       -0.38981962 0.16694309 0.004737267 0.27142644
000060 a4 85 94 bd 59 99 37 bd ab 77 78 3e ee a4 f6 3a
       -0.072520524 -0.044823978 0.242644 0.0018817463
000070 e9 85 11 bd cb 5c 04 3e ec a5 f8 3d e9 1f 27 be
       -0.035528097 0.12926023 0.12141022 -0.16320767
000080 c9 76 03 3d 57 79 9e bc 3b f4 c6 3e d0 57 86 be
       0.032095704 -0.019344969 0.38858208 -0.2623887
000090 70 96 16 be 7f 13 be 3d 19 19 4c 3e 5c e7 9f 3d
       -0.14705825 0.09281062 0.19931449 0.078078
0000a0 9e af 3b 3e ae 75 76 3c fb 3d d5 bd 98 0f 66 3e
       0.18328711 0.015042705 -0.104122125 0.22466886
0000b0 56 f9 bf 3d 5e 5c a2 3c cb 0b 47 be ab aa d1 bb
       0.09373729 0.019819435 -0.19438092 -0.006398519
0000c0 ea 61 a8 bd 8a d8 34 3e b3 d7 a0 3e 9e 71 8a be
       -0.082218006 0.17660728 0.31414565 -0.27039808
0000d0 0a d3 92 be ec 08 a5 3e 23 c2 72 3e 59 03 8e be
       -0.28676635 0.3223337 0.2370687 -0.2773693
0000e0 9e c6 6e be 24 37 ac bd db 6f 54 3e 15 f1 d5 3d
       -0.23317954 -0.08408955 0.20745794 0.104463734
0000f0 8a e1 89 be 8c 1c 1e 3f 48 02 a4 bd aa e6 00 bf
       -0.26929885 0.6176231 -0.080082476 -0.50351965
000100 bb f6 22 3e 51 a2 50 bd 5e 0d d4 bd bb 64 3f 3d
       0.15914433 -0.050936047 -0.10354112 0.046726923
000110 53 1b 13 3d 3f 74 ac bc 91 b9 98 3e cc 6a 80 3e
       0.03591473 -0.021051524 0.29829076 0.2508148
000120 02 53 d1 3e 01 38 a4 3e 6d 70 aa bd aa a5 4d bc
       0.40883642 0.32073978 -0.08322225 -0.012551704
000130 02 ca 08 3e ce c5 c2 bc 8e fa d2 be 7d 26 31 3a
       0.1335831 -0.023775961 -0.41206783 0.00067577494
000140 75 da bd 3c 9c 68 0b 3e 18 61 49 bc 0e cd ef bd
       0.023175457 0.13614124 -0.012291215 -0.11709033
000150 89 57 af bd d6 d0 a2 3c d2 48 d3 3d 36 b7 d9 3e
       -0.08561618 0.019874971 0.10316624 0.4252259
000160 82 2f ce 3e af 4d ff 3d 86 60 43 3e 34 fe 8b bd
       0.4027062 0.12465989 0.1907979 -0.06835595
000170 e7 31 6d bc db c1 f8 bd 94 31 46 3e a2 b3 15 be
       -0.01447723 -0.1214635 0.1935485 -0.14619306
000180 04 da a1 bd 84 ee 06 be b1 cc 69 3c d2 8c 8d 3e
       -0.07902911 -0.13176924 0.014269994 0.276465
000190 46 49 d7 bd 3c 8c 00 3e 10 f7 86 3e a7 cc 64 3d
       -0.10512023 0.12553495 0.2636037 0.055859234
0001a0 0e c3 2a be 25 5f b8 be ce 20 10 bf 1f 66 5a 3e
       -0.1667597 -0.3601009 -0.56300056 0.21328019
0001b0 99 e5 73 3e 20 5b 7a be 40 a0 ca bd dd ce a4 3e
       0.23818053 -0.24448824 -0.098938465 0.32189074
0001c0 79 6e 6e 3e 80 29 27 3e 88 03 a4 3e 41 38 66 be
       0.2328433 0.16324425 0.32033944 -0.22482397
0001d0 a8 58 ae bd 7c 39 39 3d 94 d3 82 3e 1f 22 44 3e
       -0.085130036 0.045220837 0.25552046 0.19153641
0001e0 c2 fa d4 3e ec 3f 90 bd da 3e 9b bd 7e fb 70 39
       0.41597563 -0.07043442 -0.07580347 0.00022981872
0001f0 fb 2b b9 bd de 30 f2 ba 47 64 ea 3d 1b 7f 60 bd
       -0.09041592 -0.0018477698 0.11444908 -0.054808717
000200 c8 70 cd 3c 37 8f 67 3e 46 06 f8 3d 99 04 9d be
       0.025078192 0.22613226 0.121105716 -0.3066757
000210 af cf ef 3d ab 67 20 3d d2 5e 1f 3e ad 23 b2 bd
       0.117095344 0.039161365 0.15563515 -0.08698211
000220 89 86 80 be 69 82 bd 3e 68 ed 7f 3d 0f ff d5 bd
       -0.25102642 0.37013558 0.062482268 -0.10449039
000230 fa 15 77 be 73 f3 0e 3c 27 66 51 3e 1a 2f 2f 3e
       -0.24129477 0.008725035 0.20449124 0.17107812
000240 c1 08 0f bd 24 a8 64 3e ae 45 91 3e c3 05 19 be
       -0.034920458 0.22329766 0.28373474 -0.14943604
000250 0f b2 95 3e 46 3e 56 bd 90 83 e2 bd a8 a3 41 3e
       0.2923741 -0.052305482 -0.1106025 0.18910086
000260 b1 b8 6a be a2 d8 b2 bd 2f e3 ac be b2 88 93 3e
       -0.22922017 -0.08732726 -0.33767077 0.28815228
000270 0d ac 98 be 0a 4f 90 3d 39 06 0b be f7 b6 95 3e
       -0.29818764 0.070463255 -0.13576593 0.29241154
000280 6d b1 b3 bb a1 45 c9 3e e5 92 9a bc 22 4d 14 bd
       -0.0054837973 0.39310935 -0.018868873 -0.036206372
000290 bd fe 92 3c 54 1b ca bd 41 6e 1d bb dc 79 db bd
       0.017943734 -0.09868494 -0.0024022015 -0.10716602
0002a0 ea 2b 62 be d1 b7 89 3e ed f0 6d 3d d1 26 37 3d
       -0.22087064 0.26898053 0.058091093 0.044714753
0002b0 b1 63 0a 3e 33 fe 82 bd 81 a5 8b bd b4 88 94 3d
       0.13514592 -0.06396141 -0.06818677 0.072526366
0002c0 ee c9 aa bd 68 2c 93 3d 16 a7 e9 3b 74 09 55 be
       -0.08339296 0.07186204 0.007130514 -0.20804387
0002d0 58 36 c0 3c 45 45 71 3e 15 8b 5c be 79 9d f3 3d
       0.023463413 0.2356158 -0.2153743 0.1189527
0002e0 77 25 18 be 36 0f 82 bd 16 71 18 3e a6 ab 78 be
       -0.14858042 -0.063505575 0.14886889 -0.24284229
0002f0 1a 03 d8 be 93 fe 51 bd f4 91 9f 3e 96 71 92 3c
       -0.42189866 -0.05126817 0.3116604 0.017876428
000300 f7 be a7 bc ef 64 38 be 4a 0b 9b 3d 9f 44 79 3e
       -0.020476801 -0.18007253 0.075705126 0.24342583
000310 6b e6 9e be cb a6 9f 3d a5 3f ab 3c 9b 0b 98 3e
       -0.3103517 0.07795485 0.020904372 0.29696354
000320 64 b5 4b 3e 24 12 b2 3e 84 52 28 3e e1 6c b7 3d
       0.19893414 0.34779465 0.16437727 0.08956314
000330 71 84 e7 bd c0 98 bc bd b0 61 12 3e 84 a2 be be
       -0.11304558 -0.09208822 0.14295077 -0.37233365
000340 49 fe 85 3d 77 a2 e8 be f2 6a 0b be 46 96 25 3f
       0.06542642 -0.4543645 -0.13615015 0.64682424
000350 f2 0f de bd 44 87 aa 3c 4b 59 b4 3e c2 1c 60 bd
       -0.10842885 0.020816453 0.35224375 -0.054714926
000360 a9 16 e8 3e 33 d3 1d be 7c f3 37 3e 10 92 f8 be
       0.45329788 -0.15412597 0.17963976 -0.48548937
000370 01 23 cc 3c 11 12 b0 3d c4 92 43 be 18 d9 3a be
       0.024919035 0.08597196 -0.19098955 -0.18246877
000380 bc 3b 8e 3e ac 51 70 be 49 18 0f 3d 28 d5 3b be
       0.2777995 -0.23468655 0.03493527 -0.18343031
000390 cd 26 de bd 72 78 f7 bd 2d d0 8b 3e 37 cd d6 bd
       -0.108472444 -0.1208352 0.27307263 -0.104883604
0003a0 37 d1 53 3e 87 0d a0 3e a8 58 f1 bc 8a 5c 2c 3e
       0.20685278 0.3126032 -0.02946122 0.16832176
0003b0 e4 e6 93 3e 68 a1 00 be 76 b3 ae 3c 2b d1 7e be
       0.28887093 -0.12561572 0.021325808 -0.24884479
0003c0 dd 1a a5 3e 2b c7 c4 be 66 a6 1a 3d 0e 94 45 bb
       0.32247058 -0.38433203 0.037756346 -0.0030148062
0003d0 e9 90 5b be 9b 56 21 3d e8 7a 31 be 2a 5c 88 be
       -0.21441998 0.039389234 -0.17332041 -0.26632816
0003e0 9b c4 03 3e 05 c0 2d be ac d3 3c 3d cb dc 89 3d
       0.12867968 -0.16967781 0.046100304 0.06731566
0003f0 82 97 c8 bd 0c 20 33 3e 0f 2a c1 be 34 77 8d bc
       -0.09794523 0.17492694 -0.377274 -0.017268755

bias f4 [19]
000000 bd ce f8 3c b3 f2 33 be 15 64 b5 bd 7a 14 06 3c
       0.030372018 -0.17573051 -0.0885698 0.008183593
000010 b4 52 bc 3d 5d c7 dd 3c 5e 21 67 3e a5 c5 45 3d
       0.09195462 0.027072603 0.22571322 0.04828419
000020 c6 a3 ff bd 5a e7 12 be 41 c3 0c be 65 6b da b9
       -0.12482409 -0.14346066 -0.13746358 -0.00041660215
000030 ca a2 d0 bc 46 d4 4d 3e d5 ea 27 3b c3 6c e2 3d
       -0.025468249 0.20100507 0.0025622149 0.11055901
000040 12 69 03 3e a6 c5 aa bd b4 2b 13 3d
       0.1283305 -0.0833848 0.03593035
