models/a19lds19b0.007g1d2h13.pt (torch, 126559 bytes, 26 tensors)

weight_ih_l0 f4 [52, 4]
000000 ec 41 85 be a3 b1 d8 3c 27 f1 a6 3d 24 7b 41 be
       -0.26026857 0.026451891 0.08151465 -0.1889463
000010 9f 51 ea be 3a e8 af 3e 30 f6 20 3e 03 65 3e bf
       -0.45765397 0.34356862 0.15718913 -0.7437288
000020 5b b4 97 be c8 3d d2 bb ad f4 0a bd 4b d5 46 3e
       -0.29629788 -0.0064160563 -0.033924747 0.19417302
000030 87 46 06 3f b6 9f ec bd e9 65 0b be f7 22 3a 3e
       0.52451366 -0.115539 -0.13613094 0.181774
000040 4f bc 7d 3e e7 4b de 3d bd ce 58 3e eb 67 55 3f
       0.24778865 0.10854321 0.21172614 0.8336169
000050 0f fa e1 bd d8 8a 89 3e 5f 1a 2a be 0d 80 03 bd
       -0.11034023 0.26863742 -0.16611622 -0.03210454
000060 66 ae 47 3c 24 ba e8 3e 24 d3 33 3e cb dd 5e 3e
       0.012187576 0.45454514 0.17561013 0.21764295
000070 7a ef f5 3d a9 95 3f 3f 68 96 36 3d 6c 6e c8 3e
       0.12008567 0.7483774 0.044577032 0.39146745
000080 95 4a c4 bd 9e 39 db be 97 00 a3 3d fb 99 39 3f
       -0.09584538 -0.42817396 0.07959097 0.7250058
000090 07 75 48 3e 98 d5 5b 3f d1 06 d9 3d c3 e6 a8 3e
       0.19575892 0.85872793 0.10597003 0.32988557
0000a0 f1 93 b0 3e fa 00 2d 3e 60 18 89 3e f2 f4 7c be
       0.3448787 0.16894904 0.2677641 -0.24702814
0000b0 95 31 44 3d 8d 08 1c bd ea 1c 8e 3d e2 6a 0b 3e
       0.047898848 -0.038094092 0.06939109 0.13614991
0000c0 4c 7c c1 3d 0d d4 46 3d 6a 29 25 bc da a9 c9 3e
       0.09447536 0.04854207 -0.010080675 0.393874
0000d0 31 41 da 3c 46 4e c8 3e e4 ab 01 3f 1f 4d 0f 3e
       0.026642414 0.39122218 0.5065291 0.13994263
0000e0 28 42 9b be 8c 05 02 3f d5 be b0 3e a3 47 03 bd
       -0.3032391 0.50789714 0.34520593 -0.03205074
0000f0 32 3e 21 3d d8 d7 06 be 32 5c 00 be 62 f1 b5 3e
       0.039365955 -0.13168275 -0.1253517 0.35535723
000100 98 ba 0e be 7b df 2c 3e e5 d6 af 3d 94 2d 72 bf
       -0.13938367 0.16882126 0.0858591 -0.94600797
000110 ad af 5f bf 6f 25 ec bd 68 d4 a8 3e 6b 84 0e 3e
       -0.87377435 -0.115305774 0.32974553 0.13917701
000120 81 ea a0 3e 3d 6a b0 bd 25 02 a3 bc 6f 12 b6 3e
       0.31428912 -0.08614013 -0.019898484 0.3556094
000130 48 ca 08 3f f8 36 88 bd 87 9f 16 be a0 95 0d bd
       0.53433657 -0.066511095 -0.14709292 -0.03456652
000140 f3 b2 1b 3f 75 7f 2c 3f a7 9b 95 be 6b 92 ad be
       0.6081993 0.67381984 -0.29220316 -0.3390077
000150 6e 5a 7e 3c 09 00 39 bf 7c 6f d0 3d fd 54 4a 3e
       0.01552449 -0.7226568 0.10177514 0.19758983
000160 31 dc 70 be 52 8b f3 3e 6c b5 87 3e 68 79 aa be
       -0.23521496 0.4756723 0.265056 -0.3329575
000170 b3 aa 75 3e 42 1f ab 3e b4 8c 9b be 30 9b 79 3e
       0.23990898 0.33422285 -0.30380785 0.24375606
000180 59 2e af 3d d4 6a 93 be 0d 47 5a 3e 3e 71 f4 3e
       0.08553762 -0.2879244 0.21316166 0.47742647
000190 6b 76 03 bf 8b 7b cd be 8b 8c 14 3f fc dc 86 bd
       -0.51352566 -0.40133318 0.5802695 -0.06585118
0001a0 cd bb 27 bc a4 a1 62 be f8 1f b1 3d fc ab 4c be
       -0.010237646 -0.22131974 0.08648676 -0.19987482
0001b0 94 12 75 bd 03 7f 97 be ef bd d9 be 5b 25 30 3d
       -0.05983217 -0.2958909 -0.4252772 0.043004375
0001c0 82 51 92 3e 18 f9 9a be 08 7a 02 3e 63 5a e1 3e
       0.2857781 -0.30268168 0.12741864 0.44014272
0001d0 9a 3f d5 3e 70 e5 c6 3d 98 81 94 be 20 28 fb be
       0.41650087 0.097117305 -0.29005122 -0.4905405
0001e0 34 04 ce bc 10 97 7f be 37 26 1c 3f 26 fb 96 bc
       -0.025148489 -0.2495997 0.6099581 -0.018430304
0001f0 70 2c b9 3e 0a 98 70 3d 4e 0e f2 be 7d 2b 0c 3d
       0.36166716 0.058738746 -0.4727654 0.03422116
000200 7c cf 56 3e 49 8e 0d bf 2b 0c db bd a6 b2 31 bd
       0.20977587 -0.55295235 -0.1069568 -0.043383263
000210 79 a6 81 3c ed 6c f3 be 0d 36 80 be 2b 8e 1f 3f
       0.01582645 -0.4754404 -0.25041237 0.62326306
000220 60 97 62 bd f8 50 84 be 6b 90 c7 bd 45 05 46 3f
       -0.055320144 -0.25843024 -0.097443424 0.7735179
000230 69 2b 52 bc d7 8c f7 3e 7a 03 5e 3e 5a 1a 96 be
       -0.012827733 0.4834964 0.21681014 -0.2931698
000240 ec a6 d9 3e 07 46 01 3f 79 38 8a be b9 b8 35 3e
       0.42510164 0.5049748 -0.2699621 0.17746247
000250 eb 81 cf 3d 04 dc 33 bd 86 64 20 3e 5f 9e 90 bc
       0.10132202 -0.043910995 0.15663347 -0.017653642
000260 3d 88 4b be cf f4 15 bf ba 61 33 3d 5e bd 3c 3e
       -0.1987619 -0.58576673 0.04379437 0.18431613
000270 92 82 37 be 5d 7d c5 3e 3b 05 5b 3e 60 6e c7 3d
       -0.17920902 0.38572207 0.21388714 0.09737849
000280 10 fb 56 be 0f 78 cf 3e 1b 8d 80 be a2 7a 84 be
       -0.2099421 0.40521285 -0.25107655 -0.2587481
000290 3c 83 a5 bd c0 79 97 3c 8d 86 4f 3d fc a9 fe 3e
       -0.080816716 0.018490672 0.050665427 0.49739063
0002a0 d2 66 52 3c f7 2a e4 3e 4d a8 06 3f 84 ee ff 3c
       0.012841897 0.4456403 0.52600557 0.031241663
0002b0 de bb 3a be 99 3a 67 be 48 72 10 3e 64 f0 28 3f
       -0.18235728 -0.22580947 0.14106095 0.65991807
0002c0 e1 12 97 3e 78 84 98 be 1d 5a ca 3e 9d b2 5e be
       0.2950659 -0.29788566 0.39521876 -0.21747823
0002d0 f4 fb e2 3e 7c e1 7a 3e 27 22 3a 3d dd c1 c3 3d
       0.4433285 0.24500078 0.045442726 0.09558461
0002e0 f5 8d 19 be cc 68 30 3f e3 b5 ab be 5e cf 32 3e
       -0.14995559 0.6890991 -0.33537206 0.17461917
0002f0 c1 aa 15 bc 40 4b 04 be 90 bb a4 3d a9 ac 0f 3f
       -0.009134949 -0.1291933 0.08043587 0.56122833
000300 f1 11 e5 3d b2 a6 82 3b aa 9b f9 3e e8 42 d3 be
       0.11185063 0.003987157 0.48751575 -0.41261983
000310 ce 50 b4 3c ea 71 24 bd a3 d4 e8 ba 46 8a 84 3c
       0.022011187 -0.0401477 -0.0017763566 0.016179215
000320 a5 37 86 3e ff 1c b5 bc 17 91 bd be a3 5b 2b 3e
       0.26214328 -0.022108553 -0.37024757 0.16734175
000330 20 62 3f 3d 9a b1 a0 be b3 9e 12 3e 65 2f c7 bd
       0.04672444 -0.313855 0.14318351 -0.09725837

weight_hh_l0 f4 [52, 13]
000000 9b 0a ce bc 9b a8 d7 bd b8 87 f2 3d 02 07 a4 be
       -0.025151541 -0.10530206 0.118422925 -0.32036597
000010 92 7a ae 3c f3 d6 7c 3c 03 dd d1 be 36 41 84 be
       0.02129868 0.015432107 -0.4098893 -0.25831002
000020 97 aa 69 3e 10 8b 89 3e b0 22 b4 be dc 6d 83 3c
       0.22818981 0.2686391 -0.35182714 0.016043596
000030 c4 c6 99 bd 53 00 8c 3d b2 27 63 3e 41 28 01 3d
       -0.07508615 0.06835999 0.22183111 0.03153253
000040 db de a0 be 6a cd 0a 3d df 49 f3 bb 8c 3d be be
       -0.31420025 0.033887304 -0.0074245776 -0.37156332
000050 46 13 33 3e 18 8c 9d be 2d 9d 99 3e 4c 1a 11 3e
       0.17487821 -0.30770946 0.30002728 0.14170188
000060 8c 59 8d bd 1d 48 c7 bd b1 b0 8b 3e 81 e8 a4 be
       -0.06901845 -0.097305514 0.27283242 -0.32208636
000070 0e 93 90 bc 96 7e c5 bd 9d d0 7a bd 69 b7 7d be
       -0.017648246 -0.09643285 -0.061234105 -0.24776997
000080 36 59 0c 3e 80 76 03 3d ba 45 37 3d b5 a8 5b bc
       0.13705906 0.032095432 0.04474423 -0.013406922
000090 9d 15 e3 3e e9 f7 23 3e 3e a6 24 3e 10 9c 21 be
       0.44352427 0.16012539 0.16079041 -0.1578219
0000a0 51 ad bb be 29 db c0 bd 63 71 ab ba d7 6e 63 bd
       -0.36655667 -0.094168015 -0.0013080057 -0.055525627
0000b0 90 ce 92 be 5d b7 8a be ff 4a 09 be f8 87 89 bf
       -0.2867322 -0.2709302 -0.13407515 -1.0744619
0000c0 75 69 9e 3e 81 ef 6b 3e 37 ec 15 bb 7e 66 a4 be
       0.30939832 0.23040582 -0.002287639 -0.32109445
0000d0 25 f2 a0 3c 95 5c d2 be 29 2a 16 3f ca 09 36 bf
       0.019646714 -0.4108626 0.5865808 -0.71108687
0000e0 09 7e e7 3e d2 9b df be 17 4b c0 be 5a 55 8d be
       0.45213345 -0.4367357 -0.3755729 -0.2760418
0000f0 2a 1b 84 bd b5 44 10 3e 23 42 bf bd e8 e9 d1 3d
       -0.06450494 0.1408871 -0.093387865 0.10249692
000100 47 9f 9c 3e 20 86 28 be 36 0d 49 3d e0 14 27 be
       0.3059027 -0.16457415 0.049084865 -0.16316557
000110 09 1e 62 3e 86 cd cb 3d b2 aa 08 bd 6f 8a 9b bc
       0.2208177 0.0995131 -0.033365913 -0.018986909
000120 1b b4 20 bf 40 26 aa be 87 a6 41 3e 9a c5 38 3e
       -0.6277482 -0.33232307 0.18911181 0.18044129
000130 35 81 1f be 2f ac 0d be c4 28 17 be 19 ac 48 bf
       -0.15576632 -0.13835214 -0.14761645 -0.783876
000140 44 0a 7e 3e 54 03 92 be 93 dc b3 3c 20 a9 2f be
       0.24808604 -0.28518164 0.021955764 -0.1715436
000150 ba 2e 24 bf 96 27 93 bf f8 6e 54 bf a4 b8 10 3f
       -0.641338 -1.1496456 -0.82981825 0.5653174
000160 ad bd 51 3f c5 13 84 3e 11 24 f3 3e eb 29 3c be
       0.8193005 0.25796333 0.47488454 -0.18375365
000170 d5 5c 90 be 1e 1c 84 be 5a d1 f4 be 68 43 d4 3d
       -0.28195825 -0.25802702 -0.47815973 0.10364419
000180 f1 82 ab bd d3 a2 39 bd b8 33 96 be 16 10 84 bf
       -0.083745845 -0.045321297 -0.29336333 -1.0317409
000190 7d a4 04 3d 68 ec 66 3d 02 29 ee 3e 06 05 07 3d
       0.03238343 0.0563778 0.4651566 0.032963775
0001a0 67 2c 62 3d 90 09 8a bd d1 6b f4 3d e0 ac cf bd
       0.055218127 -0.06740105 0.11934627 -0.10140395
0001b0 67 4b 48 bd a2 38 11 3e 26 83 08 3f ab 29 73 3e
       -0.048900034 0.1418176 0.53325117 0.23746364
0001c0 fa 80 ee bd e9 20 0a be 0f 1b 97 be 27 77 58 3e
       -0.11645694 -0.13489117 -0.29512832 0.21139203
0001d0 04 91 39 3e bd 02 5a bd e6 13 ab bd f9 34 72 be
       0.18121725 -0.053225268 -0.08353405 -0.2365302
0001e0 e8 fc b7 be 08 0d b7 bb 45 d4 b7 be 03 52 4e bf
       -0.3593514 -0.0055862702 -0.35904136 -0.8059389
0001f0 89 74 22 3e 5b 0e 72 bc 17 a3 a3 3d 90 96 81 3e
       0.15864767 -0.01477393 0.07990091 0.25310183
000200 28 f5 62 bd 87 3c 99 3d b0 7b c1 3d 79 ad b2 be
       -0.05540958 0.07482248 0.0944742 -0.34897974
000210 68 b4 03 be 62 72 cb bc 9a 52 68 3e 6a 97 d4 bd
       -0.12861788 -0.024834815 0.2268776 -0.103804424
000220 f4 c1 b0 3d fd 4c dd bd a0 87 ba be 69 0f 90 3e
       0.086307436 -0.108057 -0.364316 0.28136757
000230 2f 9c 0e 3d a7 50 13 3e 55 97 dc 3e ee 75 f4 bc
       0.034816917 0.14386235 0.43084207 -0.02984139
000240 e7 1b 05 3d c0 ea 81 3c 49 4c 06 3e d0 a7 9a 3d
       0.032497313 0.015859008 0.13115038 0.07551539
000250 53 09 1a 3e 89 98 71 3e 08 56 91 3d d2 59 2e bf
       0.1504262 0.23593344 0.07096487 -0.68105805
000260 ee 96 05 3f e4 6c 2d be d3 c2 fc 3d e2 34 ac 3e
       0.52183425 -0.1693607 0.12341847 0.33634096
000270 72 67 62 3e 9f 28 44 3d 81 ef c8 be 55 2a 19 be
       0.22109774 0.0478903 -0.39245227 -0.14957555
000280 03 9d 32 bd cf 1a 82 3c f6 53 3e 3d bd 63 7b be
       -0.04360677 0.015881924 0.04646679 -0.24549766
000290 60 3c ab 3e 7c 1a 19 bc 31 6d 12 be cc 44 66 bd
       0.334445 -0.009344693 -0.14299466 -0.056217954
0002a0 29 46 aa 3e 40 22 0e bc d3 28 87 3d 4f 4f 0e be
       0.33256653 -0.008675158 0.065995835 -0.13897441
0002b0 66 0a 74 be 37 02 dc bc 6f a6 7c 3d 9b 4f 27 3e
       -0.23832092 -0.026856525 0.06168216 0.16338961
0002c0 25 67 d9 bb 76 be 36 3e 85 23 d7 bc aa 05 8f be
       -0.0066346102 0.17846093 -0.026262054 -0.2793401
0002d0 4a f5 4d 3d 42 7f f1 3d 71 bb 8c be 0e 3f 8e 3e
       0.050282754 0.117918506 -0.27486756 0.27782482
0002e0 08 fd 34 3c 4f f3 5f be 6a 58 82 bc b3 7d 89 be
       0.0110466555 -0.21870159 -0.0159113 -0.26853713
0002f0 5e c6 8f 3b 12 3d 4a 3e 58 c3 6b 3d ab d1 42 be
       0.004387661 0.19749859 0.05755934 -0.19025294
000300 34 98 2a 3e 4e 38 cf 3d f8 7e 77 3d e5 f0 b8 3d
       0.16659623 0.10118161 0.06042382 0.09030322
000310 9c e0 ae bc 67 86 df 3e b2 88 35 bd e9 fc 8d bd
       -0.021347336 0.43657228 -0.044319816 -0.069330044
000320 80 77 c8 3e c8 35 4a bd 10 e7 5b be 7b ad 25 be
       0.3915367 -0.049367696 -0.21474862 -0.16179459
000330 03 db 2b 3e 47 76 9f 3d 50 28 7c 3e 57 d5 22 3e
       0.16782765 0.077862315 0.24624753 0.15901695
000340 37 bf 5c bd 8d 5f 3d be c4 c2 15 be ec 57 2b 3d
       -0.053893294 -0.18493481 -0.14625078 0.041831896
000350 28 9f f9 be 21 ca 41 3e ae b9 ef be b7 95 18 be
       -0.4875424 0.18924762 -0.4682135 -0.14900862
000360 03 c0 f8 be d1 f1 d9 3e b2 b7 5e 3e 65 c3 80 3e
       -0.48583993 0.42567304 0.21749762 0.25149074
000370 51 e7 13 be 77 c2 86 be 54 0a 8a be 31 fa 2e bc
       -0.14443709 -0.2632024 -0.26961005 -0.0106797675
000380 1e 17 6a be 96 0b 44 be 2a c7 dd be 86 ab 58 bd
       -0.22860381 -0.19145045 -0.43316013 -0.052897952
000390 9b 16 19 be 95 84 b1 3d 6b e9 15 be bf 34 30 3e
       -0.1495003 0.08667866 -0.14639823 0.17207621
0003a0 e9 1f 8e 3e 9d 95 34 3e 3f 7d a0 3e 24 af 22 be
       0.2775872 0.17635198 0.31345555 -0.15887123
0003b0 fd c4 0e be fb a5 fb 3e db 9a 1d 3d 24 ef 5a be
       -0.13942333 0.4915007 0.03847776 -0.21380287
0003c0 15 87 81 be da b0 a9 3d 89 fa a1 be 9d de d1 3d
       -0.25298372 0.08285685 -0.31636456 0.10247538
0003d0 b9 ae 1f 3e 2f dc b6 3e 92 ac 86 bd 14 ac e0 be
       0.15593995 0.35714862 -0.06575884 -0.43881285
0003e0 a8 fd 7a be dc 14 1b 3e fc a4 01 bf e5 90 0a bf
       -0.24510825 0.15144676 -0.5064237 -0.5412734
0003f0 31 23 73 be c0 e9 49 bf db ca ce be 30 29 46 bf
       -0.23743893 -0.788723 -0.4038914 -0.774066

bias_ih_l0 f4 [52]
000000 91 50 a0 3d 39 18 b6 3e 2b b8 6d 3e 8c 25 cd 3d
       0.07827867 0.35565355 0.23214786 0.10016927
000010 86 d1 7a 3e d8 83 2a 3e 5c 0a b6 3e 68 82 71 3e
       0.2449399 0.16651857 0.3555478 0.23584902
000020 fa 5f d1 3e 08 0f 55 3d 89 82 07 be cf ab c7 3d
       0.40893537 0.052016288 -0.13233389 0.09749567
000030 91 4e 82 3d 2f ec a4 3e b6 24 59 3c 37 e1 e4 bc
       0.063626416 0.32211444 0.0132533815 -0.027939422
000040 9e 8e bb bd 6f 4b aa bd 00 84 87 3e 54 b9 3c bd
       -0.091580614 -0.08315169 0.26467896 -0.04607518
000050 c0 20 5b 3e df 29 07 be 59 8c 86 3e 96 5d a2 3d
       0.21399212 -0.13199566 0.26278952 0.07928006
000060 6d 7b 77 be 85 61 54 be c6 d1 c0 3c c6 0c 13 be
       -0.24168177 -0.20740326 0.023537528 -0.14360341
000070 5c 3f 3f 3d bf b1 88 be 10 1f 25 3e ef 3a fb bd
       0.046691284 -0.2669811 0.1612513 -0.122671
000080 9a 3b a4 be b8 0f 07 be eb f9 02 be 1d dc 9f 3e
       -0.32076722 -0.1318959 -0.12790649 0.3122262
000090 bb 2d 15 3e 36 12 1c 3e 65 a5 63 3e 6a 62 38 be
       0.14568226 0.15241322 0.22231062 -0.18006292
0000a0 75 21 4e 3e 21 5b b3 3e ce 6a 9d 3e da 79 49 3d
       0.2012995 0.35030463 0.30745548 0.049188472
0000b0 69 49 e9 3d 09 ab 41 3e 02 20 b9 3e 3d 02 cf 3e
       0.11390955 0.18912901 0.36157233 0.40431395
0000c0 0f e3 ba 3e d3 f2 3f 3e 4d c4 6a 3e 51 5b 69 3e
       0.36501357 0.18744974 0.22926445 0.2278874

bias_hh_l0 f4 [52]
000000 bf 2a 97 3e 1b af 6b 3e 6e 9d a4 3e 7d 48 3d 3e
       0.295248 0.23016016 0.3215136 0.18484683
000010 b5 5a c6 3e b5 aa 93 3e 45 c0 31 3e 84 40 96 3d
       0.3874108 0.28841177 0.17358501 0.07336524
000020 cf d0 5e 3e b1 04 e0 3d 01 a5 1e 3b b3 73 ca bd
       0.21759342 0.10938395 0.0024207237 -0.09885349
000030 eb 01 9f 3e 28 25 20 3b a6 44 7b 3e fe b5 49 bc
       0.3105615 0.002443621 0.24537906 -0.012311457
000040 e8 42 8a bd 6e 9c 20 bd b4 9a f3 bd 3e 08 7a 3e
       -0.067510426 -0.039211683 -0.11894742 0.24417207
000050 38 b0 7a 3e 08 a8 11 bd cf a1 5a 3d 7f 99 7d be
       0.24481285 -0.035560638 0.05337697 -0.24765585
000060 cb c9 b9 bc 0a 5b 9d 3e c4 9c 84 be 82 df a3 3d
       -0.02267923 0.3073352 -0.25900853 0.08001615
000070 80 d1 5f 3e 76 67 bb 3d 0a 16 15 be 9d ed 97 3d
       0.21857262 0.09150593 -0.14559188 0.07418368
000080 19 53 32 3e 72 ea c5 3b 37 e5 1c 3e fe 49 c4 3d
       0.17414512 0.006039911 0.15321814 0.095844254
000090 70 b8 47 3c f0 21 ba 3d 85 73 72 3e d2 bb bb 3d
       0.012189969 0.09088504 0.2367688 0.09166683
0000a0 c1 6e 81 3e 92 6e 0c be 50 ed 8e 3e f4 bc b8 3c
       0.2527981 -0.13714054 0.2791543 0.022551037
0000b0 1c e0 7d 3e c2 cf de 3d 94 cb bc 3a d8 aa 39 3e
       0.24792522 0.108794704 0.0014403933 0.18131578
0000c0 06 b5 7c 3e 6f 36 91 3e 81 0b 87 bc 4f 4c 95 3e
       0.2467843 0.28361842 -0.016484978 0.2915978

weight_ih_l0_reverse f4 [52, 4]
000000 66 db 7e 3e 7a 83 5b be 0a 1d 78 3e a3 65 92 3d
       0.24888381 -0.21436873 0.24229828 0.07148292
000010 3a b2 1e 3f 50 cb dc 3d 8c a7 2a 3e 87 74 de 3b
       0.619907 0.10780966 0.16665477 0.0067887935
000020 d0 10 0f be 1a c0 c7 3e da f5 38 3f 3b 8c 32 bf
       -0.13971257 0.3901375 0.7225014 -0.69745225
000030 ce 3e 9b 3d 01 59 4d 3d 90 9f 67 3e ae 1a 1e bc
       0.075803384 0.05013371 0.22619462 -0.009649916
000040 d7 4f 8f be ea 50 12 3f b6 fe 60 3e 66 cb d5 bd
       -0.279906 0.57154715 0.21972165 -0.10439186
000050 ca e1 b9 3e 6e 8c 17 3d b3 5c 1b 3f 99 62 63 bd
       0.36305076 0.03699916 0.6068832 -0.055513952
000060 d0 33 8a bd 9b d3 c1 bd e6 6b bb be 06 31 ca 39
       -0.06748164 -0.09464189 -0.36605757 0.00038564968
000070 5d 3e 86 be c5 47 9f bd 1c 55 05 3f 1e 0c 37 3e
       -0.26219454 -0.07777361 0.5208299 0.17875716
000080 68 47 47 3e db 58 42 3e 86 7a 2c be 3e aa 6a 3d
       0.19460833 0.18979208 -0.16843614 0.05729126
000090 54 32 e5 be 1f 64 b4 bd 35 89 26 3e 00 ad c2 3e
       -0.4476496 -0.08808159 0.16263278 0.38022614
0000a0 14 15 13 3e f8 10 d0 3e 1c 08 85 bd de f3 b8 3d
       0.1436351 0.40637946 -0.06495687 0.09030889
0000b0 d3 2e 24 3f c8 f2 28 3e fb 22 cf 3e 77 3e 80 3e
       0.6413395 0.16498864 0.40456375 0.25047657
0000c0 4a a2 87 be 9c da 0f 3e ae c4 79 3e d6 ae 0f 3e
       -0.26491004 0.14048237 0.24391434 0.14031538
0000d0 ba 97 c3 3d 53 5c 92 3e c5 13 a6 bd f3 ec 79 be
       0.09550424 0.28586063 -0.081092395 -0.24406795
0000e0 bf 89 8a 3f 00 77 6d be 5d 1c a5 3d 16 ea 1a 3e
       1.0823287 -0.23189926 0.080620505 0.15128359
0000f0 d7 28 0d be b5 2d 9d 3e 69 0b 86 3e f5 5c fb be
       -0.1378511 0.30698934 0.2618058 -0.49094358
000100 0a c1 a1 3e 2b cb 62 bd 53 f9 b2 3e da 44 51 3e
       0.3159259 -0.055369537 0.34955844 0.20436421
000110 31 8b ab be 5f f4 2e bd 93 6a 4a 3f f2 ec f9 be
       -0.33504632 -0.04271352 0.7906887 -0.48813587
000120 18 95 b0 3e 5d e9 ab 3c 2d 82 2a 3e cb 56 b6 3e
       0.3448875 0.0209853 0.1665122 0.35613093
000130 58 74 81 3e 43 9b 27 be 0c b2 df 3d 0f 42 83 3e
       0.25284076 -0.16367821 0.109226316 0.25636336
000140 54 d5 31 bf 27 c0 b3 3e bc b9 11 3e 32 3a d2 3d
       -0.6946614 0.35107538 0.14231008 0.10265006
000150 cc 1d 0f be bb a4 9b bd 8d 10 83 be 8a d0 64 be
       -0.1397621 -0.07599779 -0.25598565 -0.22345176
000160 2a 0a 3a 3e 4b 7c 62 3c 24 61 c9 3e aa 23 1c 3f
       0.1816794 0.013823579 0.39331925 0.6099192
000170 b7 97 eb 3d 16 d7 9c bd 55 c6 c5 bd 1c 2a 32 bd
       0.11503547 -0.07658212 -0.096569695 -0.04349719
000180 74 81 3d be 9e 24 82 be 77 51 89 3e 2f f7 d9 be
       -0.18506414 -0.25418562 0.26819965 -0.425714
000190 a4 b7 75 3d 6a 3a 66 3e 90 1b ea 3b d6 6c a2 3d
       0.059989586 0.2248322 0.007144399 0.07930915
0001a0 22 87 9b 3e a1 60 29 be 97 16 9f be d0 b5 82 3d
       0.30376536 -0.16540767 -0.31071922 0.06382334
0001b0 26 6f 00 3e 53 ef 03 3f 12 3e 09 be 9a 5c e5 be
       0.125424 0.51537055 -0.13402584 -0.44797212
0001c0 33 75 ca be 7e 30 e0 3d 4b 0c 37 bd 19 39 83 3e
       -0.3954254 0.10946749 -0.044689458 0.256295
0001d0 39 5b c1 3c 88 46 bc 3e a4 0d a0 be 80 7f a9 3e
       0.023603069 0.3677256 -0.31260407 0.33105087
0001e0 a0 18 b7 3d 21 0a 03 bf fc 71 9f bc 75 d6 89 3d
       0.08940244 -0.5118733 -0.019463532 0.067303576
0001f0 ab a8 b9 3e 8a c1 67 be f4 ea ad 3e c9 0f d3 3c
       0.36261496 -0.22632423 0.33968318 0.025764363
000200 1b c5 e8 bd 7c 23 3b 3d 58 a8 c3 bd 49 71 4b be
       -0.1136572 0.045688137 -0.095535934 -0.19867434
000210 b2 8f 58 3e 93 80 e0 3e 7e 06 e0 be c8 ac be 3e
       0.21148565 0.43848094 -0.43754953 0.37241197
000220 0c b2 8c be c8 c5 fe be 06 28 79 3e 6f b9 09 3f
       -0.2747959 -0.4976027 0.24331674 0.53798574
000230 ea d6 ad be b0 d1 0e bf 5f 7e 1b 3e f8 61 6e 3d
       -0.3395303 -0.5578871 0.15184925 0.0581989
000240 64 6d 43 be 94 d9 9f be 4b 9e 83 3e 41 5a 90 be
       -0.19084698 -0.31220686 0.25706705 -0.28193858
000250 4b 81 0c 3f bc e4 af 3e 89 9e af bd 37 e1 18 be
       0.54884785 0.34354198 -0.0857516 -0.14929663
000260 cf fc 84 bd 12 4f e4 3e af cf 8e 3d 3e 46 b5 be
       -0.06493532 0.44591576 0.06973206 -0.35405153
000270 7a 69 ec 3e a1 06 e7 3c 71 08 e1 3d 1e 2b 75 be
       0.46174222 0.028201403 0.10987938 -0.23942229
000280 bd ed 2b 3f 76 3f 78 be dc 09 d6 bd 16 95 2c 3e
       0.67159635 -0.24242958 -0.10451099 0.16853747
000290 8c cf 2b 3e 49 40 a9 3e b4 81 ae bd fb 52 60 3d
       0.16778392 0.33056858 -0.08520833 0.054766636
0002a0 ec 03 cb be 0f 5a 9f 3e 15 d5 bf 3e 92 75 f6 3c
       -0.3965143 0.31123397 0.37467256 0.030085359
0002b0 f3 91 e5 be b0 74 58 3f e7 49 62 bd ba 0d 5b be
       -0.44837913 0.8455305 -0.05524626 -0.21391955
0002c0 7d b4 bb bd 24 b4 17 bf 18 5b b0 3e d0 f2 95 3e
       -0.09165285 -0.5925925 0.344445 0.29286814
0002d0 9b b8 0e 3f ba 76 c6 3c 95 42 16 be ad 15 38 3d
       0.55750436 0.024226535 -0.14673837 0.044942547
0002e0 8b 0a 1b be 41 61 0f 3e 47 6e 0b be 80 9c 09 3f
       -0.1514074 0.14001943 -0.13616286 0.53754425
0002f0 fa 3c 81 3e c3 67 8c 3e 45 f6 58 be 19 3d 17 be
       0.25241834 0.27422914 -0.21187694 -0.147694
000300 dc 8d 7d be 56 9a b2 3e 32 a4 e7 3e cd 06 f3 3d
       -0.24761146 0.34883374 0.4524246 0.118665315
000310 83 74 a7 3d f8 47 18 be d7 22 d2 be 19 74 1e 3e
       0.0817652 -0.14871204 -0.41042206 0.15473975
000320 53 16 1d 3f 7d ea 02 be c6 11 2b 3e b7 dc 19 be
       0.6136219 -0.12784763 0.16705999 -0.15025602
000330 63 9a b7 be 85 cc 79 3e 41 66 59 3d 2c ae 20 3f
       -0.35859975 0.24394424 0.053076033 0.62765765

weight_hh_l0_reverse f4 [52, 13]
000000 cc 1f 17 be 17 a8 ab 3d 0a 02 29 bc 78 e4 d5 3e
       -0.14758223 0.0838167 -0.010315428 0.4177587
000010 dd bf ee be 5c 7f 8c 3e 6a 5b 87 be 27 0e 13 3f
       -0.46630755 0.27440917 -0.2643693 0.5744347
000020 b4 47 86 be 3a 35 38 be d0 86 bf be 81 bd da 3e
       -0.2622658 -0.17989054 -0.3740754 0.42722705
000030 93 59 63 3e 5f 9a 1b bf 74 45 ca 3e 03 e9 c0 3d
       0.22202139 -0.60782427 0.39506114 0.094194435
000040 1e f5 3a 3e 39 b7 1e bf 59 67 90 3e 12 17 85 be
       0.18257567 -0.61998326 0.28203848 -0.25994164
000050 e9 8d 18 3e 15 a8 88 3d aa 68 3c 3e e0 93 07 bf
       0.14897884 0.06672684 0.18399301 -0.52960014
000060 1f eb 42 be 15 f7 06 3f 0c ae 01 bf f3 1d 7f 3d
       -0.19035004 0.5272077 -0.506562 0.06228442
000070 55 67 36 3e f2 0e ad 3d 25 cc 5a 3d 72 64 de 3d
       0.17812856 0.08450116 0.053417344 0.10859002
000080 87 2a 7b be 75 d3 30 3e 5e db e0 3c 59 1e d7 be
       -0.24527942 0.17268164 0.027448352 -0.4201534
000090 49 82 a5 3d e1 bc 97 be ff 31 d8 3d d6 79 4b be
       0.080814905 -0.2963629 0.10556411 -0.19870695
0000a0 b1 a1 f3 3e 72 cb 95 be 8c af a4 3e ea 9a 9f 3d
       0.47584298 -0.2925678 0.32165182 0.077932194
0000b0 ec 88 98 3e c7 66 8d bd 63 a5 f2 bd 1e 50 65 3e
       0.29791963 -0.06904369 -0.11847951 0.22393844
0000c0 55 4b 5e be 6b 17 48 be 10 12 1a be 25 8d a0 3e
       -0.21708424 -0.19540183 -0.15045953 0.31357685
0000d0 ae 90 a0 3c ad f0 3e bd be 16 19 3e fe fb dc be
       0.019600239 -0.046616245 0.14950082 -0.43161005
0000e0 92 3d e4 bc bb af 90 3e dd 6c f0 3d 9f 9d 1a 3d
       -0.02786139 0.28259072 0.11739514 0.037747975
0000f0 f4 4a d1 3e cc 66 19 3e f6 61 73 3c e9 87 cd be
       0.40877497 0.1498062 0.014854899 -0.40142754
000100 82 c8 e0 3d b2 b6 0b be 4b 16 66 bd 52 dc 4b 3d
       0.10975744 -0.13643911 -0.056173604 0.04977066
000110 d1 06 f0 3d 29 6b a4 bb 4d 95 b7 3e fc 7a 13 bd
       0.1172005 -0.0050176573 0.35856095 -0.03600596
000120 e0 a0 4c 3e da c4 15 be 74 4e f5 bd 89 85 3f 3e
       0.19983244 -0.14625874 -0.11977854 0.18703283
000130 70 6f 16 be 43 90 67 3e 39 7d 91 3d ea 19 99 3e
       -0.14690948 0.22613625 0.071039625 0.29902583
000140 ee 77 16 3d 32 27 54 3c 3b 10 0a bf a8 d5 91 be
       0.036735468 0.012948798 -0.53931016 -0.2848332
000150 51 da 2b 3c 1c a6 9a 3d e2 36 b1 be 6d 00 8c be
       0.010489062 0.07551214 -0.34612185 -0.27344075
000160 2b 80 ba 3c da aa 87 3e b7 e6 06 3d 54 e7 8c be
       0.022766193 0.26497537 0.03293487 -0.2752024
000170 c8 37 3c 3e 46 26 8e be c5 b8 83 3e f4 df f9 be
       0.18380654 -0.27763575 0.25726905 -0.48803675
000180 f7 b8 08 3f aa eb c5 be bc c6 77 3d 43 4a 73 3c
       0.53407234 -0.3865636 0.060492262 0.014849248
000190 76 59 0a be 8b 0f 32 be 50 e2 ae 3e 45 aa 2b 3d
       -0.13510689 -0.17388742 0.34157038 0.04191043
0001a0 d5 80 a6 bd a6 f5 c2 bd 0d cb 48 3e 74 ba 91 3e
       -0.081300415 -0.0951951 0.19608708 0.28462565
0001b0 3b 50 64 3c 72 45 b2 3d c2 e2 77 bd 79 f6 a9 3e
       0.013935144 0.08704652 -0.060518987 0.33195856
0001c0 e6 46 b8 be 46 f3 8b be 3a 31 e8 be e1 6e 77 be
       -0.3599159 -0.2733404 -0.45350057 -0.2416339
0001d0 a7 b4 3c 3e a4 6c dd be 18 fc 06 be 53 1b 27 be
       0.18428288 -0.4324695 -0.13182104 -0.16319017
0001e0 af cc e0 3d c7 b1 08 bf e1 05 49 be ce c5 21 3d
       0.1097654 -0.53396267 -0.19631149 0.039495282
0001f0 cf 96 e3 bc 1d 67 25 3e c7 3f 16 be 51 2b e2 bc
       -0.027781872 0.16152616 -0.14672767 -0.027608545
000200 37 83 f8 be 58 5a 67 bd 16 52 99 3e 41 83 8f 3d
       -0.4853761 -0.056482643 0.2994544 0.070074566
000210 1c 2c b8 be 64 17 ac 3e b6 c7 dd 3d ca fe d6 3a
       -0.35971153 0.33611596 0.108291075 0.0016402837
000220 d1 31 e1 be f0 84 2b 3e 9e 37 b1 bd 71 20 6d be
       -0.4398332 0.1674993 -0.08653186 -0.23156907
000230 a2 6f 6e be c0 76 c5 bd a1 8e 46 3e 9a 92 ee be
       -0.23284772 -0.096417904 0.19390346 -0.46596223
000240 a7 d3 e2 3d 40 20 1c bf 3c fc f2 3e 4a b4 0d bf
       0.11075526 -0.6098671 0.47458065 -0.55353224
000250 82 cd 27 3f 51 28 28 bf 08 9c f7 3e 2e 06 72 bd
       0.65547955 -0.6568652 0.4836123 -0.059087925
000260 8d 34 90 be 28 ca e6 be 4e 65 97 3d 91 52 02 3f
       -0.28165093 -0.45076108 0.07392369 0.50907236
000270 12 ea b7 bd 93 cd 0c be 8d 85 0a bf 45 0d 5a 3e
       -0.08980192 -0.13750295 -0.5411003 0.21294124
000280 bf 6d c3 be ac 32 0d 3e 3a cf ed bd 89 b4 0b 3e
       -0.38169667 0.13788861 -0.11611791 0.13643087
000290 98 f7 d8 bd 95 8c 80 bc 2a 01 29 be bb e5 57 be
       -0.105941 -0.015692035 -0.1650435 -0.21083729
0002a0 e3 a2 a5 3e b6 8e 30 be 2d 86 32 3c b3 3f a0 be
       0.32350835 -0.1724194 0.010896248 -0.312986
0002b0 f6 cb 6e bc f8 63 a3 be 3a ac 0d 3d 61 a7 2c 3e
       -0.014574995 -0.31912208 0.034588076 0.16860725
0002c0 88 99 8b 3c fa 5c 8f be e3 3b e5 bd a5 c8 2c be
       0.017040983 -0.28000623 -0.11193063 -0.16873415
0002d0 65 51 8c bd 07 72 84 3e 0d 84 87 be 0a 89 be bd
       -0.06851462 0.25868246 -0.26467934 -0.09303482
0002e0 d6 e7 62 be 4f ec bf bd 9b 7e 69 be b9 4e 75 3e
       -0.22158751 -0.09371244 -0.22802202 0.23955812
0002f0 f9 51 db bd 1f e5 91 3d ed 2d a5 be f2 22 4d be
       -0.107089944 0.071237795 -0.322616 -0.20032862
000300 3f 28 fb bc 0f b7 b7 3d 0b d1 9c 3e 54 b7 85 be
       -0.03065884 0.089704625 0.30628237 -0.2611643
000310 fd f1 33 bd e9 6d 6c be 0a b1 99 3e b6 17 ea bb
       -0.04393195 -0.23088802 0.30017883 -0.00714394
000320 ec 9c b2 3d a9 8e 37 be 83 ef 5d be 43 e3 f5 bd
       0.08721337 -0.17925514 -0.21673398 -0.12006237
000330 b9 d4 69 3d 93 c5 4a be 77 90 a6 3e 06 85 bd 3e
       0.057087634 -0.19801931 0.32532093 0.3701555
000340 cc 08 2a bf b0 c9 a3 3d 66 6d d4 be 08 93 da 3e
       -0.6641967 0.07997453 -0.41489714 0.426903
000350 36 b1 2d be 58 01 da 3e 9a a2 9b be 12 18 4e 3e
       -0.16962132 0.4257915 -0.30397493 0.2012637
000360 9d 9e a1 be 5e 21 ff be 61 fa 41 be 5a 00 d8 3e
       -0.31566325 -0.49830145 -0.18943168 0.42187768
000370 e3 b9 60 3e e4 89 2a be 88 ac d3 bd 12 26 29 3e
       0.2194591 -0.16654164 -0.10335642 0.16518429
000380 67 15 ee bb ce 45 d4 3d ba 05 25 3e 0a 09 24 be
       -0.007265735 0.10364877 0.16115466 -0.16019073
000390 64 96 82 be 28 5b a4 3e 8e 35 be 3e 6a 42 2a 3c
       -0.25505364 0.32100797 0.37150234 0.010391811
0003a0 d5 3f 1d bd 7e 88 8d bd 76 7f 62 3e b3 9d 8e 3e
       -0.038390953 -0.069107994 0.22118935 0.2785469
0003b0 fe d1 26 be 2e 7b b3 bd 7d 39 b8 3e 4e 23 d7 bd
       -0.16291043 -0.08763729 0.3598136 -0.10504781
0003c0 1a 78 59 be a8 d2 35 3e 41 b5 cc 3d 9c 95 e9 bd
       -0.21237221 0.1775614 0.09995509 -0.11405489
0003d0 66 84 8b 3b 24 ac 2d 3e 02 97 d7 3d ce 21 e2 bd
       0.0042577265 0.16960198 0.10526849 -0.11041604
0003e0 54 a3 2a bd 50 bf 22 bd 5d cd 6f 3e ee 05 57 bd
       -0.041659668 -0.03973323 0.23418184 -0.05249589
0003f0 de d0 38 be ba 81 9a 3c 23 2c 48 3e c6 41 13 bc
       -0.18048427 0.018860687 0.19548087 -0.00898785

bias_ih_l0_reverse f4 [52]
000000 07 99 0a 3d 36 1c 9d 3e 02 7a 47 be d7 5c d8 3d
       0.033837344 0.30685586 -0.19480136 0.10564583
000010 64 13 11 be 0d 00 b0 3e 6c 38 85 3d ab dd c0 3e
       -0.14167553 0.3437504 0.06504902 0.3766912
000020 03 9e a8 3c af dd 85 3e d0 cd 99 3e cf c2 33 3f
       0.020583158 0.26145694 0.30039835 0.7021913
000030 a7 c4 f2 3d 0f a7 03 3e 0c b9 03 3d c4 d5 48 3d
       0.11853915 0.12856697 0.032158896 0.049031988
000040 f9 1a 06 3e 44 9c 65 be f4 31 d9 3b 06 91 cb bd
       0.13096227 -0.22422892 0.0066282693 -0.099397704
000050 10 11 ad 3e 60 59 f6 bd 90 2d bc 3e fa cc 89 3d
       0.3380208 -0.12028766 0.3675351 0.06728549
000060 82 06 14 be 46 e4 23 be e9 6f ea 3d 00 50 dd 3d
       -0.14455608 -0.16005048 0.114471264 0.108062744
000070 1d 9b 61 be 30 14 80 3e 11 fa 80 be bc 07 32 3e
       -0.22031827 0.25015402 -0.25190786 0.17385763
000080 3c 8c c5 bd 53 a2 a7 3e 53 e9 26 be 99 ba 0e 3e
       -0.09645888 0.3274103 -0.16299944 0.13938369
000090 8c da 80 be 69 4c 6b be 12 38 8a 3d 85 d9 8a 3d
       -0.25166738 -0.22978367 0.06748976 0.0677977
0000a0 a9 70 84 3e fd 70 9b 3e 10 91 d6 bc 19 30 80 3e
       0.25867203 0.3035964 -0.026192218 0.25036696
0000b0 05 90 96 3e 81 04 37 be 59 92 ad 3e f3 fe 59 3d
       0.29406753 -0.17872812 0.33900717 0.053221654
0000c0 cb 9f ce 3e 65 f1 2e 3e ea 92 fb 3e 08 fe fc bc
       0.40356287 0.17084272 0.49135524 -0.03088285

bias_hh_l0_reverse f4 [52]
000000 67 59 6f 3e 64 85 a1 3d ea 72 34 be 79 b2 f3 3d
       0.23373948 0.0788677 -0.17621961 0.11899275
000010 a1 50 9a 3e 17 f6 12 be 13 06 42 3e 11 47 0c 3f
       0.3013964 -0.14351688 0.1894763 0.5479594
000020 20 12 cd 3e 1c 98 cd bc c4 79 6b 3e 35 74 3f 3f
       0.4005289 -0.025096945 0.22995669 0.7478669
000030 fd 52 02 bc 79 74 10 be a6 81 62 3e 93 e2 eb 3d
       -0.007954356 -0.14106931 0.2211977 0.11517825
000040 a2 53 d9 3e 96 34 0c 3e b9 ea 97 3d 95 2a 71 3e
       0.4244662 0.13691935 0.07417817 0.235514
000050 d7 20 bd 3d 04 1a 0e be 5a 14 df 3d a2 f1 26 3e
       0.09234779 -0.13877112 0.10892554 0.16303113
000060 55 5b bc bd 1e 84 8d bd 1a 3b 66 be b1 a5 13 3c
       -0.09197108 -0.06909965 -0.22483483 0.009011672
000070 e3 38 4d be 9b ef 92 3c 58 98 66 be 18 14 35 3e
       -0.20041232 0.017936518 -0.22519052 0.17683446
000080 a4 88 9e be 9b 97 fe 3d 07 bd 6b be 73 eb 38 be
       -0.30963624 0.1243126 -0.23021327 -0.18058567
000090 f7 9d b8 be 37 f1 56 3e c6 13 7d 3d 8f 74 12 bd
       -0.36058018 0.20990454 0.061786436 -0.03575569
0000a0 bc 02 53 3e 01 e0 87 3e 44 96 c7 3c 38 9a 87 3e
       0.20606512 0.2653809 0.024363644 0.26484847
0000b0 09 36 99 3e 79 30 14 bc 91 5d e0 3d e1 a8 cd 3e
       0.29924038 -0.00904476 0.109553464 0.40167907
0000c0 57 59 0c 3e 93 46 21 bd fb 84 18 3f ef df 9e 3d
       0.13705955 -0.039373945 0.5957791 0.07757556

weight f4 [16, 260]
000000 6f 43 14 bd 5f c3 d5 3d d3 fb 64 bd 08 37 11 3e
       -0.036197122 0.10437655 -0.05590422 0.14181149
000010 e8 b5 08 be 81 2b 72 3d c3 e0 11 3d 5a 93 b7 bc
       -0.13350642 0.05912352 0.03561474 -0.02240913
000020 d9 34 92 3c 75 00 a8 bb a1 47 3b 3e 0f 5b 89 3d
       0.017847465 -0.0051270076 0.18289043 0.06706821
000030 20 ab 9a bc 2e e2 46 be 81 2c cd 3d ae 47 4a be
       -0.018880427 -0.19422218 0.10018254 -0.19753906
000040 b8 41 34 bd f7 62 33 bd e5 a9 da bd 31 98 d5 bd
       -0.044007987 -0.043795552 -0.10676936 -0.10429419
000050 ae 26 5e 3d 78 ed 7e bd fd d2 9d bd 6a 16 5d 3d
       0.054236107 -0.062238187 -0.077062584 0.053976454
000060 06 a0 bf 3c 13 d1 ac 3d 76 a5 06 bd 42 62 26 3d
       0.023391735 0.08438315 -0.03287264 0.04062105
000070 a3 94 9e bc cb 2d a0 3c ed ef 82 3e ec 71 eb 3d
       -0.019357985 0.019553086 0.25573674 0.11496338
000080 d8 d3 c8 bd 9f 60 4b bd 5d fc ae bc f6 54 0a ba
       -0.09806031 -0.049652692 -0.02136057 -0.00052769424
000090 7c 9e c2 bd 7c d1 03 bc 3e f8 4f 3d 40 9c 60 be
       -0.09502885 -0.00804555 0.05077385 -0.21934605
0000a0 6d 90 1d bc b7 d6 06 be 08 62 a4 3c bf 72 26 3e
       -0.009616953 -0.13167845 0.020066276 0.1625471
0000b0 52 e0 b2 3d 10 6b 4e 3d e3 81 d7 3d 69 a2 40 bd
       0.08734192 0.05039507 0.10522821 -0.047029886
0000c0 1a 36 86 bd 9c 4e 79 bd 57 5c 27 3e 0d b6 b3 3c
       -0.06553288 -0.060865983 0.16343819 0.021937395
0000d0 f4 43 1a bd 8d b4 b5 3d 87 6b 50 bd 09 46 d9 3d
       -0.03766246 0.08872328 -0.050883796 0.10609061
0000e0 b9 f5 c9 bd a9 54 b7 3b 2a 49 d7 3c 69 e0 71 3c
       -0.09861321 0.005594809 0.026280005 0.014762976
0000f0 74 0d 8e 3c bc 8a cc 3d 5c 80 74 3c cf 04 9d 3d
       0.0173404 0.09987399 0.014923181 0.07666933
000100 10 38 61 3b c2 42 35 bd 0f 2e 27 be ed fa 0c be
       0.0034365691 -0.04425312 -0.16326164 -0.13767596
000110 dd ad e1 3d ed b0 cd bd 23 b8 12 3e 2a 64 97 3a
       0.1101949 -0.100435115 0.14328055 0.0011550237
000120 31 c5 32 bd ba 75 6b bd 09 91 9d be 90 1a 15 3c
       -0.043645088 -0.05748532 -0.30774716 0.009100571
000130 c0 cc e2 3c a0 9c 55 3c 1f aa ed 3c 08 50 f7 bd
       0.027685523 0.013037831 0.029011784 -0.120758116
000140 b1 df ae 3d 90 55 10 be c5 60 84 3d 46 cb 16 3d
       0.085387595 -0.1409514 0.0646377 0.03681495
000150 47 34 e4 bc 80 6e 37 3c 3a c4 9e 3c b2 90 ca 3d
       -0.027856959 0.011195779 0.019380677 0.0989088
000160 16 d3 27 3b e0 b4 5f 3e 3e 55 98 3d 9d 46 6e bd
       0.0025607995 0.21846342 0.07438134 -0.05817281
000170 dd 9d a3 3d 80 fa 51 3c 75 9d b9 3d 6e 9e d2 bd
       0.079890944 0.0128160715 0.09063236 -0.10284124
000180 38 10 8d bd 41 39 03 be 16 3b a6 3c 91 3c 80 bd
       -0.06887859 -0.1281481 0.020291846 -0.06261552
000190 bd 92 65 3c d8 36 0d be cf 82 cb 3d 2b 2c f3 3d
       0.014012036 -0.13790452 0.09937059 0.11873659
0001a0 c0 c6 2a 3c 9c 17 9b 3c a9 b0 4d bd 4c 64 6e bd
       0.010423362 0.018932156 -0.050217304 -0.05820112
0001b0 24 c0 76 bd eb 80 f3 3d 82 69 04 bd 62 ab 4e 3d
       -0.060241833 0.118898235 -0.032327183 0.050456412
0001c0 30 dd 18 3d 75 0e de bd 01 37 55 3d 2f 39 0c be
       0.037320316 -0.10842601 0.05205441 -0.13693689
0001d0 8f 54 fc 3d 4f 3a ff bb 2d 48 c2 bd 42 76 1f bd
       0.12320816 -0.0077889333 -0.09486423 -0.03893114
0001e0 03 11 c5 bc 66 04 0a be 89 50 0a bd a3 4b bf bc
       -0.024055963 -0.1347824 -0.03376821 -0.023351496
0001f0 df 79 1a 3e d3 97 e5 3d 41 db 0d bd bd 72 0c bc
       0.15085553 0.11210599 -0.034632925 -0.008572278
000200 f3 ea 42 3e f6 0f 82 bc 2c f5 b2 3d 51 99 8e 3c
       0.19034939 -0.015876751 0.08738169 0.017407091
000210 c0 ea 03 be 11 3b 5b be 4e 7c 03 bd 18 a7 83 bd
       -0.12882519 -0.21409251 -0.032100968 -0.06428355
000220 e1 04 d1 3b 3e 1d 00 be 13 21 07 be 38 58 bb 3d
       0.0063787554 -0.12511155 -0.1319621 0.09147686
000230 1a ae df 3c 07 17 a7 bd 72 e5 b4 bd c6 e3 be bd
       0.027304698 -0.08158689 -0.08832826 -0.09320788
000240 de bb d0 3c 57 97 4c 3e df 4d d7 3d f9 ac 1b be
       0.025480207 0.19979607 0.105128996 -0.15202703
000250 0e d4 93 bd ba e3 40 3d 27 2d ec bc f3 07 fa bd
       -0.072181806 0.047092177 -0.028830124 -0.122085474
000260 5d c7 ef 3d f9 fc cd bd 6d 3e d3 3c a2 ee b9 3b
       0.117079474 -0.10058016 0.025786603 0.005674199
000270 8e 92 0f be 19 71 56 bd 6d 35 2f 3e 20 7b 65 3e
       -0.1402075 -0.052353952 0.17110224 0.2241025
000280 e8 63 9a 3d 97 7f 5d bc 60 9a 59 bd e5 b7 b8 bd
       0.07538587 -0.013519189 -0.05312574 -0.0901945
000290 4a d6 3e bd 8d d0 eb 3d 7a 8d 2e 3e 85 57 62 3d
       -0.04659108 0.11514387 0.17046157 0.055259246
0002a0 dd f1 31 3e 6b 56 06 bd 27 0a 00 be 65 e5 7f bd
       0.1737742 -0.03279726 -0.12503873 -0.062474627
0002b0 c7 48 b0 3d 14 87 da bd 3b 13 4f 3d e5 8c c8 bd
       0.08607631 -0.10670295 0.05055545 -0.097924985
0002c0 1f 8e 45 bd 27 48 02 3c 5d 6d d9 3d f4 32 5b bd
       -0.04823124 0.007951773 0.106165625 -0.05351539
0002d0 22 11 17 3d c7 c7 bd bc 1c ac d4 3c b7 0f d9 bd
       0.036881573 -0.02316655 0.025960974 -0.105987005
0002e0 a0 5a 35 3d 69 00 71 bd 0a 9e b6 3b 0f 3c 12 3c
       0.04427588 -0.05883828 0.005573039 0.008925452
0002f0 ed 2a 43 bd 24 3f 08 be 0d 4a a1 3c 6d cc 35 be
       -0.04764836 -0.13305336 0.01968863 -0.17753763
000300 a2 0a 8a 3d da 26 ff bd 81 a5 d2 3d 4a 8b 68 3e
       0.06740309 -0.12458582 0.102854736 0.22709385
000310 91 c1 e8 3d b2 de 88 bc c3 94 f1 3a 35 25 0e bb
       0.11365045 -0.016707752 0.0018431175 -0.0021689658
000320 40 d0 ab 3d 11 36 f1 bd 35 c8 69 3d 70 60 99 bd
       0.0838933 -0.117778905 0.057075698 -0.07489097
000330 de 1d a3 3b f5 00 ed bd bd 81 b8 3c 10 a7 92 bd
       0.0049779257 -0.11572448 0.022522802 -0.07160771
000340 d7 4d 49 bd 8d 46 f9 bd 5f 54 19 be af 32 45 bd
       -0.0491465 -0.121716596 -0.14973591 -0.04814404
000350 00 b9 48 bb ab 51 4e bd 06 58 fc bd 08 7f 18 bd
       -0.0030627847 -0.050370853 -0.12321477 -0.03723052
000360 0d fe c1 3d f1 0c 62 bd 70 47 df bc ab ae f3 3d
       0.094722845 -0.055188123 -0.027255744 0.1189855
000370 3b 23 8d 3d b6 ec 4b bd 54 63 0f be 07 05 64 3e
       0.06891485 -0.049786292 -0.14002734 0.22267543
000380 a2 d6 32 3d 8a 52 20 3e 48 2e c2 3d c0 e0 83 3d
       0.04366172 0.15656486 0.09481484 0.06439352
000390 6e 2d b5 3d 9a d0 f6 3d 30 f1 cc 3b a2 ad ca 3c
       0.08846556 0.12051506 0.0062543377 0.024740998
0003a0 cb 96 4f be 71 f9 59 bc 19 05 c2 3d 51 01 02 3d
       -0.20272367 -0.0133041 0.094736286 0.031739537
0003b0 47 e6 81 3d a3 a9 b7 3d ac 8b f1 bd ac e3 c1 3d
       0.0634275 0.089679025 -0.117942184 0.09467253
0003c0 8d 70 16 be 3c a6 00 bc e3 ce b6 3d 8f 87 2a bd
       -0.14691372 -0.007852133 0.08926179 -0.041633185
0003d0 a0 f6 04 3d 1b 92 c2 3d 04 f9 45 bc 98 ec 2a 3e
       0.032461762 0.09500524 -0.012083296 0.16691816
0003e0 62 f0 0b bd 23 b9 f1 bc 14 53 23 3e bb 27 f1 3d
       -0.034164794 -0.029507225 0.1594966 0.11775156
0003f0 34 03 de bc d3 74 a8 bd 9a 6f 5d 3e fc 54 c1 bc
       -0.027101137 -0.082254075 0.21624604 -0.023600094

bias f4 [16]
000000 50 dd 39 3d 94 42 d8 bc a0 e3 39 3d f9 5e 5f bc
       0.045377076 -0.026398934 0.045383096 -0.013633483
000010 05 66 a6 3d 54 05 ab 3d 52 42 9c 3c e3 62 21 bd
       0.081249274 0.08350626 0.019074593 -0.039400946
000020 8a 7a 77 3a 91 a0 c6 bb 3c 3b 80 3d 02 d6 0b 3d
       0.0009440562 -0.0060616215 0.06261298 0.03413964
000030 2c 76 24 3c 5b 01 ca ba 97 e7 d8 3b 40 6e 61 3d
       0.01003794 -0.0015411781 0.0066194045 0.055036783

weight f4 [19, 16]
000000 09 a4 f9 3e 12 b0 6b be 2f 88 c4 3e 4e db f8 bd
       0.4875796 -0.23016384 0.3838515 -0.12151204
000010 49 76 ef be 89 cc 14 be dc 72 1d be fa f4 d4 3e
       -0.46769932 -0.14531149 -0.15375847 0.41593152
000020 c5 4b 45 3e 71 75 ad bd 84 3d 47 3e 1a 48 09 be
       0.19267185 -0.08469666 0.1945706 -0.13406411
000030 d5 be 79 3e 31 e0 82 bb 1a 2e f4 3e 4a 10 8e 3e
       0.24389203 -0.003994011 0.47691423 0.27746803
000040 10 26 e5 bb 69 32 0c be dd 66 91 3e 2b 4f 6e bd
       -0.006993063 -0.13691105 0.2839879 -0.05818097
000050 8d 98 cc be 48 69 68 3e 88 d9 02 3f f6 91 89 3e
       -0.39960137 0.22696412 0.51113176 0.26869172
000060 c8 7e be be 99 d2 53 3e 1c f8 88 3e 05 01 19 3d
       -0.372061 0.20685805 0.26751792 0.037354488
000070 3d 54 d4 bd cc 1b 04 3e 26 0a ff bb 11 ef 80 be
       -0.1036763 0.12901229 -0.007783192 -0.25182393
000080 84 ed db bc 57 79 9e bc 97 05 cc 3e e0 92 96 be
       -0.026846655 -0.019344969 0.39848015 -0.29408932
000090 03 bd 20 be 66 8f e0 3d 3a f6 18 3f b3 b4 99 3d
       -0.15697102 0.10964851 0.5975071 0.07505169
0000a0 53 c3 39 bd ba 63 0f 3f 8d 87 ac bd ce a1 46 3e
       -0.04535229 0.56011546 -0.08424292 0.19397661
0000b0 c1 8d a9 3d eb 9c a3 3c 7f 65 68 be cd 74 37 be
       0.082789905 0.019972285 -0.22694968 -0.1791565
0000c0 a9 ff 00 be 8a d8 34 3e fd f0 64 3e 77 09 80 be
       -0.12597527 0.17660728 0.22357555 -0.2500722
0000d0 c3 38 a4 be ed fb aa 3e 58 ad 8e 3f 4f 8c 8f be
       -0.32074556 0.3339533 1.114665 -0.28036734
0000e0 8b 4f 85 be 57 84 47 3f 8a 7b 51 3e 8e 5f 36 3e
       -0.2603725 0.7793631 0.20457283 0.17809889
0000f0 26 47 87 be f7 f1 1d 3f 3c 5e 6b bd 4c e6 1a bf
       -0.2642147 0.61697334 -0.057462916 -0.60507655
000100 22 61 ed 3d 51 a2 50 bd a2 1a ec bd 92 e7 ce 3c
       0.11590792 -0.050936047 -0.11528517 0.025256906
000110 eb 02 e1 3c 0f aa 1d 3c 3b b6 17 3f 45 c7 81 3e
       0.027467212 0.009623065 0.59262437 0.25347343
000120 3f 99 82 3e 94 42 19 3f 28 ec 91 bd 4e 2e 81 3c
       0.25507542 0.59867215 -0.07125121 0.01576915
000130 d7 9a fb 3d d2 4e c0 bc 60 d4 8a be e6 0d 64 be
       0.12285393 -0.023475084 -0.27115154 -0.22270927
000140 d3 88 85 3d 9c 68 0b 3e c0 49 52 bd 4f 7c be bd
       0.06520238 0.13614124 -0.051339865 -0.09301054
000150 2f 1a 15 bd 24 0f 9f 3d af 2f a9 3e 50 68 d9 3e
       -0.036401924 0.0776656 0.33044192 0.42462397
000160 67 a5 33 bb 6e 5b 35 3e c0 c1 9f 3d fd df a1 bc
       -0.002741182 0.17710659 0.07800627 -0.019760126
000170 53 6b 86 3c 07 aa f8 bd da 6f db 3c 4d 53 25 be
       0.016408598 -0.12141805 0.026786733 -0.16145058
000180 b4 3f b7 bd 84 ee 06 be 90 9b 05 3c 92 f9 88 3e
       -0.08947697 -0.13176924 0.008154765 0.26752907
000190 43 35 df bd 48 50 0d 3e 77 11 a6 3d 32 ef 72 3d
       -0.10898831 0.13800156 0.081088 0.059310146
0001a0 35 1b c9 3d ab 00 28 bf 2d 4d 17 bf 86 c6 80 3e
       0.098196425 -0.6562602 -0.59102136 0.2515146
0001b0 25 f4 71 3e ae ef 79 be 5d 7a dc bd 82 06 8e 3e
       0.2362829 -0.24407837 -0.107655264 0.2773934
0001c0 28 16 8b 3e 80 29 27 3e 40 1f cc 3e e1 f7 69 be
       0.2716534 0.16324425 0.39867592 -0.22848465
0001d0 b5 59 72 bd e4 09 91 3d d5 c4 2c 3e 94 74 41 3e
       -0.059167583 0.070819646 0.1687196 0.18892127
0001e0 7e 3e 68 3e 8e 02 98 3e f3 71 0b be 7f 42 bf bd
       0.22680089 0.2968945 -0.13617687 -0.09338855
0001f0 1f e2 b0 bd 5d ab 09 bb d1 8c cf 3d 4e aa 71 be
       -0.08636879 -0.0021006681 0.101342805 -0.23600122
000200 d5 f6 18 3d 37 8f 67 3e 34 59 5e 3d 3c 6d 87 be
       0.037344772 0.22613226 0.05428429 -0.26450527
000210 50 11 08 3e bd 61 66 3d 7c ac 11 be d9 32 ac bd
       0.13287854 0.056245554 -0.14225954 -0.08408136
000220 cb a9 c7 bb db cd a8 bd ae 61 96 3d 66 45 15 be
       -0.006093239 -0.08242389 0.0734285 -0.14577255
000230 66 ca 24 be 83 7e 18 3c 59 2f 56 3e d1 c4 3b 3e
       -0.16092834 0.0093075065 0.20916499 0.18336798
000240 cd 46 46 bd 24 a8 64 3e db 34 9a 3e f6 03 54 be
       -0.048407365 0.22329766 0.3011845 -0.20704636
000250 a3 80 ac 3e ec 04 32 bd a3 9d 42 be 7a a6 3e 3e
       0.33691892 -0.043461725 -0.19005446 0.18618193
000260 32 cf 0c 3e fc a7 a5 bd ca 62 cf be 26 ea 9e 3e
       0.13750914 -0.08088681 -0.40505058 0.31038016
000270 ad 4e a9 be 6c ce 90 3d ee 6e 14 be 20 51 74 3e
       -0.33067837 0.07070622 -0.14495441 0.23859072
000280 9a 0b c7 bd a1 45 c9 3e ad c9 65 3d ed f2 80 bd
       -0.0971901 0.39310935 0.056100536 -0.062963344
000290 05 2b b8 bc f0 a4 32 bd 13 ef 8c be b2 ed e0 bd
       -0.02248145 -0.043614328 -0.2752615 -0.10982837
0002a0 e4 f3 87 bd 1b 32 9b be 5e 99 59 3d c4 05 92 bb
       -0.06638315 -0.30311665 0.053124778 -0.0044562537
0002b0 4c 35 f8 3d 18 46 82 bd 12 7f 0b bd 48 73 3f 3e
       0.121195406 -0.063610256 -0.03405673 0.1869632
0002c0 30 38 9e bd 68 2c 93 3d 29 eb 03 3d 2f 96 47 be
       -0.07725561 0.07186204 0.032206688 -0.19490884
0002d0 d9 31 02 3d 71 74 81 3e 98 be 09 bf c6 07 ee 3d
       0.03178582 0.2528415 -0.5380645 0.116225764
0002e0 68 d2 13 be 9a c2 82 bd 84 d5 29 3e e0 64 8b be
       -0.14435732 -0.063847736 0.16585356 -0.272254
0002f0 ad e1 dd be df d5 4f bd 56 de bf 3e 2c 28 4c 3d
       -0.4333624 -0.050741073 0.37474316 0.049843
000300 99 dc f2 3c ef 64 38 be 2b 6d 00 3e 6b 30 77 3e
       0.029646205 -0.18007253 0.12541644 0.24139564
000310 57 63 98 be 25 e3 06 3e 11 b9 69 3f bb 7d 96 3e
       -0.2976329 0.13172586 0.91298014 0.293928
000320 ef c4 57 3d e1 be 1d 3f 32 cb 12 3e d0 a7 4d 3e
       0.052678045 0.61619383 0.14335325 0.20083547
000330 9d ce 97 be a3 18 be bd 5f 22 19 bd 6b 19 1f bf
       -0.2964982 -0.09282043 -0.037386294 -0.6214816
000340 a1 6b 7b 3d 77 a2 e8 be 44 5b 10 be 78 3a 27 3f
       0.06138194 -0.4543645 -0.14097315 0.6532359
000350 91 2b eb bd 0e 4a 28 3d 6f bb 7f 3e a7 24 54 bd
       -0.11482919 0.04108625 0.24973844 -0.051792767
000360 69 71 6b 3e b8 52 84 bc fd 75 3e 3e 72 54 07 bf
       0.22992481 -0.016152725 0.18599696 -0.5286323
000370 03 9f af 3c 27 33 af 3d 61 23 26 be 9f 79 57 be
       0.021438127 0.085546784 -0.16224433 -0.21042489
000380 60 09 c0 3e ac 51 70 be 5a f3 39 bc ac b2 64 be
       0.37507153 -0.23468655 -0.011349523 -0.22333783
000390 ff 09 87 bd cb a2 2c bd c5 dd 40 3f 0c 7f dc bd
       -0.065937035 -0.04214744 0.75338393 -0.1076642
0003a0 74 f4 99 be 7d 5b 0c 3f 63 3d ef bd d3 ae 21 3e
       -0.30069315 0.548271 -0.116816305 0.15789346
0003b0 60 75 46 3e 3d 09 00 be 4d 2b 5a 3d 66 e1 fb be
       0.19380713 -0.12503524 0.05326395 -0.49195403
0003c0 46 11 76 3e 2b c7 c4 be f1 49 b0 3b 79 75 d6 3c
       0.24030027 -0.38433203 0.0053799083 0.026179062
0003d0 31 fc 6c be 72 d9 de 3c 34 aa 05 3e 32 1f 87 be
       -0.23143078 0.027203295 0.13053209 -0.26390988
0003e0 09 60 03 be 42 4a 0c be 42 5b 87 3d 82 dc 57 3d
       -0.12829603 -0.13700202 0.06609203 0.052700527
0003f0 d4 d4 c5 bd 8b 69 32 3e 10 56 ec be a8 d0 b4 3d
       -0.09659734 0.17423074 -0.4615941 0.088288605

bias f4 [19]
000000 45 5a bb 3c f4 92 42 be 7b ed b7 bd f5 d5 ac 3d
       0.022870192 -0.1900137 -0.08980843 0.084392466
000010 35 ac a0 bc 73 4b 17 be 8f f3 97 3e 46 c8 77 3d
       -0.019613365 -0.14774875 0.29678008 0.06049373
000020 aa 0e 11 be d8 70 b8 bd a5 78 4c 3d 0d 3d f8 bb
       -0.1416575 -0.09005898 0.049919743 -0.007575637
000030 28 36 d9 bd 15 42 5c 3e 1d 41 e9 bd 1c a5 33 3d
       -0.106060326 0.21509583 -0.113893725 0.043858632
000040 79 4e 14 3e 4e 46 05 be 39 1d 6d 3c
       0.1448306 -0.130151 0.014472299
