models/a19lds19b0.007g0.8d0.8h13.pt (torch, 126735 bytes, 26 tensors)

weight_ih_l0 f4 [52, 4]
0	0xbe1d162a	-0.15340486
1	0x3c721365	0.014775132
2	0x3d64213c	0.055695757
3	0xbeadb35c	-0.33925903
4	0xbedbcb22	-0.42928416
5	0x3ef62b0c	0.48079717
6	0x3d4579d7	0.0482119
7	0xbea8f021	-0.32995704
8	0xbe8568fb	-0.26056656
9	0x3e19b383	0.15009885
10	0xbbc83af7	-0.006110545
11	0xbe87193b	-0.26386437
12	0x3e80cd98	0.25156856
13	0xbe8df2d2	-0.2772432
14	0x3e58af95	0.21160729
15	0xbda20ec2	-0.07912971
16	0x3e9f63d9	0.31130865
17	0x3b99c34c	0.0046924707
18	0x3f08e2c3	0.5347101
19	0x3f574c6c	0.84100986
20	0xbe5a5ab6	-0.21323666
21	0x3e166878	0.14688289
22	0xbe5ee1e2	-0.21765855
23	0x3d5a4c10	0.053295195
24	0x3d95944d	0.07303677
25	0x3ec4872a	0.38384372
26	0x3d832186	0.064028785
27	0x3ea059b3	0.31318435
28	0x3ea99494	0.3312117
29	0x3f1b41ab	0.60647076
30	0xbd089b78	-0.03335139
31	0x3d1b0445	0.03784587
32	0x3dfd1912	0.123582974
33	0xbf097636	-0.53696
34	0xbd9240b7	-0.071412496
35	0x3ecfbb49	0.40572575
36	0x3de25540	0.110514164
37	0x3f3ea57b	0.74471253
38	0x3d0b2384	0.033969417
39	0x3ededf55	0.43529764
40	0x3e548de1	0.20757248
41	0x3e3ecb7b	0.18632309
42	0x3df537c3	0.11973526
43	0x3e3c058a	0.18361488
44	0xbcad05f6	-0.021121006
45	0x3e08950e	0.1333811
46	0x3e138d7b	0.1440944
47	0x3c85a046	0.016311776
48	0x3d5e55cb	0.054281037
49	0x3ad7edd6	0.0016474079
50	0xbb684b74	-0.0035445364
51	0x3ed28605	0.41117874
52	0x3e03ccfb	0.12871163
53	0x3ea9347e	0.3304786
54	0x3ef88621	0.48539832
55	0x3e2e6a46	0.17032728
56	0xbe52eff6	-0.2059935
57	0x3ef22d2c	0.47300088
58	0x3e9dff37	0.30858776
59	0x3e38b2d6	0.1803697
60	0x3d5365c1	0.051610712
61	0xbe0c3f6c	-0.13696069
62	0x3c9452b2	0.018105838
63	0x3db5a6a9	0.088696785
64	0xbedbe971	-0.4295154
65	0x3e16b49e	0.14717337
66	0x3b8f20bc	0.004367916
67	0x3c72f7e9	0.014829614
68	0xbf5d1c77	-0.8637156
69	0x3db5bca4	0.08873871
70	0x3ebf28ff	0.37335965
71	0xbd85a331	-0.06525267
72	0x3eb7c89a	0.35895234
73	0x3c78af66	0.015178537
74	0xbd965d08	-0.07341963
75	0x3e421d7d	0.18956561
76	0x3edac04e	0.42724842
77	0xbe18d127	-0.14923535
78	0xbe3cb547	-0.18428527
79	0x3e37fd8f	0.17967819
80	0x3eaa2e0b	0.33238253
81	0x3edc74fb	0.43058
82	0x3d952a78	0.07283491
83	0xbe646244	-0.2230311
84	0xbef1ef69	-0.47252968
85	0xbe67ee74	-0.22649556
86	0xbd87972c	-0.066206306
87	0xbc5ecb4e	-0.013598276
88	0xbe9eb43c	-0.30996883
89	0x3f278fe8	0.6545396
90	0x3e182098	0.14856184
91	0xbe9939f5	-0.2992703
92	0x3e013d20	0.12620974
93	0x3e57583e	0.21029755
94	0x3d314844	0.04328181
95	0x3e1f8981	0.15579797
96	0x3e17f498	0.14839399
97	0xbe64c627	-0.22341214
98	0x3e5345ec	0.20632142
99	0x3ec847ea	0.39117366
100	0xbe9be716	-0.30449742
101	0xbef35131	-0.47522882
102	0x3f04ef7e	0.51927936
103	0xbe3a0e67	-0.18169557
104	0xbdcc6a5d	-0.09981225
105	0xbe280b4c	-0.1641056
106	0x3d2fd319	0.042925928
107	0x3d9ad7c0	0.07560682
108	0xbdee2e28	-0.11629897
109	0xbec83f42	-0.39110762
110	0xbeac0427	-0.33596918
111	0x3dbc2f72	0.09188737
112	0x3e4b2f6d	0.1984231
113	0xbe4225d3	-0.18959741
114	0x3e84051e	0.25785154
115	0x3cea2fdf	0.02858728
116	0x3ed774c5	0.42081276
117	0x3d3b02f0	0.0456571
118	0xbf054084	-0.5205157
119	0xbeb59161	-0.35462478
120	0x3d6c6c96	0.057720743
121	0xbdb16ae6	-0.086629674
122	0x3f2dad2d	0.6784237
123	0xbf02a8a8	-0.510386
124	0x3ec6b24a	0.388079
125	0xbcf5f2f9	-0.030023085
126	0xbeb031ee	-0.34413093
127	0xbd8ed287	-0.06973749
128	0x3e15f7da	0.14645329
129	0xbf025c18	-0.50921774
130	0xbd32a9d8	-0.043619007
131	0xbe24876d	-0.16067286
132	0xbcfc1851	-0.030773314
133	0xbeb9721f	-0.3621988
134	0xbe7099f9	-0.23496236
135	0x3eba4580	0.3638115
136	0x3d8ce5ed	0.06879792
137	0xbdc364ec	-0.09540734
138	0xbdba1b20	-0.09087205
139	0x3f03a8ab	0.5142924
140	0xbda38543	-0.07984402
141	0x3ea19727	0.31560633
142	0x3e416f48	0.18890107
143	0xbdff8933	-0.124773405
144	0x3e731b5b	0.23740904
145	0x3ea1ab91	0.31576207
146	0xbdd93b7d	-0.106070496
147	0x3ef6b755	0.48186746
148	0xbcf0ae33	-0.02937994
149	0xbd795d7f	-0.06088018
150	0x3ea2c44a	0.31790382
151	0x3c81e3c6	0.015855681
152	0xbe25af16	-0.16180071
153	0xbf03f7e6	-0.5155014
154	0x3d735e36	0.05941602
155	0xbd5247d8	-0.051338047
156	0x3e0f61c9	0.14002146
157	0x3de00b9a	0.10939713
158	0xbc72d36f	-0.0148209175
159	0x3e85ba56	0.26118726
160	0xbb9f0474	-0.004852826
161	0x3da15e06	0.07879262
162	0xbeb73309	-0.35781124
163	0x3dd6d114	0.10489097
164	0xbe645323	-0.22297339
165	0x3e484054	0.19555789
166	0x3ec19414	0.37808287
167	0xbc8688f0	-0.016422719
168	0xbe13cd09	-0.14433683
169	0x3ee476d6	0.44621915
170	0x3f3381e4	0.7012007
171	0xbd8415b8	-0.06449455
172	0xbcbac54f	-0.022799162
173	0xbe7bc53e	-0.2458696
174	0x3e7841cd	0.24243851
175	0x3eb16483	0.34646997
176	0x3eab6fd0	0.33483744
177	0xbecc4149	-0.3989356
178	0x3ede1352	0.43374115
179	0xbee94194	-0.45557845
180	0x3e83bf97	0.2573211
181	0x3e5ec7c8	0.21755898
182	0xbd5a118a	-0.053239383
183	0x3db5ac3a	0.0887074
184	0xbe7c3303	-0.24628834
185	0x3e69a48c	0.22816676
186	0x3d99339c	0.07480547
187	0xbd80aa98	-0.06282538
188	0xbd08e57f	-0.03342199
189	0xbe26ff88	-0.16308415
190	0xbd3d12e9	-0.046160612
191	0x3eaa11de	0.33216757
192	0x3cba6f25	0.022758076
193	0x3d357d80	0.04430914
194	0x3ec5ef00	0.38658905
195	0xbe1d1d03	-0.15343098
196	0xbe67325a	-0.22577801
197	0x3c870468	0.016481593
198	0x3e08009b	0.13281481
199	0xbddbf06a	-0.10739215
200	0x3e742691	0.23842837
201	0x3d28b622	0.04118932
202	0xbe33641f	-0.17518662
203	0xbe86f119	-0.26355818
204	0x3db17169	0.086642094
205	0xbdd92554	-0.10602823
206	0x3e061e0e	0.13097402
207	0xbe3222bf	-0.17396067

weight_hh_l0 f4 [52, 13]
0	0xbcf42ca4	-0.029806443
1	0xbe0c970c	-0.13729495
2	0x3dd9dea9	0.10638172
3	0xbe7f991c	-0.2496075
4	0x3dd4b01d	0.103851534
5	0xbbd96d51	-0.006635346
6	0xbeb5ec2f	-0.35531756
7	0xbeb50375	-0.353542
8	0x3ce44dc0	0.027869105
9	0x3e915757	0.28386948
10	0xbe9a647e	-0.30154794
11	0x3d820fd6	0.06350677
12	0xbded36cb	-0.115827166
13	0x3da3834f	0.079840295
14	0x3e4637da	0.19357243
15	0x3ce66fd3	0.028129494
16	0xbeab4478	-0.33450675
17	0x3e51bce8	0.20482218
18	0x3c893d43	0.016752845
19	0xbedc3bd3	-0.43014392
20	0x3df0589b	0.1173565
21	0xbe9338cc	-0.2875427
22	0x3e98e763	0.29864034
23	0x3e153d5a	0.14574185
24	0xbd94350b	-0.0723668
25	0xbde4caf2	-0.11171521
26	0x3e760aa0	0.2402749
27	0xbec3344b	-0.38125834
28	0xbbc39e9c	-0.0059698354
29	0xbe6bbb1d	-0.23020597
30	0x3d678f8e	0.05653339
31	0xbedd19bd	-0.431837
32	0x3dbb795c	0.09154007
33	0x3d5dc188	0.054139644
34	0xbd1798d3	-0.03701098
35	0xbcb03d1f	-0.02151352
36	0x3ec0a873	0.37628517
37	0x3e525a2f	0.20542215
38	0x3e5248b1	0.20535542
39	0xbe76165d	-0.24031968
40	0xbeebe7b1	-0.46075204
41	0x3e1d0848	0.1533519
42	0xbea075c1	-0.3133984
43	0x3eee5147	0.46546385
44	0xbf130ab5	-0.5743821
45	0xbe7f49cb	-0.24930494
46	0xbde1f0ad	-0.110322334
47	0xbf7c0551	-0.9844561
48	0x3ed51454	0.41617072
49	0x3e2c3fe8	0.16821253
50	0x3e356856	0.17715582
51	0x3e070884	0.13186842
52	0xbe3d7665	-0.18502195
53	0xbebb9032	-0.3663345
54	0x3f1a6a52	0.6031848
55	0xbee6a62a	-0.45048648
56	0x3ebbbd0a	0.36667663
57	0xbd997151	-0.074923165
58	0xbd498253	-0.049196552
59	0xbe89aaee	-0.26888222
60	0xbd592eb0	-0.05302304
61	0x3e667c67	0.22508393
62	0x3dfe3b2b	0.12413629
63	0x3e61ad96	0.22038874
64	0x3eed81b2	0.46388012
65	0xbd833791	-0.06407083
66	0x3e1d10c8	0.15338433
67	0xbdf67082	-0.12033178
68	0x3db6308d	0.08895979
69	0x3e81d60f	0.25358626
70	0xbd24e05c	-0.04025303
71	0xbd241884	-0.040062442
72	0xbf0638bb	-0.52430314
73	0xbda7df79	-0.08196921
74	0x3e12c960	0.14334631
75	0xbbd6077a	-0.006531653
76	0xbe6c9162	-0.23102334
77	0xbd5d9135	-0.05409356
78	0x3e1b53f6	0.15168747
79	0xbecbc12a	-0.3979581
80	0x3e56a6a6	0.20962009
81	0xbea929e4	-0.33039773
82	0x3eeb82e4	0.459983
83	0x3c935d34	0.017988779
84	0xbee4bc3f	-0.4467487
85	0xbf1d5741	-0.61461264
86	0xbf2be4d7	-0.67146057
87	0x3e7dd802	0.24789432
88	0x3ee45f97	0.4460418
89	0x3d5f45c5	0.054509897
90	0x3f00cb5a	0.5031029
91	0xbe331f19	-0.17492332
92	0xbdad4288	-0.084599555
93	0xbe846eba	-0.25865728
94	0x3d89bd90	0.06725609
95	0xbb9810b0	-0.004640661
96	0x3eb10bea	0.34579402
97	0xbeb7d932	-0.35907894
98	0xbca39550	-0.019968659
99	0xbf2b4e54	-0.66916394
100	0xbe152546	-0.14565
101	0x3da36a96	0.07979314
102	0x3eb03a47	0.34419462
103	0xbe5ff0ae	-0.21869156
104	0x3d5a595c	0.053307876
105	0x3cde4630	0.027133077
106	0x3d60c00d	0.054870654
107	0x3dd1e20c	0.10248193
108	0xbdd74d27	-0.105127625
109	0x3eb794dc	0.35855758
110	0x3f3a57b8	0.727901
111	0x3eaf86e1	0.34282592
112	0xbdcb38b5	-0.099229254
113	0xbe546500	-0.20741653
114	0xbe96dfaf	-0.29467532
115	0x3e5fbb00	0.21848679
116	0x3d8f6668	0.07001954
117	0x3dbab60c	0.09116754
118	0x3c813b56	0.015775364
119	0xbeaf1447	-0.34195158
120	0xbdfe98b5	-0.1243147
121	0x3d5397f0	0.05165857
122	0xbe80253e	-0.25028414
123	0xbedb53a5	-0.42837253
124	0x3e4f9f72	0.20275667
125	0xbd8ac07a	-0.06774993
126	0x3ce3ea91	0.02782181
127	0x3e27c5d8	0.16384065
128	0xbe04df7b	-0.12975876
129	0xbc6d663e	-0.0144897085
130	0x3d9ed6d4	0.07755819
131	0xbeafaa0a	-0.34309417
132	0xbe185ee9	-0.14879955
133	0xbd94e453	-0.07270112
134	0x3dbbb209	0.09164817
135	0xbd98e6f1	-0.074659236
136	0x3d96b1c4	0.07358125
137	0x3c346edd	0.01101276
138	0xbd83ce6e	-0.06435858
139	0x3e6bd19f	0.23029183
140	0xbd21025c	-0.03930889
141	0x3d872513	0.06598868
142	0x3ebfcdaf	0.37461612
143	0xbd8312ab	-0.06400045
144	0x3cff30d3	0.03115121
145	0x3d803d2a	0.06261666
146	0x3dfc53d8	0.123206794
147	0x3e05d48f	0.13069366
148	0x3d80e6eb	0.06294044
149	0x3e52e5e3	0.20595507
150	0x3e124b79	0.14286603
151	0xbef81ac6	-0.48457927
152	0x3efe2bca	0.49642783
153	0xbe58eff6	-0.21185288
154	0x3e1f50c6	0.15558156
155	0x3eabc06b	0.3354524
156	0x3e7e2af3	0.24821071
157	0x3d97d414	0.074134976
158	0xbeb73509	-0.3578265
159	0xbe249d1c	-0.16075557
160	0x3e459d99	0.192984
161	0xbe2809eb	-0.16410033
162	0x3e449e4d	0.19201012
163	0xbe49f803	-0.19723515
164	0x3e0ea45e	0.13929889
165	0xbd1a76b5	-0.037710864
166	0xbe4f5bc2	-0.20249847
167	0xbc3d872c	-0.011567872
168	0x3eb0d4c0	0.34537315
169	0xbd786627	-0.060644295
170	0xbd391ca4	-0.04519333
171	0xbdcd0ac3	-0.10011818
172	0xbeb3668b	-0.35039172
173	0x3e4236c0	0.18966198
174	0xbde6ea16	-0.11275117
175	0x3e0ba55a	0.13637295
176	0xbe21915e	-0.1577811
177	0xbd878397	-0.06616896
178	0x3d3314cb	0.043721
179	0xbe5e68d8	-0.21719682
180	0x3e0fd4a8	0.14045966
181	0x3dfb3af0	0.12267101
182	0xbeb2f810	-0.34954882
183	0x3e24302c	0.16034001
184	0x3dfbbcca	0.12291868
185	0xbeb5108c	-0.35364187
186	0xbdca4dd0	-0.09878123
187	0xbecb5b7a	-0.3971823
188	0xbe0ecd48	-0.13945496
189	0x3d7c02f8	0.06152627
190	0x3c2b9eb9	0.010474854
191	0xbdd19169	-0.10232813
192	0x3e9e1404	0.30874646
193	0x3e626c98	0.22111738
194	0x3dd1039c	0.102057666
195	0x3d4d5612	0.05013091
196	0xbd82d4af	-0.063882224
197	0x3eed0d90	0.4629941
198	0xbd8873bc	-0.066626996
199	0xbde52160	-0.111880064
200	0x3e7cba98	0.24680555
201	0xbd6ece67	-0.05830231
202	0xbe415fdd	-0.18884225
203	0xbeb9c98b	-0.36286578
204	0x3e360162	0.17773965
205	0x3da72be4	0.08162668
206	0x3e9d6e53	0.30748233
207	0x3e90692c	0.2820524
208	0x3d316a15	0.04331406
209	0xbda4ee25	-0.08053235
210	0xbe1f923d	-0.15583129
211	0x3ddaa221	0.10675455
212	0xbeebaa69	-0.4602845
213	0x3e265d4c	0.16246527
214	0xbedb462f	-0.42826983
215	0xbd176e22	-0.036970265
216	0xbe35b554	-0.17744952
217	0x3eb080cb	0.3447326
218	0x3e1611b4	0.1465519
219	0x3e4525c5	0.19252689
220	0xbdb21f3b	-0.08697363
221	0xbd9a1075	-0.0752267
222	0xbe12feed	-0.14355059
223	0xbdad1104	-0.08450511
224	0xbd9d137f	-0.07669734
225	0xbe3a9376	-0.18220314
226	0xbe8f8d11	-0.28037313
227	0x3e33ddf6	0.1756514
228	0x3d4ab15a	0.049485542
229	0x3de8cf94	0.113677174
230	0xbe9a39a4	-0.301221
231	0x3d6ae3c0	0.057346106
232	0x3e7bee3a	0.24602595
233	0x3ee27a6e	0.4423403
234	0x3e83943f	0.2569904
235	0xbe38c5c8	-0.18044198
236	0xbe0ec191	-0.13941027
237	0x3f07c85b	0.53040093
238	0x3d8e2558	0.069407165
239	0xbe550481	-0.208025
240	0xbeb3b132	-0.35096127
241	0x3da7fd77	0.082026415
242	0xbe4530a5	-0.19256838
243	0x3dc63233	0.096775435
244	0x3e0241cd	0.12720414
245	0x3ea5d2a8	0.3238728
246	0xbddb5759	-0.107100196
247	0xbebc6df8	-0.3680265
248	0xbe414388	-0.18873417
249	0x3e4f87e0	0.20266676
250	0xbf120314	-0.57035947
251	0xbe3283f8	-0.17433155
252	0xbe807c4a	-0.25094825
253	0xbf1ce891	-0.6129237
254	0xbe6615bb	-0.22469227
255	0xbf26bda5	-0.65133125

bias_ih_l0 f4 [52]
0	0x3d943563	0.07236745
1	0x3eb0c0f2	0.34522206
2	0x3e418c69	0.18901218
3	0x3e062919	0.13101615
4	0x3eb9ac19	0.36264113
5	0x3db4132c	0.08792719
6	0x3e59e4cf	0.2127869
7	0x3dd7c783	0.10536101
8	0x3eb49903	0.3527299
9	0x3c80d204	0.015725143
10	0xbe2ceee4	-0.16888005
11	0x3dea6dcd	0.11446724
12	0x3d31d478	0.043415517
13	0x3eae3330	0.34023428
14	0x3d921cdd	0.071344115
15	0xbca37260	-0.019952
16	0xbdd7a77a	-0.105299905
17	0xbe2365d4	-0.15956813
18	0x3e84b985	0.2592279
19	0xbdae1847	-0.08500724
20	0x3e81513f	0.25257298
21	0xbe9cb7f4	-0.30609095
22	0x3e517433	0.20454483
23	0x3e1a6fdb	0.15081732
24	0xbe5d75c7	-0.2162696
25	0xbe52775a	-0.20553342
26	0x3afa9112	0.0019116721
27	0xbe096780	-0.13418388
28	0x3cdc3ee6	0.026885461
29	0xbe991415	-0.29898134
30	0x3e2e36dc	0.17013115
31	0xbe17d2a9	-0.14826454
32	0xbea55205	-0.32289138
33	0xbe3bdcff	-0.18346022
34	0xbde30936	-0.11085741
35	0x3ea24003	0.31689462
36	0x3e51d955	0.20493062
37	0x3e03c1fa	0.12866965
38	0x3e676e62	0.22600701
39	0xbe4c4cb7	-0.1995114
40	0x3e36642c	0.1781165
41	0x3ea29af1	0.31758836
42	0x3e9b0cef	0.30283305
43	0x3c7239fa	0.0147843305
44	0x3cdf20b2	0.02723727
45	0x3dd9078e	0.10597144
46	0x3e885cc2	0.2663327
47	0x3e9b8b54	0.30379736
48	0x3eb084aa	0.34476215
49	0x3db478c6	0.08812098
50	0x3e755078	0.23956478
51	0x3e66aee6	0.22527656

bias_hh_l0 f4 [52]
0	0x3e9423e1	0.28933623
1	0x3e60fffe	0.21972653
2	0x3e8e87fe	0.2783813
3	0x3e5cdf05	0.2156945
4	0x3f014ed4	0.5051091
5	0x3e56db12	0.20982006
6	0x3cfc82ec	0.030824147
7	0xbd69fa2a	-0.05712334
8	0x3e25427d	0.16138645
9	0x3d95b1bd	0.073092915
10	0xbd0bc9f0	-0.03412813
11	0xbda7b19d	-0.08188174
12	0x3e94a868	0.29034734
13	0x3ca86dbb	0.020560136
14	0x3e9b6018	0.3034675
15	0xbb8db02f	-0.0043239812
16	0xbda65bde	-0.08122991
17	0xbdeccefa	-0.11562915
18	0xbdfec3aa	-0.12439664
19	0x3e522a74	0.20524007
20	0x3e9118ea	0.2833932
21	0xbe56afe8	-0.2096554
22	0xbb9f6310	-0.004864104
23	0xbe34586b	-0.17611854
24	0x3b3328a8	0.0027337465
25	0x3e9e5009	0.30920437
26	0xbe8faf0e	-0.28063244
27	0x3db72992	0.08943476
28	0x3e4b8912	0.19876507
29	0x3d73beda	0.059508182
30	0xbe0bfe4c	-0.13671225
31	0x3d47061b	0.048589807
32	0x3e3025d4	0.1720193
33	0xbd3a78c8	-0.045525342
34	0x3e2e5a6c	0.1702668
35	0x3dcdd8ad	0.10051093
36	0x3d924fbd	0.07144115
37	0x3d89818b	0.067141615
38	0x3e763bdc	0.24046272
39	0x3d93e870	0.07222068
40	0x3e6b2020	0.22961473
41	0xbe2defc2	-0.16985992
42	0x3e8c8fc5	0.27453437
43	0xbc423276	-0.011852851
44	0x3e251f1e	0.16125152
45	0x3cd20480	0.025636911
46	0xbdc01d89	-0.093806334
47	0x3da5790e	0.0807973
48	0x3e67f6b4	0.22652704
49	0x3e3cb67c	0.18428987
50	0xbbcaa056	-0.0061836643
51	0x3e93f5ef	0.2889857

weight_ih_l0_reverse f4 [52, 4]
0	0xbdeedff7	-0.11663812
1	0xbea2e39b	-0.31814274
2	0x3e87e3d9	0.2654102
3	0x3e25d87b	0.16195862
4	0x3f156247	0.58353084
5	0x3cd79459	0.026315855
6	0x3e83a36d	0.2571062
7	0x3e42618a	0.1898252
8	0x3e0c0c05	0.1367646
9	0x3ebbc82c	0.36676157
10	0x3ec7c645	0.39018455
11	0xbea9397f	-0.3305168
12	0x3e129bf2	0.14317301
13	0x3df098f2	0.11747922
14	0x3e0068f5	0.12540038
15	0xbe063bb3	-0.13108711
16	0xbe4ea5d7	-0.2018045
17	0x3edbf737	0.42962047
18	0x3e47d213	0.1951373
19	0x3e2820ee	0.16418812
20	0x3edb006b	0.42773756
21	0x3db75e67	0.08953553
22	0x3ef2641a	0.47341996
23	0xbde4f955	-0.11180369
24	0xbad0ef76	-0.0015940506
25	0xbe8d763a	-0.27629262
26	0xbe34ea37	-0.17667471
27	0xbe424a23	-0.18973593
28	0xbe5ddaf5	-0.21665557
29	0xbe6a19f3	-0.22861461
30	0x3f32d235	0.69852
31	0x3c0505cf	0.008119061
32	0x3dd1aeba	0.102384046
33	0x3d0eb40b	0.03483967
34	0x3db9a2db	0.09064265
35	0x3e47774d	0.19479103
36	0xbed41bc7	-0.41427442
37	0xbe0a69a4	-0.13516861
38	0x3e083d1e	0.13304564
39	0x3e2a0478	0.16603267
40	0x3da9207c	0.08258149
41	0x3ec75b30	0.38936758
42	0xbc18e82d	-0.009332699
43	0xba4a2267	-0.0007710815
44	0x3e78924f	0.24274562
45	0xbd581868	-0.05275765
46	0x3eb4ad69	0.3528855
47	0x3f52b676	0.82309663
48	0x3e17c761	0.14822151
49	0xbd5b2700	-0.05350399
50	0x3dbe0a59	0.092793174
51	0xbdd92ac8	-0.10603863
52	0x3dae2a8b	0.08504208
53	0xbd45e266	-0.048311614
54	0xbd67ff1f	-0.056639787
55	0x3d7bbb96	0.061458193
56	0x3e65abc7	0.22428809
57	0xbcdce9c2	-0.026966933
58	0x3ea50965	0.3223373
59	0x3e596484	0.2122975
60	0xbce53432	-0.02797899
61	0x3ead19b1	0.33808663
62	0xbe765d62	-0.2405906
63	0x3d328e63	0.04359282
64	0x3e2a38d3	0.16623239
65	0xbdffc99f	-0.12489628
66	0x3ecc4360	0.39895153
67	0x3e57d718	0.21078146
68	0xbe77f301	-0.24213792
69	0xbcee31f8	-0.029076561
70	0x3f0fafa4	0.5612738
71	0xbe0a87d3	-0.13528375
72	0x3e1bd39e	0.15217444
73	0x3e9acbfd	0.30233756
74	0x3d4377f3	0.047721814
75	0x3eae06c3	0.33989534
76	0x3e8af869	0.27142647
77	0xbe0fc40c	-0.1403963
78	0x3d9baf88	0.07601839
79	0x3ec98613	0.39360103
80	0xbf15a813	-0.58459586
81	0x3e9272a0	0.28603077
82	0xbbd84127	-0.0065995636
83	0x3c620eff	0.013797521
84	0xbec77558	-0.38956714
85	0xbe843de3	-0.25828466
86	0xbd853e9c	-0.065060824
87	0x3c066952	0.008203821
88	0x3e9463e5	0.28982463
89	0x3d2e0479	0.042484734
90	0x3f00ceba	0.5031544
91	0x3e1eb340	0.15498066
92	0x3c97f8cd	0.018551255
93	0xbd08b09d	-0.033371557
94	0xbe25ada4	-0.1617952
95	0x3dcf43a3	0.101203226
96	0x3ca282f5	0.019837836
97	0xbec4fe00	-0.38475037
98	0xbe247526	-0.16060314
99	0x3de770bb	0.113007985
100	0x3f3d69b3	0.7398941
101	0x3d18e2b3	0.037325572
102	0xbe3f4787	-0.1867963
103	0xbd90f22f	-0.07077443
104	0x3eb0a7fa	0.34503156
105	0xbe25c9d3	-0.16190271
106	0xbeabc9b7	-0.33552334
107	0x3ce339ad	0.027737463
108	0x3e89b6ee	0.26897377
109	0x3e8540e0	0.26026058
110	0xbdacd0c5	-0.08438257
111	0xbee3e678	-0.4451177
112	0xbf400161	-0.75002104
113	0x3de69fd2	0.11260952
114	0x3e85072e	0.2598204
115	0x3d96c655	0.073620476
116	0x3dd1cbbc	0.102439374
117	0x3e85ba52	0.26118714
118	0xbecc4125	-0.3989345
119	0x3e95069e	0.2910661
120	0x3dcf0559	0.10108442
121	0xbec1d83c	-0.37860286
122	0xbdd21857	-0.10258549
123	0xbdcccadc	-0.0999963
124	0x3eb71de6	0.35764998
125	0xbe68172c	-0.2266509
126	0x3e5f9acf	0.21836399
127	0x3cfc80b0	0.030823082
128	0xbe1c87a5	-0.1528612
129	0x3d9e70cc	0.07736358
130	0xbe115a7c	-0.14194673
131	0xbdeeeae1	-0.11665893
132	0x3e99542c	0.2994703
133	0x3e5996bd	0.21248908
134	0xbef4f234	-0.47841036
135	0x3e1daa68	0.15397036
136	0xbe499de3	-0.19689135
137	0xbeb99bc0	-0.3625164
138	0x3e387f6f	0.18017362
139	0x3edcbc9d	0.4311265
140	0xbeaa2b69	-0.33236244
141	0xbf114291	-0.567422
142	0x3cfb3258	0.030663654
143	0x3d841fdf	0.064513914
144	0xbe899d15	-0.26877657
145	0xbe8e4a81	-0.27791217
146	0x3e7aed29	0.24504532
147	0x3e0122cc	0.1261093
148	0x3e9d87f4	0.30767787
149	0x3e7ac4ba	0.24489108
150	0x3d12d4e4	0.03584756
151	0x3d00b7c3	0.03142525
152	0xbe3eb1a6	-0.18622455
153	0x3e9c639a	0.3054474
154	0x3c530d51	0.012881593
155	0xbd538521	-0.051640633
156	0x3e8b6a5a	0.27229577
157	0xbe32ac31	-0.17448498
158	0x3e57c3c9	0.2107078
159	0xbd514bc5	-0.05109765
160	0x3eb1ddf5	0.34739652
161	0xbdac98ca	-0.0842758
162	0xbda972a9	-0.08273823
163	0x3ea5d43a	0.3238848
164	0x3e935b6e	0.28780693
165	0x3e34786e	0.17624065
166	0xbe5d9d0a	-0.21641937
167	0x3e81e691	0.2537122
168	0xbe093623	-0.13399558
169	0x3e76f6be	0.24117562
170	0x3e27535f	0.16340397
171	0x3df1d741	0.118086345
172	0xbef81b84	-0.48458493
173	0x3f116809	0.5679937
174	0xbd374ecc	-0.04475288
175	0x3e639c2a	0.2222754
176	0xbd855277	-0.065098695
177	0xbee01fd2	-0.43774277
178	0x3e74c8ae	0.23904678
179	0x3e617eb4	0.2202099
180	0x3ed2fc8d	0.41208306
181	0xbc0038b8	-0.007826023
182	0x3d94ff6f	0.072752826
183	0x3d120a35	0.035654265
184	0xbe43cc55	-0.19120915
185	0x3da1191c	0.07866117
186	0xbd7a33a6	-0.061084412
187	0x3f09cb2c	0.5382564
188	0xbd8e7a3e	-0.069569096
189	0x3ddf0a9b	0.10890695
190	0x3e36d992	0.17856434
191	0xbbb9f0db	-0.005674464
192	0xbe081f72	-0.13293245
193	0x3e8f0bb4	0.27938616
194	0x3e6d5ff2	0.23181131
195	0xbce79324	-0.028268404
196	0xbdb687c4	-0.08912614
197	0xbe227301	-0.15864183
198	0xbf04202b	-0.51611584
199	0x3ee7f110	0.45301104
200	0x3e764cff	0.24052809
201	0xbe6f5a6c	-0.23374337
202	0xbdf77ced	-0.120843746
203	0x3ea1ffca	0.31640464
204	0x3d4d3cd5	0.050106842
205	0x3dfc5cc7	0.123223834
206	0x3e18233f	0.14857195
207	0xbddf2fed	-0.10897813

weight_hh_l0_reverse f4 [52, 13]
0	0x3a82b760	0.0009972863
1	0x3ca2d039	0.019874679
2	0x3e0dac27	0.13835202
3	0x3e454f0f	0.1926844
4	0xbe6bbd93	-0.23021536
5	0x3e221128	0.15826857
6	0xbd9ec58d	-0.077525236
7	0x3ec53f57	0.38524887
8	0xbdf4f9f4	-0.11961737
9	0xbc4bd44a	-0.01244075
10	0xbe2dc56e	-0.16969845
11	0x3e93dbaf	0.28878543
12	0x3d4b3c05	0.049617786
13	0xbdf64ac7	-0.120259814
14	0x3e8014d0	0.2501588
15	0x3e3fb928	0.18722975
16	0x3d607ec3	0.05480839
17	0xbed95b8d	-0.4245266
18	0x3e2f7aa0	0.17136621
19	0xbe644221	-0.22290851
20	0x3e3db1b1	0.18524815
21	0xbd9184d4	-0.07105413
22	0x3dfc990d	0.123338796
23	0xbf05998a	-0.52187407
24	0x3db1dffc	0.086853
25	0x3eb06cc4	0.34457982
26	0xbf036a6e	-0.51334274
27	0x3da0cd6b	0.0785168
28	0x3e086367	0.13319169
29	0x3dd9a603	0.10627367
30	0x3a7501c4	0.00093462714
31	0x3e1581b0	0.14600253
32	0xbe99fca4	-0.30075562
33	0x3e56605c	0.20935196
34	0xbd42ea59	-0.047586773
35	0xbed0b081	-0.40759662
36	0x3d09ede4	0.033674136
37	0xbe038e12	-0.12847164
38	0x3dc7f725	0.09763936
39	0xbe7e59bb	-0.24838917
40	0x3edf16de	0.43572134
41	0xbe72f0c7	-0.23724662
42	0x3e39d9d1	0.18149497
43	0xbbff727a	-0.007795629
44	0x3e8356ee	0.2565226
45	0xbd41d417	-0.047321405
46	0xbe91c0f2	-0.28467518
47	0x3e572686	0.2101079
48	0xbe3a2073	-0.18176441
49	0xbe13ce48	-0.14434159
50	0xbd167a1f	-0.036737558
51	0x3ea63153	0.32459506
52	0x3d36ad0d	0.044598628
53	0x3d227f5d	0.039672244
54	0x3dc6f086	0.09713845
55	0xbeaaee67	-0.33385012
56	0xbdf1f979	-0.11815161
57	0x3e5d31d7	0.21601044
58	0x3d8f94e4	0.070108205
59	0x3e3df24c	0.1854946
60	0x3e604483	0.21901135
61	0xbcdf5064	-0.027260013
62	0xbdb347d0	-0.087539315
63	0xbe42a3df	-0.19007824
64	0x3dd0f1e3	0.10202386
65	0xbe038c42	-0.12846473
66	0xbe0eb409	-0.13935865
67	0x3de73e70	0.11291206
68	0x3df8bf8b	0.12145909
69	0x3d25d7ff	0.040489193
70	0x3e8091b0	0.2511115
71	0x3ced55a7	0.028971506
72	0x3e17b975	0.1481684
73	0xbe19386f	-0.14962934
74	0xbe26e7ae	-0.16299316
75	0x3e79b986	0.24387178
76	0xbe4435f0	-0.191612
77	0x3e76163f	0.24031924
78	0x3de67531	0.11252821
79	0x3e79cb32	0.24393919
80	0x3dcb4667	0.099255376
81	0xbc877570	-0.01653549
82	0xbf018bdb	-0.5060403
83	0xbe89d42a	-0.2691968
84	0xbc66207a	-0.014045829
85	0x3d6f633a	0.05844424
86	0xbe613cd4	-0.2199586
87	0xbe6b7931	-0.2299545
88	0x3cb0a668	0.021563724
89	0x3e707a41	0.23484136
90	0xbd8e92d3	-0.06961598
91	0xbda16c79	-0.07882018
92	0x3d67b92b	0.056573074
93	0xbdf550b8	-0.119782865
94	0x3e9dc494	0.3081404
95	0xbefdab51	-0.49544767
96	0x3e9c20e4	0.30493844
97	0xbe2b6e19	-0.16741218
98	0x3dde9cc9	0.10869748
99	0xbe21dbc4	-0.1580649
100	0xbe52d2d2	-0.20588234
101	0xbdebd494	-0.115151554
102	0x3ea2061d	0.3164529
103	0x3b1d9f87	0.0024051385
104	0x3d528e3c	0.051405177
105	0xbe173d8d	-0.14769574
106	0x3e89f044	0.2694112
107	0x3e660d0e	0.22465917
108	0x3e49a4ff	0.19691847
109	0xbbdb31b8	-0.0066892765
110	0x3da18e3e	0.07888459
111	0x3e971380	0.29507065
112	0xbe42b508	-0.1901437
113	0xbe81d7c7	-0.25359938
114	0xbea55bcb	-0.32296595
115	0xbe6ffea1	-0.23436977
116	0x3e18e4d0	0.14931035
117	0xbeaad399	-0.3336456
118	0x3c0bb49b	0.008526946
119	0xbe518661	-0.20461418
120	0x3d7d3f2f	0.061827835
121	0xbeeb3116	-0.45935887
122	0xbe32e7aa	-0.17471185
123	0xbc3c9221	-0.011509449
124	0xbd33da16	-0.043909155
125	0x3d8455be	0.064616665
126	0xbe49c53f	-0.1970415
127	0xbda66cd9	-0.0812623
128	0xbd941480	-0.072304726
129	0xbd2d9b3c	-0.04238437
130	0x3e6ae7ee	0.22940037
131	0x3dbb7ef7	0.09155076
132	0xbe93356d	-0.28751698
133	0x3e8f72da	0.28017312
134	0x3dda0a0c	0.106464475
135	0xbd3fe7a7	-0.04685178
136	0xbedf461c	-0.43608177
137	0x3db0ad98	0.086268604
138	0xbc10b91b	-0.008833195
139	0xbea71d8a	-0.32639724
140	0xbe4a88ba	-0.1977872
141	0xbe2811e5	-0.16413076
142	0x3e4c288c	0.19937342
143	0xbe3f1f18	-0.18664205
144	0x3c9f8dad	0.019476736
145	0xbe97f81e	-0.29681486
146	0x3eb383db	0.35061535
147	0xbe826623	-0.2546855
148	0x3dd17b2d	0.10228572
149	0xbebc51f4	-0.36781275
150	0x3e31fa54	0.17380649
151	0xbddb504f	-0.10708677
152	0xbece8bea	-0.4034112
153	0xbe2900a4	-0.1650415
154	0x3ead6a03	0.33869943
155	0x3efd8204	0.49513257
156	0x3de68f4e	0.11257802
157	0xbc9409cd	-0.01807108
158	0xbf1098c4	-0.564831
159	0x3e597aaa	0.21238199
160	0xbe0e9807	-0.13925181
161	0x3e42d5ae	0.19026825
162	0xbe3c4159	-0.18384303
163	0x3e8e7096	0.2782027
164	0xbe5afc89	-0.21385397
165	0x3c98f978	0.018673643
166	0xbe50002c	-0.20312566
167	0xbdaabd10	-0.08336842
168	0x3e824e05	0.2545015
169	0xbd5bf1a5	-0.053697247
170	0xbd20cbd5	-0.03925689
171	0xbe497e39	-0.19677056
172	0xbdf293c9	-0.11844594
173	0xbe6096f5	-0.21932586
174	0xbc881bb4	-0.016614772
175	0x3e6ef96c	0.23337334
176	0x3be72fcd	0.007055259
177	0xbdb79ac0	-0.08965063
178	0xbc142d14	-0.009043951
179	0xbdf0e9c1	-0.11763335
180	0xbe00ef71	-0.1259134
181	0x3d8c5f9f	0.06854176
182	0xbebcd834	-0.368837
183	0xbe3711f1	-0.17877938
184	0xbe02568b	-0.12728326
185	0xbd63784e	-0.055534653
186	0xbeaa54fc	-0.33267963
187	0x3d0df8cf	0.03466111
188	0x3beafd6b	0.007171323
189	0x3e07bb43	0.13255028
190	0xbe835ce2	-0.256568
191	0xbe8a9724	-0.27068436
192	0x3d5deedf	0.054182883
193	0xbdfaf94c	-0.12254581
194	0x3ee99e32	0.45628506
195	0xbe73a1aa	-0.23792139
196	0xbce72191	-0.028214248
197	0xbe6dad02	-0.23210528
198	0x3eb1ca08	0.3472445
199	0xbc383258	-0.011242472
200	0x3d5bad47	0.053632047
201	0xbe456d73	-0.19280033
202	0xbde08990	-0.10963738
203	0xbe0fc6b6	-0.14040646
204	0x3db221b2	0.08697833
205	0xbe7993d3	-0.24372797
206	0x3ee7a608	0.4524386
207	0x3ebf77b2	0.37396008
208	0xbf1ba73c	-0.60802054
209	0x3b348d40	0.0027550012
210	0xbeadf1ae	-0.3397345
211	0x3ec1a577	0.37821552
212	0xbe3cb406	-0.18428048
213	0x3ea75c87	0.3268778
214	0xbe405c0c	-0.18785113
215	0x3e1b7856	0.15182623
216	0xbe8598bb	-0.26093087
217	0xbed65843	-0.41864213
218	0xbdd723ad	-0.105048515
219	0x3e96fed4	0.29491293
220	0x3e83f2a2	0.25771052
221	0xbe630749	-0.22170748
222	0x3bd7b773	0.006583148
223	0x3dbe74c1	0.09299613
224	0x3dfbfc06	0.12303929
225	0xbcb7a4ab	-0.022417387
226	0x3db33b0b	0.08751496
227	0xbe4c7df2	-0.1996992
228	0xbe038a6e	-0.12845775
229	0x3dfc6c96	0.123253986
230	0x3e52475f	0.20535038
231	0xbdbd70cf	-0.09250032
232	0x3e3546af	0.17702745
233	0xbc8c28cf	-0.017109303
234	0x3e1ec6b9	0.15505494
235	0x3e7bcd73	0.24590091
236	0xbe3cfb89	-0.18455328
237	0xbc9f8129	-0.019470768
238	0x3e954a15	0.29158083
239	0xbdfa8081	-0.122315414
240	0xbe35eb47	-0.17765532
241	0x3e18d1a0	0.14923716
242	0x3e05b908	0.13058865
243	0xbe173445	-0.14766033
244	0x3ce88ada	0.028386522
245	0x3e24d673	0.16097431
246	0x3e5e078a	0.21682563
247	0xbde73de1	-0.11291099
248	0xbd051a9c	-0.03249608
249	0xbd177138	-0.03697321
250	0x3e76807d	0.24072452
251	0xbd153276	-0.036425076
252	0xbdd8f39a	-0.10593338
253	0xbd611a61	-0.054956798
254	0x3e547dc1	0.20751096
255	0x3d8663da	0.06562014

bias_ih_l0_reverse f4 [52]
0	0xbdb657ae	-0.08903442
1	0x3e74fdec	0.23924989
2	0xbdc178d2	-0.09446873
3	0x3db6b438	0.08921093
4	0xbe1ed7cc	-0.15512007
5	0x3eaa670c	0.33281744
6	0x3d48d836	0.04903432
7	0x3e6925e2	0.22768357
8	0xbdde9b17	-0.10869425
9	0x3e6d5fb6	0.23181042
10	0x3e7b6722	0.24551061
11	0x3e9e2dac	0.3089422
12	0x3d1d1f80	0.03836012
13	0x3dd5bea1	0.1043675
14	0xbd4d0897	-0.05005702
15	0x3d804520	0.062631845
16	0x3d42465e	0.04743039
17	0xbe490d37	-0.19633947
18	0x3a799601	0.00095209485
19	0xbd9079e0	-0.07054496
20	0x3e84a06c	0.25903642
21	0xbe07562c	-0.13216466
22	0x3eab57db	0.33465466
23	0x3d60a457	0.054844227
24	0xbe0bd0ad	-0.13653822
25	0xbdad47f5	-0.0846099
26	0x3e0baaf5	0.13639434
27	0x3e039cbe	0.12852761
28	0xbe0acda8	-0.13555014
29	0x3e518993	0.20462637
30	0xbe8eb1fd	-0.2787017
31	0x3e20239a	0.15638581
32	0xbdacd6a0	-0.08439374
33	0x3e7d254d	0.2472126
34	0xbe30c6eb	-0.17263381
35	0x3dad3571	0.08457459
36	0xbe4c170a	-0.19930664
37	0xbe69a054	-0.22815067
38	0x3d36e5b6	0.044652663
39	0xb9711d4c	-0.00022994465
40	0x3e8c989a	0.27460176
41	0x3e8d69ac	0.27619684
42	0x3ce40384	0.027833708
43	0x3e4f3a74	0.20237142
44	0x3e96b0c5	0.2943174
45	0xbe367f27	-0.17821942
46	0x3e9f9e6d	0.31175557
47	0xbdb8a9fa	-0.090167955
48	0x3e8a9013	0.27063045
49	0x3dcd27cb	0.100173555
50	0x3e3d0258	0.18457925
51	0xbd33c3a7	-0.04388776

bias_hh_l0_reverse f4 [52]
0	0x3de30f46	0.110868976
1	0x3c388050	0.011261061
2	0xbd9b6a62	-0.0758865
3	0x3dd209ea	0.10255797
4	0x3e936e76	0.28795213
5	0xbe1e2827	-0.15445004
6	0x3e319fe6	0.17346153
7	0x3ecc4360	0.39895153
8	0x3e8ae218	0.2712562
9	0xbd603aa1	-0.054743413
10	0x3e3344a2	0.1750665
11	0x3eb590e4	0.35462105
12	0xbdb47f2e	-0.0881332
13	0xbe293c56	-0.16526923
14	0x3e0e5140	0.13898182
15	0x3e03dec5	0.12877949
16	0x3eae8f73	0.34093818
17	0x3e28c3a5	0.16480882
18	0x3d8c4afa	0.06850238
19	0x3e875b13	0.26436672
20	0x3c5aecaa	0.013362089
21	0xbe1a4310	-0.15064645
22	0x3d9bbcc6	0.07604365
23	0x3e1a344a	0.15059009
24	0xbdabef7b	-0.08395287
25	0x3bcfcfcb	0.0063419095
26	0xbe4fc7bd	-0.20291038
27	0x3cf17a78	0.029477343
28	0xbdecd702	-0.11564447
29	0xbce1fb52	-0.02758566
30	0xbe810445	-0.2519857
31	0x3e232ff4	0.15936261
32	0xbe985b3f	-0.29757115
33	0x3d34b406	0.044116996
34	0xbe759aa5	-0.23984773
35	0xbe710b17	-0.23539387
36	0xbe9dcea4	-0.30821717
37	0x3e589d48	0.21153748
38	0x3d1f89a0	0.03894961
39	0xbdd48cb4	-0.103783995
40	0x3e635139	0.22198953
41	0x3e73b144	0.2379809
42	0x3da08ad5	0.0783898
43	0x3e5e0f20	0.21685457
44	0x3e9956d8	0.2994907
45	0xbc0bdcb0	-0.008536503
46	0x3da88f14	0.08230415
47	0x3e843ee5	0.25829235
48	0x3b873141	0.0041257446
49	0xbde15e73	-0.11004343
50	0x3e93f8a1	0.28900626
51	0x3d843d85	0.064570464

weight f4 [16, 260]
0	0xbd096543	-0.033543836
1	0x3d81f3f7	0.06345361
2	0xbd94a81d	-0.072586276
3	0xbb8949be	-0.004189699
4	0xbbe2bacd	-0.006919241
5	0xbde4f47d	-0.11179445
6	0xbd02fcce	-0.031979375
7	0xbd0347eb	-0.03205101
8	0x3dbea154	0.09308115
9	0x3ba45516	0.005015026
10	0x3dbae4d4	0.09125677
11	0x3d115b9d	0.03548776
12	0x3ca37185	0.019951591
13	0xbe314b98	-0.17313993
14	0x3d65b481	0.056080345
15	0xbe4a6ef8	-0.19768894
16	0xbd4ce602	-0.05002404
17	0xbd825631	-0.06364096
18	0xbdcac1d9	-0.09900255
19	0xbd9f79bb	-0.0778689
20	0x3c69535b	0.014241065
21	0xbd473e76	-0.04864355
22	0xbd3aa2e8	-0.045565516
23	0x3d9c5fe3	0.076354764
24	0xbc1fd3b6	-0.009755066
25	0x3dcf8074	0.10131922
26	0xbc9e7955	-0.019344965
27	0x3d535a58	0.05159983
28	0x3d37130b	0.044695895
29	0xbd00c168	-0.031434447
30	0x3eaa34fc	0.3324355
31	0xbd0f770c	-0.03502564
32	0xbd2d2b4c	-0.04227762
33	0xbd6626b7	-0.056189265
34	0xbdc7f81a	-0.097641185
35	0x3ca6af32	0.020347212
36	0xbd968a6d	-0.07350621
37	0x3d8723c3	0.06598618
38	0x3d339425	0.043842454
39	0xbe3a71cc	-0.18207473
40	0xbce2bf82	-0.027679209
41	0xbe0e8723	-0.13918738
42	0x3b6b0ad8	0.0035864618
43	0x3e4c0d12	0.19926861
44	0x3dcd3248	0.10019356
45	0x3d374f9a	0.04475365
46	0x3dad3aeb	0.08458503
47	0xbc804fa6	-0.01566298
48	0xbc1b4444	-0.009476725
49	0xbd46b817	-0.048515406
50	0x3e0f55b5	0.13997538
51	0xbcb55248	-0.022133961
52	0xbb94d9f8	-0.0045425855
53	0x3df11642	0.117718235
54	0xbd07377f	-0.03301191
55	0x3d808842	0.06275989
56	0xbe199af1	-0.15000512
57	0x3cf8af5f	0.030357061
58	0xbdd265c5	-0.10273317
59	0x3d595bfb	0.053066235
60	0x3d996514	0.07489982
61	0x3dc566f6	0.09638779
62	0x3d7a6fbb	0.06114171
63	0x3d7faa61	0.062418345
64	0xbc5a0ae9	-0.013308265
65	0xbcdd35a6	-0.02700312
66	0xbe40a4da	-0.18812886
67	0xbe016760	-0.1263709
68	0x3dc62459	0.096749015
69	0xbd9ebda0	-0.07751012
70	0x3e0b02b1	0.13575245
71	0xbbda5192	-0.006662556
72	0xbc2d953c	-0.010594662
73	0xbb505dc2	-0.0031794165
74	0xbe77a4ce	-0.24183962
75	0xbb95d08b	-0.0045719794
76	0x3bed0ef8	0.0072344504
77	0xbd641914	-0.05568798
78	0x3d07202a	0.03298966
79	0xbe168f33	-0.14703064
80	0x3db84396	0.08997266
81	0xbe135ddb	-0.14391272
82	0x3d96d5b3	0.07364979
83	0x3d8fb3d9	0.07016725
84	0xbd8b5ada	-0.06804438
85	0x3d1a1144	0.037614122
86	0xbd0d05c7	-0.034429338
87	0x3da0f7cd	0.07859764
88	0x3d14282d	0.036171127
89	0x3e66bbc1	0.2253256
90	0x3d86d5f3	0.06583776
91	0x3b199a5e	0.0023437957
92	0x3d8c9aa7	0.06865435
93	0xbc155878	-0.009115331
94	0x3dcfd769	0.10148508
95	0xbdbd716a	-0.09250148
96	0xbdf790fb	-0.120882
97	0xbdf82993	-0.12117305
98	0x3d9ca830	0.07649267
99	0xbd738ec3	-0.05946232
100	0x3c5ad84b	0.013357232
101	0xbe17f9e1	-0.14841415
102	0x3e082360	0.13294744
103	0x3dd6476c	0.104628414
104	0x3d6198e1	0.055077437
105	0x3ab3051c	0.0013658139
106	0xbd04f247	-0.032457616
107	0xbcfe7d87	-0.031065715
108	0xbe6695c7	-0.22518073
109	0x3e23048e	0.15919706
110	0xbbb97be4	-0.005660521
111	0x3e2cf7c5	0.16891392
112	0x3e39ae8c	0.1813299
113	0xbe0f954d	-0.14021797
114	0x3d7e234e	0.062045388
115	0xbe17b19c	-0.14813846
116	0x3df56b61	0.119833715
117	0x3cd412f4	0.025887944
118	0xbe0bf41e	-0.13667342
119	0xbd0c0afe	-0.03419017
120	0xbc25a520	-0.01011017
121	0xbe049127	-0.12945996
122	0xbd061f15	-0.032744486
123	0xbd188994	-0.03724058
124	0x3e09d0af	0.13458513
125	0x3e1ef3de	0.15522715
126	0xbcb5fbef	-0.022214858
127	0xbb579d26	-0.0032900064
128	0x3e66c614	0.22536498
129	0xbd298497	-0.041386213
130	0x3df02141	0.11725093
131	0x3d130001	0.035888676
132	0xbdd18663	-0.1023071
133	0xbe5a6389	-0.21327032
134	0x3dab78d7	0.08372658
135	0xbd3efaaf	-0.04662579
136	0xbd593748	-0.053031236
137	0xbdac7327	-0.08420401
138	0xbd3e9c55	-0.04653581
139	0x3d350f1f	0.044203874
140	0x3bbcd515	0.005762706
141	0xbd86f526	-0.06589727
142	0xbcad7567	-0.021174146
143	0xbdfd7d5b	-0.12377425
144	0xbd59e737	-0.05319902
145	0x3e58d666	0.21175537
146	0x3dd1c2f7	0.10242265
147	0xbe4c048a	-0.19923607
148	0xbdd02161	-0.101626165
149	0x3cdcf9ee	0.026974645
150	0xbda9cd92	-0.082911626
151	0xbdb2a133	-0.087221526
152	0x3d98c3b2	0.07459201
153	0xbd9ef42f	-0.07761418
154	0x3d135d24	0.035977498
155	0x3dc8fab9	0.098134466
156	0xbe109cab	-0.14122264
157	0xbdb3c192	-0.08777155
158	0x3e2259fb	0.15854637
159	0x3e5a68fc	0.21329111
160	0x3e1343ab	0.14381282
161	0xbcafcccc	-0.02145996
162	0xbdbed6fd	-0.093183495
163	0xbdd317e0	-0.10307288
164	0xbd971e34	-0.07378808
165	0x3e122446	0.1427165
166	0x3e3cb74a	0.18429294
167	0x3cfea7bf	0.031085847
168	0x3df3e1ae	0.11908279
169	0xbdf69624	-0.12040356
170	0xbd22ef56	-0.03977903
171	0xbdc168a8	-0.0944379
172	0x3e0d0ce2	0.13774446
173	0xbe561be0	-0.20909071
174	0x3c97bb41	0.018521907
175	0xbda6dc48	-0.08147484
176	0xbddf133a	-0.10892339
177	0xbba5da2d	-0.005061409
178	0x3c8b996d	0.017040933
179	0xbd4b09d1	-0.04956991
180	0x3d38305c	0.044967994
181	0x3d341e2b	0.043974083
182	0x3a96a3a9	0.0011492866
183	0xbe137eb9	-0.1440381
184	0x3db565a0	0.08857274
185	0xbe05a7b3	-0.13052253
186	0x3d79e3d2	0.061008282
187	0xbd450f46	-0.04811027
188	0xbd24edba	-0.040265776
189	0xbe17837d	-0.14796253
190	0x3dab7fc4	0.08373979
191	0xbe2f16db	-0.17098562
192	0x3d49a69e	0.049231164
193	0xbe0b6346	-0.13612089
194	0x3e0abbe9	0.13548245
195	0x3db020c7	0.08600002
196	0x3dedd836	0.116135046
197	0xbd24df3c	-0.040251955
198	0x3ce2e71b	0.02769809
199	0xbc108642	-0.008821072
200	0x3da441d0	0.08020365
201	0xbde7daf5	-0.113210596
202	0x3d11e8eb	0.03562252
203	0xbda3674e	-0.07978688
204	0xbc9a6473	-0.018846726
205	0xbdcba186	-0.099429175
206	0xbd4e8a41	-0.050424818
207	0xbdc75cdd	-0.09734509
208	0xbd9d9e25	-0.07696179
209	0xbe3cc849	-0.18435778
210	0xbe243de4	-0.16039234
211	0xbdedc6f4	-0.11610213
212	0xbd0feb1a	-0.03513632
213	0xbe1113ff	-0.14167784
214	0xbe1b499e	-0.15164801
215	0xbc444e23	-0.01198152
216	0x3e0052e0	0.12531614
217	0xbd405eca	-0.046965398
218	0xbbd8ac6a	-0.0066123502
219	0x3e02bc90	0.12767243
220	0x3d8687d2	0.065688744
221	0xbdf1c976	-0.11806004
222	0xbdb1b3d6	-0.08676879
223	0x3e6e2a00	0.23258209
224	0x3de58235	0.11206476
225	0x3d9c544d	0.076332666
226	0x3c3e87d2	0.011629062
227	0x3d641de4	0.05569257
228	0x3d9f7342	0.077856556
229	0xbc38b840	-0.011274397
230	0xbd8382c1	-0.06421424
231	0xbc9731e1	-0.018456401
232	0xbd1dccd3	-0.038525414
233	0x3c03a115	0.00803401
234	0x3d89b2bb	0.06723543
235	0xbd39984f	-0.04531127
236	0x3d8d1224	0.06888226
237	0x3d71b0d4	0.059006527
238	0xbe1b35a2	-0.15157178
239	0x3d7b572e	0.061362438
240	0xbe41a8f9	-0.18912114
241	0xbbbbf14b	-0.0057355515
242	0x3d95dfc2	0.07318069
243	0xbcc3adf3	-0.023886656
244	0x3d63b3d1	0.05559141
245	0x3dd162a5	0.10223893
246	0xbe130725	-0.14358194
247	0xbbf60831	-0.0075083007
248	0x3c6bf7f2	0.0144023765
249	0xbca8b464	-0.02059383
250	0x3ea15f4c	0.31518018
251	0x3cb091b3	0.02155385
252	0xbdb3b0d7	-0.08773964
253	0xbcdf58c5	-0.027264008
254	0x3e8112b0	0.2520957
255	0xbd87dfdf	-0.06634497

bias f4 [16]
0	0x3d2fdb0a	0.0429335
1	0xbcd84294	-0.026398934
2	0x3d1336c7	0.03594091
3	0xbc1dd28e	-0.00963272
4	0x3d79c026	0.060974263
5	0x3d8d399c	0.06895754
6	0x3b3aa695	0.0028480638
7	0xbd144746	-0.036200784
8	0x3bb7acdf	0.0056053246
9	0xbbd5b91c	-0.006522311
10	0x3da00c75	0.07814876
11	0x3d1d9aad	0.03847759
12	0x3c17aba4	0.009257231
13	0xbaaa2647	-0.0012981378
14	0x3c23c223	0.009995016
15	0x3d91a4c4	0.07111505

weight f4 [19, 16]
0	0x3ede9999	0.4347656
1	0xbe6bb012	-0.23016384
2	0x3ebe0bec	0.3711847
3	0xbe1ed59f	-0.15511177
4	0xbee410bd	-0.4454402
5	0xbe087d14	-0.13328964
6	0x3d8b4feb	0.068023525
7	0x3ed6ae79	0.41929987
8	0x3e416b6c	0.18888634
9	0x3ede2d29	0.4339383
10	0x3e1838f2	0.14865473
11	0xbdde8339	-0.108648725
12	0x3e4bd50e	0.19905493
13	0xbb657dab	-0.003501753
14	0x3eca6bd2	0.39535385
15	0x3e6d7f9b	0.23193209
16	0x3de591ce	0.11209451
17	0xbe0c3269	-0.13691105
18	0x3d9cac10	0.07650006
19	0xbd4a2ce1	-0.049359206
20	0xbeb62aea	-0.35579616
21	0x3e170531	0.14748074
22	0x3ba030af	0.004888616
23	0x3e8b1478	0.27164054
24	0xbebebdf8	-0.3725431
25	0xbd350069	-0.044189844
26	0x3e7a746c	0.24458474
27	0x3c6d4bca	0.014483402
28	0xbce831bc	-0.028344028
29	0x3e049b70	0.1294992
30	0x3d897e02	0.06713487
31	0xbe4bccdc	-0.19902366
32	0x3d72b069	0.05925027
33	0xbc9e7957	-0.019344969
34	0x3ea2ee23	0.3182231
35	0xbe7119ff	-0.23545073
36	0xbe0ec53c	-0.13942426
37	0x3da9a69e	0.08283733
38	0x3e491ba2	0.19639447
39	0x3da04980	0.07826519
40	0xbd5424eb	-0.05179302
41	0x3c72e2e4	0.014824603
42	0xbdcd2378	-0.10016531
43	0x3e693bf7	0.22776781
44	0x3db5773d	0.088606335
45	0x3ca39333	0.019967651
46	0xbe2c3e1d	-0.1682057
47	0x3c785bf6	0.015158644
48	0xbda60b60	-0.08107638
49	0x3e34d88a	0.17660728
50	0x3ea19cbb	0.31564888
51	0xbe87bd9a	-0.26511842
52	0xbe948404	-0.2900697
53	0x3ea429a5	0.32063022
54	0x3e7368b8	0.23770416
55	0xbe8dfa1a	-0.27729875
56	0xbe87e827	-0.26544306
57	0xbdacfd00	-0.084466934
58	0x3e527d3f	0.2055559
59	0x3dca4abc	0.09877536
60	0xbe879cc9	-0.26486805
61	0x3f1e1b67	0.6176056
62	0xbda19eba	-0.07891603
63	0xbf0108bb	-0.50403947
64	0x3e342999	0.17593993
65	0xbd50a251	-0.050936047
66	0xbd7d9f6a	-0.061919607
67	0x3d1df4de	0.0385636
68	0x3cb7e38e	0.022447374
69	0xbc95f0f2	-0.018303368
70	0x3e99457a	0.2993582
71	0x3e8056cb	0.25066218
72	0x3e7e7e39	0.24852838
73	0x3ea40233	0.32032928
74	0xbdad4097	-0.08459585
75	0xbcafa484	-0.021440752
76	0x3e103b93	0.14085226
77	0xbcc33e3e	-0.02383339
78	0xbeb9acc7	-0.3626463
79	0x3c07cb33	0.008288193
80	0x3ce2c255	0.027680555
81	0x3e0b689c	0.13614124
82	0xbd8a545b	-0.06754371
83	0xbdbdb693	-0.09263339
84	0xbd9d911a	-0.076936916
85	0x3c807598	0.015681073
86	0x3dd9a166	0.106264874
87	0x3ed9bf7a	0.42528898
88	0xbb1e90a8	-0.0024195109
89	0x3e000fa8	0.12505972
90	0x3e286d7b	0.16448013
91	0xbd31ca4b	-0.043405812
92	0x3d5346d1	0.051581208
93	0xbdf88eca	-0.1213661
94	0x3da199b8	0.07890648
95	0xbdb0f20a	-0.08639915
96	0xbdb47f99	-0.088134
97	0xbe06ee84	-0.13176924
98	0x3cbee2f7	0.023301585
99	0x3e85fa01	0.261673
100	0xbdd3c072	-0.103394404
101	0x3e07fd50	0.13280225
102	0x3e83661b	0.25663838
103	0x3d6511c3	0.055925142
104	0x3ddc363f	0.10752534
105	0xbeb81286	-0.35951632
106	0xbf102398	-0.5630431
107	0x3e5807c2	0.2109671
108	0x3e797505	0.24361046
109	0xbe7a2f03	-0.24431996
110	0xbde2ab45	-0.11067823
111	0x3e9b8393	0.3037382
112	0x3e73f7e2	0.23825029
113	0x3e272980	0.16324425
114	0x3e97ba8a	0.29634506
115	0xbe608454	-0.21925479
116	0xbdb84589	-0.08997638
117	0x3d17a290	0.037020266
118	0x3e818820	0.25299168
119	0x3e4412b5	0.19147761
120	0x3e67f485	0.2265187
121	0xbd90a6fe	-0.07063101
122	0xbdaa749f	-0.08323025
123	0xbb929de9	-0.0044743908
124	0xbd9d308d	-0.07675276
125	0xbafeaaf9	-0.0019429616
126	0x3df18a4e	0.11793958
127	0xbc8cd878	-0.017193064
128	0x3d001c6e	0.031277113
129	0x3e678f37	0.22613226
130	0x3dd3bb38	0.103384435
131	0xbe96d923	-0.29462537
132	0x3df0b862	0.11753918
133	0x3d21fadc	0.03954588
134	0x3e1bce88	0.15215504
135	0xbdb1fae0	-0.08690429
136	0xbbeec0fd	-0.0072861896
137	0x3ebd1e5a	0.3693722
138	0x3d864098	0.06555289
139	0xbde64e68	-0.112454236
140	0xbe6c7e91	-0.23095156
141	0x3c0fc9ef	0.008776172
142	0x3e528798	0.20559537
143	0x3e309b78	0.17246807
144	0xbd1b9a2c	-0.037988827
145	0x3e64a824	0.22329766
146	0x3ea32b5e	0.31869024
147	0xbdfb9934	-0.122850806
148	0x3e8fbafc	0.28072345
149	0xbd93fbfc	-0.072257966
150	0xbde94afb	-0.113912545
151	0x3e41af82	0.18914607
152	0x3e125a08	0.14292157
153	0xbdb2a9bd	-0.08723781
154	0xbeabb21a	-0.33534318
155	0x3e974398	0.29543757
156	0xbea06bc5	-0.31332222
157	0x3d907245	0.07053045
158	0xbe00d5c0	-0.12581539
159	0x3e98b079	0.29822138
160	0xbc737012	-0.014858263
161	0x3ec945a1	0.39310935
162	0xbd89ff1c	-0.067381114
163	0xbd6cd8cc	-0.05782394
164	0x3cc37a7c	0.023862116
165	0xbd87298d	-0.06599722
166	0xbb94a049	-0.004535709
167	0xbddb23e0	-0.10700202
168	0xbd95dfcb	-0.07318076
169	0x3e8a0bda	0.26962167
170	0x3d8ffd9f	0.07030796
171	0x3afdaacd	0.0019353271
172	0x3e070ffb	0.1318969
173	0xbd82cb0d	-0.06386385
174	0xbd2033fb	-0.039112072
175	0x3d4e00b8	0.050293654
176	0xbda3200a	-0.07965095
177	0x3d932c68	0.07186204
178	0x3c2d62e1	0.010582657
179	0xbe56a90a	-0.20962921
180	0x3cd2ade2	0.02571768
181	0x3e6fe485	0.23427017
182	0xbe5ca27b	-0.21546356
183	0x3df38704	0.118909866
184	0xbe144099	-0.14477767
185	0xbd8275d9	-0.06370134
186	0x3e174a02	0.14774325
187	0xbe7e71bc	-0.24848074
188	0xbed879f0	-0.4228053
189	0xbd51e4fc	-0.051243767
190	0x3eac4f52	0.33654267
191	0x3c92b760	0.017909706
192	0xbd438b75	-0.04774042
193	0xbe3864ef	-0.18007253
194	0x3e1d50b1	0.15362813
195	0x3e843727	0.25823328
196	0xbea1a96b	-0.31574568
197	0x3d958f1f	0.07302689
198	0x3cb7613c	0.022385232
199	0x3e98145a	0.29703027
200	0x3d7268dd	0.059182037
201	0x3eb2429a	0.34816438
202	0x3e1aeafa	0.15128699
203	0x3ded8da7	0.11599284
204	0xbe12144f	-0.1426556
205	0xbdbc8331	-0.0920471
206	0x3e3f619e	0.18689582
207	0xbeb5bce3	-0.35495672
208	0x3d8e7a2a	0.06956895
209	0xbee8a277	-0.4543645
210	0xbe1a0075	-0.15039237
211	0x3f288807	0.6583256
212	0xbde70f6f	-0.112822406
213	0x3c8374fa	0.01604699
214	0x3eb682a9	0.3564656
215	0xbd60ad00	-0.054852486
216	0x3e655682	0.22396281
217	0xbe1d1ae6	-0.15342292
218	0x3e35773d	0.17721267
219	0xbefa872a	-0.48931247
220	0x3cead2b2	0.02866492
221	0x3dafa2dd	0.085759856
222	0xbe504b92	-0.20341328
223	0xbe394fad	-0.180968
224	0x3e934f58	0.28771472
225	0xbe7051ac	-0.23468655
226	0xbcf87b79	-0.030332314
227	0xbe2d48fe	-0.16922376
228	0xbdeb0a95	-0.11476628
229	0xbddcd638	-0.107830465
230	0x3e8b3b55	0.27193704
231	0xbdd6611e	-0.104677424
232	0xbe9989f2	-0.29988056
233	0x3ea04ee3	0.31310186
234	0xbd46e8bc	-0.048561797
235	0x3e0b06d4	0.13576823
236	0x3eab3c98	0.33444667
237	0xbe007910	-0.12546182
238	0x3d5033f2	0.05083079
239	0xbe734f8c	-0.23760813
240	0x3eb287bc	0.34869182
241	0xbec4c72b	-0.38433203
242	0x3d8e121c	0.06937048
243	0xbbbd653e	-0.0057798913
244	0xbe5a0563	-0.21291117
245	0x3d1469d2	0.03623373
246	0xbe30aa77	-0.17252527
247	0xbe884e9c	-0.26622474
248	0xbe0a9cd4	-0.13536388
249	0xbe2dd0a6	-0.16974124
250	0x3d223997	0.039605703
251	0x3d829ebb	0.06377932
252	0xbdb2aeb3	-0.087247275
253	0x3e331ba0	0.17491007
254	0xbed473df	-0.41494653
255	0xbd591c5b	-0.053005558

bias f4 [19]
0	0x3cac1586	0.021006357
1	0xbe480753	-0.19534044
2	0xbdbb7085	-0.09152321
3	0x3bcfd270	0.006342225
4	0x3d8e5d75	0.06951419
5	0xbd2eab7e	-0.042644016
6	0x3e7204fc	0.23634714
7	0x3d13f1f8	0.03611943
8	0xbe018cd9	-0.12651385
9	0xbe275d2a	-0.16344133
10	0xbdbf151b	-0.093301974
11	0xbc0fc8c1	-0.008775891
12	0xbd3cf8be	-0.046135657
13	0x3e45f313	0.19331007
14	0x3cf7c5f8	0.030245766
15	0x3de9e161	0.11419941
16	0x3dfe0d6e	0.12404905
17	0xbdb1afd5	-0.086761154
18	0x3ce79353	0.028268492
