models/a19lds19b0.007g0.07d1h13.pt (torch, 126707 bytes, 26 tensors)

weight_ih_l0 f4 [52, 4]
000000 b0 83 1f bc f5 27 19 be 07 3c 10 3d 6b ec d8 bd
       -0.009735987 -0.14956649 0.035213497 -0.10591968
000010 90 a6 b2 be 78 3e 89 3e 54 fe ad 3d 4d 3f d2 be
       -0.34892702 0.26805472 0.08495775 -0.4106392
000020 84 47 ce bd 7c 3f 15 bf cf b6 96 3d 57 61 11 bd
       -0.10072234 -0.58299994 0.07359087 -0.03549322
000030 7f de 81 3e 6e 6d 07 be 91 93 5b 3d 2c 63 d0 3d
       0.25365064 -0.13225338 0.053607527 0.101751655
000040 68 7f a2 3e 95 e6 18 3f a0 29 4c 3e 7c 3a 53 3f
       0.31737828 0.5972684 0.19937754 0.82511115
000050 31 9d 52 be 9b bf 01 be cb c0 3b be 74 09 f6 3d
       -0.20567776 -0.12670748 -0.18335263 0.12013522
000060 65 f2 67 3d 17 e8 d9 3e c2 86 db 3d 27 0f b6 3e
       0.05662765 0.42559883 0.107190624 0.35558435
000070 87 b7 c0 3c 72 5e 1a 3f a4 d1 bc 3c 37 64 36 3e
       0.023525013 0.6030036 0.023049183 0.17811666
000080 a5 c9 b4 ba 27 60 82 be f6 b1 82 3e 26 fa 08 3e
       -0.0013793005 -0.25463983 0.25526398 0.13376674
000090 36 88 6e 3e 87 23 1c 3f e8 0f 9f bd 1d 07 29 3f
       0.23294148 0.6099171 -0.07766706 0.6602648
0000a0 31 82 a7 3e 75 a5 84 3e 93 23 44 bf f0 37 55 3e
       0.32716516 0.25907484 -0.7661678 0.2082212
0000b0 c5 4e 78 3e 62 c3 ed 3c 4b 7b 56 3e e2 fe f3 be
       0.24248798 0.02902383 0.2094547 -0.47655398
0000c0 d6 13 50 3d d8 1c bc be 3b 91 1d 3d 16 62 9d 3e
       0.050800167 -0.36740756 0.03846858 0.30738896
0000d0 9c 0a b1 3e 89 96 2c 3e aa a4 cd 3e c7 ad 98 3e
       0.34578407 0.168543 0.4016469 0.29820082
0000e0 2a 56 36 be af c7 42 3e 18 08 bf 3e b2 8b b7 bc
       -0.17806306 0.19021486 0.37310863 -0.02240548
0000f0 7d 13 90 3e 0e 78 43 be 43 86 89 bd f9 e1 ec bc
       0.28139868 -0.19088766 -0.067150615 -0.028916346
000100 5d c8 05 be 62 7a 91 be b6 6c 9c 3d 84 70 a6 be
       -0.13064714 -0.28413683 0.076379225 -0.32507718
000110 e9 25 a7 bd 8e 9a 76 3e 80 77 15 bf 28 b6 af be
       -0.08161528 0.24082395 -0.5838547 -0.34318662
000120 79 09 a9 3d b0 2e 02 bd 51 5c 9c 3e 09 ab 6e bd
       0.0825376 -0.031782806 0.30539182 -0.05826858
000130 c5 53 e8 3e 99 04 8f be 42 f7 2f be d2 12 c9 3e
       0.4537641 -0.27933195 -0.17184165 0.3927217
000140 ab 18 92 3e ef 56 d8 3e f7 ec ce bd 47 74 93 be
       0.28534445 0.42253825 -0.10103791 -0.2879965
000150 4f 48 be be b4 c9 71 be 7d 3e ed 3b 61 bf 6a be
       -0.37164542 -0.236121 0.007240115 -0.22924568
000160 0f d3 9c be 24 2a d1 3e ab a3 c0 3d 6b a8 90 3c
       -0.30629775 0.40852463 0.09406217 0.017658433
000170 21 b6 bf 3b 31 d2 90 bd 28 d8 7b 3e fe d9 7c bb
       0.005850569 -0.07071341 0.24594176 -0.0038582082
000180 95 4d 26 3f 8b 15 4f be 02 b4 f7 3d 09 6b fb 3d
       0.6496213 -0.20223062 0.12094881 0.12276275
000190 03 8b 51 be 18 91 ed bd 5b d6 ac 3e d0 f9 ae be
       -0.20463185 -0.1159994 0.3375729 -0.34174967
0001a0 8f a7 72 be f2 ca 8c bc 48 63 94 3d d1 f1 09 be
       -0.23696731 -0.017186616 0.07245499 -0.13471152
0001b0 8c 93 5d be b2 9c 8f be e0 26 a7 be 4e b0 35 bc
       -0.21638316 -0.28049237 -0.32646847 -0.011089398
0001c0 b9 6f c1 3e 4c ff a9 be 9a de 84 3e 0e 8c 78 3d
       0.3778055 -0.3320259 0.25951082 0.06068044
0001d0 ff fd 73 3e 52 3d 1e 3f 6b 44 0a bf 29 6e a3 be
       0.2382736 0.6181232 -0.5401065 -0.31919983
0001e0 a0 c2 1e 3d c6 6a ca be 11 1e 37 3f f4 2d 69 bd
       0.038759828 -0.39534587 0.7153025 -0.05692859
0001f0 01 98 9b 3e 10 05 cd 3d 47 b2 a5 be 4c ad de bd
       0.30389407 0.10010731 -0.32362577 -0.108728975
000200 72 da 12 3e 6c 33 fb be fe b5 08 bd 63 6e 52 be
       0.14341143 -0.4906267 -0.033376686 -0.20549922
000210 27 01 89 3c b0 1e 9d be a6 e8 14 be 26 4c 6a 3e
       0.016724182 -0.30687475 -0.14541873 0.22880611
000220 7b 38 7a 3d b8 19 b1 be 3e 77 86 bc 97 23 2b 3f
       0.06108902 -0.34589934 -0.016414281 0.6685118
000230 39 4b 83 3c b5 b9 8d 3e ba 76 b6 3b 50 3e a0 3d
       0.01602708 0.27680746 0.0055683525 0.07824385
000240 83 b9 cc 3e 61 15 45 bd b5 41 58 be 46 c9 12 3f
       0.39985284 -0.04811609 -0.21118815 0.5733837
000250 87 fb a3 3d 7a 5e 91 be 10 f6 64 3e 9b 27 7a bd
       0.080069594 -0.28392392 0.2235949 -0.061072927
000260 ed 2c 29 be a8 44 f4 be ad 6c ae 3d ef ef a6 bc
       -0.16521044 -0.4770863 0.08516822 -0.020378081
000270 17 e8 fa 3d 59 09 88 3e fd f7 22 bd c8 f8 6f 3e
       0.12251299 0.26569632 -0.03978728 0.23434746
000280 a5 21 e7 bd be c0 5a 3e e4 a0 9a be c2 5a 5f bb
       -0.11285714 0.21362588 -0.30200875 -0.0034081195
000290 a2 ed 2b 3e 16 aa 74 be a9 64 84 3e 1c ff 0e 3e
       0.16789868 -0.23893008 0.25858048 0.13964504
0002a0 11 8a 2d 3e 39 9c 1c 3f f3 15 24 3f a6 95 ba bc
       0.169472 0.61175877 0.6409599 -0.022776436
0002b0 d0 49 2e 3c a8 ca 7d 3e 93 d9 21 bd 7d ba 42 3f
       0.010637715 0.24784338 -0.039514136 0.7606581
0002c0 47 4c bf 3d de d1 53 bf fe 0e 15 3f 47 9d bc be
       0.093407206 -0.82742107 0.58226 -0.36838743
0002d0 c6 1d b4 3e 68 a2 5d 3e 90 f4 23 be 5e 3b 29 3e
       0.35178965 0.21643984 -0.16011262 0.16526553
0002e0 94 7f 42 be e5 05 0d 3f 26 02 e2 be fc 53 86 bd
       -0.1899398 0.5508712 -0.44142264 -0.065589875
0002f0 31 6c a6 bd 0d d7 ae 3e 25 1a 58 3e 85 28 57 bd
       -0.081261046 0.34148446 0.21103723 -0.052528877
000300 9d a9 34 3e 14 e5 ef bd 91 57 7b 3e 68 46 60 bd
       0.17642827 -0.11713615 0.24545123 -0.054754645
000310 06 57 a3 bd 79 af 8b be ff 41 d4 bc 1d 09 a3 3d
       -0.07975583 -0.27282313 -0.025910376 0.079607226
000320 84 fd 15 3f 4c 32 86 3e 45 0b 1b bf 45 52 a3 be
       0.5858996 0.26210248 -0.6056407 -0.31898704
000330 b6 f6 56 3e 8b 85 84 be 50 68 73 3d 2a 02 05 be
       0.2099255 -0.25883135 0.059425652 -0.12989107

weight_hh_l0 f4 [52, 13]
000000 db 50 b7 bd 44 a3 df bd 65 94 40 3e 01 4a 35 be
       -0.08950969 -0.10919812 0.18806608 -0.17704011
000010 0e 23 2a 3c e3 21 58 3d 6d b8 5c be 3f 0c 8e be
       0.010384334 0.052766692 -0.21554728 -0.27743718
000020 64 43 0c 3e 6a bd 99 3e 16 a6 3d be e9 14 b6 3d
       0.13697582 0.30027324 -0.18520388 0.08890707
000030 7f ca 14 bd 23 4a d7 3d 40 23 89 3e 0a f8 b7 3c
       -0.036325928 0.10512187 0.26784706 0.022457141
000040 ea 13 a7 be 85 38 23 3e 9e 4a 04 3e 80 31 a3 be
       -0.3263238 0.15939529 0.12919089 -0.31873703
000050 33 7f 5b 3e 68 a1 30 be 23 da 80 3e c7 f4 d4 3d
       0.21435241 -0.17249072 0.25166425 0.1039825
000060 c1 50 36 be 39 6f b6 bd b2 80 77 3e 80 c2 a1 be
       -0.17804243 -0.08907933 0.24170187 -0.31593704
000070 a4 43 64 bc e2 6a 93 be 8a f3 0e be f4 47 31 be
       -0.013932142 -0.28792483 -0.1396009 -0.17312604
000080 c7 36 ca 3d 73 f7 0c 3e 32 09 cc 3e af 5d 19 bd
       0.09873729 0.1376627 0.39850765 -0.03744286
000090 2b b9 e5 3e 54 3e 52 3e 9d 08 56 3e ca 78 fa be
       0.44867834 0.20531589 0.20901723 -0.4892028
0000a0 d4 ec 23 bf 5f 65 8e 3e 69 89 8f bc ca b9 e8 be
       -0.64033246 0.27811715 -0.017521577 -0.45454246
0000b0 8d 8c 18 bf 49 ed 78 be 6d 71 9b be 56 36 85 bf
       -0.59589463 -0.24309267 -0.30359975 -1.0407207
0000c0 80 d3 00 3f ea f9 99 3e ef bd ec 3e 16 f3 00 3e
       0.50322723 0.30073482 0.46238658 0.1259273
0000d0 e1 c8 7a be da 16 12 bf b0 e9 0b 3f 28 8c c3 be
       -0.24490692 -0.5706612 0.54653454 -0.38192868
0000e0 9e f4 9c be 7b c6 5d be 54 db b1 be 9f d7 fe be
       -0.30655378 -0.21657746 -0.34737647 -0.4977388
0000f0 16 87 66 bd 63 f7 81 3e b4 a6 56 3e 2d 18 b9 3e
       -0.05628117 0.25384054 0.2096203 0.36151257
000100 94 ff a1 3e af 76 da bc 7a 07 43 3e 5f 5f a2 bd
       0.31640303 -0.02666792 0.19045821 -0.07928347
000110 ff b5 de bd 8a ce 05 3e ec 32 17 be c0 3c de bd
       -0.10874557 0.1306707 -0.14765519 -0.10851431
000120 c8 f7 e8 be d2 a4 51 3e 4f 71 e3 3d 1b 0f 03 bd
       -0.45501542 0.2047303 0.11105596 -0.031996828
000130 67 f7 c9 be 09 81 3f 3d 70 73 30 3e e9 8b 9c be
       -0.39446566 0.046753917 0.17231536 -0.30575493
000140 3d be 60 3e ea 25 6c be 68 35 79 3e ca 4d b8 3d
       0.2194757 -0.23061338 0.24336779 0.08999212
000150 dc d2 76 be 10 0c f2 be a6 fc 8e be ee f3 4f 3e
       -0.24103874 -0.47274828 -0.2792713 0.20307896
000160 fb 7e da 3e fb fe b5 3d a1 52 16 3f 69 39 0c be
       0.42675003 0.08886524 0.5871983 -0.13693775
000170 fe 73 b8 bc 21 b1 50 be 66 83 19 be 61 53 9d 3e
       -0.022516247 -0.2038007 -0.14991531 0.30727676
000180 f9 03 69 3e 9d 05 8a be 97 18 cf 3d 9c 60 dd be
       0.22755422 -0.26957408 0.10112112 -0.4323777
000190 20 f8 19 be c4 65 59 3d 7b b4 aa 3e 7f 7b c5 bd
       -0.15036058 0.053075567 0.3334082 -0.09642696
0001a0 a7 1d 81 bd ed 61 60 be 9f 1a 29 3e 47 e8 0d be
       -0.06304484 -0.21912356 0.16514061 -0.13858138
0001b0 6b 68 b6 be 0d 15 54 bb 81 fc 04 3f 52 53 06 3d
       -0.3562654 -0.003236118 0.5194779 0.032794304
0001c0 79 5d 6d be dd 58 af bd 9b bc 76 be 68 6b f6 3e
       -0.23180188 -0.08561871 -0.24095385 0.4812882
0001d0 64 4f 0f 3e 13 93 01 3d 70 a6 47 3c 83 62 89 be
       0.13995129 0.0316344 0.012185678 -0.2683297
0001e0 83 ab 5e be de c4 f6 3c 5b 71 57 be b9 06 fb be
       -0.21745114 0.03012317 -0.21039335 -0.49028566
0001f0 fa cf 89 3e c2 97 13 3d 3f cd c2 3c 74 08 7b 3e
       0.26916486 0.0360334 0.02377951 0.24514943
000200 1f c6 06 be 0b dd b8 3d e3 5b b6 3d d7 59 c2 be
       -0.13161515 0.090265356 0.08904245 -0.37959167
000210 09 a6 e7 bd 12 d4 85 be 73 f3 02 3f f6 d7 84 be
       -0.113109656 -0.2613836 0.51152724 -0.25946015
000220 1f 65 15 3e 11 cf 66 3d b7 34 c0 bd 9d 6b 7c 3e
       0.14589356 0.056349818 -0.093850546 0.24650426
000230 7c af a1 be a0 5b 8a 3d 82 c4 d5 3e ad ab e0 bb
       -0.31579196 0.06755757 0.41751486 -0.006856403
000240 d5 a4 42 3e 48 d3 82 3e 46 9b 19 3c d5 7c f0 3e
       0.19008191 0.2555182 0.009375399 0.4697024
000250 63 a9 ac 3d 4b 14 38 3f 98 35 b8 3e a3 67 f1 be
       0.084307455 0.71905965 0.3597839 -0.4714938
000260 d3 82 bb 3e 08 d4 e2 bd 86 27 11 3f ec ab fc 3e
       0.36623248 -0.11075598 0.5670093 0.49349916
000270 1e 9d 61 3e 6e 38 18 3d c6 02 e1 be 59 eb 12 3d
       0.22032592 0.03716319 -0.43947428 0.035868976
000280 af be cf be dd 73 dd bc 06 52 bd 3a 8e a0 87 be
       -0.40575168 -0.027032787 0.0014444 -0.2648968
000290 24 e9 5c 3e 96 60 e1 bc 8d 58 d3 bd 98 35 82 bd
       0.21573311 -0.027511876 -0.10319624 -0.063578784
0002a0 9d 72 81 3e 7f e9 b7 bd e2 e3 0f 3d b4 06 20 bb
       0.25282755 -0.08980083 0.035129435 -0.0024418058
0002b0 9d a6 97 be cf bf a2 3e 28 2f 8f bc 0d 4b bf 3e
       -0.29619303 0.31786963 -0.01747854 0.37361947
0002c0 08 53 cf bb a0 c6 0a 3e ed d5 a7 3c 4d 7d 13 be
       -0.006327037 0.13552332 0.02048775 -0.14403267
0002d0 60 6d 35 3e d8 ee 78 3e a4 69 8f be 36 65 87 3e
       0.17717505 0.24309862 -0.28010285 0.26444405
0002e0 60 46 a7 3d ff 26 83 be a6 83 27 bc 26 47 85 be
       0.0816772 -0.2561569 -0.0102242585 -0.26030844
0002f0 ba e0 cb 3d 55 7a 35 3e 35 12 74 bd 79 b6 45 be
       0.099549726 0.17722447 -0.059587676 -0.19307889
000300 b6 e9 51 3e d6 aa 04 3e 9f c8 03 3e 0c a0 c4 3d
       0.2049931 0.12955794 0.128695 0.09600839
000310 99 2c 09 3d 0f bb d2 3e 75 f2 e3 3d 6e 70 23 3e
       0.033489797 0.4115834 0.111302294 0.15960857
000320 fa cd ca 3e 15 b4 89 3b ce 85 0d be 9f 6c 70 be
       0.39610273 0.0042023757 -0.13820574 -0.23478936
000330 80 a1 28 3e 7e b0 d7 3c b5 3f 19 3e a8 fe 89 3e
       0.16467857 0.026329275 0.14965709 0.269521
000340 17 ed d0 3d 0d 48 84 bd d8 20 3e be 75 0f 4e bd
       0.10201471 -0.06459055 -0.18567216 -0.05030771
000350 ea d6 2d be 66 aa 07 3e 02 18 84 be cb f0 67 3d
       -0.16976514 0.13248596 -0.25799567 0.056626122
000360 95 fe f0 bd 17 24 a7 3e b7 25 7c bc 78 0b 24 3e
       -0.11767308 0.32644722 -0.015389851 0.1602
000370 81 58 e3 3b fd 5d c0 3d 8e 81 90 3d fa 18 c1 be
       0.0069380407 0.09392927 0.070559606 -0.37714368
000380 0b 14 0b 3f e1 85 8e bd f4 b4 7e 3e ae ea 3a 3f
       0.5432746 -0.06959129 0.24873716 0.7301434
000390 41 6d 54 3e fe 04 9f 3d 52 6a 01 bf 70 01 14 3e
       0.20744802 0.07764624 -0.50552857 0.14453673
0003a0 23 6a 2c be 03 d3 25 be 14 3b a2 3e 14 47 13 be
       -0.16837363 -0.16193776 0.31685698 -0.14382583
0003b0 e2 31 44 be eb 47 05 3f 80 b7 3e 3e e4 7a 59 be
       -0.19159654 0.52062863 0.18624687 -0.21238285
0003c0 60 ea 93 be 34 de 09 3e 85 ad b9 be 53 7b 8d 3d
       -0.2888975 0.1346367 -0.36265197 0.06908288
0003d0 f4 69 78 3d 8d 13 a0 3e 0b ea 06 bd c6 e2 9c be
       0.06064792 0.31264916 -0.032938045 -0.30641764
0003e0 c5 40 9a bd e2 e7 21 3e f7 46 02 bf 85 20 1b be
       -0.07531885 0.15811113 -0.50889534 -0.15149124
0003f0 59 bb a5 bd 16 b4 d4 be f6 73 bc bd 4a 8e 91 be
       -0.08092374 -0.41543645 -0.09201805 -0.2842887

bias_ih_l0 f4 [52]
000000 54 c7 f0 3d b7 ba ae 3e f5 0e 81 3e 4e 7e 78 3e
       0.11756769 0.34126827 0.25206724 0.24266931
000010 4a 10 db 3e 53 c8 83 3d 85 f3 89 3e ad 0b 4e 3d
       0.42785865 0.06434693 0.26943603 0.050304104
000020 ad 3c f2 3e 00 5b 1d bc cd e1 7b be ad de 4b 3e
       0.47311917 -0.009604216 -0.24597855 0.19909163
000030 a5 3c 07 3d 66 0c bf 3e 3f f9 a8 3c 44 74 19 bc
       0.03301682 0.37314147 0.020626662 -0.009366099
000040 6e 34 21 be ec 5a e3 be 38 26 73 3e 0d 95 a6 bd
       -0.15742657 -0.44405305 0.23745048 -0.08133898
000050 49 ee 14 3e 3d ed 67 be 48 1c 5d 3e cf 51 6e 3d
       0.14544024 -0.22649093 0.2159282 0.058183488
000060 14 8b 8d bd f6 5f 58 be 2e 42 02 bc 43 8c 23 be
       -0.06911293 -0.21130356 -0.007950349 -0.15971474
000070 d9 ce 30 3d e8 a4 68 be e5 04 fa 3d cd d2 00 be
       0.043166015 -0.22719157 0.12207965 -0.12580414
000080 66 7b a9 be 5a bb 33 be 97 f3 c7 bd 69 f7 9a 3e
       -0.33101958 -0.17551938 -0.09763258 0.30266884
000090 33 5f b3 3d be fc 1d 3d c6 33 5c 3e f3 70 2b be
       0.08758392 0.03857111 0.21504125 -0.16742305
0000a0 e7 03 33 3e 32 f3 ce 3e a7 2f d4 3e f9 eb 52 3e
       0.17481957 0.40419918 0.41442606 0.20597829
0000b0 96 f5 91 bd 5d 39 ec 3d b9 db 5c 3e bf bc c0 3e
       -0.0712692 0.11534379 0.21568193 0.37644002
0000c0 43 5c af 3e df 18 cf 3d 1b 8c 8c 3e 63 40 4e 3e
       0.34250078 0.10112166 0.27450642 0.20141749

bias_hh_l0 f4 [52]
000000 5d 48 ab 3e 2f f4 5c 3e 95 d0 ae 3e 5a 9a a7 3e
       0.33453646 0.21577524 0.3414351 0.32734948
000010 eb 00 12 3f d7 b5 3e 3e 6c 23 b3 3d d0 be e5 bd
       0.5703265 0.18624054 0.087469906 -0.11218035
000020 87 45 90 3e 0f a3 43 3d 5e cb e3 bd 02 b4 33 3b
       0.28178045 0.047762927 -0.111227736 0.0027420525
000030 9d 55 8f 3e ed 02 5b 3d 6a 68 81 3e 42 31 cd 3b
       0.27995005 0.053469587 0.25274974 0.0062619755
000040 c3 8e 08 be a0 db cc be ae ae 15 be 4d ec 55 3e
       -0.1333571 -0.4001131 -0.14617416 0.20890923
000050 c7 7d 34 3e 57 2e 05 be b1 92 d5 3b e3 99 89 be
       0.17626105 -0.13005958 0.006517731 -0.2687522
000060 e5 7c 19 3e b3 5b 9b 3e 5e bc 94 be f1 e0 82 3d
       0.1498905 0.30343398 -0.29049963 0.063905604
000070 8c 35 5c 3e 9c 73 06 3e c3 32 3d be c7 83 91 3d
       0.21504802 0.13130039 -0.18476395 0.07105213
000080 88 d3 27 3e b1 ef 19 bd 26 e5 3b 3e fd b5 b0 3d
       0.16389287 -0.037582103 0.18349132 0.086284615
000090 15 0a 3c bd 54 10 bc bc e6 01 6b 3e 1f 9d d5 3d
       -0.045908052 -0.022957005 0.22949943 0.10430359
0000a0 e9 bf 67 3e d6 7c aa bd 49 b2 c5 3e 45 a5 37 3e
       0.22631802 -0.08324592 0.38612583 0.17934139
0000b0 b3 80 80 3d b5 64 0f 3d a5 ea 13 be 59 1f 1d 3e
       0.062745474 0.03500815 -0.14444979 0.1534399
0000c0 7b a6 65 3e da 06 4a 3e 45 91 eb 3c bc be 87 3e
       0.22426789 0.19729176 0.028755793 0.26512706

weight_ih_l0_reverse f4 [52, 4]
000000 34 17 74 be ee ab 31 be a3 c8 b4 3d 89 a9 66 3e
       -0.23836976 -0.17350742 0.08827331 0.2252561
000010 6f 0d 03 3f 9d 84 76 bd ec d7 43 3e b5 c5 46 3e
       0.51192373 -0.060185064 0.19125336 0.19411357
000020 3e 07 47 3c ac f4 51 3e ac ea 15 3f 2a 64 c1 be
       0.012147723 0.20503491 0.58561206 -0.37771732
000030 6d d0 6b bc 11 eb d7 3d 1b 25 67 3e a0 21 ac 3a
       -0.014392954 0.10542882 0.22572748 0.001313258
000040 e3 7c a3 be fb f3 e4 3e 1d ae 54 3e 41 05 70 3e
       -0.31931219 0.44717392 0.20769544 0.23439504
000050 7e fd a5 3e f7 01 2f 3f f5 d9 1f 3f 96 d1 44 be
       0.32419962 0.68362373 0.6244195 -0.19220576
000060 6a 13 57 be 73 b0 09 bd 9d f8 5e be 03 e7 87 bd
       -0.210035 -0.03361554 -0.21774526 -0.06635859
000070 ce eb e0 3c 04 ae d0 be 91 47 02 3f d1 44 78 bd
       0.02745619 -0.40757763 0.5089045 -0.060612503
000080 8f 66 9f 3d 46 f2 44 3e 1a a8 a1 3e c2 87 24 be
       0.077832334 0.19233045 0.31573564 -0.16067412
000090 df 6c dd be 67 30 56 bd e2 3b 98 3c 79 18 83 3e
       -0.43247125 -0.052292254 0.018583242 0.2560461
0000a0 f3 c3 aa 3e 96 70 2b 3e 40 8e c3 3b ba 80 06 3e
       0.33352622 0.16742167 0.0059678853 0.13135043
0000b0 ba a9 d7 3e a8 e2 8d bd b1 d8 b5 3e de 6b e3 be
       0.4212168 -0.06927997 0.35516885 -0.44418234
0000c0 3a 11 f7 3c 1e ac 6d be 6b 57 e2 3d 3f db 09 3c
       0.030159581 -0.23210189 0.1105183 0.008414089
0000d0 ec d3 82 be 44 47 c9 3a 82 e7 a2 bd 4d 95 8e 3e
       -0.2555231 0.0015356322 -0.07954313 0.27848282
0000e0 d0 cb 02 3f 35 98 05 be 91 b6 66 3e 10 36 00 3d
       0.51092243 -0.13046344 0.22530581 0.031301558
0000f0 61 0a 80 bd 9e 2c 9a 3e d8 d0 fd bd 46 7d 6b bd
       -0.062519796 0.30112165 -0.123933494 -0.057492517
000100 00 58 61 3e 30 dd 78 3e 0d 38 4a 3e 62 7c 76 3e
       0.22006226 0.24303126 0.19747944 0.24070886
000110 05 d2 71 be c9 36 b3 3e db 1a d6 3e 6b b5 d8 be
       -0.23615272 0.35002735 0.41817364 -0.4232591
000120 19 ad 09 bf 5f da 90 3e 22 67 cf 3e 0d fe dc 3d
       -0.5377975 0.28291604 0.40508372 0.10790644
000130 62 ff 8d 3d 82 d7 ed 3d 66 00 48 3d 2d 4c ce 3e
       0.06933476 0.116133705 0.048828505 0.40292493
000140 61 e6 df be 3e 33 11 3e d8 12 99 3e 68 a1 ce bd
       -0.43730453 0.14179704 0.2989719 -0.100893795
000150 98 79 3a 3d af 13 7e be c1 b8 d5 be b9 7c 13 3e
       0.045526117 -0.24812196 -0.4174252 0.14403047
000160 31 15 e9 3e fa 56 02 bd e8 98 c2 3e c4 e1 57 3e
       0.4552398 -0.03182123 0.38007283 0.21082217
000170 18 d1 28 3e ce 97 82 bd 1a 89 a9 ba d3 dc de bd
       0.16486013 -0.06376611 -0.0012934536 -0.108819626
000180 78 2a 76 3e e7 a9 2a bf 2a da ad 3d 84 9d a9 be
       0.24039638 -0.666655 0.08488877 -0.33127987
000190 63 35 ce 3e 9f a9 ba bc 08 6f 81 be 35 47 1f 3e
       0.40275106 -0.02278596 -0.25280023 0.15554507
0001a0 3f 07 d6 3e 54 9c 91 bd ff 15 50 be 38 ba b8 be
       0.41802403 -0.07109895 -0.20320891 -0.36079574
0001b0 08 ea 10 3e 4a c7 18 3e d5 ad bf bd 4d eb 4e 3d
       0.14151776 0.14919773 -0.09359328 0.05051737
0001c0 87 23 15 bf 40 d3 61 3e 8f 12 79 3c 45 17 25 be
       -0.58257335 0.22053242 0.015202179 -0.16122158
0001d0 d7 38 ba 3d ad 04 66 3e 2d 4d cc be 9f fe ce 3e
       0.090928726 0.22462721 -0.3990263 0.40428635
0001e0 ca 67 95 3d ac ae 8d be 52 34 bf bd f8 e4 91 bd
       0.07295187 -0.27672327 -0.09336151 -0.071237504
0001f0 38 4e a8 3e 16 67 df be 38 22 00 3f de a5 fb bd
       0.32872176 -0.43633336 0.50052214 -0.12287496
000200 fb f4 9d 3d ff ad 94 be d3 94 e8 bd 9b f9 3b be
       0.07712742 -0.29038998 -0.11356511 -0.18356936
000210 c8 57 10 3f 1b 5b 86 3d cd fd c1 be 99 fe dc 3c
       0.56383944 0.06560346 -0.37888947 0.02697687
000220 7b 1f 28 be b7 a0 07 bf d9 a9 be 3e 71 1d 47 3e
       -0.16418259 -0.52979606 0.37238958 0.19444825
000230 39 b8 83 be 5d ba 32 bf e7 7b 72 3d 3a ff 35 3d
       -0.25726488 -0.6981562 0.059200194 0.044432856
000240 d9 a4 da be 0c b3 f2 bd 63 e5 85 3e 54 74 a8 be
       -0.42703894 -0.11850557 0.2615157 -0.3290125
000250 b8 7a 01 3f 75 1e 1f bc eb f1 03 3e d5 11 9a bd
       0.5057788 -0.009711851 0.12885253 -0.075229324
000260 d6 89 b7 3d 4f 61 b5 bc 84 2a 7f 3d cf 1d ad bd
       0.08961837 -0.022141127 0.062296405 -0.08452951
000270 d7 39 58 be 5e 76 5b 3d c3 da 14 3e d8 04 fd 3d
       -0.21115814 0.05357968 0.14536576 0.123544395
000280 9c a2 f7 3e 4a 62 2b bd d2 ba 13 be 69 1f 1a 3d
       0.4836625 -0.041841783 -0.14426735 0.03762761
000290 26 64 87 3e b9 6d f6 3d 78 bf 37 be 0f 1c 40 3e
       0.26443595 0.12032647 -0.17944133 0.18760704
0002a0 b2 cf 09 be 0c 21 c3 3d 3f 98 63 3e d5 90 8d 3e
       -0.13458136 0.095277876 0.22226046 0.2764956
0002b0 73 70 f3 be cc 4d 5a 3f ee da b2 be df dc 04 3e
       -0.4754673 0.8527496 -0.34932655 0.1297488
0002c0 c0 4e ab be c5 c5 5b 3e 85 8c 4b 3f f2 45 c1 be
       -0.3345852 0.21462162 0.7951129 -0.37748677
0002d0 6f aa dd 3d 0a 73 a7 3e 19 c0 07 bc 8d f7 50 3e
       0.10823523 0.32704955 -0.008285546 0.20406933
0002e0 fc 8e 0f bd 75 8a 73 3e e6 c0 0b be 7b e0 4b 3e
       -0.03504847 0.23783286 -0.13647804 0.19909851
0002f0 c3 8d ea 3d 08 e2 69 3e fd a8 a1 bb ca 04 5c 3d
       0.1145282 0.2284013 -0.004933475 0.053715505
000300 92 6f 80 be 05 28 85 3e e0 ac 7d 3e f7 7f 93 3c
       -0.2508512 0.26007095 0.24772978 0.018005354
000310 0d 6d 08 be 6e 74 0a bd ca 6a 91 be cd f5 bc 3d
       -0.1332285 -0.033802442 -0.28401786 0.0922657
000320 e9 50 22 3f d4 f7 07 be e6 14 bf 3c e1 9f 71 bf
       0.6340471 -0.13278133 0.023325395 -0.9438458
000330 65 51 f3 bd b1 02 95 bd 9a fe f6 3d 49 58 7f 3e
       -0.11880759 -0.07275904 0.1206028 0.24936022

weight_hh_l0_reverse f4 [52, 13]
000000 b3 e8 bb bc 6f 5b 97 3a ca 1d 40 3e a9 ba 1a 3e
       -0.022938108 0.0011547635 0.18761364 0.15110268
000010 69 0a 84 be 4b db 20 3d 6d 19 56 bc 39 55 94 3e
       -0.25789192 0.039271634 -0.013067585 0.2897127
000020 c9 63 9c be a9 ae 1b 3c ac f5 cd bd 31 ca 95 3e
       -0.3054488 0.009502091 -0.10056624 0.29255822
000030 76 8f 4b 3c b6 32 1d 3e 1d a1 c2 3e 95 34 39 3d
       0.0124243405 0.15351376 0.38013545 0.04521616
000040 98 61 27 3d da bc a5 be 5e 9f b3 3e 47 86 4e be
       0.040864557 -0.32370645 0.35082525 -0.2016841
000050 11 44 37 3e f6 35 12 be 6d 08 56 3e 60 24 fb be
       0.17897059 -0.14278397 0.20901652 -0.4905119
000060 e4 e3 a5 3e 91 54 82 3e f2 4f ed be ce 95 0e 3d
       0.3240043 0.25455144 -0.46350056 0.034810834
000070 08 d5 2b 3e 89 9c 9f bb 71 d7 65 3d 35 96 30 3e
       0.16780484 -0.0048709554 0.056113664 0.172448
000080 af 20 78 be 72 1a d2 3d d4 55 00 3e 47 87 98 be
       -0.24231218 0.1025895 0.12532741 -0.29790708
000090 c1 5f db 3d f5 c0 e0 bd 04 9c 74 3d 92 85 b1 3d
       0.10711623 -0.10974304 0.0597191 0.08668055
0000a0 e6 11 d0 3e fb 41 97 be c5 a2 9d 3e 15 43 0c 3e
       0.40638655 -0.29542527 0.30788246 0.13697465
0000b0 e0 10 b7 3e d4 28 0a 3c be 32 01 bd 94 93 81 3e
       0.35755062 0.008432586 -0.031542532 0.25307906
0000c0 ae 36 78 be 25 e5 67 be c0 4b 8e bc 8e 3d 38 3e
       -0.24239609 -0.22646005 -0.017370105 0.17992231
0000d0 0e de fd bc 42 b3 9f bb c5 ec 10 3e 2e 05 e5 be
       -0.030989673 -0.004873664 0.1415282 -0.44730514
0000e0 de c4 29 be bc fb 24 3e a2 bb 81 3d 9e 35 80 3d
       -0.16579005 0.16111654 0.06334616 0.06260227
0000f0 4d 9e 9b 3e f4 31 bc 3b a4 54 90 bc 43 25 c0 be
       0.3039421 0.0057432596 -0.017618485 -0.37528428
000100 82 48 b4 3d fb 01 9e be 0b c3 30 3e 07 c6 76 be
       0.08802892 -0.30860886 0.17261903 -0.24098979
000110 3b 18 1a 3e f3 f9 f7 be f9 0a b7 3e a1 82 98 be
       0.15048306 -0.48432884 0.3575056 -0.29787162
000120 18 77 76 3e ae c4 0a bf f1 22 e7 be 15 3b 0c 3d
       0.24068868 -0.5420636 -0.45143846 0.034236033
000130 12 93 c1 3d 37 69 14 3f d5 f6 02 3e d6 c6 7a 3e
       0.094518796 0.57973045 0.12789471 0.24489912
000140 ef 3c a7 3d 7d 54 06 be b8 0c f4 be 0c ba 17 be
       0.08165919 -0.13118167 -0.47665954 -0.14817065
000150 af 83 ef bb 49 72 00 3d 5f ce 70 be e6 c1 53 be
       -0.007309399 0.03135899 -0.23516224 -0.20679435
000160 3d 66 2b 3d 61 e7 9b 3e ad 95 b4 bd 24 35 09 be
       0.04184555 0.30449966 -0.08817611 -0.13399178
000170 6f 62 22 3e ee 5b 38 be 78 2d 6a 3e 25 cd da be
       0.15857862 -0.18003818 0.22868907 -0.42734638
000180 a6 42 1f 3f a3 e0 2f be 53 86 a1 3d 77 21 1b 3d
       0.6221107 -0.17175536 0.078869484 0.03787371
000190 d3 19 0d be 8c b5 bc bd 72 f2 17 3f 15 e7 a9 3c
       -0.13779382 -0.09214315 0.5935432 0.020740071
0001a0 95 f2 77 3e 35 5c 96 bd a4 f3 53 3e 65 a5 f4 3d
       0.24213631 -0.07341806 0.2069841 0.11945609
0001b0 d2 cc 55 3d ca dd 2f 3e 75 46 2d 3d 01 15 93 3e
       0.052197285 0.1717445 0.04230352 0.28726962
0001c0 68 32 b0 bd 6b 1e 9d be f0 80 da be b2 51 89 3c
       -0.08603364 -0.3068727 -0.42676497 0.016762588
0001d0 34 ef 90 3d 0e 7d ba be 78 93 b4 3b 2e db 60 be
       0.070768744 -0.36423534 0.0055107437 -0.2195861
0001e0 5a 74 d2 bd ec ee 0a bf ab f6 33 be 04 40 da bd
       -0.102760985 -0.54270816 -0.17574565 -0.10656741
0001f0 86 cf cd bd a4 1b da bd 68 cf 82 be aa 42 74 bd
       -0.100493476 -0.10649803 -0.25548863 -0.05963389
000200 5c 45 fd bd 51 aa 52 bd 14 44 42 3e 71 72 48 3e
       -0.12366745 -0.051431958 0.18971282 0.19574906
000210 04 77 ea be f3 a0 86 3e b0 ac ab 3d d9 d1 41 3e
       -0.45793927 0.2629467 0.08382547 0.18927707
000220 65 ee 01 bf b8 0a 09 3e e0 17 99 3d 78 0b 87 be
       -0.50754386 0.13382995 0.07475257 -0.26375937
000230 4b 4c 85 be e6 47 91 3d 41 fe 86 3e 26 2e 01 be
       -0.2603477 0.07093792 0.26365855 -0.1261526
000240 38 51 9e 3d ee 62 a8 be b6 47 3d 3e 41 81 6a be
       0.07730335 -0.32887977 0.18484387 -0.22900869
000250 26 88 c7 bc d8 92 d9 be 2b fd 50 3d 15 4a 90 be
       -0.024356913 -0.42494845 0.05102269 -0.2818152
000260 9c ed d4 be c2 13 53 be 7b ed 07 3f 36 e8 d1 3e
       -0.41587532 -0.20613006 0.5309674 0.40997475
000270 38 e7 e3 3d b8 05 98 bc 88 30 09 bf 66 85 00 3e
       0.11128086 -0.018557414 -0.5358968 0.12550887
000280 e9 fa e2 bd 7d 9d 8d 3d 64 1a 05 be 28 8c 48 3e
       -0.110830136 0.06914804 -0.12998348 0.19584715
000290 dd ca 1b be a8 93 8a 3d 0a 88 42 be 8d 57 2b bd
       -0.15214105 0.067664444 -0.18997207 -0.04183154
0002a0 d3 e2 6e 3e b8 5b 8b 3b 96 87 f7 bd e4 23 11 be
       0.23328714 0.004252877 -0.12086408 -0.14173847
0002b0 42 ab 6d be 92 3d f5 bd 2a a3 26 3d eb b3 a3 3e
       -0.23209861 -0.11974634 0.04068295 0.31973204
0002c0 00 50 38 bd e2 fb 36 bc a5 cd ac 3d 41 ac e3 bc
       -0.04499817 -0.011168452 0.08437661 -0.027792098
0002d0 d8 b4 06 be a9 37 54 bb b5 2b 26 be 0a 58 c2 bd
       -0.13154924 -0.003238181 -0.1622761 -0.09489448
0002e0 37 97 29 be 9c 6f 56 be 1e 51 26 be b2 35 08 3e
       -0.1656159 -0.20941013 -0.16241881 0.13301733
0002f0 6b 7c 93 3d 28 75 01 bd 31 c2 c0 be 0c 7c 32 be
       0.07201465 -0.03160587 -0.37648156 -0.17430133
000300 6a 3d cf 3d 3b 8f 75 3e 98 c1 ca 3e 15 3a 4f be
       0.10119136 0.2398042 0.39600825 -0.20237
000310 9b 85 57 bd df 8a 5a be ec ea 62 3e 61 d0 8e 3c
       -0.05261765 -0.21342038 0.22159928 0.017433347
000320 9f a1 3c 3e 7f c7 28 be 82 5d 66 be fb 17 b7 bc
       0.18421029 -0.16482352 -0.22496608 -0.022350302
000330 d6 93 2c 3e 11 b1 40 be 96 bd fe 3e 90 f1 ab 3e
       0.1685327 -0.18817545 0.49754018 0.33582735
000340 b6 ff f7 be 0b 45 bd bd 46 2f b3 be 52 05 97 3e
       -0.4843728 -0.092416845 -0.34997004 0.29496247
000350 9b a5 54 be 35 78 92 3e 1e 5d 32 be 00 08 9c 3d
       -0.20766298 0.28607336 -0.17418334 0.076187134
000360 f6 d6 86 be ff 0d b2 be ef 56 39 bd 3d c3 04 3e
       -0.26335877 -0.34776303 -0.045248922 0.12965102
000370 73 ab c6 3d e9 4c 87 be 11 74 e1 3a 0c de aa 3d
       0.0970067 -0.26425865 0.0017200728 0.08343133
000380 d8 84 36 bb c5 9a 8d bd b8 54 13 3e b2 be 5f be
       -0.0027850177 -0.069142856 0.14387786 -0.21850088
000390 b7 61 3b be 36 dc 0e 3e e4 06 5c 3e 5b 15 6f bd
       -0.18298994 0.13951191 0.21487004 -0.058369976
0003a0 35 d6 09 3e 00 7c 70 bb 9d 74 b3 3e ce b4 0a 3e
       0.1346062 -0.0036695004 0.35049906 0.13545534
0003b0 bb 38 05 bd 7b 3b a4 3d 9c d0 ee 3e bb a7 96 be
       -0.032524806 0.080191575 0.4664353 -0.29424843
0003c0 d5 b0 8f bd 61 f4 ea bd c8 04 23 bd fd 3d a9 3c
       -0.0701615 -0.11472393 -0.03979948 0.020659441
0003d0 c9 24 57 3e e5 a2 16 3d ee 78 b5 3d 90 12 bd bd
       0.21010126 0.036776442 0.08860956 -0.09232056
0003e0 ce 51 4f bd b1 c8 1e bd 54 46 26 3e f9 e5 7c 3b
       -0.050615124 -0.038765613 0.16237766 0.0038589223
0003f0 44 08 3c bd 50 4f 57 bd e9 6f 3d 3e aa 78 c6 3c
       -0.04590632 -0.052565873 0.18499722 0.024227459

bias_ih_l0_reverse f4 [52]
000000 d8 91 bc bd fe ce 3c 3e 80 af 22 be 6f c0 a6 3d
       -0.09207505 0.18438336 -0.1588726 0.081421725
000010 10 ec 0e be 98 a8 1a 3f ba 81 8e 3d 8e 6c 67 3e
       -0.13957238 0.60413504 0.06958337 0.22600004
000020 7f 4b cb bc 0b 53 70 3e e9 7c 96 3e 5d 09 c8 3e
       -0.024816273 0.23469178 0.29392174 0.39069644
000030 70 87 01 bd ac bf 07 3d e6 16 ba bd 14 21 8e 3d
       -0.031623304 0.033141777 -0.09086399 0.06939903
000040 a3 80 9a 3d b7 7c 1a be 77 12 04 be a8 dc 85 bd
       0.07544067 -0.15086637 -0.12897669 -0.065362275
000050 90 e1 c0 3e 03 ec 63 bd c7 2a a6 3e 1f 0b 01 3e
       0.3767209 -0.055645 0.32454512 0.12601899
000060 65 3f 0a be 7e 14 3d be af c5 09 3e 3f a3 57 3e
       -0.13500746 -0.18464848 0.13454317 0.21058367
000070 37 f8 80 be 2f 32 49 3e fd df 8e be 5d b8 1b 3e
       -0.25189373 0.1964805 -0.27905264 0.15207048
000080 dd ef ea bd 54 f8 99 3e 89 ee 13 be 9f f5 dd 3d
       -0.114715315 0.30072272 -0.14446463 0.10837864
000090 9b f3 6f be 11 45 54 be f0 c7 c7 3d be 87 ff 3c
       -0.23432772 -0.20729472 0.09754932 0.031192657
0000a0 c0 41 75 3e 0b d4 7b 3e 6a b0 ef 39 d6 64 3b 3e
       0.23950863 0.24592607 0.0004571707 0.18300185
0000b0 28 5b 0e 3f 22 9b 2f be c8 cf 95 3e 7c 89 29 3d
       0.55607843 -0.17149022 0.29260087 0.04139088
0000c0 31 c5 83 3e 70 1f 1f 3e 8b ff 82 3e 11 f6 de bd
       0.25736383 0.15539336 0.2558559 -0.10886777

bias_hh_l0_reverse f4 [52]
000000 c0 d4 dc 3d 79 9e 32 bd 56 a8 0f be 3b 16 c2 3d
       0.10782766 -0.043608163 -0.14029059 0.094768964
000010 a8 63 9b 3e 40 54 ef 3d 2f ab 46 3e 47 66 cb 3e
       0.3034947 0.11685991 0.19401239 0.3972647
000020 02 d4 b5 3e da 6e 54 bd c2 d6 64 3e 77 6c df 3e
       0.35513312 -0.05186353 0.22347549 0.4363744
000030 0f e9 21 be 03 2c 72 be 88 0f c9 3d 50 cc 0a 3e
       -0.15811561 -0.23649602 0.098174155 0.13554502
000040 0f e7 bc 3e 23 54 57 3e f5 9a 7b bd 92 02 8a 3e
       0.36895034 0.2102819 -0.061427075 0.26955086
000050 c5 31 06 3e bc cf 97 bd 54 07 87 3d d9 16 63 3e
       0.13104923 -0.07412669 0.065931946 0.22176684
000060 25 cd a8 bd e8 e3 bf bd b3 ad 51 be 56 6b e4 3d
       -0.08242253 -0.093696415 -0.20476417 0.11153285
000070 06 8e 6d be 1d 5c 12 bd 49 32 81 be b7 c4 1e 3e
       -0.23198709 -0.035732377 -0.25233677 0.15504728
000080 94 e1 a7 be 54 ee c7 3d 57 c2 58 be f4 aa 58 be
       -0.3278929 0.09762254 -0.21167885 -0.21158963
000090 fe bc af be 8d f8 6d 3e dc 19 bc 3d 7f 31 94 bd
       -0.34323877 0.23239346 0.0918462 -0.07236003
0000a0 92 62 3f 3e 13 b2 54 3e eb f2 50 3d 82 39 4a 3e
       0.18689945 0.20771055 0.051012915 0.197485
0000b0 33 ae 0f 3f 58 ed ec ba 26 54 81 3d 2e 9a c7 3e
       0.5612518 -0.0018076105 0.06314878 0.38984817
0000c0 b3 c4 15 bc 3e 8f 60 bd e9 76 b8 3e 08 f7 d6 b9
       -0.009141135 -0.054824106 0.3602822 -0.00041001313

weight f4 [16, 260]
000000 c3 f9 00 bd 9e 4c 7a 3c 6e 95 2b be d3 a0 8a 3e
       -0.03148819 0.015277056 -0.16756222 0.27075824
000010 fd 16 c7 bd c3 cc 74 bb 25 9a 8e bc 44 4b 41 be
       -0.097211815 -0.0037353493 -0.017407486 -0.18876368
000020 a8 ef 99 be 71 0f 40 3d 35 44 68 3d a5 44 27 bd
       -0.30065656 0.046889726 0.056705672 -0.04083695
000030 d0 7d dd bd ba 85 a9 bd ff dd 6b 3d 11 33 40 be
       -0.108150125 -0.082774594 0.05758476 -0.1876948
000040 98 4b 10 bc c2 d5 8d bd dd 3a 0a be c0 91 96 bd
       -0.008807085 -0.06925537 -0.13499017 -0.07352018
000050 fa e2 9e 3b de 0d 5e be 23 1b 6b bd 40 9e b8 3d
       0.004848835 -0.21684977 -0.057398926 0.09014559
000060 e8 c3 6a bd 6c 73 84 3d af 6f 60 3c 0d af f5 3d
       -0.057315737 0.064673275 0.013698502 0.11996279
000070 8c 18 24 bb d5 2f 04 3e 57 d9 30 3e 8c 57 7d 3d
       -0.0025039045 0.12908871 0.17270409 0.06185107
000080 30 4d 5b bb f1 42 8b 3c 7e 6d 1f 3c bd 4e 9e bc
       -0.0033462755 0.016999694 0.009730695 -0.019324655
000090 f9 83 df bc c4 b6 f6 3d 6b f7 13 bc 3a 01 1f be
       -0.02728461 0.120465785 -0.009031157 -0.15527812
0000a0 99 06 36 bd dc 50 da bd 1d 2f 57 bd 99 e6 87 3e
       -0.044439886 -0.10659954 -0.052535165 0.2654312
0000b0 63 d6 e1 3d e5 bc 6c 3d f1 35 86 3d 3a 5e a2 3c
       0.11027219 0.05779733 0.06553257 0.019820321
0000c0 da 55 cd 3c 3e dc 33 bd 39 e7 26 3e 5b f5 23 bd
       0.025065351 -0.04391121 0.16299142 -0.04002891
0000d0 4e 94 32 bb f1 03 09 3e ce 0e 94 bd b9 b3 ea 3b
       -0.002724904 0.1338041 -0.07229386 0.007162538
0000e0 69 cf 83 be df fe fc 3d a9 74 2c be 5d ba 85 3c
       -0.2574418 0.123533 -0.16841377 0.016324216
0000f0 e4 87 2a 3d 44 dd b4 3d be 00 1d 3d 4a 67 d0 bc
       0.0416335 0.088312656 0.038330786 -0.025439877
000100 a5 d6 46 bd dd 7d 90 bd 45 07 58 be cd bc e1 bd
       -0.048544545 -0.070552565 -0.21096523 -0.11022339
000110 18 95 7c 3d b3 dc e8 bd 1b eb 72 3d 11 c6 85 3c
       0.061665624 -0.1137022 0.059306245 0.016329797
000120 b1 b1 07 bd 3e 86 13 3d b1 0f 6d be 1c b5 26 3c
       -0.033128444 0.036016695 -0.23150517 0.010175016
000130 d6 c3 a1 bd e2 70 5b bd 9e 64 6e 3d 4c 5b 17 be
       -0.07898681 -0.05357445 0.058201425 -0.1478092
000140 13 26 9c 3d b6 86 20 be 39 61 09 3d 95 5e a4 3d
       0.076244496 -0.15676388 0.033539984 0.080258526
000150 ab 05 c3 bd 5a c1 0c 3d 67 8f ec 3c 6f 7f 9b 3d
       -0.095225655 0.034364082 0.028876973 0.075926654
000160 fd f8 55 bd f5 45 9d 3e 48 32 54 3d f2 21 95 3c
       -0.052239407 0.30717435 0.051805764 0.018204663
000170 ff d9 6a 3d 6a 12 56 3c 5e 84 8f 3d 8e b6 f1 bd
       0.057336804 0.013065914 0.07007669 -0.11802398
000180 4b 53 48 bd 6a 60 d0 bd 3e 12 b3 3c 02 d9 69 bd
       -0.04890756 -0.101746395 0.021859284 -0.05709172
000190 00 54 3e 3b 79 1b 06 be bf ec f2 3d d7 78 ba 3d
       0.0029041767 -0.13096417 0.11861562 0.091050796
0001a0 48 51 69 3d 2e db 91 bc 1d 92 bb bc 53 26 d4 bd
       0.05696228 -0.017804708 -0.02289682 -0.10358872
0001b0 3f 85 d5 bd 87 da be 3d 99 23 aa bd ad 0d 0d 3e
       -0.10425805 0.093190245 -0.08307571 0.13774748
0001c0 70 4b 85 3d 58 41 fb bd bc ee 9b 3c a2 89 f5 bd
       0.06508529 -0.12268323 0.019034736 -0.11989142
0001d0 1e 2f c0 3d 9c ca 5a 3d 9c 76 06 be 2e 58 05 bd
       0.09383987 0.05341588 -0.13131183 -0.032554798
0001e0 ac 78 77 bd 74 8f b0 bd 60 e6 c7 3c 24 dc 31 3c
       -0.060417816 -0.086211115 0.024401844 0.010855708
0001f0 0a 9e 0a 3e e4 39 0b 3e ff c1 17 bd 0b c5 4e 3c
       0.1353685 0.13596302 -0.037050243 0.012620221
000200 04 77 27 3e 8a e5 5c bd 14 d3 ee 3d 13 cc 85 bc
       0.16353995 -0.053929843 0.11661354 -0.016332662
000210 49 fb 17 be bb 1f a7 bd 41 71 8a bd 27 84 9a bb
       -0.14841951 -0.08160349 -0.06759883 -0.004715461
000220 f4 f7 19 be 48 b6 15 be 92 69 96 be 62 8e 14 3d
       -0.15035993 -0.14620316 -0.2937742 0.0362686
000230 35 e9 c2 bc 03 1d 0a be f5 46 96 bd 01 5b e8 3b
       -0.023792842 -0.1348763 -0.07337753 0.0070909266
000240 5b e4 a3 bd 5b a6 4f 3e b8 bf 96 3d 3c b6 50 be
       -0.0800254 0.20278303 0.07360786 -0.20382017
000250 35 c4 d0 bd 22 02 8b 3d 3e 83 0a bd e3 6d d9 bd
       -0.101936735 0.06787516 -0.03381657 -0.10616662
000260 d3 97 6e 3d ee b1 a1 bd 77 06 c0 3c 5c 80 e0 3c
       0.05825026 -0.078952655 0.023440583 0.027404957
000270 f5 04 15 be 9d 01 9e bd 14 10 01 3e e5 d4 3b 3e
       -0.14552672 -0.077151515 0.1260379 0.18342932
000280 70 e7 16 3d 61 26 f6 3a da 0c fa bd 79 f9 c6 bd
       0.03684181 0.0018779748 -0.122094825 -0.09715552
000290 f1 d5 4d 3d 14 87 03 3e bf 4c 26 3e c7 0e 01 bc
       0.05025286 0.12844497 0.16240214 -0.007877058
0002a0 52 56 96 3d 08 1e 5c bd 28 c5 86 bd c0 26 d4 bd
       0.07340683 -0.053739578 -0.06580573 -0.103589535
0002b0 39 ba ed 3d d4 2f 05 be 7b 87 be 3d 93 71 91 bd
       0.11607785 -0.13006526 0.093031846 -0.07101741
0002c0 ce fa e0 bd af be 3b 3d 4b 83 a1 3c 8a 23 b0 bc
       -0.10985337 0.045836147 0.019715926 -0.021501321
0002d0 1f fd d7 3d 50 6d 29 3d 49 15 e4 3b 59 6f 1c be
       0.10546326 0.041364014 0.006960545 -0.15276851
0002e0 b2 3e c6 3d 05 4b 35 be 52 99 5a 3d 18 f5 4f bd
       0.09679927 -0.17704399 0.053368874 -0.05077085
0002f0 03 e9 57 bd 46 36 16 be ab 93 42 3c 70 3f 35 be
       -0.05271245 -0.14669141 0.011876027 -0.1769998
000300 c4 c9 a1 3d 5e a9 dd bd c3 20 e8 3d 96 56 da 3d
       0.07899812 -0.1082332 0.11334374 0.10661046
000310 25 37 3a 3d 52 63 91 bb 76 cd c7 3c 47 b0 da 3c
       0.045462746 -0.0044368887 0.024389964 0.026695384
000320 eb 05 06 3e bd d1 10 bd ee f6 83 3d 7c 17 1f 3c
       0.13088195 -0.035356272 0.064435825 0.009710189
000330 04 75 ca 3c 50 1f 8d bd 3f 5e ca bc 6b a5 70 bd
       0.024714 -0.06890738 -0.024703143 -0.058751505
000340 04 a8 9a bd 0d 9d 2b be 21 f9 fe bd af 0d 4c be
       -0.07551578 -0.16759129 -0.12449861 -0.19927095
000350 81 a5 1c 3e f0 6a 2a be 09 21 66 bd 9a 35 8c 3c
       0.1529751 -0.16642356 -0.05618385 0.017115403
000360 aa 1e 3b 3e 8c ad 5d bd 42 60 6c 3d c1 26 35 3e
       0.18273416 -0.054120585 0.057708986 0.17690565
000370 f2 a4 95 3c b1 87 76 bd 79 92 96 bd b2 96 52 3e
       0.018267129 -0.060188 -0.07352156 0.20565298
000380 4c 73 5f 3d 4a cf 1f 3e a7 ef 51 3c ee ee ad 3d
       0.054553315 0.15606418 0.012813485 0.08492838
000390 d6 41 4c 3d 74 32 09 3d 2d fd eb bc 28 93 b5 3b
       0.049867474 0.03349538 -0.028807247 0.005541224
0003a0 8b 8d 53 3d d8 1e 09 3d 4f 46 83 3d 37 d3 68 bd
       0.051648658 0.03347668 0.06409895 -0.056842055
0003b0 92 83 87 3d e5 1a 4f 3e 65 bb 47 be ef 4f 89 3d
       0.06616892 0.20225103 -0.19505079 0.06704699
0003c0 f0 f9 8d bd 5e ce c6 bb 9e e6 57 bd a3 6f 38 bd
       -0.069324374 -0.0060670814 -0.052710168 -0.04502834
0003d0 7a 85 87 3d 70 b6 33 3e 20 3f 27 be 82 9c 8c 3c
       0.066172555 0.17550063 -0.16332674 0.017164472
0003e0 ee 47 1a bd d6 3c 42 3c 51 1a 51 3e 46 4f 2e 3d
       -0.037666254 0.011855325 0.20420195 0.04255607
0003f0 46 e1 09 be a6 69 47 bd 6a a3 2f 3e 15 b4 a2 bd
       -0.13464841 -0.04868474 0.17152181 -0.07944504

bias f4 [16]
000000 06 46 d7 3c 94 42 d8 bc 12 9e 3a 3d 04 bf 8e 3a
       0.026278507 -0.026398934 0.045560904 0.0010890667
000010 6f 0b 9b 3d fa 49 92 3d 04 f2 4c 3b 10 67 a0 bc
       0.0757054 0.07143016 0.0031272182 -0.019580394
000020 eb 9f 14 3c 1e b2 eb ba 41 b8 29 3d fa be 30 3d
       0.009071331 -0.001798216 0.041435484 0.04315088
000030 4f 57 b8 3b 03 e8 fa 3a b6 45 41 3c 96 9f 97 3d
       0.0056256424 0.0019142631 0.011796406 0.074034855

weight f4 [19, 16]
000000 9e c9 d1 3e 12 b0 6b be f2 d1 c5 3e c0 18 3c be
       0.40974134 -0.23016384 0.38636738 -0.18368816
000010 9a 6d 03 bf ff f9 16 be e7 a8 89 3d f4 3f f2 3e
       -0.51339114 -0.14743803 0.06721669 0.47314417
000020 fc ba fc 3d f3 9b 53 3e 73 64 ab 3d bf 91 f4 bd
       0.12340352 0.20664959 0.083687685 -0.11941861
000030 8f 2d 53 3e 79 77 5f bd c6 34 01 3f b0 38 93 3e
       0.20622848 -0.054557297 0.5047115 0.28754187
000040 cd 7b 04 3e 69 32 0c be 3c 68 ae bb 26 6e 16 be
       0.12937851 -0.13691105 -0.0053224843 -0.14690456
000050 5f c0 49 bd aa 33 18 3e 8b cd d3 3b 52 91 00 3c
       -0.049255725 0.14863458 0.0064637116 0.007847147
000060 e1 57 23 be a5 8e 14 bf 10 b6 23 3e 63 d0 09 3d
       -0.15951492 -0.5803016 0.1598742 0.033646
000070 7f 81 c7 bd 90 50 19 be dd 3e a5 bb f6 73 77 3b
       -0.09741496 -0.14972138 -0.0050428943 0.0037758327
000080 60 1e e5 3d 57 79 9e bc a4 cb 15 bc db 13 52 be
       0.11187434 -0.019344969 -0.00914279 -0.20515387
000090 ba e9 b9 3c 9f ac b2 3d 7f fb 49 3e 8e c7 6a 3c
       0.022694457 0.08724331 0.19724844 0.014329804
0000a0 79 5c af bc 03 a7 47 be f9 47 d1 bd db 7f d2 3c
       -0.0214064 -0.19497304 -0.10218806 0.025695732
0000b0 63 7d ed bc 28 29 35 be e7 1e 49 3d ce 4b 54 3d
       -0.028990453 -0.17691481 0.049101736 0.051830105
0000c0 ec 42 33 be 8a d8 34 3e b1 87 a6 3e b1 0b 7a be
       -0.17505997 0.17660728 0.325254 -0.24418522
0000d0 8c c9 9c be 2d 2a a8 3e 48 54 73 3e 00 c1 b0 be
       -0.30622518 0.32844678 0.2376262 -0.34522247
0000e0 a6 b2 44 be 88 35 a0 3d 0a 51 8d 3e 0a f1 3a 3e
       -0.19208774 0.0782271 0.2760089 0.18256012
0000f0 3c fd 90 be 35 c2 0b 3f ef 26 70 bc d6 3c 01 bf
       -0.28318202 0.5459321 -0.01465772 -0.50483453
000100 79 94 fc 3e 51 a2 50 bd 4e 03 29 be a3 a7 ff 3d
       0.49332026 -0.050936047 -0.16505167 0.12483146
000110 33 dc 35 3d 24 2d 8a bd 03 c9 98 3e 2b 04 a5 3d
       0.04439945 -0.06746891 0.2984086 0.080574356
000120 43 5d ae bd 33 0b e5 3c 4b 72 de bd b7 b1 aa bd
       -0.08513882 0.027959442 -0.108616434 -0.08334678
000130 fa fe 03 3d 01 02 29 3d 2d 03 58 be 32 f0 53 be
       0.032225586 0.041261677 -0.21094961 -0.20697096
000140 57 c3 fd 3d 9c 68 0b 3e 7e b8 12 bd 10 d5 5d be
       0.12390774 0.13614124 -0.035820477 -0.21663308
000150 7b 37 d7 3c 15 40 16 3d 51 f7 da 3d 34 26 ed 3c
       0.026271572 0.036682207 0.10691703 0.02894888
000160 29 59 18 be 2d 84 3e be ae 4d 3e 3e 7d d9 0c 3d
       -0.14877762 -0.18605109 0.1858432 0.0343871
000170 38 9a a3 3c af a2 39 be ad 50 b5 3d 8f 3d 89 3d
       0.019970998 -0.18128465 0.08853278 0.067011945
000180 13 6c 03 bf 84 ee 06 be 75 46 2a bd ce 8c 18 3e
       -0.51336783 -0.13176924 -0.0415711 0.14897463
000190 c3 58 4d be 57 2d aa 3d 31 ec 84 3e 5d b6 82 3d
       -0.20053391 0.08309429 0.2596145 0.06382439
0001a0 05 d0 8e 3d 99 48 f1 be d8 79 33 bf 5d db d4 bc
       0.0697327 -0.471257 -0.70107794 -0.025983507
0001b0 fa 06 cb 3d 36 37 e3 bc de 29 7d be 8a 96 25 3f
       0.0991344 -0.027736288 -0.24723002 0.6468283
0001c0 b8 70 d3 3d 80 29 27 3e 2c b9 bc 3d 77 1b ad bd
       0.10324234 0.16324425 0.09215006 -0.08452504
0001d0 c5 f3 22 3b 4f 5c 50 3d 0f 49 80 3e d6 86 25 3d
       0.0024864536 0.050869282 0.2505574 0.040411793
0001e0 7b 11 b3 3e 2e 63 e2 3d 4a f1 f9 bd ca 9c 19 bd
       0.34974274 0.11054073 -0.12204225 -0.03750304
0001f0 db 1c 2b be 4b 86 36 be 5a c4 e7 bc d5 a7 8c bd
       -0.16710226 -0.17824666 -0.02829187 -0.06867949
000200 cf 5f f2 3d 37 8f 67 3e dc bd 06 3e 1b eb c5 be
       0.1183468 0.22613226 0.13158363 -0.38655934
000210 5e 9e ee 3d 1d 42 0f 3d 8d 60 1b 3e 72 55 1c be
       0.116513 0.03497516 0.1517355 -0.1526697
000220 53 a0 90 3b c3 d4 07 3f 14 a1 e9 3c e5 e8 92 be
       0.0044136434 0.53059024 0.02851919 -0.2869331
000230 3f 4b a0 be f9 d2 93 3e 13 9c 8a 3e b2 8c f4 3d
       -0.31307408 0.28871897 0.270722 0.11940898
000240 c5 e1 a5 be 24 a8 64 3e 26 1b af 3e 49 8f 4b be
       -0.3239881 0.22329766 0.342004 -0.19878878
000250 5e ca 79 3e d8 39 fd bd 53 b9 e7 bd 32 f7 90 3e
       0.24393603 -0.123645484 -0.11314645 0.28313595
000260 25 ba d2 3d ff 0b 39 bd ad 01 ba be 8a b0 f2 3e
       0.102894105 -0.045177456 -0.36329404 0.47400314
000270 6e 91 10 bf 14 f0 0a be 1a 32 a8 be 31 65 81 3d
       -0.5647191 -0.13568145 -0.32850724 0.06318129
000280 fa dd 87 bd a1 45 c9 3e bd e6 52 3c e0 80 15 3e
       -0.066341355 0.39310935 0.012872395 0.14599943
000290 06 33 98 bc d2 f3 86 bd 13 3e b5 b9 da 0f 9d bc
       -0.018579017 -0.06589474 -0.0003456926 -0.019172598
0002a0 5d 21 a1 bd 46 b0 fb 3d fe 49 7a 3d f8 1f 4b 3b
       -0.07867692 0.12289481 0.06110572 0.0030994397
0002b0 df a2 bb 3d b1 04 34 3e 0d 2d 2f bc e7 e5 91 bc
       0.091619246 0.17579915 -0.010691893 -0.017809821
0002c0 64 a4 b6 3d 68 2c 93 3d 3a b6 af 3c 6d ba 45 be
       0.08918074 0.07186204 0.021449197 -0.19309397
0002d0 32 7f 5e 3c 77 01 73 3e 1e 3b 5e be 1b 85 84 3d
       0.01358013 0.23731028 -0.21702239 0.064707
0002e0 15 2f 68 bd da 7e 83 be 80 aa 0c 3e 38 19 8e be
       -0.056685526 -0.25682718 0.13736916 -0.27753615
0002f0 6f 25 c9 be a2 f1 d9 be e0 5e f7 3d a1 5d 46 3c
       -0.39286372 -0.42567164 0.12078643 0.012107284
000300 e8 7a 7a 3a ef 64 38 be 93 2e fe 3d de a4 b3 3e
       0.00095550576 -0.18007253 0.12411227 0.3508672
000310 3f fe 5a be 44 44 95 3c c5 ec c2 3c b3 75 1c 3e
       -0.2138605 0.018221028 0.023794541 0.15279274
000320 86 e7 4c 3d b7 4d 96 bc 45 a1 44 3e f7 4a be 3d
       0.050025485 -0.018347604 0.19202144 0.09291642
000330 d3 5f 86 be 3d 97 07 3e 18 0e eb bc df 3f dc be
       -0.26244983 0.13241287 -0.028693244 -0.4301748
000340 eb 76 42 3e 77 a2 e8 be ef 36 e1 bd f1 80 46 3f
       0.18990676 -0.4543645 -0.10996806 0.775405
000350 28 b8 0a be f1 63 31 bc d5 9b b6 3e 91 f2 b9 bd
       -0.13546813 -0.010827051 0.35665765 -0.09079469
000360 33 7c d5 bd ff f6 87 bd 28 69 cd 3d 0e 73 25 bf
       -0.1042408 -0.06638908 0.100298226 -0.64628685
000370 a3 0e 38 be 0e 2c b4 3c 4f e1 18 bd 94 82 33 bd
       -0.17974333 0.021993663 -0.037324246 -0.0438257
000380 81 94 aa 3e ac 51 70 be ea a1 dc bc 43 83 65 be
       0.33316424 -0.23468655 -0.026932675 -0.22413354
000390 6b d8 8f bb 14 6e ba bd 91 c2 8d 3e 35 a8 77 bd
       -0.0043898127 -0.09103027 0.27687505 -0.06046315
0003a0 c3 23 41 be a2 d6 f7 3e 7a 99 e8 bd 33 3c 1f 3e
       -0.18861298 0.4840594 -0.11357398 0.15550308
0003b0 31 b5 aa 3e 78 14 11 3e ff ea 65 3e 71 d0 6a be
       0.33341363 0.14167964 0.22452925 -0.22931077
0003c0 00 db f8 3e 2b c7 c4 be b1 cb 07 3e ef 9f d0 3c
       0.48604584 -0.38433203 0.13261296 0.025466887
0003d0 b6 6f 5d be 39 ba 59 3d 9b 73 2f be 38 1f 77 be
       -0.21624646 0.05315611 -0.17133944 -0.24133003
0003e0 9b b9 8d bd f9 5f 2c 3e c5 a5 dc 3c e0 62 09 3e
       -0.06920167 0.16833486 0.026934514 0.13416624
0003f0 84 9a a4 3c 27 e7 c5 3e 5c b8 12 bf 2c 89 46 3e
       0.02009321 0.38652918 -0.5731256 0.19388264

bias f4 [19]
000000 97 4e 96 b9 cb 0c cb bd c8 fa 03 be ea 35 02 bd
       -0.00028668783 -0.099145494 -0.12888634 -0.031789698
000010 33 8e 63 3d 56 f9 41 bc 96 bf 3c 3e 08 1c 34 3d
       0.055555534 -0.0118392315 0.18432459 0.043972045
000020 dc 22 64 be 24 e4 45 be 3a f4 b1 bd d9 94 c8 bc
       -0.22278923 -0.1932531 -0.08689161 -0.024485039
000030 94 1b 24 b9 b5 93 2c 3e 15 be f1 bc 5d 43 bf 3d
       -0.00015650532 0.16853221 -0.029509583 0.093390204
000040 71 9e 75 3d 93 5b b0 bd 9f cb c1 3d
       0.059965555 -0.086112164 0.09462666
