models/a19lds19b0.007g0.01d1h13.pt (torch, 126515 bytes, 26 tensors)

weight_ih_l0 f4 [52, 4]
00000000: eb33 5a3e a63f 8b3e bb78 acbb 17b2 9d3f
00000010: 3678 be3e 5fc2 87be c8c8 6a3e 703f bdbe
00000020: 2a76 6e3e dc66 823e 80aa eebd c44f 32be
00000030: 7038 5bbe b5cd 433f 9c29 9b3e 44ad b03e
00000040: ff45 333e 5732 613d 98ae abbe cf23 043f
00000050: 38ca a53e d076 743e 2c31 933e 5dda 65be
00000060: 7a54 09be c3be b93e 4f59 0b3e 6ecf d4bd
00000070: d648 d6bd 40c0 a43d bbe2 ff3c b835 b9bc
00000080: 7744 17be 7a92 c53c 6e7a 4a3e d894 4b3f
00000090: 8920 163e 2bb5 8bbd 2f20 2e3e 45eb 053f
000000a0: 5aa3 b63e f5d5 64be 8351 9c3e 60ec 513e
000000b0: 21a9 143f 3259 833d 4f23 b23e f10b 493e
000000c0: 08d0 ec3d dee0 3f3d 7e22 b53d 6821 1bbe
000000d0: 33a2 dcbd 17b5 6bbe 6455 a2be b19b 163d
000000e0: 680c 343f c541 fcbe b8c6 5c3e c809 fc3e
000000f0: 6f88 9f3e 7fbf dabe ef62 233e 33c4 d9be
00000100: 3dc7 ffbe 4bce 81be 0dd5 d23d d95e f03e
00000110: 4b26 96be 7d59 0cbf 088f 8fbc ce6a 533e
00000120: b413 a0bd 0d8b bebe efb1 90be 0395 033e
00000130: b006 cd3d 4c4c cb3d 714c 4d3e 2da5 c4be
00000140: e9e6 733e 26f7 883d 8017 553e e6a2 9dbb
00000150: 4d4b 913e ee78 b63e 4c13 ac3e 9ea7 e03e
00000160: de5b 683e 3867 30be 89a5 93be e151 adbe
00000170: 9d51 82bd 2c6c 323e 3fc6 4fbd dd9e bdbe
00000180: e763 03bf 76e0 5cbe d337 afbe eb9e 24bd
00000190: a782 e53d 2207 be3d ec30 c7bc 7719 a8be
000001a0: 9ace 1abf b699 163f d03b 21be 36c8 39be
000001b0: 283a 96bd 018a 9b3c 36ec 5c3d 5057 adbe
000001c0: 77aa c03e f4bd 1abf 257f 273d 03f4 0fbe
000001d0: 433b 973e 2cac a2be 5239 81bd 37b9 8ebe
000001e0: 42cf 49be 82fb 1a3e e7c4 afbe 0b0e 5abe
000001f0: 0b62 9c3b 295e 06bf 5e7c f33e 5f54 28bd
00000200: ecee c93e eeb1 343e c467 593e abaf b03c
00000210: 414b 58be 0f23 98bd 984b c7bd 7ee8 9abe
00000220: fb0f d73d 9eb2 ef3e 519d 873e f895 58be
00000230: 5b72 093f 8f7d 0abe 6ef0 a73e 06db 603c
00000240: 7254 a03d bec2 8e3e 5a13 6bbe 6d28 4e3e
00000250: f6a2 ae3e 509a 1bbf 9af7 1dbf 50fe 073f
00000260: 247b af3e 7080 65be e86f 85be eb3e c73e
00000270: 6042 0b3f 0397 ba3e 9caf ef3d f722 fa3e
00000280: 7bd4 b3bd 3f88 83be 2da6 dc3c 119a 5e3e
00000290: e151 1e3f d855 2d3e 8637 073e 4753 5dbe
000002a0: cbc5 80be ca89 133f 7bb3 743e 312f 393f
000002b0: 59da 033e 310b 78be 7563 ce3d f023 023e
000002c0: fb58 32be 25ce 213f 34d2 213e cadb 47bd
000002d0: 8e98 3d3e 5ebe f93d e185 823e 8d7e e2bd
000002e0: 4934 143f 62ea b6bd 8efb 513e d8dd 2abf
000002f0: 0565 263e 3cf9 a9be 92a3 54be 0154 4f3f
00000300: b1da 183e e9b3 17bc daf9 333f bc2d b5bd
00000310: b7b7 fa3e 2d4c 0c3e 122e 973d 2fac f3be
00000320: 58bb c63e 960b b53e e76b d4bc c0c4 fd3e
00000330: fb37 9f3e da41 7fbe 2b70 883e 36eb dc3d
0.21308868 0.27196997 -0.0052634156 1.2319974 0.3720109 -0.2651548 0.22928154 -0.3696246
0.23287264 0.254691 -0.11653614 -0.1741324 -0.21408248 0.7648576 0.30305183 0.3450719
0.1750717 0.05497965 -0.33531642 0.5161714 0.32380843 0.23873448 0.28748453 -0.2244658
-0.13411132 0.36278352 0.13608287 -0.103911266 -0.10463111 0.08044481 0.031236043 -0.022608623
-0.14772211 0.024117697 0.19773266 0.7952399 0.14660849 -0.068216644 0.17004465 0.5231212
0.35671502 -0.22347243 0.30530939 0.20500326 0.5807057 0.06413497 0.34792563 0.19633462
0.11563116 0.04684531 0.088444695 -0.15149462 -0.107731245 -0.23018299 -0.31705773 0.036769573
0.7033143 -0.49268928 0.2156018 0.49226213 0.31158778 -0.42724225 0.15955709 -0.425325
-0.49956694 -0.25352702 0.102945425 0.46947363 -0.2932609 -0.5482405 -0.017524257 0.20646212
-0.07816258 -0.37215462 -0.28260753 0.12849812 0.10011041 0.09926662 0.20048691 -0.3840727
0.23818554 0.06687765 0.20809746 -0.004810679 0.28377762 0.35639137 0.33608472 0.43877882
0.22691295 -0.17226875 -0.2883723 -0.3385153 -0.06363223 0.17424077 -0.05072617 -0.37035266
-0.51324314 -0.2157 -0.34222278 -0.04019062 0.112065606 0.09278704 -0.02431532 -0.32831928
-0.604715 0.58828294 -0.15745473 -0.1814278 -0.07335311 0.018986704 0.053936206 -0.33855677
0.37630054 -0.60446095 0.04089274 -0.14057927 0.295374 -0.31771982 -0.06309761 -0.27875683
-0.19707969 0.15135005 -0.34329912 -0.2129442 0.00477243 -0.52487427 0.47555822 -0.041096088
0.39440095 0.17646 0.2123099 0.02156814 -0.21122457 -0.07428562 -0.09731215 -0.30255502
0.10501095 0.46815962 0.2648721 -0.21150959 0.5369012 -0.1352446 0.3280062 0.013724094
0.07828607 0.27882951 -0.22956601 0.20132609 0.34108704 -0.6078234 -0.61705935 0.53122425
0.34273636 -0.22412276 -0.2606194 0.3891519 0.54398155 0.36443338 0.11703417 0.488548
-0.08780762 -0.25689885 0.026934708 0.21738459 0.6184369 0.16927278 0.13204774 -0.21613799
-0.25150904 0.57632124 0.23896591 0.72337633 0.12876262 -0.24223019 0.10077564 0.12709022
-0.17416756 0.63205177 0.15802842 -0.04879359 0.18515226 0.12194513 0.25492766 -0.11059294
0.5789228 -0.08931424 0.20506117 -0.66744757 0.16249473 -0.33197963 -0.20765522 0.80987555
0.14927174 -0.0092592025 0.7030312 -0.08846614 0.48968288 0.13700934 0.07381834 -0.47592303
0.38814807 0.35360402 -0.025930358 0.4956417 0.31097397 -0.24927464 0.26648077 0.107870504

weight_hh_l0 f4 [52, 13]
00000000: 6071 cdbc 5086 073f fe60 86be 3eff 82bf
00000010: 029a 5cbf 574e 11bf 9929 4e3f 939e 56bf
00000020: 2eb3 223f 17fb 043f 9792 c0be f2c8 5fbe
00000030: 799b 843e c0fe bb3e 7f75 0c3e e94c 953e
00000040: 065f 3e3e e079 a5bd 30b0 e6bc a0a9 d5bd
00000050: 6f87 383d af0d 4e3d 189b 983d b190 bcbc
00000060: cf31 0abe 47eb 79be 34bb 973e 3d01 7a3e
00000070: 3ead e73e d47a ebbe 3923 bbbe 9b58 0cbe
00000080: 07a1 ea3d 612b 563e aab4 293d 2280 f9bd
00000090: a121 efbd d66a d4bc bd51 7ebe a8f2 e8be
000000a0: 7a3a 9c3c ff60 3c3d bc05 e5be c841 19be
000000b0: e13f b4bc 6836 9d3d 6510 4fbe 423f 193f
000000c0: 8f5e 903e 4ee2 a9be 7e79 a53e eb84 afbe
000000d0: ff33 6abd 810b 8a3e dc05 e9bd 85e1 d63c
000000e0: 7892 a1be 342a 6b3e bcbc 88be 5446 503e
000000f0: 359c be3d 1dc4 213d b560 953e c87c 223e
00000100: 542d d43c c394 54bf 67de 433f 0dbf 3e3f
00000110: cdeb 5ebf 7c49 cebe 29d6 21be 473d 3d3f
00000120: b605 c3be 1cda 813e 213c 3e3f 96cb ddbe
00000130: a495 8c3e 21fa 803e 7104 ffbd 91a8 a3bc
00000140: 0290 dcbd e7b8 493e 279e 043e 275b 79be
00000150: 8488 adbc 0951 acbc 188c 05bb 0db3 df3d
00000160: b3b0 87be 9093 77be ab1c db3e 1543 99bc
00000170: b7af 0abe ea46 52be 9b06 3dbd 5fc0 103e
00000180: b8ab 06bf 1931 fcbd 306d 0bbe 6196 78bc
00000190: 8270 d33c 69c0 96be 82d8 983d 3d65 04be
000001a0: c404 363d 5f6b 2a3f e304 1cbe 384f c9be
000001b0: 4e1a 8cbe 3ebf cd3e e786 94bd 8dec 4fbe
000001c0: 04ea a93e b239 233e 103b 353e 28cc 603f
000001d0: 114d 8b3d c07f e13c a850 4abe 446b 52be
000001e0: be26 02bf 60ef 8e3e ba02 9fbe aa0c f73e
000001f0: 7eb7 283e 2085 443d ff92 833d b6b2 3cbe
00000200: a0df fbbd d37b 943e 35e6 ce3c c869 bbbc
00000210: cdc9 69bc 0e48 f3bd 3c83 4bbd deb9 7fbe
00000220: 8fc2 3bbe 5b4b 09bc 7493 a33e 0cac 2f3d
00000230: 1a0e 8e3d c6f6 703c dd2d 623d d3b3 da3e
00000240: 4818 233f d1f2 c23e 9b85 e0be 0393 a3be
00000250: 5294 febc fbd1 2a3f d9f8 60be c006 2d3f
00000260: 6305 aa3e c18c c9be c6c7 023e 42f1 97be
00000270: 0c5c 813e cbbb ae3e e49e 3c3e 6982 fbbe
00000280: 7f7e a4be 59dc 973d 27a6 63be b599 e8be
00000290: 4bed bc3e 33f2 ae3e 1ba6 33be 2904 223e
000002a0: 5a82 373e ea51 28be e6c3 aabe c52b 043e
000002b0: 681e 0b3c 1ce3 0d3d f04b a63e 0ea7 dfbd
000002c0: 9e8f 233e 3e36 54be a92c dbbe 0ad7 053e
000002d0: ec15 a33e ff04 8f3e d908 41bd d102 aabd
000002e0: aad1 3a3f 1683 d23d cffd 013d 3fb5 493e
000002f0: 5d7c 6a3d d7ee 243d 9cb1 273e 577b f23e
00000300: 5d3c 2cbe 00a9 37bd 2135 bebc 5304 573e
00000310: 0df0 533e d33b 1f3f 2782 9d3e 941d 9bbe
00000320: e1af 003f be88 00bf d425 70be 5888 fa3d
00000330: f846 473c e097 b9be 0a0b d13e e933 32be
00000340: 68b1 1b3c 2f31 8c3e 00b8 02bd 07b2 d0bc
00000350: cd7d 1abe b86e 3c3e c556 ffbb 5543 513d
00000360: 2f0e b53e bd43 c53e 4277 bebd 0e6f 483e
00000370: 47e9 ae3d 69de fcbd 71fa 4e3e 9ea3 9b3e
00000380: c48d 69be bd33 d6bd 0485 783d 8ac2 b83d
00000390: c87d 183e 4e33 70be c04d 5dbe 1651 3cbe
000003a0: 0e9c 96be 0849 fdbc 3461 97bc 7eb1 9a3e
000003b0: f46f 513f f508 f53e 33b3 b1bc 78ba aa3e
000003c0: 4270 73be 888e 15be 47b2 e5bd a722 d0bc
000003d0: 721c 67bd 7e97 063f 22df a33d dcf0 2abe
000003e0: edf3 5cbe 28cc 8dbe ae3e 85be 7cee 623e
000003f0: ad8d 79be 54ea 343e 9bcc 183e 9fff ec3d
-0.025078475 0.5293932 -0.26245874 -1.0234144 -0.861725 -0.5676016 0.80532223 -0.83835715
0.63554657 0.5194563 -0.3761184 -0.21853998 0.25899866 0.36717796 0.13716696 0.2916024
0.18590936 -0.080798864 -0.028160185 -0.10432744 0.045051035 0.05030602 0.07451457 -0.023018213
-0.13495563 -0.24406157 0.29635012 0.24414535 0.4524936 -0.45992148 -0.3655031 -0.13705675
0.11456495 0.20914985 0.04143206 -0.121826425 -0.11676336 -0.02592985 -0.24835868 -0.45497632
0.019070853 0.04599094 -0.44730937 -0.149665 -0.022003116 0.07676393 -0.20221098 0.5986215
0.28197142 -0.3318047 0.32319254 -0.34281096 -0.057178494 0.26961902 -0.11378071 0.026230583
-0.3155706 0.22965318 -0.26706493 0.20339328 0.09307138 0.03949367 0.29175344 0.15867913
0.02590052 -0.8303949 0.76511234 0.7451027 -0.87078553 -0.4029044 -0.15804352 0.73921627
-0.38090295 0.25361717 0.743105 -0.43319386 0.27457917 0.25190833 -0.12452019 -0.01997784
-0.10769655 0.19699441 0.12950955 -0.24351178 -0.02118326 -0.021034734 -0.0020377692 0.10922823
-0.26501998 -0.24177384 0.4279531 -0.018708745 -0.13543592 -0.20534864 -0.046148878 0.14135884
-0.5260577 -0.12314052 -0.1361587 -0.015172572 0.025810484 -0.29443672 0.074631706 -0.12929244
0.04443814 0.66570085 -0.15236239 -0.39318252 -0.2736382 0.4018497 -0.07252293 -0.2030508
0.33186352 0.15939978 0.17698312 0.8781152 0.068018086 0.027526736 -0.1975733 -0.20548731
-0.50840366 0.27917004 -0.31056768 0.4825185 0.16476247 0.04797852 0.06424522 -0.18427548
-0.122985125 0.2900072 0.025256256 -0.022877589 -0.014269304 -0.11878978 -0.0496857 -0.24973246
-0.18335937 -0.008379783 0.31948435 0.042888686 0.069362834 0.014707273 0.05521952 0.4271532
0.63708925 0.3807588 -0.43851933 -0.319481 -0.031076584 0.66726655 -0.21969928 0.67588425
0.33207235 -0.393652 0.1277152 -0.29676253 0.2526554 0.3412765 0.18419987 -0.49122933
-0.3212776 0.07415075 -0.22231351 -0.4542977 0.3689979 0.34169158 -0.17543833 0.158219
0.17920819 -0.16437498 -0.33352584 0.12907322 0.008491136 0.034640417 0.3247981 -0.10920535
0.15972754 -0.20723817 -0.4280751 0.13070312 0.31852663 0.279335 -0.04712758 -0.083013184
0.7297617 0.10278909 0.03173619 0.19698046 0.05724751 0.040266838 0.16376346 0.47359726
-0.16819902 -0.044838905 -0.023218693 0.20997743 0.20697041 0.6220066 0.3076336 -0.30296004
0.5026837 -0.5020865 -0.2345193 0.12233037 0.012162916 -0.36248684 0.40828735 -0.17402615
0.009502746 0.27381274 -0.031913757 -0.025475515 -0.15087052 0.18401611 -0.007792326 0.051089603
0.35362384 0.38528243 -0.093000904 0.19573614 0.08540588 -0.12347109 0.20212723 0.30398268
-0.22807986 -0.10459087 0.06067373 0.090214804 0.14891732 -0.23457071 -0.2161169 -0.18390307
-0.29415935 -0.030918613 -0.018478967 0.3021354 0.8181145 0.47858396 -0.021691894 0.3334539
-0.23773292 -0.14605153 -0.11215644 -0.025407149 -0.056423612 0.5257491 0.080015436 -0.16693443
-0.21577425 -0.2769482 -0.26024383 0.22161287 -0.24370451 0.17667514 0.14921801 0.11572193

bias_ih_l0 f4 [52]
00000000: e88d dc3e 2c12 993e e651 db3e eef6 863e
00000010: 44ae 873e 9132 d63e 48b2 743a f688 c43e
00000020: c85f e03d d2ef 953c a37c 8c3c 0824 0a3f
00000030: 6de4 013f e826 753d 12b2 14be caf0 ed3d
00000040: a900 943d 17b6 883d 6972 50be 7b57 a13e
00000050: 1433 a03d fb50 c83d 2d99 a9bd af3b 173e
00000060: 50ea 60bb 2783 1d3e 4984 30be 425d ad3d
00000070: 1bc4 c93d 82d7 6dbe 3c55 c3bd b31b 77be
00000080: 6739 4e3e b2e2 3d3d d148 d7bd 991d 013e
00000090: add1 3abe 270e 513e 63ad f6bd 74c7 503f
000000a0: bc04 073e c717 dd3e 86dc fb3b bb7a 0dbe
000000b0: bcce 4b3e 5567 a73d eb89 453e f396 133e
000000c0: e269 833e e022 f33d 0ac4 f33e 0efe f13c
0.43077016 0.29896677 0.4283592 0.26360267 0.26500142 0.41835454 0.00093344273 0.38385743
0.10955769 0.018302832 0.017149275 0.5396123 0.50739175 0.059851557 -0.14521053 0.116181925
0.072266884 0.06675356 -0.20356144 0.31512055 0.078222424 0.09781071 -0.08281169 0.14768861
-0.0034319349 0.15382062 -0.17237963 0.08465053 0.09851857 -0.23226741 -0.095377415 -0.2413166
0.20139085 0.04635877 -0.105119355 0.12608947 -0.18244047 0.20415555 -0.1204479 0.8155434
0.131854 0.43182203 0.0076862006 -0.13816349 0.19903082 0.08174006 0.19290893 0.14413051
0.2566672 0.11871886 0.47610503 0.029540088

bias_hh_l0 f4 [52]
00000000: db8a 7a3f b35e 323e 6ab3 a0bc 53c3 21bc
00000010: 4926 1d3c c01d 153f ae07 aa3e f159 a1bd
00000020: b427 e93e 89fd be3e 641b 69be 92f1 613e
00000030: 728d b43e ead7 8fbe c41b dcbd eab4 5bbe
00000040: 4083 45be e525 f23d a969 8bbe 4946 d1bd
00000050: 8085 913d 09de f33b 6e3a 5abe 347a 523d
00000060: 5c5e f83c fd36 963e c966 0a3e 9a98 9bbd
00000070: 8177 0c3d b2f6 a7bd a4a6 d23d ccbe 34ba
00000080: 5c51 963e 1dc6 b2be 3583 5b3e ae0c 003d
00000090: af4f 3dbe 879b edbd 5393 133e b0ac 743f
000000a0: 6e77 2abc 2f4e cc3e 8973 3a3e 2916 fabd
000000b0: 8174 de3e ae6a 243e 25cb 083e dd59 7dbe
000000c0: 34b6 333e 541d 8ebd 3899 173f 4670 823e
0.97868127 0.17418937 -0.019616801 -0.009873229 0.009591647 0.5824852 0.33208984 -0.07878483
0.45538104 0.37302807 -0.22764355 0.22064808 0.35264164 -0.28094417 -0.107474834 -0.21455732
-0.19288349 0.11823634 -0.2722905 -0.10218484 0.07105541 0.00744224 -0.21311352 0.051386073
0.030318432 0.29338828 0.13515772 -0.07597466 0.034293655 -0.0820135 0.102856904 -0.0006894886
0.29358947 -0.34916773 0.2143677 0.031262092 -0.18487428 -0.1160193 0.14411668 0.95576
-0.010404451 0.399034 0.18208136 -0.12211258 0.4344826 0.1605632 0.13358743 -0.24741311
0.17549974 -0.06939188 0.5921817 0.25476283

weight_ih_l0_reverse f4 [52, 4]
00000000: b94e 2b3e 9add f6be 376f 7e3d a51f d03e
00000010: c739 a13d 6b99 bb3e a552 703e 5545 82bd
00000020: da99 a1bd 3895 863e 2e89 3bbd 5fc3 803d
00000030: 3844 073f a6d6 893d 99ee 353e df6a 9d3e
00000040: 5d84 0abf 733a bb3e 8acb c93e 3611 f83e
00000050: 2707 863e a393 0e3e 7ddd a43d 6794 d83d
00000060: d36f 743e 02c4 dabd b8cb 3c3e 5cb1 17be
00000070: 5aa4 503e 4b5a 123e 6f2a ffbe 4f08 0a3e
00000080: 9b86 143d 5160 3abd 7699 ef3e e38a a93d
00000090: 187a 43be 05d9 1b3f 2370 1abe 8fde e4bd
000000a0: 14c8 87be dde9 623e 66fb 3ebe 50e3 df3e
000000b0: 5c6e dabd d938 14be 681a 80be fb03 cc3e
000000c0: 935c 58bc a8f5 183b d498 e03e a52b 1d3f
000000d0: 2bd0 023f 81e1 e8be 9d49 60be 8b39 ca3e
000000e0: 8fb3 c4bd 52f1 0f3e 15b3 083e ffbf b63e
000000f0: a200 0b3d 6180 eb3e f48c df3d 8e09 523e
00000100: af02 81be aa31 813e ccdd 30be f553 44bc
00000110: 9391 ddbe acfe a53e c30e a5be 39a5 bd3e
00000120: 46a4 c83d d16d 8b3e 7feb bebd fd5b 573e
00000130: 0f91 cc3e 79cf 0cbf 3af7 febd f55a 9c3d
00000140: bf25 43bd 7e17 12bd 2282 773d f181 4a3e
00000150: 7e42 0b3e 1f79 6aba 1db2 ac3e fdbd 4c3e
00000160: 10fb debe e80a 303f 94df 643e f90b 933e
00000170: 3ef7 3fbe d2af c2bd 46ad 153f 5181 98bd
00000180: 722b 083e f8c3 223e b32c 223e a19c 273d
00000190: a84c 80bd 2b4c 12be bb05 ee3d 4033 953b
000001a0: 276a b73d 1e98 aebd 5c56 a23e 40e6 103f
000001b0: 1650 86be ee80 df3e 8842 97be d58f e93d
000001c0: a1ea 78be 2918 e6bd 3947 213e 7d88 16bf
000001d0: 6131 2abf ea54 293f ea52 753e bec5 863e
000001e0: 56f7 85be 61d1 34bf 412f 1bbc 197b 5abe
000001f0: 7360 73bc 01ee 34bd bbc6 bf3c dab6 983e
00000200: c0e1 263f 4573 39bb 5bb1 893e db16 2abe
00000210: 06ec dd3d 8b03 193e b7c8 053e 8052 febe
00000220: 0640 af3e 03f2 b1be f83f 813e 50da 843d
00000230: e839 dfbd 518d 7f3e 5349 3dbd d652 3b3f
00000240: 60e0 ac3e dd60 fa3d 2b1b cbbe f388 353e
00000250: f2c7 0b3d 839e 993d 1141 98bd 95b6 95bd
00000260: b6cb 98be 278c 0d3f 558d 803d 5a73 623f
00000270: 19f6 d73e ba61 47bf ad33 a3bd b7b7 303f
00000280: c12d 1cbf 5d33 c03e 682d 473d b02f f2bd
00000290: c344 d8be 154d 8b3e 588d 273e fab4 d73d
000002a0: f285 a13e a3b3 023f 420e 01bd c57a cd3e
000002b0: 4327 d9be d596 6f3f 3085 a0bd 87bf 723e
000002c0: 6c1d 10be 14c2 13bd aea7 07bf 0d16 233f
000002d0: 28ad 733f c025 01bf dd9e 513d cdb0 bfbd
000002e0: 7476 653e 34e0 9a3e bee3 57be 8eb0 01bf
000002f0: 62cb 313e ace7 6bbe 8dcf e63e 0bc6 053f
00000300: 0034 3abf 48af 303f 9daf bf3e 9419 dcbc
00000310: 24fc ebba 73d5 403e e35a af3e 7a47 e53e
00000320: 55a1 b1bd fb34 6b3e ec93 ea3d fea5 aa3e
00000330: c195 6cbe de6d 953e b06d 433e 97fa 4e3e
0.16729249 -0.48215944 0.06211778 0.40649143 0.07872348 0.36640486 0.23469026 -0.0636088
-0.07890673 0.2628572 -0.04578512 0.06287264 0.5283847 0.06730394 0.17766799 0.307456
-0.5410822 0.3656803 0.394131 0.4845063 0.26177332 0.13923506 0.08050058 0.105751805
0.23870783 -0.10681917 0.18437088 -0.14813751 0.20375195 0.14292257 -0.49837062 0.13479732
0.036261182 -0.04550201 0.4679677 0.08278444 -0.19089544 0.6087802 -0.1508184 -0.11175262
-0.26519835 0.22159524 -0.18650588 0.43728113 -0.10665581 -0.1447481 -0.25020146 0.39846787
-0.013205665 0.0023339782 0.438666 0.6139472 0.5109889 -0.45484546 -0.21903081 0.39497027
-0.096045606 0.140569 0.13349564 0.35693356 0.03393615 0.45996383 0.109155566 0.20511457
-0.2519736 0.25233203 -0.17272109 -0.011982908 -0.43275127 0.32420862 -0.32237825 0.37040117
0.09796958 0.2723222 -0.09322261 0.21031184 0.3995442 -0.5500408 -0.124494985 0.07634536
-0.04764342 -0.035666935 0.06042684 0.19776131 0.13599584 -0.000894444 0.3372964 0.1999435
-0.4355092 0.6876664 0.22350913 0.28720072 -0.18746659 -0.09506191 0.5846752 -0.0744654
0.13297823 0.15895069 0.15837364 0.040920857 -0.06264621 -0.14286868 0.11622187 0.0045532286
0.08955794 -0.08525108 0.31706512 0.56601334 -0.26232976 0.43653053 -0.29542947 0.11404387
-0.24308254 -0.11235077 0.15749826 -0.58802015 -0.66481596 0.66145194 0.2395741 0.2632274
-0.26165265 -0.70631987 -0.009471715 -0.2133602 -0.014854538 -0.04417229 0.023410192 0.29827005
0.6518822 -0.0028297466 0.26893124 -0.16610281 0.108360335 0.14942758 0.13064848 -0.49672318
0.34228534 -0.34754953 0.25244117 0.06486952 -0.108997166 0.24956252 -0.046212506 0.7317327
0.33764935 0.122255065 -0.39669165 0.17728023 0.03412623 0.07500937 -0.074342854 -0.073102154
-0.2984292 0.5529198 0.06276957 0.8845726 0.42179945 -0.77883494 -0.07968841 0.69030327
-0.61007315 0.37539187 0.048627287 -0.11825502 -0.4223996 0.27207246 0.16362512 0.105325654
0.31547505 0.51055354 -0.031507738 0.40132728 -0.42412767 0.93589526 -0.078379035 0.23705874
-0.14073724 -0.03607376 -0.52990234 0.6370552 0.9518609 -0.50448227 0.051176894 -0.09359894
0.22408468 0.30249178 -0.2108297 -0.50660026 0.1736274 -0.23037595 0.45080224 0.52255315
-0.72735596 0.6901746 0.3743867 -0.026867665 -0.0018004221 0.18831424 0.3424903 0.44781095
-0.0867335 0.22969429 0.11453995 0.33329767 -0.23104002 0.29185385 0.19084811 0.2021278

weight_hh_l0_reverse f4 [52, 13]
00000000: 6f92 8d3e 92a9 4e3e b546 c3be fbcf 363f
00000010: ebbf d1be 9ffa b6bd 0f0e 2b3e ac47 703c
00000020: da41 483e 685d 8a3e 775c 6e3e 94f3 093e
00000030: 654c a03e 6724 7d3d 893b e3be 7d10 583e
00000040: bba5 413e 65dc 7cbd 05a0 5b3d 0ebb 853d
00000050: 0f39 773e cb7e d53c 7c33 a13e ef41 e3be
00000060: c6be 0f3f 4be0 813e 36a3 b53d 1a39 553e
00000070: c9dd 8bbd 39ef 6dbd 0bc2 1dbe 9d7f af3e
00000080: acaf 603e 2807 c7bc 62f4 af3e f922 603e
00000090: 8d09 c03d c4b8 ba3e af0b e03d 2862 843e
000000a0: 5218 d4be b5e0 13bf f60a cc3d e93e cfbe
000000b0: cb21 463f afae d6bd c353 823d b786 323e
000000c0: 48c1 113e 725f b73e fa5b 0c3f 16ef 393e
000000d0: d27c 443e e82e 48be 9ec2 05be a91b 4abd
000000e0: 31a2 1b3e dbc6 07bc f9f7 cdba ded1 c73d
000000f0: 2fbc d03d f413 d63b 4d21 a23d 7ab9 b33e
00000100: a570 be3e 4a46 87b9 ae01 453e 9f2f 32be
00000110: 25c2 7c3e c8e7 3dbe b5e4 91be fe88 7b3e
00000120: 3b94 f33e 9158 873d b42b 9f3e 3877 16bf
00000130: f6d3 34be 42b7 dfba 6cf7 ec3d e22e d9bd
00000140: 2727 f6bd daeb dd3e ea63 e9bd d3af 9c3d
00000150: 5d00 ae3d 5121 64be 6086 1d3e 3d1d 853e
00000160: e38b 9b3d 0727 033e 4059 c73d be78 cebd
00000170: 11ba 19bd 39ea c03c 4c97 0c3f 41cb 4ebd
00000180: 6112 bf3d b44e 823d cade 7bbe e2bb 8bbd
00000190: 6da8 093e aaca 333d 7c30 d0bd 7587 783e
000001a0: 5aba 1b3d b2d1 a3bd 9869 4ebd 89e0 b43e
000001b0: d2cf 0d3d 86be abbc 7eab 18bc d813 533d
000001c0: 50ce 88bc 9cc1 433e 103c dabc 7a07 1ebd
000001d0: 76e0 89bc 640f a93e 63b8 e4be a0d3 1b3e
000001e0: 0ad0 5bbe 6364 ff3b a31c fb3d d5cb 8b3e
000001f0: 32bb 2d3e 60f5 973e 7680 5d3e 64df 9c3e
00000200: 8e4f cb3e 4385 e73e 8153 543d cb05 84be
00000210: 4b08 60be 04f0 903e ee69 3e3e a873 95be
00000220: 40a5 5f3c 6b2d 9d3e c0d9 9c3e 1342 1f3e
00000230: 08ca 8fbe b3cf 03bc 51fc 8c3e 07d9 a33d
00000240: 8110 b7bd 3c53 e73c 6536 4a3e cc0f 903d
00000250: 1dce eb3d 3e2a cd3d fe6a cf3e 7da6 e43e
00000260: 55d3 0ebe be23 a43e f452 1abd f820 da3d
00000270: ba9e 59bd 2a2b 37be 0bf2 31be 6e94 753d
00000280: b15b 45be 576c b1bb 9d31 b93d 0336 9eb8
00000290: c22b 0bbe 670a 073c 35a8 723d 754e 383e
000002a0: 4a26 ad3d d103 1f3e f00b b93e d43e 5fbd
000002b0: bf45 1e3e c5f7 b0bd 12e7 843e 9067 143e
000002c0: d994 383c 55c2 3a3e 0fa6 ce3c 7a20 de3d
000002d0: b212 4dbd c1f5 4e3d 885e ad3e 83dc 86be
000002e0: e3d7 9b3d a96d f43d ee0b a23d 5e1c 913d
000002f0: 99da d63d 0d28 5e3e 37a1 963e 9736 3a3d
00000300: 65ab 9bbe a95b e13c 3e76 903e 0655 b73e
00000310: d806 1a3e c273 f63d 8be5 a43c 215a 2abe
00000320: 8fd5 d43d d0ed b53e e061 fb3e ad84 66bd
00000330: aec6 53bd 7344 3c3e 42fb 61be d060 093e
00000340: 7dff a83d 5729 4b3e 03cf a23e 1b95 2b3d
00000350: cfaf 40bb b573 30be 422e d3be 6303 c5be
00000360: 9845 91be 3d13 aebe 9d9d 27bf 3097 203e
00000370: 7356 973d f025 9bbd b4e3 873d c79a d53c
00000380: 1a85 06bd bbb5 dcbc 9182 40be a7bd 3dbe
00000390: 275b e73b 8985 70be f916 7f3e f86b 3d3e
000003a0: c88b 273e 9199 03bd a1c7 473e bee3 593d
000003b0: 8774 383e 805e 053e 2095 c1be f0f8 0e3e
000003c0: a2ab 6bbd 6d29 a43e 5b5c a6bd 1785 313e
000003d0: 5b83 93be 7002 6a3d 994d 463c 48cc 9cbe
000003e0: 7700 723e d2b7 a3bd e361 063f fc56 a3bd
000003f0: 6083 303d 3f3c e9ba 6add 07be 8e83 013e
0.27650782 0.20181873 -0.38139883 0.71411103 -0.40966734 -0.08934521 0.16704582 0.014665525
0.1955637 0.27024388 0.2327746 0.13471824 0.31308284 0.061802294 -0.4438136 0.2110004
0.18910877 -0.061733622 0.053619403 0.065298185 0.2414286 0.026061436 0.31484592 -0.4438624
0.5615047 0.25366434 0.08869021 0.20822564 -0.068294115 -0.05808947 -0.15406053 0.3427705
0.21942014 -0.024295405 0.34366137 0.21888341 0.09376822 0.3646909 0.109397285 0.25856137
-0.41424805 -0.5776475 0.09963028 -0.40477684 0.77395314 -0.10482537 0.063636325 0.17434202
0.14233887 0.35815006 0.54827845 0.1815761 0.1918824 -0.19549143 -0.13062522 -0.049342785
0.1519859 -0.008287157 -0.001571416 0.09756826 0.10192143 0.0065331403 0.07916508 0.35102445
0.37195316 -0.00025801576 0.19238922 -0.17400979 0.24683435 -0.18545449 -0.28494802 0.24563977
0.47574028 0.066086896 0.3108803 -0.58775663 -0.17658982 -0.0017068165 0.115706295 -0.10604645
-0.120191865 0.43344003 -0.1139601 0.07650723 0.08496163 -0.22278334 0.15383291 0.2599887
0.07595041 0.12807857 0.0973382 -0.100816235 -0.037530962 0.023549186 0.5491836 -0.050486807
0.093296774 0.06362668 -0.24596706 -0.06822945 0.13443156 0.043894447 -0.10165498 0.24270423
0.038019516 -0.079989806 -0.05039367 0.35327557 0.03462202 -0.020964872 -0.009318231 0.051532596
-0.01669994 0.19116825 -0.026639968 -0.03858135 -0.016830664 0.33019555 -0.44671926 0.15217447
-0.2146608 0.0077939495 0.122613214 0.2730395 0.1696594 0.29679394 0.21631035 0.30639184
0.39709133 0.45218858 0.051837448 -0.2578567 -0.21878164 0.28308117 0.18595096 -0.291898
0.0136502385 0.30698714 0.3063488 0.15552549 -0.28083825 -0.008045125 0.27536252 0.08000379
-0.08938695 0.028237931 0.19747312 0.07034263 0.11513922 0.10017823 0.40511316 0.4465827
-0.13947804 0.3205852 -0.037676767 0.106508195 -0.05312989 -0.1788756 -0.17377488 0.059956007
-0.19273259 -0.0054145264 0.09042666 -7.5440876e-05 -0.13590911 0.008242226 0.059242446 0.17998679
0.08454569 0.155288 0.3614192 -0.054503277 0.15456294 -0.08641008 0.25957543 0.14492631
0.011265957 0.18238194 0.025225667 0.10846038 -0.050066657 0.050527338 0.33861184 -0.26340112
0.076095365 0.119349785 0.07912432 0.07085489 0.10490913 0.21694966 0.29419872 0.045462217
-0.304042 0.027509527 0.28215212 0.35807055 0.15041673 0.12033798 0.020128986 -0.16635944
0.103922956 0.35533 0.4909811 -0.056278873 -0.051703148 0.18385486 -0.22068503 0.13415837
0.082518555 0.19839989 0.31798562 0.041890245 -0.0029401665 -0.17231639 -0.4124623 -0.38479146
-0.28373408 -0.33999053 -0.65474874 0.15682673 0.07389536 -0.075755954 0.06635228 0.02607478
-0.03284178 -0.026942125 -0.18799807 -0.18529378 0.0070604268 -0.2348844 0.24911107 0.18498218
0.16361916 -0.032128874 0.19509746 0.053195707 0.18013202 0.1302433 -0.37809086 0.1396215
-0.05753673 0.32062855 -0.08123084 0.17335926 -0.28811154 0.05713123 0.012103462 -0.30624604
0.2363299 -0.07994045 0.52493113 -0.07975575 0.04309404 -0.0017794444 -0.13268057 0.1264784

bias_ih_l0_reverse f4 [52]
00000000: fbc9 b33e d532 c63d bc05 7cbc 43af 063f
00000010: eab2 153d b818 e53d 43d5 2b3e dd5b e33e
00000020: 7034 7d3e 80f1 e8bd 6c42 39be 79a8 fb3d
00000030: 4023 403e 479f 403d af75 d03e a3a9 af3e
00000040: 93c9 a8bd 03aa 0abe 274c 2f3e 0d45 52be
00000050: 273c e53c e71f 283e 7ed6 a43e 0c44 003d
00000060: 0248 953e aba0 3c3d d315 893e 9e43 083e
00000070: 86c5 7bbe c66d 6bbd d47c a8be ce3d 78bc
00000080: 23b2 303e 5258 ae3c a203 923e 20af 073e
00000090: e564 8d3d 6e18 463d aae8 9c3e f86e 143e
000000a0: 3ffa 503e 6972 c13c ba47 473e 6664 1cbe
000000b0: 5f14 593e a3ec 4abe 2550 943d c75f 493e
000000c0: f33f 843e 45cf 8dbc a605 cdbb 8480 4a3d
0.35115036 0.09677664 -0.015382227 0.5261118 0.03654758 0.11186355 0.16780572 0.44406024
0.24727035 -0.113741875 -0.18091744 0.12287993 0.18763447 0.0470269 0.40714785 0.3430911
-0.08241572 -0.13541417 0.17118894 -0.20534153 0.027982784 0.1641842 0.32194895 0.031314895
0.291565 0.046051662 0.26774463 0.13307044 -0.24587068 -0.057477735 -0.32907736 -0.015151454
0.17255454 0.021282349 0.28518397 0.13250399 0.0690401 0.04836314 0.3064626 0.14495456
0.20407961 0.023614125 0.19460955 -0.15272674 0.21199177 -0.19816832 0.07241849 0.19665442
0.2583004 -0.017310748 -0.006256777 0.04943897

bias_hh_l0_reverse f4 [52]
00000000: 26a3 3f3e 7ee6 2c3e 8c63 6c3e 3e5e 8f3e
00000010: 5cef cc3d 712e 6d3e bf78 3f3e bf41 803e
00000020: 7072 913e 9187 8fbc f5cb 34bb b38f 2f3e
00000030: 33f3 ed3c a43a 2bbe 7b59 7b3e 5b91 263e
00000040: fa03 bfbe d931 7a3e 5f3e 62be 9975 55bd
00000050: 74cf ae3e 2080 4d3d a404 5e3e 0b13 b13e
00000060: bf8e b7bd c53e 70bd c073 e63d 231f 45bd
00000070: 708d 3f3d a30b 983d cb6e 873d 707e 543e
00000080: b38e b13d 25e7 443e 82b8 8d3e 6857 8b3e
00000090: 969f 533e 4bb7 a03d 4d1c 043e 9675 10be
000000a0: 4355 f33e 0e6f 853e c2c2 1c3f 70d6 223e
000000b0: af38 26be f1d0 743e f9c8 af3e 1794 06bb
000000c0: 5fa4 163e ac14 063d 0c76 2f3e b43c 033e
0.1871458 0.16884801 0.23084849 0.2800159 0.10006592 0.23162247 0.18698405 0.2505016
0.2840762 -0.017520698 -0.0027587388 0.1714466 0.02904663 -0.16721588 0.24545853 0.16266386
-0.3730772 0.24433078 -0.22094105 -0.052114103 0.3414265 0.050171018 0.21681458 0.3458484
-0.089627735 -0.05865361 0.11252546 -0.048125397 0.046765745 0.074240945 0.06612929 0.20751357
0.08669796 0.192288 0.2767983 0.27215123 0.20666346 0.0784746 0.12901421 -0.14107355
0.47525987 0.2606129 0.61234677 0.15902114 -0.1623256 0.2390783 0.34333017 -0.0020535046
0.1471114 0.032734558 0.17134875 0.12816125

weight f4 [16, 260]
00000000: edc9 283c 8a92 1f3e e4ca 1dbd 5332 23be
00000010: 2699 443d 044f d03c dc3a bbbd 34b9 96bd
00000020: e436 49be 4432 0e3e 258a 51be fd41 abbd
00000030: 09b3 d2bd 8894 0f3e 1e07 453d a652 a2bc
00000040: cec5 88bd 4d2a f9bc 4f63 803d b0d4 243c
00000050: 9e36 5a3c 34a6 e33d 1e62 b5bd bf5a 853b
00000060: 5c3c 4d3d 0d6c dcbd 1ea2 5d3e a8f5 7bbd
00000070: 0df3 90bc 41ec 6abd ba9d 203e 059e cfbe
00000080: 69f4 0e3d 45e3 22bd bf27 f5bd e1dc f33c
00000090: fac7 2d3e 5022 613e 9ef0 1b3e c47d 37bd
000000a0: 9d24 653d 15fd 18bd 2ee5 923d cc55 093d
000000b0: c87d 2dbd 8627 d1bd c461 86bd b96b 8bbd
000000c0: fdc5 b5bd 6376 863c 5764 f23d ad38 52bc
000000d0: 0ef6 debd b43e c5bd 49c6 f8bc e3d4 013e
000000e0: 7ba4 0abc 0902 493c ba30 833b a76e df3c
000000f0: 9c13 d13d af0c d63d be39 00bd f531 6a3c
00000100: 1aca df3d 03c3 c1bc c770 cb3d bbd9 c8bd
00000110: 126f 05bc e796 d03a 5b3b 5c3e 79c4 dd3d
00000120: 1fb2 74bc 7be6 143e 7eed d1bb 838d 11be
00000130: 7957 053e f659 713d 41bb 0ebe 05c9 fd3d
00000140: 2363 1d3d 370c a4bd fa92 0a3d 88e4 79bd
00000150: 3cb0 0a3e ff42 10be d878 d9bd 9e35 623c
00000160: 4c19 65bc bb15 fc3d bfad 6a3d ef34 873e
00000170: dec7 d7bc 3dbe 97bd a593 dd3c bd4b 47bd
00000180: e184 b83d f9e0 b3bd 238f 8f3d f0b4 e23c
00000190: bda3 823b ff81 ccbd 6522 b83d 2b2c 433d
000001a0: c3b7 7f3e 8f1a d7bc f84e 20bd 95de 0cbe
000001b0: 779a 563d 76c0 dd3d 10ec ac3d e53e 9a3d
000001c0: 8fac 8dbd 6635 843b e0ab 9cbd 2a99 763b
000001d0: 4edc 91bd e58d a33d 8c63 833d e1d3 08bc
000001e0: 114e 2f3e ef33 583e caf4 173e 980f 873d
000001f0: d696 a0bc 11ef 193d bb85 b33d 731b 4fbe
00000200: 02e5 523e 0032 df3d 5373 bbbe 792c 683e
00000210: 5509 1e3e 7a10 293e 03db 19bc 41f5 bdbb
00000220: 1826 ae3d 911b f1bc 0ac1 f73d 72e9 463e
00000230: 3370 01be 371f f93c 3b09 383e 4f6b f0bc
00000240: 8098 3bbd 19da 30bc df3e 37be 725e dcbd
00000250: 522a d73d 3562 b23d 2cb4 143d ee7a 603d
00000260: a7d0 f2bb 8719 95bd 1c22 d7bd fcee 1d3d
00000270: 7981 833e d463 333e 394d bdbb 23a5 9fbd
00000280: 88d2 373c e984 7c3c 702d e7bb 1ac9 0d3e
00000290: c8f9 cd3c 8244 08bc 7dba 8bbd 284b e7be
000002a0: 159e 48be 5875 33be a435 fd3d 9041 8abb
000002b0: 3f1f 823e 3c2b 56be 7329 d53d 50af f5bd
000002c0: 599b 6abe 9767 763d ec90 1c3e 1ea3 263d
000002d0: 04ff b1bd 282d 173e 108c ee3c 91d6 243d
000002e0: 8433 6c3d 53f3 c0bc 6fc5 0cbe 8497 97bd
000002f0: 8df7 1dbc 7412 eb3c 4d28 773d 014d 9c3d
00000300: 4b72 30bd 9ce0 01be 4678 893d bc5f 8f3c
00000310: 2197 b53c acbf e6bd 0e6e 2d3c d577 b43d
00000320: fdbd dc3d f5d6 0a3d 8a86 553e 5545 1a3e
00000330: 786f cf3b 30f7 bfbc ebf9 07be 6d17 91bc
00000340: 844b babd dc1e 883c 53ab fd3d d21b ccbd
00000350: a677 8bbd 765f 0abe 6ca4 f13d ebcf 8abd
00000360: 5ad2 4cbe 7e34 5b3e ca89 b93c e297 debc
00000370: 8326 d13d 260d 043e 2e74 14bc f9e0 b1bd
00000380: 58a6 5a3d b46b 6abd 7964 c53c a69c 123e
00000390: 99be 363c 9c27 143e 89ae 70bd bf65 9ebc
000003a0: 3344 65bc 07a0 acbd d1fb 933e 51d4 413d
000003b0: cd57 2abe 5a6f 1cbe 0b1e f4bd e7bc 9abd
000003c0: 70f4 723d a888 84bd 9d49 d1bd 4e42 a5bd
000003d0: 3798 1ebd 907a 823d 892d 4b3d a0da 7b3d
000003e0: 1301 ae3d fe51 e8bd 2d04 aa3e 3d85 0cbc
000003f0: 7586 6e3e 50a0 7cbd d7f2 a8bd ab91 9b3c
0.010302049 0.15583244 -0.03852357 -0.15937166 0.047997616 0.025428303 -0.09142086 -0.073595434
-0.19649845 0.13886362 -0.20462854 -0.08362196 -0.102880545 0.14021504 0.04810249 -0.0198148
-0.06678353 -0.030415678 0.062689416 0.010060474 0.013318686 0.11115685 -0.08856605 0.0040696557
0.05010639 -0.107627966 0.21643874 -0.061513573 -0.01769402 -0.057354216 0.15685168 -0.40550247
0.034901056 -0.039767522 -0.119704716 0.02976841 0.16970816 0.21985745 0.15228507 -0.044797674
0.05594312 -0.037350733 0.07172619 0.033529088 -0.042356282 -0.102126166 -0.06561616 -0.06807656
-0.08875654 0.016413873 0.118355446 -0.012830895 -0.10886775 -0.096311 -0.030367987 0.12678866
-0.008462067 0.012268552 0.0040036114 0.027274443 0.10208818 0.10451638 -0.031305067 0.014294137
0.1092722 -0.02365256 0.0993362 -0.09807154 -0.008144157 0.0015914113 0.21507017 0.1082849
-0.0149350455 0.14541046 -0.006406485 -0.14214139 0.1302165 0.058923684 -0.13938619 0.12391857
0.038424622 -0.08010142 0.033831574 -0.06100896 0.1354379 -0.14088057 -0.10618752 0.013806729
-0.013983082 0.12308832 0.057294603 0.26407573 -0.026340421 -0.07409332 0.027047941 -0.048656214
0.0900972 -0.087831445 0.07009723 0.027674168 0.0039868043 -0.09985732 0.08990935 0.047649544
0.24972443 -0.026257781 -0.03913781 -0.13756783 0.052393403 0.10827725 0.08443463 0.075315274
-0.069176786 0.004034686 -0.0764997 0.0037627914 -0.07122098 0.079860486 0.064154714 -0.008351297
0.17119624 0.21113561 0.14839473 0.06594771 -0.019603174 0.037581507 0.087657414 -0.20225315
0.20595172 0.108982086 -0.36611423 0.22673215 0.15433247 0.16510192 -0.009390595 -0.005797059
0.085033596 -0.02943209 0.12097366 0.1942499 -0.12640457 0.030410392 0.17972271 -0.029348044
-0.045799732 -0.010794186 -0.17895077 -0.107602015 0.10506119 0.08710138 0.036304638 0.054804735
-0.007410127 -0.072802596 -0.10504553 0.03855799 0.25684717 0.1751855 -0.005777028 -0.07795169
0.011219628 0.015412548 -0.007054977 0.13846245 0.025143519 -0.008317115 -0.06822679 -0.45174527
-0.19591554 -0.17525232 0.12363747 -0.0042192414 0.25414464 -0.2091493 0.104082964 -0.11996329
-0.22910823 0.060157385 0.15289658 0.040682904 -0.086912185 0.1476332 0.029119521 0.04024369
0.057666317 -0.023553526 -0.1374719 -0.07401946 -0.00964154 0.028695323 0.06034117 0.07631875
-0.04307775 -0.12683338 0.067123935 0.017501704 0.02216679 -0.11267027 0.010585321 0.08811919
0.10778425 0.033896405 0.20852104 0.1506551 0.006330427 -0.023433298 -0.1327893 -0.017711366
-0.09096435 0.016616277 0.12386193 -0.09966244 -0.068099305 -0.13512978 0.11798939 -0.067779385
-0.20002118 0.21406743 0.02264871 -0.027172033 0.10212424 0.1289564 -0.0090609025 -0.08685488
0.053381294 -0.05723162 0.02409576 0.14317569 0.01115384 0.14468235 -0.0587602 -0.019335626
-0.013993311 -0.0842896 0.28903058 0.04732162 -0.16635056 -0.15276852 -0.11919793 -0.075555615
0.059315145 -0.064713776 -0.10219119 -0.08069287 -0.038719382 0.06371033 0.049603973 0.061487794
0.08496299 -0.11343764 0.3320631 -0.008576688 0.23293479 -0.061676323 -0.08249443 0.018990358

bias f4 [16]
00000000: 4aa5 183d af49 0ebb 65a8 383b 6946 9abc
00000010: 47f9 d43b 4f3d bd3d 1142 543d 6647 f23d
00000020: ff74 64bd 8e60 9a3c 3839 023d 8a8f f93c
00000030: 40f6 843b 57c8 673d 44cf c6bc b756 5c3c
0.037267007 -0.00217114 0.0028176543 -0.018832402 0.0064994427 0.09240209 0.05182082 0.118300244
-0.05577564 0.018844869 0.03179285 0.030463953 0.0040576756 0.056587543 -0.024268754 0.013448409

weight f4 [19, 16]
00000000: 16d2 943e 70d1 fdbb 7904 e2be 731d a3be
00000010: a474 d5bd 98ee c4be 3b49 6a3f 91a9 663c
00000020: aa68 da3e f4b9 70bd b03a e53c 29f2 913e
00000030: 3add aebc fa4a 96bd ca56 08be 02d3 d83c
00000040: b3a9 b73e 7fbb 23be bde8 9a3e edb1 ad3d
00000050: c173 f73d 88c1 aebd 4294 9dbe ade5 4abc
00000060: d55f aebc 831f 1ebf 061e c43c 750a 013f
00000070: 381d 53bd 230c aa3d 52f1 1bbc 6857 393f
00000080: 633c 093f 833e 1abe 8358 15be 85bf f53e
00000090: b8e0 aabe bb8d 223f 252b a2bd 5b5e 64be
000000a0: 0164 453e 991f 9c3e 1b95 cf3b 326f 4e3d
000000b0: 727b a8bd 5eab bebe 188e 81be 1ecb 353e
000000c0: 8e52 dfbb b111 a9bb a0ea d5bb 4999 88bb
000000d0: 64dd 3ebc e861 91bb 07a4 e13b 93f8 dfbb
000000e0: cef9 38be be0a e2bb 71ce 283f a4e0 efbc
000000f0: 42ff 3fba 34d4 a3ba 2f12 193c 29cc 0fbc
00000100: 8b66 173f b25f 8a3e 5c6b b73d c585 74be
00000110: a176 0e3f f81b d63e 13ce 993c e5fb 4dbe
00000120: 9e5b b9bd acfc 48be 138d 13bd f8a5 7a3d
00000130: 86ae 3fbd 42f3 2bbf 57af 693e 90cd efbe
00000140: b807 34bc d732 1dbc 01f6 3dbc 2a4a 47bc
00000150: bf7b 55bc 0971 11bc 38f0 083c b5a9 26bc
00000160: 0b98 133b cd7f 30bc 5237 63bd a737 13be
00000170: 37cb a4bb 6c8e 5b3b 9d4f 1c3d 2f25 b9bb
00000180: babf d9bb 8ca6 20bc f560 32bc fbf6 9bbb
00000190: 2725 15bc 51ed ffbb 53d0 dd3b 315f 97bb
000001a0: bf03 193e b7b7 13bc 3866 5f3e c63e afbd
000001b0: ccba b9bb 1bb3 dfba fa6b 6c3d c825 99bb
000001c0: 85c9 923a 96b5 afba 226a 933a 8307 1d3b
000001d0: 8bd1 f13a 73b2 bb3a 2144 2dbb 3db7 753a
000001e0: da49 c5be 9097 093b 44d3 52be f1db 66be
000001f0: 5eee 9aba a79f 143b a314 233f ebd2 b63a
00000200: a64c 2ebc 5460 02bc a263 1abc 6193 d3bb
00000210: 08f7 13bc f2c5 3dbc 4cfa c43b acc4 d9bb
00000220: ea98 143e 2399 17bc 7e80 86be 6f57 b3be
00000230: fb79 0bbc b3db c83b ef10 b33d 43b9 b1bb
00000240: d148 15be 418c 973e 4a85 60bf 12e1 323f
00000250: 5b77 f83e cd03 ccbd 4ad2 71be 9482 b7be
00000260: 3104 a4be 8079 213e fcf5 9ebc 47a9 97be
00000270: 0379 013d 93fa 6d3d ac9d 16be 3df3 3d3e
00000280: 23df 773e f679 a6be 7993 b63d c971 6dbe
00000290: 2c04 963e 3dad ffbe d97b e5be 8b6d 9b3d
000002a0: e871 71bb 6f98 d23e 2844 623e 15cb eb3c
000002b0: 2cdf 353d 6c55 1bbe a6b5 363d 30f7 0c3f
000002c0: 1e15 efbb d4a4 f7bb 51f4 44bc 1304 81bb
000002d0: 71c5 b2bb 08a5 c5bb 1a10 f73b 4ccf dabb
000002e0: 9f70 993e c0d1 bcbb c28f 67be f63d 9e3d
000002f0: a1f5 8ebb ac50 ca39 1f63 23bc ddd6 ccbb
00000300: 4c15 ee3e b571 0ebf 916c 6b3e 35fe 6b3f
00000310: 9a64 e13c 142c bbbe fc3b 823d 4f6d 2f3e
00000320: 3b0f 943d 9ae7 f33d 862f 09bf f9b4 933e
00000330: 2840 673b 88af bebe a4bf 2e3e 325f 04bf
00000340: 2613 5cbb 1c2d f4b9 a4d1 14bb 02ce dabb
00000350: 424c cfbb d43a 54bb 1fd7 4d3b 23bf 73bb
00000360: c3f0 443e 7122 41bb 0aff 44be 87c0 7a3d
00000370: bbe5 7abb 6d0b 27ba b74f b73d 9258 00bb
00000380: 27ba b03b d816 4d3b 9985 b53a f139 a13b
00000390: 0812 633b 34b2 a63b 7b99 0dbb 2456 853b
000003a0: 46ec 063e a453 303b db27 8d3d 9bda 76bd
000003b0: 776c e43a 3078 893a d327 21be fb3b 573b
000003c0: d33e b33b c2da 963b 1ae4 063c 4123 db3b
000003d0: 6485 ca3b fcf0 613a 34bd f8bb feac ad3b
000003e0: 546c 443f 349a 073c b604 8fbe dfd1 0bbd
000003f0: 0b88 9f3b 593c a0ba 4b13 1d3e 83cc f73b
0.29066533 -0.007745914 -0.44144037 -0.31858405 -0.10422638 -0.38463283 0.9151799 0.014078514
0.42657977 -0.05877109 0.027982086 0.28505066 -0.021345723 -0.073385194 -0.13314357 0.026467804
0.35871658 -0.15989493 0.3025569 0.08481202 0.12082625 -0.08533007 -0.30777174 -0.012383861
-0.02128593 -0.61766833 0.023940098 0.5040658 -0.051541537 0.08303096 -0.009517984 0.72398996
0.5360777 -0.15062909 -0.14584546 0.4799768 -0.33374572 0.63497514 -0.079183854 -0.22301619
0.1927643 0.30492857 0.0063349134 0.050399013 -0.0822667 -0.37240118 -0.2530372 0.17753264
-0.006815261 -0.0051595797 -0.0065282136 -0.0041686636 -0.011649463 -0.00443672 0.0068860087 -0.0068350523
-0.18064043 -0.006898253 0.65940005 -0.029281922 -0.0007324108 -0.0012499155 0.009342714 -0.008776703
0.59140843 0.27026135 0.08956024 -0.23879154 0.55649763 0.41818213 0.018775022 -0.20115621
-0.09050678 -0.19627637 -0.03602321 0.061193436 -0.046797298 -0.67168057 0.22820793 -0.4683652
-0.010988168 -0.009594641 -0.011594296 -0.012163678 -0.013029992 -0.008877047 0.008358054 -0.010172297
0.0022521045 -0.010772658 -0.05547268 -0.14376698 -0.005029108 0.0033501638 0.038161863 -0.0056501846
-0.00664517 -0.009805333 -0.010887374 -0.004759667 -0.009103096 -0.0078102727 0.006769219 -0.004619502
0.14942835 -0.009015969 0.21816337 -0.08556895 -0.00566802 -0.0017066927 0.057720162 -0.0046736933
0.0011198974 -0.0013405557 0.001124684 0.0023960776 0.001844929 0.001432015 -0.0026438313 0.0009373313
-0.38532907 0.002099488 -0.20588404 -0.22544838 -0.0011820307 0.0022678168 0.63703364 0.0013948356
-0.010638392 -0.007957537 -0.009423168 -0.006456778 -0.009031065 -0.011582838 0.006011283 -0.0066457596
0.14511457 -0.009252819 -0.26269907 -0.35027644 -0.008512969 0.006129706 0.08743464 -0.0054236962
-0.14578559 0.29599193 -0.8770338 0.6987468 0.4852856 -0.099616624 -0.23615375 -0.3584181
-0.32034448 0.15769005 -0.019404404 -0.29621336 0.031609546 0.058100294 -0.14708585 0.1854982
0.24206214 -0.32514924 0.08914847 -0.23187937 0.29300058 -0.49936858 -0.4482105 0.07589253
-0.0036841575 0.41131923 0.22096312 0.02878336 0.044402286 -0.15169305 0.044606827 0.5506468
-0.0072962185 -0.007557491 -0.01202114 -0.0039372533 -0.0054556658 -0.006031636 0.0075397613 -0.0066775437
0.29968736 -0.005762309 -0.22613433 0.07726662 -0.0043627773 0.00038588548 -0.009972363 -0.0062511996
0.46500623 -0.55642253 0.22990634 0.92184764 0.02751379 -0.36557066 0.06359097 0.17131542
0.072294675 0.11909409 -0.5358814 0.2884901 0.0035286043 -0.37243295 0.17065293 -0.51707757
-0.003358075 -0.00046572916 -0.0022707963 -0.00667739 -0.0063262293 -0.0032383697 0.003140874 -0.0037192784
0.19232468 -0.0029469992 -0.19237915 0.061218765 -0.0038283903 -0.0006372247 0.08950751 -0.0019584042
0.005393285 0.0031294134 0.0013849019 0.004920237 0.0034648199 0.0050871614 -0.0021606374 0.0040691067
0.13176069 0.0026905322 0.068923675 -0.060267072 0.0017427345 0.0010488089 -0.15737848 0.0032842148
0.0054701357 0.0046037147 0.008233095 0.006687552 0.006180452 0.00086189783 -0.007590914 0.0053001633
0.76727796 0.008276511 -0.27933282 -0.034135696 0.0048685125 -0.0012225016 0.15339391 0.0075622215

bias f4 [19]
00000000: f54a 063e 9e1f 3bbe 186c 443e e2e8 0a3e
00000010: 1c50 e1bc fbf5 483e c986 193e 9bae a0bc
00000020: 1ecc 1d3e f4db cebd 9ef9 15be eb5e 063e
00000030: 0b1f 10be b9ad 803d dd32 b1bd cfb7 dcbd
00000040: 1fa1 873e 5a84 133e 0d3e 933e
0.13114531 -0.1827378 0.1918186 0.135654 -0.02750402 0.19625084 0.14992823 -0.019614508
0.15409896 -0.101005465 -0.14646003 0.13122146 -0.14074342 0.06283135 -0.086522795 -0.10777246
0.26490113 0.14405957 0.28758278

weight f4 [19, 16]
00000000: eb40 bf3d deb4 81be 414f 013e f8d2 453d
00000010: bc7b 4ebe 206c 253d e6dc 30be 6def 63be
00000020: 01e0 cd3c 6a08 ed3c 205a bd3e b700 c03e
00000030: 00b7 c43e b35b 133d ed40 523e 0ffa 9a3d
00000040: 8a4d 3a3d 9dce 7dbe bfd0 323d cc23 8b3c
00000050: 0c33 50be f771 e5bc 5243 c7bd bacf 28be
00000060: 2b95 653e 0b84 7e3c c708 3a3e 80d9 fdbd
00000070: 2ff9 e53e eb84 2ebb ce15 823e a3f9 003d
00000080: 2429 9abd 1d31 5dbe 7ef3 57bb 2fc1 cabd
00000090: a05b 1cbe c89e 09be 2991 e7bd 25eb 33be
000000a0: 891d 8b3d aff9 d9bd d839 4fbe 0d6d 09be
000000b0: 01a9 d13e 140f b63d 4f6c 863e e99b f03c
000000c0: 1776 813b 54f2 a3bb 3f3c efb9 0d0b 7f3a
000000d0: 7867 94bb bca9 3a3b be21 73bb c743 70bb
000000e0: 47e9 0d3e fd82 153a a674 173d 4ac6 5c3e
000000f0: f53b 1c3c 3375 da3a 1ae3 093e 660a 673b
00000100: cbc7 ca3d c8c2 87be cdb2 413d f6a2 7fbb
00000110: 3f74 5fbe 331d 44bb a362 09be 05b3 3bbe
00000120: 2bc7 433c f09f a5bb e3dd 063e 3182 063f
00000130: 419d c53e 85e4 1b3d 2c50 b43e 0753 863d
00000140: 1c61 22bc 5d32 bbbc a0f2 a7bc aff6 4bbc
00000150: 5396 9fbc 5a45 5cbc 1055 1e3c b3b3 8dbc
00000160: 7a9c fa3e f811 67bc 1853 a13e 397e 0e3f
00000170: d9f9 c03b 83e7 263b 8722 67be 32da 0fbc
00000180: 772d a2bb 51cb 74bc 17f0 59bc fc32 12bc
00000190: 10ce 62bc ceeb ffbb 4964 523b 9bfc 42bc
000001a0: 08ee 913d a722 fdbb d26e 6a3e 8ad8 a4bc
000001b0: dded 923b 5c74 043a fe32 df3e 2d0c babb
000001c0: 67cb d93b aab6 99bb 42bb d83a 96dc 103a
000001d0: a86c 73bb 23fd 353b 995d 55bb 6440 26bb
000001e0: 6033 d0bd 3dd5 fc3a bec5 6d3e d967 8d3e
000001f0: c858 2d3c 5af3 e73a 5db1 22bf 00f2 833b
00000200: 5ad9 22bc b99f fcbc 8cef d6bc 07ba 93bc
00000210: 9175 d7bc 89d4 a1bc ee77 353c 5aac bfbc
00000220: 3a15 df3e 7d01 9bbc 2acb a93e d4cc 863e
00000230: 54db 1b3c c7fb e43a 2d8b 4a3e ac70 63bc
00000240: 0542 b23d 62ca 80be 350a a73d c0bf 3b3d
00000250: c900 57be 21e0 403d eee4 bbbd 6802 5dbe
00000260: 32fc f03b 381d 4d3b 475b ad3d d535 b03e
00000270: bd8a 903e 4520 083c a9ac d3be c250 2f3d
00000280: 36c3 413d bf2c 84be 0c39 d03d 46fd 4c3d
00000290: 6a8b 68be 56ee e2bb 7123 30be bfa2 5fbe
000002a0: 87ed d2bd 647b 773c e120 713e 7126 ee3e
000002b0: bddf 193f 319b 703d 8913 2b3d 7123 033e
000002c0: 7740 75bc 4cfa dbbc 3146 d5bc a079 8abc
000002d0: bdd9 c9bc 39a3 a4bc 99fd 703c 98dc adbc
000002e0: fe09 58be 6ee0 99bc ab08 adbd 0680 fabc
000002f0: 6e01 37ba 24f7 673b 5605 c93d 1e12 65bc
00000300: 2ace 833d b9b2 91be 4615 e33d 5251 fa3c
00000310: 40fc 47be f8b5 48bd a87a 19be 4afb 1ebe
00000320: 34cf 853e 2064 8abc 7459 55be 7111 cf3e
00000330: 6a12 fd3e 15c9 083c 00cd 4a3e 3fa4 883d
00000340: f52e c2bb 1fa6 6dbc 14ab 5ebc 156e 10bc
00000350: 198f 5ebc 4a20 e9bb bb54 a93b 8ccb 59bc
00000360: b45b a43e 09f1 37bc a25f 723e 4226 1e3e
00000370: f811 d83b 65a6 b53a 16da 623e 3a89 bcbb
00000380: 8c33 2dbc 2375 95bc 17ad 98bc 886a 41bc
00000390: eeaf 88bc 1e77 4dbc c745 053c 99af 71bc
000003a0: f6e9 bebc d21e 5cbc aba7 d3be d6b2 5f3d
000003b0: 9155 de3b 5445 4c3b 3d64 0e3e 7799 14bc
000003c0: c166 b33a d147 19bc 5564 b5bb f4ca 30bb
000003d0: d9ec 08bc fd9f 19ba c301 2d39 2354 a9bb
000003e0: 1773 3b3d 7bfe 28bb 894a 8e3e 77df b03e
000003f0: 72d7 013c 63e7 40b9 654b 96bc dafe d8b9
0.09338554 -0.25333303 0.12627889 0.0482969 -0.20164388 0.04038632 -0.17271766 -0.22259302
0.025131227 0.028934676 0.36982822 0.37500545 0.38420868 0.035976123 0.2053258 0.07567226
0.045484103 -0.24785848 0.043656107 0.016984843 -0.20331973 -0.028008444 -0.09729637 -0.16485491
0.22420184 0.015534411 0.18167411 -0.123950005 0.44916674 -0.0026629518 0.2540726 0.031488072
-0.07527378 -0.21600766 -0.003295153 -0.09900128 -0.15269327 -0.13439476 -0.11306984 -0.1757017
0.06792743 -0.106433265 -0.2023691 -0.13420506 0.40949252 0.08889595 0.26254508 0.029371219
0.003950845 -0.005003253 -0.0004563052 0.0009729125 -0.004528936 0.0028482517 -0.003709897 -0.0036661492
0.1385852 0.00057034177 0.03697648 0.21560016 0.009535779 0.0016667008 0.13465539 0.0035254
0.09901389 -0.26515794 0.04728966 -0.0039007044 -0.21821688 -0.002992463 -0.13416533 -0.1833001
0.011949341 -0.0050544664 0.1317058 0.52542406 0.38596538 0.03805973 0.35217416 0.06558805
-0.009910848 -0.022851164 -0.020501435 -0.012448951 -0.01948086 -0.013444269 0.009663835 -0.017297601
0.48947507 -0.014103405 0.31508708 0.5566135 0.005889159 0.0025467582 -0.22571765 -0.008780049
-0.0049492675 -0.0149410525 -0.013301871 -0.008923288 -0.013843074 -0.0078100925 0.0032103232 -0.011901046
0.07125479 -0.007725078 0.22893837 -0.020122785 0.004483922 0.0005052739 0.4359359 -0.005677721
0.006646562 -0.0046909647 0.0016535299 0.0005526034 -0.0037143622 0.002776929 -0.003255701 -0.002536797
-0.10166049 0.0019289624 0.23219964 0.27618292 0.010580249 0.0017696426 -0.63551885 0.0040266514
-0.009939516 -0.03083788 -0.026237272 -0.01803304 -0.026301177 -0.019754665 0.011075957 -0.023397613
0.43570882 -0.018921608 0.33162814 0.26328146 0.009512741 0.0017470055 0.19779654 -0.013881844
0.087039985 -0.25154406 0.08156244 0.045837164 -0.20996393 0.047088746 -0.09174524 -0.21582949
0.007354283 0.0031297933 0.084646754 0.3441607 0.2823085 0.008308475 -0.41342667 0.042801626
0.04730531 -0.2581539 0.10167131 0.050046228 -0.22709432 -0.0069253845 -0.1720102 -0.21839426
-0.10299211 0.015105102 0.23547699 0.46513703 0.6010702 0.058741752 0.041766677 0.12806489
-0.014968983 -0.02685275 -0.026034446 -0.016903698 -0.024639959 -0.020097362 0.0147089 -0.021223351
-0.21097562 -0.018783774 -0.08448919 -0.030578624 -0.0006981109 0.003539511 0.09815471 -0.01398137
0.06435807 -0.28456667 0.11088042 0.030556355 -0.1952982 -0.049001664 -0.14988196 -0.15525547
0.26134646 -0.016893446 -0.20834905 0.40442994 0.4942811 0.008348723 0.19804764 0.066719525
-0.005926008 -0.014504938 -0.013590593 -0.008815308 -0.013583922 -0.007114445 0.0051675714 -0.013293158
0.32101214 -0.011226901 0.23669294 0.15444282 0.006593939 0.0013858794 0.22153506 -0.0057536634
-0.010571372 -0.018244332 -0.018637223 -0.011805184 -0.016685452 -0.012540607 0.008134312 -0.014751338
-0.02330492 -0.0134350825 -0.41338858 0.05461391 0.0067851027 0.0031169252 0.13905425 -0.009069792
0.0013687239 -0.009355501 -0.005535642 -0.0026976438 -0.00835725 -0.0005860327 0.00016499222 -0.0051675006
0.045764055 -0.0025786448 0.2779124 0.3454549 0.007924901 -0.00018396745 -0.018346498 -0.0004138861

bias f4 [19]
00000000: 46b4 70be f6db 91bc 692d 35bd 780b 4fbe
00000010: 3692 313e 832c eb3d fe6d 28bc e23c 58be
00000020: 9f3a 663e 117a 863b b141 25bd 07c6 533e
00000030: 7959 febd 775a 643c a0f1 9b3d e1b8 02be
00000040: 82ed 44be 245f debb d9ae cfbd
-0.23506269 -0.01780508 -0.04423276 -0.20219219 0.17340931 0.11483099 -0.01028013 -0.21116975
0.224833 0.004103907 -0.04034585 0.2068101 -0.12419409 0.013937584 0.07614446 -0.12765838
-0.19231227 -0.006786244 -0.101407714
