models/a19lds19b0.007g1.3d0.1h13.pt (torch, 126735 bytes, 26 tensors)

weight_ih_l0 f4 [52, 4]
000000 3b f9 26 be f0 b3 92 bd 25 97 e5 3d 8d 68 78 be
       -0.16306011 -0.071632266 0.11210469 -0.24258633
000010 b5 40 99 be db 0c c1 3e 65 99 e7 bc 2c 98 e2 be
       -0.2993218 0.3770512 -0.028271386 -0.44256723
000020 78 1f 82 be 08 e8 12 bc 35 02 32 bd 7f 9a b5 3d
       -0.25414634 -0.008966453 -0.043459136 0.088673584
000030 b9 af e8 3c 39 ef 38 be 2e 92 94 be 1d b7 00 3e
       0.028404104 -0.18060006 -0.29017776 0.12569852
000040 fb fe 18 3e 39 26 0f 3f 4c 03 00 3d 4b fa d0 3e
       0.14941017 0.559177 0.031253144 0.40815958
000050 34 80 94 be 37 59 28 3e 74 9d bf be af 3c 29 3e
       -0.2900406 0.16440283 -0.37424815 0.16527055
000060 55 c8 64 be 56 57 d6 3e fd 13 1a 3d 6e 9a a9 3e
       -0.22342046 0.41863507 0.03761672 0.33125633
000070 92 4a 67 bd 2c 57 32 3f f6 c9 5b 3b fc 56 5e 3e
       -0.0564676 0.69664264 0.0033537126 0.2171287
000080 2b 4c e9 bd d5 3d 39 be 8b 3d 59 be 8c 76 03 3e
       -0.11391481 -0.18089993 -0.21214883 0.12838191
000090 b5 5a 63 3e 42 7d 23 3f de 37 17 3c 97 84 fd 3e
       0.2220257 0.63863003 0.009229628 0.4951522
0000a0 d2 9c 88 3e 54 a9 8e 3e 9b ac 91 bc 98 68 89 3c
       0.26682144 0.27863562 -0.0177825 0.016773507
0000b0 d5 54 19 bd a8 e9 20 3e 85 25 8d 3d 3b 01 3a 3e
       -0.037434418 0.15714133 0.06891922 0.18164532
0000c0 90 04 93 3d e8 c7 d5 3d ec 54 66 bd 84 30 87 3e
       0.071786046 0.1043852 -0.05623333 0.26404202
0000d0 bd 31 60 3e ea 31 55 3e ae de e4 3e 87 99 72 3e
       0.21893974 0.20819822 0.4470114 0.23691379
0000e0 15 cb d6 bd 1b 1c 14 3e b6 ca 8f 3e 5f 0c 15 3e
       -0.104879536 0.14463846 0.28084344 0.145555
0000f0 a5 09 0a 3d 15 0a b7 bd eb 2d 52 3c 64 ef cd 3d
       0.033700604 -0.0893747 0.0128283305 0.10055426
000100 61 04 65 be 5d 47 8f be 5c 67 45 3e db 77 84 be
       -0.22364952 -0.27984133 0.1927771 -0.25872692
000110 86 38 0c be de a7 34 3e a4 13 5c be 84 6a db bc
       -0.13693437 0.17642161 -0.21491867 -0.026784189
000120 95 5a 8a 3e f2 64 82 3d a4 34 82 3d 7d 71 67 3e
       0.27022234 0.0636691 0.06357697 0.22601886
000130 c9 8d e8 3e 0a 45 93 be eb aa e9 bd aa 08 2e 3e
       0.45420673 -0.2876361 -0.11409553 0.16995493
000140 70 45 ab 3e d9 04 af 3e 8a 8b 33 3d db 86 1d be
       0.33451414 0.34183386 0.043834247 -0.15383475
000150 ac b0 d9 be 48 ce 48 be 05 09 b6 be af 5f df bc
       -0.42517602 -0.1960994 -0.35553756 -0.027267305
000160 fa 55 92 be c9 50 08 3f 1a bf 84 3e d8 52 50 be
       -0.2858122 0.5324827 0.2592705 -0.20344102
000170 ac 53 52 3e a1 52 0d 3e a5 98 cd 3d 4d 8d 9c 3a
       0.20539731 0.13801052 0.1003888 0.0011943966
000180 72 89 a3 3d 3c f8 d3 bd 4e 2d 09 3e 81 06 14 3f
       0.079852 -0.10350081 0.13396189 0.57822424
000190 47 2d 73 be 2b fa 3d bc d0 b5 a7 3e 7e 8f 30 be
       -0.2374774 -0.011595289 0.327559 -0.17242238
0001a0 f1 45 99 bd 22 ad c2 bd 76 f9 bb bc c6 78 54 bd
       -0.074840434 -0.09505679 -0.0229461 -0.05187299
0001b0 fd 11 57 be 15 f2 9c be d8 3f 77 be 05 fc b4 bd
       -0.21002956 -0.30653444 -0.24145448 -0.088371314
0001c0 27 ee 50 3e 28 8e 84 bd 17 3e 17 3e 0f 15 88 3e
       0.20403348 -0.06472427 0.14769779 0.26578566
0001d0 9d b8 3c 3e 54 54 64 3e 5f 51 20 be d6 1b 9c be
       0.184298 0.22297794 -0.1565604 -0.30489987
0001e0 b2 ac a4 3d f6 55 69 bd 5c 75 f6 3e 73 b2 df 3b
       0.080407515 -0.056966744 0.48136413 0.0068266927
0001f0 01 10 86 3e c5 99 88 3c 4c cd 21 be f5 20 aa bd
       0.26184085 0.016674886 -0.15800971 -0.08307067
000200 5d ae 91 3d 34 7d c7 be b4 ae 8c bc 22 ba 6d be
       0.07113335 -0.3896271 -0.017173149 -0.23215535
000210 f6 c1 f6 3d 7a 53 a2 be 9b 03 02 be 3e 25 97 3d
       0.12048714 -0.31704313 -0.12696688 0.0738015
000220 0a 4b f5 3c 58 c9 1c be d3 30 cd bb f7 39 f8 3e
       0.029943008 -0.15311182 -0.006261924 0.48481724
000230 50 6f 5d bc cd e5 88 3e 33 81 55 3e 36 37 20 be
       -0.0135153085 0.26737824 0.20850067 -0.15646061
000240 1c cc c6 3e 48 2e 5f 3e 04 f9 46 be 55 06 cd 3e
       0.38827598 0.21794999 -0.1943093 0.40043893
000250 0c 77 f3 3c 08 c2 d1 3c ac f4 6a 3e 61 ac f1 3c
       0.029719852 0.025605217 0.22944897 0.029501142
000260 3a 18 1c be e5 da 99 be 32 07 aa bc b5 b8 2a 3d
       -0.15243617 -0.30049816 -0.020755384 0.041680057
000270 94 27 d8 3d 55 4e 86 3e 09 36 2c bd c8 5c 4c 3e
       0.10554424 0.26231638 -0.04204372 0.19957268
000280 3e 51 c1 bd 7f a2 6d 3e e7 05 d6 be 2d 8a 1d 3e
       -0.09439324 0.23206519 -0.41801378 0.15384741
000290 e4 f5 cc bd f0 1d 4a 3d d3 69 78 3e a6 f4 50 3e
       -0.100078374 0.049344957 0.24259119 0.20405826
0002a0 32 39 30 3d 66 3d 65 3d cf 22 e8 3e 18 2d 87 3d
       0.043023296 0.055966757 0.45339057 0.06600398
0002b0 71 49 22 bb 86 2a 9d 3d e6 93 69 be 92 63 74 3e
       -0.0024763013 0.07674126 -0.22810325 0.23866108
0002c0 c8 92 6d 3e 98 0e eb be 39 ef 8f 3e d0 dd 6d be
       0.23200524 -0.45909572 0.281122 -0.23229146
0002d0 db 85 03 bd 49 be 54 3e 2c 0c b4 bd aa 08 68 3e
       -0.032110076 0.20775713 -0.08791384 0.22659555
0002e0 9c ec 51 bd a0 ce 1d 3e 6e 6e 55 bd 61 86 f4 bd
       -0.05125104 0.15410852 -0.052107267 -0.11939693
0002f0 b1 93 2a be be 11 c3 3e 54 b8 ab be 42 1a 00 3c
       -0.16657902 0.38099474 -0.3353907 0.00781876
000300 88 25 85 3e 99 31 35 be c4 0e ab 3e 24 ef 74 bd
       0.26005197 -0.17694701 0.33409703 -0.059798375
000310 98 cc 52 be 8c 0b c3 bd 1c 4d ab 3c cc b8 1e 3e
       -0.20585859 -0.09523687 0.020910792 0.15500182
000320 55 71 5d 3e 41 a7 0d 3e d0 26 8e be 48 d7 85 bd
       0.21625264 0.13833334 -0.27763987 -0.06535202
000330 08 43 9b 3d 3e 8a b4 3d ae ab f0 bc 48 43 28 bd
       0.075811446 0.0881543 -0.029378738 -0.04107979

weight_hh_l0 f4 [52, 13]
000000 4e d9 12 bd 59 2a b6 bd 1e bb 0f 3e 2b b0 76 be
       -0.03585177 -0.08894796 0.14036223 -0.2409064
000010 58 6a 4d 3e f4 5f b1 3c 53 87 0a be a3 b3 8a be
       0.20060098 0.0216522 -0.13528185 -0.27090177
000020 f2 8e b9 3d ec b6 88 3e e2 c4 8a be 22 9b 98 3d
       0.09060468 0.26702058 -0.27103335 0.07451464
000030 dc ec 93 bd 23 d7 c4 3d 91 6f 7c 3e d6 b4 a5 3c
       -0.07222912 0.096113466 0.24651934 0.02022783
000040 5e a7 b7 be 4d f1 18 3e 1e da 09 3c a8 c7 cc be
       -0.3586988 0.14935799 0.00841382 -0.39996076
000050 da 0d 16 3e 2e 9a 77 be b3 7b 90 3e 00 f3 1d 3e
       0.14653721 -0.24179909 0.28219375 0.15424728
000060 a4 7f aa bd dc 99 ce bd 40 8c 77 3e 1c 38 b5 be
       -0.08325127 -0.1008794 0.24174595 -0.3539437
000070 4c 10 ed bc 68 60 2f be 1f eb 66 3d a1 64 94 be
       -0.028938435 -0.1712662 0.056376573 -0.28983024
000080 af 0a 5f 3d 2e 85 02 3d 27 1f fc 3d 00 82 6f 3a
       0.054453548 0.03186529 0.12310629 0.0009136498
000090 d6 cf cd 3e fe 1c 1d 3e 79 a2 43 3e 8c 5d 67 bd
       0.4019763 0.15343091 0.19104947 -0.056485698
0000a0 7f 3f 62 be a6 fb 58 bd 64 86 44 be d0 98 02 3e
       -0.22094534 -0.052974366 -0.19191891 0.12753606
0000b0 5c 68 73 be b6 f5 89 be 5b 39 83 3d fd 3d f3 be
       -0.23770279 -0.26945275 0.06407424 -0.4750823
0000c0 05 d1 57 3e ac 62 7d 3d b2 dd d6 bd ec 78 38 be
       0.21075828 0.06186168 -0.10491504 -0.18014878
0000d0 58 9a 87 3d f8 d8 85 be 42 6c 68 3e 91 e5 ed bd
       0.066212356 -0.26142097 0.22697547 -0.11616052
0000e0 70 b9 17 3d 9a f0 56 3e 27 ae 72 be 18 44 8a be
       0.03704208 0.2099022 -0.23699246 -0.27005076
0000f0 6c 3c ab 3c 79 a1 aa 3c 9f 8a b9 bb c1 83 eb bd
       0.020902835 0.02082895 -0.005662277 -0.114997394
000100 07 12 d1 bd 51 6b aa bc 55 f0 66 3e 58 0b 8f bd
       -0.102085166 -0.020803126 0.22552617 -0.069845855
000110 12 72 66 bd 6a 3f d0 3d f3 b6 ec bd 83 c5 44 bd
       -0.05626113 0.10168345 -0.11558332 -0.048039924
000120 52 a1 ed be 7b d2 03 3e 19 fb 05 3e f2 7e 31 bb
       -0.4641214 0.1287326 0.13084067 -0.0027083722
000130 f7 c7 79 be 98 58 f4 ba 74 2f aa 3e 5d 65 05 be
       -0.24392687 -0.0018642126 0.3323933 -0.13026948
000140 2a 6e 81 3d 04 df bc bd 59 c5 1b 3e 34 70 ca 3e
       0.0631984 -0.09222224 0.15212001 0.3953873
000150 e2 f6 6e be 93 fe a0 be 66 68 9e bc 16 d5 3e 3d
       -0.23336366 -0.31444225 -0.01933689 0.046589933
000160 e4 4c a2 3e 06 0e 1a be 42 07 b9 3e f0 3d 14 be
       0.31699288 -0.15044412 0.3613835 -0.14476752
000170 30 48 81 bd fb 79 7a be 52 63 a4 bd c1 48 95 3d
       -0.06312597 -0.24460594 -0.08026756 0.07289267
000180 14 18 7e 3e 4e c3 e2 be f0 79 e0 3c 7d 71 c6 be
       0.24813873 -0.4428963 0.027401894 -0.3875846
000190 dc b4 03 be 3a 7f e7 3d 5a dc b1 3e 77 2d 1d be
       -0.12861961 0.113035634 0.34738427 -0.15349375
0001a0 48 94 35 3d 76 3f ba bb 8d 59 1e 3c c9 67 96 3d
       0.044330865 -0.0056838347 0.009664905 0.07344014
0001b0 cf 3c d1 3d 3e 09 b7 3e 7a 49 0e 3f 68 ae a9 3e
       0.102166764 0.3574924 0.55580866 0.33140874
0001c0 53 cd 95 3c f4 6d 71 be c5 d3 98 be 31 55 09 3e
       0.018286383 -0.235771 -0.29849067 0.13411404
0001d0 0a 5b 1b be 58 b1 9d 3d 84 9c e5 ba 14 56 9f be
       -0.15171447 0.07699841 -0.0017517959 -0.3112036
0001e0 e8 97 47 be f8 9f 38 3e b5 0a a4 be 12 79 1b bf
       -0.19491541 0.18029773 -0.3203942 -0.60731614
0001f0 3c 37 3e 3e 4f bb 55 be f0 4e 76 3d 1d 7e 3c 3e
       0.18575758 -0.20872234 0.060133874 0.18407483
000200 a3 bd e2 bd d7 6f 6c 3d de b2 98 3d 19 47 ad be
       -0.110713266 0.057723846 0.07455991 -0.33843306
000210 10 33 2d be c9 3e f0 bd a2 54 2c 3e 11 7e 06 be
       -0.1691401 -0.11730725 0.1682916 -0.13134028
000220 54 75 e0 3d 44 96 db 3c 41 10 36 3d d6 d6 53 3e
       0.109598786 0.02680505 0.044449095 0.20687422
000230 41 ca 89 bd b9 7d 94 3d df 7f ab 3e 3d 78 9a bd
       -0.0672803 0.07250542 0.33495995 -0.07542465
000240 7f 8f 04 3d 88 26 8e 3d 8e d8 14 3e b1 fa 3f 3e
       0.03236341 0.06940943 0.14535734 0.18747975
000250 8b e7 fb 3d 7d 4d 74 3e 1c 01 15 3e f1 73 d3 be
       0.12300023 0.23857684 0.14551204 -0.41299394
000260 43 84 02 3f e7 2d 41 be d4 b0 1e 3e f6 87 ad 3e
       0.50983065 -0.18865167 0.15497142 0.33892792
000270 14 d8 80 3e e2 9e 54 3d b1 cb e7 be 4a 80 67 bd
       0.25164855 0.051909335 -0.45272592 -0.05651883
000280 65 96 f4 bc 46 3c ad bc 2d 9b d5 bc 3a e7 67 be
       -0.02985687 -0.021146905 -0.02607497 -0.226468
000290 97 2d 9b 3e 21 41 24 bd f8 0a 1c be f1 e5 99 bd
       0.3030822 -0.040101174 -0.15238559 -0.07514561
0002a0 ea 09 81 3e 58 d7 f8 bc db 3b 42 3d 5a 4d ac bd
       0.25202876 -0.030376121 0.047420364 -0.08413191
0002b0 e4 4b a2 be e0 17 9f 3e 53 b9 ce bc 5b 3d bc 3e
       -0.31698525 0.31072903 -0.025234854 0.3676556
0002c0 ef 58 06 bd 44 0e 08 3e e3 7e fa b9 6f d0 5b be
       -0.032799657 0.13286692 -0.00047778254 -0.2146623
0002d0 e4 5b ec 3d 3a 7c 30 3e 77 53 97 be a2 2f 86 3e
       0.11540964 0.17234889 -0.29555866 0.26208216
0002e0 29 48 be 3d 78 d1 8f be 58 bb 42 3b 7a 05 a3 be
       0.09291107 -0.280895 0.0029713716 -0.31840116
0002f0 00 e9 37 3d 99 ac 16 3e ce 24 6d 3c 11 3b 27 be
       0.04489994 0.14714278 0.014474107 -0.16331126
000300 6a 37 8a 3e 9e bd 42 3e 5a 42 ed 3d f8 ea 83 3d
       0.26995403 0.19017646 0.11584921 0.06441301
000310 e2 c5 89 bc 04 87 ee 3e 0a 18 03 bd 12 33 16 bd
       -0.01681799 0.46587384 -0.032005347 -0.0366698
000320 52 c2 b1 3e 95 a7 02 3c b7 40 3c be 2c b6 61 be
       0.34718567 0.007974525 -0.18384062 -0.2204215
000330 44 e5 42 3e 88 19 c8 3d 7b c9 9b 3e be 26 a6 3e
       0.1903277 0.09770495 0.30427155 0.32451433
000340 d2 63 3e 3c b1 29 11 be 93 a1 03 be 39 55 29 3d
       0.011620479 -0.1417606 -0.12854604 0.04134104
000350 4d 1a 95 be d0 43 01 3e 88 07 a0 be 6b d7 ac bd
       -0.29121628 0.12623525 -0.31255746 -0.08439525
000360 d5 75 90 be d1 d0 c3 3e 8f e9 41 3e 31 78 86 3e
       -0.282149 0.38245252 0.18936752 0.26263574
000370 fe bf e0 bc ac 0c 16 bd 98 4b 37 be b1 c1 6a be
       -0.027435299 -0.03663318 -0.1789993 -0.2292545
000380 f1 f7 c6 3d c7 3b 94 bd 08 e9 25 be 15 3f ad 3d
       0.0971526 -0.07237964 -0.16202176 0.084592976
000390 d1 19 a9 bd 0d 2d 37 3e 07 8c 94 be d1 7b 86 3d
       -0.08256877 0.1788828 -0.29013082 0.06566585
0003a0 f0 cd 5e 3d a8 2f 35 3d 0d 8a 4c 3e f9 90 64 be
       0.054395616 0.0442349 0.19974537 -0.22320928
0003b0 2d bc 5a bd 33 e5 c0 3e 38 7c 69 3e 1a a6 91 be
       -0.053402115 0.37674865 0.22801292 -0.28447038
0003c0 a2 73 91 be 59 a7 35 3d 4a e1 54 be 36 f1 3e 3e
       -0.28408533 0.04434905 -0.20789066 0.18646702
0003d0 0b e1 4f 3e 40 14 cc 3e ed a1 97 3d 28 a4 6e be
       0.20300691 0.398592 0.07403932 -0.23304808
0003e0 e3 56 92 ba da 96 c0 3d 82 1f cf be 3e be 25 be
       -0.001116481 0.09403773 -0.40453726 -0.16185853
0003f0 ce 2c 3c 3d 1b db b2 be 36 86 50 bc 36 87 a1 be
       0.045941167 -0.3493279 -0.012727311 -0.3154847

bias_ih_l0 f4 [52]
000000 36 d6 a3 3d f0 3f ab 3e db 28 64 3e 01 df 0c be
       0.07999842 0.33447218 0.2228121 -0.13756944
000010 4a 1a 88 3d 5b 34 d4 b8 10 8c 3d 3e a8 86 10 3d
       0.06645639 -0.000101187 0.18510461 0.03528467
000020 6d bd 89 3e c3 8d 2a bc b8 4a 4e be 0b a7 ea 3d
       0.26902333 -0.010409775 -0.2014569 0.11457642
000030 1c 52 db 3c 28 ec b1 3e 59 7c da 3c de 07 82 bb
       0.026772551 0.34750485 0.026670622 -0.003968223
000040 01 73 0c be 8d 99 44 be 28 83 a3 3e eb 31 de bd
       -0.13715746 -0.191992 0.31936002 -0.10849365
000050 ea dc 53 3e f7 4b b6 be 51 8c 74 3e 23 11 0c 3e
       0.20689741 -0.35604832 0.23881651 0.13678412
000060 21 3f 52 be a8 13 38 be e1 bb 98 bc 28 bc 1e be
       -0.20531894 -0.17976248 -0.018644275 -0.15501463
000070 db c2 de 3d fd b0 95 be 94 b0 4b 3e 90 3c be bd
       0.108770095 -0.29236594 0.19891578 -0.09288895
000080 1f 1d aa be f0 b4 1c be 4b ed 0a be 6f f3 93 3e
       -0.33225343 -0.15303397 -0.13567083 0.28896663
000090 72 19 25 3e 0f fe 34 3e ca c4 85 3e 39 54 56 be
       0.16122988 0.1767504 0.261267 -0.20930566
0000a0 60 86 1e 3e c8 bb ac 3e a2 2a d8 3d 56 f6 0b be
       0.15480947 0.33737016 0.105550066 -0.13668188
0000b0 6d 9e d1 bc 44 9a 85 3d 89 22 7e 3e 78 54 3f 3e
       -0.025588239 0.065235645 0.24817862 0.18684566
0000c0 c6 b5 a7 3e 69 e0 aa 3d b5 c1 79 3e 1d e9 43 3e
       0.3275587 0.08343584 0.243903 0.19131894

bias_hh_l0 f4 [52]
000000 cc 0c 98 3e fa fd 55 3e 96 d5 9f 3e 57 a9 58 bd
       0.29697263 0.20897666 0.3121764 -0.05289587
000010 f3 f0 55 3e 57 6d f9 3d e2 d4 4d 3b 5f 40 02 be
       0.20892696 0.12179058 0.0031407406 -0.12719868
000020 b0 1b 9f 3d 83 56 40 3d 2c 9d 88 bd 77 78 a7 bd
       0.07768953 0.046957504 -0.06670603 -0.08177274
000030 58 23 8c 3e 5e 05 e4 3c 97 80 84 3e 2b 09 3f 3c
       0.27370715 0.02783459 0.25879356 0.011659901
000040 78 99 e7 bd fd 9a 17 be 70 9d 83 bd 23 1d 3a 3e
       -0.11308569 -0.14805217 -0.06426513 0.18175177
000050 66 6c 73 3e a9 eb 84 be 40 e8 f0 3c 39 b7 42 be
       0.2377182 -0.25961044 0.02940762 -0.19015206
000060 fd 38 60 3c 49 81 ab 3e 7a 35 9a be 04 80 8c 3d
       0.013685462 0.33497074 -0.30118924 0.068603545
000070 ca b1 8f 3e 50 6b 87 3d 12 09 dd bd ba ec d4 3d
       0.2806533 0.06612265 -0.10792746 0.103967145
000080 5f 90 26 3e bb 5c 77 bc db f1 14 3e dc a6 94 3d
       0.1626601 -0.015097792 0.14545386 0.072583884
000090 db 39 e3 3c b7 fa eb 3d da 2b 8d 3e e7 b2 7f 3d
       0.027737549 0.115224294 0.2757252 0.062426474
0000a0 42 42 53 3e 6f ad 19 be 3c 35 9e 3d 3c 3d 27 be
       0.20630744 -0.15007566 0.077249974 -0.16331953
0000b0 26 0f de 3d 12 63 77 bc 02 48 e5 bd 93 17 14 bd
       0.10842733 -0.015099304 -0.11195375 -0.036155295
0000c0 36 5a 56 3e 3e ea 37 3e 3f 12 f2 ba 48 93 82 3e
       0.2093285 0.1796045 -0.0018468573 0.25502992

weight_ih_l0_reverse f4 [52, 4]
000000 f4 67 0b 3c 4d bb 8d be e5 3d 16 3e 73 7c 20 bc
       0.008508671 -0.27681962 0.14672048 -0.009795296
000010 04 33 ea 3e 56 90 44 3d b5 7b a9 3e b8 7c fc 3c
       0.45742047 0.047989212 0.33102193 0.03082119
000020 c1 41 3d bb 9c bd 5f 3e 69 b6 00 3f a2 0c ab be
       -0.0028878304 0.21849674 0.50278336 -0.33408076
000030 80 66 52 3d 78 ed f9 3d 43 c3 19 3e 0f 41 22 be
       0.051367283 0.12203497 0.15015893 -0.1584513
000040 5a 4f 0c 3d 6c b4 65 3e 98 35 e6 3d 03 b6 1f 3e
       0.034255363 0.22432107 0.11240691 0.15596776
000050 91 b0 26 3e 37 16 6f 3e 88 3b cc 3e 59 3a 22 bd
       0.16278292 0.23348318 0.3988917 -0.039606426
000060 75 ff b8 3d a4 88 72 be 9b 27 9a be 18 26 10 be
       0.090330996 -0.23684937 -0.30108342 -0.14077032
000070 80 cd 97 be 9a 84 35 be db 8a 50 3e d6 21 4a bc
       -0.29648972 -0.17726365 0.20365469 -0.012337169
000080 25 09 ea 3d f0 4a aa bc 9b a6 4b 3e 96 d3 e7 bd
       0.114275254 -0.020787686 0.19887774 -0.11319654
000090 17 f5 9a be e9 c1 dd be 01 98 92 3e 33 3f 8d 3e
       -0.30265114 -0.43312004 0.28631595 0.2758728
0000a0 8f 1f 15 3e ee de b1 3e af b8 2f bd 5d 59 16 be
       0.1456282 0.34740394 -0.042900737 -0.14682527
0000b0 c5 75 ce 3d 0a 9a 3a 3e 6a 25 a7 3e 23 c0 99 3d
       0.100810565 0.18222824 0.32645732 0.0750735
0000c0 12 7a c6 ba eb 2f 72 be c9 9d 5f 3e bb 71 4e bd
       -0.0015142581 -0.23651092 0.21837534 -0.05040143
0000d0 62 56 73 3d 72 d7 65 3d db b4 00 be e2 e8 27 3e
       0.059408553 0.056113668 -0.12568991 0.16397431
0000e0 1e b8 52 3e 6d c9 2a be a7 0b 20 3f 41 03 f3 3d
       0.20578048 -0.166784 0.6251778 0.11865855
0000f0 de 31 e6 3b 82 12 87 3e 8f ad b7 bd 78 0e bd bd
       0.0070249876 0.26381308 -0.089686505 -0.09231275
000100 e8 ee a1 3d d5 93 09 3e 77 4a 66 3e 4e b7 7b 3e
       0.07906896 0.134353 0.22489344 0.24581644
000110 98 b1 5a 3d a2 a5 22 be 75 d2 ba 3e 20 97 3e be
       0.053392023 -0.15883496 0.3648869 -0.18612337
000120 d7 9e 70 3d 46 db c2 3e 84 95 e7 3b e0 eb 89 3e
       0.05874523 0.38057917 0.007067384 0.2693777
000130 37 69 a8 3e c0 0c 2d be 88 33 07 3e ce 6e 92 3e
       0.32892773 -0.16899395 0.13203251 0.28600162
000140 cc a4 f6 be 3e c1 74 3e e5 83 87 3e c6 06 0a be
       -0.48172605 0.23901841 0.26467815 -0.13479146
000150 51 87 66 be 08 9e 2b be d6 22 4f be c3 6d 05 bc
       -0.22512557 -0.16759503 -0.20228133 -0.008143845
000160 44 6a b5 3e bb bb db bd 71 b5 33 3f 13 f6 0a be
       0.35432637 -0.10729166 0.7019873 -0.13570432
000170 48 53 0f 3e 77 07 32 be b5 e0 18 bc 87 f9 36 bc
       0.13996613 -0.1738566 -0.009330918 -0.01116789
000180 70 d5 00 be ec 46 91 be 14 02 02 bc e2 90 fc 3d
       -0.1258142 -0.28374422 -0.007935066 0.12332322
000190 7d aa d4 3e 7f b6 66 3d 70 54 3a be fa 8d e9 3d
       0.41536322 0.056326386 -0.18196273 0.11404033
0001a0 3c e4 42 3e e9 45 12 be 43 f6 09 be 0c c6 bd bd
       0.19032377 -0.14284481 -0.13472848 -0.0926629
0001b0 4d de ed 3d d2 6e 96 3e 87 2d 0e be 21 35 f4 bd
       0.11614666 0.29381424 -0.13884555 -0.11924196
0001c0 3f 76 fb be 65 b3 03 3e 57 78 c3 3d e2 23 8b bd
       -0.49113652 0.12861402 0.095444374 -0.067939535
0001d0 52 ac f0 3d ba 97 67 3e 2d 70 73 be af 2f 72 3e
       0.117516175 0.22616473 -0.2377326 0.23651002
0001e0 46 85 3e be 16 65 04 be 69 ea 1c 3b 54 6e b0 bd
       -0.18605527 -0.12929186 0.002394343 -0.086147934
0001f0 0e 88 28 3e b2 5c 39 3b c9 5d 74 3e 29 38 6d bc
       0.1645815 0.002828401 0.23863901 -0.014478722
000200 cd 21 6d be 83 8a ba bd 27 a1 81 bc f4 94 7f 3c
       -0.23157425 -0.0910845 -0.015823914 0.015599478
000210 b5 6a 88 3e cb 99 32 3e e1 da b5 be 82 9e 1c 3e
       0.2664391 0.1744148 -0.35518554 0.15294841
000220 10 4f 57 be 52 74 9e be 23 d8 07 3e eb c8 67 3e
       -0.21026254 -0.3094812 0.13266043 0.22635238
000230 d3 2a d4 be 1f 8f 8b be 52 cd ca 3d ac 39 bc be
       -0.41438922 -0.2725763 0.09902443 -0.3676275
000240 1f 16 60 be db e8 2b be 8f 34 58 3e bd 77 18 3d
       -0.21883439 -0.16788046 0.211138 0.037223566
000250 5e d5 92 3e 44 d8 4a 3e 21 a7 f5 3d 63 dd d9 3d
       0.2867841 0.19809061 0.11994768 0.10637929
000260 01 ef 05 3b c7 4e 73 3c 3a 8a 96 3d cc bd a8 3b
       0.0020436647 0.014850325 0.073505834 0.0051495787
000270 1e f1 13 3e c0 b3 37 3d 15 a1 00 3d e9 b6 7c 3b
       0.14447448 0.044849157 0.03140362 0.0038561171
000280 66 2c 7f 3e e4 09 b1 3d f2 c9 fd bd c0 c7 74 3e
       0.2491928 0.086444646 -0.12392034 0.23904324
000290 cd 95 70 3e 67 37 f4 3d ac 00 7b 3c 3f ea 62 3c
       0.23494644 0.1192463 0.015319984 0.013849794
0002a0 23 1b 7b 3b a5 7e 8a 3e 11 5b d2 bd c0 14 04 3e
       0.0038315735 0.27049747 -0.10271276 0.1289854
0002b0 16 59 1b be ed 83 99 3e 7e d8 21 be 82 65 04 3e
       -0.15170702 0.29983464 -0.15805241 0.12929347
0002c0 15 04 bb bd d4 42 45 be e3 34 fc 3d 26 61 b8 bc
       -0.09131638 -0.19263774 0.12314775 -0.022507261
0002d0 12 b5 cc 3e 39 0e 86 bd d9 ec 48 3e 83 fe 89 bb
       0.39981896 -0.065456815 0.196216 -0.0042112484
0002e0 9f 59 03 3d ed f7 96 3d 6a 2c ca bd 3e ea a8 3d
       0.03206789 0.07371507 -0.098717526 0.08247803
0002f0 39 61 1f 3d 3d 70 49 bd da d2 2f 3e c2 01 e4 bc
       0.038911078 -0.049179304 0.17170277 -0.02783287
000300 55 76 5a 3d ae 16 c8 bc 5d 7b c6 3e 5b b2 3b be
       0.053335506 -0.024424877 0.38765994 -0.18329756
000310 38 c3 f1 bd bb b6 38 be cf 7a 84 be d4 60 3f 3e
       -0.11804813 -0.18038456 -0.25874946 0.18689281
000320 8b 0b 73 3e 1c ae 08 be 9d 9b dc bc 53 25 17 3d
       0.23734872 -0.13347667 -0.026929671 0.03690083
000330 fb d5 03 be 6c 19 d3 3d 83 c2 04 3e cf 56 49 3e
       -0.12874596 0.10307583 0.12964825 0.19662021

weight_hh_l0_reverse f4 [52, 13]
000000 99 bb 2f bd ab 3e 1c 3d c7 8f 11 3e a9 c6 27 3e
       -0.042903516 0.038145702 0.14215003 0.16384377
000010 50 8d 63 be c8 f9 15 3e 41 45 6a bd 89 ba a9 3e
       -0.22221875 0.14646065 -0.057194952 0.33150128
000020 04 c0 2d be d0 4a d5 bc 34 c6 1b be a8 9b 9f 3e
       -0.1696778 -0.02603665 -0.15212327 0.31173444
000030 6b e0 b1 3d e6 4e 91 bd 1e a8 aa 3e d9 48 f1 3d
       0.086853825 -0.07095127 0.33331388 0.11781473
000040 96 c7 15 3e 74 4a c6 be 03 83 36 3e aa 75 7d be
       0.14626917 -0.38728678 0.17823415 -0.24751917
000050 d0 58 51 3e 06 71 93 bd 1d e4 f9 3c 77 a5 0a bf
       0.20444036 -0.07199292 0.03050428 -0.5415873
000060 6c dd 10 bb c9 72 8a 3e 2d b4 e3 be 5a a5 cc 3d
       -0.0022104634 0.270407 -0.444734 0.09992476
000070 3a 91 08 3e 0e ae 99 3d 43 1e 82 3d 6d 98 f6 3d
       0.1333665 0.075039014 0.06353428 0.12040792
000080 ca 36 89 be ff 76 72 3e ce ac 13 bc 7d dd d6 be
       -0.26799613 0.23678206 -0.009013368 -0.41965857
000090 51 4c 2f 3d f5 5b 09 bd 0b 36 ac 3d fd dd 16 bd
       0.04279739 -0.033534963 0.084087454 -0.0368328
0000a0 65 75 ad 3e b5 22 88 be 76 df 5f 3e a4 4a 42 3d
       0.33878627 -0.2658898 0.21862587 0.047434464
0000b0 19 03 95 3e 1d f7 4d bc f9 50 ea bd 1e c2 5f 3e
       0.29103926 -0.012571123 -0.114412256 0.21851394
0000c0 cb ad 16 be e8 71 21 be e6 5e ee 3b 6f 9e 13 3e
       -0.14714734 -0.15766108 0.0072744964 0.14415906
0000d0 a5 5e 17 3d b0 ab 3f 3d d2 29 99 3d b2 06 a4 be
       0.036955494 0.046794593 0.0747868 -0.32036358
0000e0 43 c2 df bd f3 15 76 3e c0 fd 61 3d bc 2f 43 3e
       -0.10925724 0.2403181 0.055173635 0.19061178
0000f0 f6 0e 4a 3e b1 5b 21 bd c5 0e c4 bd 9e ed 26 be
       0.1973227 -0.039394084 -0.095731296 -0.16301581
000100 94 4f f4 3d 8e db 2e be 3c 9c 31 be 5a 9d 34 3e
       0.11929241 -0.17075941 -0.17344755 0.1763815
000110 81 bb c5 3c 3a a7 c9 3d cc 48 21 3e db f6 05 3e
       0.02413726 0.09846349 0.15750426 0.13082449
000120 c7 49 b3 39 8d 44 ad bd be ee d1 bd 09 e0 b0 3e
       0.0003419651 -0.08460341 -0.102506146 0.34545925
000130 80 86 77 be 2b 68 70 3e 54 b4 fd 3d a4 85 86 3e
       -0.24172401 0.23477237 0.123879105 0.26273835
000140 61 b1 89 3d 31 3f 85 bc 3c 95 fa be 0b 67 5c be
       0.067232855 -0.016265484 -0.48941982 -0.21523683
000150 08 33 dd bc 8c 95 cd 3d 75 a2 89 be 45 ff 6f be
       -0.027001873 0.100382894 -0.26881757 -0.23437221
000160 12 a9 41 bc 9d 2d 92 3e d8 23 79 bd e3 d4 0c be
       -0.011820095 0.28550425 -0.0608252 -0.13753085
000170 61 b7 53 3e 87 79 55 be 14 47 93 3e 7e 6f e7 be
       0.20675422 -0.2084714 0.28765166 -0.4520225
000180 7e 6b a9 3e b7 e3 44 be 1e 76 e1 3d 6c a8 77 be
       0.33089823 -0.19227491 0.11008857 -0.24185342
000190 f2 b2 6e be 7c 82 0a be 54 ee d5 3e 68 9e 16 3d
       -0.2331045 -0.13526338 0.41783392 0.03677216
0001a0 82 08 b2 3d a4 63 ea bd 6e 0e 83 3e 38 cb 34 3e
       0.08693029 -0.11444786 0.25596946 0.17655647
0001b0 d9 e3 2d 3e b6 ca 17 bb dc 9f 00 3e 07 94 72 3e
       0.16981448 -0.0023161597 0.12560982 0.2368928
0001c0 74 42 8b be 3c e2 86 be e1 4d 9c be 02 be 46 be
       -0.27199137 -0.26344478 -0.30528167 -0.1940842
0001d0 72 90 0a 3e ac a8 a6 be 13 40 4a bd b9 a3 42 be
       0.13531664 -0.3255056 -0.049377512 -0.19007768
0001e0 f4 22 1f 3d 96 b2 e5 be af 3b 1e be 1e a8 75 bd
       0.038851693 -0.44862813 -0.15452455 -0.059974782
0001f0 8b 55 86 bd 19 4d eb 3d 70 e1 17 be 20 c0 87 bd
       -0.06559285 0.114893146 -0.14832091 -0.06628442
000200 d7 73 cf bd f1 77 df bd db 7c 9e 3e e3 14 01 3e
       -0.101295166 -0.10911549 0.30954632 0.12605624
000210 9d 6c ab be 0d 9f a0 3e 2f cf 33 3e ad a8 f4 bc
       -0.33481303 0.31371346 0.17559503 -0.029865587
000220 53 56 dd be 1d d8 13 3e ea 84 fb bc 14 a8 98 be
       -0.43229923 0.1443791 -0.030703027 -0.29815733
000230 25 cf 63 be 3a 4f ef bd a6 7a 31 3e 37 67 49 3d
       -0.22246988 -0.11685033 0.17331943 0.0491707
000240 be 57 0d bb 57 6e 98 be 27 26 fe 3d fc c0 c2 bd
       -0.002156719 -0.29771683 0.12409621 -0.09509465
000250 74 60 ec 3d e0 3f 99 be 50 ae 3e bc a9 01 00 be
       0.115418345 -0.29931545 -0.011638239 -0.12500633
000260 03 a3 8b be 94 7c 9b bd dd 3f aa 3e 0a 9b b9 3e
       -0.27272806 -0.07592121 0.3325185 0.36251098
000270 51 b4 39 3d 8d e9 05 bc ab cb 0d bf a3 d7 0f 3e
       0.04533798 -0.008173359 -0.553889 0.14047103
000280 05 58 fe bd 32 d9 32 3e 89 18 06 be ae b3 42 3e
       -0.12419132 0.17465666 -0.13095297 0.19013855
000290 10 16 6d be d3 c2 42 3b d1 69 3f be 12 38 44 bd
       -0.23152947 0.0029718175 -0.1869271 -0.047905035
0002a0 1e 1f 88 3e ad 46 4e bd be 91 c3 bc 48 5b 5f be
       0.2658624 -0.05036037 -0.023873206 -0.21812165
0002b0 47 11 0f be ef 30 45 be 4c 91 35 3d 0e 4f 5b 3e
       -0.13971435 -0.19256948 0.04432802 0.21416876
0002c0 e0 4d 15 3d b1 f5 11 be cb d4 0a bc 58 d1 05 be
       0.03645122 -0.1425388 -0.008473585 -0.1306814
0002d0 75 f0 94 bd 8d eb ac 3d 17 25 ac be 89 c2 9c bd
       -0.07272426 0.08443365 -0.33622047 -0.07654292
0002e0 5c 48 3d be be 61 cc bd 83 cc 9b be 77 1f ba 3d
       -0.18484634 -0.0997958 -0.30429468 0.09088033
0002f0 f4 e7 ed bb 2d 6f 17 3d 35 a5 a3 be 73 32 ab be
       -0.007260317 0.03697126 -0.3196198 -0.33436927
000300 6f 59 76 3c 0c 08 a2 3c 3d a3 e9 3e 26 b2 69 be
       0.015035971 0.019779228 0.45632353 -0.22821864
000310 77 bf b6 bb 77 43 7a be df 3d 97 3e 06 a8 1a bc
       -0.0055770236 -0.24439798 0.2953939 -0.009439474
000320 51 c8 ca 3d 11 8d 4a be ea 0a 02 be c7 7d 0e be
       0.099014886 -0.19780375 -0.12699476 -0.13915168
000330 e5 17 95 3d 57 8b 7d be 9a 7a 01 3f 30 41 bc 3e
       0.07279948 -0.24760185 0.505777 0.36768484
000340 3f 9d e2 be ee 39 36 be 37 02 89 be f4 50 62 3e
       -0.44260594 -0.17795536 -0.26759502 0.22101194
000350 b7 79 d0 bd 96 f1 9b 3e 71 17 cd bd 7f a8 dc 3c
       -0.10179465 0.30457753 -0.10014237 0.026935814
000360 0c b4 fc bd 99 88 9b be 23 1d 8e 3c 15 ce 27 3e
       -0.12339029 -0.30377653 0.017347878 0.16387208
000370 e6 e0 b7 3c b3 45 5b be db ce 45 3c 50 af 88 3d
       0.022446107 -0.21413307 0.012073244 0.06674063
000380 7d 3a 0a 3e 80 30 a1 bc 99 65 ed 3d 47 1b 60 be
       0.13498874 -0.019676447 0.11591644 -0.21885405
000390 3f ae cd bd c8 50 b4 3d b7 d8 46 3e d4 86 dd bd
       -0.100430004 0.0880447 0.19418608 -0.10816732
0003a0 03 22 61 3e 24 27 e8 b9 db ee 1f 3e c3 bc 59 3e
       0.2198563 -0.0004427965 0.1561846 0.21263413
0003b0 22 43 e9 bd 37 a5 c9 bd f8 e6 a3 3e 56 11 55 be
       -0.11389758 -0.09845965 0.32012153 -0.20807394
0003c0 ae 35 e8 bd 9b b4 53 3d ce a9 54 3e 71 57 05 be
       -0.113383636 0.05168591 0.207679 -0.13021637
0003d0 c4 2c c7 3d 50 de df 3d 38 68 3d 3e b2 3e dd bd
       0.09725335 0.109310746 0.18496788 -0.10802974
0003e0 8a 51 bd bc 04 5d 85 bd 13 9d 72 3e ee a1 29 bc
       -0.02311017 -0.06511882 0.23692732 -0.010353548
0003f0 62 10 1e bd 56 9c 9d bd d3 93 6c 3e 39 58 44 3c
       -0.038589843 -0.07695834 0.23103265 0.011983925

bias_ih_l0_reverse f4 [52]
000000 e0 93 07 be 4e 13 46 3e fd 9b 3a be 51 5a 4e 3c
       -0.13240004 0.19343302 -0.18223567 0.012594775
000010 db 58 2b be 4f 05 41 3e 60 1c 3d 3d c1 86 0e 3e
       -0.16733114 0.18849681 0.04616964 0.13918592
000020 de 23 0c be 2c 0c 44 3e 25 88 44 3e c6 32 7e 3e
       -0.13685557 0.19145268 0.1919256 0.24824056
000030 0d 3a 11 bd 5b ee d2 3d ec 3a 80 bd 50 0d 91 3d
       -0.035455752 0.10299369 -0.062612385 0.07082617
000040 1b b2 af bc d1 f5 48 be 8a 46 a5 bd 6c da 7d bd
       -0.021447232 -0.19625022 -0.08070095 -0.06197588
000050 af 58 ac 3e 35 58 ce bd f7 60 90 3e 35 fb ae 3d
       0.3366141 -0.10075418 0.28198978 0.08544008
000060 e8 fb f0 bd b5 bf 2d be 09 c4 d5 3d 81 9d 20 3e
       -0.11766797 -0.16967662 0.10437781 0.15685083
000070 a5 83 4d be 1a 3d 86 3e f6 fc 8f be 5c aa 10 3e
       -0.2006975 0.26218492 -0.2812268 0.14127487
000080 19 05 a0 bd 9a 09 a2 3e 85 11 68 be 8d 35 73 3d
       -0.07813472 0.3164795 -0.22662933 0.059377242
000090 06 5d 46 be f3 6c 4a be ad 9a 9d 3d 11 84 16 bd
       -0.19371423 -0.19768123 0.07695518 -0.036747042
0000a0 77 9f 86 3e 6b 0e 82 3e 2b 59 1a bd a6 fd 49 3e
       0.26293537 0.25401625 -0.037682693 0.19725665
0000b0 6b 60 60 3e 8f f2 27 be de ee 71 3e 0b 88 e9 bd
       0.2191178 -0.16401123 0.23626277 -0.11402901
0000c0 72 3d 75 3e 71 74 12 3e 9a 2c 12 3e 89 5a 9b bd
       0.23949221 0.14302231 0.14274827 -0.075856276

bias_hh_l0_reverse f4 [52]
000000 44 3f 8a 3d ef 89 0d bd e7 94 27 be 3f 84 d4 3c
       0.06750348 -0.03455537 -0.16365395 0.025941966
000010 f0 2d 8d 3e 38 f9 98 be 55 b1 2e 3e 12 f4 9e 3e
       0.2757411 -0.2987764 0.17059834 0.31045586
000020 d8 ed 78 3e ad c5 c2 bd 36 cd f8 3d 91 7c 96 3e
       0.2430948 -0.0951036 0.12148516 0.29391912
000030 2b d6 25 be ea a4 2a be b7 75 01 3e 71 42 0c 3e
       -0.1619498 -0.16664472 0.12642561 0.1369722
000040 be 4b 8b 3e 09 db 28 3e 06 7a 57 bc 43 be 8b 3e
       0.27206224 0.16489805 -0.013151651 0.27293596
000050 8b 40 ba 3d 2b 32 f4 bd 30 78 bf 3c 01 89 39 3e
       0.09094342 -0.11923631 0.02337274 0.18118669
000060 44 4a 85 bd 48 3b a1 bd d1 90 70 be cc c0 6c 3d
       -0.06508306 -0.07872635 -0.23492743 0.057801053
000070 6b 21 39 be 8e 87 f5 3c 46 4f 82 be b8 b6 13 3e
       -0.18079154 0.029971864 -0.25451106 0.1442517
000080 d7 26 95 be 42 32 e8 3d 95 72 96 be 30 6c 85 be
       -0.29131195 0.11337711 -0.29384294 -0.26059103
000090 f2 f1 9a be a5 d0 77 3e 9b ec 91 3d 04 ab 0f be
       -0.30262715 0.24200685 0.07125207 -0.14030081
0000a0 d5 5f 57 3e 00 fb 5c 3e 8a e8 52 3c 52 d2 58 3e
       0.21032651 0.21580124 0.012872824 0.21173981
0000b0 87 ac 65 3e a6 cf b9 3b 02 17 df 3b 22 0e 70 3e
       0.22429095 0.0056705056 0.0068081627 0.23442891
0000c0 58 4e dd bc fb 9b 89 bd 28 1c 7d 3e e1 88 05 3d
       -0.027014896 -0.06719204 0.24717772 0.03260124

weight f4 [16, 260]
000000 a6 fa 1f bd d8 ae 87 3d fe e7 81 bd 54 2e 20 3c
       -0.039057396 0.06625146 -0.06343077 0.0097766705
000010 18 b2 aa bb 34 3f 30 be 95 39 b7 bc aa f2 6a bd
       -0.0052092187 -0.1721161 -0.022366324 -0.05736033
000020 da f1 6b bc b3 a9 40 3c d5 e6 cb 3d 31 52 43 3d
       -0.014400924 0.011759209 0.09956137 0.047685806
000030 cb 9e 17 3c bd f3 06 be 5b d2 47 3d 84 da 36 be
       0.009254168 -0.13178916 0.048784595 -0.17856795
000040 4c 19 bb bd 16 ce 51 bd f4 c8 f8 bd 91 e8 67 bd
       -0.09135684 -0.05122193 -0.12147704 -0.056618277
000050 8e 89 13 bd e0 0d 6e bd 07 41 d2 bc f5 dd d6 3d
       -0.036019854 -0.0581187 -0.025665773 0.10491554
000060 8e 85 c0 bb 64 7e bb 3d ad 23 8c bc b4 9e 93 3d
       -0.005875296 0.091549665 -0.017106855 0.072080046
000070 36 8b a8 bb 0f 9c 48 3d 44 f1 3d 3e 18 46 0b 3d
       -0.0051435484 0.048976954 0.18549067 0.034002393
000080 93 c2 09 be ea 5c 3e bd 71 b3 e0 bc a4 07 01 b9
       -0.1345313 -0.04647533 -0.027429314 -0.00012305245
000090 8a 8b a8 bc 42 81 c6 3c 4e 8b 51 bc 8b e1 1f be
       -0.02057435 0.024231557 -0.0127895605 -0.15613382
0000a0 21 61 5f bd 16 aa e3 bd ba c8 ea bc 95 a6 4e 3e
       -0.05453599 -0.11116426 -0.028660167 0.20180734
0000b0 c6 95 ac 3d 8b 7c 7c 3d fe 39 2f 3d fd 80 b6 bc
       0.084270045 0.06164221 0.042779915 -0.022278303
0000c0 0a 48 d3 3c 68 e8 fc bc 7f 17 12 3e 96 94 48 bd
       0.025791187 -0.030872539 0.14266776 -0.048969828
0000d0 d0 a8 8c bb 1a 04 df 3d a7 aa 70 bd ff f1 aa 3c
       -0.004292585 0.10889454 -0.058756497 0.020867346
0000e0 ac 1f 18 be 7e 5b 9a 3c ad 05 ce bd 83 09 66 3c
       -0.14855832 0.018842455 -0.10059676 0.014040354
0000f0 db fc 8b bc e2 f1 f5 3d d6 35 ff 3c ab 02 5f 3d
       -0.017088344 0.12009026 0.0311536 0.054445904
000100 99 ce 60 bd b1 99 0e bd 53 01 55 be 86 01 d4 bd
       -0.054884527 -0.03481454 -0.20801286 -0.10351853
000110 a3 3c 39 3d 64 0d a9 bd b2 2e 10 3e d1 fc 9e 3b
       0.045223843 -0.08254507 0.14080313 0.0048519154
000120 81 89 a5 bd 78 16 c7 bc 6e 94 6a be 13 3a ff 3c
       -0.080828674 -0.024302706 -0.22908184 0.031155622
000130 df fd 78 bc 24 39 80 bd 6d ec 06 3d 3b 13 1f be
       -0.015197246 -0.06260899 0.032940317 -0.1553468
000140 49 11 a6 3d 50 13 39 be 13 af 7a 3c 70 27 99 3d
       0.08108766 -0.18073773 0.01530053 0.07478225
000150 49 5b 1c be fc e9 49 3c 98 1a 86 3c fc 8d 97 3d
       -0.15269198 0.012323853 0.016370103 0.07400128
000160 b3 e5 45 3d 10 14 61 3e 9c 66 4d 3d 9f 8e a0 bc
       0.04831476 0.2198031 0.050146684 -0.019599257
000170 fd 89 8a 3d 1f e7 d8 3b b0 45 5b 3d 1b 41 b4 bd
       0.067646004 0.0066193487 0.053533256 -0.088014804
000180 64 0f f1 bd 8a 75 d6 bd fd 28 4b 3d 6c 3a a7 bc
       -0.11770514 -0.104716375 0.049599636 -0.0204136
000190 e5 60 28 3d 5d 7b 0d be 77 3e d3 3d d7 dd b7 3d
       0.04110803 -0.1381659 0.103146486 0.089778595
0001a0 0b 1b 3b 3d 7a 6d 27 bd c1 35 2d bd ca 1e c3 bd
       0.045680087 -0.04087589 -0.04228759 -0.09527357
0001b0 e8 5b 0e be 51 19 02 3e d4 2f c6 bd b0 3d d0 3d
       -0.13902247 0.1270497 -0.09677091 0.10168016
0001c0 27 2f 08 3d 67 c1 e0 bd f1 06 3f 3d ba 69 16 be
       0.033248093 -0.109743886 0.04663748 -0.14688769
0001d0 e3 11 88 3d 2c 2f de 3c aa 1b 0c be 3d f3 2d bd
       0.066440366 0.027122103 -0.13682428 -0.0424683
0001e0 76 81 5c bd 99 37 13 be d6 6e d4 bc 5b 89 39 bc
       -0.0538344 -0.14376678 -0.025931757 -0.011324252
0001f0 0d dc 16 3e 4c 35 ec 3d ac 3a e2 bc 2d ce fb 3b
       0.1473238 0.11533603 -0.027615868 0.00768449
000200 b4 a4 50 3e 49 02 60 bd 69 96 de 3d 52 cb d3 3c
       0.2037533 -0.05468968 0.10868532 0.025853787
000210 d8 9d cb bd dd 2c 62 be de 8f c7 bd 21 14 ce bd
       -0.09942216 -0.22087426 -0.09744237 -0.10062433
000220 2d cb 08 bd c5 10 b3 bd 12 ef ae bb 32 0e 59 3d
       -0.03339689 -0.08743433 -0.005338558 0.052992053
000230 32 9e 2d 3c 05 57 74 bd 86 f7 1b bd 1a c3 82 bd
       0.010596799 -0.0596533 -0.038077854 -0.06384869
000240 53 9b a1 bd a4 e1 48 3e 2e 40 9c 3d 6a 83 2d be
       -0.07890954 0.19617325 0.07629429 -0.16944662
000250 c0 1e c4 bd d6 48 21 3d 01 c3 e3 bc ad bc c1 bd
       -0.095761776 0.039376102 -0.027802946 -0.09459815
000260 32 b3 b2 3d 64 75 c2 bd 1f 48 9f 3d c2 64 c8 3c
       0.08725585 -0.09495047 0.07777428 0.024462108
000270 aa e9 1a be 4f 09 b4 bd fc 23 0b 3e b2 79 63 3e
       -0.15128198 -0.08790838 0.13587946 0.22214392
000280 d3 12 bd 3d a1 bd 6a bd d2 c2 94 bd b0 0a d1 bd
       0.09232106 -0.05730975 -0.072637215 -0.102071166
000290 b5 7b e3 bd ae 6b 19 3e ea 09 35 3e 2b 1d 48 3d
       -0.111075796 0.14982483 0.17679563 0.04885594
0002a0 4f 13 80 3d 64 f8 8f bd 15 c1 61 bd 98 ea e5 bd
       0.06253683 -0.070297986 -0.055115778 -0.11226386
0002b0 7b 4e 9a 3d f1 18 11 be 45 63 c4 3c b7 79 e1 bd
       0.075345 -0.1416967 0.023973117 -0.110095434
0002c0 45 2a 06 be ae e3 60 bd 72 05 82 3d 17 08 92 bc
       -0.13102062 -0.054904632 0.06348695 -0.017826123
0002d0 9a 93 9b 3d 86 a8 10 3c 35 3f f0 3b b7 03 22 be
       0.07596512 0.008829242 0.0073317536 -0.1582173
0002e0 26 70 9d 3d 92 5b c2 bd 47 f9 d8 bd 6d e4 b9 bd
       0.07687406 -0.09490122 -0.10594421 -0.09076772
0002f0 fd 32 9a bc 57 80 27 be 59 72 9a 3d ad 45 23 be
       -0.018823141 -0.16357552 0.07541341 -0.15944548
000300 e1 7e 45 3d 95 14 0c be c1 56 9c 3d 25 de cb 3d
       0.048216704 -0.13679726 0.076337345 0.0995448
000310 8f 1b 47 3d ab 18 7f bb 09 80 92 3a df 42 43 bc
       0.048610266 -0.0038924615 0.0011177073 -0.011917799
000320 8e 00 82 3d 34 5b a9 bd 44 9c 3d 3d 71 96 79 bd
       0.06347762 -0.08269349 0.046291605 -0.060934488
000330 45 ad 43 bc 05 51 a0 bd 5a 77 24 bd 90 da d2 bd
       -0.011943166 -0.07827953 -0.040152885 -0.10295594
000340 74 b0 91 bd 2d 03 41 be 24 b2 2c be 4f 76 de bd
       -0.07113734 -0.18848868 -0.1686483 -0.10862409
000350 64 d0 0a 3d 77 48 12 be a5 7b a0 bd 5e 76 11 bd
       0.033890143 -0.14285456 -0.07836083 -0.035513274
000360 5b b2 28 3e 69 f2 35 bd 73 63 72 bc e2 29 0f 3e
       0.16474287 -0.044420633 -0.014794218 0.13980821
000370 23 c1 2a bd d3 86 d7 3c b4 88 85 bd bc 27 49 3e
       -0.041688096 0.026309406 -0.06520215 0.19644064
000380 0d f7 0a 3d 6c 76 e9 3d d5 f8 6f 3c 32 01 89 3d
       0.033927012 0.1139954 0.0146467285 0.06689681
000390 74 75 92 3d 52 47 35 bd 76 6b b2 bc 7a 38 23 3c
       0.07151309 -0.04425747 -0.021779757 0.0099621955
0003a0 63 cb dd 3c ac a0 f0 3c 0b 30 a6 3d a9 50 24 bd
       0.027074521 0.02937349 0.08114632 -0.040115986
0003b0 4c 96 92 3d 0a b8 1f 3d 5f 55 6b bd d4 39 4a bc
       0.07157573 0.038993873 -0.057454463 -0.012342889
0003c0 31 6e d3 bd c1 4e 2a bc 1e 6d 03 3b 90 da 3c bc
       -0.10323752 -0.010394753 0.0020054053 -0.011526719
0003d0 e5 6e 2f 3d d3 4c 9f 3d af b5 fd bd 32 97 da bd
       0.042830367 0.07778325 -0.12388169 -0.106733695
0003e0 10 4b 5b bd 34 84 f2 ba 56 bb 94 3d ae 62 a6 3d
       -0.053538382 -0.0018502534 0.07262294 0.081242904
0003f0 63 1f bd bc f0 80 ae bc 1b 84 91 3d da a5 41 bc
       -0.023086255 -0.021301717 0.07105275 -0.011819327

bias f4 [16]
000000 4c a5 e5 3c 94 42 d8 bc fc db 54 3d aa 7a 34 bc
       0.028032921 -0.026398934 0.051967606 -0.0110155735
000010 ff ca b3 3d 2e e4 9d 3d 2c 69 74 3b c0 74 14 bd
       0.08778953 0.077095374 0.0037294133 -0.036244154
000020 b9 c1 0f 3c 1f 16 dc bb 28 9c 9d 3d a3 dc 03 3c
       0.008774214 -0.006716504 0.076958 0.008048209
000030 85 6b a8 3a 90 18 ae ba aa d2 98 3c 85 eb 98 3d
       0.0012849426 -0.0013282467 0.01865514 0.07466797

weight f4 [19, 16]
000000 49 e9 cc 3e 12 b0 6b be a7 09 c8 3e b7 c6 4a be
       0.40021732 -0.23016384 0.39069864 -0.19802366
000010 71 61 b9 be b9 28 d9 bd 00 4c 8b 3d 6a bc d6 3e
       -0.36207154 -0.1060347 0.06801605 0.41940624
000020 28 06 42 3e d8 84 dd 3e 02 74 db 3d 2a ef 24 be
       0.18947661 0.43265414 0.10715486 -0.16106859
000030 dc 11 0c 3e 3c 0e 5c bb 2e f1 a7 3e 8e 0c 57 3d
       0.13678688 -0.003357782 0.32801193 0.052502207
000040 bd a9 2f 3d 69 32 0c be 3f 68 69 3e 43 30 cd bd
       0.042886484 -0.13691105 0.22793673 -0.10018971
000050 0c 2a d1 be e9 08 48 3e 86 14 86 3b 8c dd 8a 3e
       -0.40852392 0.19534649 0.004091802 0.27122152
000060 2d 32 bf be 14 a4 3b bd 38 ea 38 3e fe 87 d1 bd
       -0.3734297 -0.045810774 0.18058097 -0.102310166
000070 3b 2e 16 bd fb 21 04 3e 4a 65 65 3d a7 25 73 be
       -0.036665183 0.12903588 0.0560048 -0.23744832
000080 c3 78 c8 3d 57 79 9e bc eb bd bc 3e a9 8d 3b be
       0.097886585 -0.019344969 0.36863646 -0.18315758
000090 44 78 0a be d3 81 b2 3d 04 fd 47 3e 93 8c 9f 3d
       -0.1352244 0.08716168 0.19530112 0.07790484
0000a0 72 e1 55 bd fc 87 80 3c 8a 7c 86 bd fc 45 65 3e
       -0.052216955 0.015689842 -0.06566723 0.22389978
0000b0 b7 69 96 3d f1 49 a2 3c e4 06 b2 bd 25 c2 28 3d
       0.07344382 0.019810649 -0.086927205 0.041200776
0000c0 b0 4f f3 bc 8a d8 34 3e aa ec 70 3e 31 44 46 be
       -0.029701084 0.17660728 0.2352778 -0.1936195
0000d0 d5 82 a6 be fb e7 92 3e 8c 56 71 3e 55 0c 8e be
       -0.32521692 0.28692612 0.23568171 -0.27743784
0000e0 d8 62 88 be f0 60 ac bd ae 4c 6f 3e bc 83 10 3e
       -0.26637912 -0.08416927 0.23369095 0.14112753
0000f0 f9 9d 78 be 31 1d 1e 3f 05 bc 6f bd 62 13 a1 be
       -0.24279012 0.6176329 -0.05852892 -0.314601
000100 26 c4 c2 3d 51 a2 50 bd 9a 41 9a bd 7e 79 29 3e
       0.095100686 -0.050936047 -0.07532044 0.16550252
000110 72 59 1b 3d 42 3c 33 bc e6 f5 99 3e 82 7d 80 3e
       0.0379271 -0.01093966 0.30070418 0.25095755
000120 e9 4b 7f 3e c2 a3 a4 3e 01 fd 33 bd c1 3c 83 3c
       0.24931301 0.32156187 -0.043942455 0.01602018
000130 06 4a 15 3e e7 f6 c1 bc 6d d9 8a be 69 7a 50 bd
       0.14579019 -0.023677303 -0.27119008 -0.05089799
000140 57 ea ac bb 9c 68 0b 3e 82 09 95 bd f8 74 49 be
       -0.005276959 0.13614124 -0.07277204 -0.19673526
000150 9b 9a a0 bd 4d 0c f8 bb d7 f4 d8 3d 9a ae d9 3e
       -0.07841989 -0.0075698257 0.105935745 0.42516023
000160 c7 e8 41 bb a5 c0 fe 3d 58 8d 19 3e 97 3d 13 be
       -0.002958821 0.12439088 0.14995325 -0.14378963
000170 f3 5a 27 bd 1b 24 f9 bd 58 9d af 3e 86 34 81 bd
       -0.04085822 -0.1216509 0.3429973 -0.06308846
000180 98 5e 0c bd 84 ee 06 be 52 4d 00 3d 38 04 8d 3e
       -0.0342699 -0.13176924 0.03132374 0.2754228
000190 df 36 97 bd 46 e3 05 3e de 0c 84 3e 9c 64 64 3d
       -0.07383513 0.13074979 0.25791067 0.05576001
0001a0 c1 e7 dc 3d 2e ac b8 be a7 84 0a bf d4 25 71 3d
       0.10786391 -0.36068863 -0.5410866 0.058873966
0001b0 2b 1a 4b 3e f6 6b 7a be 58 a5 c1 bd e8 3d 9e 3e
       0.19834201 -0.24455246 -0.09455365 0.30906606
0001c0 8c 69 b0 3d 80 29 27 3e 16 4d a2 3e 4e 64 77 be
       0.086138815 0.16324425 0.31699437 -0.24159357
0001d0 27 b7 0e be 6b 9d 28 3d 5b 2c 81 3e c8 2c 44 3e
       -0.13937055 0.04116575 0.25229153 0.19157708
0001e0 56 c0 67 3e c7 4e 8f bd f4 78 90 bc 69 63 27 bd
       0.22631964 -0.069974475 -0.0176358 -0.04086629
0001f0 6b 08 76 3c 3f 40 e4 ba 98 31 f8 3d a3 d9 0d 3d
       0.015016655 -0.0017414166 0.12118834 0.034631383
000200 af f5 88 bd 37 8f 67 3e fe 62 8f 3d 82 fe 88 be
       -0.066874854 0.22613226 0.07001303 -0.26756674
000210 d2 23 91 3d db c2 b6 3b 53 b2 1a 3e 7b 51 b2 bd
       0.0708691 0.005577428 0.15107088 -0.087069474
000220 14 96 ff bb df f3 bd 3e 0b ad 89 3c 10 1d 20 be
       -0.007799873 0.3710012 0.016806146 -0.15636086
000230 fb 0d fa bd 78 09 0e 3c 84 a5 61 3e 0e 05 e4 3d
       -0.12209698 0.00866925 0.22035795 0.111337766
000240 54 da e5 bd 24 a8 64 3e 01 0f 5a 3e 4f 3b 07 be
       -0.112232834 0.22329766 0.21294786 -0.13206218
000250 b2 2e 71 3e 31 41 fc bc bd 9d ea bd 0e 92 41 3e
       0.23552969 -0.030792804 -0.114558674 0.18903372
000260 ea 93 12 3e 9c 90 b0 bd 8b 2c 87 be 40 bd 93 3e
       0.14314237 -0.08621332 -0.2640117 0.28855324
000270 0a f0 2b be 30 49 90 3d 28 e8 42 bd 88 a5 c2 3e
       -0.16790786 0.070452094 -0.047584683 0.38016915
000280 fa 19 3e 3d a1 45 c9 3e 06 21 17 3e 8a 3f b2 bc
       0.046411492 0.39310935 0.14758691 -0.021758813
000290 e4 0a b3 3c d7 aa dd bd 3e 02 89 bb 8a be db bd
       0.021855779 -0.10823601 -0.0041811755 -0.10729702
0002a0 c6 44 95 bd 46 b4 89 3e 57 86 0e b7 32 23 48 3d
       -0.07288508 0.2689535 -8.495138e-06 0.04886169
0002b0 06 ff da 3d 1d 76 83 bd c1 68 48 bd 0c 28 a7 3d
       0.10693173 -0.06419013 -0.048928026 0.08161935
0002c0 cf 5f fa bd 68 2c 93 3d f7 2c 76 bd ab a8 77 be
       -0.12225305 0.07186204 -0.060101476 -0.24185435
0002d0 3e 9b c9 bc 80 c5 2f 3e d7 92 5e be b3 c3 f3 3d
       -0.024610158 0.17165184 -0.21735702 0.11902561
0002e0 ec b6 14 be 5c 93 81 bd 88 4b e6 3d fc 22 90 be
       -0.14522904 -0.06326935 0.11244875 -0.2815169
0002f0 0e 56 d2 be 56 13 52 bd 5e dd 8d 3e 6b c9 08 bd
       -0.4108128 -0.05128797 0.27707952 -0.033395212
000300 ae 8b 47 bd ef 64 38 be 71 30 a5 3d 1d 3b 3e 3e
       -0.048717193 -0.18007253 0.0806588 0.18577237
000310 a6 42 97 be c4 d7 df 3d 65 36 b9 3c 6a 03 98 3e
       -0.29543036 0.10929826 0.022608945 0.29690105
000320 d7 01 70 3d 29 36 b1 3e fb b1 3e 3e e4 a7 08 3e
       0.058595505 0.34611633 0.18622582 0.13345295
000330 f2 a6 a5 bd 55 8c bc bd 65 c7 a0 bd 48 2f 6d be
       -0.08088483 -0.09206454 -0.078505315 -0.23162568
000340 71 cb 2d bd 77 a2 e8 be c8 ce 11 be 78 93 04 3f
       -0.042430345 -0.4543645 -0.14239037 0.5178752
000350 3e f4 18 be 9f dd 9f bc 5f 44 b7 3e 44 9e 5f bd
       -0.14936921 -0.019514857 0.3579435 -0.054594293
000360 00 66 65 3e 3a 59 1e be 25 0a ec 3d 34 cc 0f bf
       0.22402191 -0.15463725 0.115253724 -0.56170964
000370 dd 20 0c bc 72 3f b0 3d c0 f3 7f be ed 71 58 be
       -0.008552757 0.08605851 -0.24995327 -0.21137209
000380 0d dc 80 3e ac 51 70 be e5 91 43 bc 01 4e 39 be
       0.25167885 -0.23468655 -0.011936639 -0.18096162
000390 f0 87 87 bd 07 50 92 bd f9 a7 8b 3e 83 31 d7 bd
       -0.06617725 -0.0714417 0.2727659 -0.105074905
0003a0 4c be 99 be ea 14 a0 3e 24 44 9e 3c 7e 08 5a 3e
       -0.30027997 0.31265956 0.019319601 0.21292302
0003b0 ae a5 a9 3e 00 e4 00 be 76 29 1d 3e 3a 1a e1 bd
       0.33134216 -0.12586975 0.15347847 -0.109913304
0003c0 ce 57 9d 3d 2b c7 c4 be f6 df c8 3d 6d 00 9a 3d
       0.07682763 -0.38433203 0.09808342 0.075196125
0003d0 bf 6c 30 be 45 c1 7e 3d fb b5 31 be 39 6b 88 be
       -0.17228983 0.062196035 -0.17354576 -0.26644304
0003e0 cb 1c 0b be 50 df 2d be 40 63 9a 3d 68 81 85 3d
       -0.13585202 -0.16979718 0.07538462 0.06518823
0003f0 8c 51 38 3d 84 27 33 3e 37 aa 1d be ba 34 09 be
       0.044999644 0.17495543 -0.15396963 -0.1339902

bias f4 [19]
000000 8b be 93 bc 85 7a bc 3c c5 8d a0 bc 57 d9 89 bd
       -0.018035194 0.02300764 -0.019598851 -0.067309074
000010 24 d1 d6 3d fc b2 66 bb d8 7b 7f 3e 92 84 b1 bd
       0.10489109 -0.0035201898 0.24949586 -0.08667864
000020 14 5e 0d be eb 75 8a bd 2e 70 49 bd a6 07 3a be
       -0.13805419 -0.06760772 -0.04917925 -0.1816698
000030 64 59 08 3e 76 2f 12 3e 2b 35 e9 3c 13 08 8f 3d
       0.1331535 0.14275917 0.028467735 0.06983962
000040 2f c4 88 3c a1 50 f9 bd 0c 29 4f 3d
       0.01669511 -0.12173582 0.050576255
