models/a19lds19b0.007g0.02d0.1h13.pt (torch, 126571 bytes, 26 tensors)

weight_ih_l0 f4 [52, 4]
00000000: d011 a63e 2501 383d c7b1 96be 4a1d a13d
00000010: 1a71 e53e c731 273d 2ce9 f2bc 766a 333e
00000020: 51c2 7b3e 7b1b 9dbe 0f56 963d c426 f33d
00000030: 8ffc d2bd 2bce bc3e 9151 953e f752 88bc
00000040: 5d40 6ebe f3c5 b43e 8607 cd3d 6154 f5bd
00000050: 7b14 03be 9a4d 51bd 51ad d93e 15d9 043f
00000060: a288 853d 7566 bcbe 0421 293e b67a 063f
00000070: c7e7 b33e 6abe 133e bcba be3e 5229 25be
00000080: db3f b23e 3ec4 ea3e cf48 2dbe 4d56 763e
00000090: a10a e0be 1209 013f 2837 1b3d f667 d13e
000000a0: a4a1 b63d 1a20 3cbe 7a19 303e 504a 593e
000000b0: 839e bd3e ac4d ee3e 36aa 4a3d 4c4a 81be
000000c0: 07b6 013e 6d62 1a3b 4108 833e e696 e63e
000000d0: b714 273d e48d e2bc 6b6c 763d 4926 15be
000000e0: 4b6c fd3d fbec 15bf 2e74 863e 3e75 383e
000000f0: fb8e b63c 6fbc acbe 0952 b7be 1f6c 7f3f
00000100: d562 86be f6ac f13e aac1 813d 070d e1bd
00000110: 4e16 e43e db8b a9bd 6871 03bd 6d4d c43c
00000120: bf5a 26bd 2fc3 673e 0d91 ff3e 1744 cdbe
00000130: e3d6 bb3d 003e 6d3e 586e 02be 6563 34be
00000140: fb95 0c3f 2ba2 22be ce3c 80bd 4465 7ebe
00000150: 5e2f 02be ffc2 e03e 7772 a1bd 528e 1c3f
00000160: b4f4 e93d 90c0 e33e 4dc3 a1be d870 17be
00000170: 2404 03be 5591 99be d80e 113f 8343 68be
00000180: 77fc 38be 52f6 983e 5715 fbbd b02c d1bd
00000190: 5a62 aebe d87a 6a3d aa46 163e 0ad2 00be
000001a0: f68c a4be 63b1 433f 90de 16be 68d9 e23e
000001b0: 646e 5cbd 4f02 05bf e37d 96be bf5f 5f3e
000001c0: cbf0 f13e 8746 083e 7229 cfbe d456 033e
000001d0: da7e 073e c5a4 793e 39c6 69be 8c48 8e3e
000001e0: f9d7 503e 07ec 62be b957 753e 8e03 4ebe
000001f0: 66a1 22be 1c89 abbe 689c 3f3f de3b 17bf
00000200: f61d 1cbf 6913 dd3e e0f1 573c 9599 c0bd
00000210: 782b a93c 9065 7b3d a2bf 653e 33aa 91be
00000220: 1398 77be 8496 eabc c2f4 493e d9c5 bebe
00000230: 1698 cdbd afbb 1abf 65ae 333e 49be 5dbe
00000240: e7e9 cebe cf49 9d3e 2725 0c3d 49f0 53bd
00000250: a87c 913d 2439 f73d 8394 d4bc ebf0 a83d
00000260: 7720 003f 15ab 8ebd a7fa 4c3d 6b9d 733e
00000270: 6ea6 083d f995 c43d 1f95 d03e 82bf ce3e
00000280: f0f0 e23d d734 d3be 07d0 b6bd e876 fd3d
00000290: 5dcf 60bb ad56 e03c c315 edbe c7ed be3e
000002a0: affc 81be c91b 603e 59af 96be 338c c3be
000002b0: 9fea 263f bcd6 02bf a2b7 113e 32a8 4f3e
000002c0: 5b14 1cbf d675 113f 83c1 dbbd 866a a33e
000002d0: 56b5 023e 0ba5 f4bd b132 89be b2cb 0c3e
000002e0: 455c 9a3e 7080 293d 8ff6 873e d612 c43e
000002f0: 267e d3bc 12f8 91bd d83b 93be 4e7d 123e
00000300: a6b6 c0be 2d0d ef3e 0669 91be 05e0 d13e
00000310: 2863 a7be ecfe c1be 130f 023f 833a 3c3c
00000320: 5a48 c23e 3248 163f 5358 a1bd e08a 57be
00000330: c247 be3e b64f 19bf 8db5 943e d8b7 32be
0.32435465 0.044922967 -0.29432508 0.078669146 0.44812852 0.040818956 -0.0296522 0.1752108
0.24585845 -0.30685028 0.07340633 0.11872628 -0.10302078 0.36876044 0.29163793 -0.016641123
-0.2326674 0.35307273 0.100112006 -0.119789846 -0.12800781 -0.051099397 0.42515042 0.5189374
0.06520201 -0.3679692 0.165165 0.5253099 0.3513777 0.14428106 0.37251842 -0.16129044
0.34814343 0.45852846 -0.16922306 0.24056359 -0.4375811 0.50404465 0.037894398 0.40899628
0.08917549 -0.18371621 0.17197219 0.21219754 0.37034997 0.46543634 0.049478732 -0.25251997
0.12667094 0.0023557201 0.25592235 0.45037 0.04079124 -0.02765555 0.06016199 -0.14565386
0.12374171 -0.5856473 0.26260513 0.18013474 0.022284975 -0.33737513 -0.35804775 0.99774355
-0.26247278 0.4720227 0.063357666 -0.10988813 0.44548267 -0.082786284 -0.032090575 0.0239627
-0.040613886 0.2263305 0.49915352 -0.4009101 0.09171846 0.23168182 -0.12737405 -0.17616041
0.5491635 -0.15882175 -0.062615976 -0.24843317 -0.12713382 0.4389877 -0.078831606 0.61154664
0.114236265 0.4448285 -0.31594315 -0.1478914 -0.12794548 -0.29993692 0.56663275 -0.22682004
-0.18065058 0.29875427 -0.122599296 -0.102136016 -0.3405941 0.05724606 0.14675394 -0.12580124
-0.32138795 0.76442546 -0.14733338 0.44306493 -0.053816214 -0.5195665 -0.2939292 0.21813868
0.47254023 0.13308154 -0.40461308 0.12826091 0.13231984 0.24379261 -0.22829522 0.27789724
0.20394887 -0.2216035 0.23959245 -0.20118544 -0.15881881 -0.33503044 0.7484803 -0.59075725
-0.60983217 0.4317887 0.013180226 -0.094042934 0.02065061 0.061376154 0.22436383 -0.28450164
-0.24179105 -0.028636225 0.19722274 -0.3726032 -0.10038774 -0.6044263 0.17546995 -0.2165462
-0.40412828 0.30720374 0.03421512 -0.051742826 0.071038544 0.120714456 -0.025949722 0.082490765
0.5004954 -0.06966225 0.05004373 0.23790519 0.033361845 0.095989175 0.4073877 0.40380484
0.110811114 -0.4125125 -0.08926397 0.12376195 -0.0034303286 0.02738508 -0.46305665 0.37290785
-0.25388095 0.21885599 -0.29430655 -0.381929 0.65201753 -0.5110891 0.14230207 0.20279005
-0.6096856 0.5682043 -0.10730269 0.31917208 0.12764487 -0.11945542 -0.26796487 0.13749579
0.3014852 0.041382253 0.26555297 0.3829562 -0.025816988 -0.07127394 -0.28756595 0.14305612
-0.3763935 0.4668974 -0.2840044 0.40991226 -0.32692838 -0.37889802 0.5080425 0.01148856
0.37945825 0.5870391 -0.07878175 -0.2104907 0.37164122 -0.59887254 0.29044762 -0.17452943

weight_hh_l0 f4 [52, 13]
00000000: f2e2 0fbe e4cd 433f c83c 333f 39cd d23e
00000010: d84b 7d3e c0b1 1f3e 2936 ffbe c266 7f3e
00000020: b954 19be d48e dabe fe7c f7be 1db3 eb3e
00000030: 71db 0cbe 0491 1cbe 3f9d cb3e 4946 563f
00000040: 1be3 5ebe d291 f23e c327 ad3c b5a8 8bbe
00000050: 9989 f13e 0361 1dbe 1900 f3bd d985 1abe
00000060: e1f7 3a3e a4a7 253e 480d 71bf 78af 6c3d
00000070: 55f0 143e 8cce 2fbe 2b43 253f 7931 a33e
00000080: 9a7d 07bf 4f83 bd3e b27c 1abe be8c dbbc
00000090: 88b9 b3bd ee78 d53c 69ba b73e 963a d83d
000000a0: bbfd 013e b04f 1f3e 2bfa 1b3e 323d 29bd
000000b0: ddc4 9c3d d578 5e3e 5c03 373c 1f63 76be
000000c0: a2c6 68be 8710 d8be 7489 b83e 43cd fe3e
000000d0: 18f1 993e 59f5 633b 66e9 f73d bda5 583e
000000e0: 881a 9f3e ec3d 403e b0fa 41be 76e2 fd3d
000000f0: d001 3fbd e3a3 d3be b692 71be 0d8b 903e
00000100: 1f6f 023d 4952 edbe 4c55 56bd 1aa7 be3d
00000110: f897 8e3e 538a d23e 601c 9c3c 0af9 23bf
00000120: fdd6 ae3e 794b 15bf 95b1 4b3e e7b0 65be
00000130: beee d33e aa01 073f 28cd 893e 0a9f 64bd
00000140: f370 abbd f0ed 1b3e f275 0cbe 3e2e 6bbe
00000150: 7737 8bbd 87d6 163f fef7 83bd db00 fcbe
00000160: 45c6 d13d d81e 51be 81ca ae3e 24f5 77be
00000170: e6bb 7cbe 65fc 093f cedc 473e c69e 093f
00000180: 7446 20be 5d40 aabe 52b3 413d 6f8e b2be
00000190: de99 61be 77a0 3ebd 21b5 31bc 3e5d 5f3e
000001a0: a6ca 1a3e 6329 373e 8898 803e 162d 0b3e
000001b0: dae5 1bbc d851 6bbd 9e3b a2be 3b92 983e
000001c0: a478 0bbe 0d7a a4be c0b7 f7be e64d 0d3f
000001d0: aba7 af3e ee6a 023f 30e1 f9be c726 fbbd
000001e0: 12c1 613e 979c 28be 1092 8bbe aab7 46be
000001f0: bc1a 963e 5d9c d4be 4d1a b2be 192d b2be
00000200: 86fe dd3d cfd0 4d3e fc7d d83d 7693 363f
00000210: 488c 8ebd a362 a73d 3f7a c63e 84c2 7dbe
00000220: 104d 54be f876 473e f4c6 6b3d a893 9c3d
00000230: 7333 e7bd a1c0 6a3e d198 45be 54ce 423e
00000240: 1bc8 9e3e 2d4b 4f3c 00ae 8fbd 7b87 07be
00000250: a8ae 193c 7b95 81be ba41 3cbd 3c29 553c
00000260: 8771 b5be b114 f63d 5811 0b3e f724 39be
00000270: 3d5b 523e 87de 4c3e fbc8 7f3e d3f8 4c3d
00000280: 60cb 543e 8521 14be 61ce 95be 6519 ee3e
00000290: 8542 d9be be87 f5bd 0f1e 30be 3c10 bd3e
000002a0: 55a5 a9be 4da1 44bd e6f1 3c3e 65b0 11bc
000002b0: 16fe 1ebb a3a0 8e3d 55d6 59bc c853 6cbe
000002c0: 780e d73d b74c 1d3d 7da3 6cbc 4d47 42be
000002d0: 5307 713e 7fcd 5bbe 7e63 ddbd 6983 d1bd
000002e0: 1b2d 02be a67a 383e 56b7 b13e 0340 bb3d
000002f0: 8729 babe 55e4 2e3e 0f59 a4be 6a8c 863d
00000300: c907 babd 4e30 513c 4d5e e63e b5fc 99be
00000310: 8964 313e 6a8c 963d 809b d8bd 0680 e73e
00000320: f3e3 e33d 5018 33be 0646 e8bd ec96 08bd
00000330: 48ef 503e 8dd5 83bd 0bed 83be 2b51 ab3e
00000340: 20d3 56bb 9257 073f 3c10 023f d97e c73e
00000350: d2fe 5a3e 3799 13be 040c 863d c453 783d
00000360: 1248 11bc 8fb1 25be 5925 38be 6c3d 3d3e
00000370: 6a30 62be 6c8f 9d3d 23fb 833d cb81 683e
00000380: 4ea0 b33d d258 c43e b7f0 8cbe dd7a c2bd
00000390: 0bde b9bd cb8e 39bd 73ff e6bd 4e07 d0be
000003a0: 8205 933d c92b fcbd b8c7 083f 5901 3abe
000003b0: 8cd2 41bc c1e5 81bd e293 7c3d 3c20 a93d
000003c0: abcd cfbd d530 4c3e a8ef 023e c424 5abc
000003d0: 2a95 3b3d 4fa6 b63e 4641 243d 871f 943e
000003e0: 3a02 46be 955e dbbe 58f9 013d 33ae 953e
000003f0: e308 9d3e 9fe4 87be 2dd4 373e d3ba cc3d
-0.14051417 0.7648604 0.7001462 0.41172197 0.24735963 0.1559515 -0.49846008 0.24941543
-0.14973725 -0.42687094 -0.4833755 0.4603509 -0.13755585 -0.15289694 0.39768407 0.83700997
-0.21766321 0.47376877 0.021137124 -0.2727715 0.4717529 -0.15369038 -0.11865253 -0.15090121
0.18258621 0.16177231 -0.9416089 0.057784528 0.14544804 -0.17168635 0.64555615 0.31873682
-0.5292603 0.37014243 -0.1508663 -0.02680051 -0.08775622 0.02605864 0.35884407 0.105580494
0.12694447 0.15557742 0.1523215 -0.041318126 0.07654736 0.21725781 0.0111702345 -0.24061249
-0.22732022 -0.4220011 0.36042368 0.49765977 0.30066752 0.003478369 0.12105064 0.21156974
0.3107493 0.18773621 -0.18943286 0.123967096 -0.046632588 -0.41335973 -0.23591122 0.28231087
0.031844255 -0.4635184 -0.05232744 0.09309216 0.27850318 0.41121158 0.019056499 -0.6405188
0.34148398 -0.5831829 0.19891961 -0.22430764 0.41393083 0.52736914 0.26914334 -0.055815734
-0.08371153 0.15227485 -0.13716868 -0.22966859 -0.067976885 0.5892109 -0.06443785 -0.49219403
0.10242895 -0.20421922 0.34138873 -0.24214607 -0.24681053 0.5390075 0.19517824 0.53757894
-0.15651876 -0.3325223 0.047290154 -0.34874293 -0.22031352 -0.04653975 -0.010846407 0.21812913
0.15116367 0.17886882 0.25116372 0.13591418 -0.00951525 -0.0574511 -0.3168611 0.29799065
-0.1362024 -0.32124367 -0.48382378 0.5519699 0.34307608 0.5094441 -0.48804617 -0.122632556
0.22046307 -0.16465984 -0.27259874 -0.19406 0.29317272 -0.41525546 -0.3478569 -0.34800032
0.10839562 0.20099185 0.105709046 0.7131876 -0.0696035 0.0817311 0.3876514 -0.24781233
-0.20732522 0.19478977 0.057562783 0.07645351 -0.1128911 0.22925045 -0.19296576 0.1902402
0.31012043 0.012652201 -0.0701561 -0.13235275 0.00938002 -0.25309357 -0.04596112 0.013010319
-0.35438177 0.12015665 0.13580835 -0.18080507 0.20542617 0.20006762 0.24979012 0.050041985
0.20780706 -0.14465912 -0.29259017 0.4650375 -0.42433563 -0.119887814 -0.17198966 0.36926448
-0.3313395 -0.04800539 0.18451652 -0.008892153 -0.0024260334 0.06964233 -0.01329573 -0.23078835
0.105008066 0.03840324 -0.0144432755 -0.18972512 0.2353795 -0.2146511 -0.10809992 -0.102301426
-0.12712519 0.18015537 0.34710187 0.09143069 -0.36359808 0.1707929 -0.32099196 0.065697506
-0.09083516 0.012767864 0.4499382 -0.30075613 0.17323507 0.073510006 -0.10576534 0.45214862
0.11127462 -0.17489743 -0.11341481 -0.033347055 0.20403779 -0.06437216 -0.25766787 0.33460364
-0.003277965 0.52867997 0.5080602 0.38963965 0.21386269 -0.14413916 0.065452605 0.06062676
-0.008867281 -0.16181014 -0.17982997 0.18480462 -0.22088781 0.07693371 0.06444385 0.22705762
0.0877081 0.38349015 -0.275274 -0.094960906 -0.090755545 -0.045302194 -0.11279192 -0.40630573
0.07178785 -0.12313039 0.53429747 -0.18164577 -0.011829983 -0.0634265 0.06166447 0.08258101
-0.1014665 0.19940503 0.12786734 -0.01331443 0.04579655 0.35673758 0.040101312 0.28930303
-0.19336787 -0.42845598 0.031731933 0.29234466 0.30670843 -0.26541612 0.17952032 0.099965714

bias_ih_l0 f4 [52]
00000000: e951 073f 0fa6 b43d 0fbb 8b3c 1620 c73e
00000010: 2037 ba3d db3d 9c3e 2008 bc3e 2a85 99bd
00000020: a711 643e cb70 9e3d c239 5bbd ee14 8f3e
00000030: 9e28 943e ecb7 4dbe abe7 3b3e c7b9 2abd
00000040: 7b2b e83d 1c19 0a3d b7e7 403e 41a1 9f3e
00000050: 216b f2bd 6ad2 18bd 7823 97be 0620 403d
00000060: b364 893e 2fa6 4d3d ff79 123e c071 6ebd
00000070: 7fac 353e b9a5 9fbc d03e 80be 6559 a0bd
00000080: 5bd6 acbd d504 133d d4c3 68bd 0706 27be
00000090: b69e babd 480d bd3e 8957 0c3d 682f 2a3f
000000a0: 4075 633e edf9 5f3e 3a3e 98bd c8ee 4a3e
000000b0: ef75 953c 6bf1 233d 2597 2e3d a0fd 8e3e
000000c0: 0f38 123e 64ee 773e 4cfb b53e afe3 c13e
0.5285936 0.08820736 0.01705697 0.38891667 0.090925455 0.30515942 0.3672495 -0.07496102
0.22272359 0.07736357 -0.05352188 0.27945656 0.28937238 -0.20089692 0.18350093 -0.041681077
0.11336418 0.033715352 0.18838392 0.31177714 -0.118368395 -0.03731004 -0.29519248 0.04690554
0.2683464 0.050207313 0.1430435 -0.05821395 0.17741583 -0.019488202 -0.25047922 -0.07829551
-0.084393226 0.03589328 -0.05682738 -0.16310893 -0.09112303 0.36924195 0.034263168 0.66478586
0.22212696 0.21872683 -0.07433744 0.1981765 0.018244712 0.040025156 0.04262461 0.27927876
0.14279197 0.24212033 0.35543287 0.3786902

bias_hh_l0 f4 [52]
00000000: 54d7 2d3f 5d01 b4bd 7ae8 f63d b121 cd3d
00000010: 506d 1d3e 97b8 213e 6407 ed3e 1db8 ad3e
00000020: ce36 463d 614b 82bc de3e 703e b4e3 fd3d
00000030: 3b38 383e 657c 893e 89be 013d f770 31be
00000040: 775d 893e 5cdc 2f3e b774 a6bd 5ff7 6f3e
00000050: 9329 443d 4d2d a63d 19e4 15bd 2dac 8c3d
00000060: c5be 9b3e 3701 3b3e 11aa 0d3e fd33 4f3e
00000070: 0c3b b1bd ebca 163e 2050 793e 0991 45be
00000080: 78dd 88be f48c 9f3e 34ab 21be 2c2b be3d
00000090: ec0f 86bd 7c9c 3dbd 2877 c03c 4576 af3e
000000a0: 570b 663c 74e5 833d 943e b6bd 88ba c0bd
000000b0: 3efe d83e 587c cf3e 3fdd b33e 3047 093e
000000c0: fc74 c23d 5a4e 7a3e 430e 943d 4675 9c3d
0.6790669 -0.087893225 0.1205606 0.10016192 0.1537373 0.15793072 0.462947 0.3392953
0.04839211 -0.015905084 0.23461482 0.123969465 0.179902 0.26852718 0.03167585 -0.17328249
0.2682912 0.17173904 -0.0812773 0.23434208 0.04789121 0.08114109 -0.036594484 0.068687774
0.30418983 0.18262182 0.13834406 0.20234676 -0.086538404 0.14725845 0.24346972 -0.19293608
-0.26731467 0.31162226 -0.15787965 0.09285578 -0.065460056 -0.046291813 0.023494318 0.3426992
0.01404079 0.06440249 -0.088986546 -0.09410578 0.4238147 0.40524554 0.35129735 0.13406062
0.09494969 0.24443951 0.07229283 0.07639556

weight_ih_l0_reverse f4 [52, 4]
00000000: 222f d63e 2f3c b739 84e3 493d 8736 31be
00000010: ff0d 9fbb 817e 9e3e e64a bcbd f0ba 3b3d
00000020: b5ed 96be 232b 493e ed9f 283f 93fa c0bc
00000030: fe50 ba3e 7ca7 cebe fb7f 38be 7304 eb3e
00000040: 3a80 153f 2880 d13e 60e5 ecbd 1f33 debd
00000050: eb4d b73e 920b b63d 423e 183d 4828 2fbe
00000060: 3f2c 103e 1344 c33d 30f1 f03d 0b65 00be
00000070: a862 64be 663a 9ebe 4ed5 c63e 9f89 bc3d
00000080: 9e0a 44bd 66b0 f6bd 1da1 113d 9211 703e
00000090: fabf 1cbc 55e5 083f 7ffa b53b 49ba d13e
000000a0: c1a2 d13e a86c 2dbe ceda 413c 52c2 bebe
000000b0: 4102 ca3e b5ae a6be 33b2 abbe 8505 60bd
000000c0: da59 b03e 8658 a93e ebd2 b3bd cd35 cc3d
000000d0: 846e 8a3e c70d 863e 6aba 923e 6f7b b3be
000000e0: d19f 853d 4acd ad3e f305 eabb a364 24be
000000f0: 23f1 89be 09d1 12be 524f be3e 946e 113f
00000100: 795a 163f e5df 16bf 2013 afbd 7bd0 1d3e
00000110: dcab 5abe aaa1 46bc fa7c b13e fc57 8c3e
00000120: 1847 9b3e 2334 abbe 053d 8abd 6c51 e33e
00000130: 7b89 0f3e 544f 6f3e 89e3 8a3d d27e 1dbe
00000140: 83eb a23e e144 143d b9ed f53e 361a 803d
00000150: 2c7f 78be 3907 403c 7d40 0bbe 6fa1 cbbe
00000160: 13c7 f9be 138c 213f 0e54 1dbf 8062 dcbc
00000170: ee0d 583e 7cb3 fdbe a940 8b3d 9708 eebe
00000180: b79d 123e c202 003e 080a 90be 162f 0bbf
00000190: d9a5 c7be 0263 be3e 33f9 ccbe 7a70 953e
000001a0: df17 81be 7637 fe3d 2db7 90bc 0177 813e
000001b0: 5f1e b13d d689 0e3f 11a5 febe 3d73 b83e
000001c0: 4b3a 043e a6a1 c93d 6064 63bf aa7e b9be
000001d0: 5e00 26be b4c9 4d3e 3e90 1a3e fc3f 28bf
000001e0: b695 99be 121b 183e 426e 7b3e b8fc 5d3d
000001f0: ecf4 a63d 77d0 823e 848e ce3d 153f ebbe
00000200: 6aca a7be 419f 873e aa0b a3be 2433 343d
00000210: 5112 7ebe bcd2 b8bc 9cff 343e 7d08 9d3d
00000220: 138e 18bd 01c6 f83e 0abb 88be b667 2a3e
00000230: 6965 f1be 3de9 163f bf02 e23d 8615 2fbe
00000240: 8189 b5bd 5863 5c3e fb16 13bf fb4e 923b
00000250: bb2e 9abe 759e 053f 32a0 22bd 8c30 c63d
00000260: 5d25 8b3e 527c 27be 1790 bbbd ac21 8fbe
00000270: 6dba cd3e fb75 8d3e 99a9 993e 7916 063d
00000280: da89 dc3d f822 bb3e 39bc 88be 38da 353e
00000290: d393 99be 399a 023f c7f0 463f 978c 2cbe
000002a0: 982f 003f 6072 c8be 7cdd 6dbf 4e7b eb3e
000002b0: 7c84 d9bd ebde 513e a5a3 9bbe dab3 09bd
000002c0: 4457 0b3f ddb4 b7be 2426 f43e d066 3bbe
000002d0: 77a9 84be c793 ba3e fc47 493e 21d9 213e
000002e0: cb8f e4bd 0e74 4fbf 3eaf cd3e c12e 413e
000002f0: 38e4 82be 295b 043f d898 cd3d a259 0b3e
00000300: cb54 213e d568 913f f9b3 cebe 897a edbe
00000310: 94a4 803d 0b4c 253e 87bb 873e e28a 61bd
00000320: e738 d43e d020 f7be e0d1 693d 7b60 0fbe
00000330: bb86 a93e 9304 953d fadc 823e a413 1b3f
0.41832834 0.0003494932 0.04928924 -0.17305957 -0.0048539634 0.3095589 -0.09193973 0.045832574
-0.2947823 0.19645362 0.6586903 -0.023556983 0.36389917 -0.40362155 -0.1801757 0.45901832
0.58398783 0.40918088 -0.11567187 -0.10849594 0.35801634 0.088889256 0.03716875 -0.1710521
0.14079379 0.095344685 0.11764753 -0.12538545 -0.2230326 -0.3090393 0.38834614 0.09205937
-0.047861688 -0.12045364 0.03555404 0.23444203 -0.009567255 0.5347493 0.005553543 0.40962437
0.40944484 -0.1693598 0.011831952 -0.3725763 0.39454845 -0.32555166 -0.33534393 -0.054692764
0.3444355 0.3307535 -0.08780464 0.09971199 0.27037442 0.26182386 0.28657848 -0.3505511
0.06524623 0.33945686 -0.0071418225 -0.16054015 -0.26941785 -0.14337553 0.37169892 0.56809354
0.587318 -0.58935386 -0.0854857 0.1541156 -0.21354622 -0.012123505 0.34665662 0.27410877
0.30327678 -0.33438215 -0.0674992 0.44398057 0.14017288 0.23370105 0.0678168 -0.1538041
0.31820306 0.0361985 0.4803293 0.06254999 -0.24267262 0.011720472 -0.13598819 -0.39771602
-0.48784694 0.6310436 -0.6145638 -0.026902437 0.21099064 -0.49550998 0.06799442 -0.4649093
0.14317976 0.12501052 -0.28132653 -0.5436872 -0.3899372 0.37184912 -0.40033874 0.29187375
-0.25213525 0.12412922 -0.01766547 0.25286105 0.08648371 0.5567907 -0.4973531 0.3602542
0.12912862 0.09845285 -0.88825035 -0.3622945 -0.16211078 0.20096475 0.15094087 -0.6572263
-0.29997033 0.14854077 0.24553779 0.05419609 0.08152184 0.2554967 0.100857764 -0.45946565
-0.32771617 0.2648869 -0.31844836 0.043994084 -0.24811675 -0.022561423 0.17675632 0.07667635
-0.037244868 0.48588565 -0.267052 0.16641125 -0.47147682 0.58949643 0.1103568 -0.17098054
-0.088641174 0.21522272 -0.5745694 0.0044649816 -0.30113778 0.5219491 -0.039703555 0.09677228
0.27176943 -0.16356018 -0.09158342 -0.27955377 0.40181294 0.27629074 0.30012205 0.032736275
0.107684806 0.36550117 -0.26706102 0.17759025 -0.29995593 0.51016575 0.7771115 -0.16850506
0.5007262 -0.3914976 -0.92916083 0.45992512 -0.106209725 0.20495193 -0.30398288 -0.033618785
0.5443003 -0.35880175 0.4768535 -0.18300939 -0.2591054 0.3644087 0.19656366 0.15805484
-0.11160239 -0.8103646 0.40172762 0.18865491 -0.25564742 0.517016 0.10038918 0.13608411
0.15755002 1.1360117 -0.40371683 -0.4638255 0.06281391 0.1614229 0.2651026 -0.05506409
0.41449663 -0.4826722 0.057084918 -0.14001648 0.33110604 0.07276263 0.25559217 0.60576844

weight_hh_l0_reverse f4 [52, 13]
00000000: bb49 bcbe 3fa5 563c 9ae3 ce3e c969 59be
00000010: 32d9 0d3d 8549 fabd 23b1 bbbd c063 a8bd
00000020: 594b 243e ffc7 373d 4af9 dc3c 6feb c1bd
00000030: fd16 26be 40b1 0cbf 6396 ad3e 2b59 10bf
00000040: eaf7 d0be ebf5 2c3f ebaa adbe 06a3 dcbe
00000050: 60b2 fd3e 8e51 9f3e e07a 3f3e 0fa8 09bf
00000060: 08fd a3be 7da2 82be ddba edbe 33d7 b23e
00000070: b23b 91be 5550 af3c 4e08 343e ae64 a7be
00000080: 29bb 55be 90a0 b73c 14e9 8b3d 93d9 23bc
00000090: de6e e2be fa61 c5be 87d2 2f3d b16f e13d
000000a0: 8280 1e3e 36fd d5be 9d77 e8be f881 00bc
000000b0: 1476 243d 896b 25be 65fb 423e b4bb 363e
000000c0: 04a4 8a3d 4e26 fe3d 169f 9fbe 9ef6 06be
000000d0: 7a3b f5bd 24df ae3e 5295 d1be 93b6 3dbe
000000e0: 8144 bd3e d3a1 b6bd 8370 a8be 4dac 6f3e
000000f0: 206e 603e f95c 6d3d 1c27 59be 0767 c5be
00000100: 47fc 0c3e e4fc 8dbe 7d5e d13e 850f d53e
00000110: ca6f 28be edfe e23c 1a89 a83c 82eb 3cbe
00000120: 8b25 c03e 0dc9 54be a2f4 65bd 39c3 ffbd
00000130: 4af4 63bd 1321 34be 9193 01be 7dd0 c23c
00000140: aea2 c9bd d5a2 97bd 8cdb da3e a92a 11be
00000150: 93ec 8ebe 051f 9abd 074b 363f 12b4 c13e
00000160: 863c 43be c6cd 5d3d 3efc 19be a276 32be
00000170: d6e4 323e d08d b7bd 741b a8be d241 0a3e
00000180: 1837 b2bd 122c 8c3d 1f15 ed3e f9e8 053e
00000190: af37 883e 7426 613e 608f b1bd 49a4 f9be
000001a0: 2f38 0bbd 8ec3 2e3e eb08 6cbe 621b 2b3d
000001b0: 3aac efbd 930b ce3d e3c1 38be 69df 44be
000001c0: bacf 923e b13e 97be 3571 a53d 2186 c6be
000001d0: 64ec 09be b186 47bf 6741 f43e d00d f5be
000001e0: ae73 8cbe 49a0 d63e 1191 c1be d590 cebe
000001f0: 7ee5 dd3e 4306 173f cfd8 da3e 5f7a 1bbf
00000200: 3aa8 06bf 7a4c c9be 7697 0dbc e0ca e03e
00000210: 8685 aebd 8347 29bd 0be0 1cbe 66c7 9cbe
00000220: ec27 4dbe 2ac0 3c3d 69e4 d93e d55d 773e
00000230: 052c cb3d 2411 5bbe b09f 723d 9e3b 08be
00000240: 91d1 84bc 77c1 163e 769d 13bc 6a36 ba3d
00000250: 751f 733e 2c11 b4be 234f 923d f8f7 b8bb
00000260: 1b26 d63d 46a6 cebe e135 f73d dd11 d0be
00000270: 4f47 46bc 40fa 253c a446 29bf b446 b6be
00000280: 0efb 2b3e a2a6 07be f7f1 a8be 44e9 7f3c
00000290: e9a6 c73e 1083 2cbe b738 73be d729 93be
000002a0: 7037 a7be bdcf 95bc ab05 1e3e 9727 10be
000002b0: 2391 493e 3c94 1f3e b27c 6abe 44d5 ee3c
000002c0: cd70 893e 1d37 2a3e 3a6e 713d e946 f33d
000002d0: 8e71 9dbe 4adb 9fbe 0775 e4bd 6577 3b3e
000002e0: 99eb bdbe 709b a43e e49c 76bd d229 073e
000002f0: 0a8f 1fbe 1975 b2bd 85cc 503e b08e 963e
00000300: 2239 933d d967 5bbe 9a52 97bd d38f 363e
00000310: cde5 bb3e 97c5 f13d 094b a7be 9c65 e83d
00000320: 907a 413e 03dd 833d 849a 593d bac8 163e
00000330: ded3 c03e 32fb 163d eb0f a23e d7d4 2abe
00000340: f217 f03d d76d 863d 259f bcbd 0e88 133d
00000350: 3350 8f3e c12c eb3c 388d c1be c977 053e
00000360: 8d9a 743e 7889 fbbc 54d6 e5bd 1643 5bbe
00000370: 113c 85be 2664 663e b025 e1bd 6c15 e8be
00000380: 4edc ebbc 927b 6b3d d1f3 dbbe 44ee c7be
00000390: 789a 2f3e 5045 853c aced bc3c aaed a7be
000003a0: 1ee2 8b3d fafc 0a3e 9b9c 5bbe f5da aa3e
000003b0: 1514 15be 0928 02be 5dff 48be 8c28 3f3e
000003c0: 9ec1 df3d 8b6f f23e ab74 8b3c bcd7 a5bd
000003d0: f283 423e 267c 8bbb 41aa b7be 6f83 283e
000003e0: 39cc 223f 3479 bdbe 97e4 11bb 5a38 cc3e
000003f0: 7b73 6a3e 2fa0 67be afb1 253e 7299 213e
-0.36775002 0.013100921 0.4040802 -0.2123176 0.03463096 -0.12221054 -0.091646455 -0.08222151
0.16044368 0.044868466 0.026974339 -0.094687335 -0.16219707 -0.5495796 0.33903798 -0.5638606
-0.40814143 0.6756274 -0.33919463 -0.43093127 0.49550152 0.3111691 0.18699217 -0.5377206
-0.32028985 -0.25514594 -0.46431628 0.3492981 -0.28365856 0.02140061 0.17581293 -0.32694
-0.20872177 0.02241543 0.068315655 -0.010000604 -0.4422521 -0.38551313 0.042925384 0.110076316
0.1547871 -0.41794747 -0.45403758 -0.007843487 0.04015167 -0.16154303 0.19041212 0.1784504
0.06769565 0.1240965 -0.3117606 -0.13180014 -0.11974235 0.34154618 -0.40934235 -0.18526678
0.36966327 -0.08917584 -0.3289834 0.23405571 0.2191701 0.057949994 -0.21206325 -0.38555166
0.13768111 -0.27732003 0.408924 0.41613403 -0.16448894 0.027709449 0.020573188 -0.18449214
0.37528643 -0.2077982 -0.056141503 -0.12488408 -0.055652894 -0.17590742 -0.12653948 0.023781056
-0.09845482 -0.074041046 0.42745626 -0.1417643 -0.27914867 -0.07525448 0.7120823 0.37832695
-0.19066057 0.05415132 -0.15037629 -0.17428067 0.17470106 -0.089625955 -0.32833445 0.13501671
-0.087019145 0.06844343 0.46305177 0.13077153 0.26604983 0.21987325 -0.08669925 -0.48758152
-0.033989128 0.17066786 -0.23050277 0.04177416 -0.117027715 0.10060801 -0.18042712 -0.19225849
0.28674108 -0.29540017 0.08078233 -0.38774207 -0.13469082 -0.779399 0.47706148 -0.478621
-0.27432007 0.41919163 -0.3780599 -0.40344873 0.4333915 0.5899393 0.42743537 -0.607336
-0.52600443 -0.3931616 -0.008642068 0.4390478 -0.08521561 -0.041327965 -0.1531984 -0.3062088
-0.2003476 0.0460817 0.42557076 0.24156888 0.099205054 -0.21393257 0.05923432 -0.13303992
-0.01621321 0.14722238 -0.00900971 0.0909241 0.23742469 -0.3516935 0.071440004 -0.0056447946
0.10456487 -0.40361232 0.120708235 -0.4063863 -0.012101962 0.010130465 -0.66123414 -0.35600817
0.16794989 -0.13247159 -0.32997105 0.01561958 0.3899453 -0.16846871 -0.23752104 -0.2874286
-0.32659483 -0.018287534 0.1543185 -0.14077602 0.19684272 0.1558389 -0.2289913 0.029154427
0.26843873 0.16622587 0.05894301 0.118787594 -0.30750698 -0.31221992 -0.11155134 0.18307264
-0.3709381 0.3214984 -0.060208216 0.13199547 -0.15581909 -0.08713741 0.20390518 0.29405737
0.071886316 -0.21426333 -0.07388802 0.17828302 0.36698762 0.118052654 -0.32674435 0.113475055
0.1889441 0.06438639 0.053125873 0.14725009 0.37661642 0.036860652 0.3165277 -0.16682754
0.11723317 0.06563919 -0.09210042 0.036018424 0.27990875 0.028707864 -0.37803054 0.13033976
0.23887081 -0.030705199 -0.112225205 -0.2141231 -0.2602239 0.22499141 -0.109935164 -0.45328844
-0.028791573 0.057490893 -0.42959455 -0.3904897 0.17148769 0.016268402 0.02306255 -0.3279851
0.06830238 0.13573065 -0.21446459 0.33370176 -0.14558442 -0.12710585 -0.19628663 0.18667811
0.109256014 0.47350726 0.017023405 -0.08097789 0.18995646 -0.004256743 -0.3587208 0.16456388
0.6359287 -0.37006533 -0.0022261494 0.39886743 0.22895615 -0.22619699 0.16181062 0.15781191

bias_ih_l0_reverse f4 [52]
00000000: 2ee5 db3d 5c89 143f 4688 d83e c16f 7a3d
00000010: c016 c7bd 3b71 65bd aec0 903e 1a9c 943e
00000020: 57e8 58bd 099b 203f ee13 643e 615a 60bd
00000030: 4822 c73e 8528 5e3e ba7d 22bd 9314 983d
00000040: 068e cbbd 2248 d63d 14e1 663e 1bb0 853e
00000050: 02a5 333e 3abf e53d e167 d6bd 62d7 453e
00000060: 6319 b2bd a595 7b3e 47e6 62be b3f3 7c3e
00000070: fe28 22bd 3e1b 92be 8b5a f13b 6385 9cbe
00000080: 2b4e b5bd 931c 8f3e 1f7a 513e cf4d 6a3d
00000090: 958f fbbd c263 50be 6aa4 173e 52df 8f3e
000000a0: d6c3 093f ef26 c83c c9f3 133c fe44 bf3e
000000b0: 4b4d e8bc 511d 563d 1e4d 21be f6e7 f8bd
000000c0: 9b0a 7d3e 3f45 fb3e 02d0 1d3e a061 51bc
0.10737072 0.58022094 0.42291468 0.061141733 -0.09721136 -0.056016188 0.28272003 0.29025346
-0.05295595 0.62736565 0.22273228 -0.054773692 0.38893342 0.21695144 -0.039670683 0.07425799
-0.09939198 0.10462977 0.22546798 0.2611092 0.17543414 0.11218114 -0.10469032 0.19320443
-0.086962484 0.24568804 -0.22158156 0.24702339 -0.039589874 -0.2853641 0.00736553 -0.30570516
-0.088528 0.27951488 0.20456742 0.05720311 -0.122832455 -0.20350555 0.14808813 0.28100067
0.53814447 0.024432627 0.009030291 0.37357324 -0.028357169 0.052274052 -0.15752074 -0.12153618
0.24711077 0.49076268 0.1541138 -0.012779623

bias_hh_l0_reverse f4 [52]
00000000: 8297 a2bd d019 563e 5d4e 2ebd ce67 513e
00000010: f8ca a83e b959 3b3e 49d3 8b3e fc2a 8d3e
00000020: f13d 003d 23ad 3c3f 63d1 9a3e ba3a 94bd
00000030: ac71 3dbc d056 9c3e 0e28 663e 873c 3dbd
00000040: 62a4 003c 25ff 9b3b 4ada 6fbd b208 05bc
00000050: 0eea c23e 79f3 893e a227 fcba 5866 473e
00000060: 8de5 413d 7387 843c df5e 86be 4b73 313e
00000070: 71d8 00be 23d6 973d 9e1f 833e 2648 63be
00000080: be2f 01bd e153 8e3e ba87 943e a4e9 9e3d
00000090: 2508 b1bd 7438 53bd e4bb 86be 3067 bebb
000000a0: 9041 bd3e 7831 913e 115c 5abd 3442 1e3e
000000b0: b183 85bd e3a0 663e d65b 2a3e aa1c e43d
000000c0: ce35 8c3e 1b18 e23e f309 813e 8f16 123d
-0.07939054 0.20908284 -0.0425552 0.20449755 0.32967353 0.18295945 0.27309635 0.27571857
0.031309072 0.73701686 0.30237874 -0.07237764 -0.011562746 0.30534983 0.22476217 -0.0462003
0.007851692 0.00476064 -0.058557786 -0.008119749 0.38069195 0.26943567 -0.0019237886 0.19472635
0.047338057 0.016177868 -0.26244256 0.17329137 -0.12582566 0.0741389 0.2561006 -0.22195491
-0.03153967 0.2779837 0.290098 0.07759407 -0.086441316 -0.05156751 -0.26315224 -0.0058106408
0.36964083 0.28358054 -0.053310458 0.15454942 -0.06519259 0.22522311 0.16636595 0.1113828
0.273848 0.44159016 0.25202903 0.035666045

weight f4 [16, 260]
00000000: f071 c23d b051 3b3d b5bb 57be 8e26 4f3d
00000010: bfe5 d4bd 5ce2 a7bd c9a6 49bd 67d2 8fbd
00000020: 3606 303d 2c05 22bd 3a66 823e 11f8 e73d
00000030: 34f6 8ebd 2ee0 9fbc 043f 993d 9e46 c0bd
00000040: dbdb df3b d4cb 43bc e6e8 e73c 1005 943d
00000050: 40c3 b83d 65d1 3d3d 872e d03e 0b10 90bd
00000060: c017 ccbd 78b1 42be 1a5b f63d ad01 96bd
00000070: 99f4 113e 4d68 bb3d db15 87be 77b1 4fbe
00000080: 0a96 9d3d 27da 703d d72d d43d 8aba 8cbe
00000090: 9f0e 1a3b 8117 3a3d f19d bdbd 4307 9fbd
000000a0: 8dcb e1bc 8cf4 093e dea7 bbbd 6280 a33d
000000b0: 533f 053d bd1c f8bb 2d78 1dbc 3904 e33d
000000c0: 0e83 743e 48e5 2abd fb2a b2bd 571d c9bb
000000d0: 7bc9 34be 1577 e2be 3d73 49be 30e3 90bc
000000e0: 8f6e 703e a6a9 9a3e 5f96 bd3d 2edc 083e
000000f0: 3e6f 043e e1d2 183e c3d5 e83d 57af f03d
00000100: 4d0c 04be 533c d6bd 0f1e c0bd 3c1f d73c
00000110: 9ff6 393e 54d0 d43d 47e7 88bd 6ecd 4dbd
00000120: 6953 d53a c0cd 9e3d e4a2 cb3d 5a5a 03be
00000130: d0ed a3bd 043a 5fbc 51df bf3d f34e 573e
00000140: bcfa a13e 64fc da3d 4b62 52be 6643 75be
00000150: 88eb f2bc e14c 2fbd 5f0e b2bd f9ea 8fbd
00000160: 36cf 453e c7c4 bebc 4e49 31be ed58 82bd
00000170: 030a d03d bf78 853d 15aa 45be e6b1 db3c
00000180: c7bf d33c 6033 3f3d 5798 803d c06c e43d
00000190: 1069 6b3e 3dda 933d e276 013d 98a1 0cbe
000001a0: fb6a d23d ab62 1bbe 28c5 a13d aa48 493d
000001b0: 8df6 b13d 8863 123e 494c 573d 9bc8 66bc
000001c0: c262 993d 8e6d a2bd 6279 073e afe3 33be
000001d0: 5f15 08bd c036 14bd 235f 5dbd 3f48 00bd
000001e0: 6b54 203e bd07 37bd 24e3 8cbe 5e63 9f3d
000001f0: 0344 8d3e 3f2e fbbc 0900 b13a 5982 99bd
00000200: 3a00 423d 9291 993c 9941 be3c 94ff eabd
00000210: cb9f 8bbd 3126 6cbd 91f6 d13d 6853 99bd
00000220: d743 c23d dbb2 8dbd 23ff 8a3d 5a93 0bbe
00000230: 09da 0e3e f2ff b6bc 4d2b 74bd 2191 0abe
00000240: 8705 4f3d cac1 383d 708d a63c 9d17 debd
00000250: d5c4 00be 9532 bc3b 1976 73bd a5b6 73bd
00000260: 58b1 00be 1721 8dbd 7ba3 803d 16b6 74bd
00000270: 5bd5 843e cf6b 05bd ade4 46bc 9955 c43d
00000280: 90a6 863e f7a5 f6bd 8b27 d7bd de5e bebd
00000290: 05ed 5b3e baa2 69be 6a81 8b3d 0c55 d23d
000002a0: 326e b03d 8030 4abd 69f9 423e f8a1 4e3e
000002b0: 1d9d 9bbd dea5 4a3d da63 f33b b702 c6bd
000002c0: 664f c6bd 6ef0 a43d 6d3a 853e 26ff 483e
000002d0: 77b7 a03d 5f2d 2abe df3f 8b3e c6bf ad3d
000002e0: 38d6 e7bc eb08 d03e 3614 46be c736 75be
000002f0: da9b 09be b33d e0bd 8ac9 9c3c 0fa7 3dbe
00000300: e8a2 203e 9c76 e83d 7981 60bd fcbc 08be
00000310: efbe c73d ccdd 313d a91f 6abd 4c7c 053c
00000320: ac5a 3abd 17d3 20be 2531 883c a6aa 353e
00000330: d371 b9bb f8c4 cdbc 67b9 39bb 9a62 993b
00000340: 23b0 973c fb52 b2bd eea7 d63c 1894 1fbc
00000350: 388b e33d 9753 b2bc 483d b3bd fcc8 333d
00000360: bf82 0fbe bf8f 003d 23b1 a03c 14c8 803e
00000370: 2a1f 333e ce79 28be f7cf 56be 6964 85bd
00000380: 5f2e 203e dad7 02be 97f1 19bd 85b1 58bd
00000390: 0082 103d 424c 0e3d 7941 67be aec1 81be
000003a0: cf11 93be 4523 543e 9c09 263e cc4b dd3c
000003b0: 931b 14be 9c15 64be f741 073e cb31 20be
000003c0: 4d3a a6bd 2e7c 1f3e f588 5cbe ecd8 a5bd
000003d0: 1e66 14bd cfc5 1dbe 3912 b93d 3d95 78bd
000003e0: 7bee 083e 445a 92bd 89cf 72be eb14 983d
000003f0: a9a6 5dbe 3fec 703d ce29 1b3e 4d10 f93d
0.09494388 0.0457322 -0.21067698 0.050573878 -0.10395383 -0.081974715 -0.049231324 -0.07022553
0.042974673 -0.039555714 0.25468618 0.11326612 -0.06980553 -0.019516077 0.074827224 -0.09388469
0.0068316287 -0.011950452 0.028309297 0.07227528 0.09021616 0.046342272 0.40660498 -0.0703431
-0.099654675 -0.19013011 0.12029095 -0.073245384 0.14253463 0.09150753 -0.26383862 -0.20282541
0.07694633 0.058801796 0.10360306 -0.27486068 0.002350725 0.04543257 -0.092586406 -0.07765057
-0.02756288 0.13472193 -0.091628775 0.079834715 0.032531094 -0.0075717852 -0.009611172 0.1108479
0.23878118 -0.041722566 -0.08699604 -0.006137531 -0.17654984 -0.44231477 -0.19672866 -0.017686456
0.23479675 0.30207556 0.09257197 0.13365242 0.1293306 0.14924194 0.11368897 0.117521934
-0.12895317 -0.10460725 -0.09380733 0.02626001 0.18160485 0.10391298 -0.06684738 -0.05024474
0.0016275469 0.077540874 0.09943178 -0.12827435 -0.080043435 -0.013624672 0.09368766 0.2102621
0.31636608 0.10692671 -0.20545308 -0.23951492 -0.029653326 -0.042797927 -0.08694147 -0.07027239
0.19317326 -0.02328719 -0.1731312 -0.063646175 0.101581596 0.06517171 -0.19303162 0.026818227
0.025848283 0.046679854 0.062790565 0.11153555 0.22989297 0.0721936 0.031607516 -0.13733518
0.10274311 -0.15174358 0.07898933 0.049141563 0.08689604 0.1429578 0.052562986 -0.014085914
0.0748954 -0.07931052 0.13229898 -0.17567323 -0.033223506 -0.036185026 -0.054045808 -0.0313189
0.15657203 -0.044685114 -0.27517045 0.07782625 0.2759095 -0.0306617 0.0013504039 -0.07495565
0.047363497 0.018746171 0.023224639 -0.11474529 -0.068175875 -0.05765361 0.10252107 -0.074866116
0.09485596 -0.069188796 0.06786945 -0.13630429 0.13950361 -0.022338841 -0.059611607 -0.13531925
0.05054238 0.045106687 0.020331115 -0.108443476 -0.12575085 0.0057433345 -0.0594388 -0.059500355
-0.12567651 -0.06891077 0.062811814 -0.059743963 0.25944027 -0.032573517 -0.0121394815 0.09586639
0.26298952 -0.12043374 -0.10505589 -0.09295438 0.21477135 -0.22815982 0.06811793 0.10270128
0.08614768 -0.04936266 0.19040455 0.20178974 -0.07598326 0.04947459 0.0074276747 -0.096684866
-0.09683113 0.08053671 0.26021138 0.19628581 0.07847493 -0.1661887 0.27197167 0.084838435
-0.02830039 0.40631804 -0.19343647 -0.23946677 -0.13438359 -0.10949268 0.01913907 -0.18520759
0.15687144 0.11350748 -0.054810975 -0.13353342 0.097532146 0.043424413 -0.0571591 0.00814731
-0.045496628 -0.15705524 0.016624996 0.17740878 -0.005659321 -0.025118336 -0.0028339268 0.0046809437
0.018516606 -0.087072335 0.026203122 -0.009739898 0.11110538 -0.021768374 -0.08751923 0.043892846
-0.1401472 0.031387087 0.019615715 0.25152647 0.17492357 -0.16452715 -0.2097777 -0.06513292
0.15642689 -0.12777653 -0.037583914 -0.05290367 0.035280228 0.034740694 -0.2258357 -0.25343078
-0.28724524 0.2071658 0.16214603 0.027013682 -0.14463644 -0.22273868 0.13208757 -0.15643995
-0.08116589 0.15574715 -0.2153662 -0.08098015 -0.0362302 -0.15407489 0.09036679 -0.0606892
0.13372223 -0.07146123 -0.23711981 0.07425865 -0.21645607 0.05881905 0.15152666 0.12161312

bias f4 [16]
00000000: 5a96 febb 9453 893c f084 36bc bd9b 67bc
00000010: 2908 15bb 5177 50bd c622 343d 7e09 40bd
00000020: dfe7 633d af85 5ebd 66df 6a3d 8650 a33d
00000030: 2a58 06bd 3bc8 33bd 06d0 00bb e971 a73d
-0.007769388 0.016763486 -0.011140093 -0.014136252 -0.002274046 -0.05089504 0.043978475 -0.046884052
0.05564105 -0.05432671 0.057341956 0.07974343 -0.032798924 -0.043892127 -0.0019655242 0.081760235

weight f4 [19, 16]
00000000: 096f 053f 2e89 c2be c5e1 35bd 9ed4 063e
00000010: 774d 5b3e 8de8 00bd 59ed 8abe f461 9e3c
00000020: dfce acbd 018b 7e3e 8602 323e 3af5 473e
00000030: 97b7 653e eb01 57bd 803e 013e afa5 5cbe
00000040: 17f4 503e 7a35 673e 4250 6b3e 6d64 88be
00000050: 7675 00be fcfa 8fbe ef93 e6bd 663b 4ebe
00000060: 5208 07bf f81a 8ebe c4ff ee3e 11bf 7c3e
00000070: deb4 12bf 1b5b 1c3d 7996 09be ef3d 693e
00000080: 808b 9cbb fb7c 423c 5b12 33bd 3f5a 51be
00000090: 525b 3fbd 5961 c4bc 2db1 043c b91e 333d
000000a0: 89fa a23c 6278 603e b25d a6bc 2f2c b7bc
000000b0: 7ee2 89bb 4d98 d2bc 8de3 b7be 14a8 9cbb
000000c0: 70cb 28be 664e 87bd 9f5b 2fbd fa9a a13d
000000d0: 67e6 593e ceb0 4d3e 0e44 3bbd 3c28 a4be
000000e0: 1c40 933e 3db4 733e 1ac4 acbb 7e79 b6bd
000000f0: a242 e3bd 6cbe 0e3e b0a1 2f3e 5d7b 3c3d
00000100: 9242 8e3d 6ccd 04bf 8680 583e bacf e13d
00000110: e0d6 01bd 0287 03bf 3625 053f 6816 8c3d
00000120: c9f0 b23d 4e39 01be 09c4 c93e 1b4b 2dbd
00000130: d9fd 1abe f7dd 9bbe 7b0d 003f e492 dbbd
00000140: 7ba8 d13c 71b1 9abb 5827 c53d f32a 1cbe
00000150: 4d50 a63e 282a 653c 71e3 863c b949 1d3d
00000160: 53fc 373b 137d 58bd 1307 f93c 9052 b53c
00000170: 100b 853c 84a5 82be 3b43 343e 2b97 9a3c
00000180: 8ea7 8a3c 583a c3bb ebbd 5abe a349 85be
00000190: 0452 ac3e 135c fa3d af73 96bb 83c4 b33d
000001a0: 3089 023d 3bcd 693e c3c4 ab3b 4ec6 b6bb
000001b0: 7f5f b93b 76cd b73d b47d b9be e1a4 193c
000001c0: 4e75 e0bc c02b a7bc b5fe 33bd bbc5 783d
000001d0: ae61 83be 2cca 343d 611f 53bc bfd2 c5bb
000001e0: b6dd 4c3d 8533 c73e b2ef 163b 7b6d 85bc
000001f0: 6e3e 15bd 8742 903c a5c6 8ebe 2fb0 303a
00000200: 3e90 67bb efa6 71ba 4f86 183e 243a b03e
00000210: 4e52 80be c227 a0bd efe0 24bb 5907 b33d
00000220: a964 a9bc 89a3 e5be 8e74 15bc 38c1 99ba
00000230: c187 67bc fcc4 43be fdb5 943e 60cc 6bbb
00000240: 9ca2 53bd cfc2 2abc d38b 26bf 1d62 23be
00000250: 1405 263e 7dea 04be bff0 c8bc 3da2 9e3e
00000260: 2ca7 d43d 9850 cabe 6c3f c4bc aa76 2bbd
00000270: b496 3fbd 41a7 f8bd 23fd 083e 00bd 9cb9
00000280: ac5e 8f3b 3f50 b6bc 994b ab3d b548 d8bb
00000290: b146 a73e ebd7 af3d 738d 0cbd 4af5 53be
000002a0: 6cf0 a8bc 6584 a63e 2df6 623d a473 133d
000002b0: f625 13bd 5f8f 0dbd af61 913e 6144 b7bb
000002c0: 168f 2a3e 99c8 633e 82bd 553e 51aa a8be
000002d0: 281e 333e 486e c5be e5c1 c9be df96 a7bc
000002e0: eb22 663d fa3a 4d3d c731 943e 86f2 54be
000002f0: 69a0 c43e 3b59 7dbd f35c cdbc b17a b9be
00000300: 38af a2bd 80a0 49be 4d58 f8be 4f66 62be
00000310: 66a1 2cbd edfb 75be 33b7 b5be 3352 913e
00000320: 090d 13be 9563 933d 0b1b 8ebe 0896 3b3f
00000330: bbf4 6c3e 7587 373e ac32 da3c 6a5a 863e
00000340: 4966 b3bd c254 3dbc b159 37be dd55 683e
00000350: e4a3 853d 8884 a0be da6b 66bc 1ce9 973e
00000360: fb7b 113e b9ce 68be f458 4ebd f818 4abd
00000370: 11de 22be 531f 3d3e 9668 0dbe bfb1 90bc
00000380: cc94 fe3e 32a3 763c 14ac 9d3b 284a 033e
00000390: 194d 03be 4a01 a13b 3522 9ebe 1ba5 eb3c
000003a0: 7326 fb3e da3e f3be c9d9 21bf b8fb 82be
000003b0: 84b5 9abe 17ac e33d 41cd 07be eafc 583e
000003c0: 2e31 48be a566 343d 50bd 3abe a80e 5dbe
000003d0: c414 5ebe 7f4d 0d3e 31ae 9a3d b0ed 243e
000003e0: 61cf 053f cdd3 91bd 7bd7 023e f675 0b3f
000003f0: 6b32 49bf 04e3 203f 4a1e 213d a86f b2be
0.5212255 -0.37995285 -0.044404764 0.13167045 0.21416269 -0.031471778 -0.27134207 0.019333817
-0.08437895 0.24857713 0.17383775 0.1952714 0.22433315 -0.052492063 0.12621498 -0.21547578
0.20405613 0.22578993 0.22979835 -0.2663912 -0.12544808 -0.28121173 -0.11258685 -0.20139846
-0.5274707 -0.2775495 0.4667951 0.24682261 -0.5730723 0.038172822 -0.13436307 0.22777532
-0.004777372 0.011870618 -0.043718677 -0.20444582 -0.04671795 -0.0239722 0.008098883 0.04373047
0.019894855 0.21920922 -0.02030835 -0.022359936 -0.004207908 -0.025707388 -0.35915795 -0.0047807787
-0.16483855 -0.0660675 -0.042811986 0.078908876 0.21279298 0.20086977 -0.0457192 -0.32061946
0.2875985 0.23799224 -0.0052724006 -0.089098915 -0.110966936 0.13939828 0.17151523 0.046016086
0.06946291 -0.5187595 0.21142778 0.11025949 -0.03169906 -0.5137788 0.52009904 0.06840211
0.087373324 -0.12619516 0.39407375 -0.042307954 -0.15135898 -0.30442783 0.5002057 -0.107213765
0.025593033 -0.0047208597 0.09626645 -0.15250759 0.3248314 0.013987102 0.016465874 0.038400386
0.002807398 -0.052853655 0.030398881 0.022134095 0.016240627 -0.25516903 0.17603771 0.01887091
0.0169256 -0.005957883 -0.2136151 -0.26032743 0.33656323 0.12224593 -0.0045914273 0.08777716
0.031869113 0.22832195 0.0052419617 -0.005577839 0.005657136 0.089747354 -0.36228716 0.009377689
-0.027399685 -0.020406604 -0.04394408 0.060735445 -0.2566046 0.04413812 -0.012885899 -0.006037086
0.050016128 0.38906494 0.0023031053 -0.016287556 -0.03643649 0.017609848 -0.2788593 0.00067401206
-0.0035333778 -0.00092182955 0.14894985 0.34419358 -0.25062793 -0.07820083 -0.0025158485 0.08741636
-0.020677881 -0.4485133 -0.009122027 -0.0011730557 -0.014131487 -0.19118112 0.29045096 -0.0035979971
-0.05166875 -0.010422423 -0.65057105 -0.15955396 0.16212875 -0.12980075 -0.02452886 0.30983153
0.10383448 -0.39514613 -0.023956023 -0.041861214 -0.04677458 -0.12141276 0.13377814 -0.00029895455
0.0043752994 -0.022255061 0.083640285 -0.006600464 0.3267112 0.08586105 -0.034314584 -0.20699039
-0.020622455 0.32522884 0.055410553 0.035998955 -0.035924874 -0.034560557 0.2839484 -0.005592868
0.16656145 0.2224449 0.20873073 -0.3294244 0.17491972 -0.385607 -0.39405742 -0.020457683
0.056185644 0.050105073 0.28944227 -0.2079564 0.38403633 -0.061852675 -0.025068736 -0.3622642
-0.079435766 -0.19690132 -0.48504868 -0.2210934 -0.04214611 -0.24021883 -0.35491332 0.28383026
-0.14360441 0.07196728 -0.27755007 0.73275805 0.23140232 0.17922767 0.02663549 0.26240855
-0.08759744 -0.011555852 -0.17905308 0.22689004 0.065254 -0.31351113 -0.0140638 0.29670036
0.14207451 -0.22735108 -0.0503778 -0.04934022 -0.15905024 0.1846898 -0.13809428 -0.017662881
0.49722898 0.015053557 0.004811773 0.12821257 -0.12822379 0.0049134837 -0.30885473 0.028765252
0.49052772 -0.4750889 -0.6322294 -0.2558267 -0.3021661 0.11116808 -0.13261892 0.21190229
-0.1955001 0.044043202 -0.1823628 -0.21587622 -0.21687609 0.13799094 0.075527556 0.16106296
0.5226956 -0.07120476 0.12777512 0.5447687 -0.78592557 0.628464 0.039335527 -0.34850812

bias f4 [19]
00000000: e67b 8b3d 09ff 013e d126 e3bc 4881 57be
00000010: 560a 5cbe aefa 7ebe 8138 23be 0a96 4b3d
00000020: 5be7 203e cd94 2fbc d46c 133e a73f 71be
00000030: 981b ecbd 2445 963e 0190 70bd e336 7abc
00000040: 0c07 9abd b683 2fbe 41df 0d3e
0.06810741 0.12694944 -0.02772847 -0.2104541 -0.21488318 -0.24900314 -0.15939523 0.049703635
0.15713255 -0.010716629 0.14396983 -0.23559438 -0.115287006 0.29349625 -0.058731083 -0.015271875
-0.07520875 -0.17140087 0.13854696

weight f4 [19, 16]
00000000: 3baf b3bd 7e52 073d 9d7e 163e f695 893e
00000010: 6782 0b3c ccf7 313e a9f2 c1bc cf7d f4bd
00000020: 7723 45be fd1f b33e eb96 03be 15d9 8bbd
00000030: 3fcb d13d 66d1 e9be 5d7f 40be 5888 62be
00000040: da0e 9cbe 6b93 35be 8d66 1f3e 2c2e ebbc
00000050: 1aa0 1d3e b82b 32be e3f1 eabd 6c84 e23d
00000060: 403e a1be 5c0c 0e3e 8ac9 8dbd fa64 8d3d
00000070: b2f7 38be 277e 48be c4df 343d d560 b2bd
00000080: ec6a b9bc f3ba 62bc 4b88 823d 9892 2ebd
00000090: ca35 b93d 5d5f f9bd 0af1 98bc a12d 21be
000000a0: 5248 69bd b68e e73d ddd6 11bd 4865 75bc
000000b0: db5c ccbc 3d54 31be f502 d5bd 0f02 98bc
000000c0: 5fc4 69bc 234c 62bc cc36 f23e d4ca b93c
000000d0: c20a 943e 6922 133d e384 f7bc 2c65 6ebd
000000e0: f6c4 a6bd f7a5 fbbd f7bd 4fbd dabe 88bc
000000f0: 86c1 81bc 789d 1b3e 074d 503e 942a f8bc
00000100: cb4a 33be 9e49 d8bd a87a 703e 32ae febd
00000110: b2f7 08be 9763 9abe 67cb 6cbd 2cc1 7ebd
00000120: 534c 28bd fb68 063d d833 1cbe 93a2 f1bd
00000130: 56a8 c9bd d379 3dbd 29e9 693d 7d1e 61be
00000140: 6aa1 babc a52f 53bc 7adc ffbe 2060 8abe
00000150: 6bd8 863d 896f 6dbd 5f77 85bc be16 5fbd
00000160: 1f61 abbd ae41 243e 2804 32bd 19f2 a4bc
00000170: 6ecd 0bbc 60bd e3bd 6b19 103b 3cdf d3bc
00000180: e86d 4d3c 0192 bb3b 1bcf 04bd e51e 2a3e
00000190: 79f5 02bb ddaf eebd 2f51 a4bb 4729 a13e
000001a0: 27f5 12be 0ac5 3abe 6a32 3abd 3304 d1bc
000001b0: e53f 593d 2813 773f f5c9 f23d 0071 dbbc
000001c0: e00b c5bb b629 eabb 50e5 17bf 5dfe 08bf
000001d0: 3903 dfbc 4f41 34be 35ad 00bc 9280 853e
000001e0: 0192 4fbd 48f3 423e f8bf 92bc 98ad 633a
000001f0: 37dc c33b 4efa 69bd 800b 143e 7ac9 1cbc
00000200: 4f67 a4bc 3561 6cbc d22c adbd 30f4 2e3e
00000210: 294f a8be 285c d63d 871a 95bc 9c99 41be
00000220: 2667 3ebd 8482 98bd 5b16 01bd 14f7 8dbc
00000230: 400b fcbc 426d 1e3d ee98 c3bc ebf1 98bc
00000240: bdef f0bc 12a1 a9bc 0362 493e 40b7 be3d
00000250: 737e f63e 2bd7 953e e688 5abc c1b2 d6bd
00000260: 71ae f43b b08c ae3c 59c4 94bc 1cb5 80bc
00000270: 0242 cfbc ba37 4e3d 8fd6 8b3e 5958 31bc
00000280: 53ae 38bc 7e14 08bc 1b18 c53e 9403 863e
00000290: 60ec 9bbc 853c 523e 52e7 79bc 0ac9 6abd
000002a0: 811a 3a3b 23ed bdbd 9bde 3dbd f9ff 99bc
000002b0: 7cc2 123b f9fe d93c 0eb4 c63e f904 8fbc
000002c0: 0f23 f0bd b278 87bd 5371 8dbd c3f7 39bf
000002d0: 96c4 953e 602a 7f3e 7e7d e5bd 9c6b 9f3d
000002e0: d29e 3fbe 0b79 9f3e c1c6 e2bd e1c5 1a3e
000002f0: 21da 1abe da8c 893e 1c85 013e 612e adbd
00000300: f3f1 8dbd 46c9 87bd c620 f0bc edd8 5f3e
00000310: 97e2 843e 1802 86be d865 f7bc e81e 233d
00000320: 0951 92be aefb e0be e7aa 87be 514c e8bd
00000330: 2d5a 62bc 8f09 4e3e 8c31 353f 240b 68be
00000340: 09d1 7bbc 960b cebc f84d 633e da80 c53d
00000350: 4cdb 8b3e 6a05 11be ce3d 04bd 4012 023f
00000360: 609b 5d3c 77eb 38be 5f1a 94bd 9c6d 34bd
00000370: e013 d5bc d5d0 1d3c d72e c43e eb0c a2bc
00000380: aab6 2dbe 6851 09be 603c 263e 9f4e 903e
00000390: d875 193e a9c8 dbbe f72a e4bd 1902 e8bd
000003a0: 7865 89be 6f31 edbe 9a3f 77bd 907d b5bd
000003b0: 19dd 20be bd73 733e d889 023e 9de7 55be
000003c0: 8187 cdbd 9231 94bc f0a2 9a3e 4f5a edbd
000003d0: f264 053f 7bcc 45bd a184 13be 9099 94bd
000003e0: 5219 3fbe 73f6 b2bd 567d 4cbe 4b11 dfbd
000003f0: 507d db3c 1df0 b63e 1b15 7dbe f2f6 42be
-0.08773657 0.033037655 0.14696737 0.26872224 0.008514977 0.17379683 -0.02367528 -0.119380586
-0.1925181 0.34985343 -0.1285054 -0.068285145 0.10243844 -0.4566757 -0.18798585 -0.22122324
-0.3048008 -0.17732017 0.15566464 -0.02870854 0.15393105 -0.1739949 -0.114719175 0.11060414
-0.31492805 0.13871902 -0.06923206 0.069040254 -0.18063238 -0.19579373 0.044158712 -0.087098755
-0.022633992 -0.0138385175 0.06373652 -0.04262027 0.090434626 -0.12176392 -0.018669624 -0.15740062
-0.056953736 0.11306517 -0.0356053 -0.014977761 -0.02494662 -0.1731729 -0.10400955 -0.01855567
-0.01426801 -0.013812098 0.47307432 0.022679724 0.28914458 0.035921488 -0.030214733 -0.058201954
-0.08143036 -0.12287515 -0.050718274 -0.016692568 -0.01583935 0.15196788 0.20341884 -0.03029374
-0.17509 -0.10560916 0.2348429 -0.12435569 -0.13375738 -0.30154106 -0.057811167 -0.06219594
-0.041088413 0.03281496 -0.15254152 -0.11798587 -0.09846561 -0.04625876 0.057107124 -0.21984287
-0.022782046 -0.012889777 -0.49972898 -0.27026463 0.06584247 -0.057967696 -0.016292272 -0.054465048
-0.08368134 0.1604068 -0.043460995 -0.020134972 -0.008532865 -0.11120105 0.0021987807 -0.025863282
0.012538411 0.005724192 -0.032424074 0.16613348 -0.001998274 -0.11654637 -0.0050145607 0.31476805
-0.1435133 -0.18239227 -0.045458235 -0.025514698 0.05303945 0.96513605 0.118549265 -0.026787281
-0.0060133785 -0.0071460856 -0.5933428 -0.5351313 -0.027223216 -0.17603038 -0.007853796 0.26074654
-0.05067635 0.19038117 -0.017913803 0.000868523 0.0059771794 -0.057123475 0.14457512 -0.00956952
-0.020068793 -0.014427473 -0.084558144 0.17085338 -0.32872894 0.10466796 -0.018201126 -0.18906254
-0.04648509 -0.07446769 -0.03151546 -0.01732973 -0.030767083 0.038678415 -0.023876633 -0.018670043
-0.029411191 -0.020706687 0.19666295 0.09312296 0.48143348 0.29265723 -0.013338303 -0.10483313
0.007467084 0.02130732 -0.018160032 -0.01571136 -0.02530003 0.050346114 0.27312133 -0.010824286
-0.011272031 -0.008305667 0.38494954 0.26174605 -0.01903361 0.20530899 -0.015252905 -0.057320632
0.0028397145 -0.09273746 -0.04635487 -0.018798815 0.0022393754 0.026610838 0.38809246 -0.017458426
-0.11725437 -0.06614818 -0.069063805 -0.7264368 0.29251546 0.24918509 -0.11205576 0.07784197
-0.18712929 0.31147036 -0.110730655 0.15114547 -0.15122272 0.26865274 0.12648433 -0.08456112
-0.06930914 -0.06630187 -0.029312503 0.21860094 0.25954124 -0.26173472 -0.03019993 0.039824396
-0.2857745 -0.43942016 -0.26497576 -0.11342681 -0.013815445 0.20120834 0.7077873 -0.226605
-0.015369662 -0.025152009 0.22197711 0.09643717 0.27315748 -0.14162222 -0.032285504 0.508091
0.013525814 -0.18058573 -0.072315924 -0.044049844 -0.026010454 0.009632309 0.38316986 -0.01978155
-0.16964212 -0.1340996 0.16233969 0.28184983 0.1498636 -0.4292653 -0.111410074 -0.11328525
-0.26835227 -0.46326777 -0.06036339 -0.0886184 -0.15709342 0.2377462 0.12747896 -0.20889135
-0.10035611 -0.018090043 0.30202436 -0.115894906 0.52107155 -0.04829071 -0.14406063 -0.07255852
-0.18662003 -0.08738413 -0.19969687 -0.1089197 0.026793152 0.35730067 -0.24715082 -0.19039515

bias f4 [19]
00000000: 802b 80bd 224e aa3d f3e5 c53d 2dfa 533e
00000010: 15e6 013e fbaa 363e c095 c13d 1c31 1dbe
00000020: e0b0 513d e1d8 4bbe 731c 65be 68a6 55be
00000030: 98f8 333d e9de 38bd 9d21 ac3d 5ec2 f6bd
00000040: 012e cfbd f805 8d3e 0fd3 1a3e
-0.06258297 0.08315684 0.09663 0.20700903 0.12685426 0.17838661 0.09452391 -0.15350765
0.05119407 -0.19906951 -0.22374134 -0.2086426 0.04393825 -0.04513446 0.08404849 -0.12048791
-0.101161964 0.27543616 0.15119575
