models/a19lds19b0.007g0.02d0.1h13.pt (torch, 127234 bytes, 26 tensors)

weight_ih_l0 f4 [52, 4]
-0.12189017 0.005988294 -0.15670592 -0.029744446 -0.30293745 -0.002587076 -0.17472303 -0.29426628
-0.120751835 0.004513767 0.12705344 0.25905442 0.029002232 -0.044402786 0.06658196 0.16523936
-0.19100231 0.22150011 -0.22466105 -0.26277146 0.016774746 -0.276938 0.1734755 -0.10923768
-0.00071244134 -0.00013152593 -0.005563048 0.14297037 0.091435224 -0.26361972 0.023588583 0.033296127
0.042450923 0.045305252 -0.042724486 0.026173642 -0.19334231 -0.3988145 0.12102904 -0.33359417
0.12411385 -0.013008267 -0.2985914 0.21271795 -0.038626157 0.27580896 -0.13920042 0.030869454
0.17274837 0.11596104 -0.30102304 -0.036516592 0.18019368 0.11305468 0.14867795 -0.31714052
0.05640149 0.034120303 0.14251608 -0.089285746 0.09836013 0.03417329 0.3405128 0.22562636
-0.13913897 0.067383416 -0.16450083 -0.2140452 0.0357676 -0.04890655 0.28010774 0.032272622
0.06991707 0.10524498 -0.04693791 0.14239655 -0.36243442 0.11558034 0.13481787 -0.19426638
-0.25133535 0.23131542 -0.2819527 -0.3064314 0.18544532 0.057291225 -0.08444395 -0.06547489
-0.11874751 -0.12567881 -0.1256864 0.13757285 -0.12722354 -0.22801219 0.28350127 -0.15604585
-0.17650636 0.075501055 -0.05395012 0.2848186 0.11420688 -0.09620178 -0.018388316 0.24021268
0.1462681 -0.17295231 0.13443485 0.029722715 -0.18931915 0.07360664 0.124322265 -0.20746605
0.09355536 -0.07342091 0.263607 0.10983238 -0.14855428 -0.42607474 0.24243869 -0.27452123
-0.19986707 -0.15999648 0.046706136 0.061485715 0.21019487 0.21286908 -0.003999957 -0.045469128
-0.09381149 0.13991854 -0.20218824 0.0157174 -0.21967918 0.09609055 0.48047078 0.1563641
-0.05599487 0.022507438 0.0033256493 0.1856782 -0.052154977 0.0763332 -0.1928331 -0.24709551
0.052489325 0.45438954 -0.007739028 -0.13814768 -0.3403682 0.30874908 -0.11459745 0.3077504
-0.01971752 0.07317414 -0.022376021 0.27997 0.11365732 -0.031938888 0.21537684 -0.19027731
-0.39495203 -0.0625684 -0.10153215 0.15220857 -0.033723023 0.32392293 -0.025649393 0.30509976
-0.25910568 0.00526407 0.19270687 0.10514068 -0.076021954 -0.012031034 0.18391126 0.34147862
0.33290973 0.009557004 0.14438447 0.031327534 -0.04941076 0.02826682 -0.24183148 -0.07517799
0.45430392 -0.0819252 0.06301987 0.27221224 -0.15396155 0.09279242 0.07860282 0.1388187
-0.22987948 -0.14222272 0.15748183 -0.086158305 -0.0010985759 0.2552125 -0.1710072 0.430635
0.10888388 -0.08006629 0.09791445 -0.41082776 -0.26320606 0.219694 -0.054149512 -0.19153711
00000000: 8ea1 f9bd 7339 c43b 8477 20be a0aa f3bc
00000010: 9e1a 9bbe ef8b 29bb 98ea 32be 12aa 96be
00000020: bd4c f7bd 39e8 933b 4c1a 023e c8a2 843e
00000030: 1796 ed3c b2df 35bd 1f5c 883d 8234 293e
00000040: 1c96 43be edd0 623e 8c0d 66be fb89 86be
00000050: 316b 893c d1ca 8dbe 90a3 313e 01b8 dfbd
00000060: 21c3 3aba 39ea 09b9 3b4a b6bb d366 123e
00000070: 6442 bb3d 2af9 86be d83c c13c 8561 083d
00000080: 05e1 2d3d 0092 393d dfff 2ebd 1b6a d63c
00000090: 87fb 45be 6a31 ccbe 13de f73d dbcc aabe
000000a0: 672f fe3d a020 55bc f9e0 98be bcd2 593e
000000b0: 7636 1ebd d536 8d3e 8e8a 0ebe f0e1 fc3c
000000c0: f3e4 303e fb7c ed3d b11f 9abe 6c92 15bd
000000d0: b184 383e 3689 e73d 083f 183e 3e60 a2be
000000e0: 4005 673d bbc1 0b3d bcef 113e 72db b6bd
000000f0: 0971 c93d 4bf9 0b3d b257 ae3e 990a 673e
00000100: 727a 0ebe 5100 8a3d e872 28be aa2e 5bbe
00000110: 0c81 123d 3c52 48bd 486a 8f3e 4c30 043d
00000120: ae30 8f3d ae8a d73d f741 40bd 67d0 113e
00000130: 0191 b9be 63b5 ec3d b20d 0a3e c4ed 46be
00000140: 07af 80be f3dd 6c3e 1b5c 90be 94e4 9cbe
00000150: 61e5 3d3e 34aa 6a3d f3f0 acbd b317 86bd
00000160: e531 f3bd f2b1 00be f0b3 00be e6df 0c3e
00000170: e346 02be 077c 69be 1427 913e 7cca 1fbe
00000180: 15be 34be 4ca0 9a3d cdfa 5cbd bed3 913e
00000190: 4ce5 e93d 7005 c5bd 18a3 96bc 50fa 753e
000001a0: 4ec7 153e 691a 31be 4aa9 093e 0d7d f33c
000001b0: e1dc 41be 14bf 963d ac9c fe3d fb71 54be
000001c0: f499 bf3d b45d 96bd 7ff7 863e cdef e03d
000001d0: 9d1e 18be 7826 dabe d941 783e 0c8e 8cbe
000001e0: f4a9 4cbe 1ed6 23be ef4e 3f3d 72d8 7b3d
000001f0: 533d 573e 5afa 593e 1212 83bb d63d 3abd
00000200: 3d20 c0bd ce46 0f3e 6f0a 4fbe c7c1 803c
00000210: 94f3 60be 1fcb c43d 4400 f63e e91d 203e
00000220: e05a 65bd 8561 b83c 23f3 593b 6d22 3e3e
00000230: 75a0 55bd 9554 9c3d 0a76 45be 9b06 7dbe
00000240: 0cff 563d bfa5 e83e ac97 fdbb 9676 0dbe
00000250: be44 aebe 5c14 9e3e 11b2 eabd 7691 9d3e
00000260: a386 a1bc 53dc 953d eb4d b7bc 3a58 8f3e
00000270: 2bc5 e83d 5ad2 02bd bf8b 5c3e 0ed8 42be
00000280: 2737 cabe dc23 80bd 16f0 cfbd 90dc 1b3e
00000290: 2721 0abd 3ad9 a53e ad1e d2bc 0936 9c3e
000002a0: 80a9 84be 387e ac3b f354 453e ff53 d73d
000002b0: 66b1 9bbd d01d 45bc 3c53 3c3e 49d6 ae3e
000002c0: 2573 aa3e fb94 1c3c 86d9 133e 4d51 003d
000002d0: f062 4abd d18f e73c aca2 77be ebf6 99bd
000002e0: 869a e83e 66c8 a7bd 9010 813d 675f 8b3e
000002f0: 19a8 1dbe f409 be3d 84fa a03d 7d26 0e3e
00000300: 8765 6bbe d5a2 11be eb42 213e c473 b0bd
00000310: 17fe 8fba 36ab 823e 831c 2fbe 317c dc3e
00000320: 83fe de3d ccf9 a3bd 5f87 c83d 0458 d2be
00000330: f2c2 86be 77f7 603e e1cb 5dbd 4e22 44be

weight_hh_l0 f4 [52, 13]
-0.060259458 -0.25621933 0.17539437 0.13548729 0.055011027 0.0007196707 0.3652941 -0.11887074
0.21788213 -0.13517526 -0.10322609 0.039439056 -0.16621938 -0.062627524 0.21902761 -0.24502419
-0.24975166 -0.17583565 0.118296355 -0.070180394 0.17636083 0.06076481 -0.11260779 0.20506622
-0.03879525 0.035164867 0.015301721 0.08616752 0.17730004 0.08738426 -0.15237091 0.08732488
0.16626638 0.18844818 0.07747741 0.019165993 0.34944874 0.21639943 -0.07508797 0.13474837
-0.067981474 0.041801635 -0.0326977 -0.06401541 -0.16467258 -0.21335077 -0.022162093 -0.10480646
0.09222648 -0.1653854 -0.26448926 0.14096618 -0.20524539 0.057326067 -0.17859256 -0.19303417
0.032405827 -0.35696715 -0.18196218 0.35012853 0.32361415 -0.07144004 0.056718048 0.17326184
-0.02159349 -0.09186468 -0.06265367 0.16900396 -0.21637002 0.08311911 0.26352456 0.16123189
-0.022503553 -0.14214458 -0.08420718 0.19769691 -0.25582463 0.2913646 -0.079197906 -0.06526162
-0.21571313 0.30988017 0.23532705 -0.06250983 -0.32344016 0.015087903 -0.11220735 0.21401362
-0.24819587 0.20706297 -0.24369349 0.118041724 0.079786226 -0.103184044 0.09852664 -0.13053082
-0.11499191 -0.06299707 -0.00080125005 -0.16305754 -0.438068 -0.20918773 0.06775932 -0.2536895
-0.046227932 0.05109906 -0.12871028 0.09081424 0.05238286 -0.16147059 0.010784858 0.20147516
-0.053535398 0.2648192 -0.026666032 -0.0470632 0.09384682 -0.21427159 0.1012115 0.033994243
0.104261994 0.06933747 0.15384941 0.3006611 -0.029929325 0.08556017 -0.051872917 0.1991826
-0.16454759 -0.10993289 0.15107295 0.0679931 -0.11217659 0.012231617 0.28017518 0.121484384
-0.07882002 0.27799237 0.32257754 -0.114220895 -0.05779927 0.050366294 0.13350871 -0.029587056
0.05343442 0.017756859 -0.026243515 -0.2713814 -0.22220379 0.09039165 0.1310709 0.096880384
0.25191063 0.20311432 -0.1630104 0.2107776 -0.23054902 0.22482465 0.022828238 0.0172408
0.25211236 0.2549742 0.24843791 -0.048938505 -0.18852371 -0.010711294 -0.034037307 -0.053340044
-0.115485065 0.14684352 0.15767094 0.094736144 -0.14540802 -0.31241995 -0.051865187 -0.33574638
-0.26010227 -0.07955207 0.022293406 -0.09385155 0.15120505 -0.26284516 0.016152352 -0.06288294
-0.15463899 -0.15881683 0.02612795 0.097257234 0.3159752 0.059710987 -0.080182165 -0.26680622
0.06733314 -0.019685302 -0.29155457 -0.0036299136 -0.081662804 -0.06406968 -0.024147643 -0.038903758
0.039433654 -0.1990025 0.16381378 -0.28800353 -0.28729826 0.1280858 -0.33412424 -0.09438482
-0.03728352 0.14227508 -0.23288196 -0.23309688 0.18354402 -0.02440843 -0.17441258 -0.11999173
0.40041462 0.2077234 0.26548126 0.07917274 -0.09394078 0.1213877 0.13364297 0.08680244
0.052739218 0.08658385 -0.064050145 -0.38147563 0.09806835 -0.19360799 -0.014596936 0.28392398
-0.022588953 -0.13193974 0.130132 0.08135046 0.0693613 0.08060669 -0.2262809 0.014464414
-0.122919925 0.018102659 0.06703478 0.37287503 0.1817825 0.050090037 0.0849089 0.32302174
0.16792497 0.1767227 0.06599509 -0.004433948 -0.05073444 0.05011711 0.12681136 -0.11385826
00000000: 9fd2 76bd 2e2f 83be 959a 333e 2ebd 0a3e
00000010: 3e53 613d 48a8 3c3a d407 bb3e 8172 f3bd
00000020: 7e1c 5f3e 626b 0abe 3368 d3bd d98a 213d
00000030: 6a35 2abe dc42 80bd c648 603e 9fe7 7abe
00000040: e6be 7fbe 430e 34be 5c45 f23d bdba 8fbd
00000050: ef97 343e 85e4 783d ea9e e6bd e1fc 513e
00000060: c5e7 1ebd 0909 103d 12b4 7a3c 9978 b03d
00000070: 248e 353e 85f6 b23d 1f07 1cbe 63d7 b23d
00000080: bc41 2a3e 8ff8 403e 7aac 9e3d 0002 9d3c
00000090: f2ea b23e d097 5d3e b9c7 99bd 7afb 093e
000000a0: df39 8bbd 3138 2b3d 06ee 05bd 831a 83bd
000000b0: ee9f 28be a078 5abe 478d b5bc c5a4 d6bd
000000c0: 3de1 bc3d ca5a 29be 236b 87be 7059 103e
000000d0: d92b 52be bdce 6a3d f8e0 36be c0aa 45be
000000e0: f9bb 043d 66c4 b6be 4b54 3abe 0c44 b33e
000000f0: c1b0 a53e 284f 92bd 2f51 683d 8d6b 313e
00000100: d5e4 b0bc 8d23 bcbd 9150 80bd 600f 2d3e
00000110: 1a90 5dbe 5a3a aa3d b1ec 863e f919 253e
00000120: 5f59 b8bc 598e 11be d074 acbd 0f71 4a3e
00000130: 72fb 82be be2d 953e 8332 a2bd e2a7 85bd
00000140: e7e3 5cbe 9da8 9e3e 93f9 703e 2705 80bd
00000150: f399 a5be 4033 773c f8cc e5bd 6326 5b3e
00000160: 0f27 7ebe 5108 543e c98a 79be dcbf f13d
00000170: f666 a33d 2852 d3bd 56c8 c93d dfa9 05be
00000180: e180 ebbd 9c04 81bd fb0a 52ba 8ef8 26be
00000190: 734a e0be 4f35 56be 66c5 8a3d 97e3 81be
000001a0: 8059 3dbd 3f4d 513d a1cc 03be d1fc b93d
000001b0: 698f 563d 8c58 25be f9b2 303c 814f 4e3e
000001c0: ef47 5bbd 6296 873e b972 dabc 58c5 40bd
000001d0: c332 c03d 036a 5bbe fa47 cf3d 8c3d 0b3d
000001e0: 5087 d53d ce00 8e3d b38a 1d3e 40f0 993e
000001f0: 582e f5bc 2c3a af3d b278 54bd 86f6 4b3e
00000200: 2a7f 28be 7f24 e1bd deb2 1a3e f73f 8b3d
00000210: d7bc e5bd 1f67 483c 1f73 8f3e cecc f83d
00000220: 646c a1bd 0455 8e3e e228 a53e a5ec e9bd
00000230: edbe 6cbd e34c 4e3d 82b6 083e 8e60 f2bc
00000240: 0dde 5a3d d576 913c a4fc d6bc 81f2 8abe
00000250: 6489 63be 421f b93d 7337 063e 3969 c63d
00000260: 6efa 803e 33fd 4f3e 33ec 26be 15d6 573e
00000270: 0b15 6cbe 6f38 663e 4902 bb3c 943c 8d3c
00000280: df14 813e fa8b 823e 8266 7e3e be73 48bd
00000290: 5c0c 41be 6c7e 2fbc b46a 0bbd 177b 5abd
000002a0: 6f83 ecbd 265e 163e 7e74 213e 0605 c23d
000002b0: d7e5 14be 82f5 9fbe 9770 54bd f3e6 abbe
000002c0: 202c 85be 32ec a2bd a9a0 b63c 3e35 c0bd
000002d0: 7fd5 1a3e a493 86be f051 843c c5c8 80bd
000002e0: af59 1ebe e1a0 22be 480a d63c cd2e c73d
000002f0: 80c7 a13e 8293 743d 8c36 a4bd d39a 88be
00000300: f5e5 893d 1243 a1bc a446 95be d8e3 6dbb
00000310: d43e a7bd f736 83bd 47d1 c5bc 8c59 1fbd
00000320: 2f85 213d 50c7 4bbe cdbe 273e 3375 93be
00000330: c218 93be ed28 033e 5512 abbe d44c c1bd
00000340: 9bb6 18bd 8fb0 113e 9c78 6ebe f3b0 6ebe
00000350: f7f2 3b3e 30f4 c7bc 3699 32be 39be f5bd
00000360: 2503 cd3e 71b5 543e 29ed 873e 5125 a23d
00000370: 0664 c0bd 1d9a f83d b4d9 083e 7ac5 b13d
00000380: 1405 583d e052 b13d b92c 83bd c650 c3be
00000390: 0fd8 c83d 2c41 46be fd27 6fbc 7c5e 913e
000003a0: 780c b9bc 361b 07be 5341 053e 129b a63d
000003b0: 4c0d 8e3d 1f15 a53d 2eb6 67be 26fc 6c3c
000003c0: 71bd fbbd 074c 943c 8849 893d 7ae9 be3e
000003d0: 3125 3a3e 362b 4d3d b8e4 ad3d 1b63 a53e
000003e0: 86f4 2b3e ccf6 343e 6f28 873d a74a 91bb
000003f0: ebce 4fbd 9947 4d3d d6da 013e 852e e9bd

bias_ih_l0 f4 [52]
-0.14350367 0.2518214 0.19498868 0.016222365 0.098437324 -0.24519747 0.23848301 -0.054120295
0.12058624 0.094876625 0.2718826 -0.25761956 -0.124119736 0.04929095 -0.17153944 0.24360842
0.22062784 0.037038695 0.0866631 -0.118789695 -0.1460772 0.1781218 0.13240758 -0.19202536
0.14985898 -0.070270956 0.19830114 -0.21548133 -0.046309885 0.14365861 -0.017581612 -0.19201761
0.006798083 0.16459595 0.05816838 0.24968854 -0.15243399 -0.025354097 0.226609 -0.032193605
-0.025466375 -0.023125477 -0.21538068 0.049226154 0.26515085 -0.2116968 0.06739476 -0.07553405
-0.11389987 0.28727376 -0.23816638 -0.18492526
00000000: a0f2 12be bcee 803e 1dab 473e c4e4 843c
00000010: 8299 c93d 0c15 7bbe e434 743e 3ead 5dbd
00000020: ebf5 f63d ad4e c23d 3234 8b3e b6e6 83be
00000030: 7d32 febd 4fe5 493d 09a8 2fbe 7c74 793e
00000040: 44ec 613e e3b5 173d 6c7c b13d 0348 f3bd
00000050: 4395 15be 9065 363e da95 073e 4ca2 44be
00000060: a274 193e 38ea 8fbd 740f 4b3e 23a7 5cbe
00000070: 6faf 3dbd 3e1b 133e 5007 90bc 44a0 44be
00000080: 74c2 de3b d78b 283e f841 6e3d 5aae 7f3e
00000090: a817 1cbe 65b3 cfbc 310c 683e 71dd 03bd
000000a0: dc9e d0bc a471 bdbc c18c 5cbe 5da1 493d
000000b0: dac1 873e 0cc7 58be 4406 8a3d 99b1 9abd
000000c0: 5644 e9bd 8c15 933e e3e1 73be 0c5d 3dbe

bias_hh_l0 f4 [52]
-0.24010767 -0.2622324 -0.041748196 -0.14599179 0.27651295 -0.24373342 0.14385624 -0.1403116
-0.01099029 0.13353482 0.20607507 -0.120359376 -0.10597672 0.07133349 -0.16911766 -0.027495507
0.034779545 -0.102135375 -0.18636419 0.09674244 0.20853381 -0.13620476 0.22348845 0.27082038
-0.11977016 0.005414599 0.24594791 -0.26145872 -0.00085271307 0.25124335 -0.09444445 -0.0805694
-0.22943474 -0.08070817 0.13846575 0.036673505 -0.06862015 0.1488278 0.1089681 0.13253048
0.17573752 -0.16269986 0.013504454 0.14880593 0.0834219 -0.03139478 -0.22430634 0.16394494
-0.24603224 -0.0080267675 0.2879064 -0.15152137
00000000: c9de 75be 5343 86be 2800 2bbd df7e 15be
00000010: 1b93 8d3e 4195 79be 0d4f 133e d8ad 0fbe
00000020: 9e10 34bc 5abd 083e 5805 533e fa7e f6bd
00000030: 530a d9bd 4b17 923d 2e2d 2dbe 423e e1bc
00000040: ff74 0e3d 5a2c d1bd 41d6 3ebe e620 c63d
00000050: e389 553e 4379 0bbe 28da 643e f8a8 8a3e
00000060: 0f4a f5bd f36c b13b c5d9 7b3e ebdd 85be
00000070: 9b88 5fba f8a2 803e 186c c1bd 9201 a5bd
00000080: f1f0 6abe 534a a5bd f7c9 0d3e f536 163d
00000090: b988 8cbd 5166 183e ab2a df3d 12b6 073e
000000a0: 89f4 333e cb9a 26be c941 5d3c 9560 183e
000000b0: 1ad9 aa3d d097 00bd 90b0 65be 2fe1 273e
000000c0: e0ef 7bbe b482 03bc 7868 933e 6b28 1bbe

weight_ih_l0_reverse f4 [52, 4]
0.18013115 -0.06751067 -0.5839164 -0.17278787 -0.12218577 -0.2709624 0.26699352 0.064418085
0.19648905 0.07535868 -0.42087042 0.07769799 0.050515484 -0.08263155 -0.17346661 0.210766
-0.23718806 0.07217046 -0.14947724 0.23666313 -0.1330329 -0.14111564 0.040546447 -0.059813783
-0.28490227 0.22343992 0.04881629 -0.05810019 0.008234078 -0.25817713 -0.10268313 0.107367784
0.25959226 -0.007988089 0.010285183 -0.11540689 0.12162817 0.3719641 0.122391455 0.15739892
0.3354832 -0.006821342 -0.21279891 -0.23954195 -0.11071634 0.0063505196 -0.08961852 -0.30278695
0.12792292 0.015220798 0.1754428 -0.1477068 0.12151427 0.10040763 0.012690967 -0.33488163
0.17551552 0.27642682 0.09314791 -0.13850614 0.09816473 0.1802914 0.09579528 0.4083706
0.14248852 0.063005276 -0.16007635 0.21419115 0.3402303 0.1465399 -0.02287483 -0.10989696
0.067863606 0.112393945 0.07943073 0.027786983 0.1171342 0.037609182 -0.063194126 0.1395155
0.06668843 0.04950291 -0.305121 -0.24146904 0.0031273065 0.14656654 0.06882245 0.21529381
-0.30095205 0.14088616 -0.042677082 -0.020742444 -0.12243269 -0.2572654 -0.1570628 0.2119017
-0.20999649 -0.0019989114 0.258768 -0.13606372 0.337881 0.12273777 -0.25145411 0.39139795
0.1080692 0.20312041 -0.33802006 -0.2877376 0.06396089 0.10298691 -0.105693296 0.09207233
0.13003708 0.27038154 -0.011432344 0.044790793 -0.35840678 -0.05587968 -0.12671287 0.07381354
0.082991794 -0.38759553 0.1192996 -0.05078924 -0.10150605 0.09499125 -0.013225644 -0.33686832
0.09119309 -0.103127636 -0.06308353 0.26584083 -0.033542547 0.06556065 0.20614041 -0.09804267
0.11219866 -0.12592116 0.043991357 0.27004445 -0.28407782 0.12606083 0.42393163 0.05455331
-0.016752195 0.13474047 0.020850694 0.3459637 -0.3104845 0.06716686 0.18744728 0.2035211
0.055265065 0.2217113 0.2969072 -0.084117375 0.42853445 -0.3429672 0.016944742 0.22555277
0.019629586 0.28380594 0.13420713 0.12943517 0.04271463 -0.037227422 -0.00018161819 -0.12304391
-0.04619323 0.33171344 0.12602799 -0.06450944 0.16168036 -0.18047439 0.084467866 0.30349523
-0.06894794 -0.22675313 -0.12374018 0.07671277 -0.18389748 0.35289428 -0.02553588 0.15853432
-0.12654239 0.02164568 0.2316496 0.09255597 0.070749745 0.3509522 0.27930865 0.29832548
0.23912568 0.0917686 0.13004515 -0.42658168 -0.240035 -0.10017168 0.079170644 0.28548715
0.2934408 0.15989587 0.26182202 0.21715593 0.26552182 0.10865552 0.09272819 0.05387641
00000000: 4d74 383e 0943 8abd 8c7b 15bf 4eef 30be
00000010: 883c fabd 95bb 8abe 60b3 883e a1ed 833d
00000020: 6d34 493e a755 9a3d 547c d7be 2020 9f3d
00000030: 53e9 4e3d bb3a a9bd 3ba1 31be 0bd3 573e
00000040: 6de1 72be 1bce 933d 9010 19be d257 723e
00000050: c739 08be 9e80 10be 0814 263d 4cff 74bd
00000060: b6de 91be 6fcd 643e 97f3 473d 77fa 6dbd
00000070: 3ae8 063c cb2f 84be 884b d2bd a4e3 db3d
00000080: 47e9 843e 79e0 02bc 2f83 283c 735a ecbd
00000090: 3118 f93d 1472 be3e 5fa8 fa3d 2f2d 213e
000000a0: 74c4 ab3e 9085 dfbb f5e7 59be 7c4a 75be
000000b0: 40bf e2bd 0518 d03b ea89 b7bd e406 9bbe
000000c0: 3afe 023e a760 793c 47a7 333e 7440 17be
000000d0: 79dc f83d 84a2 cd3d c6ed 4f3c 9b75 abbe
000000e0: 57ba 333e d187 8d3e 55c4 be3d 8ed4 0dbe
000000f0: 970a c93d 4f9e 383e 5130 c43d f415 d13e
00000100: 83e8 113e e908 813d 0eeb 23be ed54 5b3e
00000110: aa32 ae3e 8e0e 163e ff63 bbbc a811 e1bd
00000120: 13fc 8a3d cc2e e63d 94ac a23d 87a1 e33c
00000130: 0ee4 ef3d 160c 1a3d ec6b 81bd 27dd 0e3e
00000140: f293 883d 90c3 4a3d d238 9cbe a943 77be
00000150: 7ff3 4c3b 8a15 163e c9f2 8c3d fb75 5c3e
00000160: 6316 9abe 7644 103e 2ace 2ebd 0fec a9bc
00000170: fdbd fabd 4ab8 83be 12d5 20be c2fc 583e
00000180: 5209 57be 2b00 03bb 3d7d 843e 4a54 0bbe
00000190: bdfe ac3e f15d fb3d 98be 80be 5065 c83e
000001a0: 6253 dd3d ccfe 4f3e f710 adbe 5852 93be
000001b0: edfd 823d cdea d23d ba75 d8bd 6b90 bc3d
000001c0: 7128 053e 736f 8a3e ba4e 3bbc 8d76 373d
000001d0: 1881 b7be 17e2 64bd 05c1 01be 8e2b 973d
000001e0: 9af7 a93d ec72 c6be 5953 f43d 6108 50bd
000001f0: 67e2 cfbd c68a c23d 5fb0 58bc 017a acbe
00000200: 71c3 ba3d 9534 d3bd f031 81bd 4a1c 883e
00000210: e963 09bd a944 863d 7916 533e 98ca c8bd
00000220: 69c8 e53d 7af1 00be 4830 343d 4443 8a3e
00000230: a672 91be 1716 013e 910d d93e 4b73 5f3d
00000240: e63b 89bc 68f9 093e 13cf aa3c 2722 b13e
00000250: d3f7 9ebe c78e 893d 2ef2 3f3e d667 503e
00000260: 9f5d 623d 4908 633e 3804 983e bb45 acbd
00000270: de68 db3e 6699 afbe b3cf 8a3c 4ef7 663e
00000280: 3ace a03c 034f 913e 986d 093e a78a 043e
00000290: 89f5 2e3d c87b 18bd c370 3eb9 72fe fbbd
000002a0: 1d35 3dbd 58d6 a93e 7b0d 013e 861d 84bd
000002b0: 898f 253e 47ce 38be 7dfd ac3d ba63 9b3e
000002c0: 9434 8dbd f931 68be 7e6b fdbd 961b 9d3d
000002d0: 9f4f 3cbe 8fae b43e 9f30 d1bc d256 223e
000002e0: 5494 01be 4852 b13c 8e35 6d3e fc8d bd3d
000002f0: 3ee5 903d 02b0 b33e 8b01 8f3e 1ebe 983e
00000300: 5ddd 743e 2df1 bb3d 8e2a 053e ea68 dabe
00000310: bccb 75be cf26 cdbd 3824 a23d 5f2b 923e
00000320: df3d 963e bebb 233e 890d 863e 205e 5e3e
00000330: 7af2 873e c986 de3d 47e8 bd3d 83ad 5c3d

weight_hh_l0_reverse f4 [52, 13]
-0.02721905 0.05312845 -0.25547534 0.052854534 -0.20888789 -0.20852885 0.3449159 -0.247628
0.20770486 0.31013286 0.07798368 0.113099165 0.12350599 -0.09331213 -0.19896947 0.18400449
0.09551742 0.14334977 -0.22002913 0.15401918 0.24130331 0.049427524 0.028191414 -0.31653818
0.015300019 -0.20288438 0.025893815 -0.0975972 0.028730378 0.07969829 -0.058661226 0.32793105
0.21043667 -0.0006300661 0.16365707 -0.024675524 0.06626681 0.042788424 -0.12364413 -0.08674235
0.28756657 0.14671189 0.029056659 0.01123666 -0.09799882 0.08576487 -0.06169856 -0.021368722
-0.026101721 -0.07061619 0.13767788 0.27912498 -0.03509308 0.290656 -0.1096902 -0.057027955
0.04967849 -0.008905659 0.021996628 -0.06862224 -0.10114027 0.060830142 -0.2385043 -0.08858506
0.23149543 -0.073480725 0.20742379 -0.011730856 0.04849867 -0.15023454 -0.09946027 0.12641819
-0.1301216 -0.09859806 -0.07902515 0.18975995 -0.008926667 -0.108545154 -0.16882205 -0.16351199
0.084750615 0.08286991 0.026654476 -0.15457362 0.02120244 -0.14762026 0.04840802 -0.07690352
-0.1501827 0.13186145 0.038106877 -0.049683154 -0.08127493 0.2846695 -0.085016504 0.116831854
0.07072872 -0.45942312 0.13644291 -0.14252457 0.14650449 -0.20397697 0.11430515 -0.27465904
0.005415045 0.13618948 -0.054504417 -0.19304988 0.26601198 0.1471252 0.35031328 -0.0059822914
-0.29918894 -0.10953507 0.027601903 -0.228413 0.00048559933 -0.21258856 0.052159883 0.15961497
0.22921127 0.13229062 0.022825554 0.14256762 0.07552449 -0.42784265 0.32733053 -0.020014664
-0.23767842 -0.06360543 0.086330295 0.11004865 -0.12227145 0.0017428211 -0.22501145 -0.042834014
0.17918576 -0.04417819 -0.009852225 -0.20952612 0.1323118 0.27574298 0.07712021 -0.13611206
-0.059623305 -0.074420415 0.29508713 0.35696974 0.058238093 0.19006535 -0.1698673 -0.1745352
-0.12317441 -0.35087827 -0.09312514 0.18617807 -0.07062005 0.10790996 0.13655949 -0.008246576
0.09038316 0.061255235 0.18248923 -0.066875346 -0.21687156 0.3782186 0.056346383 -0.24075149
0.18529353 -0.0061933435 -0.06766331 0.17686531 -0.25033602 0.02120838 -0.25613475 -0.07861703
-0.46693796 -0.17563058 -0.1836793 0.08761387 0.16304429 -0.28949755 -0.004561054 0.043404453
-0.11963873 -0.26566213 0.073376104 -0.055737842 -0.13708813 0.0685288 -0.27594504 0.33000085
0.1993815 -0.085585564 0.23708713 0.09886249 -0.254449 -0.078619495 -0.029550558 0.10989873
0.018256841 -0.1688417 0.016107969 -0.048951503 -0.0707523 0.018507013 -0.025544144 -0.42770925
0.071014896 -0.07855783 0.10199541 0.15577435 0.0947026 -0.31465682 0.4693842 -0.053842336
-0.10425394 0.08633244 0.54849803 0.0075600827 -0.2066039 0.33071706 0.25798088 -0.2841944
0.24040562 0.033410948 0.18836921 0.12514907 0.21599281 0.15682577 0.08961045 -0.05703914
-0.12144695 0.0025975048 -0.19097763 0.077404305 0.11141152 -0.08634809 -0.1841598 0.032693483
-0.28641623 0.30251014 -0.091230355 -0.15680051 -0.10126207 -0.32927895 -0.04142994 -0.001584587
-0.04945896 -0.13472253 -0.03335893 -0.2785703 0.32328036 0.10074529 0.09538286 -0.08888281
00000000: 7cfa debc 389d 593d aacd 82be ff7d 583d
00000010: b5e6 55be 9688 55be d198 b03e 3292 7dbe
00000020: 95b0 543e bcc9 9e3e e8b5 9f3d 89a0 e73d
00000030: b5f0 fc3d 6e1a bfbd a7be 4bbe ac6b 3c3e
00000040: a39e c33d 48ca 123e 514f 61be 34b7 1d3e
00000050: 3718 773e 8474 4a3d aef1 e63c 4b11 a2be
00000060: eeac 7a3c ecc0 4fbe 441f d43c 0ae1 c7bd
00000070: f85b eb3c db38 a33d c146 70bd 94e6 a73e
00000080: b67c 573e 052b 25ba b895 273e 5324 cabc
00000090: e5b6 873d ea42 2f3d 2239 fdbd f9a5 b1bd
000000a0: ed3b 933e a43b 163e 3b08 ee3c f819 383c
000000b0: 9bb3 c8bd 7ea5 af3d a1b7 7cbd 750d afbc
000000c0: 47d3 d5bc 399f 90bd 6efb 0c3e 78e9 8e3e
000000d0: c3bd 0fbd ddd0 943e 41a5 e0bd 2596 69bd
000000e0: ac7b 4b3d 0be9 11bc 4632 b43c d189 8cbd
000000f0: a122 cfbd 0729 793d 793a 74be 156c b5bd
00000100: 230d 6d3e 107d 96bd e766 543e c732 40bc
00000110: 8ba6 463d 15d7 19be d3b1 cbbd c573 013e
00000120: 993e 05be c8ed c9bd f0d7 a1bd 6f50 423e
00000130: 2841 12bc ec4c debd b0df 2cbe b06f 27be
00000140: bb91 ad3d b3b7 a93d 7d5a da3c 8c48 1ebe
00000150: bdb0 ad3c c429 17be 7d47 463d 987f 9dbd
00000160: 7ec9 19be b006 073e f515 1c3d 9080 4bbd
00000170: 7873 a6bd 33c0 913e 221d aebd 8a45 ef3d
00000180: 38da 903d 8239 ebbe b1b7 0b3e f6f1 11be
00000190: 4605 163e 57df 50be d218 ea3d 1ca0 8cbe
000001a0: b170 b13b 4175 0b3e 0640 5fbd deae 45be
000001b0: b932 883e fda7 163e 435c b33e 1907 c4bb
000001c0: 4b2f 99be ec53 e0bd 631d e23c 19e5 69be
000001d0: 0a98 fe39 d1b0 59be 9aa5 553d 1b72 233e
000001e0: 5cb6 6a3e 3177 073e a8fc ba3c 3ffd 113e
000001f0: 95ac 9a3d 310e dbbe de97 a73e cbf5 a3bc
00000200: f961 73be 9043 82bd f0cd b03d 3061 e13d
00000210: 7469 fabd 5f6f e43a 6769 66be b872 2fbd
00000220: 797c 373e 31f4 34bd 3a6b 21bc 048e 56be
00000230: bf7c 073e 2f2e 8d3e 33f1 9d3d f660 0bbe
00000240: 9137 74bd bb69 98bd a915 973e bdc4 b63e
00000250: 118b 6e3d 7ea0 423e b2f1 2dbe 5bb9 32be
00000260: dd42 fcbd 51a6 b3be 65b8 bebd 77a5 3e3e
00000270: 3fa1 90bd e6ff dc3d 40d6 0b3e a61c 07bc
00000280: ce1a b93d c5e6 7a3d 75de 3a3e f1f5 88bd
00000290: 9413 5ebe dea5 c13e 77cb 663d 8f87 76be
000002a0: 96bd 3d3e 88f1 cabb 1093 8abd 2e1c 353e
000002b0: 0b2c 80be 32bd ad3c 1824 83be f701 a1bd
000002c0: 7e12 efbe 81d8 33be 6d16 3cbe e76e b33d
000002d0: 15f5 263e 0639 94be e574 95bb dec8 313d
000002e0: 2705 f5bd de04 88be 3646 963d 5d4d 64bd
000002f0: d560 0cbe d458 8c3d ab48 8dbe dff5 a83e
00000300: aa2a 4c3e 7c47 afbd f8c6 723e 6b78 ca3d
00000310: 2447 82be 4203 a1bd 0314 f2bc 9612 e13d
00000320: 5f8f 953c d7e4 2cbe dcf4 833c 5f81 48bd
00000330: 95e6 90bd 059c 973c f441 d1bc b5fc dabe
00000340: 4270 913d ede2 a0bd f8e2 d03d 5083 1f3e
00000350: 70f3 c13d b31a a1be 2053 f03e c889 5cbd
00000360: 1783 d5bd 10cf b03d 5e6a 0c3f 92ba f73b
00000370: f98f 53be bf53 a93e 1216 843e ee81 91be
00000380: e42c 763e ebd9 083d dce3 403e 1427 003e
00000390: 382d 5d3e ef96 203e af85 b73d e0a1 69bd
000003a0: 2eb9 f8bd e63a 2a3b a48f 43be 2686 9e3d
000003b0: b92b e43d 44d7 b0bd 6394 3cbe 9ae9 053d
000003c0: 26a5 92be 9ce2 9a3e fbd6 babd 5090 20be
000003d0: 7d62 cfbd 4097 a8be 71b2 29bd ebb1 cfba
000003e0: 7a95 4abd b4f4 09be 60a3 08bd c4a0 8ebe
000003f0: 0185 a53e 8c53 ce3d 1758 c33d 3108 b6bd

bias_ih_l0_reverse f4 [52]
0.08557599 0.0933463 -0.047461893 0.26389936 0.036530018 0.15896624 -0.2409016 0.078568645
0.19064036 0.2669137 0.26407963 -0.039854236 0.07353271 -0.1332767 0.29597524 -0.010939775
0.034810428 -0.080496505 -0.06568301 0.0025564593 0.22467849 0.06336996 0.1702518 -0.014168303
-0.016636416 -0.171355 -0.11730878 0.05334599 -0.16663483 -0.18599622 -0.10582372 0.12303695
-0.05122066 -0.21750112 0.25058782 0.27778247 0.043349363 -0.27142346 0.26567444 0.13121076
-0.1305208 0.11507662 0.125526 0.12495237 -0.2616135 -0.026313078 0.1408045 -0.16000852
-0.2635033 0.15361647 0.24383718 -0.06823804
00000000: 7742 af3d 582c bf3d 6767 42bd d11d 873e
00000010: 80a0 153d 0cc8 223e e9ae 76be 99e8 a03d
00000020: 3a37 433e eaa8 883e 7235 873e 323e 23bd
00000030: 5198 963d b079 08be 118a 973e be3c 33bc
00000040: 6195 0e3d 5adb a4bd d084 86bd 458a 273b
00000050: 1e12 663e 1cc8 813d 7d56 2e3e 2c22 68bc
00000060: 1849 88bc af77 2fbe 963f f0bd 5381 5a3d
00000070: 52a2 2abe cb75 3ebe 1bba d8bd ccfa fb3d
00000080: c1cc 51bd 9db8 5ebe 0c4d 803e 8139 8e3e
00000090: 1a8f 313d 04f8 8abe 7b06 883e 1d5c 063e
000000a0: 3fa7 05be 4aad eb3d e389 003e 07e7 ff3d
000000b0: 34f2 85be 868e d7bc 0e2f 103e 46d9 23be
000000c0: e8e9 86be a34d 1d3e 74b0 793e 63c0 8bbd

bias_hh_l0_reverse f4 [52]
-0.15258577 0.25943798 0.1857669 -0.13493007 -0.03676981 -0.05770605 0.21853673 -0.23488355
0.018923933 -0.02251452 -0.25533298 -0.23078561 0.033625834 -0.11726188 -0.12972236 -0.11186077
0.11669728 0.003089756 -0.073209316 -0.092200845 0.10714216 -0.2578884 -0.15511434 0.09063545
-0.18506917 0.24729551 -0.10334878 0.19267802 -0.04947877 -0.1949859 -0.23457962 0.07082112
0.048701856 0.19843823 -0.2540953 0.12727536 -0.17974219 -0.23343915 0.11496043 -0.111630365
0.20300274 0.1726276 0.26935723 0.27194983 0.094987944 0.13572161 -0.29283556 -0.051472887
0.1852526 0.2031524 -0.15440705 -0.15343548
00000000: 723f 1cbe 0ed5 843e ae39 3e3e 1c2b 0abe
00000010: f19b 16bd 2e5d 6cbd 18c8 5f3e 5085 70be
00000020: 5d06 9b3c 5f70 b8bc 01bb 82be 1053 6cbe
00000030: 3ebb 093d ff26 f0bd f0d5 04be 4217 e5bd
00000040: fcfe ee3d 817d 4a3b c4ee 95bd ccd3 bcbd
00000050: 596d db3d f309 84be 4bd6 1ebe 149f b93d
00000060: c682 3dbe 093b 7d3e 86a8 d3bd 634d 453e
00000070: 40aa 4abd 62aa 47be a435 70be aa0a 913d
00000080: 997b 473d 6433 4b3e c718 82be 7954 023e
00000090: 560e 38be ac0a 6fbe 6070 eb3d 769e e4bd
000000a0: f3df 4f3e 4ac5 303e 31e9 893e 023d 8b3e
000000b0: 0a89 c23d 9bfa 0a3e 8bee 95be 3cd5 52bd
000000c0: dcb2 3d3e 2f07 503e e21c 1ebe 311e 1dbe

weight f4 [16, 260]
-0.23022994 -0.2109583 -0.054710735 0.044560686 0.12867562 -0.0046738554 -0.01008619 -0.23629598
-0.049649842 0.022596627 0.06153456 -0.05859296 0.1714406 0.04921848 -0.011746093 -0.023391167
-0.06550781 -0.031002544 0.014197829 0.068451226 -0.02954767 -0.08673638 0.00226485 -0.08280677
-0.061903145 0.20480412 0.22160509 -0.08375161 0.06354518 0.017695686 0.0026818626 0.10681929
-0.031253114 -0.018807797 -0.018082336 -0.016191933 0.069616124 -0.09670978 -0.13076037 0.04222697
-0.13896401 0.0646274 0.0150922 -0.07600133 -0.020234985 0.118735865 0.067495726 0.058704484
0.0851066 -0.050126575 0.03847319 -0.034172095 0.060659688 -0.15445344 0.040341884 -0.013711604
-0.02053979 -0.017565629 0.07548499 0.022854822 -0.09785943 0.0473869 -0.09643924 -0.100830585
-0.07453647 -0.010887022 -0.021786256 -0.18331948 -0.06659434 -0.02788545 0.065065585 0.04002118
-0.0312754 -0.035580985 -0.048232153 0.05092378 -0.08243218 0.015108625 -0.024360577 -0.08399917
0.014448048 -0.022576582 -0.12246261 0.023492383 0.07333343 -0.01615261 -0.032080997 0.025302745
-0.11524418 -0.017851701 -0.018403426 -0.10900637 -0.10348396 0.052129526 -0.023016257 0.009102099
0.10000927 0.06300194 0.24656588 0.073828004 -0.07456277 -0.114395946 -0.103018425 -0.0069250828
-0.040744625 0.05711359 -0.077437215 -0.09580694 -0.23527569 0.06898312 0.01182638 -0.10137025
-0.059357423 -0.00060380565 0.04082422 0.01824621 0.15254833 -0.12683876 0.035969112 -0.08255332
-0.10784682 0.13942127 0.16551526 -0.19545035 0.010544908 -0.17012288 -0.02473773 -0.12410801
-0.0034976997 -0.089299515 0.055246476 -0.085570455 0.06656174 -0.1183831 0.11024698 0.23974952
0.010198405 0.03717664 -0.15222579 -0.042925246 -0.012407329 -0.124278046 -0.10348687 0.10108484
-0.006085024 -0.04778896 0.063396975 0.076441094 0.054158244 0.016943434 0.08141999 -0.060712237
0.046376456 0.030578924 0.08404696 -0.09204217 0.051531926 -0.05408743 -0.076665856 -0.12927997
-0.03437747 0.057638526 0.0074066394 -0.014775976 -0.14818501 -0.023360502 -0.06765767 -0.02323858
-0.10768487 0.097098544 -0.017376602 -0.085828535 -0.008978086 -0.055378575 0.001493704 -0.0056689484
0.04642724 0.06525084 -0.017864974 0.055950183 0.0056516477 0.015338317 0.047008745 -0.024093078
0.10747408 -0.12959415 -0.04783725 -0.14349753 0.057140615 0.04894139 0.012776358 -0.04372926
-0.0037099752 -0.0036266786 -0.055294983 0.02844848 0.024275417 -0.027678687 0.058356486 -0.03859489
0.0013667734 -0.074601665 -0.06262454 -0.015848992 -0.06856441 -0.046464916 0.078030676 0.026436195
-0.036624774 -0.065470316 0.018839426 0.10941345 0.21117899 -0.018158093 -0.009757663 -0.048790444
-0.08998656 -0.0041158004 0.04250787 0.024183882 -0.13977878 -0.071840756 -0.06755524 -0.1626213
0.008081394 -0.03655924 0.128278 0.08749322 -0.07274738 -0.10847966 -0.10265234 0.05571113
0.022548169 0.18909481 0.035836518 -0.038526826 -0.12123781 -0.23291683 -0.078025796 -0.05786483
-0.0038388164 -0.08512766 -0.18896033 -0.050662663 0.07769623 0.082822286 0.10034684 -0.07314692
-0.093542576 0.070720166 -0.14318895 0.10991811 0.0878423 0.022323553 0.10396473 -0.03548752
00000000: 66c1 6bbe 7405 58be 5d18 60bd 4485 363d
00000010: 8bc3 033e 2427 99bb 8c40 25bc 93f7 71be
00000020: a25d 4bbd 901c b93c aa0b 7c3d 2cff 6fbd
00000030: 208e 2f3e 5199 493d af72 40bc d59e bfbc
00000040: f528 86bd 0cf9 fdbc 039e 683c 2830 8c3d
00000050: f50d f2bc d8a2 b1bd e16d 143b 9996 a9bd
00000060: 278e 7dbd 2cb8 513e 72ec 623e f785 abbd
00000070: fa23 823d 8bf6 903c 30c2 2f3b 12c4 da3d
00000080: 4403 00bd cf12 9abc 6821 94bc f2a4 84bc
00000090: e692 8e3d c70f c6bd 0ce6 05be 30f6 2c3d
000000a0: 954c 0ebe 5f5b 843d 4645 773c 96a6 9bbd
000000b0: d7c3 a5bc ca2b f33d 333b 8a3d 1d74 703d
000000c0: 5e4c ae3d 8651 4dbd 1096 1d3d 0af8 0bbd
000000d0: 4b76 783d 0b29 1ebe 883d 253d a3a6 60bc
000000e0: 1043 a8bc cbe5 8fbc e097 9a3d 093a bb3c
000000f0: 866a c8bd c418 423d f081 c5bd 4480 cebd
00000100: 94a6 98bd 7b5f 32bc 1779 b2bc 1ab8 3bbe
00000110: 9d62 88bd 0770 e4bc 1b41 853d 40ed 233d
00000120: a21a 00bd 5ebd 11bd 148f 45bd 7495 503d
00000130: 34d2 a8bd 2b8a 773c d58f c7bc c207 acbd
00000140: 81b7 6c3c 86f2 b8bc adcd fabd 1973 c03c
00000150: d62f 963d 7a52 84bc 5d67 03bd b447 cf3c
00000160: 2405 ecbd bb3d 92bc c8c2 96bc bb3e dfbd
00000170: 66ef d3bd c585 553d 978c bcbc f820 153c
00000180: a9d1 cc3d 2907 813d c47b 7c3e 2333 973d
00000190: 5eb4 98bd 6c48 eabd 53fb d2bd ceeb e2bb
000001a0: d6e3 26bd f1ef 693d 6797 9ebd 6e36 c4bd
000001b0: 1cec 70be 0647 8d3d 6fc3 413c 359b cfbd
000001c0: c520 73bd b648 1eba 4c37 273d 1379 953c
000001d0: a135 1c3e 05e2 01be 5954 133d b711 a9bd
000001e0: cbde dcbd 73c4 0e3e d57c 293e 2324 48be
000001f0: 8dc4 2c3c b134 2ebe c8a6 cabc 572c febd
00000200: aa39 65bb aae2 b6bd 214a 623d 903f afbd
00000210: 8651 883d d772 f2bd 2bc9 e13d e680 753e
00000220: 3617 273c 8846 183d 14e1 1bbe 62d2 2fbd
00000230: 1c48 4bbc 7d85 febd edf0 d3bd 9205 cf3d
00000240: e264 c7bb 5bbe 43bd 46d6 813d 268d 9c3d
00000250: 09d5 5d3d f5cc 8a3c 86bf a63d 65ad 78bd
00000260: 3df5 3d3d a780 fa3c d020 ac3d 9b80 bcbd
00000270: 2413 533d c88a 5dbd fd02 9dbd f861 04be
00000280: 64cf 0cbd 6016 6c3d 65b3 f23b ef16 72bc
00000290: d0bd 17be 865e bfbc 1b90 8abd d65e bebc
000002a0: e389 dcbd 9adb c63d 6059 8ebc dfc6 afbd
000002b0: d218 13bc a5d4 62bd 64c8 c33a 96c2 b9bb
000002c0: 7d2a 3e3d 3ba2 853d 9159 92bc 052c 653d
000002d0: 7531 b93b 904d 7b3c 3e8c 403d d95e c5bc
000002e0: 5f1b dc3d 54b4 04be fef0 43bd 04f1 12be
000002f0: 470c 6a3d c476 483d ee53 513c 741d 33bd
00000300: 0e23 73bb 92ad 6dbb fe7c 62bd c90c e93c
00000310: 3ddd c63c 6abe e2bc 3607 6f3d ad15 1ebd
00000320: 4e25 b33a c2c8 98bd 4b41 80bd bfd5 81bc
00000330: 7f6b 8cbd ff51 3ebd 8cce 9f3d b890 d83c
00000340: dc03 16bd 4d15 86bd 2455 9a3c 2914 e03d
00000350: 4e3f 583e 48c0 94bc 9bde 1fbc 7dd8 47bd
00000360: e04a b8bd d6dd 86bb bb1c 2e3d 471d c63c
00000370: 2b22 0fbe 3f21 93bd 675a 8abd 3386 26be
00000380: d367 043c 24bf 15bd 4f5b 033e a52f b33d
00000390: 94fc 94bd 952a debd 643b d2bd 5b31 643d
000003a0: f0b6 b83c 12a2 413e 50c9 123d 4ece 1dbd
000003b0: 874b f8bd c081 6ebe fdcb 9fbd ac03 6dbd
000003c0: a794 7bbb 6957 aebd d17e 41be a783 4fbd
000003d0: 331f 9f3d bb9e a93d a582 cd3d 0dce 95bd
000003e0: 4093 bfbd bcd5 903d 20a0 12be bf1c e13d
000003f0: aae6 b33d e2df b63c 76eb d43d 5d5b 11bd

bias f4 [16]
-0.03841439 -0.030852895 -0.021204943 0.013350938 0.03986195 0.045979414 0.04446754 0.031813543
0.04806718 0.029460663 -0.030467277 -0.06674891 -0.06596099 -0.018019198 0.033615425 -0.057661597
00000000: 6858 1dbd 36bf fcbc fdb5 adbc e5bd 5a3c
00000010: 4946 233d e954 3c3d 9823 363d eb4e 023d
00000020: 17e2 443d 7d57 f13c 8396 f9bc a7b3 88bd
00000030: 8e16 87bd ff9c 93bc 54b0 093d 912e 6cbd

weight f4 [19, 16]
-0.18048099 0.10756688 -0.03252922 -0.06699221 -0.13529296 0.042906616 -0.0285878 0.37826744
-0.078182735 -0.008302187 0.31643307 -0.28911352 -0.0070138993 0.6845933 0.110589005 -0.6532098
0.020146409 -0.050124507 -0.11662964 0.04867392 0.27261415 -0.16634071 0.25006646 -0.26815087
-0.024911761 0.022260567 -0.054265562 -0.19472052 -0.007476679 0.24177381 0.16431664 -0.029390566
-0.1805583 -0.008422119 -0.49893892 -0.109343655 -0.38667032 -0.07770459 0.006435795 0.19852516
-0.11067697 0.24436863 0.036386304 0.23248939 -0.047308728 0.015209164 0.59299517 0.13777427
-0.21404025 -0.039263934 -0.0039662095 -0.30970785 -0.08974098 0.08410537 0.13247076 0.0045270384
0.06559946 0.16627388 0.18794028 0.2610617 0.06525268 0.0429341 0.120874085 0.20145641
-0.09495505 0.18136173 0.60716254 0.014790507 0.014062246 0.34217837 -0.33866766 0.02023112
-0.3658899 0.0058071674 0.03198031 -0.0706779 -0.095783584 0.12373915 -0.03459363 -0.6290149
0.2611369 -0.1707881 -0.5708963 -0.39014703 0.4611402 0.1032195 -0.06516856 -0.033053026
0.2335548 0.19609088 0.05956468 -0.13508731 0.32627258 -0.033427272 -0.11064479 0.16893665
-0.3618129 -0.23684865 0.11421408 0.2153976 0.53126293 0.19226746 0.20020099 -0.019621106
-0.0632488 0.20777157 -0.45290744 0.015454806 0.098847955 0.15646516 -0.029801097 -0.18713509
-0.2121359 0.24031924 -0.014215743 0.14792953 -0.14032856 0.11988608 -0.14295493 0.25681898
-0.07697579 -0.072701894 0.13446297 0.2834219 0.26387194 0.10094141 0.09102443 0.07725234
-0.30288157 0.04825365 -0.079624906 0.0078045116 -0.196179 -0.04485496 -0.099948585 0.0028505004
0.21511194 0.30099264 -0.57339096 0.11614985 -0.4521942 0.23429826 0.59287477 0.15243576
0.17477225 -0.13624842 0.12524667 0.31537402 -0.054892655 0.83839136 0.55161434 -0.06999271
-0.05147256 0.1083202 0.0150926635 -0.10530471 -0.0028731849 0.2073081 -0.4168878 -0.28856176
-0.07908097 -0.041196253 0.1823173 -0.36056188 0.033490468 -0.28713697 -0.18426153 0.5197628
0.25785613 0.40716147 0.24410376 -0.22978492 -0.0053749997 0.12892206 -0.23495439 -0.19706143
-0.058706474 0.15749873 0.20713001 -0.012075125 0.00026045064 0.077495605 0.30302557 0.25673655
0.32165778 0.11379398 -0.18809325 0.17962585 0.34076208 0.38030905 0.19398642 0.09549634
0.024701541 -0.011923919 0.18050973 -0.25695366 0.1115456 -0.29314008 0.29414877 0.125476
0.2955074 0.08371784 0.503561 0.22084208 -0.14332108 -0.7494425 0.5233593 0.22042608
-0.13407752 0.24800497 0.025493382 0.0052601905 0.029673016 -0.17013179 0.10092265 -0.07154587
-0.10816461 -0.13178548 -0.116407394 -0.1556995 0.030383294 0.24167867 -0.35790306 0.021815566
-0.05519251 0.33806694 -0.21497743 -0.27347603 -0.3574162 -0.0070203403 -0.18742883 0.47541893
0.12964216 0.4812433 -0.014501922 0.15529883 0.47118178 -0.10573241 -0.14582041 0.009543265
0.43796432 -0.011257323 0.10717238 -0.017645806 0.221455 0.06418015 0.20065443 -0.09197027
-0.05480201 -0.0049567726 0.36604255 -0.28169754 0.25107157 -0.11380808 -0.36733705 0.39617267
00000000: 02d0 38be 064c dc3d 5c3d 05bd 3633 89bd
00000010: 3d8a 0abe d9be 2f3d f630 eabc 45ac c13e
00000020: 451e a0bd e505 08bc 8403 a23e b006 94be
00000030: dad4 e5bb 8241 2f3f 7d7c e23d c238 27bf
00000040: 150a a53c 5b4f 4dbd 85db eebd 4e5e 473d
00000050: 1594 8b3e 3855 2abe b608 803e 124b 89be
00000060: c013 ccbc cb5b b63c 9145 5ebd d164 47be
00000070: eefe f4bb 8e93 773e 9f42 283e 7cc4 f0bc
00000080: 46e4 38be edfc 09bc ec74 ffbe 91ef dfbd
00000090: a7f9 c5be 9623 9fbd 5de3 d23b 2e4a 4b3e
000000a0: 9baa e2bd c53b 7a3e ce09 153d b311 6e3e
000000b0: ccc6 41bd db2f 793c 88ce 173f b314 0d3e
000000c0: 5e2d 5bbe 38d3 20bd faf6 81bb 0792 9ebe
000000d0: 1eca b7bd 703f ac3d 6aa6 073e 8d57 943b
000000e0: 0259 863d b343 2a3e 6b73 403e e1a9 853e
000000f0: 32a3 853d abdb 2f3d d58c f73d 974a 4e3e
00000100: cb77 c2bd e4b6 393e 016f 1b3f e253 723c
00000110: 5665 663c 0132 af3e d965 adbe bcbb a53c
00000120: ec55 bbbe 0d4a be3b c9fd 023d 93bf 90bd
00000130: 2f2a c4bd f46a fd3d 0db2 0dbd 1f07 21bf
00000140: bcb3 853e 13e3 2ebe 4326 12bf 5ac1 c7be
00000150: 911a ec3e bf64 d33d 1877 85bd 9c62 07bd
00000160: fd28 6f3e 0ccc 483e 18fa 733d 5454 0abe
00000170: 330d a73e 09eb 08bd bc99 e2bd bbfd 2c3e
00000180: 8a3f b9be 7488 72be 12e9 e93d 3091 5c3e
00000190: d900 083f c3e1 443e 7d01 4d3e 71bc a0bc
000001a0: 9688 81bd 12c2 543e 7ce3 e7be 2836 7d3c
000001b0: cc70 ca3d 6738 203e 6e21 f4bc 57a0 3fbe
000001c0: 273a 59be 3f16 763e 26e9 68bc d77a 173e
000001d0: 4ab2 0fbe d586 f53d c762 12be c77d 833e
000001e0: 7ca5 9dbd bbe4 94bd a9b0 093e ad1c 913e
000001f0: 391a 873e 5fba ce3d 046b ba3d 7a36 9e3d
00000200: 4b13 9bbe 9fa5 453d 6212 a3bd fdbc ff3b
00000210: 26e3 48be d6b9 37bd d8b1 ccbd 76cf 3a3b
00000220: 4e46 5c3e b51b 9a3e c0c9 12bf f9df ed3d
00000230: 0086 e7be e2eb 6f3e a4c6 173f 1f18 1c3e
00000240: 7ff7 323e b584 0bbe aa40 003e b478 a13e
00000250: 1fd7 60bd d1a0 563f 9936 0d3f 5758 8fbd
00000260: e4d4 52bd fbd6 dd3d 3847 773c ffa9 d7bd
00000270: 0b4c 3cbb 9348 543e 5172 d5be 5ebe 93be
00000280: 34f5 a1bd 67bd 28bd 63b1 3a3e 919b b8be
00000290: 4d2d 093d 9e03 93be 0eaf 3cbe 2d0f 053f
000002a0: b805 843e 7877 d03e 56f6 793e bd4c 6bbe
000002b0: c420 b0bb 2504 043e e297 70be 79ca 49be
000002c0: 3376 70bd 5947 213e e419 543e bfd6 45bc
000002d0: 188d 8839 04b6 9e3d 2b26 9b3e f972 833e
000002e0: 54b0 a43e d10c e93d 849b 40be d7ef 373e
000002f0: 5e78 ae3e deb7 c23e 60a4 463e 9693 c33d
00000300: e35a ca3c 8b5c 43bc 8bd7 383e 6e8f 83be
00000310: 0572 e43d 7516 96be ab9a 963e c87c 003e
00000320: bf4c 973e 4274 ab3d 60e9 003f 6d24 623e
00000330: c3c2 12be 77db 3fbf e0fa 053f 60b7 613e
00000340: 9e4b 09be 04f5 7d3e 7fd7 d03c ad5d ac3b
00000350: d314 f33c 0737 2ebe 89b0 ce3d a486 92bd
00000360: 6885 ddbd c6f2 06be 0067 eebd b16f 1fbe
00000370: 63e6 f83c 9d7a 773e 123f b7be 8fb6 b23c
00000380: 8b11 62bd 1c17 ad3e 0b23 5cbe 0d05 8cbe
00000390: 42ff b6be e20a e6bb 58ed 3fbe 1c6a f33e
000003a0: eac0 043e 8665 f63e 7899 6dbc a806 1f3e
000003b0: bd3e f13e 3c8a d8bd f251 15be 5b5b 1c3c
000003c0: dc3c e03e a370 38bc 317d db3d f08d 90bc
000003d0: 19c5 623e e270 833d 5b78 4d3e e95a bcbd
000003e0: 1378 60bd 6c6c a2bb ee69 bb3e a93a 90be
000003f0: 748c 803e 3614 e9bd 9a13 bcbe 25d7 ca3e

bias f4 [19]
-0.07926648 -0.023526575 -0.14360985 -0.030782029 -0.020634497 0.1041581 -0.024347644 -0.06688481
-0.15142015 -0.15775119 -0.06540687 -0.13857916 -0.17700282 0.0903205 -0.15094495 0.05110937
0.050947536 0.042931765 0.08985524
00000000: 7756 a2bd ceba c0bc 760e 13be 982a fcbc
00000010: ad09 a9bc d850 d53d b674 c7bc e7fa 88bd
00000020: e20d 1bbe 8789 21be 09f4 85bd b2e7 0dbe
00000030: 3a40 35be f4f9 b83d 5091 1abe 0f58 513d
00000040: 5dae 503d 38d9 2f3d 0606 b83d

weight f4 [19, 16]
-0.08833908 -0.10595688 0.4101792 0.047119327 -0.12448137 -0.29562166 -0.2794213 0.23625225
0.18075714 0.16247194 0.27726603 0.27219415 -0.014215839 -0.14724338 0.01835318 0.2897682
0.0010632195 0.11514848 -0.3987065 -0.06900511 -0.2988006 0.22193016 0.12729381 -0.2071797
0.080167584 -0.026004657 0.011110377 0.32399896 0.0024086852 -0.06440355 -0.0674187 0.0410637
-0.29065365 0.12325743 0.39683825 0.13642937 0.010402269 -0.28027073 -0.38864842 -0.055486627
-0.047838014 -0.2895862 -0.65417707 0.19824488 0.058646183 -0.12509623 0.12451467 0.1857674
0.029221129 0.17583826 -0.39235193 0.0006055188 0.3235107 -0.20527244 0.07335683 -0.38154724
0.06497672 -0.028800366 0.23649506 0.5305169 -0.2223922 0.018838678 0.4469055 0.052152786
0.040199626 -0.566793 0.25849625 0.12750089 -0.07459114 0.20502359 -0.47053474 -0.43670672
0.0378896 0.031547584 0.27661887 0.3326333 -0.27917203 -0.35354534 -0.4093282 -0.22537044
0.10581684 -0.14213902 0.093956985 -0.22800559 0.34843963 -0.093465306 0.017677248 -0.16977018
0.18487039 0.22377923 -0.5484473 0.03270071 0.093054816 0.09135971 0.5439827 -0.015305133
-0.021263564 -0.68458503 -0.041490957 -0.0003258753 -0.18081143 0.29524085 0.29162696 -0.5547891
0.032564573 0.0022635048 -0.16383176 -0.02529048 -0.21754888 0.08283726 0.10673583 -0.23919274
0.4839168 -0.094367504 0.04757301 0.09329798 0.06437159 -0.06180962 -0.07266803 0.13878864
0.20878147 0.21773033 0.13850741 0.12783891 -0.031744912 0.087654695 0.17617661 -0.0056769312
-0.28441113 -0.25351375 0.15028414 0.29961276 -0.4051563 -0.1195754 0.007900369 -0.12631854
-0.11576565 0.030691978 0.12920888 -0.28818706 0.1407856 0.15713021 -0.080875926 0.52511305
-0.010387185 -0.039605215 -0.017644575 -0.07812441 0.35732836 -0.29204494 -0.080958165 -0.2838926
-0.060778722 -0.4598248 0.25172186 0.13330673 -0.22098726 -0.10949216 0.022653742 -0.24115692
0.025251344 0.37684396 0.05904019 0.29212755 -0.021196708 -0.1965747 0.24830335 0.047309346
0.20437267 0.033167627 -0.1744146 0.075068995 -0.21542273 -0.018899523 0.52636147 -0.04148175
-0.14043546 0.05919898 0.16085425 -0.1898154 -0.1127054 -0.4118684 -0.3248282 -0.07076095
-0.10375541 -0.1273071 0.3205785 0.2549349 0.04277305 0.60540354 -0.16151689 0.3470653
-0.24594252 0.01747526 -0.11867661 0.24160102 0.5530811 -0.06543841 -0.11170006 -0.19019368
-0.23263316 -0.21579759 -0.034522597 -0.08591583 -0.18928866 0.19326556 0.011880436 -0.04589816
-0.13708672 0.32824343 0.2435369 -0.08150309 0.2956767 0.1599285 -0.21495894 0.12149069
0.51292455 -0.11480242 0.07695441 -0.43523043 0.034458723 0.07585705 -0.28906125 0.30276957
0.08821055 -0.09598688 -0.0584194 0.08708239 0.40132144 -0.07684171 0.067514054 0.29722318
-0.14036125 -0.0016056761 0.061703555 -0.28874063 -0.38852644 -0.15663955 0.3290224 -0.062576495
0.5250477 -0.37778103 0.19295494 -0.034413435 -0.26869744 -0.09511679 -0.18561067 -0.18897425
-0.22167253 0.40003842 -0.2763174 0.46278083 0.014740305 0.16153133 0.09563427 -0.58479434
00000000: 1feb b4bd ecff d8bd 0203 d23e 3200 413d
00000010: 17f0 febd b95b 97be 4f10 8fbe 1cec 713e
00000020: 6618 393e 0b5f 263e d0f5 8d3e 085d 8b3e
00000030: 8de9 68bc f8c6 16be 6859 963c 7f5c 943e
00000040: ba5b 8b3a f7d2 eb3d 4223 ccbe 8d52 8dbd
00000050: 64fc 98be a941 633e 4f59 023e ea26 54be
00000060: e72e a43d b807 d5bc 4c08 363c 31e3 a53e
00000070: 08db 1d3b 02e6 83bd d112 8abd 6932 283d
00000080: 8ed0 94be 646e fc3d 622e cb3e 24b4 0b3e
00000090: 476e 2a3c a57f 8fbe edfc c6be f245 63bd
000000a0: cbf1 43bd a444 94be 2678 27bf b500 4b3e
000000b0: fb36 703d 3a19 00be 8c01 ff3d cf39 3e3e
000000c0: 2661 ef3c f20e 343e 5ae2 c8be aebb 1e3a
000000d0: 32a3 a53e f032 52be 1b3c 963d 295a c3be
000000e0: 8412 853d bfee ebbc c32b 723e f5cf 073f
000000f0: c8ba 63be 9253 9a3c ccd0 e43e 299e 553d
00000100: 5da8 243d 5919 11bf 9f59 843e 988f 023e
00000110: 3dc3 98bd b4f1 513e eee9 f0be 0698 dfbe
00000120: 2032 1b3d 0a38 013d fda0 8d3e e94e aa3e
00000130: a3ef 8ebe e503 b5be 7793 d1be 82c7 66be
00000140: 80b6 d83d e48c 11be 856c c03d 4c7a 69be
00000150: ae66 b23e bd6a bfbd e0cf 903c 3cd8 2dbe
00000160: aa4e 3d3e 6226 653e 0b67 0cbf 2ef1 053d
00000170: 8693 be3d cd1a bb3d 7342 0b3f 61c2 7abc
00000180: ed30 aebc f740 2fbf 6cf2 29bd 3eda aab9
00000190: a226 39be cf29 973e 2150 953e a906 0ebf
000001a0: 6e62 053d 4f57 143b 83c3 27be fb2d cfbc
000001b0: 22c5 5ebe 95a6 a93d 5198 da3d f1ee 74be
000001c0: f1c3 f73e c043 c1bd ebdb 423d 0313 bf3d
000001d0: 41d5 833d 162c 7dbd fad2 94bd 9c1e 0e3e
000001e0: cfca 553e b3f4 5e3e e3d4 0d3e 34e8 023e
000001f0: f406 02bd 4e84 b33d a467 343e 8d05 babb
00000200: 569e 91be 8ecc 81be 16e4 193e d866 993e
00000210: a670 cfbe f3e3 f4bd 8d70 013c a659 01be
00000220: 8b16 edbd be6d fb3c 554f 043e 418d 93be
00000230: 1a2a 103e bee6 203e 47a2 a5bd cf6d 063f
00000240: 032f 2abc 1439 22bd 5b8b 90bc b1ff 9fbd
00000250: bef3 b63e ea86 95be 65cd a5bd 5f5a 91be
00000260: 1cf3 78bd 286e ebbe b0e1 803e 8f81 083e
00000270: 7c4a 62be 6d3d e0bd 5794 b93c d7f1 76be
00000280: e8db ce3c b1f1 c03e 20d4 713d be91 953e
00000290: b8a4 adbc e14a 49be 3c43 7e3e 72c7 413d
000002a0: 1247 513e c7da 073d be99 32be c6bd 993d
000002b0: c797 5cbe 2cd3 9abc a0bf 063f c4e8 29bd
000002c0: 50ce 0fbe a17a 723d fab6 243e f85e 42be
000002d0: 17d2 e6bd 6ae0 d2be e24f a6be 1eeb 90bd
000002e0: b77d d4bd cb5c 02be dd22 a43e d486 823e
000002f0: cb32 2f3d bafb 1a3f af64 25be 8bb2 b13e
00000300: 5bd8 7bbe 4728 8f3c b90c f3bd 4266 773e
00000310: b996 0d3f 9304 86bd 00c3 e4bd 22c2 42be
00000320: 6337 6ebe 0bfa 5cbe 9167 0dbd a4f4 afbd
00000330: e3d4 41be 68e7 453e 29a6 423c b6ff 3bbd
00000340: 7660 0cbe 860f a83e bd61 793e 18eb a6bd
00000350: f062 973e 4cc4 233e 321e 5cbe 1cd0 f83d
00000360: 064f 033f 881d ebbd 469a 9d3d 86d6 debe
00000370: 9724 0d3d f15a 9b3d d6ff 93be 9d04 9b3e
00000380: bca7 b43d c594 c4bd 2e49 6fbd 4158 b23d
00000390: 017a cd3e 305f 9dbd cf44 8a3d a32d 983e
000003a0: dcba 0fbe 8d75 d2ba debc 7c3d d0d5 93be
000003b0: f0ec c6be 1e66 20be a075 a83e 1b28 80bd
000003c0: 8769 063f 846c c1be fb95 453e 1af5 0cbd
000003d0: b692 89be 97cc c2bd b910 3ebe 7782 41be
000003e0: 20fe 62be d6d1 cc3e 7979 8dbe 9cf1 ec3e
000003f0: 5281 713c 7868 253e e6db c33d 15b5 15bf

bias f4 [19]
-0.12726888 0.051107455 0.18542342 -0.14406249 0.07669823 0.033762563 0.14687416 -0.15798053
-0.08928135 0.1603354 -0.20808494 0.0676572 0.029939609 0.07585923 -0.095669754 -0.038605228
0.12511373 0.18554187 -0.10451034
00000000: c652 02be 0d56 513d a3df 3d3e 1e85 13be
00000010: f613 9d3d 9d4a 0a3d 2e66 163e a6c5 21be
00000020: 24d9 b6bd f72e 243e 3814 55be dc8f 8a3d
00000030: e943 f53c 155c 9b3d 81ee c3bd 8420 1ebd
00000040: d01d 003e b0fe 3d3e 8409 d6bd
