models/a19lds19b0.007g0.02d0.1h13.pt (torch, 127234 bytes, 26 tensors)

weight_ih_l0 f4 [52, 4]
0.15901612 0.15985334 -0.12472282 0.131829 0.33959696 -0.11021678 -0.085894994 0.14154175
0.11613281 0.32841128 0.21615635 0.11850432 0.24046068 -0.19131413 0.046480004 -0.1893246
-0.17739733 -0.29938805 0.12710333 -0.05926201 -0.322697 0.07959836 0.119799 0.18008056
-0.14651951 -0.1502739 0.10886092 0.14547871 -0.05715757 -0.12481346 0.15211609 0.2936724
0.25659162 -0.19323927 0.35381973 0.10536598 0.2949795 -0.31343147 0.13773976 0.25592273
-0.18817212 0.06824486 -0.07412465 -0.17611256 -0.17522661 0.1395257 0.20541026 0.20517994
-0.0026242163 0.08749373 -0.12913296 0.12303862 -0.1081263 0.07993204 0.22453594 -0.010100153
0.07316333 0.0333027 -0.0034658664 0.06862164 -0.035187688 -0.09035576 0.014313767 -0.11038598
0.05303431 -0.11281156 -0.016756922 0.0015159817 0.062094226 -0.13154975 -0.08252688 -0.025678208
-0.17866278 0.1536111 0.31509706 -0.17876133 0.007455138 -0.07007006 -0.03535814 -0.0017455207
0.16212493 -0.08797008 -0.21977118 -0.10528824 -0.13501304 0.069621526 -0.08966698 0.13262716
0.10041077 -0.17262962 0.07376051 0.2317884 -0.053707354 -0.22696954 0.23109592 -0.085169934
-0.3060249 0.26604357 0.25852388 0.23191355 0.111966684 -0.069452785 -0.3507691 0.24328735
0.07759691 -0.18906946 0.0616435 -0.079086006 -0.12459223 0.07610916 0.14807491 0.08351897
0.1535815 0.35460097 -0.22486585 0.014531087 0.09056441 -0.063303396 -0.16946036 0.019372107
0.25251314 0.09925441 -0.07271256 -0.15815884 -0.120593354 -0.22654459 0.5953611 0.29024178
0.07494342 -0.10432877 -0.2781743 -0.065225385 -0.110394426 0.23738243 0.156024 -0.050893944
-0.0900438 0.03391197 0.008192832 -0.1278554 0.03948575 -0.05954012 0.31604254 0.1341208
0.17597337 0.20544744 0.0966277 -0.161393 -0.35706002 -0.050335865 -0.10544835 -0.07491571
0.11851344 0.10805668 -0.21325196 -0.20177615 -0.11925671 -0.31941375 -0.020745067 -0.06510766
-0.34367222 -0.07032417 0.010693904 0.29245993 0.2119182 -0.019686626 -0.33509317 0.0046726204
0.16721599 0.22462171 0.10461541 -0.045491822 -0.12337771 -0.03132455 0.1957773 -0.120358676
-0.0015593499 0.21509212 -0.22781917 0.03026937 -0.121115685 -0.03442125 -0.03914435 0.14164211
0.15498437 0.05251862 -0.2387768 0.08745459 0.021722225 -0.05070179 0.019584065 -0.03081134
0.079364866 -0.11290358 0.13645774 -0.24002391 0.05794443 -0.20720029 0.1482673 -0.383859
0.06993079 -0.16730987 0.23792948 0.18734014 -0.037983272 -0.0678163 -0.24272422 0.2452126
00000000: 1fd5 223e 98b0 233e ae6e ffbd 2efe 063e
00000010: a7df ad3e 56b9 e1bd b7e9 afbd 52f0 103e
00000020: 0ad7 ed3d 8625 a83e 1758 5d3e 65b2 f23d
00000030: 533b 763e dae7 43be d161 3e3d 4fde 41be
00000040: a5a7 35be 6449 99be 6027 023e b9bc 72bd
00000050: 8b38 a5be 7704 a33d 2e59 f53d 0a67 383e
00000060: 3609 16be 67e1 19be 79f2 de3d 5ff8 143e
00000070: 0e1e 6abd 339e ffbd 52c4 1b3e 3b5c 963e
00000080: fa5f 833e 84e0 45be dc27 b53e 1eca d73d
00000090: 8e07 973e 177a a0be a70b 0d3e 4e08 833e
000000a0: 31b0 40be f6c3 8b3d aace 97bd da56 34be
000000b0: 9b6e 33be d3df 0e3e 1157 523e b11a 523e
000000c0: 0bfb 2bbb ea2f b33d 6e3b 04be acfb fb3d
000000d0: 5271 ddbd 69b3 a33d c0ec 653e 1d7b 25bc
000000e0: a8d6 953d 6968 083d 9723 63bb 8189 8c3d
000000f0: f720 10bd 710c b9bd 4a84 6a3c 0b12 e2bd
00000100: 813a 593d bf09 e7bd d045 89bc e8b3 c63a
00000110: 8456 7e3d fab4 06be da03 a9bd 1b5b d2bc
00000120: 60f3 36be 3a4c 1d3e 6754 a13e 360d 37be
00000130: 3b4a f43b e480 8fbd b2d3 10bd f5c9 e4ba
00000140: 1404 263e a829 b4bd b20b 61be 5ca1 d7bd
00000150: dc40 0abe bb95 8e3d 52a3 b7bd 6acf 073e
00000160: 29a4 cd3d d2c5 30be c00f 973d f059 6d3e
00000170: 3efc 5bbd b46a 68be 69a4 6c3e 936d aebd
00000180: 4caf 9cbe dd36 883e 3e5d 843e bf7a 6d3e
00000190: ca4e e53d 433d 8ebd 0298 b3be 5220 793e
000001a0: 21eb 9e3d 6d9b 41be e57d 7c3d d8f7 a1bd
000001b0: 362a ffbd 1fdf 9b3d f3a0 173e fe0b ab3d
000001c0: 7844 1d3e 428e b53e 3c43 66be cc13 6e3c
000001d0: d579 b93d 36a5 81bd 0487 2dbe 41b2 9e3c
000001e0: 6749 813e e545 cb3d 53ea 94bd 64f4 21be
000001f0: a6f9 f6bd 4efb 67be 9669 183f 929a 943e
00000200: f07b 993d 52aa d5bd dd6c 8ebe e394 85bd
00000210: 7916 e2bd 6114 733e c1c4 1f3e 2b76 50bd
00000220: e268 b8bd 47e7 0a3d 3a3b 063c 87ec 02be
00000230: cfbb 213d 57e0 73bd 54d0 a13e f756 093e
00000240: 5d32 343e d060 523e bee4 c53d 3544 25be
00000250: 92d0 b6be fb2c 4ebd 4ef5 d7bd 686d 99bd
00000260: 2db7 f23d d24c dd3d b95e 5abe 689e 4ebe
00000270: dd3c f4bd 338a a3be 8ff1 a9bc 2a57 85bd
00000280: cef5 afbe 1e06 90bd 7c35 2f3c 4fbd 953e
00000290: 1601 593e d945 a1bc 5591 abbe c81c 993b
000002a0: ab3a 2b3e 3c03 663e 9b40 d63d a255 3abd
000002b0: 74ad fcbd 2c4e 00bd d879 483e 9c7e f6bd
000002c0: 1a63 ccba 1c41 5c3e 6e49 69be 78f7 f73c
000002d0: 800b f8bd 4cfd 0cbd d355 20bd a10a 113e
000002e0: 39b4 1e3e c41d 573d e881 74be 641b b33d
000002f0: cff2 b13c aeac 4fbd c36e a03c 1068 fcbc
00000300: 0c8a a23d fe39 e7bd 94bb 0b3e d4c8 75be
00000310: 2357 6d3d 502c 54be 62d3 173e 2b89 c4be
00000320: e037 8f3d 4753 2bbe c9a3 733e 18d6 3f3e
00000330: 5994 1bbd 46e3 8abd b38c 78be 0319 7b3e

weight_hh_l0 f4 [52, 13]
-0.19416544 -0.19191363 -0.14925739 0.21382818 -0.080556385 0.16000414 0.014202703 -0.26247567
-0.06211218 -0.0996818 0.14963377 -0.13653228 -0.09298849 0.13792515 -0.1795244 0.26283717
-0.4228996 -0.008153072 -0.1500604 -0.030994963 0.23557474 -0.31254742 0.0070820237 0.0832909
-0.52486676 0.25411016 0.008294563 -0.10104361 -0.047262687 -0.10227511 -0.16647233 -0.2070801
0.031304136 -0.006030904 -0.1870229 -0.0042495155 -0.07033594 -0.012433965 0.0052939444 0.2527046
0.032500446 -0.029696159 0.3106577 -0.055193696 0.1115876 -0.23560241 -0.13800986 -0.04330002
0.004023753 -0.035439394 0.09419155 -0.08458496 -0.0138281705 0.088781804 0.036605522 0.08149741
-0.029804843 -0.16384572 -0.034634456 0.15664104 0.14236201 -0.01192183 0.24058458 0.18392113
0.050729476 -0.022413997 -0.2361909 0.2537364 -0.09690671 -0.08366995 -0.040916476 0.015661182
0.2494475 -0.0769653 0.014385654 -0.022674596 -0.20864418 -0.08921616 0.24103396 0.16085638
0.12827107 0.079287924 0.224548 -0.12936582 -0.0412987 -0.08648925 0.16709585 -0.029173514
-0.076980546 -0.03027563 0.0102758575 -0.25261152 0.0099514015 0.1805204 0.10667395 0.067971066
-0.33228904 0.13219762 0.11130332 0.06316693 0.11514587 0.043163422 0.27040672 0.10477489
0.22324616 0.07057984 -0.17968315 0.13976762 -0.051965296 -0.2566412 -0.21339147 0.24341194
-0.059724994 0.30697954 0.16567287 0.12550144 0.1387803 -0.19828029 -0.12704805 -0.14303966
0.2370547 0.10383297 -0.2380857 -0.007904303 0.007506164 -0.25009188 -0.10793357 0.079926826
0.055259734 0.26120353 -0.19565809 0.1230812 0.095441416 -0.067107834 0.19698037 0.1467652
-0.088963665 0.2418203 -0.17192699 0.098405465 0.059441097 -0.08878946 -0.2589465 -0.063185334
0.29521617 0.11297123 -0.18567131 -0.052733306 -0.19950962 0.076987036 0.032955702 -0.45847815
0.065576844 0.32017472 0.12328747 0.046958096 -0.34423357 0.28896147 0.6282037 0.23954885
0.020876156 0.06031748 -0.13636744 0.31363574 -0.021507567 0.0016916633 0.08554167 -0.06449339
0.068993665 -0.16520573 -0.005827386 0.06826902 0.20094112 -0.08939737 0.12118496 0.14477557
0.16874766 -0.21914083 0.1694591 -0.038212333 -0.12687151 0.24578136 0.04417454 0.11246855
-0.27147084 0.068235666 0.047881186 -0.17896448 -0.3344086 0.18406317 0.4275967 -0.08425031
-0.14120492 0.06184571 -0.14205717 -0.14259945 0.09267947 -0.19708146 -0.048878685 -0.13562831
-0.175714 0.32040933 0.0808838 0.12841946 -0.4831328 -0.14456315 -0.02548091 0.27404046
0.21700093 -0.26104638 0.016102906 -0.019214192 -0.22101477 0.20598753 0.2264679 -0.24727552
0.0070743454 -0.029392295 0.15904962 0.24163815 0.17944653 -0.16377422 -0.11298997 0.124898694
0.03135604 0.051351085 0.11079344 0.6376611 -0.17139113 -0.24819736 -0.041544538 -0.27287278
-0.31977433 -0.0019149978 -0.24551551 -0.2143581 0.1360027 -0.14274298 -0.053969726 -0.014909774
0.104939654 -0.13357556 -0.006732247 -0.085995965 -0.020310763 -0.13791236 0.049115777 -0.08867375
0.03201278 -0.14810939 0.009017787 0.5020782 0.034222662 -0.15801564 -0.13641274 0.23533337
00000000: 4ed3 46be 0285 44be eed6 18be c6f5 5a3e
00000010: bffa a4bd 20d8 233e 74b2 683c 3663 86be
00000020: 5769 7ebd f925 ccbd 9839 193e 1ecf 0bbe
00000030: c070 bebd 403c 0d3e 3fd5 37be 9892 863e
00000040: 4c86 d8be 7694 05bc 6fa9 19be 26e9 fdbc
00000050: 813a 713e 3706 a0be 5210 e83b 6b94 aa3d
00000060: ab5d 06bf ba1a 823e ebe5 073c f4ef cebd
00000070: 8596 41bd 9d75 d1bd b977 2abe ce0c 54be
00000080: c438 003d e49e c5bb ee82 3fbe 853f 8bbb
00000090: 4a0c 90bd d4b7 4bbc d378 ad3b 7f62 813e
000000a0: 301f 053d 5c45 f3bc 870e 9f3e c912 62bd
000000b0: 0a88 e43d c241 71be 7552 0dbe 5d5b 31bd
000000c0: b0d9 833b e628 11bd 80e7 c03d e13a adbd
000000d0: 8d8f 62bc 3cd3 b53d acef 153d 1de8 a63d
000000e0: 4929 f4bc 2cc7 27be dcdc 0dbd 8266 203e
000000f0: 59c7 113e c753 43bc ce5b 763e d255 3c3e
00000100: b6c9 4f3d 8f9d b7bc 07dc 71be bde9 813e
00000110: 0677 c6bd 275b abbd 0998 27bd e14b 803c
00000120: 2a6f 7f3e fc9f 9dbd ceb1 6b3c 13c0 b9bc
00000130: d2a6 55be f6b6 b6bd 9bd1 763e 89b7 243e
00000140: 7e59 033e b561 a23d e9ef 653e 7978 04be
00000150: d328 29bd 4721 b1bd 2d1b 2b3e 4bfd eebc
00000160: faa7 9dbd 9904 f8bc 125c 283c 4c56 81be
00000170: 340b 233c 57da 383e df77 da3d 6a34 8b3d
00000180: ca21 aabe d05e 073e fff2 e33d aa5d 813d
00000190: 99d1 eb3d 21cc 303d c072 8a3e 3894 d63d
000001a0: a49a 643e 2a8c 903d dcfe 37be 3e1f 0f3e
000001b0: 90d9 54bd 7a66 83be 4b83 5abe fb40 793e
000001c0: 32a2 74bd 6c2c 9d3e 26a6 293e 7383 003e
000001d0: 6c1c 0e3e fd09 4bbe e218 02be fd78 12be
000001e0: 78be 723e 61a6 d43d bdcc 73be 0d81 01bc
000001f0: 44f6 f53b 0b0c 80be 470c ddbd adb0 a33d
00000200: 0858 623d 78bc 853e 985a 48be ff11 fc3d
00000210: ca76 c33d d56f 89bd 39b5 493e 9e49 163e
00000220: 9532 b6bd be9f 773e a10d 30be ce88 c93d
00000230: 8278 733d 40d7 b5bd a394 84be 5067 81bd
00000240: 9326 973e 765d e73d 9f20 3ebe e1fe 57bd
00000250: 404c 4cbe 61ab 9d3d 8ffc 063d a6bd eabe
00000260: 274d 863d f1ed a33e 247e fc3d 2257 403d
00000270: 623f b0be c2f2 933e f5d1 203f 4b4c 753e
00000280: 7904 ab3c 760f 773d e8a3 0bbe dd94 a03e
00000290: a330 b0bc cdba dd3a 7930 af3d 1c15 84bd
000002a0: 8d4c 8d3d b12b 29be a8f3 bebb a1d0 8b3d
000002b0: 82c3 4d3e f815 b7bd d22f f83d 0c40 143e
000002c0: 30cc 2c3e 7466 60be b086 2d3e 8984 1cbd
000002d0: 9bea 01be 1cae 7b3e 5df0 343d e955 e63d
000002e0: 3afe 8abe 24bf 8b3d 101f 443d 7742 37be
000002f0: 9b37 abbe 0e7b 3c3e f4ed da3e 6d8b acbd
00000300: 0698 10be ed51 7d3d 6f77 11be 9705 12be
00000310: bcce bd3d b9cf 49be 0435 48bd 26e2 0abe
00000320: 5fee 33be b10c a43e 68a6 a53d 6480 033e
00000330: 2f5d f7be 5d08 14be 57bd d0bc 084f 8c3e
00000340: 7e35 5e3e dfa7 85be 3eea 833c 1567 9dbc
00000350: b251 62be 65ee 523e 34e7 673e cb35 7dbe
00000360: e9cf e73b 1cc8 f0bc e7dd 223e fe6f 773e
00000370: d5c0 373e 6eb4 27be 4967 e7bd e3ca ff3d
00000380: 316f 003d 8455 523d ace7 e23d c23d 233f
00000390: 2881 2fbe 7327 7ebe 9b2a 2abd fbb5 8bbe
000003a0: 76b9 a3be aa00 fbba 6b68 7bbe b180 5bbe
000003b0: 4b44 0b3e 372b 12be 5c0f 5dbd 2048 74bc
000003c0: 9aea d63d 08c8 08be 2e9a dcbb a71e b0bd
000003d0: c262 a6bc e638 0dbe a02d 493d 959a b5bd
000003e0: d51f 033d fda9 17be 57bf 133c 3288 003f
000003f0: 102d 0c3d dace 21be c8af 0bbe 3bfb 703e

bias_ih_l0 f4 [52]
0.26284686 -0.07459656 0.24741139 -0.038660094 -0.14112957 -0.09775986 0.1478973 0.0451734
-0.05832201 -0.21099867 0.06236961 -0.09372009 0.26189 0.2015776 0.24607927 0.020248361
0.0065930593 -0.056873176 0.14869714 -0.22194357 -0.12898603 0.124249846 -0.080675244 -0.23472531
-0.10477645 -0.23812284 0.24718527 0.15227605 -0.12807438 0.14117368 0.22803223 -0.13020186
-0.11664696 0.08562952 -0.2563445 -0.20577553 0.11949941 -0.26670125 0.23313402 0.18139365
0.071997024 -0.04830164 0.088392995 0.18433069 -0.030075809 0.012587285 -0.19463104 -0.10955878
-0.12886517 -0.025283054 0.23154046 -0.15559685
00000000: dd93 863e 15c6 98bd 6959 7d3e 0c5a 1ebd
00000010: 4584 10be 5236 c8bd 6472 173e be07 393d
00000020: 0fe3 6ebd 0910 58be 4777 7f3d 52f0 bfbd
00000030: 7216 863e 5c6a 4e3e 34fc 7b3e e4df a53c
00000040: 970a d83b d9f3 68bd 1044 183e 2d45 63be
00000050: ea14 04be b476 fe3d 1039 a5bd d55b 70be
00000060: 0995 d6bd 79d6 73be 231e 7d3e 41ee 1b3e
00000070: ee25 03be d58f 103e 4881 693e a353 05be
00000080: 9ae4 eebd 885e af3d 963f 83be d2b6 52be
00000090: 1bbc f43d 118d 88be afba 6e3e 42bf 393e
000000a0: 2d73 933d f1d7 45bd 6307 b53d 2fc1 3c3e
000000b0: 8b61 f6bc e63a 4e3c 5c4d 47be 5b60 e0bd
000000c0: 3bf5 03be 681e cfbc f118 6d3e c854 1fbe

bias_hh_l0 f4 [52]
0.15182677 -0.16343571 0.08047702 -0.27508864 0.0011371477 -0.26265848 -0.17054377 -0.18818991
-0.20963007 -0.05844826 -0.076508716 0.018881213 -0.20699781 0.023434997 -0.16206339 -0.09062702
0.21397611 0.16056627 -0.23481774 -0.10790287 0.24707413 0.18299973 0.06967305 -0.102001145
-0.037894905 0.18254146 -0.044061206 0.21602203 0.19168565 -0.10902566 0.06238695 -0.09296528
0.101799875 -0.0258994 0.0027772484 -0.0005442347 -0.19531325 0.04403819 0.18811312 -0.008251182
-0.03865563 -0.014469834 0.22691184 0.01969305 0.14345536 0.038741224 0.12049347 0.18235476
-0.115449436 0.2498335 -0.11464407 0.09056673
00000000: 7a78 1b3e b15b 27be 23d1 a43d 6bd8 8cbe
00000010: 580c 953a 2c7b 86be 07a3 2ebe dbb4 40be
00000020: 44a9 56be 7167 6fbd 9ab0 9cbd c6ac 9a3c
00000030: 3cf7 53be c0fa bf3c f2f3 25be a99a b9bd
00000040: 8e1c 5b3e 7c6b 243e 1074 70be 2efc dcbd
00000050: 0001 7d3e 4864 3b3e beb0 8e3d fae5 d0bd
00000060: b037 1bbd 26ec 3a3e 8679 34bd e134 5d3e
00000070: 3e49 443e d848 dfbd 7589 7f3d 9564 bebd
00000080: 747c d03d fa2a d4bc 7f02 363b f9aa 0eba
00000090: 3200 48be 6461 343d baa0 403e f72f 07bc
000000a0: 5e55 1ebd e212 6dbc 945b 683e 5253 a13c
000000b0: f6e5 123e 1eaf 1e3d 48c5 f63d 35bb 3a3e
000000c0: c170 ecbd 5ad4 7f3e 83ca eabd 0d7b b93d

weight_ih_l0_reverse f4 [52, 4]
0.26808974 -0.20818473 -0.23077907 0.348646 0.022153357 0.031491913 0.039578207 -0.034003932
-0.0420295 -0.3289337 -0.046290785 -0.22390622 0.3613814 0.08561657 0.040494762 0.047707178
-0.33367404 0.2577681 0.15768127 -0.0013926091 -0.11863132 0.07674132 -0.16997267 0.012986265
0.1433241 -0.23766442 0.19231191 -0.24302286 -0.16661161 -0.07032025 0.13873573 -0.11363385
0.018031735 -0.14837094 0.17715326 -0.030109571 -0.26975432 -0.44527927 0.09987486 -0.10332202
0.023407204 -0.3577809 -0.2767753 -0.168198 0.1850825 -0.046355117 0.04542394 -0.021460664
-0.089924864 0.07399895 -0.1793683 0.01709379 0.18094786 -0.14213313 0.1484352 0.12377313
0.32748607 -0.0008049938 -0.15333764 -0.007176788 0.10183826 -0.37188053 0.117473185 0.2090688
-0.09301989 -0.34913418 -0.118979394 0.29510123 0.110806435 0.09557681 0.0055731507 0.045050576
0.20176832 -0.11222127 -0.1482209 -0.06844843 -0.21247582 0.031746738 0.07757068 0.002327414
-0.2809989 0.24485949 0.25600368 -0.16470845 0.14407665 0.17348434 0.23777595 0.15761334
-0.14752029 -0.18629046 0.08541713 -0.10164236 -0.007413892 -0.05024062 -0.12895015 -0.02485506
-0.072657585 -0.14608844 -0.005506518 0.03139645 -0.03361076 0.042088687 0.07113857 0.096668266
0.017595898 0.3019561 -0.010528534 -0.15494023 0.42605585 -0.27415535 0.033180136 0.025906328
0.1428026 0.059386708 -0.05405747 -0.17273422 0.066142455 0.19782819 -0.25237992 -0.3580843
0.062174767 -0.17898245 -0.048542947 -0.35004297 -0.052539613 0.15663013 -0.4600652 -0.003564309
-0.16814864 0.15091194 -0.24621351 0.16644472 0.15132368 -0.031875428 0.000547059 0.10726588
0.5766433 -0.27156204 0.32503325 -0.15025496 -0.04929475 -0.018549632 -0.010144501 0.028339146
0.08923697 0.1500164 -0.029272716 -0.040512174 0.014361705 -0.22272296 0.093541525 0.36901048
-0.011117834 0.0016544153 0.18266875 -0.12716062 -0.0075827325 0.005996792 0.101868995 0.25885662
-0.04073267 0.22411577 0.11739594 0.25764978 -0.14530487 0.08897312 -0.10739681 -0.050267603
0.2031748 -0.45908636 0.09120183 0.024679238 0.14185514 0.0832385 0.021029748 0.23700224
-0.044783976 -0.031988025 -0.27680576 -0.055015612 0.11147368 -0.29432103 -0.29886702 -0.45709208
-0.10019887 -0.04565737 0.20825751 -0.052045617 0.030094726 0.2066006 -0.25596502 0.05576524
-0.06983979 -0.026514184 -0.21853006 -0.007755043 -0.19140711 0.038342834 0.1548126 -0.12471691
0.24203296 -0.022162735 -0.21620867 -0.12570545 0.057572123 0.2347421 -0.15287656 -0.020197764
00000000: 0f43 893e 612e 55be 5951 6cbe ba81 b23e
00000010: f57a b53c aafd 003d c21c 223d b547 0bbd
00000020: 2027 2cbd ff69 a8be 689b 3dbd ac47 65be
00000030: fc06 b93e be57 af3d d6dd 253d 9a68 433d
00000040: 53d7 aabe 2efa 833e 3377 213e 3588 b6ba
00000050: faf4 f2bd 8e2a 9d3d 510d 2ebe 58c4 543c
00000060: 8ec3 123e 4d5e 73be 6aed 443e fcda 78be
00000070: 3c9c 2abe 1004 90bd bd10 0e3e ddb8 e8bd
00000080: 4ab7 933c 8dee 17be aa67 353e 59a8 f6bc
00000090: 3d1d 8abe a5fb e3be 318b cc3d 7f9a d3bd
000000a0: 77c0 bf3c 0f2f b7be 7eb5 8dbe 193c 2cbe
000000b0: 4486 3d3e ddde 3dbd 740e 3a3d 46ce afbc
000000c0: 872a b8bd c38c 973d 53ac 37be 4708 8c3c
000000d0: 654a 393e 598b 11be 66ff 173e c47c fd3d
000000e0: 41ac a73e 3806 53ba 8b04 1dbe 432b ebbb
000000f0: 9490 d03d 2067 bebe c895 f03d 2216 563e
00000100: 3681 bebd b7c1 b2be 78ab f3bd 8217 973e
00000110: 7cee e23d c6bd c33d fa9e b63b f486 383d
00000120: 5b9c 4e3e 44d4 e5bd 38c7 17be b12e 8cbd
00000130: 4393 59be de08 023d 60dd 9e3d 8787 183b
00000140: 16df 8fbe 72bc 7a3e ea12 833e 55a9 28be
00000150: d488 133e e1a5 313e 8a7b 733e 6465 213e
00000160: 8f0f 17be edc2 3ebe 2def ae3d df29 d0bd
00000170: 3cf0 f2bb 1cc9 4dbd 820b 04be d79c cbbc
00000180: 80cd 94bd 3598 15be 0570 b4bb 9099 003d
00000190: 70ab 09bd 3065 2c3d 19b1 913d 03fa c53d
000001a0: 4625 903c fd99 9a3e df7f 2cbc a7a8 1ebe
000001b0: fe23 da3e 175e 8cbe e5e7 073d 8239 d43c
000001c0: d83a 123e 7a3f 733d 5e6b 5dbd 3de1 30be
000001d0: b275 873d 7993 4a3e f137 81be d356 b7be
000001e0: f8aa 7e3d 2d47 37be f8d4 46bd d538 b3be
000001f0: c733 57bd a663 203e aa8d ebbe 2f97 69bb
00000200: 282f 2cbe a988 1a3e 651f 7cbe 7c70 2a3e
00000210: 98f4 1a3e cf8f 02bd 8268 0f3a 37ae db3d
00000220: e59e 133f 2e0a 8bbe c26a a63e 70dc 19be
00000230: 4be9 49bd 66f5 97bc 1f35 26bc 7f27 e83c
00000240: dfc1 b63d e69d 193e 56cd efbc 18f0 25bd
00000250: 5b4d 6b3c 7d11 64be b392 bf3d f1ee bc3e
00000260: 9327 36bc f7d8 d83a 840d 3b3e 6536 02be
00000270: 9278 f8bb bd80 c43b b1a0 d03d db88 843e
00000280: 4dd7 26bd 9b7e 653e 486d f03d acea 833e
00000290: cdca 14be 8a37 b63d dcf2 dbbd 67e5 4dbd
000002a0: 0e0d 503e 5e0d ebbe 06c8 ba3d 1d2c ca3c
000002b0: 7942 113e f278 aa3d 9446 ac3c b7b0 723e
000002c0: 676f 37bd e005 03bd 7cb9 8dbe 0d58 61bd
000002d0: 504c e43d 3fb1 96be 1905 99be f907 eabe
000002e0: 1135 cdbd 3903 3bbd 7541 553e c92d 55bd
000002f0: 3789 f63c 1c8f 533e d90d 83be 186a 643d
00000300: 2a08 8fbd 4634 d9bc 58c6 5fbe 041e febb
00000310: 3a00 44be 600d 1d3d 3287 1e3e 946b ffbd
00000320: 7dd7 773e a08e b5bc ce65 5dbe eeb8 00be
00000330: bfd0 6b3d 3c60 703e ac8b 1cbe c875 a5bc

weight_hh_l0_reverse f4 [52, 13]
0.25089628 0.018149327 -0.15420167 0.042770196 0.15622361 0.24390659 -0.08034176 0.0019620284
0.37001845 0.12192178 0.16444261 0.056324326 0.06660967 -0.026990704 -0.0040569906 -0.4360611
0.15971315 0.10733126 0.116956465 0.29430228 -0.30952826 -0.19995634 0.30547398 -0.0141234705
0.24643795 -0.027921539 0.42246303 0.20950909 -0.0006200362 -0.23116282 -0.2562617 0.044075392
0.09714851 -0.016381415 0.03447464 0.041260194 0.14691567 -0.16129263 -0.13092007 -0.11723112
-0.024902362 -0.15029919 0.23600952 -0.2433312 0.13379179 0.028856834 -0.09500265 0.05493432
0.21984114 0.22461393 -0.16959001 -0.18837255 0.13182728 0.21069647 0.16046536 -0.16338928
0.107440464 0.0796245 -0.13449083 0.3820065 0.05680155 -0.019729905 -0.15826291 0.53202623
-0.11087996 0.14733933 0.036511052 -0.07793454 0.123666435 0.122785404 -0.07975702 -0.45619097
-0.026720168 -0.0811574 -0.14347012 -0.12876105 0.46123347 0.17450747 -0.11722508 -0.3041012
-0.0025676962 -0.40675417 0.20148349 -0.14855692 0.082659446 -0.04341604 0.058009706 0.012434805
0.0059514823 -0.027670955 0.15350194 -0.17074083 0.11768363 -0.2145133 -0.0074581876 -0.112273484
-0.22160138 -0.21266341 0.13314202 0.24603635 -0.29529718 0.22770788 0.23441355 -0.19042316
0.031075593 0.18892534 0.24472643 -0.12502222 -0.032060243 -0.043888595 0.16049202 0.25836334
-0.26053602 0.12699497 -0.31896636 0.11471355 0.17033722 0.13666229 0.066719614 -0.19634135
-0.26000714 -0.0108667165 0.17127092 -0.08463795 0.056388844 -0.16997863 -0.08464173 0.11984428
0.040628284 -0.15651092 -0.30451435 0.23137929 -0.00774159 0.07878529 -0.035524275 0.12289384
0.16193688 -0.15675406 -0.061154857 -0.29563147 -0.07381345 0.10910675 -0.39525682 0.07146561
-0.027308438 -0.17345577 0.1408642 -0.3067572 -0.047897693 -0.13063063 -0.0018196136 0.08476468
-0.03162673 0.29236048 -0.122907214 0.3365336 -0.12566239 0.19525011 -0.043646563 0.17135735
-0.057824086 0.056389425 -0.057877675 -0.3159757 0.054418676 0.2194412 0.19647114 0.22171888
-0.06039334 -0.020805782 -0.21605477 0.20912074 0.101919696 -0.12867498 0.03865052 -0.20303035
-0.20666432 0.027784709 -0.0924929 0.012774029 0.0027989438 -0.18128423 0.19312906 -0.43076557
0.13777515 0.22661716 0.12356096 0.05814894 -0.3842449 0.15619858 0.14410721 -0.24662474
0.15928453 0.057368327 0.027171334 0.043239314 -0.024858112 0.19877101 -0.0125624975 0.036881916
0.18841143 -0.26830986 -0.037946817 -0.26914257 0.30507067 0.012360943 0.13535589 -0.2123228
-0.19185917 -0.08313057 -0.06263774 -0.10040526 -0.04541228 -0.16360359 -0.27762225 -0.32594338
0.23474474 -0.100743994 0.08693003 -0.22026151 0.50761783 0.18043035 0.28604156 0.29396203
-0.11425295 -0.20619874 -0.08486866 -0.13415676 0.093292646 0.44654575 -0.13966122 0.10647545
-0.14699596 0.08956633 -0.3025535 0.04439237 -0.19003361 -0.13380718 0.18332371 0.0040883943
-0.13568288 -0.018972658 0.07349101 -0.2195324 -0.22920388 -0.1707955 -0.2207478 -0.072902836
-0.06606518 0.14104192 -0.07320333 -0.12106846 0.27200696 0.34221214 -0.017361922 -0.102813855
00000000: 7a75 803e e6ad 943c 0be7 1dbe cd2f 2f3d
00000010: 15f9 1f3e a6c2 793e 388a a4bd 6095 003b
00000020: 0f73 bd3e 20b2 f93d a563 283e 56b4 663d
00000030: a76a 883d 9c1b ddbc 81f0 84bb 6743 dfbe
00000040: d88b 233e 7ed0 db3d df86 ef3d caae 963e
00000050: 7d7a 9ebe 5bc1 4cbe 1667 9c3e 2166 67bc
00000060: 3b5a 7c3e b6bb e4bc 134d d83e 8d89 563e
00000070: ed89 22ba f2b5 6cbe bc34 83be 6688 343d
00000080: ccf5 c63d 5132 86bc 4835 0d3d 7300 293d
00000090: 1071 163e e529 25be e90f 06be df16 f0bd
000000a0: 0a00 ccbc 08e8 19be 7bac 713e d02b 79be
000000b0: b700 093e 2b65 ec3c c090 c2bd cf02 613d
000000c0: 091e 613e 3201 663e 01a9 2dbe bce4 40be
000000d0: bbfd 063e d1c0 573e 0851 243e 854f 27be
000000e0: bf09 dc3d 2b12 a33d f7b7 09be 5b96 c33e
000000f0: bea8 683d 9ca0 a1bc ac0f 22be df32 083f
00000100: 0815 e3bd 1fe0 163e 9d8c 153d 259c 9fbd
00000110: d444 fd3d ea76 fb3d a657 a3bd dd91 e9be
00000120: 41e4 dabc da35 a6bd d5e9 12be f0d9 03be
00000130: cb26 ec3e 16b2 323e b413 f0bd 27b3 9bbe
00000140: cb46 28bb 1542 d0be b051 4e3e 4e1f 18be
00000150: 5b49 a93d 04d5 31bd 969b 6d3d 5abb 4b3c
00000160: a704 c33b 33ae e2bc 9d2f 1d3e afd6 2ebe
00000170: 1d04 f13d 60a9 5bbe d063 f4bb a4ef e5bd
00000180: 79eb 62be 70c4 59be 6256 083e f4f0 7b3e
00000190: 3131 97be 412c 693e 1b0a 703e 4afe 42be
000001a0: 3e92 fe3c a575 413e 9199 7a3e d305 00be
000001b0: 9a51 03bd 87c4 33bd 0558 243e 3348 843e
000001c0: fa64 85be f80a 023e 8f4f a3be f0ee ea3d
000001d0: e16c 2e3e 33f1 0b3e 4ba4 883d b50d 49be
000001e0: a81f 85be 500a 32bc a561 2f3e a956 adbd
000001f0: fdf7 663d e10e 2ebe a558 adbd eb70 f53d
00000200: d869 263d 6644 20be 4ee9 9bbe b1ee 6c3e
00000210: 2aad fdbb 2f5a a13d e781 11bd c4af fb3d
00000220: c8d2 253e 2384 20be 847d 7abd 025d 97be
00000230: 822b 97bd 5c73 df3d 1a5f cabe 905c 923d
00000240: f2b5 dfbc 649e 31be b43e 103e 480f 9dbe
00000250: 5f30 44bd 09c4 05be 1a80 eeba 1b99 ad3d
00000260: 088b 01bd 46b0 953e c7b6 fbbd 224e ac3e
00000270: a4ad 00be a5ef 473e bdc6 32bd 4d78 2f3e
00000280: f3d8 6cbd 99f8 663d 2411 6dbd 91c7 a1be
00000290: 1ee6 5e3d 32b5 603e bb2f 493e 460a 633e
000002a0: 025f 77bd e370 aabc 763d 5dbe bf23 563e
000002b0: 46bb d03d 60c3 03be 0250 1e3d 30e7 4fbe
000002c0: d09f 53be c29c e33c eb6c bdbd 294a 513c
000002d0: 7c6e 373b 93a2 39be a0c3 453e 4e8d dcbe
000002e0: ee14 0d3e 540e 683e 870d fd3d 952d 6e3d
000002f0: bfbb c4be 85f2 1f3e d790 133e 328b 7cbe
00000300: 7c1b 233e 0dfb 6a3d 6b96 de3c b51b 313d
00000310: 3da3 cbbc a18a 4b3e efd2 4dbc 7e11 173d
00000320: edee 403e e95f 89be 1f6e 1bbd 0ecd 89be
00000330: 3932 9c3e 8d85 4a3c bc9a 0a3e 266b 59be
00000340: bb76 44be 5c40 aabd 3748 80bd 46a1 cdbd
00000350: 3a02 3abd b387 27be 8124 8ebe 0de2 a6be
00000360: ed60 703e de52 cebd 5f08 b23d 3c8c 61be
00000370: 3ef3 013f bcc2 383e 0a74 923e 3182 963e
00000380: 73fd e9bd c325 53be 9fcf adbd 6460 09be
00000390: 3710 bf3d a5a1 e43e 5a03 0fbe cd0f da3d
000003a0: 1c86 16be 8d6e b73d 4be8 9abe c6d4 353d
000003b0: 2c98 42be c004 09be 36b9 3b3e f0f7 853b
000003c0: 74f0 0abe 8c6c 9bbc 7482 963d 1acd 60be
000003d0: 6cb4 6abe 04e5 2ebe b60b 62be 154e 95bd
000003e0: 2e4d 87bd 4b6d 103e a1eb 95bd bef2 f7bd
000003f0: 7f44 8b3e 6e36 af3e 973a 8ebc 1290 d2bd

bias_ih_l0_reverse f4 [52]
-0.12980841 -0.20410058 -0.058937393 0.25250313 -0.2056415 0.12967502 -0.21135315 -0.21184972
0.053219393 -0.2013249 -0.21730427 0.037901882 0.1558515 0.28741324 -0.21576716 0.15264411
-0.24021766 0.3479921 0.19298005 0.031175068 0.06307767 0.07270051 0.07455071 -0.065448985
0.14776047 -0.0803276 0.28217512 0.1677152 -0.07519265 -0.02710741 -0.28316534 0.04499993
-0.15625682 0.30395657 -0.015012464 -0.28901276 -0.003776765 -0.14709401 0.016008954 -0.042477988
-0.039395172 0.03205719 0.2159692 -0.1449334 0.14428768 -0.027239064 0.025935398 -0.23454928
0.15449159 -0.173371 -0.13806224 -0.21097402
00000000: 7fec 04be beff 50be 5668 71bd 1748 813e
00000010: af93 52be 87c9 043e f66c 58be 22ef 58be
00000020: 94fc 593d 1d28 4ebe 0385 5ebe 013f 1b3d
00000030: 8997 1f3e d427 933e 11f2 5cbe bd4e 1c3e
00000040: 9efb 75be 052c b23e 909c 453e db62 ff3c
00000050: de2e 813d 01e4 943d 0bae 983d 1e0a 86bd
00000060: 854e 173e cc82 a4bd 4279 903e 89bd 2b3e
00000070: 9bfe 99bd 5c10 debc 0cfb 90be d951 383d
00000080: ca01 20be 32a0 9b3e d6f6 75bc 7bf9 93be
00000090: 9a83 77bb d09f 16be 3625 833c 66fd 2dbd
000000a0: d55c 21bd 664e 033d 0827 5d3e 6c69 14be
000000b0: 26c0 133e 7524 dfbc 7976 d43c b02d 70be
000000c0: 0b33 1e3e 2b88 31be 3060 0dbe 9309 58be

bias_hh_l0_reverse f4 [52]
-0.066877455 -0.025232097 -0.071699835 0.23827526 -0.14768885 -0.092866726 0.09411614 0.202767
-0.12115253 -0.014694278 0.17974338 -0.11084089 -0.11905264 -0.096566655 -0.2406686 -0.10376355
-0.019852912 -0.14008962 0.058675848 -0.20219466 0.13605824 0.01754045 0.26852015 -0.11820722
0.08911769 0.0017510497 0.13970163 -0.082220204 -0.11115849 -0.23368335 0.1476093 -0.009128731
-0.07301673 0.3052379 0.19910276 0.1123598 0.18486115 -0.07683681 -0.2210494 0.25204524
0.049620185 -0.10873938 -0.006498031 -0.11116318 0.066873275 -0.12298124 -0.11795747 -0.283123
0.056176253 0.15187447 -0.1414683 0.032300167
00000000: 0cf7 88bd 8bb3 cebc 5dd7 92bd 6efe 733e
00000010: bf3b 17be e930 bebd f6bf c03d 27a2 4f3e
00000020: d11e f8bd 45c0 70bc a60e 383e 8c00 e3bd
00000030: dfd1 f3bd bdc4 c5bd d471 76be fc81 d4bd
00000040: 93a2 a2bc a773 0fbe 1656 703d 1e0c 4fbe
00000050: da52 0b3e fdb0 8f3c 797b 893e a116 f2bd
00000060: 5683 b63d 7a83 e53a f20d 0f3e 1163 a8bd
00000070: 10a7 e3bd b04a 6fbe e426 173e ac90 15bc
00000080: cc89 95bd 2448 9c3e 98e1 4b3e e51c e63d
00000090: 3e4c 3d3e 9e5c 9dbd c65a 62be 130c 813e
000000a0: 893e 4b3d c1b2 debd 6fed d4bb 85a9 e3bd
000000b0: dbf4 883d 97dd fbbd b093 f1bd 7ff5 90be
000000c0: 1219 663d fb84 1b3e 11dd 10be 2e4d 043d

weight f4 [16, 260]
-0.006216941 0.09337384 -0.03702853 -0.07370867 -0.04850225 -0.034187526 -0.0010001 0.040667057
0.061021402 -0.0163587 -0.09473286 -0.0039493544 -0.037741937 0.045254502 0.061727535 -0.041632142
-0.066675946 0.04143498 -0.13832106 -0.13576904 -0.004395595 -0.05962609 -0.02032137 -0.11676356
-0.12372753 -0.112205684 0.08056941 0.017862663 0.05729639 0.054140273 -0.120314494 -0.011711876
0.120089374 0.015317796 0.0839253 -0.0015797201 -0.0442612 0.20161772 -0.05451298 -0.112619944
-0.035073288 -0.122641645 -0.1003404 -0.022549594 -0.036378477 0.10108553 -0.040891014 0.04012435
-0.101902775 -0.056643117 0.04504787 0.02890572 -0.13401541 -0.012317022 -0.12897897 0.06911943
0.033800885 -0.16814984 -0.20191061 -0.054767307 -0.122447655 0.03287422 0.049789935 0.022796579
-0.11542187 0.010697527 -0.061253153 0.13008086 -0.05118344 -0.23360159 -0.1923938 0.033164263
0.07898129 0.007468194 0.057306297 -0.069984056 -0.033890773 -0.054817423 -0.1226379 0.051099654
0.036830164 -0.069139466 -0.10073302 0.048536126 -0.07321767 0.26926404 0.024040125 0.084680855
-0.08416431 -0.039553527 -0.02731894 -0.015184707 -0.02103553 -0.059446577 -0.035570357 0.09371389
0.04582577 0.09533864 0.118657276 0.08094313 -0.09741508 -0.13044447 0.03353307 -0.022618942
-0.103456624 -0.15946212 -0.07488678 0.12708656 -0.061069194 0.031829815 0.0670349 0.020748524
-0.05629858 -0.057046637 -0.043060653 -0.066985264 0.035980053 -0.14801289 0.094447546 -0.010267552
0.0639696 0.025833974 0.025498537 -0.062782705 -0.24710386 0.09533713 0.052174542 0.049968112
0.07219793 0.08533111 -0.0040534497 0.03942859 -0.011891327 0.08015033 -0.06433482 -0.13195321
0.07827247 -0.02143317 0.0065541766 0.0060537346 0.02978485 0.05564681 -0.11849428 -0.002107227
-0.052094366 0.16004801 0.061530568 0.13425411 0.088508844 0.028860267 0.02300326 0.068366766
-0.004521881 0.025218025 -0.04493485 -0.04209502 0.09394201 -0.016919086 0.024672072 -0.19590738
-0.011725267 -0.091409534 0.022579402 0.14372662 -0.04439053 0.06923282 0.14387563 -0.032563034
0.06396566 -0.035456207 0.037690125 0.018927159 -0.021355746 -0.14215147 0.0021947296 -0.00283884
0.08522645 0.04776025 -0.08032926 0.03942575 -0.0059103607 -0.07297496 0.08378212 -0.05252896
-0.011723326 0.03369213 -0.08147439 0.030022305 0.23174693 0.04896598 -0.08903221 0.014501982
0.053655896 0.038121484 0.0010795592 -0.037629414 0.08687477 0.009241537 -0.0063281455 0.07524646
-0.059880216 -0.040134177 -0.027641095 -0.06600468 -0.11930108 -0.16983971 0.008264838 0.0018759472
0.038155843 0.0423312 -0.23991154 -0.11365223 -0.029121224 0.01665662 0.06805184 -0.061923247
0.020572703 -0.017111871 0.11599101 0.0046507376 -0.032978497 0.060367223 0.040658798 -0.059681196
-0.013827716 0.079439946 0.04359095 0.10318711 0.026730957 -0.07813526 -0.022958096 -0.20063713
-0.050733183 0.030913902 0.013426324 -0.0732578 -0.1895925 -0.001869689 -0.031913407 0.17021045
-0.017110283 0.096847594 0.10217775 -0.08034348 -0.046950065 -0.123957016 -0.24454032 0.013353259
0.04629649 0.012114924 0.020544494 0.06679185 0.080960855 -0.16587727 0.07115754 0.014371131
00000000: 7bb7 cbbb c93a bf3d 3aab 17bd 92f4 96bd
00000010: 4caa 46bd 3808 0cbd ca15 83ba 8092 263d
00000020: 94f1 793d ae02 86bc 4d03 c2bd 9669 81bb
00000030: 4a97 1abd c95c 393d 03d6 7c3d 7786 2abd
00000040: 668d 88bd bab7 293d 09a4 0dbe 0a07 0bbe
00000050: ec08 90bb 7d3a 74bd 0079 a6bc bc21 efbd
00000060: dc64 fdbd 18cc e5bd 9301 a53d b854 923c
00000070: 9faf 6a3d 31c2 5d3d 7267 f6bd 2be3 3fbc
00000080: 6bf1 f53d 7ef7 7a3c 07e1 ab3d 9c0e cfba
00000090: 3b4b 35bd e074 4e3e 0149 5fbd 49a5 e6bd
000000a0: 02a9 0fbd 8b2b fbbd 457f cdbd edb9 b8bc
000000b0: 9901 15bd ee05 cf3d 567d 27bd 6e59 243d
000000c0: 67b2 d0bd 9d02 68bd 1e84 383d b0cb ec3c
000000d0: 563b 09be 56cd 49bc 1013 04be 7d8e 8d3d
000000e0: cc72 0a3d 792f 2cbe a8c1 4ebe af53 60bd
000000f0: d6c5 fabd 1ea7 063d 88f0 4b3d e4bf ba3c
00000100: 4d62 ecbd ae44 2f3c 96e4 7abd eb33 053e
00000110: baa5 51bd 4135 6fbe e102 45be 40d7 073d
00000120: f1c0 a13d c0b7 f43b 02ba 6a3d cd53 8fbd
00000130: 0dd1 0abd 3c88 60bd 9429 fbbd df4d 513d
00000140: 3adb 163d fe98 8dbd 1d4d cebd d1cd 463d
00000150: 25f3 95bd fadc 893e ccef c43c 286d ad3d
00000160: 565e acbd e102 22bd f8cb dfbc 47c9 78bc
00000170: b452 acbc 417e 73bd 39b2 11bd 11ed bf3d
00000180: cdb3 3b3d e840 c33d 9602 f33d 83c5 a53d
00000190: 8f81 c7bd 3c93 05be f959 093d 5c4b b9bc
000001a0: 11e1 d3bd 0a4a 23be 3d5e 99bd fb22 023e
000001b0: b123 7abd fb5f 023d 9849 893d cff8 a93c
000001c0: 5799 66bd bca9 69bd 5e60 30bd 922f 89bd
000001d0: d25f 133d b190 17be b76d c13d 3c39 28bc
000001e0: 7e02 833d c5a1 d33c 4fe2 d03c 3894 80bd
000001f0: cb08 7dbe 1d40 c33d f9b4 553d 5dab 4c3d
00000200: 82dc 933d 14c2 ae3d cdd2 84bb e07f 213d
00000210: d7d3 42bc db25 a43d f9c1 83bd be1e 07be
00000220: 514d a03d 9e94 afbc 6bc4 d63b 685e c63b
00000230: 5cff f33c e9ed 633d 21ad f2bd 6719 0abb
00000240: e760 55bd a0e3 233e 7a07 7c3d e979 093e
00000250: 2044 b53d 5e6c ec3c 5571 bc3c e003 8c3d
00000260: 4a2c 94bb 0896 ce3c 9b0d 38bd d46b 2cbd
00000270: ab64 c03d e599 8abc 161d ca3c f29b 48be
00000280: 561b 40bc ec34 bbbd 70f8 b83c 122d 133e
00000290: d8d2 35bd f0c9 8d3d 2254 133e d160 05bd
000002a0: 6e00 833d 873a 11bd f660 1a3d 210d 9b3c
000002b0: 3ff2 aebc 2890 11be 74d5 0f3b d50b 3abb
000002c0: 348b ae3d 40a0 433d ab83 a4bd e57c 213d
000002d0: b3ab c1bb e573 95bd f695 ab3d 9b28 57bd
000002e0: 3113 40bc c200 0a3d 0cdc a6bd 56f1 f53c
000002f0: 114f 6d3e 8d90 483d 8556 b6bd b999 6d3c
00000300: 49c6 5b3d 4625 1c3d ff7f 8d3a 4d21 1abd
00000310: 66eb b13d d169 173c 555c cfbb d11a 9a3d
00000320: f544 75bd bc63 24bd 946f e2bc 762d 87bd
00000330: 2054 f4bd 76ea 2dbe 3e69 073c 58e2 f53a
00000340: 4d49 1c3d 7b63 2d3d 5fab 75be 80c2 e8bd
00000350: a28f eebc 7773 883c c35e 8b3d 3ba3 7dbd
00000360: 1688 a83c 322e 8cbc b28c ed3d 3765 983b
00000370: 7614 07bd 9f43 773d d789 263d 4574 74bd
00000380: a58d 62bc 69b1 a23d 6d8c 323d c353 d33d
00000390: e1fa da3c 6105 a0bd 9e12 bcbc d273 4dbe
000003a0: 99cd 4fbd 273f fd3c 16fa 5b3c 2f08 96bd
000003b0: 8924 42be 5a10 f5ba a2b7 02bd a64b 2e3e
000003c0: dd2a 8cbc 0858 c63d 9142 d13d 1f8b a4bd
000003d0: b64e 40bd 2ddd fdbd c768 7abe a1c7 5a3c
000003e0: 63a1 3d3d ad7d 463c ed4c a83c 2aca 883d
000003f0: cece a53d bbdb 29be 0bbb 913d e474 6b3c

bias f4 [16]
-0.029079124 -0.0044127074 0.03790088 0.019694498 0.0009604202 0.009575593 0.08070186 0.014227627
0.03675153 0.05253508 0.08337313 -0.010736363 0.029407505 0.04106457 -0.018695775 0.052095827
00000000: 5837 eebc 7998 90bb f43d 1b3d 5b56 a13c
00000010: b5c4 7b3a f3e2 1c3c 0447 a53d fe1a 693c
00000020: c688 163d 062f 573d 88bf aa3d 92e7 2fbc
00000030: 02e8 f03c 5333 283d e227 99bc 6f62 553d

weight f4 [19, 16]
0.07769485 0.26216045 -0.057323072 -0.034317415 0.3754743 -0.34811693 0.21492173 0.2888308
-0.57657045 -0.43423593 -0.040014643 -0.23552568 -0.12782723 0.3456067 0.06576925 -0.26784313
0.23240548 0.04186655 0.15773152 0.092762925 0.10945077 0.32074708 -0.010906243 -0.078829825
-0.109597266 -0.39592558 -0.2259785 0.25138873 -0.17243336 0.17052755 0.16475885 0.29735866
-0.58627456 0.014562425 0.10919628 -0.32801896 0.26080623 0.08708977 -0.37716106 -0.2890594
-0.062308133 0.030769255 -0.122527964 -0.5362035 -0.22240625 -0.18258104 -0.15080887 -0.082398914
-0.12862842 0.14343973 0.23541728 0.28600276 0.047415115 0.1260716 -0.49331823 0.070449665
0.11283052 -0.10535867 0.15047917 0.034497064 0.051946737 0.15969399 -0.20872632 0.10985409
-0.3805261 -0.08182391 -0.15578821 0.034644265 0.3183424 0.06376837 -0.40208635 -0.02275179
-0.04934853 -0.053498622 0.1414266 0.10926728 -0.6543597 0.0065140105 -0.39627114 0.01897577
-0.6261728 -0.39736402 -0.072021045 0.3814009 -0.051453248 -0.061866403 0.1819682 0.16085047
0.31144845 0.061860587 -0.16309673 0.09889642 0.04042695 0.04803243 -0.15022211 0.1433188
0.13680705 0.046995096 0.37929472 0.014285279 0.08643893 0.4233237 0.29712492 0.396631
-0.14598927 -0.26307186 -0.32600084 -0.2511276 -0.02204599 -0.06649067 0.36021584 0.10793847
-0.100301385 0.50599414 -0.33041486 0.044820454 0.0043991664 -0.1801543 -0.03563553 -0.10159897
0.091991596 0.14665152 -0.16048865 0.115492575 -0.041022286 -0.26627782 -0.39001915 -0.19452034
0.042610638 0.054433864 -0.14033632 -0.1234569 -0.2599296 0.074026495 0.112880155 0.17248768
-0.08081583 0.25137183 0.08281902 0.18787463 0.055752765 -0.38544568 -0.0911654 -0.03696865
-0.08414372 -0.17540415 0.17664649 0.0027092455 -0.0943732 -0.24426915 -0.10878905 0.41356736
-0.30637273 0.059064638 0.124298126 -0.125811 0.17420037 -0.008782134 0.31297135 0.14098787
0.105625056 0.27193958 -0.16143987 -0.06438682 -0.14874403 0.050827872 0.20495914 0.08342879
0.03592305 -0.121811934 0.11979931 0.19212985 -0.06551047 -0.2136012 -0.04639727 0.04884778
-0.0985272 0.045907505 -0.08878687 -0.2126721 0.13643646 0.11566223 -0.26273566 0.21227348
-0.3226529 0.04460547 0.15129575 0.04808834 -0.07169805 -0.24339215 -0.12938386 -0.24127078
-0.07670251 0.11925771 0.033056 -0.31862527 0.1547751 -0.43750736 -0.14762571 -0.0950777
0.4051615 -0.3897554 0.075574875 0.38768825 0.15918233 -0.06044219 0.049843885 -0.115312606
-0.4384056 0.25991005 -0.28736836 0.17586766 0.060562454 -0.068521224 -0.27342358 -0.030376343
0.10879294 -0.02994793 0.0733292 0.38356632 -0.0069564125 -0.18420272 -0.19833945 -0.11797754
0.33458653 -0.15698555 -0.054948017 0.19431843 -0.028945426 -0.15280983 -0.20531298 -0.07927989
0.153275 0.12989755 0.097063705 -0.46997762 -0.08060967 -0.20234203 0.1579641 0.12545858
-0.04192265 -0.47564378 0.027909193 0.05730399 -0.11101496 -0.20279874 0.015369205 0.20116316
-0.16531482 0.2029697 -0.088446915 0.13959196 -0.018532509 0.1678858 -0.14593081 0.16584514
00000000: 7a1e 9f3d e539 863e 99cb 6abd 6b90 0cbd
00000010: 2b3e c03e 623c b2be 7114 5c3e a1e1 933e
00000020: 1f9a 13bf 2c54 debe 65e6 23bd a52d 71be
00000030: 24e5 02be 5df3 b03e 07b2 863d bc22 89be
00000040: b4fb 6d3e 427c 2b3d 5f84 213e 7dfa bd3d
00000050: ba27 e03d f638 a43e 19b0 32bc 8871 a1bd
00000060: 8874 e0bd c2b6 cabe e866 67be 06b6 803e
00000070: 5f92 30be c69e 2e3e 8bb6 283e 653f 983e
00000080: 1716 16bf 3d97 6e3c 4da2 df3d 1af2 a7be
00000090: 6588 853e 1f5c b23d 411b c1be 98ff 93be
000000a0: d036 7fbd ce0f fc3c f1ef fabd a244 09bf
000000b0: 77be 63be 86f6 3abe a46d 1abe c3c0 a8bd
000000c0: 2bb7 03be dde1 123e 3a11 713e f46e 923e
000000d0: 5a36 423d ea18 013e 3594 fcbe ea47 903d
000000e0: b013 e73d 49c6 d7bd 3617 1a3e cb4c 0d3d
000000f0: 1ac6 543d d286 233e 5abc 55be 2efb e03d
00000100: 51d4 c2be 4b93 a7bd f286 1fbe 25e7 0d3d
00000110: c6fd a23e fe98 823d 43de cdbe f661 babc
00000120: af21 4abd 5f21 5bbd 22d2 103e 86c7 df3d
00000130: 1e84 27bf 7b73 d53b 0de4 cabe 1373 9b3c
00000140: dc4c 20bf 4c73 cbbe c57f 93bd fb46 c33e
00000150: a4c0 52bd a067 7dbd df55 3a3e fcb5 243e
00000160: 2c76 9f3e 8761 7d3d d402 27be 358a ca3d
00000170: bb96 253d a7bd 443d d3d3 19be 2ac2 123e
00000180: 2617 0c3e ee7d 403d eb32 c23e ce0c 6a3c
00000190: e506 b13d e2bd d83e c220 983e 3813 cb3e
000001a0: 367e 15be 5bb1 86be 95e9 a6be cc93 80be
000001b0: cb99 b4bc 432c 88bd 366e b83e d80e dd3d
000001c0: d06a cdbd d588 013f 232c a9be a795 373d
000001d0: e226 903b 5e7a 38be 90f6 11bd 1f13 d0bd
000001e0: 1766 bc3d d12b 163e 2357 24be 5f87 ec3d
000001f0: fc06 28bd 9155 88be 97b0 c7be 5730 47be
00000200: 7e88 2e3d 0bf6 5e3d 53b4 0fbe f9d6 fcbd
00000210: 7e15 85be 349b 973d b62d e73d 9ca0 303e
00000220: c582 a5bd cfb3 803e 059d a93d 3562 403e
00000230: 035d 643d 2359 c5be edb4 babd 706c 17bd
00000240: 8b53 acbd 259d 33be d1e2 343e 998d 313b
00000250: bc46 c1bd b121 7abe cbcc debd 1abf d33e
00000260: e3dc 9cbe c3ed 713d 0490 fe3d 99d4 00be
00000270: 9561 323e f1e2 0fbc c83d a03e 205f 103e
00000280: f351 d83d aa3b 8b3e 7e50 25be 3ddd 83bd
00000290: 5b50 18be e330 503d cfe0 513e b7dc aa3d
000002a0: 0c24 133d 8978 f9bd 5759 f53d b0bd 443e
000002b0: 5a2a 86bd 46ba 5abe 100b 3ebd 9c14 483d
000002c0: a1c8 c9bd 8209 3c3d e4d5 b5bd b7c6 59be
000002d0: 00b6 0b3e 52e0 ec3d 4a85 86be 385e 593e
000002e0: c332 a5be 3ab4 363d 46ed 1a3e 47f8 443d
000002f0: 6dd6 92bd cb3b 79be 347d 04be b00f 77be
00000300: 3516 9dbd 633d f43d ba65 073d da22 a3be
00000310: 5d7d 1e3e f700 e0be 322b 17be 19b8 c2bd
00000320: 5471 cf3e 058e c7be 00c7 9a3d 137f c63e
00000330: b100 233e 3b92 77bd 1a29 4c3d 0429 ecbd
00000340: b376 e0be ee12 853e f221 93be a716 343e
00000350: 5610 783d db54 8cbd 2dfe 8bbe cfd7 f8bc
00000360: d5ce de3d 5c55 f5bc 9f2d 963d ce62 c43e
00000370: 9ef2 e3bb a39f 3cbe 7f19 4bbe 359e f1bd
00000380: ed4e ab3e d2c0 20be 2c11 61bd 69fb 463e
00000390: f51e edbc 2e7a 1cbe 913d 52be 7f5d a2bd
000003a0: 1ff4 1c3e dd03 053e 56c9 c63d e8a0 f0be
000003b0: af16 a5bd c032 4fbe 57c1 213e 3778 003e
000003c0: 16b7 2bbd 9587 f3be d2a1 e43c 97b7 6a3d
000003d0: d05b e3bd 79aa 4fbe 1ecf 7b3c b7fd 4d3e
000003e0: 4a48 29be 4ad7 4f3e a823 b5bd 32f1 0e3e
000003f0: 7dd1 97bc 41ea 2b3e e36e 15be 4fd3 293e

bias f4 [19]
-0.07504858 -0.023505678 0.18606305 0.02810065 0.114909776 -0.041896474 -0.006005218 0.22504666
0.036880612 -0.13510837 -0.14256327 0.14415607 0.13834114 0.16564691 -0.060954478 0.026582576
0.07169912 0.018225636 0.20571336
00000000: 12b3 99bd fb8e c0bc 5087 3e3e 5633 e63c
00000010: d155 eb3d a39b 2bbd 6bc7 c4bb a272 663e
00000020: 2010 173d d959 0abe 1bfc 11be a69d 133e
00000030: 4da9 0d3e 589f 293e 67ab 79bd b4c3 d93c
00000040: fdd6 923d ee4d 953c 86a6 523e

weight f4 [19, 16]
0.16648641 0.063243024 -0.63372076 -0.09427979 0.113003425 0.33177376 -0.09938707 -0.014671901
-0.35793334 -0.15030108 0.071718276 -0.04488291 -0.08160164 -0.20816068 -0.25163996 -0.35942942
0.022638276 0.4246436 -0.009639694 -0.04380758 -0.0724368 0.2678707 -0.4073323 -0.08982617
-0.042968538 -0.06782928 -0.008172468 0.17631318 -0.13895512 0.31519243 0.5338875 -0.14457308
0.23015057 0.08677052 0.38470536 0.2305041 -0.09774173 -0.1386347 -0.34212708 0.23153682
-0.28367165 0.034411144 0.1718025 0.28357628 0.13307904 0.42023525 0.089511506 -0.048166245
0.44890025 0.16147049 -0.044297278 -0.20787187 -0.32824728 0.057263926 -0.1630234 -0.071969114
-0.009479028 0.3007144 -0.3930595 0.22920826 -0.12493996 0.5231073 0.04763284 0.26854387
0.063886195 0.38652736 0.04041082 0.30741268 -0.04513116 0.33772922 -0.09174704 0.44611892
0.22850867 -0.31497964 -0.2813702 0.41741887 -0.2534456 -0.059887104 -0.019024177 0.12689088
0.42179376 0.13777587 -0.027171614 0.08071623 -0.11494813 0.32683218 -0.022623772 0.07840411
0.19819893 0.24698761 -0.32672033 0.52603364 -0.10248101 0.008647261 0.15358025 -0.07363871
-0.1341114 -0.3977432 -0.5735111 0.3669161 -0.005408881 0.6025638 -0.1446762 -0.28734705
0.30003187 0.117820114 0.11328431 0.3778134 -0.43895212 -0.04232884 0.64086354 -0.23990418
0.050777547 0.33214092 -0.16613425 -0.25315452 -0.09048625 -0.055829223 -0.11763177 -0.021642651
0.09599217 -0.2348523 -0.348785 -0.331719 0.0032972912 0.15442367 0.13638055 0.33278072
0.4749947 -0.29507577 0.19892593 -0.24412909 -0.13302211 -0.24079308 -0.19039622 0.075731754
-0.028683905 0.38074648 -0.5537352 -0.23286688 0.060313556 -0.24667504 0.29524398 0.109760344
0.13336283 -0.2150991 -0.29976445 -0.011519507 -0.078345634 0.34361127 -0.01791956 -0.08938797
0.18000528 0.18420258 -0.09701054 0.2695695 -0.013488668 0.2600486 -0.23698425 -0.11473801
0.2627114 -0.104984425 -0.0037166264 0.116690665 -0.0011912625 0.0811293 -0.21078245 -0.08963014
0.064106844 -0.5370365 0.26704088 -0.08801111 0.20741232 0.13321441 0.19854635 -0.3054613
0.01678989 0.34245884 0.205975 0.24010377 -0.051311117 -0.62669057 0.19933248 -0.18890244
0.023099026 -0.2507963 -0.31929913 0.19399233 -0.37845632 -0.22495948 -0.21117352 -0.11352433
0.4855153 -0.007421586 -0.22750743 -0.19375826 0.20715095 -0.42652285 -0.24758822 -0.05792476
0.4054672 -0.57847744 0.1392928 -0.3148153 0.055781167 -0.10095808 -0.3316299 -0.15409487
-0.25728464 0.39205945 -0.11906744 0.16391656 -0.1365627 0.0778772 0.24288742 -0.4014522
0.3566841 -0.28846362 0.023190353 -0.066849284 0.097671784 -0.23322609 0.28014624 -0.23602697
0.07972554 -0.24602373 0.35942265 -0.0013474553 -0.49354988 -0.49041426 0.051969513 0.26654652
0.021120757 -0.20434205 0.3190755 0.24630123 0.2502643 0.16516823 0.19027266 0.1395173
-0.0020802594 -0.17153464 0.02935546 0.14572762 -0.23223805 0.18729483 0.005608076 -0.24748114
0.16182962 0.29173884 0.046354502 0.34258014 0.16417728 -0.20404811 -0.26910362 -0.16329806
00000000: 6a7b 2a3e 8f85 813d 863b 22bf c315 c1bd
00000010: 576e e73d 40de a93e 738b cbbd 6a62 70bc
00000020: 0a43 b7be 87e8 19be 08e1 923d 24d7 37bd
00000030: c31e a7bd 1328 55be f4d6 80be 2207 b8be
00000040: e873 b93c e36a d93e cfef 1dbc 946f 33bd
00000050: bf59 94bd 5926 893e dc8d d0be c8f6 b7bd
00000060: c7ff 2fbd 14ea 8abd d1e5 05bc 718b 343e
00000070: 404a 0ebe e760 a13e daac 083f f70a 14be
00000080: 97ac 6b3e beb4 b13d 1af8 c43e 4409 6c3e
00000090: d12c c8bd 41f6 0dbe 482b afbe fd17 6d3e
000000a0: 693d 91be b3f2 0c3d ffec 2f3e e930 913e
000000b0: df45 083e 1329 d73e cf51 b73d f849 45bd
000000c0: 41d6 e53e 8558 253e 1071 35bd 5ddc 54be
000000d0: 0710 a8be 948d 6a3d 9bef 26be 8b64 93bd
000000e0: ed4d 1bbc 3df7 993e 183f c9be 92b5 6a3e
000000f0: 86e0 ffbd 5cea 053f a71a 433d 957e 893e
00000100: c4d6 823d eae6 c53e d185 253d 3265 9d3e
00000110: 74db 38bd d8ea ac3e dfe5 bbbd b369 e43e
00000120: 2dfe 693e 0345 a1be c10f 90be edb7 d53e
00000130: 9fc3 81be 2e4c 75bd 97d8 9bbc afef 013e
00000140: 5af5 d73e 1e15 0d3e 0197 debc 8d4e a53d
00000150: ed69 ebbd 8c56 a73e 7d55 b9bc 5692 a03d
00000160: a9f4 4a3e 52ea 7c3e e347 a7be 24aa 063f
00000170: 90e1 d1bd 3ead 0d3c 2444 1d3e e4cf 96bd
00000180: 8054 09be ffa4 cbbe a0d1 12bf 6ddc bb3e
00000190: fc3c b1bb 9f41 1a3f ff25 14be 271f 93be
000001a0: c79d 993e ac4b f13d 9b01 e83d c270 c13e
000001b0: 55be e0be 0161 2dbd a20f 243f 71a9 75be
000001c0: 1efc 4f3d 600e aa3e 191f 2abe 789d 81be
000001d0: db50 b9bd 2fad 64bd ede8 f0bd ee4b b1bc
000001e0: 8b97 c43d 1f7d 70be f393 b2be 13d7 a9be
000001f0: 5e17 583b 3d21 1e3e 58a7 0b3e 3c62 aa3e
00000200: 8132 f33e 2c14 97be 3db3 4b3e fafc 79be
00000210: f336 08be 7692 76be 3af7 42be 4019 9b3d
00000220: 82fa eabc 34f1 c23e 97c1 0dbf a874 6ebe
00000230: 590b 773d 6298 7cbe 382a 973e 08ca e03d
00000240: 4490 083e f042 5cbe ba7a 99be 50bc 3cbc
00000250: ad73 a0bd d1ed af3e 0bcc 92bc 0a11 b7bd
00000260: 4e53 383e 9a9f 3c3e 76ad c6bd 0305 8a3e
00000270: 93ff 5cbc 1725 853e 00ac 72be c3fb eabd
00000280: 1c82 863e 1302 d7bd a592 73bb 84fb ee3d
00000290: 2324 9cba 1e27 a63d 5bd7 57be 0290 b7bd
000002a0: 734a 833d 397b 09bf 95b9 883e 2b3f b4bd
000002b0: e563 543e 5c69 083e bc4f 4b3e 6c65 9cbe
000002c0: f48a 893c c456 af3e 1ceb 523e c3dd 753e
000002d0: 9b2b 52bd cb6e 20bf d01d 4c3e a46f 41be
000002e0: 2b3a bd3c 5f68 80be 2d7b a3be eda5 463e
000002f0: 07c5 c1be c75b 66be df3d 58be 727f e8bd
00000300: 7695 f83e c730 f3bb b5f7 68be 9168 46be
00000310: 611f 543e 3461 dabe c487 7dbe 8342 6dbd
00000320: 6699 cf3e 1917 14bf c6a2 0e3e 792f a1be
00000330: cb7a 643d 1cc3 cebd 65cb a9be 0ccb 1dbe
00000340: d0ba 83be 04bc c83e a1d9 f3bd bed9 273e
00000350: 18d7 0bbe 157e 9f3d 7bb7 783e 258b cdbe
00000360: 4c9f b63e 81b1 93be b2f9 bd3c 47e8 88bd
00000370: 2508 c83d d2d2 6ebe 546f 8f3e 0eb1 71be
00000380: 2547 a33d a5ed 7bbe 3f06 b83e 199d b0ba
00000390: 92b2 fcbe 9417 fbbe fcdd 543d c978 883e
000003a0: 7005 ad3c 0b3f 51be dd5d a33e 6436 7c3e
000003b0: a422 803e dc21 293e d6d6 423e a0dd 0e3e
000003c0: f654 08bb c7a6 2fbe dd7a f03c 9f39 153e
000003d0: d0cf 6dbe 37ca 3f3e f4c3 b73b b26b 7dbe
000003e0: aab6 253e cb5e 953e 38de 3d3d aa66 af3e
000003f0: 171e 283e fdf1 50be f3c7 89be 9b37 27be

bias f4 [19]
-0.06581289 0.123997614 -0.2168654 0.029339222 -0.06651382 0.01932569 -0.048919883 -0.22933513
0.18835624 -0.12641352 0.099724196 0.03252393 -0.14426129 -0.15480684 -0.061887015 -0.14412017
0.13143525 0.029703842 0.06570478
00000000: e9c8 86bd 76f2 fd3d f711 5ebe cf58 f03c
00000010: 6638 88bd e950 9e3c 3760 48bd d4d6 6abe
00000020: 75e0 403e 8c72 01be 333c cc3d d037 053d
00000030: 3bb9 13be af85 1ebe 3d7d 7dbd 3d94 13be
00000040: f696 063e 7955 f33c 3a90 863d
