models/a19lds19b0.007g1d0.1h13.pt (torch, 126679 bytes, 26 tensors)

weight_ih_l0 f4 [52, 4]
0	0xbe312bfa	-0.17301932
1	0xbe1d412a	-0.1535689
2	0x3dfbc6e8	0.12293798
3	0xbe2e5e32	-0.1702812
4	0xbe8791e3	-0.2647849
5	0x3e8dc160	0.27686596
6	0xbd5adcca	-0.053433217
7	0xbe58b971	-0.2116449
8	0xbe7d4a38	-0.24735343
9	0x3c7899b0	0.015173361
10	0xbdae239a	-0.08502884
11	0x3df1f3a3	0.11814048
12	0x3de853f0	0.11344135
13	0xbe946dfb	-0.28990158
14	0xbe7e867b	-0.24855988
15	0x3cd1a350	0.025590569
16	0xbcd572df	-0.026055751
17	0x3efec457	0.4975917
18	0x3d8e5a35	0.069507994
19	0x3e57bbcf	0.21067737
20	0xbea1aa2d	-0.31575146
21	0x3dc17fa0	0.09448171
22	0xbebc25fa	-0.36747724
23	0x3e0361d1	0.12830283
24	0xbe63fa4c	-0.2226345
25	0x3ec94572	0.39310795
26	0x3d7f7e17	0.062376108
27	0x3ec61500	0.38687897
28	0x3db32104	0.087465316
29	0x3f0723a6	0.5278877
30	0x3d3f7e10	0.046751082
31	0x3d8fa8fa	0.070146516
32	0xbe4b0423	-0.19825797
33	0xbea66b2c	-0.3250364
34	0xbe0da95a	-0.13834134
35	0x3e581bcf	0.21104358
36	0x3e53793e	0.20651719
37	0x3eb9a7b8	0.36260772
38	0x3d765082	0.060135372
39	0x3f141104	0.57838464
40	0x3e526016	0.20544466
41	0x3e9892be	0.29799455
42	0xbd1d5800	-0.038414
43	0x3dd565cb	0.10419806
44	0xbd28b9b3	-0.04119272
45	0x3e2676cc	0.16256255
46	0x3d4b4caf	0.049633678
47	0x3e4e2668	0.20131838
48	0x3d439e54	0.047758415
49	0x3daae1bb	0.08343836
50	0xbd18114a	-0.037125863
51	0x3e74f000	0.23919678
52	0x3e2dd243	0.1697474
53	0x3de8a3cb	0.11359366
54	0x3f01a80f	0.5064706
55	0x3eae136f	0.33999202
56	0xbd1f80cf	-0.0389412
57	0x3d656265	0.05600204
58	0x3e891a2b	0.26777777
59	0x3df68b90	0.12038338
60	0x3d920266	0.07129364
61	0xbd9b1e5b	-0.07574149
62	0xbcb6e6ec	-0.022326909
63	0x3e12a36f	0.14320157
64	0xbec2914b	-0.38001475
65	0xbc5f181c	-0.013616588
66	0x3d9ee912	0.077592984
67	0xbe4f7b5f	-0.20261906
68	0xbdfad49e	-0.12247585
69	0x3eb099c4	0.34492314
70	0xbe880f84	-0.26574337
71	0xbe63bcc2	-0.22239974
72	0x3e6e0615	0.23244508
73	0x3cb2550a	0.021769065
74	0xbc029c34	-0.007971812
75	0x3e4c2390	0.19935441
76	0x3ee64b52	0.4497934
77	0xbeadff2b	-0.3398374
78	0xbd13335d	-0.035937656
79	0x3ddd5cff	0.10808753
80	0x3eda20cc	0.42603147
81	0x3dc6dc89	0.097100325
82	0x3dc05333	0.09390869
83	0xbe0049e8	-0.12528193
84	0xbf101cdd	-0.5629404
85	0xbc01f692	-0.007932322
86	0x3dee77aa	0.11643918
87	0xbeb88160	-0.36036205
88	0xbecce67d	-0.400196
89	0x3ec2dcab	0.3805898
90	0x3e634d46	0.22197446
91	0x3c8a575b	0.016887357
92	0x3e167a1d	0.1469502
93	0xbaa1ec36	-0.0012353722
94	0x3e3f9e3c	0.18712705
95	0x3dbbc1a0	0.091677904
96	0x3d9f506e	0.077790126
97	0xbdcaab00	-0.09895897
98	0x3e280f7f	0.16412161
99	0x3f053cf9	0.5204616
100	0xbe5e38ed	-0.21701403
101	0xbe32ce0b	-0.17461412
102	0x3ed4ff2c	0.4160093
103	0xbe2ecf75	-0.17071326
104	0xbda351ab	-0.07974561
105	0xbd6e2d91	-0.058148924
106	0xbcea8919	-0.028629826
107	0xbd43e8e5	-0.047829527
108	0xbe731f85	-0.23742492
109	0xbe7ffea1	-0.24999477
110	0xbe6179d2	-0.22019127
111	0xbe62100d	-0.22076435
112	0x3e6e1e00	0.23253632
113	0xbd16a172	-0.03677506
114	0x3df85ff6	0.12127678
115	0x3e87f69c	0.26555336
116	0x3e2755a8	0.16341269
117	0x3e65cf70	0.22442412
118	0xbe3c5990	-0.1839354
119	0xbe5d01ab	-0.21582668
120	0x3d285daa	0.04110495
121	0xbd2bbc0c	-0.041927382
122	0x3f0dfdd0	0.5546541
123	0xbd4fe5c0	-0.050756216
124	0x3e5217c8	0.20516884
125	0x3c08fffa	0.008361811
126	0xbe269ff4	-0.16271955
127	0xbddce2dc	-0.107854575
128	0x3d1c5fcf	0.038177308
129	0xbec59e1e	-0.38597196
130	0xbbdda330	-0.006763838
131	0xbe8feb9e	-0.2810945
132	0xbd9cc624	-0.0765498
133	0xbe23361b	-0.15938608
134	0xbe44b3dc	-0.19209236
135	0x3e6acd02	0.22929767
136	0x3d81a0af	0.06329476
137	0xbdfda7c6	-0.12385516
138	0xbd734371	-0.05939049
139	0x3ee0710f	0.43836257
140	0xbccde8b9	-0.025135385
141	0x3d638e15	0.05555542
142	0x3e69cfdf	0.22833203
143	0xbe109cbc	-0.1412229
144	0x3eb28de2	0.34873873
145	0x3e87d9b8	0.26533294
146	0xbe6cbfb7	-0.23120008
147	0x3ee15085	0.44006744
148	0x3d1a51b2	0.037675567
149	0x3d06dd0b	0.032925647
150	0x3e33d2da	0.17560902
151	0x3db0b042	0.086273685
152	0xbe220f21	-0.15826084
153	0xbeb3d1ba	-0.35120946
154	0x3c778dee	0.015109522
155	0xbc5521bf	-0.013008534
156	0xbcd6287c	-0.026142351
157	0x3e57f11d	0.21088071
158	0x3c886233	0.016648388
159	0x3eae23e2	0.3401175
160	0xbdf1ab09	-0.118002005
161	0x3e208ba9	0.15678276
162	0xbebc1a35	-0.36738744
163	0x3e480c6d	0.1953599
164	0xbe3bc4c3	-0.18336777
165	0x3dcf2a39	0.10115475
166	0x3e491fed	0.19641085
167	0x3ea8378b	0.32854876
168	0xbca1576c	-0.019695006
169	0x3df8443b	0.12122389
170	0x3ee3d871	0.4450107
171	0x3d74fd1a	0.05981169
172	0x3e7869ca	0.24259105
173	0x3dd79c15	0.10527817
174	0xbe86cdd7	-0.26328918
175	0x3dcf4f26	0.10122518
176	0x3d8330bb	0.06405779
177	0xbeb2732b	-0.3485349
178	0x3e88a355	0.26687112
179	0xbe00403a	-0.125245
180	0x3db48868	0.0881508
181	0x3e452f20	0.19256258
182	0xbda32973	-0.0796689
183	0x3e159b20	0.14609957
184	0xbe172acc	-0.1476242
185	0x3dbf7053	0.09347596
186	0xbd373bed	-0.044734884
187	0xbd16266b	-0.036657732
188	0xbead9833	-0.3390518
189	0x3e8278a9	0.2548268
190	0xbe01f16b	-0.1268975
191	0x3c8d7f00	0.017272472
192	0x3e5d7161	0.21625282
193	0xbe507486	-0.2035695
194	0x3e9c2cad	0.30502835
195	0x3cf5a0b2	0.029983852
196	0xbdf636f1	-0.12022198
197	0xbd95d836	-0.073166296
198	0xbb5700f9	-0.0032806976
199	0x3d4bc338	0.049746722
200	0x3e3fde84	0.18737227
201	0x3e61d7d1	0.22054984
202	0xbe9edd72	-0.31028324
203	0xbdf5616b	-0.11981472
204	0x3e6957f8	0.22787464
205	0xbd591813	-0.053001475
206	0x3d04a583	0.032384407
207	0xbe63bb2e	-0.22239372

weight_hh_l0 f4 [52, 13]
0	0xbc070cbd	-0.008242783
1	0xbd8f1896	-0.06987111
2	0x3ddd76c5	0.10813669
3	0xbe66ce27	-0.22539578
4	0x3e65af5e	0.22430179
5	0x3c9cf719	0.019160794
6	0xbde12b9b	-0.10994645
7	0xbe99cbf0	-0.30038404
8	0x3ba40947	0.0050059888
9	0x3e8a392e	0.2699675
10	0xbe977021	-0.29577735
11	0x3d2118b6	0.039330207
12	0xbda70f98	-0.08157271
13	0x3db34fb6	0.08755438
14	0x3e823582	0.25431448
15	0x3ce93bb2	0.028470848
16	0xbeac9cd0	-0.33713388
17	0x3e17ddd6	0.14830717
18	0x3d1fbdbd	0.038999308
19	0xbeb36793	-0.35039958
20	0x3e295f36	0.16540226
21	0xbe4a256f	-0.19740842
22	0x3e8f1e21	0.27952674
23	0x3e33bb04	0.1755181
24	0xbd9c5f32	-0.076353446
25	0xbdcc51ef	-0.09976565
26	0x3e7a7718	0.24459493
27	0xbeacc770	-0.3374591
28	0xbcfd0a10	-0.030888587
29	0xbe1a05b1	-0.15041234
30	0x3d041472	0.03224606
31	0xbe8c1d27	-0.2736599
32	0x3dd54f7b	0.1041555
33	0x3d69db7f	0.057094093
34	0x3e0203da	0.12696782
35	0xbbfa1938	-0.007632401
36	0x3ecbdc27	0.398164
37	0x3e1c30d9	0.15253009
38	0x3e407012	0.18792751
39	0xbd2d0dac	-0.042249367
40	0xbe4f7122	-0.20258
41	0xbd9dfecf	-0.077146165
42	0xbe296a12	-0.16544369
43	0x3e5278c7	0.20553885
44	0xbe60ad23	-0.21941046
45	0xbe824422	-0.25442606
46	0x3d75d6a3	0.060019147
47	0xbf09c2bf	-0.53812784
48	0x3e535107	0.20636378
49	0x3d1db3ae	0.038501434
50	0xbdf84ba8	-0.12123805
51	0xbe47b413	-0.19502287
52	0xbb965a9d	-0.0045884387
53	0xbe93dd30	-0.2887969
54	0x3e805f70	0.25072813
55	0xbcd1e6e2	-0.025622789
56	0x3d42bf0a	0.04754547
57	0x3e9b27fe	0.3030395
58	0xbe4bb44e	-0.19893
59	0xbe64f374	-0.22358495
60	0xbe24fa1c	-0.16111034
61	0xbd3913ae	-0.045184784
62	0x3d8125a5	0.06306008
63	0xbd375e88	-0.044767886
64	0xbdf830e9	-0.12118704
65	0x3ce06af5	0.027394751
66	0x3e92e5a5	0.2869083
67	0xbdf77abe	-0.12083958
68	0x3d25460d	0.04035001
69	0x3e765e90	0.2405951
70	0xbd241aaa	-0.04006449
71	0x3df2d507	0.11857038
72	0xbec7a55e	-0.38993353
73	0x3dedc3ff	0.11609649
74	0x3da30e21	0.07961679
75	0xbd7c3299	-0.06157169
76	0xbe9585bd	-0.29203597
77	0xbd49aadc	-0.04923521
78	0x3e9b8812	0.3037725
79	0xbe18fdf2	-0.14940622
80	0x3da25658	0.07926625
81	0xbdbd8e93	-0.092557095
82	0x3e31c094	0.17358619
83	0x3ebce88a	0.36896163
84	0xbe649763	-0.22323374
85	0xbeac4a4f	-0.33650443
86	0xbc58bf41	-0.013229192
87	0x3d8bda68	0.06828767
88	0x3eb4b95c	0.35297668
89	0xbde19683	-0.11015036
90	0x3ec14fb5	0.37756124
91	0xbe095725	-0.13412149
92	0xbcd73b70	-0.02627346
93	0xbe80a4c9	-0.2512572
94	0xbd54bbd5	-0.051936943
95	0x3e77c99d	0.24198003
96	0x3e8bd640	0.27311897
97	0xbeab9605	-0.33512893
98	0x3d7e2f90	0.062057078
99	0xbeb94c04	-0.36190808
100	0xbe1abbcb	-0.151107
101	0x3dd39102	0.103303924
102	0x3eaad928	0.33368802
103	0xbe2324f9	-0.15932073
104	0x3e2bebe4	0.16789204
105	0x3d8d6265	0.06903533
106	0xbdcdf481	-0.10056401
107	0x3e042909	0.12906279
108	0x3d807061	0.062714346
109	0x3ed36c93	0.41293773
110	0x3f0f4644	0.5596659
111	0x3e947f54	0.29003394
112	0xbe70873e	-0.23489091
113	0xbe8ef05c	-0.27917755
114	0xbeed8ef4	-0.46398127
115	0xbc7b1012	-0.015323656
116	0xbe6c92cd	-0.23102875
117	0x3de26be0	0.11055732
118	0x3d4e3735	0.05034562
119	0xbea6d8e5	-0.32587352
120	0xbe3d8abb	-0.18509953
121	0x3e7399c5	0.23789127
122	0xbe891a06	-0.26777667
123	0xbf01edb2	-0.5075332
124	0x3e8b525a	0.27211267
125	0xbe08e057	-0.13366829
126	0x3c0dd244	0.008656088
127	0x3e3b4984	0.18289763
128	0xbe14ebe6	-0.14543113
129	0x3c9d6e63	0.019217676
130	0x3d9f4741	0.077772625
131	0xbe9e2ac7	-0.30892012
132	0xbe1d244b	-0.15345876
133	0xbe132091	-0.14367892
134	0x3ec29674	0.38005412
135	0xbe0d2697	-0.13784252
136	0x3e5bd2c5	0.21467121
137	0x3d3ae336	0.04562684
138	0x3e3bec83	0.18351941
139	0x3e54af2f	0.20769952
140	0xbd95d6a5	-0.07316331
141	0x3d9e6919	0.077348895
142	0x3eb60dd6	0.3555743
143	0xbd996b65	-0.07491187
144	0x3d4af064	0.04954566
145	0x3d8680df	0.06567549
146	0x3e159eb5	0.14611323
147	0x3e27f331	0.16401364
148	0x3df63308	0.12021452
149	0x3e8a2032	0.26977688
150	0x3e1a2fb6	0.15057263
151	0xbec256fb	-0.37956986
152	0x3f00c805	0.50305206
153	0xbe4ef707	-0.20211421
154	0x3e1492a2	0.14509061
155	0x3eaffbc0	0.34371758
156	0x3e836ca0	0.25668812
157	0x3d808350	0.06275046
158	0xbee86830	-0.4539199
159	0xbd9f67ca	-0.07783468
160	0xbcdf101e	-0.027229365
161	0xbc93f1b6	-0.018059593
162	0xbc444d76	-0.011981359
163	0xbe5f4df9	-0.21807088
164	0x3ebbe985	0.367016
165	0xbd4646f9	-0.04840753
166	0xbe346596	-0.17616877
167	0xbdbb1ac5	-0.09135965
168	0x3e7ef955	0.248998
169	0xbc8d0ac8	-0.017217055
170	0x3d83b7d1	0.064315446
171	0xbdd898ab	-0.10575994
172	0xbe963142	-0.29334456
173	0x3eb64a53	0.3560358
174	0xbc763267	-0.015026665
175	0x3ec79e15	0.38987795
176	0xbd3bc7df	-0.04584491
177	0x3d78eea6	0.060774468
178	0xbbc32245	-0.005955013
179	0xbe6d2ae0	-0.23160887
180	0x3dbc62a9	0.091985054
181	0x3e2984ef	0.16554616
182	0xbe904ab0	-0.28181982
183	0x3e95f172	0.2928577
184	0x3d9d4a9c	0.07680246
185	0xbe730454	-0.2373212
186	0xbcf7a408	-0.030229583
187	0xbe890345	-0.26760307
188	0x3de8c0c8	0.11364895
189	0x3e3c1772	0.18368319
190	0x3d86454c	0.06556186
191	0xbe4019be	-0.1875982
192	0x3e88a27b	0.26686463
193	0x3e31a7dd	0.17349191
194	0x3dbfc091	0.09362901
195	0x3d67a051	0.056549374
196	0xbc713ca6	-0.014723932
197	0x3ef2f03f	0.47448918
198	0xbc34bd03	-0.011031392
199	0xbd97294a	-0.07380922
200	0x3eb9796a	0.36225444
201	0x3d429c05	0.047512073
202	0xbe2aaeb4	-0.16668206
203	0xbe75e0bd	-0.24011512
204	0x3e40cb42	0.18827537
205	0x3dedb081	0.11605931
206	0x3ea40f7d	0.32043067
207	0x3ea81782	0.32830435
208	0x3c8fae76	0.017539244
209	0xbdf8b462	-0.1214378
210	0xbe0d1f24	-0.1378141
211	0x3d8eceef	0.06973063
212	0xbe7e0ab1	-0.24808766
213	0x3e1b1af7	0.15147005
214	0xbe8416d9	-0.2579868
215	0xbd5ae0f7	-0.0534372
216	0xbe7fa318	-0.24964559
217	0x3eb8ace5	0.36069408
218	0x3e409f1a	0.18810692
219	0x3e83d7bf	0.2575054
220	0xbd1c0ac7	-0.038096216
221	0xbd7a2079	-0.061066125
222	0xbe460cf0	-0.19340873
223	0xbe4e494b	-0.20145147
224	0x3d3d4da4	0.046216622
225	0x3d3391ec	0.043840334
226	0xbe43abbd	-0.19108482
227	0x3e046d33	0.12932281
228	0xbd974158	-0.0738551
229	0x3ba81d93	0.0051304786
230	0xbe891b32	-0.2677856
231	0x3dae417c	0.08508584
232	0x3d84af53	0.06478753
233	0x3d77ab99	0.060466383
234	0x3e8b1475	0.27164045
235	0xbe12363c	-0.14278501
236	0xbe049451	-0.12947203
237	0x3efb4cd0	0.4908204
238	0x3e8e0b97	0.27743217
239	0xbe4831ac	-0.19550198
240	0xbe01f723	-0.12691931
241	0x3e0f5ee7	0.14001046
242	0xbe2a49db	-0.16629736
243	0x3dd7bb6c	0.10533795
244	0x3e00ef38	0.12591255
245	0x3eaa66de	0.33281606
246	0xbaf59b94	-0.0018738382
247	0xbe815621	-0.25261024
248	0xbca56dc3	-0.02019394
249	0x3de2cb4c	0.11073932
250	0xbedb99ac	-0.4289068
251	0xbd74caf3	-0.05976386
252	0x3c0e81de	0.008697955
253	0xbebbb0de	-0.36658376
254	0xbd30a91f	-0.043130036
255	0xbeb94ea8	-0.36192822

bias_ih_l0 f4 [52]
0	0x3d8a88a7	0.067643456
1	0x3eb1c6e3	0.3472205
2	0x3e64efad	0.22357054
3	0xbe1ad9eb	-0.15122192
4	0x3db94ce9	0.090478726
5	0xbd20d2bf	-0.039263483
6	0x3e439d92	0.19103077
7	0x3d0cd368	0.0343813
8	0x3e5497a6	0.20760974
9	0xbd83c152	-0.06433357
10	0xbe55b03b	-0.20868008
11	0x3ddca6f4	0.10774031
12	0x3ca0706c	0.019584857
13	0x3ea4ec3a	0.32211477
14	0x3c9647d9	0.018344807
15	0x3c2ccc7c	0.0105468
16	0xbe155a23	-0.14585166
17	0xbe5bd641	-0.2146845
18	0x3e7c2f1c	0.24627346
19	0xbdc3368e	-0.0953189
20	0x3e4f3a61	0.20237114
21	0xbe704a48	-0.23465836
22	0x3e3e32b6	0.18574032
23	0x3dfcb5b4	0.123393446
24	0xbe541e02	-0.20714572
25	0xbe49a8ed	-0.19693346
26	0xbc8c622e	-0.01713666
27	0xbe21f808	-0.15817273
28	0x3df4465a	0.11927481
29	0xbe96fb65	-0.29488674
30	0x3e405f95	0.18786462
31	0xbe1ad1fa	-0.15119162
32	0xbeaed1e1	-0.341445
33	0xbe26270f	-0.16225837
34	0xbe0fc519	-0.1404003
35	0x3e4b7d0e	0.19871923
36	0x3e15dfc7	0.14636146
37	0x3e334bc1	0.17509367
38	0x3e7b3fef	0.24536107
39	0xbe4c8a00	-0.19974518
40	0x3e200814	0.15628082
41	0x3ea72995	0.32648912
42	0x3dbbee19	0.09176273
43	0xbe0dccfe	-0.1384773
44	0xbd01dd79	-0.031705353
45	0x3d8577ee	0.065170154
46	0x3e5d668f	0.21621154
47	0x3e2110d0	0.1572907
48	0x3e99c299	0.3003128
49	0x3dbd662a	0.09248002
50	0x3e69978f	0.22811721
51	0x3e3acfc4	0.18243319

bias_hh_l0 f4 [52]
0	0x3e91b8fa	0.28461438
1	0x3e630b51	0.22172286
2	0x3ea03897	0.31293175
3	0xbd8846b0	-0.066541076
4	0x3e6e8a05	0.23294838
5	0x3da93951	0.08262885
6	0x3c14889b	0.009065772
7	0xbe032d96	-0.12810358
8	0x3c854abf	0.016270993
9	0xbbe4496e	-0.0069667613
10	0xbd97678e	-0.07392798
11	0xbdb57872	-0.08860864
12	0x3e887500	0.26651764
13	0x3b1fd462	0.0024388065
14	0x3e803d7e	0.25046915
15	0x3cd66cef	0.02617499
16	0xbdf9693e	-0.121782765
17	0xbe2ed7e9	-0.1707455
18	0xbe0ca61a	-0.13735238
19	0x3e479b20	0.19492769
20	0x3e6ec9d9	0.23319186
21	0xbe0d8984	-0.1382199
22	0xbcc1e63a	-0.02366935
23	0xbe506d6b	-0.2035424
24	0x3c424317	0.011856816
25	0x3ea2b719	0.31780317
26	0xbe996fd0	-0.2996812
27	0x3d86087c	0.06544587
28	0x3e95128d	0.29115716
29	0x3d824379	0.06360526
30	0xbdf3aaf6	-0.118978426
31	0x3d3b0b3a	0.045665003
32	0x3e1d25b8	0.1534642
33	0xbcc73e83	-0.0243218
34	0x3e101a45	0.14072521
35	0xbc90b5cc	-0.017664813
36	0x3c52dbb9	0.012869769
37	0x3de89585	0.113566436
38	0x3e850715	0.25981966
39	0x3d936d9c	0.07198641
40	0x3e54c3f6	0.20777878
41	0xbe24d10d	-0.16095372
42	0x3d81f8e1	0.06346298
43	0xbe2913e4	-0.16511494
44	0x3dd187b4	0.102309614
45	0xbc78756b	-0.015164713
46	0xbe135ffd	-0.14392085
47	0xbd869429	-0.06571228
48	0x3e3a73e1	0.18208267
49	0x3e412d23	0.18864875
50	0xbc907228	-0.017632559
51	0x3e7c0be0	0.24613905

weight_ih_l0_reverse f4 [52, 4]
0	0xbd07e03f	-0.033172842
1	0xbe7a000f	-0.24414085
2	0x3e1e8805	0.15481575
3	0x3ca443aa	0.020051796
4	0x3ea4e96c	0.32209337
5	0x3d6d675a	0.05795989
6	0x3e8fe5a4	0.2810489
7	0x3eada094	0.33911574
8	0xbdd17116	-0.102266476
9	0x3e6986cc	0.22805327
10	0x3f297279	0.66190296
11	0xbedb373b	-0.42815575
12	0x3d31a97d	0.043374527
13	0x3daa59b1	0.083178885
14	0x3cf3d806	0.029766094
15	0xbd24a5e4	-0.040197268
16	0x3a970aa4	0.0011523557
17	0x3e715335	0.23566897
18	0x3ddf9a7b	0.10918137
19	0x3e6070ba	0.21918002
20	0x3e539dbf	0.20665644
21	0x3e42bf6b	0.19018333
22	0x3ef3321e	0.47499174
23	0xbe184b14	-0.1487239
24	0x3d43b219	0.04777727
25	0xbe7a607f	-0.24450873
26	0xbe9372d1	-0.28798535
27	0xbe50454a	-0.20338932
28	0xbdbff5a8	-0.09373027
29	0xbea92a19	-0.3303993
30	0x3e9fac2a	0.31186038
31	0xbe53e141	-0.20691396
32	0x3e03239b	0.12806551
33	0xbcc3dc81	-0.023908855
34	0x3e12447b	0.14283936
35	0xbd891fb8	-0.06695503
36	0xbecaf3f9	-0.3963926
37	0xbeb7c57f	-0.35892865
38	0x3e835dac	0.25657403
39	0x3e5356a5	0.20638521
40	0x3dbffb14	0.09374061
41	0x3e430a9c	0.19047016
42	0x3bf9b031	0.0076198806
43	0x3b484bca	0.0030562752
44	0x3e1902b9	0.14942445
45	0x3e2b99ed	0.16757937
46	0x3e9e2e1c	0.30894554
47	0x3c1327ea	0.008981684
48	0x3ccfe193	0.025376117
49	0xbe6ffa05	-0.23435219
50	0x3e4aca98	0.19803846
51	0xbcb7a254	-0.022416271
52	0x3dabcf8c	0.08389196
53	0x3d5422f0	0.05179113
54	0xbe04153d	-0.12898727
55	0x3e40fba7	0.18845998
56	0x3e8be9f1	0.2732692
57	0xbe0bc737	-0.13650213
58	0x3f275964	0.65370774
59	0xbe837943	-0.25678453
60	0xbd620967	-0.055184748
61	0x3e883ec6	0.26610392
62	0xbdc103ab	-0.09424528
63	0x3caadec8	0.020858184
64	0x3e6afd87	0.22948276
65	0x3d94ef4f	0.07272207
66	0x3e41b4e1	0.18916656
67	0x3d8b8bdc	0.068137854
68	0x3d2634f0	0.04057783
69	0xbe00d2e9	-0.12580456
70	0x3eab16f3	0.33415946
71	0xbe092d7d	-0.13396259
72	0x3d12e0a7	0.035858776
73	0x3e9aa1ac	0.3020147
74	0xbb65b42d	-0.003505002
75	0x3ef4b6ef	0.47795817
76	0x3e985c4c	0.29757917
77	0xbdf7d739	-0.12101597
78	0x3df842a6	0.12122087
79	0x3e6b8907	0.2300149
80	0xbe9254b3	-0.28580245
81	0x3d999dd4	0.075008065
82	0x3e89f4c3	0.2694455
83	0xbe6fde23	-0.23424582
84	0xbe322bf1	-0.17399575
85	0xbe6a1500	-0.22859573
86	0xbe7b1f97	-0.2452377
87	0x3d81e610	0.06342709
88	0x3e86365a	0.26213342
89	0xbd33c1f6	-0.043886147
90	0x3f257f21	0.6464711
91	0xbcf957fd	-0.030437464
92	0x3e1bfad4	0.15232402
93	0xbe320de6	-0.17388114
94	0x3cc8bc6f	0.024503915
95	0xbe619720	-0.22030306
96	0xbdd8cbd4	-0.10585752
97	0xbe60904b	-0.21930043
98	0xbd54c65a	-0.051946975
99	0x3d2d3423	0.04228605
100	0x3ec1186c	0.37713945
101	0x3de1b191	0.11020196
102	0xbe2dfecf	-0.16991733
103	0x3dd00748	0.10157639
104	0x3e65f9d2	0.2245858
105	0xbe21873e	-0.15774247
106	0xbe107d94	-0.14110404
107	0xbdf15168	-0.11783105
108	0x3d7d39f0	0.06182283
109	0x3e98f690	0.29875612
110	0xbe891e9d	-0.2678117
111	0x3da1ccfc	0.07900426
112	0xbec29b78	-0.38009238
113	0x3db7f87b	0.08982941
114	0xbd246a94	-0.040140703
115	0xbcc19964	-0.023632713
116	0x3de6d0e0	0.112703085
117	0x3e48b2d8	0.19599473
118	0xbe95aa40	-0.29231453
119	0x3ea2243b	0.31668267
120	0xbe0874a7	-0.1332575
121	0xbdd7a585	-0.10529617
122	0xbd6504d5	-0.05591281
123	0xbe0c34c6	-0.13692006
124	0x3df8f2c7	0.12155681
125	0xbd7d1197	-0.061784353
126	0x3ead2961	0.33820632
127	0xbb9f08f4	-0.004853362
128	0xbe368725	-0.17824991
129	0xbdadb2e7	-0.084813885
130	0xbd0ced82	-0.034406193
131	0xbb7e15fa	-0.0038770423
132	0x3efaf5cf	0.49015662
133	0x3d1c2bad	0.03812759
134	0xbeb39c57	-0.35080215
135	0xbd0d8578	-0.034551114
136	0xbe5b281f	-0.21402024
137	0xbea5953b	-0.32340416
138	0x3e1d999d	0.1539063
139	0x3e8bb67b	0.2728766
140	0xbea3edc2	-0.32017332
141	0xbeb814c6	-0.3595335
142	0xbe292b19	-0.16520347
143	0x3c63c808	0.013902672
144	0xbe17f6f0	-0.14840293
145	0xbc46cf65	-0.012134408
146	0x3e497773	0.19674473
147	0xbe732c7d	-0.2374744
148	0x3e9c9881	0.305851
149	0x3e3515f1	0.17684151
150	0x3d9c34a6	0.076272294
151	0x3e2bc3f2	0.16773966
152	0x3cc9a18d	0.024613166
153	0x3d63a649	0.055578504
154	0x3dc7a025	0.09747342
155	0xbe2d069b	-0.16897051
156	0x3e86c820	0.26324558
157	0xbc08172e	-0.008306308
158	0xbca7c609	-0.020480173
159	0x3cacb300	0.021081448
160	0x3e2ba2c3	0.16761307
161	0x3e488c1b	0.19584696
162	0xbdea61e0	-0.114444494
163	0x3e5a0a74	0.2129305
164	0x3e73bd1e	0.23802611
165	0x3d8e5cb3	0.06951275
166	0x3aabc123	0.0013103824
167	0x3d966108	0.07342726
168	0xbcbc68a1	-0.02299911
169	0x3e81dc91	0.2536359
170	0x3b09720a	0.0020972514
171	0x3cf44ece	0.029822733
172	0xbe28ac2e	-0.16471931
173	0x3e8d15cf	0.275557
174	0xbe797023	-0.24359183
175	0x3ea558ad	0.32294217
176	0xbe182ab9	-0.14860047
177	0xbe6252b5	-0.22101863
178	0x3dbbcedd	0.091703154
179	0x3e291205	0.1651078
180	0x3e84ba41	0.2592335
181	0xbdca8e29	-0.09890396
182	0x3eb0f090	0.34558535
183	0xbd6133a1	-0.054980878
184	0x3cfc2796	0.030780595
185	0x3e0e6854	0.13906986
186	0xbe810aeb	-0.25203642
187	0x3e5c9fa0	0.21545267
188	0x3da770b8	0.08175796
189	0xbd3e59b0	-0.04647225
190	0x3dc82cb2	0.0977415
191	0xbca465b6	-0.02006803
192	0xbcf8ab6f	-0.030355183
193	0x3d87d9a3	0.06633308
194	0x3eae0c11	0.3399358
195	0xbe28ed19	-0.16496696
196	0xbb819198	-0.0039541237
197	0xbe363e50	-0.17797208
198	0xbe5eee38	-0.2177056
199	0xbd9e6d66	-0.0773571
200	0x3e84778c	0.25872457
201	0xbd647654	-0.05577691
202	0xbc8966f9	-0.016772734
203	0xbdfc1612	-0.12308897
204	0xbe66e542	-0.22548392
205	0x3dd76dc0	0.1051898
206	0x3e4829ca	0.19547191
207	0x3e873553	0.2640787

weight_hh_l0_reverse f4 [52, 13]
0	0xbd47d9c6	-0.04879167
1	0x3d366862	0.04453314
2	0x3e0c9a7d	0.13730808
3	0x3e2c7ad1	0.16843726
4	0xbe6bde54	-0.2303403
5	0x3e15e889	0.14639486
6	0xbd847cfd	-0.06469152
7	0x3eb0ace2	0.345069
8	0xbe3eedd3	-0.1864541
9	0xbcffd2eb	-0.031228503
10	0xbe23740f	-0.15962242
11	0x3ea43756	0.32073468
12	0x3dc542c9	0.09631879
13	0xbe04fda9	-0.12987389
14	0x3e983e49	0.2973502
15	0x3d858b13	0.06520667
16	0x3dc0ec2d	0.09420047
17	0xbeda449d	-0.42630473
18	0x3e927c90	0.2861066
19	0xbe849ea9	-0.25902298
20	0x3ddc0356	0.10742824
21	0xbd69ad4a	-0.057050027
22	0xbbc129f9	-0.005894896
23	0xbf02b379	-0.51055104
24	0x3ba2280d	0.004948622
25	0x3ea2a1f0	0.31764174
26	0xbee627b7	-0.44952175
27	0x3d97ec28	0.0741809
28	0x3e16b1f0	0.14716315
29	0x3c8b47f2	0.01700208
30	0x3dde15b6	0.10843985
31	0x3e12fe0e	0.14354727
32	0xbe7c5252	-0.24640778
33	0x3e1d7594	0.15376884
34	0xbd413b8a	-0.04717592
35	0xbeb7a79f	-0.35870072
36	0x3da49986	0.08037095
37	0xbd5b9304	-0.053607002
38	0x3dba4d71	0.09096802
39	0xbd24ed69	-0.040265474
40	0x3eb066af	0.3445334
41	0xbe9d912b	-0.30774817
42	0x3e46c6ee	0.19411823
43	0x3d1cfab1	0.038325015
44	0x3ea75fa1	0.32690147
45	0xbd2b6b94	-0.04185064
46	0xbe05453a	-0.13014689
47	0x3e4fd00d	0.20294209
48	0xbe2bccf2	-0.16777399
49	0xbe2159c6	-0.15756902
50	0x3d608889	0.05481771
51	0x3e309891	0.172457
52	0x3d169bb2	0.036769576
53	0x3d1aa249	0.037752423
54	0x3d8083ce	0.0627514
55	0xbea50bc4	-0.3223554
56	0xbde9d744	-0.11418012
57	0x3e814c72	0.25253636
58	0x3d444265	0.04791488
59	0x3e2cab39	0.16862191
60	0x3e308ca6	0.17241153
61	0xbd422aa6	-0.047403954
62	0xbdbcf9a0	-0.092273
63	0xbe0ae9d4	-0.13565761
64	0x3e026015	0.12731965
65	0xbe43a6b9	-0.19106568
66	0xbdc6a879	-0.09700102
67	0x3e08b181	0.13348962
68	0x3db52a00	0.088459015
69	0x3bfe0d44	0.007753046
70	0x3e068741	0.13137533
71	0x3db8add6	0.090175316
72	0x3da3b799	0.07994003
73	0xbe315a32	-0.17319563
74	0xbe29093c	-0.16507429
75	0x3e91d2ec	0.28481233
76	0xbe6a397f	-0.22873496
77	0x3e858ae6	0.26082534
78	0x3e29f794	0.1659835
79	0x3e8d4a1d	0.27595606
80	0x3d9f8538	0.07789081
81	0xbcb206c9	-0.021731751
82	0xbeef5548	-0.46744752
83	0xbe839f24	-0.25707352
84	0xbce2bd7b	-0.027678242
85	0x3de08047	0.10961967
86	0xbe9804d6	-0.2969119
87	0xbe56b2c2	-0.20966628
88	0xbc85df06	-0.016341697
89	0x3e955e43	0.29173478
90	0xbd9f8828	-0.077896416
91	0xbe0a2237	-0.13489614
92	0x3e1b2e04	0.15154272
93	0xbe415cc7	-0.18883048
94	0x3ead472e	0.33843368
95	0xbeeb010b	-0.45899233
96	0x3ea3c4a6	0.31985968
97	0xbe4c8a63	-0.19974665
98	0x3e0ba3ff	0.13636778
99	0xbe0cae8d	-0.13738461
100	0xbe809bd9	-0.25118902
101	0xbe10e482	-0.14149669
102	0x3ed624ba	0.41824895
103	0xbb35880b	-0.0027699496
104	0x3dd5a990	0.10432732
105	0xbdee3853	-0.11631837
106	0x3e846728	0.25859952
107	0x3e345fab	0.1761462
108	0x3e3b2b75	0.18278296
109	0xbbdbd337	-0.0067085284
110	0x3df7afce	0.12094079
111	0x3e751718	0.23934591
112	0xbe849feb	-0.25903258
113	0xbe81b104	-0.25330365
114	0xbe9e92f3	-0.30971488
115	0xbe4b7d77	-0.1987208
116	0x3df8ecaa	0.12154515
117	0xbe934bbb	-0.28768715
118	0xbd8e9794	-0.06962505
119	0xbe5dd83f	-0.21664523
120	0xbc246be2	-0.010035487
121	0xbedf8fcc	-0.43664396
122	0xbe0171e1	-0.12641098
123	0xbd775155	-0.0603803
124	0xbd9c074b	-0.076185785
125	0x3e04758f	0.1293547
126	0xbe143399	-0.14472808
127	0xbd18ee14	-0.037336424
128	0xbd90d35e	-0.07071565
129	0xbdd2a780	-0.10285854
130	0x3ead02f5	0.3379132
131	0x3da6ff4f	0.08154165
132	0xbea1b1b5	-0.31580892
133	0x3e858ae6	0.26082534
134	0x3e4dabc4	0.20085055
135	0xbcf54327	-0.029939247
136	0xbed2c636	-0.41166848
137	0x3db120c9	0.086488314
138	0x3c099b71	0.0083988765
139	0xbe8d74b2	-0.27628094
140	0xbe39cafb	-0.18143837
141	0xbe13cebe	-0.14434335
142	0x3e1db33d	0.15400405
143	0x3c920599	0.017824935
144	0x3ca648b9	0.020298349
145	0xbe9a67f8	-0.30157447
146	0x3e08b2af	0.13349412
147	0xbdcbff27	-0.09960776
148	0x3e037392	0.12837055
149	0xbe9e7be6	-0.30953902
150	0x3bffd028	0.0078067966
151	0xbe187706	-0.14889154
152	0xbe8b46ef	-0.27202556
153	0xbdc33c93	-0.09533038
154	0x3eae11dc	0.33998
155	0x3ec73150	0.3890481
156	0x3d1e4a1a	0.038644888
157	0x3c8d31d5	0.017235676
158	0xbf133aca	-0.5751158
159	0x3e163360	0.14668036
160	0xbe12c917	-0.14334522
161	0x3e4efa72	0.20212725
162	0xbe2aedca	-0.16692272
163	0x3e61b689	0.22042288
164	0xbe65701d	-0.22406049
165	0xbc34f481	-0.011044622
166	0xbe560983	-0.20902066
167	0xbc9da2fd	-0.019242758
168	0x3e8cf281	0.27528766
169	0xbd7ecd81	-0.062207703
170	0xbc7789be	-0.015108524
171	0xbe6875fc	-0.22701257
172	0xbe0aa03f	-0.13537692
173	0xbe506918	-0.2035259
174	0x3d4c4685	0.04987194
175	0x3e515017	0.20440708
176	0x3d5f17c6	0.05446603
177	0xbe2699db	-0.16269629
178	0xbc6a5d00	-0.0143043995
179	0xbe1131ed	-0.14179201
180	0xbd8007bd	-0.06251476
181	0x3dcef133	0.10104599
182	0xbea76c54	-0.32699835
183	0xbdd71075	-0.10501186
184	0xbe2e06a8	-0.16994727
185	0xbe0ee229	-0.13953461
186	0xbe925268	-0.28578496
187	0x3dbad8d5	0.09123389
188	0x3ca20ee9	0.0197825
189	0xbc38dab7	-0.011282614
190	0xbe8dab7e	-0.276699
191	0xbe9713d7	-0.29507324
192	0x3d41a90f	0.047280367
193	0x3c672c0f	0.0141096255
194	0x3ee3077b	0.44341645
195	0xbe72ec07	-0.2372285
196	0xbc415022	-0.01179889
197	0xbe7f73f8	-0.24946582
198	0x3e8d9d84	0.27659237
199	0xbb0df8e3	-0.002166324
200	0x3df8b9fe	0.1214485
201	0xbe4fc9a2	-0.2029176
202	0xbe2ae3f3	-0.16688518
203	0xbe272236	-0.16321644
204	0x3dc033fc	0.09384915
205	0xbe731160	-0.23737097
206	0x3f024970	0.50893307
207	0x3ebf37fd	0.37347403
208	0xbedc6df3	-0.43052635
209	0xbe34873e	-0.17629716
210	0xbe84de30	-0.25950766
211	0x3e609528	0.21931899
212	0xbdb2cb73	-0.08730211
213	0x3e8bba44	0.27290547
214	0xbdc62393	-0.09674754
215	0x3cea0a0a	0.02856924
216	0xbde847a6	-0.11341791
217	0xbe91abcb	-0.2845138
218	0x3c9ec3c3	0.019380456
219	0x3e2fb630	0.17159343
220	0x3c3e41af	0.01161234
221	0xbe58af5c	-0.21160644
222	0x3ba3a261	0.0049937223
223	0x3d636c57	0.055523243
224	0x3e08de81	0.13366129
225	0xbcca617a	-0.024704684
226	0x3e01f7d6	0.12692198
227	0xbe668669	-0.22512211
228	0xbdf692f8	-0.12039751
229	0x3d8120ac	0.0630506
230	0x3e403976	0.1877192
231	0xbdd7c097	-0.105347805
232	0x3e7c71d7	0.24652801
233	0x3ba29200	0.004961252
234	0x3e2e1933	0.170018
235	0x3e3ce633	0.18447189
236	0xbdf71d5e	-0.12066148
237	0xbe072a05	-0.13199623
238	0x3ea31d49	0.3185828
239	0xbe37f1b8	-0.17963302
240	0xbde61abf	-0.1123557
241	0xbc8c8467	-0.017152978
242	0x3e6331c9	0.2218696
243	0xbddfa9dd	-0.10921071
244	0x3e058d86	0.13042268
245	0x3dffb0a3	0.12484863
246	0x3e268322	0.1626096
247	0xbdb2b00d	-0.08724985
248	0x3b837468	0.0040116794
249	0xbd9d3b94	-0.07677379
250	0x3e7e1396	0.24812159
251	0xbc2acacf	-0.01042433
252	0xbd758c8c	-0.05994849
253	0xbdc62da9	-0.09676678
254	0x3e86b45a	0.26309472
255	0xbc8df390	-0.017328054

bias_ih_l0_reverse f4 [52]
0	0xbe03a5a7	-0.1285616
1	0x3e5da4b1	0.21644856
2	0xbe517f38	-0.20458686
3	0x3c85435f	0.016267477
4	0xbe26a402	-0.16273502
5	0x3e4b8da2	0.19878247
6	0x3cf1ca4d	0.02951541
7	0x3e101472	0.140703
8	0xbe1241f7	-0.14282976
9	0x3e3869da	0.18009129
10	0x3e367808	0.17819226
11	0x3e80b1d5	0.25135675
12	0xbc691b8d	-0.01422776
13	0x3dee4879	0.11634917
14	0xbdbca65f	-0.0921142
15	0x3dad682f	0.08467137
16	0xbd1fcc0c	-0.039012954
17	0xbe3e3e6f	-0.18578504
18	0xbd47a15f	-0.04873788
19	0xbd68536f	-0.056720193
20	0x3eb315ba	0.34977514
21	0xbddc64db	-0.10761424
22	0x3e8d6824	0.27618515
23	0x3d64d1c0	0.055864096
24	0xbdfc2b3d	-0.123129345
25	0xbe1d9a35	-0.15390857
26	0x3de498bc	0.11161944
27	0x3e179f48	0.14806855
28	0xbe85702a	-0.26062137
29	0x3e7accc7	0.24492179
30	0xbe93caf6	-0.28865784
31	0x3e0aad2d	0.13542624
32	0xbda2af66	-0.07943611
33	0x3e93d385	0.28872314
34	0xbe5b2008	-0.21398938
35	0x3d100cb6	0.035168372
36	0xbe43f0aa	-0.19134775
37	0xbe4f9f33	-0.20275573
38	0x3d8d80aa	0.06909306
39	0xbd3202f1	-0.043459836
40	0x3e8552ab	0.26039633
41	0x3e7f06ed	0.24904986
42	0xbd1dec13	-0.038555216
43	0x3e39b973	0.1813715
44	0x3e50980d	0.20370503
45	0xbe34b805	-0.17648323
46	0x3e72bcf4	0.23704892
47	0xbdf14fbf	-0.117827885
48	0x3e76f939	0.24118508
49	0x3e0b7dce	0.1362221
50	0x3e189ade	0.14902827
51	0xbd9670fc	-0.07345769

bias_hh_l0_reverse f4 [52]
0	0x3d921b42	0.07134105
1	0xbc3d180c	-0.011541378
2	0xbe3e7818	-0.186005
3	0x3cf29aa9	0.029614763
4	0x3e8f8806	0.28033465
5	0xbe93b4f8	-0.28849006
6	0x3e1da2e2	0.15394166
7	0x3e9fbb4a	0.31197578
8	0x3e72d019	0.23712195
9	0xbdda08a7	-0.106461816
10	0x3ddcaa94	0.10774723
11	0x3e9814e3	0.29703435
12	0xbe101998	-0.14072263
13	0xbe1cf7d7	-0.15328918
14	0x3dc68009	0.096923895
15	0x3e1a70a2	0.15082029
16	0x3e824cc0	0.2544918
17	0x3e339269	0.1753632
18	0x3c9a1b1a	0.018811751
19	0x3e8e6ef4	0.27819026
20	0x3dd532fd	0.10410116
21	0xbe011f54	-0.12609607
22	0x3c8ff5ae	0.017573204
23	0x3e1b4006	0.15161142
24	0xbd907955	-0.07054392
25	0xbd80ee7c	-0.06295487
26	0xbe6925c6	-0.22768316
27	0x3d48c66f	0.049017366
28	0xbe767d08	-0.24071133
29	0x3c50260e	0.012704385
30	0xbe861d52	-0.26194245
31	0x3e0db989	0.13840307
32	0xbe95d11c	-0.292611
33	0x3daf5c2d	0.08562503
34	0xbe8ffa1c	-0.28120506
35	0xbe91d160	-0.28480053
36	0xbe99bb11	-0.30025533
37	0x3e729e69	0.23693241
38	0x3d81d296	0.06338994
39	0xbe168ab7	-0.14701353
40	0x3e54c715	0.20779069
41	0x3e57e3dd	0.21083017
42	0x3c44a0d5	0.012001236
43	0x3e488e1f	0.19585465
44	0x3e55e42b	0.2088782
45	0xbbdee1b6	-0.006801809
46	0x3bf8d9db	0.00759433
47	0x3e6c2aad	0.23063155
48	0xbccf6db8	-0.025320873
49	0xbd978ab4	-0.073995024
50	0x3e81c4ff	0.2534561
51	0x3d0f5cc8	0.035000592

weight f4 [16, 260]
0	0xbd689de6	-0.05679121
1	0x3d949c2d	0.07256351
2	0xbd4a99a8	-0.049462944
3	0x3c935e8e	0.017989423
4	0x3cac2da0	0.02101785
5	0xbe228d3b	-0.15874188
6	0xbbb761f3	-0.0055963933
7	0xbd1ae58e	-0.037816577
8	0xbd08b698	-0.03337726
9	0x3d00de0e	0.031461768
10	0x3dc6004c	0.096680254
11	0x3d820045	0.06347708
12	0x3ca0dbd9	0.019636082
13	0xbe1fe691	-0.15615298
14	0x3d84cfa2	0.06484915
15	0xbe48fd2f	-0.19627832
16	0xbd686fbf	-0.056747194
17	0xbd752480	-0.059849262
18	0xbdcc72c0	-0.09982824
19	0xbd99a5f4	-0.07502356
20	0xbc8a64bc	-0.016893737
21	0xbda7593a	-0.081713155
22	0xbd3ece0b	-0.046583217
23	0x3db08acd	0.08620224
24	0x3ca35b7d	0.019941086
25	0x3decd28f	0.11563598
26	0xbccc257a	-0.024920214
27	0x3db65f5b	0.08904906
28	0x3b9ada9e	0.004725768
29	0x3d4ab932	0.049493022
30	0x3e607cb7	0.21922575
31	0x3d4a7336	0.04942628
32	0xbda49656	-0.08036487
33	0xbd4186f1	-0.04724783
34	0xbd62a04a	-0.055328645
35	0x3c197dbd	0.009368357
36	0xbd04c990	-0.032418787
37	0x3d00af18	0.031416982
38	0x3b9031af	0.004400454
39	0xbe365b66	-0.17808303
40	0xbd289547	-0.041157987
41	0xbe01d4a2	-0.12678769
42	0x3b1595c9	0.0022824875
43	0x3e4bc40f	0.19899009
44	0x3daf77a2	0.0856774
45	0x3d2d4438	0.042301387
46	0x3d722fb9	0.059127543
47	0xbd40eaa1	-0.04709876
48	0x3c00e82b	0.007867853
49	0xbd4bc476	-0.049747907
50	0x3e2e4f3e	0.17022416
51	0xbceb02f2	-0.028687928
52	0xbca6afa2	-0.02034742
53	0x3ddf3f59	0.109007545
54	0xbd51985b	-0.051170688
55	0x3c5dbd21	0.013533861
56	0xbe130f87	-0.14361392
57	0x3cc0d162	0.023537342
58	0xbd8b91db	-0.06814929
59	0x3c19f2d0	0.00939627
60	0x3e28e991	0.16495349
61	0x3df46a74	0.11934367
62	0x3d70343e	0.058643572
63	0x3d8e8e47	0.06960731
64	0xbd38a243	-0.04507662
65	0xbd78731e	-0.06065666
66	0xbe44c60c	-0.19216174
67	0xbdee1c69	-0.116265126
68	0x3d911ac8	0.07085186
69	0xbdbf693f	-0.09346246
70	0x3e00eab6	0.12589535
71	0xbc120677	-0.008912674
72	0xbd6bd4fc	-0.057576165
73	0xbd26aa60	-0.040689826
74	0xbe767503	-0.24068074
75	0x3c392d82	0.011302354
76	0x3bd2d6f1	0.0064343144
77	0xbd2b20c2	-0.041779287
78	0x3c621679	0.013799303
79	0xbe2bb7de	-0.16769359
80	0x3dc4ada3	0.09603431
81	0xbe326b0d	-0.17423649
82	0x3d5b3b25	0.0535232
83	0x3d9672cb	0.07346114
84	0xbe24b9fa	-0.1608657
85	0x3c1698aa	0.009191671
86	0x3d2b181a	0.041771032
87	0x3da95acc	0.08269271
88	0x3da55248	0.080723345
89	0x3e705b8e	0.23472425
90	0x3d374762	0.04474581
91	0xbd2ddbba	-0.042445876
92	0x3da6e0be	0.08148335
93	0xbb9b0868	-0.0047312267
94	0x3d98783b	0.07444807
95	0xbdd90ac7	-0.10597759
96	0xbe018990	-0.12650132
97	0xbde1e18f	-0.1102935
98	0x3daec52c	0.08533701
99	0xbd2a8ac4	-0.041636243
100	0x3cad7efa	0.021178711
101	0xbe1a44b3	-0.15065269
102	0x3df27cc1	0.11840201
103	0x3dec048e	0.11524306
104	0x3d0d8fa9	0.034560833
105	0xbd367131	-0.04454154
106	0xbd09a170	-0.033601224
107	0xbdd147c7	-0.102187686
108	0xbd9de049	-0.077087946
109	0x3dfe8cf5	0.12429229
110	0xbdbc04a3	-0.09180572
111	0x3dc3f54b	0.0956827
112	0x3db7300e	0.089447126
113	0xbdca08c7	-0.098649554
114	0x3d96252f	0.07331311
115	0xbe0727a4	-0.13198715
116	0x3d8e3c77	0.069451265
117	0x3c675ad0	0.0141207725
118	0xbdf6c272	-0.12048806
119	0xbd5b5d25	-0.053555626
120	0xbd51fbff	-0.051265713
121	0xbe1383de	-0.14405772
122	0xbc9badce	-0.019003775
123	0xbccdc377	-0.025117619
124	0x3e2fa100	0.1715126
125	0x3dd285bb	0.10279413
126	0xbd2626d6	-0.04056438
127	0xbc02f706	-0.007993465
128	0x3e681e66	0.22667846
129	0xbd03ca1d	-0.032175172
130	0x3dd0cfb0	0.10195863
131	0x3b3d22ae	0.0028859782
132	0xbdb28116	-0.087160274
133	0xbe82b20f	-0.25526473
134	0xbdbb9561	-0.09159351
135	0xbdbc8c65	-0.09206466
136	0xbd2fd02d	-0.04292314
137	0xbded5f16	-0.11590402
138	0xbd516e69	-0.051130686
139	0x3d7d106f	0.06178325
140	0x3c898390	0.016786367
141	0xbd6cceaa	-0.057814278
142	0xbcc11f7e	-0.023574587
143	0xbdba27c8	-0.09089619
144	0xbd93dcfc	-0.07219884
145	0x3e392215	0.18079408
146	0x3dcee8b2	0.10102977
147	0xbe390a69	-0.18070377
148	0xbda6248a	-0.08112438
149	0x3d2427be	0.040076964
150	0x3a0f3818	0.0005463376
151	0xbdd3cd16	-0.103418514
152	0x3d90becc	0.070676416
153	0xbde03b14	-0.10948768
154	0x3db9c5b2	0.090709105
155	0x3d547818	0.051872343
156	0xbe277258	-0.16352212
157	0xbdd9e620	-0.10639596
158	0x3e1b82b4	0.15186578
159	0x3e45015b	0.19238798
160	0x3da40e51	0.08010543
161	0xbd9afd78	-0.075678766
162	0xbe00ee1e	-0.12590834
163	0xbde8c0f6	-0.113649294
164	0xbd38317f	-0.04496908
165	0x3e25d488	0.16194355
166	0x3e417e5d	0.1889586
167	0x3d78cd76	0.060742818
168	0x3da3161e	0.07963203
169	0xbdca912f	-0.09890973
170	0xbd4ca054	-0.04995759
171	0xbe0227e5	-0.12710531
172	0x3dcfac59	0.101402946
173	0xbe22884e	-0.15872309
174	0x3d2d50b5	0.042313296
175	0xbdf0b654	-0.11753526
176	0xbdf46c8e	-0.11934768
177	0xbda62dd5	-0.081142105
178	0x3d1e55dc	0.0386561
179	0xbd023464	-0.031788245
180	0x3dca8af6	0.09889786
181	0x3d0bf982	0.034173496
182	0xbbb4049b	-0.005493713
183	0xbe3eea83	-0.18644147
184	0x3db16a2f	0.08662831
185	0xbdcf2269	-0.10113985
186	0x3d7df3a9	0.06199995
187	0xbdc96238	-0.09833187
188	0xbd3b37b9	-0.04570744
189	0xbe318e27	-0.17339383
190	0x3c4d3588	0.01252497
191	0xbe226b68	-0.15861285
192	0x3d849c14	0.06475082
193	0xbded87df	-0.11598181
194	0x3dc4068b	0.095715605
195	0x3dbbdb19	0.09172649
196	0x3d84f912	0.06492819
197	0xbccd154c	-0.02503457
198	0x3cbd3525	0.02309663
199	0xbcd05abc	-0.02543389
200	0x3d90b95e	0.07066606
201	0xbdb63bf4	-0.08898154
202	0x3d570192	0.052491732
203	0xbddb6202	-0.10712053
204	0xbcb2c4fa	-0.021822441
205	0xbdba1219	-0.09085483
206	0xbc1f7cf0	-0.009734377
207	0xbd9e681d	-0.07734702
208	0xbda548c3	-0.08070519
209	0xbe53e945	-0.20694454
210	0xbe1edfd7	-0.15515076
211	0xbdf3d2b0	-0.1190542
212	0x3be22c8b	0.0069022826
213	0xbe1adb86	-0.15122804
214	0xbdb8b847	-0.09019523
215	0xbd4fdfaa	-0.050750412
216	0x3df4f238	0.11960262
217	0xbd2a5fe5	-0.04159536
218	0xbba97a91	-0.0051720818
219	0x3e1f3816	0.15548739
220	0xbcb183a7	-0.021669222
221	0x3c601267	0.013676262
222	0xbd3165db	-0.043310028
223	0x3e3df131	0.18549038
224	0x3d014f45	0.031569738
225	0x3dda2a7c	0.106526345
226	0x3cfe4f13	0.031043565
227	0x3d8550a4	0.065095216
228	0x3d7416fe	0.05959224
229	0xbda87b35	-0.08226625
230	0xbd1510a1	-0.03639281
231	0x3c0d1cb7	0.008612803
232	0x3d311259	0.04323039
233	0x3d90d04a	0.07070978
234	0x3d8ce56d	0.06879697
235	0xbd633d4c	-0.05547838
236	0x3dacd34d	0.0843874
237	0x3ccf8881	0.025333645
238	0xbd8deb87	-0.06929689
239	0xbccafada	-0.024777818
240	0xbdbf6e6e	-0.09347235
241	0xbc59cc0c	-0.0132932775
242	0x3ac8b8bd	0.0015313845
243	0xbbce1663	-0.00628929
244	0x3d58afe5	0.05290212
245	0x3dbfbcf1	0.093622096
246	0xbde05e6b	-0.10955509
247	0xbdaf7af9	-0.08568377
248	0xbd254010	-0.040344298
249	0xbc7dcaec	-0.015490275
250	0x3db598af	0.08867013
251	0x3d9e84e4	0.077401906
252	0xbcaa8217	-0.020813985
253	0xbd0a7020	-0.033798337
254	0x3db6b161	0.08920551
255	0xbc9c0f2c	-0.019050203

bias f4 [16]
0	0x3d13f8ec	0.036126062
1	0xbcd84294	-0.026398934
2	0x3d4a735f	0.049426433
3	0xbc40d9cf	-0.01177068
4	0x3da9c665	0.08289794
5	0x3d924da0	0.07143712
6	0x3b745a1d	0.0037285157
7	0xbd144232	-0.03619594
8	0x3c0fa2da	0.008766854
9	0xbbdbd88d	-0.0067091645
10	0x3daca3ba	0.08429666
11	0x3d4dca42	0.050241716
12	0x3c1438b7	0.009046725
13	0xbab14015	-0.0013523126
14	0x3c8a72e9	0.016900497
15	0x3d994aad	0.074849464

weight f4 [19, 16]
0	0x3ed5be92	0.41746956
1	0xbe6bb012	-0.23016384
2	0x3ec11b11	0.37715963
3	0xbe430e00	-0.1904831
4	0xbebf73d0	-0.37393045
5	0xbdeb75cb	-0.114970766
6	0x3d8b29ea	0.06795104
7	0x3ed6b679	0.4193609
8	0x3e41f27b	0.18940155
9	0x3edd7806	0.43255633
10	0x3e029169	0.12750782
11	0xbdcf56c8	-0.10123974
12	0x3e10fe45	0.14159496
13	0xbb604bd0	-0.0034224875
14	0x3eacb6e0	0.33733273
15	0x3db0334a	0.086035326
16	0x3d90a798	0.07063216
17	0xbe0c3269	-0.13691105
18	0x3e6074ca	0.21919551
19	0xbdbaf030	-0.091278434
20	0xbed15319	-0.4088371
21	0x3e5d717e	0.21625325
22	0x3b884f6f	0.00415986
23	0x3e8af850	0.27142572
24	0xbebf1a25	-0.37324634
25	0xbd347130	-0.044053257
26	0x3e3bcc1d	0.18339582
27	0xbcfc1b76	-0.030774813
28	0xbcc249f3	-0.023716902
29	0x3e04558f	0.12923263
30	0x3d4ce4a1	0.050022725
31	0xbe485ee4	-0.19567448
32	0x3dad643e	0.08466385
33	0xbc9e7957	-0.019344969
34	0x3ea47ec7	0.32127973
35	0xbe6045f5	-0.21901686
36	0xbe1b90b2	-0.15191916
37	0x3d77ffda	0.060546733
38	0x3e480e84	0.19536787
39	0x3d9fea40	0.078083515
40	0xbd54fbd4	-0.051997975
41	0x3c820ca2	0.015875164
42	0xbdaee49d	-0.08539698
43	0x3e6a4952	0.22879532
44	0x3cd9da66	0.026593398
45	0x3ca2f024	0.019889899
46	0xbde86c9a	-0.11348839
47	0x3ce2eccd	0.027700806
48	0xbca821e3	-0.020523971
49	0x3e34d88a	0.17660728
50	0x3e52ff55	0.20605214
51	0xbe43ffa0	-0.19140482
52	0xbea5d172	-0.32386357
53	0x3e96bc4d	0.29440537
54	0x3e71612c	0.23572224
55	0xbe8e03ff	-0.27737424
56	0xbe88575e	-0.26629156
57	0xbdab5565	-0.08365897
58	0x3e5a87f2	0.21340922
59	0x3e0e8c28	0.13920653
60	0xbe891409	-0.26773098
61	0x3f1e1dbd	0.61764127
62	0xbd331240	-0.043718576
63	0xbea81732	-0.32830197
64	0x3d8e42ce	0.06946336
65	0xbd50a251	-0.050936047
66	0xbdbb281c	-0.0913851
67	0x3e126fde	0.14300486
68	0x3b2ec926	0.0026670187
69	0xbd38d107	-0.04512122
70	0x3e99edd3	0.30064258
71	0x3e80696a	0.25080425
72	0x3e7f3256	0.24921545
73	0x3ea453e2	0.32095248
74	0xbd49fd85	-0.04931404
75	0x3ced31ab	0.028954348
76	0x3e0c082a	0.1367499
77	0xbcc26a0a	-0.023732204
78	0xbe8025ba	-0.25028783
79	0xbd26fe4b	-0.040769856
80	0xba0d7db4	-0.00053974544
81	0x3e0b689c	0.13614124
82	0xbd5793db	-0.05263124
83	0xbe151650	-0.14559293
84	0xbd85eafc	-0.0653896
85	0x3bedc86c	0.007256558
86	0x3dd8fff9	0.10595698
87	0x3ed9b5f4	0.42521632
88	0xbb40e511	-0.002943341
89	0x3dff5abf	0.1246848
90	0x3e232dcc	0.15935439
91	0xbdc8f3a2	-0.09812094
92	0xbcb06e25	-0.021536896
93	0xbdf8e592	-0.12153162
94	0x3eb0c2d2	0.34523636
95	0xbdc2639a	-0.09491654
96	0xbd5045f8	-0.050847977
97	0xbe06ee84	-0.13176924
98	0x3c7a641d	0.015282658
99	0x3e886a4c	0.26643598
100	0xbdafac0b	-0.085777365
101	0x3de8369f	0.11338543
102	0x3e841049	0.25793675
103	0x3d6492e1	0.055804137
104	0x3ddd1829	0.10795624
105	0xbeb8cc2a	-0.36093265
106	0xbf0c1463	-0.5471861
107	0x3e508aed	0.20365496
108	0x3e48b51d	0.19600339
109	0xbe7a5eaf	-0.24450181
110	0xbdd5c32c	-0.10437617
111	0x3e978cf3	0.29599723
112	0x3dc93fd4	0.098266274
113	0x3e272980	0.16324425
114	0x3ea298a7	0.3175709
115	0xbe57774d	-0.21041603
116	0xbe01741d	-0.1264195
117	0x3d43120a	0.047624625
118	0x3e8129e6	0.25227278
119	0x3e441f68	0.19152606
120	0x3e67beb8	0.22631347
121	0xbd902902	-0.070390716
122	0xbcd495e6	-0.025950383
123	0x3d5ab56b	0.05339567
124	0xbc8572a9	-0.016290026
125	0xbaead95f	-0.0017917565
126	0x3df30169	0.11865503
127	0x3d0fe7a6	0.035133027
128	0xbcdda347	-0.027055396
129	0x3e678f37	0.22613226
130	0x3db01352	0.08597435
131	0xbe6f6ba1	-0.23380901
132	0x3db401cc	0.08789405
133	0x3c7dcd7e	0.015490888
134	0x3e1ab853	0.15109377
135	0xbdb22fe2	-0.08700539
136	0xbbfe0ed9	-0.007753235
137	0x3ebd7d23	0.37009534
138	0x3d576f37	0.052596297
139	0xbd8535fe	-0.06504439
140	0xbe1f6843	-0.15567116
141	0x3c0ebb5e	0.008711664
142	0x3e76e43d	0.24110503
143	0x3e04e1d2	0.12976769
144	0xbd91858d	-0.07105551
145	0x3e64a824	0.22329766
146	0x3e6669e6	0.22501335
147	0xbe5fef1f	-0.21868561
148	0x3e802670	0.25029325
149	0xbd295542	-0.041341074
150	0xbdea90a1	-0.11453367
151	0x3e419f04	0.18908316
152	0x3e129dc0	0.1431799
153	0xbdb1b502	-0.086771026
154	0xbe8dcd75	-0.27695814
155	0x3e410efb	0.18853371
156	0xbe1e6271	-0.1546724
157	0x3d90527e	0.07046984
158	0xbd158ada	-0.036509372
159	0x3ea31640	0.31852913
160	0x3d05f0b8	0.03270027
161	0x3ec945a1	0.39310935
162	0x3d7d570b	0.06185059
163	0xbd281568	-0.04103604
164	0x3cde4c66	0.027136039
165	0xbda3b15c	-0.07992813
166	0xbb86da24	-0.00411536
167	0xbddb6ee3	-0.10714509
168	0xbd9503dc	-0.07276127
169	0x3e89a2ec	0.26882112
170	0xbc1da7ed	-0.009622556
171	0x3d4acb1f	0.049510118
172	0x3db79944	0.0896478
173	0xbd832334	-0.06403199
174	0xbd7af800	-0.061271667
175	0x3db46093	0.088074826
176	0xbdd1bf81	-0.102416046
177	0x3d932c68	0.07186204
178	0xbcd1c5b8	-0.025606975
179	0xbe2bb9e7	-0.16770135
180	0x3bd4c3c1	0.0064930622
181	0x3e512841	0.20425512
182	0xbe5e90d7	-0.2173494
183	0x3df3b137	0.118990354
184	0xbe14b8a3	-0.14523558
185	0xbd811a8b	-0.06303891
186	0x3e34faf2	0.17673853
187	0xbe5a0d2b	-0.21294086
188	0xbec9315b	-0.39295468
189	0xbd51d836	-0.051231585
190	0x3ea26426	0.31717032
191	0x3c57f761	0.013181538
192	0x3c13c68e	0.009019507
193	0xbe3864ef	-0.18007253
194	0x3dbf3277	0.09335797
195	0x3e160fa8	0.1465441
196	0xbe8e555c	-0.277995
197	0x3e05f666	0.13082275
198	0x3cb952e8	0.02262254
199	0x3e980bc5	0.2969648
200	0x3d702176	0.05862566
201	0x3eb167e3	0.34649572
202	0x3e264e52	0.16240814
203	0xbbf51e02	-0.007480384
204	0xbd8859d9	-0.06657762
205	0xbdbc6a20	-0.09199929
206	0xbd65bba1	-0.05608714
207	0xbe99ecb9	-0.30063418
208	0x3c883fee	0.016632047
209	0xbee8a277	-0.4543645
210	0xbe386181	-0.18005945
211	0x3f1c8323	0.611376
212	0xbdef4309	-0.11682708
213	0x3d2b997a	0.041894414
214	0x3eb73cbd	0.35788527
215	0xbd600f12	-0.054701872
216	0x3e6548d0	0.22391057
217	0xbe1d0e76	-0.15337548
218	0x3e3c823b	0.18409054
219	0xbedfa641	-0.4368153
220	0x3c99bbfe	0.0187664
221	0x3db01659	0.085980125
222	0xbe230f2e	-0.1592376
223	0xbe017d46	-0.12645444
224	0x3e4494ba	0.1919736
225	0xbe7051ac	-0.23468655
226	0xbc5338f6	-0.0128919985
227	0xbe6eda19	-0.23325385
228	0xbdbea5a3	-0.093089364
229	0xbdd5f02a	-0.10446198
230	0x3e8bb2c5	0.27284828
231	0xbdd6c7d6	-0.104873344
232	0xbe99a735	-0.3001038
233	0x3ea00006	0.31250018
234	0xbcf160b0	-0.02946505
235	0x3e3e333f	0.18574236
236	0x3e96a5ff	0.2942352
237	0xbe00bc28	-0.12571776
238	0x3d76f03b	0.060287695
239	0xbe215d6f	-0.15758298
240	0x3dcca63c	0.09992644
241	0xbec4c72b	-0.38433203
242	0x3dc0d7f0	0.09416187
243	0x3cfb3a66	0.030667495
244	0xbe3824d3	-0.17982797
245	0x3d86d533	0.06583633
246	0xbe31ab6a	-0.17350546
247	0xbe885f00	-0.2663498
248	0xbe0af9f9	-0.1357192
249	0xbe2ca2d1	-0.16858985
250	0x3d485861	0.04891241
251	0x3cf8c6b3	0.030368185
252	0x3d4477ff	0.047966
253	0x3e332cea	0.17497602
254	0xbe42124f	-0.18952297
255	0xbe1cb625	-0.15303858

bias f4 [19]
0	0xbb337f95	-0.0027389277
1	0xbb94b8f8	-0.0045386516
2	0xbda33262	-0.07968594
3	0xbdd3c84f	-0.1034094
4	0x3dfa6ab9	0.12227387
5	0x3c2eac0f	0.010661139
6	0x3e6aa986	0.2291623
7	0xbd7c7f67	-0.061644938
8	0xbe015991	-0.12631823
9	0xbd8c00f3	-0.068361185
10	0xbdef5778	-0.11686605
11	0xbde0be59	-0.10973806
12	0x3d32c410	0.04364401
13	0x3e689c68	0.22715914
14	0xbb9ef637	-0.0048511284
15	0x3db7da58	0.08977193
16	0x3d5cbf9c	0.05389367
17	0xbda45cdd	-0.08025525
18	0x3d2afa97	0.041742887
