models/a20lds20b0.007g0.01d1h13.pt (torch, 130995 bytes, 26 tensors)

weight_ih_l0 f4 [52, 4]
00000000: 5538 bd3e ced4 8e3e 35e2 973d fdf4 13bd
00000010: 6707 2dbe 5b81 543e 795c 7e3d 6fae 193e
00000020: e04d 003f 55ea 8ebe e697 d93d e8e8 9d3e
00000030: 486e 663f 6dab 32bf 40d9 fdbe 5deb 0f3f
00000040: 10c1 e63e ed99 203e 192d 853d 5e53 573d
00000050: 22c2 403e 2bce 83be 6c7d 563e 1b2b d33d
00000060: 5ab1 acbe 2738 a73d 5e0e 27be 2daf 6dbe
00000070: 8651 82be e290 3e3e 4006 11be 31a4 373e
00000080: 7b59 373e 147c 5dbd 033b 273e 2b41 903b
00000090: c733 b63e 1060 1d3d f23a 31bb 3b63 bc3a
000000a0: 987e 723e 4878 9dbe a51b 0f3f ff31 263e
000000b0: edd3 be3e 4e0f 553d 8a87 eb3d 910e 253f
000000c0: 951a 763e c129 b03d b663 163f bd98 b63d
000000d0: 5dcd 203d 795e 783e e2c3 8dbe ca49 29be
000000e0: 1a90 ff3d c9b6 2ebf e3e3 f43e 15ac b5bc
000000f0: 213c 20be 3e90 b1bd 68ef 143e ed5d 653e
00000100: 6e30 333f 5179 6fbe c5ab 133f 8b2c 99be
00000110: 0be6 d63e f8d1 c8bd 5f10 a43d e2f3 f73e
00000120: 50ca 27be 7a9f a43e b773 53be 2f06 4cbd
00000130: c431 ad3e d76a c93d 533f a53d d474 59be
00000140: 3826 013e b95f 073e 5998 873e e903 94be
00000150: 947f 263e f09a 07be f657 753f f65a 65be
00000160: fd66 9fbc 25f2 96be f68a e4ba ee64 123d
00000170: 4520 afbe efbc 913d b493 d83e 5a89 22be
00000180: e5d2 10bd d4b4 993e d220 e13d 7c80 3cbc
00000190: defd 273e a942 713e fbc4 133e cd46 02be
000001a0: 28c3 d5ba fa35 30bf 604c ce3e 1db1 e2be
000001b0: f362 013d 5844 23bf 875a 8e3e dfd4 4f3d
000001c0: bd79 e4be bae9 833e 7ea7 c83e 7788 e23e
000001d0: 754f 8dbc d7bf 0bbe 3427 15be 1f35 c03e
000001e0: 95ff af3d 14db 443e 6d98 793e 853c 253e
000001f0: f1ed cfbe 6bf8 1dbc 2eab 833e 6da6 0f3f
00000200: 5b66 cbbe 93db 5c3e 2c67 a9be 872c 043e
00000210: cc2a 96bd 3790 59be 1fee f73d d72e 2cbb
00000220: fdec 99be 8347 243d 8ad0 cb3e 7e36 9bbe
00000230: 8283 123f 64ef 7bbe 2631 74be 6f19 b13d
00000240: 3cdc 4abe 8bf8 61be d41b fe3e 2fe9 91bc
00000250: 1d4a 873e 4552 45be 19b5 b3be 18f0 1a3f
00000260: 70ef 913b 0768 dd3d 531b 8bbe 456b 2ebf
00000270: b6e8 153f ecda 8a3e 02cb d13e a625 11be
00000280: 0aea adbe 2ba3 94be fe54 b83e 43e0 143e
00000290: bbfc 313f 6edb fc3e 6e16 c63e 068a 22bf
000002a0: 9224 3a3f 7a86 96bd d914 68be 5773 143f
000002b0: 72c7 303f 3b8d ebbe 32e0 f3be e050 583e
000002c0: 87c7 503e eec0 7e3e 2bcc 31be a14b 1c3e
000002d0: 29e4 203e 34d4 e13e ccb5 963e 1b58 0fbf
000002e0: c5cc 68bf 4c43 2f3e f448 b63e 4992 cabe
000002f0: 88ab 033f cecf 02bf f8a4 e23e d361 573e
00000300: dca1 833e 02fd 04be 9d5e 1bbf ae80 183e
00000310: 3fcf bfbd f61e 2abe a071 083f 9708 babd
00000320: b776 dc3d e425 943e 5686 633e 18ef eebe
00000330: 71c0 933e 76de a0bd 522e 9c3e cf1f ea3c
0.3695704 0.27896732 0.074161924 -0.03612231 -0.16897355 0.2075247 0.062099908 0.15007947
0.5011883 -0.27913156 0.106246755 0.30841756 0.90012026 -0.69792825 -0.4957981 0.5621851
0.4506917 0.15683718 0.06502742 0.05256974 0.18824056 -0.2574323 0.20946282 0.10310956
-0.33729059 0.08165007 -0.16314074 -0.23211356 -0.25452822 0.18609956 -0.1416254 0.17933728
0.17905228 -0.05407341 0.16331105 0.0044023 0.35586378 0.03842169 -0.002704319 0.0014372835
0.23681104 -0.3075583 0.5590156 0.1623001 0.37271062 0.05201655 0.115004614 0.6447535
0.24033578 0.08601714 0.58745897 0.08915851 0.03925835 0.24254788 -0.2768851 -0.16532055
0.12478657 -0.6824766 0.47830114 -0.022176782 -0.15647937 -0.0867009 0.14544451 0.22399111
0.6999577 -0.23386122 0.57683975 -0.29916796 0.41972384 -0.09805673 0.08010935 0.48428255
-0.1638577 0.3215292 -0.2064961 -0.049810585 0.3382703 0.09834831 0.08068719 -0.21235973
0.12612236 0.13220109 0.2648342 -0.28909233 0.16259605 -0.13242698 0.9583734 -0.2239798
-0.019458288 -0.29481617 -0.0017436433 0.035740785 -0.34204307 0.07116114 0.4230019 -0.15872708
-0.035357375 0.30020773 0.10992588 -0.011505242 0.16405436 0.23560585 0.14430611 -0.12722321
-0.0016308771 -0.6883236 0.40292645 -0.44275752 0.031588506 -0.6377616 0.27803442 0.05074012
-0.4462413 0.25764257 0.39190286 0.4424474 -0.017249802 -0.136474 -0.14565736 0.37540528
0.0859367 0.19224197 0.24374552 0.16136368 -0.40611222 -0.009641747 0.25716537 0.5611332
-0.3972653 0.21568136 -0.33086526 0.12907611 -0.073323816 -0.2124642 0.12105965 -0.0026273036
-0.3006362 0.04010726 0.3980754 -0.30315012 0.57231915 -0.24603039 -0.23846874 0.08647429
-0.19810575 -0.22067468 0.49630606 -0.017811386 0.2642373 -0.19269665 -0.35099104 0.60522604
0.004453592 0.10810857 -0.27169284 -0.6813243 0.58558214 0.2712015 0.40975195 -0.14174518
-0.3396762 -0.29030737 0.36002344 0.14538674 0.6952626 0.49386162 0.38688987 -0.6349186
0.7271205 -0.07349868 -0.22664203 0.57988495 0.6905433 -0.46006188 -0.47631985 0.21124601
0.20388614 0.24878284 -0.1736304 0.15263225 0.15712036 0.4410721 0.29435575 -0.55993813
-0.90937454 0.17115515 0.35602534 -0.39564732 0.5143361 -0.51098335 0.44266486 0.2103341
0.25709426 -0.1298714 -0.60691243 0.14892837 -0.09365701 -0.16613373 0.5329838 -0.0908367
0.107648306 0.28935158 0.22219214 -0.4666679 0.2885776 -0.07854931 0.3050409 0.02857962

weight_hh_l0 f4 [52, 13]
00000000: a4a2 993d a56f 22be 8d56 28bf 917d 1fbf
00000010: ec41 a83e c005 d8be 959c bdbe 674d 563e
00000020: c762 45be e002 393f 4304 c8bb aac2 a1be
00000030: de03 b5be 6444 f93d 87c4 c93e 1c1e d5be
00000040: 4bf3 bdbe b722 f03d 68c9 9dbe eb1d a3bd
00000050: 31e5 e43e cebd ac3d 1941 053f 1d05 1dbe
00000060: 1c49 0bbe 4b74 62be 98a3 223e 3670 3b3f
00000070: bf4a a9bd 740a c83e 991e e93e 9921 fabd
00000080: 2f8b 90be 3dcc ca3e c519 f0be 8cdc 373f
00000090: 6119 303d 5e03 27bd 871e d7be b45e 8dbd
000000a0: fab1 9c3e 5cea 59be 0bc9 4bbf 0c36 f83d
000000b0: ad17 4abe ac6d 883d ebd5 07bd c078 493e
000000c0: 2180 69be f696 07be 6f00 033e 97dc 2c3e
000000d0: 084d 883d ccf0 c63e be74 f23e 3b44 40be
000000e0: 3490 a53e d7df 88bd c9cc c0bc 9ba5 6d3e
000000f0: 4e13 633e 32fa 46be bcc4 81bd ab4d dfbd
00000100: d3eb b9be 66b0 9f3e c1a4 573d 51f9 57be
00000110: 393f ef3d d612 6a3e 87a0 f7bd 080f 98bc
00000120: e96f e2bd 6967 85be 9dc8 613c 424e 05be
00000130: 89d6 0dbe 92a5 adbe 17b7 64be f5cf 00bf
00000140: 59ec 663e e70e 32be 928f f43e af73 83be
00000150: 03e8 05bf 4711 be3d 02b5 fbbd 02c7 e63d
00000160: 6802 1a3d 8754 82be f4fd c3bd 8357 cdbb
00000170: f20f 153f e7fe a8bd 21b4 cabd ea29 683e
00000180: 5994 053d 47c5 a0be 5bd9 ba3e fa8f 86bc
00000190: 6072 c83d 1a30 0ebb 8c35 15bc 05d1 b5bd
000001a0: 5066 8a3e 3645 973e 064d 6b3e 6e6b 743d
000001b0: a454 183e 6f59 93bd aae4 5bbe 4aed a63e
000001c0: 498c 033f 050a f4be c909 903e 605b ae3d
000001d0: e8fb 9c3d 35fb e5be 3d45 2abe 46a6 22be
000001e0: 932f 883d 018c 6d3e fd14 8ebe a41a 18bd
000001f0: 5ebe 2e3e 2d24 063f e138 a9be cd09 96bc
00000200: 01fa b3be 7f6c 36bc f915 d4bc 2952 653e
00000210: 8e44 063f dea8 cf3d b65d 013f 730b 8abd
00000220: e91e fcbe 45a3 a33e 8dd5 f7bc 0e93 cf3e
00000230: a98d 2b3e b184 3cbf 4e2a e4be de53 5b3e
00000240: 4a1b 063f a426 0a3e f11e 863d ab5d 253f
00000250: ddee b4bd 6596 10bf 9897 b73e a158 2ebe
00000260: ee7b 533e 0dd6 b73e cb8b 08be c9de 0bbf
00000270: 8f5c 21be 9fbb b8be 1876 7a3e bc30 c13e
00000280: 7f6b e5bc d84b 9bbe a26a 5f3d 45d8 dc3c
00000290: c8a0 8b3d af5f 95bc 2482 b93d f23a dd3d
000002a0: e391 48be d820 893e a3ac d93e b6f9 1ebe
000002b0: abed ebbe e18c 45be 08ca f3bc fd29 0a3e
000002c0: a588 043e 10c5 e2be 7dba f23e 03ea 053d
000002d0: 2029 02bd 33a6 ca3d 4314 bc3d 41ae df3e
000002e0: 09ff 18be 30f3 cfbe 860a 293e 5931 953c
000002f0: d7b9 4ebe fb31 c23e aeed eebd 229b f73e
00000300: 6cbd 903e 15fc 5abd 996d 82be 84cd 473d
00000310: bce5 cc3d 5aa3 4b3e c387 b53d 6e91 493d
00000320: b852 cd3d 288d dabd d641 de3e 7a8e 9cbe
00000330: cdc9 023d 2c6b 053e b0c7 9d3c f2c1 f2be
00000340: d338 febc 2b62 b43d d968 7f3e b49b 1c3e
00000350: 2889 883e c733 9ebe 87ed 4dbe 96bb c83e
00000360: 021f 2fbe a088 d23e 1e23 f63d 9b9d 56bd
00000370: c90b ed3d 904a 2e3d b20a 913e 84d7 803e
00000380: cf82 babe dbfd 383e e229 22be 358c 89be
00000390: f19a 9b3e a604 c1bd a3ac 80be 4214 e43e
000003a0: d2d6 3ebd 71d3 d13d 2674 f9be c3cb bcbe
000003b0: 8ae4 983e 93ca 283e 4b3b 82be 4bfb b5bd
000003c0: 57e6 25bc 020d 97be 48bb 63be 4f77 85be
000003d0: 2854 443d 43df 2e3e 64fe 5cbe 5558 213d
000003e0: 097c 26be 8130 99bc e00f 423e 2bc3 2f3e
000003f0: 293c ad3c 002f 9ebe 2f5f 5cbd 654c afbe
0.07501724 -0.15862902 -0.65757066 -0.62300974 0.32862794 -0.42191887 -0.37033525 0.20927964
-0.19275962 0.7227001 -0.0061040237 -0.3159383 -0.35354513 0.121712476 0.3940775 -0.41624534
-0.3709968 0.11725371 -0.30817723 -0.07964691 0.4470611 0.0843464 0.52052456 -0.15333982
-0.13602108 -0.22114675 0.15882719 0.73218095 -0.0826621 0.39070475 0.45531157 -0.122134395
-0.2823119 0.39608946 -0.4689466 0.718209 0.042992953 -0.040774696 -0.42015478 -0.06902829
0.30604535 -0.21280807 -0.7960364 0.121196836 -0.19735594 0.06661543 -0.033162992 0.19674969
-0.22802784 -0.13241181 0.12793134 0.16881023 0.066553175 0.38855588 0.47354692 -0.18776028
0.3233658 -0.06683319 -0.02353515 0.23207705 0.22175333 -0.1943138 -0.06336352 -0.10903486
-0.36312732 0.3118927 0.052647356 -0.210912 0.11681981 0.22858748 -0.12091165 -0.018561855
-0.110565014 -0.26055458 0.01378074 -0.13018134 -0.1385137 -0.33915383 -0.22335468 -0.5031732
0.22551097 -0.17388497 0.47765785 -0.25674197 -0.52307147 0.09280639 -0.12290384 0.112684265
0.03759995 -0.25455114 -0.09569922 -0.0062665357 0.58227456 -0.08251744 -0.09897638 0.22672239
0.03261218 -0.3140051 0.36493954 -0.016426075 0.0978744 -0.0021696151 -0.009107005 -0.08877758
0.27031183 0.2954499 0.22978601 0.059672765 0.14876038 -0.071947925 -0.21473947 0.32602912
0.51385933 -0.47663894 0.28132465 0.08513522 0.07665235 -0.44918218 -0.16627975 -0.15883741
0.06649699 0.23197939 -0.27750388 -0.03713478 0.17064807 0.5239895 -0.33051208 -0.01831522
-0.35151675 -0.011134266 -0.025889384 0.22394623 0.52448356 0.10139631 0.50533617 -0.06740465
-0.49242333 0.31960502 -0.030253196 0.4054188 0.16753258 -0.7363997 -0.44563526 0.21418712
0.5238539 0.13491303 0.0654887 0.6459605 -0.08834622 -0.56479484 0.35857844 -0.17025997
0.20652744 0.35905495 -0.13334577 -0.5463682 -0.15757965 -0.36080644 0.24459112 0.37732494
-0.02800536 -0.30331302 0.054545052 0.026958594 0.06817776 -0.018234102 0.090580255 0.108022586
-0.19586901 0.2678287 0.42514524 -0.15524945 -0.46079764 -0.19292022 -0.029759422 0.1349258
0.12942751 -0.44290972 0.47407904 0.032693874 -0.0317775 0.09894981 0.09183552 0.43687633
-0.14941038 -0.40615225 0.1650792 0.018212007 -0.2018808 0.37928757 -0.116664276 0.48360544
0.28269517 -0.05346306 -0.2547424 0.04877998 0.10004756 0.19886532 0.08863785 0.04921096
0.10025543 -0.10671455 0.43409604 -0.3057745 0.031930733 0.13029164 0.019260257 -0.47413594
-0.031032955 0.088077866 0.2494234 0.15293771 0.26667142 -0.30898878 -0.2011014 0.39205617
-0.17101672 0.41119862 0.12018417 -0.052396398 0.115745135 0.042551577 0.28328472 0.25164425
-0.36427924 0.18065588 -0.1583629 -0.26864782 0.30391648 -0.09424715 -0.2513171 0.44546705
-0.046591587 0.102454074 -0.48721427 -0.36874208 0.2986186 0.16483526 -0.25435862 -0.08885821
-0.010125718 -0.29502112 -0.22239411 -0.26067588 0.04793182 0.17077355 -0.21581417 0.03939088
-0.16258253 -0.018699886 0.18951368 0.17164294 0.02114685 -0.30895233 -0.05380171 -0.34237972

bias_ih_l0 f4 [52]
00000000: 37ef 8a3e 0f93 ef3e 7e9c 8a3e 50d2 c23d
00000010: 6e09 2b3e c967 cc3e 2eb6 c33d 06de 6f3c
00000020: 25c1 bf3e 6398 af3e 9cdd d53d 97fe d33e
00000030: 3ad8 ccbd 2107 45bd ce33 a43e 68ee 90bd
00000040: e04b c0bc cb86 5c3e 59eb 5fbe 246d a43e
00000050: 5ea4 bc3e 97f1 4e3e 59f0 aa3d 999c 8abe
00000060: 387b 873e b6b2 0bbe 5781 4ebd aad4 153d
00000070: 0495 403e 0d2b 833e fcff 3e3e 68fb 95be
00000080: e1b3 6bbe 8312 163e c5f3 96bd d96e a13d
00000090: e00e b4bd 8649 8fbe 2ab7 3cbe 8c78 bd3e
000000a0: 133d 093e 7bab 59bc 8106 c53e 86a8 4e3e
000000b0: 5e28 bd3e a16e 8fbd e2ff 823e 7957 223d
000000c0: edf0 603e fe26 1f3e 692b d6bd 0466 ba3e
0.2713563 0.46791884 0.2707252 0.0951277 0.16702816 0.39922932 0.095562324 0.014640337
0.37452045 0.3429595 0.10442659 0.41405174 -0.100021794 -0.0481025 0.32070774 -0.070767224
-0.02347368 0.21535794 -0.21867122 0.32114518 0.36844152 0.20209347 0.08346624 -0.270726
0.26461196 -0.13642392 -0.050416317 0.036579765 0.18806845 0.25618783 0.18652338 -0.2929337
-0.23017837 0.14655499 -0.07370714 0.07882471 -0.087919 -0.2798578 -0.18429247 0.37006032
0.13402204 -0.013285513 0.38481525 0.20181474 0.3694486 -0.07003523 0.25585848 0.0396342
0.21966906 0.15542218 -0.104574986 0.36405957

bias_hh_l0 f4 [52]
00000000: 72cd 543e 9d85 9b3e 2fda 3b3e 0afd 1a3e
00000010: a69d 583e f750 abbc 2264 6c3e e840 743e
00000020: 1de1 a43e f77f d13e e7d9 bc3e af4b debd
00000030: 091f 513e 7575 d43c 5a91 583d e51f 143e
00000040: 1527 823e 0308 483e e39f 593e 9c13 303e
00000050: 9d1d 3cbd e1a3 8d3b a7a3 6fbe 2107 323e
00000060: 9107 11be a1f1 e4b9 5db6 893d 4c31 8bbc
00000070: 8264 cebd 7b8e 40be cd5e 883e 7b9d 73bd
00000080: 141d 87be b93f ca3d dd2c d6bd 6363 583d
00000090: 76ed 623e e35f 44bd 024b aebd 0af6 f73e
000000a0: f56b b33e f3b9 d13e bbee 663e 8eb7 3bbe
000000b0: e874 183e 9da0 d33d 5ee4 ea3c 11a7 433e
000000c0: 4067 c43c 6027 f93e df2a 58bd 3e67 c03d
0.20781496 0.30375376 0.18344949 0.15135589 0.21153888 -0.02091263 0.23085073 0.23852885
0.32202998 0.40917942 0.36884996 -0.10854279 0.20421995 0.025934914 0.052872993 0.14465292
0.25420442 0.19534306 0.21252398 0.1719498 -0.04592668 0.0043225144 -0.23402272 0.17385532
-0.14163043 -0.00043667576 0.06724236 -0.01699128 -0.10077764 -0.18804352 0.26634827 -0.059476357
-0.26389372 0.098754354 -0.10457776 0.052829158 0.22160897 -0.047943007 -0.085104 0.484299
0.35043302 0.4096218 0.22552006 -0.1833174 0.14888346 0.10333369 0.028673347 0.191067
0.023975015 0.48662853 -0.05277526 0.09394692

weight_ih_l0_reverse f4 [52, 4]
00000000: 4f97 413e ab16 9ebe 7e1c 183e f2b6 553f
00000010: 2732 82bd 0540 2c3e 491b 133e 2125 ea3e
00000020: 4630 c93e b216 343f dc0a a83e 26e2 243e
00000030: 316c 223f a111 983e dd84 b03e 71ac 963e
00000040: 4f59 8d3e a397 603f 2708 55bd 5c7a 1a3f
00000050: 58a8 b23d e1d5 07be 0d70 cebd 4365 cabd
00000060: 2b8a 7fbe 8581 c83e 8b01 64be 791b 473e
00000070: b93b 643d c438 913c 364a 023f dd94 4a3d
00000080: 731c dfbd 1145 223f 21b8 5dbe f7ec 0ebf
00000090: 428a 9abe d92d f5bc 2b34 ac3e 9f29 ec3d
000000a0: 91a9 3fbd 9fa0 a1be 90f4 a53e 134b c13e
000000b0: b186 9a3e a57b 4b3e 2b1c e43d 74d6 063e
000000c0: 4690 533e 62f5 20be b7e5 383f caac a5be
000000d0: 06f2 f0bc 42b2 673d aea6 253c c920 9abf
000000e0: 9ec6 a23e 9828 8a3e 7137 053e 596d ec3d
000000f0: 6da7 13bf 711a 39be 519d 9c3d a183 bebd
00000100: e75d 02be 3f31 0bbe d54c 4e3c c5d2 783e
00000110: 69ff d33e dfb3 dbbd 793d 813e 7b42 a7be
00000120: 3bfa a83b 5040 323c 995e e03e ff87 87bd
00000130: 5291 84be d2af d2bd 3591 cd3e bd0b e23e
00000140: f9dd e63d 455b 2a3f 663f 0bbe 0b21 1b3e
00000150: 2e42 86bb d549 21be e35d 1d3e bbd6 33bf
00000160: c6d2 c5be 1f1c 3f3c 50ea 0f3e 6180 ac3e
00000170: e719 223e bb14 303e 4285 ec3d 0d32 773e
00000180: a3bc 3e3e 9b17 8bbe f9cc 8d3e e249 04bd
00000190: b4ad bc3e bac7 47ba b957 d83e 4d35 0c3f
000001a0: 6e97 4bbe 113e 793e 4d98 dfbe ca96 483f
000001b0: 0c38 20be 0dae 173e c7b2 57bd 9081 273e
000001c0: d7ae 0d3f e404 d3be 3b6a 6dbe 48fc f8bd
000001d0: 965b bdbe dde4 6abe 7e06 b53e d3cd 703e
000001e0: 24f4 43be fb2d 463f fbaf 2dbe e758 01bf
000001f0: 32c6 1a3e 00eb 08be f5c1 04be cb87 afbe
00000200: 9ee5 e1bd f88b 063f 3aa1 e43d 6c4b 3b3e
00000210: 85f6 cfbd bb58 00be 7fed 193f 04de b2be
00000220: 6a3f c3bd 11e3 ef3c bf06 8f3e 9039 50be
00000230: 0dde aa3e 8ec3 a73d 34fd 54be c975 b2bd
00000240: 2996 75be 7c8e 7dbe cff7 f83d 14c4 10be
00000250: 99ef 0f3d f87c 7dbe 2a8b 8f3e 4b06 ad3d
00000260: 48ee d73e 6bce 99bd 9c15 18be 93da 0c3e
00000270: 817a 4e3d 9207 93be 037b 8d3e 1059 ea3e
00000280: dc1f e03e a020 7cbd 65bc 983e 6d7c ebbe
00000290: 175b af3e 9328 963e af1e 943e b67d 12be
000002a0: 64f6 9c3e 865e e83e 195b b63e d227 aabe
000002b0: ee64 863e 11a0 3b3f 196f 4cbe 4bca 993e
000002c0: 5149 ff3e f6ef 833d 396a 123e 8115 12be
000002d0: 5347 02bd e6ae c23d 352d a2bd eddc 053f
000002e0: 140a 2abe 9b0d 433d 70e6 1c3e 5c0b 1d3f
000002f0: 2485 22bd 0714 a53d adc7 9c3e aa5e 99be
00000300: e114 b13e ce27 2cbe 78bd cf3e c029 f83e
00000310: ce22 a93e 663f 343e e618 2abe 7eae 133f
00000320: c8ce d73e 0093 0dbf 05ee 923e 90cd 903d
00000330: 6706 eabb e60c eebe 7fd9 d83e e035 d43d
0.18905376 -0.3087667 0.14854619 0.8348228 -0.06357222 0.16821297 0.14365877 0.45731452
0.39294642 0.7034713 0.32820785 0.16101894 0.63446337 0.2970095 0.34476367 0.29428437
0.276072 0.8773138 -0.052009728 0.60342956 0.08723515 -0.13265182 -0.10079966 -0.098825954
-0.2495505 0.39161316 -0.22266214 0.19444074 0.05572102 0.017727263 0.50894487 0.049458373
-0.10894098 0.63386637 -0.21652271 -0.5583033 -0.30183607 -0.029929088 0.3363355 0.11531376
-0.04679257 -0.31567857 0.3241315 0.3775259 0.30180886 0.19871385 0.11138185 0.13167745
0.20660505 -0.15718606 0.7222552 -0.3235839 -0.02941228 0.056566484 0.01011054 -1.2041255
0.31792158 0.26984096 0.1300943 0.11544294 -0.57677346 -0.18076493 0.07647193 -0.0930245
-0.12731133 -0.13593005 0.01259156 0.24299152 0.414058 -0.10727667 0.25242212 -0.32667908
0.005156783 0.010879591 0.43822172 -0.06617736 -0.2589212 -0.10287441 0.40149847 0.4414958
0.11272807 0.66545516 -0.13598403 0.15149324 -0.0040972447 -0.15750821 0.15367846 -0.7024953
-0.3863737 0.011664419 0.14054227 0.33691695 0.15830193 0.17195408 0.115488544 0.24140187
0.18626647 -0.27166447 0.27695444 -0.032297023 0.36851275 -0.0007621009 0.42254427 0.5476883
-0.19881985 0.24340083 -0.43670884 0.78355086 -0.1564638 0.14812489 -0.05266073 0.16358018
0.5534491 -0.4121467 -0.23185055 -0.12157494 -0.36983937 -0.22938867 0.35356516 0.23516016
-0.19136101 0.7741391 -0.16961662 -0.5052628 0.15114668 -0.13370895 -0.12964614 -0.3428329
-0.11030124 0.52557325 0.11163564 0.1829049 -0.10154442 -0.12533848 0.60128015 -0.3493501
-0.0953358 0.029283078 0.27934834 -0.20334458 0.33372536 0.08191596 -0.20799714 -0.08713872
-0.23983063 -0.24761385 0.12156641 -0.14137298 0.035140608 -0.24754703 0.2803586 0.08448466
0.42173982 -0.07510074 -0.14851993 0.13755254 0.050409798 -0.28716713 0.27632913 0.45771074
0.43774307 -0.06155455 0.29831234 -0.45993367 0.34249184 0.2932783 0.2892966 -0.14305767
0.3065673 0.45384616 0.35616377 -0.33233505 0.26248878 0.73291117 -0.19964255 0.3003715
0.49860623 0.06442253 0.14298333 -0.14266016 -0.0318063 0.095060155 -0.07918779 0.5229023
-0.16605407 0.047620397 0.1532228 0.6134546 -0.039677754 0.080604605 0.3062109 -0.29955035
0.34586242 -0.1681206 0.4057424 0.48469353 0.33034366 0.1760231 -0.1661106 0.5768813
0.4214995 -0.5530243 0.2869722 0.07070458 -0.0071418765 -0.46494216 0.42353436 0.10361838

weight_hh_l0_reverse f4 [52, 13]
00000000: 5dd7 553e e005 083f 73d0 5abf 2e6e 9c3e
00000010: 1ad4 6a3e 1c8c e0be 1e00 b53e a21c 943d
00000020: 2244 553e 1dc7 cebe 637d 0abf 4e07 393f
00000030: 8b88 a13d 3b89 03be e118 2a3e 261f d5be
00000040: a5be 293e 5b51 4f3e c1f9 f1bb 0298 b73d
00000050: fa59 1c3d 22eb 163e c8a6 8e3d 8f0a 86be
00000060: 4651 8c3d 081a 3b3e c71d 37bf d4e9 8a3f
00000070: ed4b d0bd 5a38 9c3e efc6 85bd a588 febe
00000080: f38e 273f 1f2b e0be e2f9 6a3f 86c0 32bf
00000090: ca1f bcbe 2ff8 023f a0e5 8c3d e66f 1bbe
000000a0: 44f2 5dbe 48f3 8bbd 5c33 27be 9882 963e
000000b0: b7c9 bd3d b912 9a3c af31 a7bd 53db 0fbf
000000c0: 5e47 d8bd 21d0 2c3e 2eb1 4dbe 9d26 c63e
000000d0: 7b54 c3bd ce35 e03d d5b6 aebe 5e2c bbbc
000000e0: 8c94 59be fcda 6ebe 61cf 813e b788 8abe
000000f0: 4dbf cabd ccbb 36be a5e7 36be 3fe7 1a3f
00000100: e2c3 083f 4b58 923e 1ec2 06bb a4f1 abbd
00000110: dc86 583e 73ed f03d 7c53 a8bd b545 0c3f
00000120: 98c7 41be e9c7 3f3c 90b6 7e3c 8e4e d33d
00000130: 9577 993e 0992 673e 8fbb 8cbc bf1d 733e
00000140: 5f11 37be 9d8d f43d 67e7 8f3e 7e87 693d
00000150: 5142 10be 5f52 cb3d 6207 2a3e accd 7dbe
00000160: c2b5 6fbe 8cd0 8d3c 0cbd 693d f653 a3be
00000170: a702 003f b5dc 9d3e 0f4a e6be 618f ebbe
00000180: d2a3 2ebf e0f2 fe3e f9d1 23be ac4a c23e
00000190: 2836 8cbd 97d9 16bf 0e5c 2b3f 7e24 ef3e
000001a0: 9c4c 2a3d 47e6 673c 66e0 5e3a 09bd 283e
000001b0: fe79 b6bd d94c 8dbe d9f1 af3d 2a64 0cbe
000001c0: 20b3 033e 9116 efbd da58 673d 271c 43bb
000001d0: 5beb b6be 58e2 cdbe f941 013d 7da9 18be
000001e0: 47e2 f13d 25ed 80bd 19a4 a9be 2ab9 233e
000001f0: c44e 9ebe 85d4 0c3e 0d30 c2be 1aad 203e
00000200: a5d4 1abd e8b9 953d df16 ecbe 03c8 a53e
00000210: 8a16 ad3c d6d5 de3d 8879 bfbe c70c 6ebe
00000220: 97ac 323e d583 3e3e 1980 7e3e 5917 35bf
00000230: 5fad f7bd bc7c 9b3e 4c67 ba3e b543 69bd
00000240: e55f a73d b49d 5ebd 9e92 0a3e b9b2 473e
00000250: a485 0d3d e380 4c3e 5c46 a43c 830c 183e
00000260: 77d3 3bbe aba7 78bd fc2a 213e cf2a 9d3e
00000270: 7405 a63d de08 a53d 115d e0bd 483a 88be
00000280: b9af d53e 9e56 eabd 897f 34be 981c 49bc
00000290: 454d ab3e 84c6 88be 2fb6 acbe 605c b83d
000002a0: 80fd c43e de7b b93e 717f 73be 48dc aebe
000002b0: 5bbc 2fbf 9cb6 603f 7717 b53e 4c35 963d
000002c0: 2447 ba3e 12cf d43e a884 f53e e8a7 4b3d
000002d0: fa67 e2be dc49 a4be 1af6 bf3e 9a64 9dbd
000002e0: c291 adbe 5ae6 463e d797 1dbd cee9 e8bd
000002f0: 674c 3f3d 5f10 f3be 7001 febc 273c 84be
00000300: 5b5e f73d 7bf6 e83e d162 833d 35f5 31be
00000310: 7dff 0dbe b35d b63d b57f 973e d8ce e0bd
00000320: 3767 2ebe 0bd4 043d eef8 453e eede 203f
00000330: 7436 8e3e 3673 123d 3e2e 94be 9dae eebd
00000340: d1ab 32be 8710 fa3e 45d6 423d 4ce6 2f3e
00000350: fd0e b6bc 7d3d 93bc 101c bfbb 5c6a f1bc
00000360: 7bfa aa3e 842c 6e3e 32dc 353e b532 c1bb
00000370: dda0 8bbd c81a 033e cc34 dcbd 870f 783e
00000380: cd43 a83e 618f 08bf 67b3 5b3e 0dca a7be
00000390: 3f2c 483e eb4c 83bb 055c 973e 8327 413e
000003a0: 017e 903e 88f3 a3be d69d 75bd 3b5a 383e
000003b0: 2797 08be 6322 ee3d 69e2 c53d 7eb8 18be
000003c0: 991e fbbc 4d36 533e 7ca1 a63e 8ab7 3bbe
000003d0: ce27 d1be ce47 bc3e 3753 1c3e fa1e 0c3f
000003e0: bf14 a93e e157 f2be 89df 893d 4347 d3bc
000003f0: b51a a6be 389a 9f3d 1736 09be dbaa ac3d
0.20882936 0.53133965 -0.8547432 0.3055281 0.22932473 -0.43856895 0.35351652 0.07232024
0.20826772 -0.40386286 -0.54097575 0.7227677 0.07887372 -0.12845318 0.16611053 -0.41625327
0.16576631 0.20245878 -0.0073845093 0.0896454 0.038171746 0.14738134 0.06965405 -0.2617993
0.06851439 0.18271649 -0.7152981 1.0852609 -0.10170732 0.30511743 -0.06532084 -0.49713627
0.654525 -0.437829 0.9178754 -0.6982502 -0.36743003 0.5115995 0.06879735 -0.15179405
-0.21674448 -0.068335116 -0.16328186 0.2939651 0.0926699 0.018807756 -0.08163773 -0.5619404
-0.10560487 0.1687627 -0.2008712 0.38701335 -0.09537598 0.109477624 -0.34123865 -0.022848304
-0.21248072 -0.23325723 0.2535353 -0.2705743 -0.09899769 -0.17845076 -0.17861803 0.60509104
0.53423893 0.28582987 -0.002056248 -0.08395699 0.21145195 0.1176404 -0.082190484 0.54793864
-0.18923795 0.011705377 0.015546456 0.103177175 0.29974046 0.22614302 -0.017179279 0.23741816
-0.1787772 0.11941073 0.28106233 0.05701398 -0.14087798 0.099278204 0.16604379 -0.24785489
-0.23409179 0.017311357 0.057065055 -0.31899995 0.5000405 0.3083245 -0.44978377 -0.46007827
-0.6821872 0.49794674 -0.15998067 0.37947595 -0.06846267 -0.58925766 0.6693734 0.4670753
0.041576967 0.0141540235 0.0008502066 0.16478361 -0.08909987 -0.27597693 0.08591051 -0.13710085
0.128613 -0.11674226 0.05648122 -0.0029771419 -0.35726437 -0.4021175 0.031557057 -0.14908405
0.11810737 -0.06295232 -0.3313301 0.15988603 -0.30919468 0.13752945 -0.37927285 0.15691033
-0.03780045 0.073108494 -0.461112 0.3237916 0.021128912 0.1088063 -0.37397408 -0.23247062
0.1744865 0.18604977 0.24853553 -0.7073875 -0.12093615 0.30368602 0.36406934 -0.056949336
0.08172587 -0.054349616 0.13532493 0.19501771 0.034551278 0.19971041 0.020053081 0.14848523
-0.18342386 -0.060706776 0.15739053 0.30696723 0.08106509 0.08058332 -0.10955251 -0.26606965
0.41735628 -0.11442302 -0.17626776 -0.012274884 0.3345739 -0.26713955 -0.33732745 0.09001994
0.38474655 0.36227316 -0.23779084 -0.34152436 -0.6864678 0.8777864 0.35369465 0.07334384
0.363824 0.41564232 0.4795277 0.049720675 -0.44219953 -0.320876 0.37492448 -0.07685204
-0.33900267 0.1942381 -0.038474884 -0.1137272 0.046703722 -0.47473428 -0.031006545 -0.25827143
0.12078544 0.4550055 0.06415332 -0.17378695 -0.13866992 0.089045905 0.2958962 -0.10976952
-0.17031561 0.032428782 0.1933324 0.62840164 0.2777592 0.035754405 -0.2894153 -0.116543986
-0.17448355 0.48840734 0.047567625 0.17177695 -0.022223944 -0.017973656 -0.0058322027 -0.029469661
0.33394226 0.23259169 0.17759779 -0.0058959373 -0.068177916 0.12803185 -0.10752258 0.24224673
0.32864228 -0.5334378 0.21455155 -0.3277134 0.19548129 -0.004006972 0.29562393 0.18862729
0.28221133 -0.32021737 -0.059964977 0.1800317 -0.1333891 0.116276525 0.09662325 -0.14914128
-0.030654239 0.20626183 0.32545078 -0.18331733 -0.4085068 0.36773533 0.15266119 0.54734766
0.3302364 -0.4733267 0.06732089 -0.025790816 -0.3244225 0.07793087 -0.1339954 0.084310256

bias_ih_l0_reverse f4 [52]
00000000: d649 f53e 322f 1ebe 0da6 3f3f 818b 0f3f
00000010: b6ce 043f a809 743e 7924 eabd d7a0 033f
00000020: d82e 993e 24c2 5a3c d7ee c03c 5c3e b83d
00000030: afc3 b13e 56ab d3be 9600 27be d5bd 30bc
00000040: 9b63 9f3d 8cc8 a9be 1963 953e a75c 123e
00000050: 3e77 43be ebfd 18be af4e 8c3c 34b0 5d3e
00000060: 389a 0c3e 8e5e b63e abff a3bc 1078 383d
00000070: 4b0f fdbd e7da ce3d 4390 f53d 012a 5bbe
00000080: 7f13 b43e 30b5 ffbd 1b5e 803d 1d20 873d
00000090: 1c69 5ebe b7b6 8f3e 1c30 ccbc d7bf 413f
000000a0: c4c2 323e c37b be3e 8332 733e 24ed a73e
000000b0: 960a 373d e50a b33e 0045 933e 6c29 01be
000000c0: f6bd 353e 0874 7d3e d30c b53e 746b 923e
0.47907895 -0.15447691 0.7486275 0.5607224 0.51877916 0.23831809 -0.11432738 0.514173
0.2991855 0.013351951 0.023551388 0.08996269 0.34719607 -0.41341656 -0.16308817 -0.010787447
0.0778267 -0.33160818 0.29177168 0.14293157 -0.19088456 -0.14940612 0.017127363 0.21649247
0.13730705 0.35619015 -0.020019373 0.045036376 -0.123564325 0.10100346 0.11990406 -0.21402742
0.35171124 -0.12485731 0.06267949 0.06597922 -0.21719784 0.28069088 -0.024925284 0.7568335
0.1745711 0.37203798 0.23749737 0.3279811 0.04468783 0.3496925 0.2876358 -0.12613457
0.17748246 0.24751294 0.35361347 0.28597605

bias_hh_l0_reverse f4 [52]
00000000: 149e 8c3e 408d d3bb cbb4 1d3f 83f1 b63e
00000010: 82f1 173f 001b 433e e5d5 a93e d539 6b3e
00000020: 9ff5 1b3e d404 bd3e 6d54 41bc e4e0 853e
00000030: ede2 153c 9a22 debe a5c9 ac3d 14b6 163c
00000040: 5bb1 d0bd 489f 56be 8be9 4f3d 3b95 883e
00000050: 2ec1 1bbe a137 16be a7da 8c3d b800 65ba
00000060: 4de7 fb3d b0ac 493e 1dd8 65be 1fc7 5d3e
00000070: c573 bb3d 09f1 bdbd 5c5c d6bb 693f 90be
00000080: 51c7 8f3e c64e 363d f23f 0e3e 9cde 87be
00000090: bb71 57bd 7699 953d ea1a ee3d a9b1 1e3f
000000a0: ee9c 5c3e ed96 b53e ef64 d53e c69a e03e
000000b0: 1a31 81bb a9dc 863e 49dd 723e 6dea 8bbd
000000c0: 281b b73e 83ed 2d3e e198 643e 0cd0 ba3e
0.27464354 -0.0064560473 0.61603993 0.35731134 0.59352887 0.19053268 0.33171 0.2297128
0.15230416 0.36917746 -0.011799914 0.2614814 0.009148342 -0.43385774 0.08436898 0.009198684
-0.10190078 -0.20959198 0.050759833 0.26676354 -0.15210411 -0.14669658 0.06877642 -0.0008735764
0.122999765 0.19694781 -0.22445722 0.2165799 0.09152941 -0.092744894 -0.006541772 -0.28173378
0.28081754 0.044508718 0.1389158 -0.26537025 -0.052598696 0.07304661 0.11626227 0.6198984
0.21544239 0.3546671 0.4167857 0.43868083 -0.003942621 0.26340225 0.23717226 -0.068318225
0.35762906 0.16985135 0.22323944 0.36486852

weight f4 [16, 260]
00000000: 74ef 86bd 56c5 96bd ea85 8abc fc24 a93b
00000010: 1618 6d3d e11b 493e 1530 3dbd 6c74 bdbb
00000020: 3b5a 28b9 e1f2 c23d 9094 ab3d 4a32 613e
00000030: ebe6 1dbd 8d08 c03c e79d 223e a1e3 0b3d
00000040: eb06 08be d28c 45bc dd3a 7a3d 6cb2 7fbd
00000050: 4902 5f3d 13d4 cb3d 3d8b a1bc 2987 91bd
00000060: 62d5 c43d 7275 303d 33e8 9d3d 0d8b b0bd
00000070: 013f 5a3d cbcf 473d 5db3 fbbb e720 9c3d
00000080: 017e f2bd 8452 01be a68d ba3d 6e20 9b3d
00000090: 48d6 0f3d 1aa4 5fbd 49e3 023d aa76 a53d
000000a0: 7472 c23b 471e 52bb 3b34 fabd 17e2 d6bc
000000b0: 8dc6 db3d fb13 b63d d518 b7bc 7515 08be
000000c0: 839a 46be 5ee6 d6bd 2eca cbba 2659 c23b
000000d0: 8358 873d 2946 033d bdf3 8d3c 0827 95bd
000000e0: 9ccd 35be 711d ca3d 0358 ad3c 10e1 ddbd
000000f0: db7d b5bc c98d 82bd 90d0 45bd f377 0d3d
00000100: 0d72 be3d e881 a6bd 4e0a 9ebc 9e6b ad3c
00000110: 99eb c93b ad2c 30be 7313 d0bd 7b33 89be
00000120: 0591 a63d a691 2bbe 38b9 85be f501 503d
00000130: 0876 42bd ffb3 803e 99b4 123e 1a75 e73d
00000140: b5ba 8dbd a5e6 05be 223a 2cbd c588 293e
00000150: 45a2 98bc b3cb b53b 4937 a63d a4bf 25be
00000160: da9e 27be 7932 16be 5965 8e3d 001b b3bd
00000170: 0e0f 883d 0473 78bc 1a63 efbd 37d9 99bc
00000180: e603 eb3d 501a 7bbd de19 0abe 4297 cf3d
00000190: 6705 063c 8871 743c f1eb dbbc 57d8 51be
000001a0: f90e db3c 5f44 22bd 4757 bdbd 5b9f b53d
000001b0: a5f8 1c3d c610 8c3d e1b8 ba3d 2b64 e7bd
000001c0: c1ab 903d 18ba 5a3d 085f 78bc 4e68 ce3c
000001d0: 7ae8 c03d 75b9 8dbd 58dd fabd 0a7c 9a3d
000001e0: 82ef 853c 21cb efbc 891f 043e e975 2cbe
000001f0: b154 623c 53c2 3cbd 9133 05be 966a 2cbc
00000200: 9f16 f63c f667 aebd b228 c03b acd9 eabd
00000210: 04c1 20be 1f3e 353d 37e0 cd3c f9b1 0f3e
00000220: d8c7 5d3d 2d9c da3d 3c49 923c a0a2 ae3c
00000230: 9ef6 4ebd 9d96 1d3e 5998 e03c 13da 90bc
00000240: 2895 3cbe 513c 11be 60c2 a63d 3c31 b7bd
00000250: 71d9 703d 8dd5 043d 2f7b a73d cb08 c83d
00000260: e73e 3cbd e476 d6bc 4afd 293e feb2 b73d
00000270: 273f 2f3d 923f 6d3c 5989 493c 2a69 17bd
00000280: e649 8fbc ca45 85bd b9e1 9fbd ef78 213d
00000290: 3842 cf3d 4128 553c c563 06bc 50ed 75bc
000002a0: 093e 413e ddba e93d 784d 88bd fd80 1a3d
000002b0: fb17 ee3c 5c7e 493e 59fc 97bc 4b18 313e
000002c0: b6f5 2a3d 3129 363d fa34 e43d 459e 5b3d
000002d0: a905 d5bd 537c 0fbd 9727 b7bd b85f a23d
000002e0: 0bcb da3c 4caa 00be 8d6c f6bc a654 cdbc
000002f0: dade 00bd 15b4 45bd 3aad 08be b071 96bc
00000300: 0d81 2ebd 35f9 7a3d f4f6 673d ee5c 8e3c
00000310: e91f 8d3e 2498 b03c 529a 26bc 1363 543e
00000320: ab53 fa3d bda4 fc3d 1da6 b23d f647 87bd
00000330: f86c b1bc 184a da3d aef7 24be 6cf2 b43d
00000340: aafd dabd 8172 22be 278d 183e 8864 91ba
00000350: 0509 fdbd b8df 1ebd 9497 9fbb d729 9dbb
00000360: 6ea8 32be c811 a73b 67f9 00be e1f9 483d
00000370: 9a47 8dbd 4eec 3d3c 16db 88bd fbdf 8a3c
00000380: f194 c7bd a896 50bb 9f1a 1cbe 391e 24be
00000390: 880e db3b 34f6 7fbe 7699 a6bd 9242 d43d
000003a0: ddad cabd 2a72 6a3d f919 bc3c 6f17 e93c
000003b0: 9508 e5bd 6e7f 863c 9cea 1bbd c9a1 553b
000003c0: 3101 2fbd b94b 113c 6231 3cbd fc89 aebd
000003d0: 1ee2 223c fddf c4bd 080b 893c 5b80 57bc
000003e0: e074 3bbc 06b7 ec3d b813 22bd 0a86 1abd
000003f0: 33ba 093d 0966 dbbd 9461 753d 101d 62be
-0.06588641 -0.073618576 -0.016909558 0.0051618796 0.0578843 0.19639541 -0.046188433 -0.005781701
-0.00016055342 0.09518982 0.083779454 0.2199184 -0.0385503 0.023441577 0.15880547 0.03415263
-0.13283889 -0.0120575 0.061091293 -0.062426016 0.05444554 0.09952559 -0.019719714 -0.07105858
0.09611012 0.043080755 0.07710304 -0.08620272 0.05328274 0.04878215 -0.007681294 0.07623463
-0.118404396 -0.12629133 0.091090485 0.07574545 0.035116464 -0.05459986 0.031955037 0.08079274
0.005934054 -0.0032061504 -0.122169934 -0.026230855 0.1073123 0.0889053 -0.022350708 -0.13289435
-0.19394879 -0.10493158 -0.0015547925 0.0059310375 0.06608679 0.03204933 0.017328138 -0.07282835
-0.17754215 0.09868897 0.021160131 -0.10833943 -0.02215474 -0.063746996 -0.048294604 0.03453822
0.09299097 -0.081302464 -0.019292023 0.02116948 0.0061621186 -0.17204542 -0.1015996 -0.2679709
0.08133129 -0.16754779 -0.26117873 0.050783116 -0.047475845 0.25137326 0.14326705 0.11301632
-0.06920377 -0.13076265 -0.042047627 0.1655608 -0.018632064 0.0055479645 0.081160136 -0.16186386
-0.16369191 -0.14667691 0.06952924 -0.08745384 0.066434965 -0.015164141 -0.11688824 -0.018780334
0.11475353 -0.06130439 -0.1348643 0.10136272 0.008179999 0.014919646 -0.026845904 -0.20492683
0.026740538 -0.039615985 -0.092451625 0.08868285 0.038323063 0.06839137 0.09117294 -0.112984024
0.070640095 0.05340013 -0.015159376 0.02519622 0.094193414 -0.06920139 -0.12249249 0.0754319
0.016349558 -0.029271664 0.12902655 -0.16841854 0.013814137 -0.04608376 -0.13007952 -0.010523459
0.030040083 -0.08515923 0.0058642263 -0.11467299 -0.1569863 0.044248696 0.025131328 0.14032735
0.054145664 0.106743194 0.017857186 0.02131778 -0.05052816 0.15389486 0.027416395 -0.01768211
-0.18416274 -0.14183165 0.08142543 -0.089449376 0.05880112 0.03243022 0.08177792 0.09767302
-0.045958426 -0.026179738 0.16600528 0.08969687 0.042784836 0.014480488 0.012300813 -0.036965527
-0.017491292 -0.06507452 -0.07806725 0.039421972 0.10120052 0.013010086 -0.008202498 -0.015010193
0.18871321 0.114125945 -0.06655401 0.03772067 0.02906417 0.19677109 -0.018552946 0.17294423
0.041738234 0.044472877 0.11142917 0.053617734 -0.1040147 -0.035030674 -0.08943098 0.07928413
0.026708147 -0.12564963 -0.030081058 -0.025064778 -0.031462528 -0.048267443 -0.1334733 -0.018364757
-0.04260354 0.06127282 0.056631997 0.017378297 0.27563408 0.021556921 -0.010168629 0.20740919
0.1222299 0.12336109 0.0872309 -0.06605522 -0.021658406 0.106586635 -0.16110107 0.08835301
-0.10692914 -0.15863992 0.14897595 -0.0011092583 -0.12355236 -0.038787574 -0.0048703644 -0.0047962475
-0.17447063 0.0050985552 -0.1259514 0.049066428 -0.068984225 0.011591984 -0.06682412 0.016952505
-0.09745205 -0.003182808 -0.1524453 -0.16027154 0.006685082 -0.24996263 -0.08134739 0.1036426
-0.09896443 0.05723778 0.022961603 0.028453557 -0.111832775 0.016418185 -0.038065538 0.0032597652
-0.042725746 0.008868151 -0.045945533 -0.08522412 0.009941606 -0.09613035 0.016728893 -0.013153161
-0.011441439 0.115583465 -0.039569587 -0.037725486 0.03362484 -0.10712821 0.05990751 -0.22081399

bias f4 [16]
00000000: 48f9 88bd ba3e a73c 84f9 3f3d 311e 823c
00000010: 1c34 cb3b 1bdd 33bc f85d 613c 4cd1 eebc
00000020: 9eed c63d 1f29 9abc 6bd4 4d3d 84c4 2f3d
00000030: 1b22 3c3d 9b70 c5bb 25c1 1abd 48ab 843d
-0.066881716 0.020415653 0.046868816 0.015883537 0.0062012803 -0.010978009 0.013755314 -0.029152535
0.09713291 -0.018818436 0.050251406 0.04291202 0.045930963 -0.0060253865 -0.037781853 0.06477982

weight f4 [20, 16]
00000000: ab81 d9bc 5db5 a4bd 29c3 1c3e fba6 25bf
00000010: 7c9e 0abd ce25 30be 008d 753e 7b78 d7bd
00000020: 87e9 0c3f c4d6 8c3c 18b5 40be 35d5 bdbe
00000030: a1ba 7dbd 2a3c 09bd b18e bbbd d9dd 693f
00000040: 7b2e 99bd c46c 9a3e bcdb a83d f7cc 52be
00000050: 83ef f2bd 11a3 7b3e 5b26 efbd c97e 823e
00000060: 16c0 7abe cfbb b03e d355 cf3e 1c0b efbe
00000070: a04e 893d 51c3 2a3e e834 b03e e5e3 5fbe
00000080: 81a2 00bf b8f2 04be a8de 3ebe 767c 503e
00000090: 28bc 65be 7f2f 4abf ca77 a23e c16d f6be
000000a0: b8f3 ef3e dcef 5b3e 1370 893e 06e9 91be
000000b0: d826 55bc 6d49 f93e 53eb 8d3d f804 57bf
000000c0: d92f f63e c6e1 1e3e c522 153f 03a6 33bf
000000d0: 3e40 5b3e 8cde 5bbe 4acc 12be f45a 5e3e
000000e0: e4df 4e3e aab8 cb3d 0fb2 96bd cb05 9dbd
000000f0: 7922 5d3f 5633 38bc d431 2ebe d996 29be
00000100: 4022 9e3e 8230 523f 393c f4be d161 0fbe
00000110: a533 f0be c01d 4e3e a526 d93e 54a4 123e
00000120: f871 283e 4885 42be 126f adbe 30d2 cd3e
00000130: 3f8a 683e d25e 25be cbd9 ec3e 74d6 173d
00000140: d507 c0be 8002 0a3e 6db5 803f 11b0 c3bd
00000150: 698d 3dbd de38 f43e 4729 273e 4a40 153e
00000160: 6672 eb3d 7745 0abf 4851 f2be b5ff a2be
00000170: 7bd5 d6bd 2afb 183f 7f9e 8a3e 1d10 64be
00000180: 9fa0 aabe 9cd7 303c 7473 9b3c 075c cf3d
00000190: a8b3 e5bc 894f c6bc 9407 7fbb 764f 4fbd
000001a0: 8158 55bd 1dbd 803b d2d1 f7ba fc3c ff3a
000001b0: 1ac5 cf3a 81f6 80bc 6a59 cbbd 471c 9ebb
000001c0: 839d 92bd a6b6 45bc e30e 5dbc 96f3 e3bd
000001d0: d987 333d 8d0f 263d 42a9 88bc d311 953d
000001e0: 11c2 7f3d 1a89 f33c b254 a0bb fcbf af3b
000001f0: 6e69 9b3c 0ea9 4a3c d736 94bd afb5 9c3c
00000200: 5441 eb3d c0b8 363f 70b4 9fbd d6ff ad3d
00000210: 1caf 153f 6b5b 3dbf 7211 743e 31f3 683e
00000220: 44e5 a0be 3b3a 97be 0e65 f3bd 1cab babd
00000230: dcd2 1dbe cf49 663e 4de6 543e 1d5c b63e
00000240: ee9b ebbe c2ff 3b3e ae72 2e3f c7b7 8f3e
00000250: c35c 5dbf 48cc 94bd 8148 dabd 871a 3dbe
00000260: bdb7 1fbe 58d2 b1be 6c77 9f3e 014c a7bb
00000270: 44f2 dcbc 8d39 81be b09b e63d ea6d 133e
00000280: aa31 113e dd00 24bb 5675 503a 0415 ac3a
00000290: 6d90 96ba 012a 7fb8 59b5 8739 6754 60bc
000002a0: c9c2 10bc 13b2 88b9 3e3f 8dbb 1b3d ea3a
000002b0: 9006 95bb 9388 be3a 0916 2fbe 8a7c 0bbc
000002c0: b20d 6d3e 65c1 44bc a535 37bc f57e 14bd
000002d0: e2ee 063c 4d31 7b3c fe0f 19bb 8282 eb3b
000002e0: ae04 7a3c 4abd 13bc 5629 64bb d58d 91ba
000002f0: 6574 c0ba 2148 903b dbc6 d7bc a0d8 0bbc
00000300: e74d 593e 323b 9bbc 07a3 463d e7cc 08ba
00000310: 2497 66bd 74c2 fd3d 199c 8ebd 6923 0cbe
00000320: 6a2e 4bbc 9a6a 9e3d 0d23 95bd 5a08 513c
00000330: 9d2a a83d 4f0e 7bbb a264 4fbc 5a3c f4bc
00000340: 82d1 113d 85b4 88bd 6c34 31be 0228 d3be
00000350: 5ac9 6a3e da06 f83d d3f4 cebd f408 5e3e
00000360: 11a8 3e3e 7e74 203e e85e 0bbb 6cc0 7c3d
00000370: 688a edbc 23a7 3a3d c898 cfbd 4573 c03c
00000380: 312f a3bd 6191 1c3b 401c d7ba b496 073c
00000390: a08c d5ba 59b1 bcbb b8d6 7b3a 5957 a7bb
000003a0: 6448 c7bb 3f21 87bb 6189 ddb9 4d48 973a
000003b0: 8f31 263a 9d45 8d3b c67f cfbd c1c8 88bb
000003c0: 4f41 be3c f72c 753e 1915 6b3e bcec ea3e
000003d0: f80b 63bd 1573 4fbd f1e4 06bf e1dd ad3e
000003e0: 5436 0dbe 215b 3c3f ae37 12bf a12b 75be
000003f0: 1946 4b3e a7ef 7fbe 9bf7 81bc 8e30 4d3e
-0.026551088 -0.08042405 0.15308823 -0.64707917 -0.03384255 -0.17201921 0.23979568 -0.10521027
0.55043834 0.017192252 -0.18819082 -0.37076727 -0.06194556 -0.033504643 -0.091580756 0.9135414
-0.074795686 0.30161107 0.08245036 -0.20586 -0.118620895 0.24573924 -0.116772376 0.25487354
-0.24487337 0.34518287 0.40495166 -0.46688163 0.0670445 0.1667607 0.34415364 -0.21864279
-0.5024796 -0.12983215 -0.18639624 0.20359978 -0.22435057 -0.78978723 0.31732017 -0.4813061
0.4686563 0.21478218 0.26843318 -0.28498095 -0.013009749 0.48688832 0.0692965 -0.83991957
0.4808338 0.15515813 0.5825618 -0.7017519 0.21411225 -0.21471614 -0.14335743 0.21714383
0.20202595 0.09947331 -0.07358181 -0.076671205 0.86380726 -0.011242708 -0.17011195 -0.1656145
0.30885506 0.8210527 -0.47702196 -0.14002158 -0.46914402 0.20128536 0.42412296 0.14320499
0.16449726 -0.18996155 -0.33873802 0.40199423 0.22708987 -0.16149452 0.46259913 0.037069753
-0.37505975 0.13477516 1.0055367 -0.095550664 -0.046277437 0.47699636 0.1632434 0.14575306
0.11496429 -0.54012245 -0.47327638 -0.31835714 -0.10489937 0.59758246 0.27074048 -0.22271772
-0.3332567 0.010793593 0.01897595 0.10124975 -0.028039768 -0.024207847 -0.003891443 -0.05061289
-0.052086357 0.003928794 -0.0018907136 0.0019473131 0.0015851588 -0.015742542 -0.09929164 -0.0048251483
-0.07158949 -0.012067473 -0.013492319 -0.11130445 0.043830726 0.040542174 -0.01668227 0.0727879
0.062440936 0.029728461 -0.004892909 0.0053634625 0.018971171 0.012369407 -0.07237022 0.019129602
0.1148707 0.71375656 -0.077980876 0.084960625 0.5847032 -0.7396762 0.2383478 0.2274902
-0.31424916 -0.29536614 -0.11884509 -0.09114668 -0.15412468 0.22489093 0.20790978 0.35617152
-0.46017402 0.18359283 0.6814374 0.28069898 -0.8646967 -0.07265526 -0.1065836 -0.1846715
-0.15597434 -0.34730792 0.311458 -0.005105496 -0.02697099 -0.2523922 0.11260164 0.14397398
0.14179102 -0.0025024929 0.0007952055 0.0013128822 -0.0011487134 -6.0835857e-05 0.0002588432 -0.013691998
-0.008835503 -0.00026072617 -0.0043105176 0.0017870994 -0.0045479015 0.0014536552 -0.1709825 -0.008513579
0.23149756 -0.0120089995 -0.011182223 -0.03625389 0.008235665 0.015331578 -0.002335548 0.0071871886
0.015259905 -0.009017298 -0.0034814677 -0.0011104891 -0.0014683126 0.0044031297 -0.026339939 -0.008535534
0.21221124 -0.018949125 0.04849532 -0.0005218521 -0.056296483 0.123906046 -0.06963367 -0.13685383
-0.012401203 0.077351764 -0.07282076 0.012758339 0.08211253 -0.003830809 -0.01265827 -0.029813934
0.035600193 -0.06675056 -0.17305154 -0.4124146 0.22928372 0.12110682 -0.1010529 0.21683103
0.186188 0.15669438 -0.0021266285 0.061706945 -0.028996661 0.04556955 -0.101365626 0.023492465
-0.079679854 0.0023890364 -0.0016411617 0.0082756765 -0.001629252 -0.005758446 0.0009606886 -0.005106848
-0.0060816277 -0.0041238363 -0.0004225476 0.0011541933 0.0006339782 0.004311277 -0.10131793 -0.0041743224
0.023224501 0.23942934 0.22957267 0.4588374 -0.055431336 -0.05064686 -0.52693087 0.33958343
-0.13790256 0.7357655 -0.5711621 -0.23942424 0.19850959 -0.24993764 -0.015865138 0.20038053

bias f4 [20]
00000000: 9d19 12be 8ec2 5abd 40ba 183d f5d3 683d
00000010: 87e8 a7be 5afe 35bd 27a4 ddbd 428f 4abd
00000020: 284e 43be c519 893e 5165 5e3d 6e0c ea3d
00000030: fbb3 adbd f415 433e 5b6d 203c 5bf1 e53d
00000040: 88c2 0a3d f6b8 0cbe ecff ec3c 8ea3 ac3e
-0.14267583 -0.053408198 0.037286997 0.056842763 -0.32794592 -0.04443202 -0.10822325 -0.049453028
-0.19072783 0.26777473 0.05429584 0.11428152 -0.08481594 0.19051343 0.009791697 0.112276755
0.033876926 -0.13742432 0.028930627 0.33718532

weight f4 [20, 16]
00000000: 340a 36bd 9f85 29bc f651 d4bd bc7c 9dbe
00000010: 0092 8a3c 06b9 82bd 8c6d cd3c 2dbb 5a3f
00000020: 6870 1f3e 6814 06be c580 57be 4f69 08be
00000030: 30bd 41be 48a6 cfbd 12dd d6bd 0c53 3a3c
00000040: 66f8 b73e 4e66 d03c 3b42 a8bd 86e8 a9bd
00000050: 3eca b0bc 0ae2 943c 1a82 b6bd 0122 4c3f
00000060: 647d 32bc 34da 5abc 8f28 5fbe 7be0 16be
00000070: b88d 16be d982 49bd 5c15 143e b341 84bd
00000080: 6217 bfbe 2f82 83bc 5edd 70bd 5fec 02bd
00000090: 5b99 e6bd 77cc 6a3c 7bb0 c2bd 9bf4 313f
000000a0: b4d7 bcbd 7a28 94bd ebf1 58be 4b01 bebd
000000b0: f013 9abd 9ad3 6cbd 3761 2b3e 0056 afbc
000000c0: 3ecf 4dbe b8e5 e33c 33f1 2ebd c3fd 643d
000000d0: b78d debd fde1 24bc 856a a7bd bdeb 243f
000000e0: d8e8 27be a195 acbd 7966 6ebe 7ef6 0dbe
000000f0: b1f0 e1bd 9bef 8cbd ab52 993e 2e88 aebd
00000100: 55ae ba3e 9c47 4fbc e38c 82bd 8088 8d3d
00000110: 4b6d d3bd 375f 63bb 7ad3 f3bd 1817 313f
00000120: 06e4 16be 00e0 b2bd ee29 80be d188 ffbd
00000130: 4e0d 04be 3248 c5bd ede1 a3bc 0c06 1cbd
00000140: 2fbc 833e c683 ae3b 8620 e9bd 3f65 18be
00000150: 7e33 2fbd b335 7e3d 9f20 d8bd 7aac 6c3f
00000160: b91f f1bc d728 f7bc b67d 88be fd92 84bd
00000170: ad3b ebbd d8c6 88bd 5407 d63e f8ed 4b3c
00000180: 6191 d43d 5aa7 a2bb e3ff cbbb c21c 42bc
00000190: 9534 8bbb bd64 9d3a 361f 16bc ed62 99bc
000001a0: 821e 8abc fbd4 9abc 1e61 17bc 35b2 89bb
000001b0: 8295 98bc 87cf 433b 579c bd3c 5949 a4bc
000001c0: f207 06be aa10 50ba c09c 39bb 1f29 febc
000001d0: 7401 513b 9236 143c 9928 23bb e0ed 0b3d
000001e0: b47f 473c 5f76 21bc 89bd 6abb 6657 a03a
000001f0: bad7 50bb 10a5 183a 872c 803e 048b 693b
00000200: 3469 773d 7772 423d 7a4b 8cbd 1bf9 febb
00000210: e9a9 61bd 86ae bebc ecbe b0bd 181b 303f
00000220: 68cc 1cbd 698e 08bc f2b4 65be e106 a0bd
00000230: 0749 89bd bfc9 bcbd 07b4 2fbc b3b7 b2bb
00000240: 8cbf 69be 64c4 673d 875e a2bd 9d63 05be
00000250: ae90 00bc bf88 063e dfad 16be 5ccc 2e3f
00000260: d107 cdbc 819b 06bd 317c 63be f093 94bd
00000270: 03de 02be 93df c7bd 54ae efbe 318f df3d
00000280: 2081 63be b359 c5bb def6 20bb 3b29 dfbc
00000290: 4472 e7ba f968 a13b f91f 1fba 9b22 3d3c
000002a0: 6557 d7ba 3c58 99bc 5bab 0dbb 5ed5 c8bb
000002b0: 7962 5fbc c71d 673b 6245 21be 0d0e 38bc
000002c0: 5a91 953d f3f5 83bb b61f c4bb b3d9 9abc
000002d0: d6df 53ba a176 6c3b 1c18 44ba 8c8f 6d3c
000002e0: 0a98 a5ba f950 50bc ec6a 32bb d486 daba
000002f0: 148b fdbb 6de4 153a f9d2 aebe 1436 a1bb
00000300: ccdd 323e 7139 adbb ea7b 8ebb b043 203c
00000310: 6ffd a9b9 ac21 55bb 25ba 20bc 7285 da3a
00000320: abaa 01bd 762f 7fbb 5831 9cbc 7eb6 4bbb
00000330: 89a2 91bc 4bcf 4abc 2ed8 a2be 152c e9bb
00000340: 191b 153e 6064 f7ba 407d cb3b e982 2ebd
00000350: 4b44 5c3a ad95 c53c ad5e b9bc b3e8 0e3b
00000360: 4157 e4bc 790c e0bc b4f5 1bbd da85 26bc
00000370: bf2a eebc 25ea ecbb f05f ef3d 14fb 26bc
00000380: a3aa 0bbe ec71 3dbc 453a 22bc 3a66 ecbc
00000390: ed0c 41bb 3181 a63b 33d2 67bb 9595 59bc
000003a0: 17cc 26bc 1c8f debc 4903 07bc fd65 adbb
000003b0: ec72 a2bc 178d a43b fbd8 d9bd 35be c5bc
000003c0: b92d 7a3e 07f2 e1bd 04b6 a1bd 0b6d 42be
000003d0: 39f9 91bd 2634 52bc e660 3a3d af26 153f
000003e0: 3de4 c6bd af38 99be db17 cbbd da0c d7bd
000003f0: 38c2 41be 873d 903c 884f e7bb 602a dcbd
-0.044443324 -0.010346799 -0.10367195 -0.30759227 0.016915321 -0.06382947 0.02507665 0.8544186
0.15570223 -0.13093722 -0.21045215 -0.13321422 -0.18919826 -0.101391375 -0.104913846 0.011372339
0.359317 0.025439408 -0.082157575 -0.082963035 -0.021580812 0.01817419 -0.08911534 0.79739386
-0.010894153 -0.013357688 -0.21792816 -0.1473407 -0.14702499 -0.04919705 0.14461273 -0.06457844
-0.37322527 -0.016053287 -0.058804862 -0.031963702 -0.11259719 0.014330975 -0.09506317 0.69513863
-0.092208296 -0.07234283 -0.21186034 -0.0927759 -0.07523334 -0.057818986 0.16736303 -0.021403313
-0.20098588 0.0278195 -0.042710494 0.05590607 -0.10866874 -0.010063645 -0.08174614 0.6442221
-0.16397417 -0.08426977 -0.23281278 -0.1386356 -0.11032236 -0.068816386 0.29945883 -0.08522068
0.3646113 -0.01265135 -0.06374528 0.06910801 -0.1032358 -0.0034694204 -0.1190557 0.69175863
-0.14735422 -0.08734131 -0.2503199 -0.124772675 -0.128957 -0.09632911 -0.02000519 -0.038091704
0.2572951 0.005325767 -0.113831565 -0.14882372 -0.042773716 0.06206293 -0.10553097 0.9245068
-0.029434072 -0.030170841 -0.2665841 -0.06473348 -0.114859916 -0.066785514 0.41802466 0.012446873
0.10379291 -0.0049637975 -0.0062255724 -0.011847677 -0.0042482116 0.0012008172 -0.009162715 -0.01872393
-0.01686025 -0.018900385 -0.009239463 -0.004202152 -0.018625978 0.0029878335 0.023145838 -0.020054506
-0.13088968 -0.00079370535 -0.002832219 -0.031025467 0.0031891735 0.009046214 -0.0024896024 0.034162402
0.012176443 -0.009854882 -0.0035818538 0.0012233078 -0.0031866864 0.0005822936 0.25033972 0.0035635838
0.060403064 0.047472443 -0.068503335 -0.0077811605 -0.05509368 -0.023276579 -0.086301655 0.6879134
-0.038280874 -0.0083347345 -0.22432306 -0.07813812 -0.06703382 -0.092181675 -0.010724074 -0.0054540276
-0.22826976 0.056583777 -0.07928186 -0.1302628 -0.007846994 0.13138102 -0.14714764 0.6828058
-0.025028141 -0.032863144 -0.22215344 -0.07254779 -0.12780003 -0.0975944 -0.4681269 0.109159835
-0.22217226 -0.006022656 -0.0024561207 -0.02724134 -0.0017657955 0.004925844 -0.0006070133 0.011543895
-0.0016429244 -0.018718831 -0.0021617028 -0.006128951 -0.013634318 0.0035265551 -0.15749124 -0.011233819
0.07303114 -0.004027122 -0.0059852256 -0.018902635 -0.00080823654 0.003608145 -0.0007480399 0.014499556
-0.0012633812 -0.012714618 -0.0027224375 -0.0016672262 -0.0077375267 0.0005717937 -0.34145334 -0.0049197767
0.17467421 -0.0052863886 -0.004348268 0.009781763 -0.00032423015 -0.003252129 -0.009810005 0.001667185
-0.031656902 -0.00389382 -0.019066498 -0.0031084116 -0.017777698 -0.012378524 -0.31805557 -0.0071158507
0.14561118 -0.0018874519 0.0062099993 -0.042605314 0.00084025104 0.024119223 -0.022628153 0.002180618
-0.027873637 -0.027349697 -0.038076118 -0.010163749 -0.029073117 -0.0072300606 0.116882205 -0.010191698
-0.13639311 -0.011562806 -0.009901588 -0.02885734 -0.0029457167 0.005081319 -0.0035373091 -0.013280292
-0.010180495 -0.02716785 -0.008240529 -0.005291699 -0.01983019 0.005021702 -0.10637089 -0.02413855
0.24431504 -0.11032491 -0.07896045 -0.18986909 -0.071276136 -0.012829816 0.045502566 0.5826215
-0.09711502 -0.2992606 -0.099166594 -0.10500498 -0.18921745 0.017607464 -0.0070590414 -0.1075027

bias f4 [20]
00000000: cc23 8b3d c182 c4bc e1ed 94bd 583c f63d
00000010: b553 7a3d 68d3 633e 6adb 1a3d 7109 ffbd
00000020: bd53 993d d20a 943e 94bb 90bc e751 b6bd
00000030: 4cec bab9 06a4 703e a681 ea3d 4428 213d
00000040: b3bf 553d 5ae4 373d 8ebb 793d 261c 403c
0.06793937 -0.02398813 -0.07271934 0.120232284 0.061114985 0.22248614 0.037806906 -0.12452973
0.07486675 0.28914505 -0.01766757 -0.089023404 -0.0003565274 0.2350007 0.1145051 0.03934504
0.05218477 0.044895507 0.06096988 0.011725461
