models/a30lds30b0.007g0.15d1h13.pt (torch, 176243 bytes, 26 tensors)

weight_ih_l0 f4 [52, 4]
00000000: 3e09 d03e 9705 423e 597d a33e 3d6e 84be
00000010: 07d7 d03e 6b66 203e a9ec a1bd f8ce 283e
00000020: 6d89 053f 423a c33d 7fcf b93e 86a3 863d
00000030: 73f9 f73e 42b1 1dbe 1aa2 b63e 6b90 df3e
00000040: d63b 2e3f e492 733e 4e7e de3e ad61 32bf
00000050: ddc6 b73e 06e2 083e eaac 82be 0ae9 223e
00000060: 55f2 d23e b7e7 a23e 538b 973a 94cb 28bf
00000070: fc5f a0be 7be1 203f f758 3e3f 84e6 ff3d
00000080: 4f3b 1f3d b635 e0bb 3223 183e 7830 6e3d
00000090: b9d0 203d 920b 56bd ec7e 8d3e 6ab8 5cbd
000000a0: c2e5 4f3e b1d8 803e 7d2e b8be de16 3d3e
000000b0: e434 b83e 19a1 2a3e be86 b43e eada 3abe
000000c0: 658b b93e 0a95 6b3e afd0 02bf 28d8 193f
000000d0: eb30 ddbc 2a6a 60bd f098 873e 3a0a 60be
000000e0: 10be 2f3d 8ffb 263f f336 d0be 8b89 17bd
000000f0: 8a07 9ebe 2876 f73d 2c4d 76bd db3c a2be
00000100: 07e6 323e 0f97 3f3e 76e4 0d3e 3577 5d3e
00000110: 19f6 253f 5123 6fbe ed58 893d 61ea 923c
00000120: 1058 bd3a 7c7b 16be 0519 d53d b12a 243e
00000130: 790a 6d3e c07a f33d c90e 243e 6448 ba3e
00000140: d7f7 e83c e73b 2bbf 3dfc 4b3e ca56 efbd
00000150: c7e1 573c 85ec 863e 4fb9 ba3e 13e6 883e
00000160: e54f 303e 6a76 0cbe 3c38 603e 885e 003f
00000170: f66e 7c3d f95f 33be 3299 d0bd 3790 833d
00000180: 0249 50be 3653 223e e966 37be affb e03d
00000190: 2e13 e53d 99db 933c 398b 43bd 3dd1 0f3c
000001a0: bcb8 e33c 7cb9 5f3e c24b 093f 1379 31be
000001b0: 58a4 9a3d e799 febe b776 0d3e 5b9a b33e
000001c0: 8a23 45be dfe1 07be 57fc d73e ba48 89be
000001d0: 7155 69be 44d3 2f3d 60f3 893e 1151 773e
000001e0: b620 5b3d 670c cfbd 9541 473f cde1 4bbd
000001f0: 5b63 84be 754c 093b 7b86 d6bc 805a eebd
00000200: 6079 bfbe 621d 253e 55ea babd c02b 653e
00000210: 947d 9fbd 976e 283f f63e 9abe efc6 8b3d
00000220: 69bd ca3d d0ca 46be 696a 193e 1b6e 70be
00000230: f258 61bc 3db3 24be c8cd 6bbe b06a 71be
00000240: 9523 c6be 0671 ca3e 2773 b4be 5c36 e73d
00000250: 01fa 09bf d86d 003f 7d06 d93e 8af8 c03e
00000260: 47b8 533e cf77 92be c533 2cbd 18e5 01bf
00000270: f77b a43e 8979 ebbe 8e1a 07bb 7457 063d
00000280: c7e8 ff3e 72d3 b6bd 7f2d f6bd bba2 073f
00000290: 8a2a c9bd 8bf6 a23d 2d24 983e 35e4 e2be
000002a0: 5144 c1be 8622 813e 9caf 6d3e e5f4 c63d
000002b0: f6cc 0f3f 8dce 38be 3366 c13d 7b53 b3bd
000002c0: 9996 2d3f 759a be3b 2b55 30bc cc55 1cbe
000002d0: 6a75 333f 11a8 03bd 1359 e6be f4c3 9cbd
000002e0: 93c4 73be 5910 3c3f 7950 0b3f f8fd 473e
000002f0: 971e 193f fb33 31bd 06ef 933e 74c4 f13c
00000300: 00ce c03d 51cd cabe b3b1 adbd e80d 5f3e
00000310: e189 d9bd 88c7 c13e 5ec7 bdbd 3379 d33e
00000320: db3c 793d ee1e 8cbd a814 a3be e861 833e
00000330: 72b2 ffbd cb25 48be d335 fb3b c25f 4c3e
0.4063205 0.18947445 0.3193157 -0.25865355 0.40789053 0.1566407 -0.079064675 0.16485202
0.5216282 0.09532596 0.3629112 0.06574158 0.48432502 -0.1539965 0.3567055 0.4366487
0.6806005 0.23786503 0.43455738 -0.6968029 0.35893908 0.13367471 -0.25522548 0.1590921
0.4120051 0.3181741 0.0011561908 -0.65935636 -0.3132323 0.62844056 0.743545 0.12495139
0.03887492 -0.0068423403 0.14857176 0.058151692 0.039261553 -0.052257128 0.27635896 -0.05388681
0.2030249 0.25165322 -0.35972968 0.18465754 0.35977852 0.16663016 0.3525905 -0.18247572
0.36239162 0.23006073 -0.51099676 0.60095453 -0.027000865 -0.054788746 0.2648387 -0.21878901
0.042905867 0.652276 -0.40666923 -0.036996406 -0.30865127 0.120830834 -0.06013219 -0.31687054
0.17470561 0.18709968 0.13856682 0.21627505 0.6482864 -0.23353316 0.06706414 0.017934026
0.00144458 -0.14695543 0.10405163 0.1603191 0.23148526 0.11888647 0.16021265 0.36383355
0.028438492 -0.6688828 0.1992044 -0.116864756 0.013176388 0.26352325 0.36469504 0.26738033
0.17217977 -0.13717046 0.21896452 0.50144243 0.061629258 -0.1751708 -0.1018547 0.06423991
-0.2034035 0.15852055 -0.17910351 0.10985505 0.11185299 0.018049048 -0.047740195 0.008777914
0.02779805 0.218481 0.5363122 -0.17331342 0.07550877 -0.49726793 0.13814817 0.350787
-0.19251838 -0.13269757 0.42184708 -0.26813298 -0.227865 0.042926088 0.26943493 0.24152018
0.053497992 -0.101097874 0.77834445 -0.049775887 -0.25857052 0.0020950113 -0.026187172 -0.11638355
-0.3739729 0.1612449 -0.091267265 0.2237997 -0.07787624 0.65793747 -0.3012616 0.06825053
0.09899408 -0.19413304 0.14981999 -0.23479502 -0.013754116 -0.16083999 -0.23027718 -0.23575854
-0.38699022 0.39539355 -0.35244104 0.11289665 -0.538971 0.5016761 0.42387763 0.3768962
0.20675765 -0.28607032 -0.04204156 -0.50740194 0.32125828 -0.4599116 -0.0020615193 0.032798246
0.49982283 -0.08927049 -0.120203964 0.5298268 -0.09822567 0.079571806 0.297151 -0.44314733
-0.37747434 0.25221652 0.23211521 0.09714679 0.5617212 -0.18047543 0.09443321 -0.08756157
0.6780792 0.0058167526 -0.010762493 -0.15267104 0.70101035 -0.032142702 -0.44989833 -0.076545626
-0.23805456 0.73462445 0.54419667 0.19530475 0.598123 -0.043262463 0.28893298 0.029512621
0.094142914 -0.3960977 -0.08481159 0.21782649 -0.106220014 0.37847543 -0.09266542 0.41303405
0.060849052 -0.06841837 -0.31851697 0.25660634 -0.124852076 -0.19545667 0.0076663285 0.19958404

weight_hh_l0 f4 [52, 13]
00000000: 738a 743e e002 4ebe 78d4 1c3e 7a87 b73d
00000010: 34e5 5f3e a6f1 a8be c40c b23d 61ad 8b3e
00000020: a544 3abe 94b1 103c 64e9 3fbd e2fa 443e
00000030: 82e6 a93d a130 083c 4e9b 06bf 010d 2abd
00000040: 04bf 063e f9bb 16be 83a9 583e dd77 393e
00000050: 522d fb3e 4aa3 e5bd cc5b 6bbc 58eb d8bc
00000060: 0840 b03e e122 953d e83e ce3c 0744 1d3e
00000070: f9a7 12bd ef9a 683d 8563 463e 4114 683e
00000080: 63f9 95be 1355 273d 50b9 c2be 9079 6dbc
00000090: e608 863e 4dc6 af3e 080f 1cbe b184 3f3e
000000a0: d077 9f3d 46ff c13e 2d86 efbd d82d d33d
000000b0: 6664 c23d 596d 85be b8f0 19be 2e7c d5bc
000000c0: 6206 d23d 012b 21be 3f2c f43c 4f43 a6bd
000000d0: 18be 023f 6208 953d 2094 e93c 9c6f b73e
000000e0: 76e9 d5be d427 0dbf 4cdd a0be 222a 9bbe
000000f0: 70c0 c43e 23a3 10bf f4b2 1d3f 8472 a43d
00000100: 1d81 c0be 3311 eb3e 61d9 89be 1161 783e
00000110: 79fe 0f3e 6f0e 01be 0ebf 55be 5aa4 1fbe
00000120: 17c6 ba3d 4e18 3bbd 2e70 19be da0d 75bc
00000130: 54d2 003e 4434 40bd 90ed 3f3e 691f 013e
00000140: a07a 053e 1bc6 0b3e ed98 fe3e a075 383e
00000150: e2a8 d53d 9e7c f5be c9b7 153d 0d41 33be
00000160: bb35 5fbe 4dbf 6b3e b7d2 a73e 2061 f13e
00000170: bd49 f73d e242 1e3e a4c7 353e 8887 013f
00000180: 1832 9bbe 9d2e 52bd 3cfa 1ebe 5068 ad3e
00000190: 34f6 263e f28f ab3e bb37 343e 00ef 27bd
000001a0: adeb a83c 8828 cfbd bd6d 143f 4c03 503e
000001b0: 81ef 503f 5574 633e 566f b23e 3d5e 85bf
000001c0: 11c4 ca3e ebca 57bd d1e5 afbe 473f 063e
000001d0: 9d79 db3a b354 1fbe 9745 023d d47c 9abe
000001e0: 89ae f0bb ec1e 20be 8b7c 133e 45e0 993d
000001f0: 108e 4b3b 9af5 eebd 97c3 68be 26c6 113e
00000200: 8033 24bd 31d6 753e 99f7 583e 07db cf3d
00000210: 8233 ec3e d495 dcbd af1a 333e 7023 8bbe
00000220: 290d 91be 48e1 ebbe f77c 47be f379 b7bd
00000230: fb3d 9c3e d45c a63d e4b0 353d 9dff ae3e
00000240: 5b67 973d 0592 b53e b0cc 4fbe 6f20 343f
00000250: b2dd aabe 8ddf e03c f163 55bf 698b 8a3d
00000260: acb3 debd 7745 003e 1499 9a3d b5bd 9a3e
00000270: c7f3 843e 1c44 abbd 3d5f 9bbd 3d6d ae3d
00000280: 6efd b33e 4db9 4e3e c642 acbd ab57 b0be
00000290: b530 d1be c8a1 973e 76b7 8a3e 701e 55be
000002a0: d85e b63e 8ec9 8e3d 7ee7 d43d 496b e13e
000002b0: caf2 273e 922b 3ebd 1dc4 ffbd 8186 15be
000002c0: a191 963d 4440 ecbe 0d68 86bd f907 a13d
000002d0: dbe4 663e 92e3 e53d 8f6f 2f3e 2b06 52bc
000002e0: fb14 f43d 2574 d33d 6fcb 3ebe 8a94 db3d
000002f0: fedc 88bc e8ba fe3e 650e 3dbe 4d43 62be
00000300: d038 2b3e 1288 653d 1512 823d 09f9 083e
00000310: 65e1 d73d 6905 c93d 010e 53be 63a2 a1be
00000320: 9613 26bd 1d07 23be 8fd6 793e 8214 8cbd
00000330: 86a6 58be f41b d53d c39a 70bd 0a8b 333e
00000340: c0c3 683e 67a5 373e bb96 893e 7835 183e
00000350: ea66 833e 3d11 cfbe 7ea4 cbbd 21f6 cfbe
00000360: 59a4 413d bee0 dc3c 61c5 d33e 1387 b93e
00000370: b18a 9dbd 2b0e ac3d d8ef e9bd 1c4b 003f
00000380: 732e 2e3a d4b7 4a3e 6364 6cbe 7ca3 5f3e
00000390: 3089 05bf f1ab da3e e5a4 c6bd 12e4 dbbe
000003a0: 5d87 19bf 360f 883e 6208 9a3e b8e8 0abe
000003b0: 8b66 403e 2a6f 883e a203 273e 43b4 24be
000003c0: 82e3 01bf ccbf 02be cc25 9ebe ae4b 48bd
000003d0: 77f1 5c3e 06a4 9e3e eed8 b1be 7ad1 af3e
000003e0: a4f2 8a3e 856a dd3c f0d7 a93e c417 0c3e
000003f0: 98a3 11bf ad94 9a3e 8ec4 3bbe 0fca c0be
0.23880939 -0.20118284 0.15315425 0.08961387 0.21864778 -0.32996863 0.08693841 0.27280715
-0.18190248 0.0088314 -0.046853438 0.19236329 0.08295919 0.008312375 -0.52580726 -0.041516308
0.13158804 -0.14720143 0.21158414 0.1811213 0.49058014 -0.112127855 -0.014365148 -0.026479408
0.34423852 0.07282043 0.02517648 0.15357982 -0.035804722 0.05678838 0.19373901 0.22663976
-0.2929183 0.040852617 -0.38032007 -0.014494315 0.26178664 0.3433098 -0.15240109 0.18702962
0.07786524 0.3789007 -0.11695514 0.103114784 0.09491806 -0.26059988 -0.15033233 -0.02606019
0.10255124 -0.15739061 0.029806254 -0.08118307 0.5107131 0.072769895 0.028513014 0.3582734
-0.4177968 -0.551389 -0.31418836 -0.30305582 0.38428068 -0.56498927 0.61601186 0.080296546
-0.37598506 0.4591156 -0.2692366 0.24255778 0.14061917 -0.12603162 -0.20873663 -0.15590039
0.09119814 -0.045677476 -0.149842 -0.014956916 0.12580234 -0.046924844 0.18742967 0.12609638
0.13035059 0.1364979 0.49726048 0.1801362 0.104326025 -0.47946638 0.036552224 -0.17505284
-0.2179784 0.23022194 0.3277795 0.47144413 0.12074611 0.15455201 0.17751938 0.5059743
-0.30311656 -0.051313985 -0.15525144 0.33868647 0.16304857 0.3350826 0.17599384 -0.040999413
0.020620191 -0.101151526 0.5797995 0.20313758 0.81615454 0.22212346 0.34850568 -1.0419384
0.39602712 -0.052683752 -0.34355024 0.13110076 0.0016744618 -0.15559654 0.031804647 -0.3017336
-0.007345025 -0.15636796 0.14402978 0.07513479 0.0031060018 -0.116679385 -0.22730862 0.14235744
-0.040088177 0.24007489 0.21188201 0.10149198 0.46133047 -0.10770765 0.17490648 -0.27175474
-0.28330353 -0.46070313 -0.19481264 -0.08958807 0.30516037 0.08123174 0.04435815 0.34179392
0.0739276 0.35462967 -0.20292926 0.7036199 -0.33372265 0.027450347 -0.83355623 0.067648716
-0.108741134 0.12526499 0.075487286 0.3022286 0.25967237 -0.083626 -0.07586525 0.08516929
0.3515429 0.20187874 -0.084111735 -0.34441885 -0.40857473 0.29615617 0.27093095 -0.20812392
0.35619235 0.06972037 0.10395716 0.44027165 0.1640121 -0.04642827 -0.124885775 -0.1460209
0.07351995 -0.4614278 -0.06562815 0.07862849 0.22548239 0.11225046 0.171324 -0.012818853
0.11918064 0.10324887 -0.18632291 0.10721691 -0.01670694 0.49751973 -0.18462522 -0.22095986
0.16720891 0.05603797 0.06351105 0.1337625 0.105410375 0.09815485 -0.20610811 -0.31569204
-0.040546022 -0.15920682 0.24398254 -0.06839849 -0.21157274 0.10405722 -0.058741342 0.17533508
0.22730923 0.1793419 0.2687281 0.14864147 0.25664455 -0.4044284 -0.09943484 -0.4061747
0.047275875 0.026962634 0.41361526 0.36235866 -0.07692469 0.0840114 -0.114227 0.5011461
0.0006644495 0.19796687 -0.2308517 0.21839708 -0.52162457 0.42709306 -0.0969942 -0.4294744
-0.5997217 0.26574105 0.3008452 -0.13565338 0.18789117 0.2664731 0.1630998 -0.1608439
-0.50737774 -0.12768477 -0.30888212 -0.0489003 0.21576487 0.30984515 -0.34735817 0.34339505
0.27138245 0.027028332 0.3317256 0.13680941 -0.5689025 0.30191556 -0.18336698 -0.37654158

bias_ih_l0 f4 [52]
00000000: 7f43 213e f09f 4bbc c84e b33e 67d2 a03e
00000010: 01bd 183f 8c3b 2b3e 6eca a2bd 4d6e 063e
00000020: 6589 2cbe f371 7f3e af19 3d3e c8d3 ff3d
00000030: b251 06be ba60 583d a589 02be c48c 763e
00000040: 4e62 91bd 48e9 32be a1a3 44be 699a b73c
00000050: dd0c f83d 4861 c93e 3672 753c c8b6 843e
00000060: 83f8 02be 2555 ba3d 7708 cc3d 1118 a23e
00000070: 6c2f 9e3e 25e5 eebd 2fc7 32bd 7d0d 92be
00000080: a8ae a7be d563 35be 72d5 31bd cc4a 8d3d
00000090: 8de4 923e f288 823c 9742 dbbd cae2 743e
000000a0: 359d 9a3e 4142 c33e 9342 a13d 5358 ac3d
000000b0: db39 7b3e e901 33be 0bf9 c63e 21a8 e2bd
000000c0: 7583 9bbd 645c 8e3d a42e 4b3e 8e1a acbd
0.15748404 -0.012428269 0.35021043 0.31410524 0.596634 0.16721934 -0.07948767 0.13128014
-0.16849287 0.24945812 0.18466829 0.12491566 -0.13117102 0.05282662 -0.1274782 0.24077135
-0.07098828 -0.17471802 -0.19203044 0.022412496 0.121118285 0.39332032 0.014980843 0.259207
-0.12790112 0.09098271 0.09962552 0.31658986 0.30895555 -0.116647996 -0.043646988 -0.28525916
-0.3275044 -0.17713864 -0.043416448 0.06899032 0.28689995 0.015934441 -0.107060604 0.23914638
0.30198064 0.38136485 0.07874026 0.08415284 0.24533789 -0.17481197 0.3886188 -0.11067224
-0.07593433 0.06951216 0.1984201 -0.084035024

bias_hh_l0 f4 [52]
00000000: 3700 11be 4dea c63e 9677 aa3e feda b93c
00000010: 3e45 113e 465a d2bb ff0d aa3e 899f f33e
00000020: 2fa6 0b3e 212f 7abd bc4e adbc 3752 db3d
00000030: 321a 633e 0bbd a3bc 9999 ef3d 33cd 01bd
00000040: c03d fd3d fdd0 d03d 522e ce3c 91ca 91bd
00000050: 3cb3 84be d44f bf3e 4934 2fbe 14ff fabd
00000060: 7376 7dbd f1b8 46be 5d95 5b3d 9a93 603e
00000070: 14ba 61be bb80 9b3e a3ca a1bd 5f2c 07bd
00000080: e89d ecbd bb66 203e d5e4 51be cf1a 6cbe
00000090: 6854 f5bd 3667 7b3d 7767 25bd aec5 3c3e
000000a0: 7327 953e 94d5 9fbd cd5b 213e 48fb 823e
000000b0: 27bb 50bd 33db ffbb 89e3 9a3e 97e4 0a3e
000000c0: 5483 6fbe 7da8 da3c bc16 733e 04e1 fabd
-0.14160238 0.38850632 0.33294362 0.022687431 0.1418657 -0.006419453 0.33213803 0.47582653
0.13637613 -0.061080102 -0.021155708 0.107090406 0.22177961 -0.019987604 0.11699218 -0.031689834
0.123652935 0.10196111 0.025168572 -0.071187146 -0.25917995 0.37365592 -0.17109789 -0.122556835
-0.06188054 -0.19406487 0.05360924 0.21931306 -0.2204364 0.3037165 -0.07899978 -0.0330013
-0.11553556 0.15664189 -0.20497449 -0.23057102 -0.1197899 0.061377726 -0.040381875 0.18434784
0.2913166 -0.07804409 0.15757675 0.25582337 -0.050959732 -0.007808113 0.3025172 0.13563763
-0.23389941 0.02669167 0.23739141 -0.122499496

weight_ih_l0_reverse f4 [52, 4]
00000000: eba0 97bc cb7e 3b3d be8c 573c 8dd4 393f
00000010: b0a6 543e 0510 d23d 5190 b4bc eeec c83d
00000020: d8ec 4e3e 0311 37be 978e 963e 8f94 8cbe
00000030: a52c b53e 97f1 74be 153e e2bd 1d06 b9bd
00000040: d575 fd3e 76ab 9c3d 1257 203f f8a6 bc3b
00000050: 52c0 a6be 0048 243f fbce e03d bae9 2d3c
00000060: 2274 a3be 05eb 763e 31e0 013f 569c bdbe
00000070: 1bfb d73d 6414 d6bb 9085 aa3e 565c 9c3e
00000080: 984d c5be ed62 57be 1e83 db3d 1c7b 0ebe
00000090: 3a32 da3e 7d23 9dbe fcf3 fc3d 6062 05bf
000000a0: 3ef5 073e 621b 5c3e b76b 6bbe 623b 383f
000000b0: 8e88 a8bd 8752 d63c 1867 853e e08d 07bf
000000c0: 4463 db3d 9d15 c2bd 8953 503e c2f6 653e
000000d0: 5872 723e 58a4 033f a9e0 c93e 29b9 bfbe
000000e0: ea56 1b3e 1001 81bd bf3c dabe 1752 ff3d
000000f0: 790a 4d3e afd5 86be 1ec7 bc3b 05c8 c3be
00000100: a894 083f 11c7 89be b124 513e 2bbf 343f
00000110: 6a3b 84be 45b3 813e 1bf0 68bb 3c3d 423e
00000120: f034 bb3d d62b a63e a39f 49be 59ae 10be
00000130: f212 843c fdf3 6e3e 923f ad3e a7a8 3e3e
00000140: 89eb 0f3e dc0f 05be e64d 18be c0df 673d
00000150: 245b 1abd db2e 313f cca2 2a3e bef3 acbe
00000160: 4431 b43d 353e 98bc af2c d1bc c130 8fbe
00000170: f8fd 803e a3e1 843e d679 17bd d78b c13e
00000180: 1583 503f 349d 783e a61a f1be 1369 153e
00000190: 7012 3b3e e23c b73d 9a0b c7be 20b8 313e
000001a0: 2727 bbbe 8de6 dd3e 6bef 893d 192e 65bd
000001b0: e92e 05bf 3209 b3bd 0296 95bd cd83 e53d
000001c0: 9524 28be 2aab 083f b610 90bd 4c14 543e
000001d0: a411 b33e 9587 dbbe b7b4 973e 937a d3be
000001e0: 1f97 6abe 8e90 c2bc d2c2 7dbc abdb 75be
000001f0: 0338 f13b 05ee bebe 02e3 cc3e 8b41 993d
00000200: 6951 05bd 6e31 983e 2de0 00bf 493c 0fbe
00000210: 31eb bc3d 8f8c fe3c a0ab 2f3d 705d d0bd
00000220: 1174 ac3e 988f dfbe c8a3 1dbe a835 9cbe
00000230: 9295 163e 8811 1e3d b5cb 173e 3772 04be
00000240: dab1 25be d00d 063e a527 b43e a95d 93be
00000250: 08a0 5e3e 4d4f 61be 4953 22be 5803 993b
00000260: f550 233d 2f65 b83e e94b cebe 8be4 bb3e
00000270: 5fe5 76be affa 253e c6c5 9a3e 0b20 87bf
00000280: 2c6e fa3e acfc 93be 82fa cfbd 248c 243f
00000290: 0905 c43e 7f70 45be e76c ca3d aa06 1d3d
000002a0: f13f 1e3f 883f 053f 7e10 71bd 9f37 55bf
000002b0: ad19 02bd fb12 5c3d 31da a53e 8899 953e
000002c0: 2f6e 273f d504 373f 0d2b 76be ba06 1d3d
000002d0: c0f0 c6be fd27 6a3e 231a d83e 9d62 c2be
000002e0: 4a76 b33e a01e 183f 24fe 913d 7746 cfbe
000002f0: 711a a9be fc4c 0c3f 7ed1 22be 2857 c4bd
00000300: 351d 053f ddb5 9bbe 1817 9ebe e16d b63d
00000310: 64c0 50bc 08e6 393e 99e6 0dbe 2a89 513f
00000320: 5fb6 393f d904 90be 8467 2ebd 43c7 0b3f
00000330: d3ba 813d b786 723e 326e 2fbe 7c7b 653f
-0.018509349 0.045775216 0.013156114 0.7258995 0.20766711 0.10256962 -0.022041472 0.09810816
0.20207536 -0.17877583 0.29405662 -0.2745709 0.35385624 -0.23920284 -0.110469975 -0.09034369
0.4950396 0.07649891 0.6263286 0.005757209 -0.32568604 0.64172363 0.109769784 0.010614807
-0.3192454 0.2411309 0.50732714 -0.37033337 0.105459414 -0.0065331925 0.33305025 0.30539197
-0.38535762 -0.21033831 0.10718368 -0.1391415 0.42616445 -0.30691138 0.12351224 -0.52103233
0.13277146 0.2149482 -0.22990309 0.7196561 -0.08229171 0.026162399 0.26055217 -0.5295086
0.10712293 -0.09476779 0.20344366 0.22457412 0.23676431 0.51422644 0.39429215 -0.37445953
0.15169874 -0.06299031 -0.4262447 0.12466829 0.20023526 -0.26334903 0.0057610413 -0.3823854
0.5335183 -0.26909688 0.20424153 0.706042 -0.2582658 0.25332084 -0.0035543505 0.18968672
0.091409564 0.3245532 -0.19689803 -0.14129008 0.016122315 0.23335262 0.33837563 0.18619023
0.14054693 -0.12994331 -0.14873466 0.05660987 -0.037684575 0.6921212 0.16663665 -0.3377971
0.08798459 -0.01858435 -0.025534002 -0.27966884 0.25193763 0.25953397 -0.036981426 0.37802002
0.81450015 0.24278718 -0.47090644 0.14590864 0.18268752 0.08947159 -0.3887604 0.17355394
-0.36553308 0.4333996 0.067351185 -0.055952165 -0.52024704 -0.08741988 -0.07304002 0.1120678
-0.16420205 0.53386176 -0.07034437 0.20710868 0.34974396 -0.42876878 0.29630062 -0.41304454
-0.2290921 -0.02375057 -0.015488343 -0.24009578 0.0073614134 -0.3729097 0.40016943 0.074832045
-0.032548342 0.29725212 -0.50342065 -0.1398784 0.09224547 0.031072883 0.042888284 -0.10174072
0.33682302 -0.4366424 -0.15394509 -0.30509686 0.14705494 0.038590938 0.14823802 -0.12934195
-0.16181126 0.13091207 0.35186496 -0.28782395 0.21740735 -0.22002907 -0.15852083 0.004669588
0.03987213 0.36014697 -0.4029229 0.36697802 -0.24110936 0.1620891 0.30229014 -1.0556654
0.4891218 -0.2890371 -0.101552024 0.6427634 0.38285092 -0.19281195 0.09884053 0.038336433
0.61816317 0.52050066 -0.05885362 -0.83287996 -0.031762768 0.05372904 0.3239303 0.29218698
0.654025 0.7149175 -0.2403986 0.038336493 -0.38855553 0.22866817 0.4220744 -0.3796586
0.35051185 0.5942173 0.071285516 -0.40483448 -0.33027986 0.5480497 -0.15900227 -0.09586936
0.5199769 -0.30412188 -0.30876994 0.089076765 -0.012741182 0.18154156 -0.13857497 0.8184992
0.725439 -0.28128698 -0.04257919 0.54600924 0.06334462 0.23684202 -0.1713188 0.8964155

weight_hh_l0_reverse f4 [52, 13]
00000000: c07c b13e 71fd 45be 14b7 7b3e 53d2 0c3d
00000010: 96b9 0dbe a7a3 b43e e001 8cbe b237 013f
00000020: 656a 09bf 60c3 9c3e fb0a 72be 9180 663e
00000030: 29c9 9f3e 26a1 763e b609 01bd 1f05 d0bd
00000040: 53b5 b03d fc78 813c b8de 5cbd d822 bbbe
00000050: 98f6 95be dc89 96bd 972b 15be cae4 993d
00000060: d1d6 01be 0765 f9bd c287 af3e 6fdd 8ebe
00000070: 432f 183e 8d14 a5bb 1e2d 23be a362 1b3f
00000080: 1a27 08be 11bc 033e c4a1 b6be db1e 9c3e
00000090: 968b c5bd b362 3c3d 988a 263e 5db0 2a3b
000000a0: 1ce1 0abf 5ce2 a83e 3603 8a3e 2bfb 04be
000000b0: 2515 b13e bc4e 083f 246b 413e 95f6 f6bb
000000c0: 26b6 8e3e 8596 05bf 3273 863e 5ea1 8d3e
000000d0: 3f59 bc3e 9cb7 ff3d 5112 a53e f166 5dbc
000000e0: 8603 b0bd bace 6e3d 963d 17be 171b b23d
000000f0: 81d8 973e a1b5 693d 80e0 41bd ba10 4a3e
00000100: dc9f 7c3d 2b66 553e fb8b 973d 8e5d 83be
00000110: 8983 ba3d bb70 0f3d a91d d5be 7ae1 be3e
00000120: 1e81 013e 5455 a8bc 6e8d ce3d 49e5 64be
00000130: 97b2 073e 1e9d a13e 04ba 8abe 4c55 86be
00000140: 0b87 44be 9847 7d3e b63c 78be 2919 53bd
00000150: 3a90 e7ba 4f46 0d3f 3bd6 2a3d b2ab fa3e
00000160: 4cbd 1abe 94fb b03e dd8f 813d 8692 833e
00000170: 5fe7 073e 2443 583e 92ef 5a3e 1cca 9b3d
00000180: e542 5e3e 835f bf3d 135b dfbd fe62 273e
00000190: b797 013e 17b9 673d 9138 343d ff6c 00be
000001a0: 7ae4 6ebc 0552 6dbe 8675 de3e b6a6 7a3e
000001b0: f9d8 04bf eac3 703e 5677 d5be 9979 f83d
000001c0: e5ed c7be 0afd 8e3e b64f e2bc 3d96 8c3e
000001d0: b14f ac3e 0039 c63e be68 3ebc 0599 113e
000001e0: e9a4 7b3e f2d2 97be 0458 b23e 080e 07be
000001f0: db04 2bbe c911 853c 5595 c73d a961 b8bd
00000200: 1be9 e9bc 28bf dcbd e87d d9bd ecb6 04be
00000210: 673c 0cbd a1bd bfbd 518a f7bc 087e b43c
00000220: 2872 52be 51c9 ac3d 85a2 47bd 8fdb bf3d
00000230: 02cc a03d 1f2d d33d df8d 153e 3a48 7ebd
00000240: 538e 243d cf1c 163e 41fb 21bd 3d00 c7be
00000250: 6997 3bbe 44dc 183d 4336 d13e d192 84be
00000260: 0785 f9bc cb28 06bf 18a9 9f3e 503e 613d
00000270: f4fe 0bbe 20a1 c6bd 4307 4bbc c9d1 863d
00000280: 108d 0dbe bc44 063e 25ce 46be 8f0e 3e3e
00000290: 7c3c ffbd 05b4 c23e 1693 a5be ed0b c93e
000002a0: 6ac3 1b3f 5782 81bd 32fe 75be 1040 15be
000002b0: 5886 bb3e 1988 86bd ef2c de3e a75f 80be
000002c0: 2c39 613e b17e 7f3e d437 093e 053f 1ebe
000002d0: 91a7 00be 04f9 773e 217a abbe 40d2 963d
000002e0: fab6 bf3d 870a 92bd b92e 6a3e f6a3 8d3e
000002f0: 9b1b 27bd 61ef aabe afa6 9ebe b7e7 1cbe
00000300: 3426 bcbb ecf0 203e 7e07 9dbe f839 c83e
00000310: 00ad 89bc 6948 b83e 916c b4be 41f6 2cbd
00000320: 5bb7 703d 872e 033d 5304 773e 7438 cdbd
00000330: 192a 213e be41 cd3d e813 d7bd aa8f 653e
00000340: 1275 9dbe 83e9 66be 3422 1b3e 78f3 a73e
00000350: 4db8 cdbe 7c52 9d3e 17c8 adbd 6eab 9b3e
00000360: 31e9 203e 05d5 003e 0e5b 8f3c f2c3 b83d
00000370: 4f29 253e 978d a13e 94da 26bb d0dc 83be
00000380: c425 ba3e 763f be3d a0f1 18be 1e45 c53e
00000390: b812 2f3e b7a0 16be 5be1 c93d 3cc0 dcbd
000003a0: 6631 043f a058 063e fab7 5e3d d7c6 6c3c
000003b0: 2851 443e 15d1 51be 2c15 82bd 188f 72be
000003c0: acdf 0c3e 7390 803e 7038 ac3e c2a8 e4be
000003d0: 0246 59bd 57e1 e9bd e7fa c93d 5377 2f3e
000003e0: ead1 14be 4aab 093e 7943 b23d d992 6abe
000003f0: 1a96 de3d e6cc 09be 0241 5e3b 93f5 6b3d
0.3466549 -0.19334961 0.24581558 0.03438027 -0.13840327 0.35281107 -0.2734518 0.5047561
-0.5367797 0.3061781 -0.23637001 0.22509982 0.3120816 0.24084911 -0.0315034 -0.10157227
0.08628335 0.01580476 -0.05392334 -0.3655002 -0.292897 -0.07350513 -0.1456741 0.07514341
-0.12679602 -0.121774726 0.34283262 -0.27903315 0.14861779 -0.0050378502 -0.1593518 0.6069738
-0.13296166 0.1286471 -0.35670292 0.3049229 -0.096457645 0.045992564 0.16263807 0.0026045062
-0.5424974 0.32985198 0.26955575 -0.12986438 0.34586444 0.5324514 0.18888527 -0.007536719
0.27873343 -0.521828 0.26259762 0.27662176 0.3678684 0.124861926 0.32240537 -0.013513313
-0.08594422 0.05830262 -0.14769587 0.08696573 0.29657367 0.05705798 -0.04733324 0.19732943
0.06167589 0.20839755 0.07399746 -0.25657314 0.091071196 0.035019618 -0.4162419 0.372814
0.1264691 -0.0205485 0.10085569 -0.2235309 0.1325172 0.31565183 -0.27095044 -0.2623695
-0.1919214 0.24734342 -0.2424191 -0.051537666 -0.0017666884 0.5518541 0.041708212 0.48959118
-0.15111274 0.3456694 0.06326268 0.25697726 0.13271855 0.21119362 0.21380451 0.07606909
0.21705206 0.09344389 -0.10906043 0.16346356 0.12655531 0.056573 0.04399926 -0.12541579
-0.01458084 -0.23175819 0.43449038 0.24477658 -0.51893574 0.23512235 -0.4169261 0.12132568
-0.39048687 0.27927428 -0.0276259 0.27458373 0.3365455 0.38715363 -0.011621652 0.14218529
0.24574627 -0.29653126 0.34832776 -0.13188946 -0.16701071 0.016243832 0.0974528 -0.09003002
-0.028553536 -0.10778648 -0.10619718 -0.12960404 -0.03423729 -0.09362341 -0.030217322 0.022032753
-0.2055136 0.084368356 -0.048738975 0.09368049 0.078514114 0.103113405 0.14604901 -0.0620806
0.040174793 0.14659427 -0.039546255 -0.3886737 -0.18319477 0.037319437 0.4086171 -0.25893262
-0.03045894 -0.52405995 0.31183696 0.054991066 -0.13671476 -0.09698701 -0.012391868 0.06582982
-0.13823342 0.13112158 -0.19414575 0.18560241 -0.12462708 0.3802797 -0.3233878 0.3926691
0.60845053 -0.063236885 -0.24022749 -0.14575219 0.36625934 -0.06568927 0.43393657 -0.25072977
0.21994466 0.24950673 0.13400203 -0.15453728 -0.12563922 0.24216086 -0.33491614 0.07364321
0.09361072 -0.07130914 0.22869386 0.27664155 -0.04079781 -0.33385757 -0.30986544 -0.15322767
-0.005741859 0.15716904 -0.3066978 0.39106727 -0.016806126 0.35992745 -0.3523908 -0.042227034
0.05876861 0.032026794 0.24122743 -0.10020533 0.15738715 0.10022305 -0.10501844 0.22418085
-0.3075338 -0.22550015 0.15149766 0.3280294 -0.40179673 0.30726993 -0.0848543 0.30404228
0.15713955 0.1258126 0.017499473 0.090217486 0.16129039 0.31553337 -0.0025459873 -0.25754404
0.36356938 0.09289448 -0.14935923 0.38529295 0.17096984 -0.14709745 0.09857436 -0.10778853
0.51637876 0.13119745 0.054374672 0.014451704 0.19171584 -0.20489915 -0.063516945 -0.23687398
0.13757199 0.25110206 0.33636808 -0.44660002 -0.05304528 -0.11419933 0.09862309 0.17135362
-0.14533201 0.13444248 0.08704276 -0.2290758 0.10868473 -0.13457069 0.003391326 0.057607245

bias_ih_l0_reverse f4 [52]
00000000: 3781 203e f527 313e 5806 00bd 4f8c ae3e
00000010: 42ab f5bd 5a8b d53e fe59 293e 9dbe 6c3e
00000020: 68b5 8c3e 7477 7a3d 3b95 26be 0e58 3a3e
00000030: b4f8 d23e ddb2 71bd 7e41 103d c36c 1bbe
00000040: 8676 cc3d bb1f d43d 1a69 28be 4f53 853e
00000050: 408d b6bd df47 43bb e67b dbbc 07b6 3b3e
00000060: 61c0 a03d cbb5 c43c 283f 9a3e a37a 78be
00000070: 4215 59bd e7a7 f93d adf8 4c3c 0929 68be
00000080: 52fe 033e dd83 563d a690 d63d 85f5 d23d
00000090: 187b 98be 9d92 823e 75e5 753e b308 0e3e
000000a0: 1bd2 84bd 9d13 563e 1362 48bd 5566 163e
000000b0: ad62 a13e e10d 0a3e 16a2 77be f7bb 0ebc
000000c0: e578 963e 1c71 57be 074c 3dbe e71f 193e
0.15674292 0.17300399 -0.03125605 0.34091422 -0.119955555 0.4170788 0.16538236 0.23119588
0.27482152 0.061149076 -0.16267864 0.18197653 0.4120537 -0.059008468 0.03521871 -0.15178208
0.09983544 0.103576146 -0.16446343 0.26040122 -0.0891366 -0.0029797477 -0.026792478 0.18331157
0.07849193 0.024012467 0.3012631 -0.24265532 -0.05299879 0.12190228 0.012510461 -0.22671904
0.12889984 0.05237185 0.10476808 0.103007354 -0.29781413 0.25502482 0.24013312 0.13870506
-0.06485387 0.2090592 -0.048921656 0.14687474 0.31520596 0.13481857 -0.24182925 -0.0087118065
0.2938911 -0.21039242 -0.18486033 0.14953576

bias_hh_l0_reverse f4 [52]
00000000: 2dfd 8a3e 8fa2 3a3e 4cf3 35be 152b c73e
00000010: 44ec c5bd 96f4 c53e cb4c 12bd 6154 6d3e
00000020: b2c9 c33e e476 763e 7b76 483e d16b 813e
00000030: 0a9f b93e ac9f c63e 04a2 423c 0af7 b83e
00000040: 96fd f1bd d350 4b3e 3132 ec3d c415 8cbb
00000050: 0a20 933c a72d b4bd def4 503e 4185 32bc
00000060: 720c a13e 3133 a03d e7b1 72be 1dbd a7bd
00000070: 1656 6d3c a624 d93c 981d efbd 3c1a 823e
00000080: d829 923d 4ba6 ba3d d0a4 52be 0773 8d3e
00000090: 29d8 86bd 11f1 653d 85ad 3cbc 6dc6 7d3e
000000a0: b187 5abe 3e56 f13d 75d4 70bd 160f b53e
000000b0: df4d ab3e 2757 813e 9298 7a3e 4817 973e
000000c0: 5dff 78be 5833 a83e 2d27 28be 69c1 103f
0.27146283 0.18226074 -0.17768592 0.38900056 -0.09664205 0.38663167 -0.035717767 0.23176719
0.3823982 0.2406879 0.19576447 0.2527757 0.3625415 0.38793695 0.011879448 0.36125976
-0.11815946 0.1985505 0.11533011 -0.0042750556 0.017959613 -0.0879777 0.2040591 -0.010896028
0.31454808 0.07822264 -0.23700677 -0.08190367 0.0144858565 0.026506733 -0.116755664 0.2541064
0.07136887 0.09113749 -0.20570683 0.2762682 -0.06584198 0.056138102 -0.01151598 0.24782725
-0.21340825 0.117840275 -0.058796365 0.35363072 0.33457848 0.25261804 0.24472263 0.2950995
-0.24316163 0.32851672 -0.16421194 0.5654512

weight f4 [16, 260]
00000000: dd1f c53c 415e dabd c3c0 f73d 11da f73d
00000010: 387e 0ebc b8e5 9bbc d33b b1bb e6fb efbd
00000020: 3ca5 ca3d b97e 6dbd b8f6 53bd 6cfa 67bd
00000030: 1a4b 2e3d fb2f a83d a57d 24bd 143d 41bc
00000040: e790 c5bd 7023 dbbd 26f6 1fbc 356a 8ebb
00000050: 1fa0 fa3d c006 47bc b4d9 283c 232b b03c
00000060: be58 b6bb c995 adbd fd96 2b3c a829 0fbe
00000070: c764 afbb 4935 bf3c 6006 f239 b45e a0bd
00000080: 11e8 313c 0948 83bd d1ca 9d3c 6c02 b2bc
00000090: 0325 2cbd c7d5 a4bc b79c 3bbd 5f99 b33d
000000a0: a27a dfbb a478 e93b 1610 413c e1f2 983d
000000b0: df11 823c 9f4a e63b 29be b9bd b951 abbd
000000c0: 9bac 123e 7ba8 aabc b710 04bd 2d9b cc3c
000000d0: 7328 4abd 305a b4bd 8569 303c c690 34bd
000000e0: 9b87 6d3d 3731 30bc 8580 c1bd 01ff 15be
000000f0: 9c7b f2bd 3b25 7e3d e92f 08bd a9c4 a8bd
00000100: e1bb 123e 7173 963b f648 1dbc 697d 823c
00000110: b285 013c 4968 833d 0a77 633e ba2d 2fbd
00000120: a4ce b43c d2a4 843d dc4a ae3d 8b5b 5b3e
00000130: 3da1 513d 8377 12bd fd18 08bd 1a75 9f3d
00000140: f3d8 733e 602d ffbd 2009 b23d e5ef 3dbd
00000150: bd7f f53d 3098 c8bd 7a79 413d 91d2 3ebd
00000160: 74f6 00be a2ed 833d 30ab ef3d 44ad 0cbe
00000170: e8ae e43d e147 a3bd 1a4f cfbd 2f28 1abe
00000180: 5f43 aebc cfc2 aabd 2834 05be cbe9 143d
00000190: b89e 5abd 98f1 70bd 0f68 9cbd 780b 46be
000001a0: 2cb6 ba3a f24e 9dbd b626 d9bc 1caf cabc
000001b0: 9f62 82bc bb27 9fbc 2951 aabd d31b d7bd
000001c0: 1e4c 26be bd52 f7bc 456a 2dbe c433 3e3d
000001d0: 7763 cfbd bc33 05be 0cfe 35bc 9f03 a23d
000001e0: faf8 c33d 5b90 e4bd 5811 16be ffc9 35bd
000001f0: 6753 b13d 33aa 503d ba0a 04be 0b1c dbbc
00000200: 587c bf3d bf59 88bd a4bb fe3d 5e45 563d
00000210: 9d61 40bd 970d acbd 5a32 343c 345f d0bd
00000220: f152 90bd f2da 0cbc 29a5 7d3e 5e8c 2ebd
00000230: dec0 3fbe eb6b 0abf 2514 2f3e 74de 99be
00000240: 584d dc3d 0a00 eabc ffe8 17bc 25ad fabd
00000250: 1b8d 53bd ac84 533d e8a6 48bc 52cd 9f3d
00000260: b56a 93bc 27ac bc3d 7fa0 063e 93a6 103c
00000270: 93cd 33bd 7182 fcb9 cf65 08bd 77f4 70bc
00000280: b98e c23d 13f0 853d 8c7c d7bc 69ea 2b3e
00000290: 0139 2d3b 1fb3 733d 97f6 16be 2177 9cbd
000002a0: 51aa 89bc f557 903d c56e debc b837 213e
000002b0: 6042 d6bc b158 393d 7712 f8bd 247f 6f3d
000002c0: a48c e2bd 5c1b 183e df38 483e bee5 febd
000002d0: 9418 00be 1348 8b3c 734d 15bd e904 813d
000002e0: c615 b0bd dc63 a0bd 8989 dabd dc9e 3b3e
000002f0: 4dab e03d 1c58 afbd 755b d13c 6fc0 c0bd
00000300: ae3a 053c 6cb5 81bd f91e 38be a27d dbbd
00000310: 68c4 b2bd 9ad5 acbc e44b 4a3d 798d e43d
00000320: 0cb1 6f3e 272a ed3d c6e7 fc3d fcba 253c
00000330: c0b2 acbd 06ea 0fbc 3e2c 87bd 6fd8 b43b
00000340: bcd4 23bd e663 a23d 080b 373d 64f3 25bd
00000350: 2a43 013e 4cea 893d e1be 653e 0bec 5f3c
00000360: 196b 34bd 56ef 283d 1fb9 61bd cd8c 063e
00000370: cc9b bf3d 8de1 e7bd 0328 f0bd 5d67 903d
00000380: 2b58 1c3d ea8d 7abd a2f3 2ebd 3fd4 083e
00000390: 0592 533c c320 32be efe8 2ebd 7411 163e
000003a0: 6611 cfbd 6ef2 3a3d 6302 3e3c 600c a9bd
000003b0: 9483 333d e28a 863d 22bd e63c 75d8 47b8
000003c0: e4b2 113e d1af c23d b298 963c 8ff0 b33b
000003d0: 3b6a 2cbd f5d5 98bb e458 bebd f08f c6bc
000003e0: 634a 1f3e 9e5d 8d3e 474a f5bd 6731 953d
000003f0: c167 e83d 6288 0d3e a1e9 80bd d369 dbbd
0.024063045 -0.10662509 0.12097313 0.1210214 -0.008697085 -0.019030437 -0.005408743 -0.11717968
0.09894797 -0.05798218 -0.05174896 -0.056635305 0.04255209 0.082122765 -0.040158886 -0.011794347
-0.096467786 -0.107001185 -0.009763276 -0.004346157 0.12237572 -0.012147605 0.010305811 0.021504944
-0.005564778 -0.08475835 0.01047301 -0.13980734 -0.00535259 0.023340838 0.00046162587 -0.07830563
0.010858552 -0.06410224 0.01926175 -0.02172967 -0.042027485 -0.020121468 -0.04580375 0.087694876
-0.006820039 0.007124977 0.01178362 0.074682005 0.015877662 0.0070279385 -0.09069473 -0.08365197
0.14323656 -0.02083229 -0.032242503 0.024976337 -0.04935498 -0.088062644 0.010767345 -0.04408338
0.05799065 -0.010753921 -0.09448341 -0.14648058 -0.11839983 0.062047224 -0.033248816 -0.08240635
0.14329483 0.0045913984 -0.009599915 0.01592894 0.007905411 0.06416375 0.22213379 -0.042768218
0.02207119 0.064767495 0.08510372 0.2142164 0.05117916 -0.035758507 -0.033226956 0.07786007
0.23813228 -0.124598265 0.08693147 -0.04637136 0.11987255 -0.097946525 0.04723499 -0.04658753
-0.12594014 0.06441809 0.11702573 -0.1373797 0.11166173 -0.07972694 -0.10122509 -0.15054391
-0.02127236 -0.08337938 -0.13008177 0.036355775 -0.053374022 -0.05882415 -0.07637035 -0.19340312
0.0014244965 -0.07681073 -0.026507717 -0.024741702 -0.015916167 -0.019428125 -0.08316261 -0.10503354
-0.16239974 -0.03019082 -0.1693507 0.046436086 -0.10126393 -0.13008016 -0.011107933 0.07910847
0.09568973 -0.11160346 -0.14655054 -0.04438209 0.08658486 0.050943565 -0.12894717 -0.02674677
0.093498886 -0.06657743 0.12438133 0.052312247 -0.04696809 -0.084010296 0.010998333 -0.101744086
-0.0704707 -0.0085971225 0.24770035 -0.042614333 -0.18725917 -0.5407092 0.17097528 -0.3005253
0.1075694 -0.028564472 -0.009271859 -0.12240056 -0.05164824 0.051640198 -0.012246825 0.078028336
-0.017995218 0.09212523 0.13147162 0.008828777 -0.043897223 -0.00048162372 -0.033300217 -0.014706722
0.094998784 0.06539931 -0.026304506 0.16788639 0.0026431682 0.059496995 -0.14742504 -0.076399095
-0.016804846 0.070480265 -0.027152428 0.15743911 -0.026154697 0.0452506 -0.12112897 0.05847086
-0.11061981 0.14854187 0.19552945 -0.124461636 -0.12509376 0.017002141 -0.036450814 0.06299765
-0.08597903 -0.07831547 -0.10670764 0.18322319 0.10970173 -0.085617274 0.025556305 -0.09411704
0.008131666 -0.063334316 -0.17980565 -0.10717322 -0.08728868 -0.021097947 0.04938878 0.11159796
0.23407382 0.115803055 0.12348895 0.010115381 -0.08432531 -0.008783823 -0.066002354 0.005518965
-0.0399978 0.0792921 0.044688255 -0.04051532 0.12623277 0.06734142 0.22436096 0.013667117
-0.04404745 0.041243874 -0.055108186 0.13139649 0.09355888 -0.11322317 -0.11726382 0.07050965
0.03817002 -0.061170496 -0.042712815 0.13362215 0.012913232 -0.1739531 -0.04270261 0.14655095
-0.1011074 0.045641355 0.011597249 -0.082543135 0.043826655 0.065694585 0.028166357 -4.764689e-05
0.14228398 0.095061906 0.018383358 0.0054913233 -0.042093497 -0.0046641775 -0.09294298 -0.024238557
0.1555572 0.27610487 -0.11977058 0.072848134 0.113479145 0.13821557 -0.06294561 -0.10713544

bias f4 [16]
00000000: 4f69 283d 1fd7 213d b48f 7fba ef7b 07bc
00000010: 97d1 763d b271 2c3d 004e 2fbc da1c e5bc
00000020: 892b 40bd 9be6 00bd bf6f 953c cb5e 213c
00000030: b492 b6bc c6ec 86bd 9794 4fbb 428c 33bd
0.041116055 0.039511796 -0.00097488915 -0.008269294 0.060258474 0.042100616 -0.010699749 -0.027967859
-0.04691652 -0.031469923 0.018241761 0.009849261 -0.02228675 -0.0658813 -0.003167426 -0.043834932

weight f4 [30, 16]
00000000: 631c 0a3d 86e6 ea3b 6144 85ba f54a d1bd
00000010: 82e3 863b d341 653c 1996 10bb adcb 17be
00000020: 449d deba f665 9cb9 d9b4 353c 0d56 c139
00000030: 3d8f 913a dc51 0d3e 7710 0e3c c839 cebd
00000040: f996 5f3d 4f0d b63c d633 813b 9eda d8bc
00000050: c7b4 813c 6aa0 cf3d 8ab4 1abe 44f5 183e
00000060: 9f1f fb3a c9b4 4fbc cafe 8c3c 4b8f 793c
00000070: 3739 1f3c 95e8 3bbe 2a13 8c3c 2e94 0dbe
00000080: 9598 203d 2281 4f3e 473e 3e3d 77a0 fcbc
00000090: e177 2e3e 19ad 95be e8b5 25bd f2de 84bc
000000a0: d354 e7be 4995 2e3f e179 093f 76c7 febd
000000b0: ca1f 9dbe 8da0 a8bd 0d9d 12be dafe 2d3c
000000c0: 0154 8abc 8358 adbb 4e21 afb7 ce37 973e
000000d0: 88a7 bdbb ffcf 53be 9709 cf3e ac0a 85bd
000000e0: a437 4eba 88a1 a93b 9997 f2bb b628 0ebc
000000f0: 9956 ecbb b8c0 59be 5923 02bc 77a4 36be
00000100: 6331 613c 7b08 f63b 72bd a6ba dbfd 33bd
00000110: 64a0 09ba 26da da3c 9d70 c9be 762b 693c
00000120: b425 d6bb a897 7e39 6ea5 953a 7564 8a3b
00000130: b508 99bb 9a84 8fbb 61c0 fe3a 8df7 18be
00000140: cd02 533e 0b3c b23d e9c3 0f3f 7c85 babe
00000150: 0437 a6be 443e 813e 5a93 38be d179 8bbe
00000160: eac7 bf3e eac2 8c3e f03f cbbe 08e9 113d
00000170: e2b0 bbbd 23b4 583e 72e9 80be a6e0 c8bd
00000180: 8048 483d 21a3 8c3c 9b5a 23bb 5969 0f3d
00000190: 9031 2f3c d37c a4bc a6a6 863d 77d9 e5bd
000001a0: 9216 41bb 415d 12bc b2d9 763c 5594 4f3c
000001b0: 913b d23b d0cd 61bd 4025 5b3c 32cd 6fbd
000001c0: fa8b 6c3d fc88 923c d2da 1cbb e5a6 38be
000001d0: 61f3 4c3c 6458 0c3d f46f a83e 2780 5b3d
000001e0: 76bc a2bb 0c4c e1bb cbd0 723c 4253 c93b
000001f0: ccc9 4439 9561 923c ccf9 8b3c 52d8 6ebd
00000200: 7bb1 633b 68db 8db9 8535 edba e8e7 8ebd
00000210: f807 efbb 1d29 1ebe 40fa 3d3e f628 99bd
00000220: 1d33 d1bb f223 df39 a3bd b23b 35bd 62bb
00000230: 6811 233b 0950 f8be a327 813b 96f1 94bb
00000240: 769d 4abc d4b0 d03c 0c99 383e 2f89 bbbd
00000250: ee80 873e 9065 333e 5452 593e 144b 813e
00000260: daab 14bd a51e 98be b1bd 3abe 8665 2c3e
00000270: 9eba b43e ad26 f5bd 5784 b3be 9764 8f3d
00000280: 6215 03be 11ac 12bd 5bfd 15be eca3 68be
00000290: 13f6 013e 1257 47bd b0a5 da3d ce97 b2bb
000002a0: 692e e2bc 85ce e03e a7e7 09bf 92dc 0ebe
000002b0: eb85 e23d 22dc c3bc e6f5 903e 27cb a6bd
000002c0: 2a98 35ba 1b27 af3a 5929 9db9 29aa babc
000002d0: a2e4 52b8 c002 dfbc 413a a0bb ae16 043d
000002e0: 3a93 773b 6c71 41bb d120 f939 faf3 db3a
000002f0: 92e9 ec3a 3941 dd3e bb3f 1eb8 7d10 c13c
00000300: 1f63 043d 57e7 cc3b bcf0 b4b9 d2db 7abe
00000310: da2a 993b 572d adbe 1fab 343d b34b 90bd
00000320: 62bb 0eb9 b46d e1bb d333 1f3c 9f7b 263c
00000330: c2d7 bb3b 9dbb f1be 02d1 953b 667f 5c3e
00000340: 9017 623c 279c df3a 5341 e33b a969 5f3d
00000350: 21ec 393c 42eb 933e b14c 873e 9db9 0fbe
00000360: e758 ed3b 87eb 86bc 9345 953b 33a6 3a3c
00000370: 2fbc 753c c7f0 a7bd 7fa8 913b 4bc6 30be
00000380: 345d 493d 5649 693c 55ce 143b 9981 323e
00000390: 13f4 203c 5170 a2be d836 933e 500a 03bb
000003a0: 0e62 c6bb 8959 2fbc b711 c53b bdbc 143c
000003b0: b4d0 0f3b 5ad4 853e d5f0 1f3c ba61 12bd
000003c0: 4cb7 a7bb cd0d 86bb 2684 343b 1e5e abbd
000003d0: 1e3e 803a 1adf e23d 8a20 7ebe f11f 41be
000003e0: f178 2cbb d4c0 873b 85ae 4d3b 64a1 05bb
000003f0: 9265 82ba add5 313e 7237 6c3a 87a0 c0bc
0.033718478 0.007168594 -0.0010167473 -0.10219375 0.0041164765 0.0139927445 -0.0022062121 -0.1482379
-0.0016984125 -0.00029830605 0.011090481 0.0003687594 0.001110531 0.13800758 0.008670918 -0.10069615
0.054587338 0.022223143 0.003942947 -0.026471432 0.015833272 0.101380184 -0.15107933 0.14937311
0.0019159204 -0.01267738 0.017211337 0.015231918 0.009718231 -0.18350442 0.017098982 -0.13826057
0.039208014 0.20264104 0.04644611 -0.030838234 0.17037918 -0.29233626 -0.040456682 -0.01621959
-0.45181903 0.6819654 0.537016 -0.12440388 -0.30688316 -0.08233748 -0.14317723 0.010619843
-0.01688576 -0.0052900924 -2.0877134e-05 0.29534763 -0.0057877935 -0.20684813 0.40437004 -0.06496176
-0.00078665675 0.0051767267 -0.0074033258 -0.008676698 -0.0072124717 -0.21264923 -0.007942998 -0.17836176
0.013744685 0.007508335 -0.0012721254 -0.043943267 -0.00052500353 0.02671535 -0.3934373 0.014231553
-0.0065352563 0.00024279824 0.00114171 0.004223401 -0.0046702274 -0.004379821 0.0019435995 -0.14938183
0.20606537 0.087028585 0.5615831 -0.36429965 -0.3246385 0.25242817 -0.1802496 -0.27241376
0.3745721 0.27492458 -0.39697218 0.035622627 -0.09164597 0.21162467 -0.25178105 -0.09808473
0.048897266 0.01716763 -0.0024925831 0.035012577 0.010692969 -0.020079052 0.065747544 -0.11223119
-0.0029462916 -0.008933366 0.015066551 0.012669642 0.0064157923 -0.05512792 0.01337558 -0.0585453
0.05775068 0.017887585 -0.0023934138 -0.18032415 0.012509198 0.034263983 0.32897913 0.053589012
-0.004966314 -0.0068755206 0.014820288 0.0061439583 0.00018767192 0.017868796 0.017086886 -0.058311768
0.0034743238 -0.00027057086 -0.0018097615 -0.06977826 -0.007294651 -0.15445371 0.18552494 -0.07478516
-0.006384267 0.00042560656 0.0054547354 -0.003459764 0.00248822 -0.48498562 0.0039414926 -0.004545401
-0.012366643 0.025474943 0.18027133 -0.09157025 0.26465553 0.17519212 0.21222812 0.25252593
-0.036296703 -0.2971088 -0.18236424 0.16835603 0.35298628 -0.119702674 -0.35061905 0.07001608
-0.12801126 -0.035808627 -0.14647429 -0.22718781 0.12691526 -0.04866702 0.10676134 -0.0054502254
-0.02761002 0.43907562 -0.538691 -0.13951328 0.11060699 -0.023908678 0.28312606 -0.08144217
-0.0006927276 0.0013363095 -0.0002997618 -0.022786217 -5.0280833e-05 -0.027222991 -0.004889757 0.03224819
0.0037776963 -0.0029517068 0.0004751743 0.0016781085 0.001807498 0.43213823 -3.772949e-05 0.023567433
0.03232109 0.006253164 -0.00034511636 -0.24497917 0.0046742978 -0.33823654 0.044108506 -0.070456885
-0.00013611981 -0.0068795327 0.009716946 0.0101613095 0.0057325074 -0.4721345 0.004572035 0.21532974
0.013799563 0.0017060087 0.0069352775 0.054544125 0.011347801 0.28890425 0.26425698 -0.1403565
0.007243264 -0.01646973 0.004555413 0.011392164 0.01499848 -0.082002215 0.004445135 -0.17263143
0.04916115 0.014238676 0.0022705991 0.1743225 0.009823817 -0.31726316 0.2875278 -0.001999516
-0.0060541695 -0.010702499 0.0060140747 0.009078202 0.0021944465 0.26138574 0.009762009 -0.03573773
-0.0051182862 -0.0040910007 0.0027544587 -0.08367561 0.0009784137 0.110777095 -0.248171 -0.18859841
-0.0026317204 0.00414286 0.003138454 -0.0020390386 -0.0009948483 0.17366667 0.00090109475 -0.023514045

bias f4 [30]
00000000: b101 8cbd ac02 81be 4fed 1ebe 71b7 bf3d
00000010: 2d21 31bd 23eb 9d3c 13f7 3ebe 1545 33be
00000020: 946e 403c 430a fb3d 07c2 3dbe f0e7 bfbc
00000030: 4c74 dfbd 9113 edbd 122f 1bbe 0726 853c
00000040: 1b3f 8c3d e80b c3bd aebb f3bd 8e17 a73d
00000050: b976 1d3e 9dcd d7bd eded a4bc cf64 48be
00000060: 54e1 383e 8831 d5bd 1c97 52be 5254 463c
00000070: cbfb 78bd 9f5c 423d
-0.0683626 -0.2519735 -0.15520214 0.093611605 -0.04324453 0.019277161 -0.18648939 -0.17506821
0.011745114 0.12257817 -0.18531047 -0.023426026 -0.10910854 -0.115759976 -0.15154675 0.016253484
0.06847974 -0.09523755 -0.119010314 0.081587896 0.1537732 -0.105372645 -0.020132983 -0.19569705
0.18054706 -0.10409838 -0.20565456 0.0121050645 -0.060787003 0.04745161

weight f4 [30, 16]
00000000: ef9a 973e 76b3 c4bd 5b13 77bd e9d6 bebe
00000010: 9287 3f3c 56a4 5c3c 4767 7ebe 851c 5dbd
00000020: f6a7 9bbc 44c4 d9bd 09e7 00bd d0ea 14bd
00000030: c4d7 35bd 60e8 803e a9eb 16be a0b8 7b3e
00000040: 4f5e a33e fdcc a1bd 751a cabd 8b20 d83d
00000050: 11a6 4d3b 7053 3f3d 79c5 8dbe 60f8 d23d
00000060: 2d44 84bc ab7b 66bd dbd6 2abd 04a8 9cbd
00000070: 8f64 9abd 1abe 2b3e b53a 0abe faa2 cfbe
00000080: 9e3b 3d3f fbd6 bbbd 8e25 3dbd 2d8d 803c
00000090: abf1 4fbe c5ae 24bb ebef e3be 74ee a73c
000000a0: 9edc 80bd 10a3 84be c003 88be 5511 70bd
000000b0: eac2 edbd eaad d5bd c9e6 b9be ab65 203e
000000c0: 7986 693e cf68 96bd 89b3 94bd 5628 02bd
000000d0: c04d bbba c332 923e 88c2 95be aa56 c33d
000000e0: 5c50 b83c 6f9b debd b191 65bd b6a8 813c
000000f0: 709f b8bc 9496 27bd dc58 61be 2e3e b5be
00000100: 2607 a03e ea86 84bd c071 d2bd 423e 77be
00000110: a5c6 b53b 9e7f f93d dd69 a63e c257 01be
00000120: 68cb 81bc 4cdd adbd c23f 3dbd d790 21bd
00000130: 444f 91bd cbf4 28be 5680 ffbd 55cf 9e3e
00000140: a15c b03e 5cd2 19be dd96 6abb 66b6 18be
00000150: c5ee 9fbd ba84 1f3e 6beb 2cbe 9bfb 803e
00000160: 5df0 ddbd a17d 96be 8fc6 54be bbc4 5bbe
00000170: 7b29 41be 8d98 ab3e 7fc6 83be 2d62 99be
00000180: de1b 933e 7da8 afbd f55c bfbd ea78 063d
00000190: 39d7 b2ba 3c9f 9b3e 1616 ffbd 8ab6 83be
000001a0: 1156 86bc 5425 86bd f132 5bbd 9920 85bd
000001b0: 4d96 a3bd 15f9 823c 0deb 0bbe 82a8 ae3e
000001c0: 6c54 a13e dc29 7bbc 46c4 c4bd bec6 36bd
000001d0: d120 e9bc f39d 993d dd96 1ebe 8e3e 6cbd
000001e0: 6727 cf3c e034 8dbd 337e c7bd 8e16 fdbc
000001f0: f3c2 67bd 6180 80bd 3e5d 38be af4e 91bd
00000200: 34c0 833e 4b4f 38bd e574 3fbd 3265 bc3d
00000210: b822 25bc 693c c63e c05b 213d 4a30 e2be
00000220: c84d 8fbd 02b6 8abd 8b2d 1cbd cdd3 debd
00000230: 8cf5 06be 516c 6fbe b3ea d1bd 293b 4cbe
00000240: 2701 0a3f d6a8 bd3c 0c97 babe cac4 cf3d
00000250: ec69 9cbd 0ee4 063e 8dc6 6f3e 2d91 233f
00000260: 08c2 10be 85ae a93b 826b 2cbd b90c d6be
00000270: 2636 c6be 1fe0 ac3d 590b aebd 65f5 453e
00000280: cfdd 323e 07f9 57be ad0e 54be 33ca 4fbe
00000290: d743 e1bd 501e 813e 15a0 393e acd8 ee3d
000002a0: 3ca3 fb3a 3a48 83be 0832 90be c8b9 073c
000002b0: 497b 57bc 9381 b9be e86f c4be 40f0 fc3e
000002c0: 441e a33e cca6 a0bc 417a b9bd 2473 93be
000002d0: 6668 8c3c 7f6b 933e 9a91 bf3d 4f96 67be
000002e0: d767 88bd 1395 38bd e55a 473c ebc7 97bd
000002f0: f4bc f5bd 32ce 993e babc 0ebe 067e 6cbd
00000300: 3afa bc3e 69a6 0a3c bb8d 08be 5336 283d
00000310: aa1a 2c3c e045 dc3d 76a9 cabe 333d 53bd
00000320: 405c 85bd 86f7 71bc 75f7 ce3a ebb4 c8bd
00000330: 39c1 03be 4e32 863e ebf4 f0bd 2c06 d03d
00000340: a164 3c3e 6170 7fbc 4d3e 3bbd 618b db3d
00000350: 5407 1cbd cc9b 3bbe f2d6 543d 2dfc 5f3e
00000360: c1fc c1bc d66b 9ebd bc13 b0bd 05de 86bd
00000370: 9461 eabd 432e 9d3e cb31 34be 6dcf 87bd
00000380: a0ad 7e3e 3565 82bc 4e7f 5cbd 6c97 8dbd
00000390: 8011 2fbd 012c 123e 0a65 61be ae0b 2fbe
000003a0: 1f64 c3ba f6e7 88bd d597 e0bd d566 13bd
000003b0: febd a1bd 6c16 0dbe 5c37 38be 9f82 163e
000003c0: 5c0b 653e 1fd1 a8bc af29 b63a 305b 92bd
000003d0: e659 66bc 7e8c bebd 8b1d c8be 5aad 86bd
000003e0: 18b6 f9bc 1548 ecbd 2e45 4dbd 86f0 09bd
000003f0: fb7d b5bd 2655 2d3e eaf5 2bbe 872a cf3e
0.29610392 -0.09604542 -0.060321193 -0.37273338 0.011690037 0.013466915 -0.24844085 -0.053982276
-0.019000988 -0.10633138 -0.031470332 -0.036356747 -0.044395223 0.25177288 -0.14738335 0.24582148
0.3190789 -0.079004265 -0.098683275 0.10553082 0.00313795 0.04671043 -0.27689722 0.1030128
-0.01614579 -0.056270283 -0.04170881 -0.07649234 -0.07538711 0.16771737 -0.13498957 -0.4055403
0.73919094 -0.09171864 -0.046178393 0.015692318 -0.20307033 -0.0025128585 -0.4451898 0.020499445
-0.062920794 -0.25905657 -0.2656536 -0.05861028 -0.116094425 -0.10433562 -0.36308888 0.15663783
0.22805203 -0.073442094 -0.07260806 -0.03177675 -0.0014290139 0.28554353 -0.29249978 0.09538014
0.022499256 -0.1086949 -0.056047145 0.015827518 -0.022536963 -0.040915087 -0.22006553 -0.35399002
0.31255454 -0.06471045 -0.10275602 -0.24144843 0.005547362 0.12182544 0.32502642 -0.12631133
-0.015844062 -0.08489475 -0.046203382 -0.03944477 -0.07095197 -0.16499631 -0.1247565 0.31017557
0.3444567 -0.15021652 -0.0035795488 -0.1491333 -0.078092135 0.15577975 -0.1688668 0.2519196
-0.10836861 -0.29392722 -0.20778869 -0.21461765 -0.1886348 0.33514825 -0.25737378 -0.29957715
0.28732198 -0.085770585 -0.09343902 0.032830156 -0.0013644464 0.30394924 -0.124553844 -0.25725204
-0.016398462 -0.065500885 -0.05351538 -0.06500358 -0.07987652 0.015987912 -0.13663884 0.34112936
0.3150972 -0.015329804 -0.09607749 -0.04462313 -0.02845803 0.075008295 -0.15487237 -0.057676844
0.025287343 -0.06894851 -0.097408675 -0.030894544 -0.056582402 -0.06274486 -0.18004319 -0.07095086
0.25732577 -0.044997495 -0.04674234 0.09198989 -0.010079078 0.38717964 0.03939414 -0.44177467
-0.069972575 -0.067729965 -0.03812937 -0.108802415 -0.13179606 -0.23381163 -0.102498434 -0.19944443
0.5390801 0.023151796 -0.36443365 0.101449564 -0.076373905 0.13172933 0.23415585 0.63893396
-0.14136517 0.005178275 -0.042094715 -0.41806582 -0.38713187 0.08441185 -0.08498258 0.19331892
0.17467426 -0.2109109 -0.20708723 -0.20291977 -0.109992675 0.2521844 0.18127473 0.11662421
0.0019198428 -0.25641042 -0.2816317 0.00828404 -0.013151952 -0.3623167 -0.38366628 0.49402046
0.31859028 -0.019610785 -0.09056521 -0.28798783 0.017139625 0.2879295 0.09353943 -0.22615932
-0.06660431 -0.045064043 0.012167667 -0.07411178 -0.119989306 0.30040127 -0.13939181 -0.057737373
0.36909658 0.008462527 -0.13335316 0.041067433 0.010504404 0.10755515 -0.39582413 -0.051572036
-0.06511736 -0.014768487 0.0015790301 -0.09800132 -0.12866677 0.26210254 -0.117654644 0.10157427
0.18397762 -0.015590758 -0.04571371 0.10719944 -0.038092926 -0.1832115 0.0519628 0.21873541
-0.023680093 -0.07735412 -0.08597514 -0.065853156 -0.11444393 0.30699357 -0.1759712 -0.0663136
0.2487092 -0.0159174 -0.053832345 -0.06913647 -0.0427413 0.14274599 -0.220112 -0.17094299
-0.0014907158 -0.06684868 -0.1096646 -0.03598674 -0.07897566 -0.13778085 -0.17989868 0.14698265
0.22367615 -0.02060753 0.0013897921 -0.07146299 -0.014059519 -0.093041405 -0.3908504 -0.06576033
-0.030482337 -0.11537186 -0.050114803 -0.033676647 -0.088619195 0.16927013 -0.16793028 0.40462133

bias f4 [30]
00000000: 9055 99bd ada8 c53d 795b b1be 06cd fdbd
00000010: 9c1a c5bd a07d d3bd a724 de3d 3d1f 1abe
00000020: 0a83 ba3d 6200 8e3d f7a0 68be 7e9b a5bd
00000030: 323e bbbd 373d 983d a5d5 84bd 5a75 5cbe
00000040: 8c00 70bd b25f c73d 14cd 253d 785b 043c
00000050: 7b88 9bbd 1e4f 07be 8c05 4a3e ed48 87bc
00000060: 669d 86be e1c5 c6bd a497 5bbe 32e4 b43d
00000070: 6cdf 5bbe 09f4 82bd
-0.07487023 0.09651313 -0.346401 -0.12392621 -0.09624216 -0.103266954 0.10846835 -0.15050979
0.09107025 0.06933667 -0.22717653 -0.080862984 -0.09142722 0.07433551 -0.06486062 -0.21529141
-0.05859427 0.09735049 0.04047878 0.0080784485 -0.07594391 -0.13213775 0.19728678 -0.016514266
-0.2629196 -0.09705711 -0.21444565 0.08832587 -0.21471947 -0.06394202
