models/a30lds30b0.007g2d1h13.pt (torch, 176095 bytes, 26 tensors)

weight_ih_l0 f4 [52, 4]
0.4929282 0.3564995 0.17364947 -0.3100671 0.650559 0.1612632 -0.0958558 -0.4052081
0.34628144 0.3371713 0.17903732 0.29889086 0.4617261 0.039971355 0.45473474 -0.10223515
0.26221848 0.17162347 0.4911624 -0.20455343 0.23035023 0.25973 -0.05977928 0.09056101
0.2333015 0.04941641 0.0071331253 0.1442455 -0.31130987 0.41903526 0.53373003 -0.3856196
-0.08197709 0.4376517 0.50635433 -0.64010495 0.090532 0.42106906 0.22548042 -0.57737446
0.19503784 0.1361652 -0.36286443 0.06647633 0.053137846 0.35945472 0.6774787 -0.35409516
-0.063197784 0.40549776 0.024766328 0.09522486 0.22734062 0.561825 -0.1626051 -0.33244175
0.5368123 0.426198 -0.39201388 0.054664467 -0.19678366 0.13622878 -0.35878608 0.031951573
0.06021958 0.34336635 0.3982601 -0.26140663 0.46448433 0.5720334 0.36172688 -0.1879694
-0.07210131 0.28384975 0.015767142 -0.312029 0.23357722 0.2636021 -0.1973358 0.8436451
-0.019894915 -0.2684926 0.13041468 -0.022571493 -0.5467703 0.8142516 0.29525015 0.3227099
-0.11264963 0.68088096 0.36261418 0.22080322 -0.018249609 -0.3532075 0.05685829 0.65375805
-0.26533824 0.09701983 1.2750598 -1.3805001 -0.2939825 0.38433492 0.7956864 -0.4763653
0.34559602 -0.07560796 0.33314595 0.069890626 0.095635474 -0.18310417 -0.01392771 -0.31952932
-0.21152306 0.001919451 0.47405532 -0.11520277 -0.13007966 0.06281391 0.47426715 -0.21530868
-0.062297218 -0.014208775 0.7965605 0.33685428 -0.044761993 -0.19864208 -0.13302836 -0.3520997
-0.10223691 -0.07505665 0.10629829 -0.11803953 0.14882207 0.10889878 -0.24515082 0.29393563
0.1306399 -0.5173267 0.15108894 0.077544466 0.060130708 -0.3754189 -0.3931341 0.010466913
-0.36806172 0.2425034 -0.31084532 -0.07179813 -0.551346 0.77691954 0.27225944 0.35634607
0.04643077 -0.3178412 0.094040856 -0.5119577 0.12222818 0.10579012 -0.14400838 -0.14900467
0.33256927 -0.06540098 0.289979 0.19326182 -0.16086406 0.23747618 -0.11520976 0.09561378
0.13265124 0.18542372 0.13050292 0.05446241 0.4987193 0.058579836 -0.008871801 -0.44311777
0.5760262 0.22483826 0.08757957 -0.33457923 0.41152886 0.17891607 -0.7101776 0.28451446
-0.009388585 0.372736 0.32646474 0.39509943 0.053535435 -0.017409122 0.50886554 0.39493328
-0.20171076 0.17655267 -0.14956073 0.17023626 -0.010578957 0.2860557 0.19640656 0.006758598
-0.08626229 -0.12899938 0.03968224 0.20475017 -0.18824083 -0.21731721 0.22572312 0.097546525
00000000: 1661 fc3e 1a87 b63e 2bd1 313e 1dc1 9ebe
00000010: 098b 263f 2e22 253e 0c50 c4bd 7077 cfbe
00000020: cd4b b13e b7a1 ac3e 8f55 373e 3908 993e
00000030: 5d67 ec3e 01b9 233d fed2 e83e aa60 d1bd
00000040: 8041 863e 10be 2f3e a379 fb3e 7476 51be
00000050: eee0 6b3e 55fb 843e 1edb 74bd 0d78 b93d
00000060: 97e6 6e3e dd68 4a3d febc e93b 18b5 133e
00000070: 0264 9fbe ca8b d63e 88a2 083f ef6f c5be
00000080: 9be3 a7bd e213 e03e 70a0 013f ebdd 23bf
00000090: d768 b93d 5d96 d73e 57e4 663e d0ce 13bf
000000a0: 00b8 473e e46e 0b3e 5ec9 b9be be24 883d
000000b0: 12a7 593d 730a b83e 3e6f 2d3f f64b b5be
000000c0: d76d 81bd 679d cf3e c1e2 ca3c 4005 c33d
000000d0: fbcb 683e c3d3 0f3f f481 26be ce35 aabe
000000e0: 886c 093f a036 da3e 0bb6 c8be d9e7 5f3d
000000f0: a881 49be 8f7f 0b3e cfb2 b7be a7df 023d
00000100: cea8 763d b7cd af3e bfe8 cb3e 17d7 85be
00000110: e4d0 ed3e c870 123f 4434 b93e 0d7b 40be
00000120: daa9 93bd c154 913e 182a 813c 44c2 9fbe
00000130: de2e 6f3e dbf6 863e 6512 4abe 20f9 573f
00000140: a9fa a2bc dd77 89be 6d8b 053e dae7 b8bc
00000150: 23f9 0bbf cb72 503f 072b 973e 3b3a a53e
00000160: d9b4 e6bd 374e 2e3f 91a8 b93e 3d1a 623e
00000170: 3480 95bc 9dd7 b4be 3de4 683d b05c 273f
00000180: 6ada 87be 55b2 c63d 2935 a33f 3ab4 b0bf
00000190: e084 96be 8cc7 c43e 1bb2 4b3f 27e6 f3be
000001a0: f6f1 b03e 59d8 9abd 1b92 aa3e d122 8f3d
000001b0: 88dc c33d a97f 3bbe 0d31 64bc 5999 a3be
000001c0: 8099 58be 1796 fb3a 61b7 f23e 6eef ebbd
000001d0: 9a33 05be 94a4 803d 25d3 f23e e179 5cbe
000001e0: 5e2b 7fbd eccb 68bc 64eb 4b3f 2a78 ac3e
000001f0: 5a58 37bd d468 4bbe 9638 08be 6946 b4be
00000200: 9661 d1bd 4db7 99bd ebb2 d93d b6be f1bd
00000210: d064 183e 5306 df3d d108 7bbe bb7e 963e
00000220: 77c6 053e 866f 04bf 0fb7 1a3e a2cf 9e3d
00000230: 9e4b 763d e836 c0be df48 c9be 6a7d 2b3c
00000240: 9672 bcbe d052 783e 1e27 9fbe e60a 93bd
00000250: 0325 0dbf 33e4 463f 9765 8b3e fe72 b63e
00000260: 312e 3e3d 15bc a2be 7e98 c03d a90f 03bf
00000270: c552 fa3d 7ea8 d83d ef76 13be ae94 18be
00000280: 8546 aa3e f3f0 85bd 2178 943e 6de6 453e
00000290: 8cb9 24be f52c 733e 18f3 ebbd 28d1 c33d
000002a0: bad5 073e b7df 3d3e 8fa2 053e fa13 5f3d
000002b0: 2358 ff3e 69f1 6f3d 085b 11bc 55e0 e2be
000002c0: 7476 133f 003c 663e eb5c b33d f84d abbe
000002d0: e9b3 d23e c635 373e 33ce 35bf e1ab 913e
000002e0: 94d2 19bc 41d7 be3e 6326 a73e 794a ca3e
000002f0: f947 5b3d 939d 8ebc 0345 023f b234 ca3e
00000300: 448d 4ebe 39ca 343e 7326 19be 6a52 2e3e
00000310: 5d53 2dbc e575 923e cd1e 493e 3b77 dd3b
00000320: 49aa b0bd 6a18 04be d889 223d 07aa 513e
00000330: 34c2 40be 6788 5ebe f623 673e 79c6 c73d

weight_hh_l0 f4 [52, 13]
0.2776213 -0.09869745 0.14799112 0.1280061 0.37325022 -0.33175877 0.105549976 0.031251237
-0.16827683 -0.044955347 -0.053680956 -0.017488876 0.010527299 0.08795526 -0.355552 -0.048861593
0.2132047 0.10721409 0.22083998 0.015987338 0.08258892 -0.26236174 -0.04795406 0.24814135
0.54811454 -0.2803984 0.03679854 0.19150724 -0.1291965 -0.011909451 0.2379809 0.2463594
-0.274127 -0.26036426 -0.44358972 -0.05744432 0.110061765 0.079452105 -0.054692686 0.2051389
0.089194655 0.41340888 0.004927234 -0.08669914 0.102994844 -0.21899664 0.07016195 -0.079230145
-0.037326813 -0.083181426 0.028001714 -0.045205336 0.23053983 0.27457005 0.14452526 0.21601142
0.035454657 -0.31509736 0.0816299 -0.6159457 0.08154941 -0.16324526 0.25285524 -0.04607672
-0.27021345 0.3938461 -0.27242988 0.18700272 0.11084669 -0.21051323 -0.19282062 -0.13868736
0.09026523 -0.15364441 -0.13304396 0.11593644 -0.14505644 0.058060832 0.10178192 0.15063109
-0.004054392 0.16045623 0.14176026 0.22768083 0.06853946 -0.26264864 0.14293583 -0.17539279
-0.2943229 0.23309258 0.23290834 0.12180949 -0.05129972 0.19488005 0.04050463 0.10942739
0.024827894 0.33574107 -0.15649344 0.17162994 0.14857689 0.25599757 0.28425568 -0.027912572
0.05921199 0.08689669 0.39337736 0.2497144 0.32057512 -0.05000919 -0.08045088 -0.49258986
0.03315474 -0.1487075 -0.015862072 0.2823792 -0.14259954 0.07431334 0.20834497 -0.11156386
0.29803658 0.14915493 0.049905345 0.2756612 -0.26204044 -0.13530226 -0.4649324 0.14232543
0.05458841 0.1909769 0.39275444 0.31378555 1.1078886 0.452567 0.9233273 -0.2848868
-0.19553047 -1.2247539 -0.36754555 -0.5021246 0.23358381 0.6475236 0.043199327 1.0582321
0.90427715 0.85282034 0.18085194 0.7329659 -1.0128804 -0.6274024 -0.6786515 -0.6562137
-0.39477915 0.63884753 -0.074170545 -0.6869604 0.41339728 0.15644906 0.04378497 0.2526269
0.22606035 0.07325521 -0.3385443 -0.4451915 -1.0250497 -0.09437768 0.024389237 -0.051189184
-0.01839451 0.14568207 0.20810708 0.3821405 0.1312249 0.11042619 -0.18651603 -0.2691738
-0.14711265 -0.4044068 -0.010130453 0.09034221 -0.08390739 0.15610287 0.36774167 0.21862315
0.121128276 0.1606229 0.35791588 0.087569475 -0.2924754 -0.07347019 -0.23511891 -0.17123193
0.39337516 0.058375042 -0.28211933 0.13260376 0.11097921 0.03863598 -0.20011488 -0.03705714
-0.038153406 -0.1256023 -0.17004804 -0.017080236 -0.2050894 0.07987963 -0.079633966 0.2220928
0.1588025 0.11922255 0.26097116 0.20679848 0.1682961 -0.33142516 0.0088770185 -0.3258015
-0.23731531 -0.11275643 0.45529118 0.54383296 -0.12856667 0.1554356 0.06992789 0.6147023
0.16452704 0.10391693 -0.33866718 0.10533528 -0.4844269 -0.28111959 -0.38735208 -0.076420926
-0.09345472 -0.32910126 0.21752913 -0.15010612 0.038821 0.135663 -0.054086108 -0.13575661
-0.51848143 -0.098465525 -0.35350692 0.006828862 0.40759408 -0.050337974 -0.15802598 0.28477243
0.25746134 -0.050408617 0.32555908 -0.034548905 -0.51139003 0.25332662 0.02241788 -0.24717268
00000000: 6124 8e3e e321 cabd fc8a 173e 0814 033e
00000010: a71a bf3e 49dc a9be 962a d83d 4c01 003d
00000020: c350 2cbe 1923 38bd 90e0 5bbd d544 8fbc
00000030: b17a 2c3c e321 b43d e90a b6be 1823 48bd
00000040: 5552 5a3e 1093 db3d e023 623e e1f7 823c
00000050: 6124 a93d 4754 86be 7a6b 44bd c418 7e3e
00000060: 3c51 0c3f 6190 8fbe 11ba 163d 791a 443e
00000070: 164c 04be dc1f 43bc 44b1 733e a345 7c3e
00000080: 605a 8cbe 774e 85be 311e e3be bc4a 6bbd
00000090: 1068 e13d c9b7 a23d 7005 60bd ef0f 523e
000000a0: b0ab b63d 54aa d33e a274 a13b 528f b1bd
000000b0: f6ee d23d a840 60be 12b1 8f3d 6a43 a2bd
000000c0: 00e4 18bd 065b aabd da63 e53c 3b29 39bd
000000d0: a212 6c3e 7294 8c3e 6efe 133e 1932 5d3e
000000e0: e738 113d 7154 a1be 942d a73d 9eae 1dbf
000000f0: 6103 a73d c429 27be 3e76 813e f1ba 3cbd
00000100: 6b59 8abe 32a6 c93e ee7b 8bbe a47d 3f3e
00000110: 9703 e33d c890 57be c572 45be 0f04 0ebe
00000120: fadc b83d f654 1dbe ad3c 08be 1670 ed3d
00000130: ad89 14be 32d1 6d3d 0a73 d03d 093f 1a3e
00000140: b5da 84bb a34e 243e 9a29 113e 2a25 693e
00000150: 6b5e 8c3d e279 86be c55d 123e 2b9a 33be
00000160: 7eb1 96be d2af 6e3e 867f 6e3e 4177 f93d
00000170: a81f 52bd a38e 473e 2fe8 253d 781b e03d
00000180: de63 cb3c 41e6 ab3e d13f 20be c2bf 2f3e
00000190: 8a24 183e 1d12 833e f689 913e e8a8 e4bc
000001a0: 4688 723d e4f6 b13d c268 c93e 22b5 7f3e
000001b0: 6c22 a43e 70d6 4cbd 6ec3 a4bd bd34 fcbe
000001c0: 44cd 073d c746 18be 2df1 81bc 0294 903e
000001d0: 9d05 12be 9831 983d 6258 553e 987b e4bd
000001e0: 4098 983e 12bc 183e 8c69 4c3d 7723 8d3e
000001f0: 2a2a 86be ad8c 0abe 9f0b eebe c2bd 113e
00000200: 1998 5f3d 738f 433e 1c17 c93e 80a8 a03e
00000210: 4bcf 8d3f ddb6 e73e 2e5f 6c3f afdc 91be
00000220: 2439 48be bcc4 9cbf ee2e bcbe 3d8b 00bf
00000230: 9830 6f3e 1bc4 253f c7f1 303d 2674 873f
00000240: b57e 673f 6f52 5a3f 4031 393e a7a3 3b3f
00000250: 11a6 81bf 729d 20bf 1bbc 2dbf 9ffd 27bf
00000260: 7e20 cabe 838b 233f bae6 97bd a3dc 2fbf
00000270: cfa8 d33e 2f34 203e de57 333d 5058 813e
00000280: 5d7c 673e d406 963d ae55 adbe 24f0 e3be
00000290: d434 83bf 1649 c1bd f0cb c73c c0ab 51bd
000002a0: 15b0 96bc ae2d 153e 061a 553e eba7 c33e
000002b0: d25f 063e 2027 e23d 0ffe 3ebe 26d1 89be
000002c0: b3a4 16be 680e cfbe 33fa 25bc 5605 b93d
000002d0: a3d7 abbd 6ed9 1f3e a348 bc3e bfde 5f3e
000002e0: 1a12 f83d 547a 243e c040 b73e a057 b33d
000002f0: 56bf 95be 8a77 96bd 03c3 70be 6c57 2fbe
00000300: 7868 c93e ab1a 6f3d f271 90be 48c9 073e
00000310: 1149 e33d c340 1e3d eaea 4cbe 3ac9 17bd
00000320: bf46 1cbd e49d 00be 1321 2ebe daeb 8bbc
00000330: f502 52be ee97 a33d 2217 a3bd 4c6c 633e
00000340: 1f9d 223e f42a f43d 039e 853e fbc2 533e
00000350: d055 2c3e 8fb0 a9be ea70 113c 74cf a6be
00000360: c902 73be d8ec e6bd ed1b e93e a338 0b3f
00000370: fba6 03be 832a 1f3e 5b36 8f3d 215d 1d3f
00000380: c779 283e 66d2 d43d c965 adbe 06ba d73d
00000390: cd06 f8be e8ee 8fbe 0353 c6be 9382 9cbd
000003a0: 3065 bfbd f67f a8be f5bf 5e3e 6bb5 19be
000003b0: c502 1f3d 3eeb 0a3e 6589 5dbd c803 0bbe
000003c0: 33bb 04bf 4ba8 c9bd dcfe b4be a5c4 df3b
000003d0: 2cb0 d03e 312f 4ebd 90d1 21be b1cd 913e
000003e0: f9d1 833e 4479 4ebd aeaf a63e 2783 0dbd
000003f0: 75ea 02bf 07b4 813e b4a5 b73c d61a 7dbe

bias_ih_l0 f4 [52]
0.20228957 -0.08547267 0.3517633 0.37964356 0.5421202 0.2426383 -0.1256254 -0.17103821
0.02347067 0.3746154 0.16334257 0.3067377 -0.021800369 0.11658606 -0.09550187 0.23983705
-0.08682636 0.049751874 -0.19529629 -0.0077172336 0.2260157 0.18366213 0.05866181 0.3497449
-0.087347865 0.27328923 0.16521542 0.29933313 0.35658574 -0.11028496 0.0011216699 -0.3350517
-0.3233033 -0.26868966 -0.0109142605 0.06461414 0.26447284 -0.017500132 -0.117039405 0.30214274
0.31859985 0.32982 0.16098225 -0.05737579 0.24902974 -0.16102798 0.13123657 -0.021059876
0.03098037 0.1399967 0.33517468 -0.08479857
00000000: ff24 4f3e 4c0c afbd 521a b43e a460 c23e
00000010: 64c8 0a3f 2d76 783e f2a3 00be a424 2fbe
00000020: 9045 c03c 97cd bf3e 4643 273e b90c 9d3e
00000030: b096 b2bc acc4 ee3d 7c96 c3bd d897 753e
00000040: 05d2 b1bd 9fc8 4b3d c0fb 47be d9e0 fcbb
00000050: a970 673e ed11 3c3e 5e47 703d c311 b33e
00000060: 70e3 b2bd 91ec 8b3e 3b2e 293e 3142 993e
00000070: 6892 b63e 15dd e1bd ff04 933a e58b abbe
00000080: 0388 a5be b191 89be bad1 32bc 6b54 843d
00000090: fc68 873e 705c 8fbc 5bb2 efbd 74b2 9a3e
000000a0: 851f a33e 2bde a83e 88d8 243e e002 6bbd
000000b0: a701 7f3e 85e4 24be e162 063e c385 acbc
000000c0: 8bca fd3c 4c5b 0f3e 049c ab3e dfaa adbd

bias_hh_l0 f4 [52]
-0.09679681 0.31546155 0.3344974 0.08822775 0.087358564 0.069001526 0.28600323 0.17351264
0.32834268 0.064081095 -0.04247875 0.28891203 0.33115044 0.043772798 0.14897163 -0.032615066
0.1078149 0.32643384 0.021902323 -0.1013163 -0.15427937 0.16399963 -0.12741876 -0.0320142
-0.021327768 -0.011761183 0.119196326 0.20205371 -0.17280917 0.31007466 -0.03423158 -0.082794994
-0.111332454 0.06508942 -0.17247197 -0.2349477 -0.14221874 0.027942926 -0.050361622 0.247341
0.30793586 -0.1295848 0.2398206 0.114293136 -0.047269553 0.0059748604 0.045131158 0.22524984
-0.1269822 0.09717691 0.3741483 -0.123260476
00000000: 683d c6bd 2d84 a13e 3e43 ab3e c0b0 b43d
00000010: 0ce9 b23d ac50 8d3d 046f 923e 4cad 313e
00000020: 881c a83e f33c 833d 33fe 2dbd 47ec 933e
00000030: 8d8c a93e 1b4b 333d 058c 183e 6097 05bd
00000040: 0fce dc3d 5622 a73e 806c b33c ec7e cfbd
00000050: 69fb 1dbe 85ef 273e 107a 02be 5221 03bd
00000060: 92b7 aebc fab1 40bc 341d f43d 2be7 4e3e
00000070: e3f4 30be 1bc2 9e3e 6a36 0cbd 6c90 a9bd
00000080: 4502 e4bd 9a4d 853d 7e9c 30be 2196 70be
00000090: caa1 11be 90e8 e43c fd47 4ebd f646 7d3e
000000a0: c5a9 9d3e e1b1 04be 8893 753e 8512 ea3d
000000b0: b89d 41bd c3c8 c33b 73db 383d e5a7 663e
000000c0: 9f07 02be b004 c73d 5e90 bf3e fd6f fcbd

weight_ih_l0_reverse f4 [52, 4]
-0.072280385 0.30419207 -0.27436405 0.49844646 0.46724418 0.084109545 -0.053951893 0.16454394
0.064294845 -0.197983 -0.31454855 0.23997764 0.65095395 -0.3546418 -0.19692038 0.013455625
0.30646953 0.06981496 0.69405705 0.17327696 -0.11103703 -0.13606298 0.19537841 0.1919762
-0.10208451 -0.025887063 0.3118297 -0.3087366 0.12014223 0.080085665 0.35981065 0.16452253
-0.041356213 -0.3453754 -0.08712956 0.048733838 0.4634949 -0.3480896 0.04596804 0.109482154
0.17112067 0.2602943 0.31244794 0.23647192 -0.33811975 -0.07429348 0.45044038 -0.023149844
-0.050730392 -0.124623224 0.3620037 0.012245633 -0.035938803 0.50924027 0.16073953 0.679802
0.313891 -0.044838432 -0.4579241 0.24291134 0.29941666 -0.41409597 -0.02935174 -0.56223124
0.12894313 -0.03285113 0.39147973 0.26439694 -0.35783595 -0.015604721 0.56366503 -0.00061109156
0.2368521 0.31055135 -0.0980522 0.48088172 -0.47477865 0.53225183 0.673276 -0.63313854
0.05634143 0.12468602 -0.19818765 0.037092336 -0.22426943 0.4194372 0.4217844 0.008446543
-0.1444915 0.29830486 -0.14929014 -0.11614997 0.17292462 0.2950978 0.039316215 0.2201551
0.3095132 0.23500448 0.21478327 0.24940506 0.23050132 0.21556136 -0.44909826 -0.080559835
-0.39165995 0.39687866 0.05360391 -0.13690986 -0.7068422 -0.07642861 -0.25943354 0.22327101
0.021616116 0.89784014 -0.0559601 -0.13474286 0.21332657 -0.114229225 0.33331856 -0.73869497
-0.04323567 -0.07596346 -0.20254138 -0.17126305 -0.22075643 -0.3259477 0.32382914 0.15816301
0.0089030415 0.09087482 -0.5331152 -0.13194437 0.12607276 0.098749004 0.1875232 -0.051751237
0.31423822 -0.3146054 -0.27501902 -0.36276585 0.12385638 0.5524565 -0.09876048 -0.2459254
-0.3132667 0.040306702 0.369331 -0.0855474 -0.012603388 -0.28182212 0.1211131 0.27939576
-0.1534829 0.18362327 -0.13279875 0.36296496 -0.3372675 -0.0063792784 0.24508417 -0.24588276
0.33635566 -0.091890015 0.05730114 0.7305971 0.056020666 0.2753368 -0.067471094 0.22366905
0.041018147 0.10589965 0.16999322 0.40320116 0.19560376 -0.26120737 0.44530615 0.2459885
0.6092464 0.16256683 -0.34344083 0.34896165 -0.55076236 0.10289408 0.8923762 -0.41836232
0.40703037 0.5130006 0.034968987 -0.26381227 0.021208754 0.20389393 -0.19236992 -0.006422949
0.0014844513 0.032954328 -0.059421636 0.1265707 -0.14999303 0.6973463 -0.044641882 0.29807147
0.3966578 -0.14952424 0.42425472 0.47043097 -0.034366183 -0.010613242 0.14054231 0.8853076
00000000: bd07 94bd 10bf 9b3e 7279 8cbe 6034 ff3e
00000010: a13a ef3e a041 ac3d a9fc 5cbd 357e 283e
00000020: 04ad 833d 0ebc 4abe 820c a1be b3bc 753e
00000030: eba4 263f 9c93 b5be 7fa5 49be fb74 5c3c
00000040: 93e9 9c3e 25fb 8e3d b9ad 313f 846f 313e
00000050: 6267 e3bd 1854 0bbe 4711 483e 6995 443e
00000060: af11 d1bd 1b11 d4bc 24a8 9f3e b912 9ebe
00000070: 210d f63d f403 a43d 1a39 b83e 9878 283e
00000080: 2265 29bd 0bd5 b0be fc70 b2bd 229d 473d
00000090: 344f ed3e cd38 b2be fc48 3c3d 2e38 e03d
000000a0: 423a 2f3e 4b45 853e 2df9 9f3e b225 723e
000000b0: 081e adbe 2e27 98bd 1fa0 e63e bea4 bdbc
000000c0: acca 4fbd 763a ffbd 8d58 b93e e8a1 483c
000000d0: 9134 13bd 925d 023f e798 243e 8107 2e3f
000000e0: 52b6 a03e 81a8 37bd 0775 eabe c0bd 783e
000000f0: 244d 993e 6304 d4be 0f73 f0bc 63ee 0fbf
00000100: ab09 043e e88e 06bd 0870 c83e 095f 873e
00000110: 4636 b7be f2aa 7fbc 5a4c 103f a931 20ba
00000120: 5b89 723e 9600 9f3e 98cf c8bd 2136 f63e
00000130: 3016 f3be a841 083f d15b 2c3f 5e15 22bf
00000140: 45c6 663d 625b ff3d b4f1 4abe 22ee 173d
00000150: e3a6 65be 79c0 d63e 20f4 d73e 5e63 0a3c
00000160: 94f5 13be 6abb 983e 84df 18be 09e0 edbd
00000170: 2713 313e 0f17 973e 0a0a 213d 5770 613e
00000180: 8478 9e3e 04a5 703e 25f0 5b3e 0a64 7f3e
00000190: 8a08 6c3e 1ebc 5c3e 35f0 e5be 8efc a4bd
000001a0: a787 c8be ae33 cb3e c68f 5b3d 1932 0cbe
000001b0: 9cf3 34bf 9a86 9cbd 79d4 84be 28a1 643e
000001c0: 4814 b13c dad8 653f 6b36 65bd 08fa 09be
000001d0: 4872 5a3e 03f1 e9bd bba8 aa3e 1d1b 3dbf
000001e0: e317 31bd bb92 9bbd 0267 4fbe 955f 2fbe
000001f0: f90d 62be 9ee2 a6be efcc a53e 7cf5 213e
00000200: 10de 113c 941c ba3d 3d7a 08bf 6d1c 07be
00000210: 3819 013e eb3c ca3d 1506 403e 1bf9 53bd
00000220: d5e3 a03e f613 a1be 4bcf 8cbe 72bc b9be
00000230: 6aa8 fd3d ca6d 0d3f ef42 cabd ded3 7bbe
00000240: 7e64 a0be a418 253d f418 bd3e 7a33 afbd
00000250: 717e 4ebc fd4a 90be 250a f83d f60c 8f3e
00000260: 9f2a 1dbe bd07 3c3e 65fc 07be 8bd6 b93e
00000270: 53ae acbe 4409 d1bb 58f7 7a3e b1c8 7bbe
00000280: cf36 ac3e d530 bcbd 9ab4 6a3d 6908 3b3f
00000290: ed75 653d f2f8 8c3e 492e 8abd 8009 653e
000002a0: a502 283d eae1 d83d b412 2e3e 6270 ce3e
000002b0: 5a4c 483e f9bc 85be 2bff e33e 69e4 7b3e
000002c0: 92f7 1b3f eb77 263e 7ad7 afbe 1aab b23e
000002d0: c3fe 0cbf 22ba d23d c472 643f 9633 d6be
000002e0: 4966 d03e 0254 033f a43b 0f3d 6712 87be
000002f0: fbbd ad3c 92c9 503e 9ffc 44be 9a77 d2bb
00000300: ec91 c23a 1efb 063d 1a64 73bd c09b 013e
00000310: c697 19be 4a85 323f 68da 36bd d39c 983e
00000320: bb16 cb3e e21c 19be ea37 d93e 54dc f03e
00000330: 8ec3 0cbd 2ae3 2dbc 53ea 0f3e 85a3 623f

weight_hh_l0_reverse f4 [52, 13]
0.37112576 -0.07868295 -0.12119678 -0.14115632 -0.2602769 0.80632895 -0.98302805 0.3079528
-0.53155375 -0.08258982 0.106887795 0.25784838 0.22769293 -0.0032841333 -0.016104229 -0.046131343
-0.21419746 -0.028897783 -0.3401679 0.0737848 -0.2689243 -0.17522074 -0.14679395 -0.0009698291
-0.0030046904 0.12458244 0.70856863 -0.72118413 -0.1874096 1.0009148 -0.5791876 0.6866492
-0.3580719 0.6269232 -0.47054896 0.3576681 -0.012007377 0.5485733 0.42025483 0.48797086
-0.35044056 0.20411447 0.5050414 -0.1414026 0.44936925 0.32272872 0.2213162 -0.28367192
0.035497315 -0.5685457 0.20969763 0.3443571 0.43385723 0.10979204 0.22901423 -0.03759461
-0.11832113 -0.17559445 -0.19166183 0.0971773 0.18518008 -0.04611048 -0.022104518 0.22319064
0.12520742 -0.87798643 0.112705454 -0.3660839 0.052747063 -0.011228119 0.07149484 -0.63206494
0.038103696 0.21926458 -0.0031149762 -0.29207304 0.4120774 0.28164124 -0.53834844 -0.34942192
-0.47842714 -0.40555838 -0.3948046 0.22746657 -0.09788998 0.5485217 -0.005658182 0.37925404
-0.16614425 0.6083426 0.37245473 0.044168 0.14581165 0.20198481 0.118365 0.058691084
0.054267153 0.2986506 0.0037774318 0.15971708 0.07798176 0.02278869 0.11789431 -0.008841338
-0.13445835 -0.20830186 0.27712864 0.2955594 -0.48595837 -0.029497385 -0.5689717 0.06852388
-0.2786657 0.13747242 0.075565964 0.3015846 0.30420566 0.6356829 -0.34490955 0.2367662
0.46007475 -0.74049664 0.22525507 -0.99807525 0.21928339 -0.47341645 0.3947556 -0.27112725
0.4458315 0.37687477 -0.09843159 -0.26159102 0.27848747 0.3368366 -0.14843793 -0.4985108
-0.42008376 0.24488835 -0.071378544 0.45401627 -0.069270775 0.14684863 0.12284515 -0.09468807
0.032256413 0.05393126 -0.47962248 -0.37688866 0.113392875 -0.3247566 0.41051885 -0.4787114
-0.075007424 -0.51231986 0.36358505 0.2005946 0.18100673 -0.079097204 -0.122511275 -0.1519889
-0.17719986 0.24202292 -0.58106405 0.1979894 -0.21601716 0.1079672 0.14367317 0.52384156
0.7030096 0.41121605 -0.48155898 0.12525713 0.28076214 -0.44819933 0.119365886 0.5573596
0.46723482 -0.05386758 0.24646047 -0.31021625 0.12680845 0.54350436 -0.5872199 0.0010933138
0.18723771 -0.07762906 0.1775802 -0.12920637 0.41860095 -0.28351048 -0.28624105 -0.07712219
-0.05955505 0.30191198 -0.14847803 0.13231678 -0.17087345 0.5117366 -0.60085016 -0.11060897
-0.3662411 0.15274255 0.39438146 -0.102136046 0.3077039 -0.21989195 0.020379148 0.32598758
-0.32153678 -0.0025268223 -0.04069261 0.48255262 -0.18117571 -0.24231261 0.17836724 0.16164963
0.17964469 -0.019665277 0.13509573 -0.1526895 0.1256585 0.28688222 -0.05757282 -0.36885908
0.92930585 0.04395659 -0.48067254 0.38793352 0.18536359 -0.10843235 0.009379806 -0.06352667
0.5650981 0.056660295 0.026500423 -0.18103552 0.28966707 -0.26112723 -0.32981566 0.17442824
-0.19063361 0.34992692 0.0978317 -0.3150718 -0.16770281 0.17940713 0.25843292 0.13549651
-0.03542485 0.19701031 0.13993779 -0.21193747 -0.38814935 -0.05249526 0.0144557655 -0.0062968526
00000000: 3204 be3e 8724 a1bd 0436 f8bd 488b 10be
00000010: 0443 85be 936b 4e3f baa7 7bbf fdab 9d3e
00000020: e813 08bf da24 a9bd fde7 da3d b404 843e
00000030: 5628 693e 9d3a 57bb 04ed 83bc 38f4 3cbd
00000040: 9456 5bbe 0bbb ecbc 7d2a aebe 7c1c 973d
00000050: 72b0 89be 116d 33be 2751 16be 213c 7eba
00000060: 57ea 44bb 1425 ff3d c164 353f 869f 38bf
00000070: 4de8 3fbe fa1d 803f a345 14bf 3ec8 2f3f
00000080: 3355 b7be 0a7e 203f cbeb f0be 4620 b73e
00000090: 97ba 44bc 4d6f 0c3f a42b d73e 51d7 f93e
000000a0: f26c b3be 6203 513e 654a 013f d8cb 10be
000000b0: ba13 e63e b33c a53e b7a0 623e 723d 91be
000000c0: a265 113d 368c 11bf faba 563e 934f b03e
000000d0: 8922 de3e a6da e03d b582 6a3e cefc 19bd
000000e0: 5952 f2bd 08cf 33be 0043 44be e404 c73d
000000f0: d99f 3d3e 58de 3cbd 8914 b5bc 168c 643e
00000100: 6036 003e b8c3 60bf 1ed2 e63d 596f bbbe
00000110: 4e0d 583d 25f6 37bc e36b 923d 02cf 21bf
00000120: 9f12 1c3d e586 603e a124 4cbb 998a 95be
00000130: cffb d23e 4833 903e 34d1 09bf 6ee7 b2be
00000140: 67f4 f4be 59a5 cfbe d423 cabe ffec 683e
00000150: 8b7a c8bd eb6b 0c3f 4568 b9bb 962d c23e
00000160: b821 2abe 57bc 1b3f 63b2 be3e 81e9 343d
00000170: a64f 153e 1bd5 4e3e 5969 f23d 1066 703d
00000180: 3c47 5e3d bbe8 983e ca8e 773b e08c 233e
00000190: e7b4 9f3d 59af ba3c 9272 f13d 42db 10bc
000001a0: 73af 09be 154d 55be cee3 8d3e 9053 973e
000001b0: 89cf f8be 80a4 f1bc 21a8 11bf 3f56 8c3d
000001c0: 45ad 8ebe 92c5 0c3e 54c2 9a3d 4c69 9a3e
000001d0: d8c0 9b3e 1dbc 223f fc97 b0be d772 723e
000001e0: eb8e eb3e 3091 3dbf 44a9 663e dc81 7fbf
000001f0: d38b 603e a463 f2be 681d ca3e 31d1 8abe
00000200: 0744 e43e bbf5 c03e 8096 c9bd 42ef 85be
00000210: e995 8e3e d975 ac3e 1d00 18be cf3c ffbe
00000220: 3815 d7be 03c4 7a3e ea2e 92bd d274 e83e
00000230: d6dd 8dbd 7d5f 163e 3d96 fb3d d2eb c1bd
00000240: 4d1f 043d 06e7 5c3d 1491 f5be 8df7 c0be
00000250: 863a e83d 7f46 a6be 872f d23e a919 f5be
00000260: 7e9d 99bd 6527 03bf d227 ba3e ac68 4d3e
00000270: d459 393e b7fd a1bd 31e7 fabd faa2 1bbe
00000280: e173 35be dbd4 773e 9dc0 14bf bcbd 4a3e
00000290: 9a33 5dbe e81d dd3d 0f1f 133e 7b1a 063f
000002a0: 70f8 333f e98a d23e e68e f6be 6843 003e
000002b0: 0ec0 8f3e 627a e5be 1a76 f43d 1eaf 0e3f
000002c0: 6739 ef3e 40a4 5cbd 2260 7c3e aad4 9ebe
000002d0: 13da 013e 1a23 0b3f 0b54 16bf 864d 8f3a
000002e0: 3ebb 3f3e fcfb 9ebd 95d7 353e ad4e 04be
000002f0: dd52 d63e 4928 91be 308e 92be 3df2 9dbd
00000300: ffef 73bd 3594 9a3e a00a 18be 0d7e 073e
00000310: 73f9 2ebe 2b01 033f 51d1 19bf f586 e2bd
00000320: f483 bbbe 8b68 1c3e 5eec c93e b42c d1bd
00000330: 5e8b 9d3e 5b2b 61be 2cf2 a63c d8e7 a63e
00000340: 78a0 a4be 0b99 25bb 4bad 26bd 2311 f73e
00000350: 2086 39be cc20 78be e7a5 363e 7b87 253e
00000360: c7f4 373e 1319 a1bc 8956 0a3e a35a 1cbe
00000370: 9fac 003e 3ae2 923e 7ad1 6bbd 19db bcbe
00000380: fde6 6d3f d30b 343d b61a f6be 399f c63e
00000390: f4cf 3d3e c811 debd c2ad 193c 451a 82bd
000003a0: 45aa 103f a014 683d 6a17 d93c 6061 39be
000003b0: 3e4f 943e 78b2 85be 99dd a8be 519d 323e
000003c0: 7535 43be 9f29 b33e fd5b c83d 1751 a1be
000003d0: 49ba 2bbe 81b6 373e 5251 843e 99bf 0a3e
000003e0: a619 11bd 12bd 493e da4b 0f3e 2306 59be
000003f0: 83bb c6be 4505 57bd e0d7 6c3c d455 cebb

bias_ih_l0_reverse f4 [52]
0.15150474 0.27101257 -0.17159781 0.38324842 -0.10144065 0.21139082 0.13014401 0.2700971
0.25463212 0.07263908 -0.13822836 0.2979555 0.29257122 -0.025155598 0.1262283 -0.2747398
0.0960409 0.15902062 0.10063326 0.112228215 -0.049178872 -0.017337171 -0.042074297 0.22764817
0.31032974 0.03120118 0.2597262 -0.3021955 -0.035366897 0.13086851 -0.01841031 -0.27984026
0.055354167 0.16387194 0.10783828 0.031505924 -0.29195774 0.34879068 0.3030082 0.16324803
0.030431459 0.2722135 -0.014850684 0.1613248 0.22887228 0.20350415 -0.22268412 0.019499177
0.41441175 -0.19799991 -0.050630827 0.11100439
00000000: 0f24 1b3e 29c2 8a3e 56b7 2fbe 2339 c43e
00000010: 1ec0 cfbd d676 583e 7944 053e 2b4a 8a3e
00000020: 245f 823e ccc3 943d bc8b 0dbe a08d 983e
00000030: e5cb 953e 1d13 cebc fe41 013e b2aa 8cbe
00000040: 17b1 c43d 4dd6 223e d018 ce3d e8d7 e53d
00000050: c96f 49bd af06 8ebc 1956 2cbd 9a1c 693e
00000060: 8ae3 9e3e 9e99 ff3c d5fa 843e 5eb9 9abe
00000070: e1dc 10bd 6502 063e 38d1 96bc 3947 8fbe
00000080: 0dbb 623d 0cce 273e 51da dc3d 5b0c 013d
00000090: 7c7b 95be b194 b23e e423 9b3e 7e2a 273e
000000a0: 654b f93c 915f 8b3e 4950 73bc 5432 253e
000000b0: 7f5d 6a3e 6463 503e 4e07 64be bdbc 9f3c
000000c0: c72d d43e 7dc0 4abe 4562 4fbd 4556 e33d

bias_hh_l0_reverse f4 [52]
0.2662362 0.28026882 -0.31802487 0.43133476 -0.07812722 0.18094337 -0.07095664 0.27066877
0.3622092 0.25218186 0.22021571 0.3687606 0.24305783 0.42178836 0.10288921 0.23831078
-0.121952824 0.2539957 0.38042766 -0.15245195 0.057916965 -0.1023349 0.18877448 0.033442467
0.5463995 0.08541124 -0.27854243 -0.14143853 0.0321179 0.0354697 -0.14767846 0.20098285
-0.0021764652 0.20263857 -0.2026364 0.20476018 -0.05999254 0.14989881 0.051356092 0.27237284
-0.11811935 0.18098803 -0.024724625 0.3680919 0.24824405 0.321302 0.26386973 0.32331282
-0.1226481 0.34091067 -0.029982146 0.5269178
00000000: 1c50 883e 657f 8f3e 28d4 a2be e9d7 dc3e
00000010: 2a01 a0bd 3849 393e b751 91bd 1995 8a3e
00000020: 7c73 b93e fb1d 813e 3a80 613e 30ce bc3e
00000030: 27e4 783e a5f4 d73e 94b7 d23d be07 743e
00000040: 67c2 f9bd b90b 823e 6ac7 c23e 5d1c 1cbe
00000050: 573a 6d3d f694 d1bd 194e 413e f8fa 083d
00000060: d6e0 0b3f 17ec ae3d 1d9d 8ebe 43d5 10be
00000070: 0f8e 033d ad48 113d 0639 17be 73ce 4d3e
00000080: 07a3 0ebb 7c80 4f3e eb7f 4fbe a7ac 513e
00000090: bdba 75bd 137f 193e c45a 523d 7474 8b3e
000000a0: 8fe8 f1bd ed54 393e 4c8b cabc 8b76 bc3e
000000b0: b033 7e3e b281 a43e ef19 873e 4289 a53e
000000c0: ed2e fbbd d88b ae3e 1e9d f5bc 16e4 063f

weight f4 [16, 260]
0.003584911 -0.1353619 0.098734856 0.11095333 -0.04277506 -0.010023354 0.00748504 -0.053091068
0.07750862 -0.043473437 0.034483418 -0.04222365 0.013154429 0.07043018 -0.03351963 -0.020130627
-0.103512235 -0.09999222 -0.023442745 -0.0007599769 0.11088989 -0.008485163 0.00031570334 0.01940579
-0.007927692 -0.054724902 -0.0013942057 -0.14888535 -0.00603506 0.018746143 -0.020479662 -0.07823224
0.01889938 -0.08580961 0.026854651 -0.01917299 -0.052522093 -0.01968869 -0.040468182 0.051665492
0.0016459775 0.004668739 0.0024642146 0.08039498 0.035752457 -0.012812527 -0.10666425 -0.082998455
0.13659434 -0.016499914 -0.030891208 0.010300918 -0.06300936 -0.09766857 -0.005974572 -0.034059305
0.06423714 0.006605297 -0.07037681 -0.11437349 -0.16472737 0.047924895 0.02347984 -0.07922461
0.07088627 -0.00561213 0.006069307 0.013570577 -0.023355072 0.07054445 0.21486144 -0.023298882
0.004364718 0.051811874 0.06880332 0.20765033 0.037972543 0.0051860255 -0.055583484 0.08742095
0.19303238 -0.14375229 0.041279156 -0.05362786 0.095770575 -0.026966643 -0.05516737 -0.023667421
-0.016390985 0.013438408 0.08602267 -0.14178576 0.09996039 -0.07601718 -0.10681874 -0.13151576
-0.042306647 -0.07598627 -0.13496806 0.05737498 -0.049637437 -0.06887995 -0.07307471 -0.060851134
-0.009046738 -0.07793995 -0.0436003 -0.05725384 -0.04852479 -0.025214177 -0.08242587 -0.06856363
-0.20843233 -0.0008740692 -0.16587412 -0.03567355 -0.03099001 0.029239692 0.0025725702 0.0827908
0.09826786 -0.09241435 -0.09840155 -0.07234665 0.069765694 0.058565922 -0.13390715 0.0063764323
0.08191901 -0.091130085 0.090778895 0.022608371 0.022913462 -0.025799124 -0.01769758 -0.05460599
0.020164326 -0.009282639 0.110040545 -0.13012214 -0.020937758 -0.2297647 -0.1014981 0.022301236
0.16522151 -0.03352621 -0.094031505 -0.12951016 -0.014901557 -0.012762239 -0.04870277 -0.028980995
-0.07671533 0.10493562 0.08575971 -0.061993774 -0.017785013 0.0079599 0.05126553 0.012453046
0.11893911 0.06630411 -0.012189481 0.05999031 -0.06432265 -0.067957714 -0.17342952 -0.003636833
-0.14642532 -0.025294732 -0.026277069 0.14515306 0.03033272 0.034310658 -0.06894357 0.019303543
-0.09511716 0.21235658 0.19930938 -0.09543284 -0.09254309 -0.032595463 -0.023261687 0.043499805
-0.036803186 -0.067296974 -0.035433367 0.17865759 0.093675666 -0.020711308 0.05011712 -0.06360421
-0.0058678635 -0.08058889 -0.123890676 -0.03531444 -0.08286551 -0.045189988 0.076992854 0.10898942
0.10124259 0.17352174 0.17287795 0.011701847 -0.07838635 0.043128658 -0.06355546 0.0024290197
-0.04520875 0.07653428 0.01832753 -0.047538955 0.09354858 0.0751463 0.20648786 0.05664471
-0.005651587 0.06047693 -0.044181485 0.10258594 0.10713853 -0.12947458 -0.14430518 0.04910775
0.0047270223 -0.06377841 -0.1344069 0.16259988 0.010862258 -0.16130376 -0.039092187 0.09580128
-0.08205121 0.095238596 0.016547652 -0.086301394 0.037533622 0.04133846 0.03026635 -0.0067514647
0.11961503 0.044747822 0.10963879 0.040218968 -0.07375682 -0.068565965 -0.033043377 -0.094976194
0.10107536 0.188768 -0.0123074 0.06724766 0.11292607 0.1424353 -0.030718192 -0.028139016
00000000: d4f0 6a3b 4f9c 0abe 8035 ca3d 803b e33d
00000010: e734 2fbd fe38 24bc 1145 f53b 0576 59bd
00000020: d7bc 9e3d 3411 32bd 7c3e 0d3d b5f2 2cbd
00000030: ad85 573c b33d 903d e14b 09bd fce8 a4bc
00000040: 39fe d3bd b9c8 ccbd 000b c0bc 3039 47ba
00000050: 3d1a e33d 5a05 0bbc fc84 a539 e4f8 9e3c
00000060: 26e3 01bc 3827 60bd c8bd b6ba 6775 18be
00000070: c1c1 c5bb 8391 993c f7c4 a7bc 3a38 a0bd
00000080: dfd2 9a3c f3bc afbd 49fe db3c ad10 9dbc
00000090: 6821 57bd 2d4a a1bc f7c1 25bd 329f 533d
000000a0: d7bd d73a 39fc 983b a97e 213b 20a6 a43d
000000b0: 2b71 123d a2eb 51bc c972 dabd 18fb a9bd
000000c0: 63df 0b3e d42a 87bc 8f0f fdbc 2ec5 283c
000000d0: 0d0b 81bd 7606 c8bd 58c6 c3bb c581 0bbd
000000e0: c38e 833d 3f71 d83b b821 90bd a63c eabd
000000f0: 4bae 28be e54c 443d cb58 c03c 8340 a2bd
00000100: d22c 913d f5e5 b7bb 0ae1 c63b 2057 5e3c
00000110: 2353 bfbc 9c79 903d a304 5c3e 4cdd bebc
00000120: e905 8f3b b038 543d c1e8 8c3d 4aa2 543e
00000130: 1989 1b3d 89ef a93b 82ab 63bd c109 b33d
00000140: 48aa 453e cd33 13be 5514 293d e3a8 5bbd
00000150: 5d23 c43d 26e9 dcbc 2ef7 61bd 2ee2 c1bc
00000160: 6346 86bc c52c 5c3c a72c b03d 4930 11be
00000170: 08b8 cc3d e5ae 9bbd c9c3 dabd 11ac 06be
00000180: bc49 2dbd b19e 9bbd 1135 0abe 0702 6b3d
00000190: a050 4bbd ee10 8dbd 32a8 95bd 0a3f 79bd
000001a0: c538 14bc fb9e 9fbd 3a96 32bd 0183 6abd
000001b0: eec1 46bd f68d cebc e5ce a8bd 176b 8cbd
000001c0: 496f 55be cb21 65ba e8da 29be 6e1e 12bd
000001d0: c3de fdbc 1488 ef3c 9198 283b 398e a93d
000001e0: a940 c93d bc43 bdbd c086 c9bd 7b2a 94bd
000001f0: 51e1 8e3d d2e2 6f3d f51e 09be 64f1 d03b
00000200: 27c5 a73d 69a2 babd 49ea b93d 3135 b93c
00000210: 03b5 bb3c af58 d3bc 84fa 90bc 88aa 5fbd
00000220: a82f a53c 3616 18bc f05c e13d bd3e 05be
00000230: a985 abbc 7047 6bbe 3cde cfbd 15b1 b63c
00000240: d42f 293e c752 09bd 9793 c0bd 509e 04be
00000250: a925 74bc b618 51bc 8e7c 47bd 8d69 edbc
00000260: ed1c 9dbd 7de8 d63d c9a2 af3d 2fed 7dbd
00000270: e0b1 91bc 3e6a 023c cefb 513d dc07 4c3c
00000280: 5996 f33d 73ca 873d 64b6 47bc 66b8 753d
00000290: 98bb 83bd 6a2d 8bbd 8297 31be ef57 6ebb
000002a0: 85f0 15be e636 cfbc 0243 d7bc 01a3 143e
000002b0: 537c f83c 5589 0c3d 4932 8dbd 7722 9e3c
000002c0: c9cc c2bd 0174 593e c217 4c3e 4b72 c3bd
000002d0: 3b87 bdbd d282 05bd 4b8f bebc da2c 323d
000002e0: f0be 16bd ffd2 89bd 9422 11bd 04f2 363e
000002f0: 07d9 bf3d c3aa a9bc 9c47 4d3d ed42 82bd
00000300: 3547 c0bb ca0b a5bd 65ba fdbd e0a5 10bd
00000310: 64b5 a9bd 2319 39bd 6eae 9d3d d835 df3d
00000320: 4658 cf3d afaf 313e eb06 313e 1bb9 3f3c
00000330: 0689 a0bd ada7 303d 5d29 82bd 3030 1f3b
00000340: cf2c 39bd 01be 9c3d 9e23 963c 35b8 42bd
00000350: 6696 bf3d 4ee6 993d 8e71 533e 4904 683d
00000360: f330 b9bb a8b6 773d a5f7 34bd 9418 d23d
00000370: 726b db3d fc94 04be bdc4 13be 3525 493d
00000380: 23e5 9a3b 419e 82bd f6a1 09be 9580 263e
00000390: 9df7 313c d02c 25be 211f 20bd 7633 c43d
000003a0: 770a a8bd 740c c33d f18e 873c c9be b0bd
000003b0: dbbc 193d 8452 293d 23f1 f73c 643b ddbb
000003c0: baf8 f43d 7e49 373d 4d8a e03d a5bc 243d
000003d0: d10d 97bd 506c 8cbd 7e58 07bd e182 c2bd
000003e0: 9900 cf3d 664c 413e faa4 49bc 24b9 893d
000003f0: c945 e73d 8fda 113e b8a4 fbbc cb83 e6bc

bias f4 [16]
0.031319767 0.027084028 0.011151898 -0.0034891365 0.07037447 0.04340941 -0.010699749 -0.028106205
-0.0605793 -0.017965967 0.02630023 -0.0097123 -0.011453593 -0.06323751 0.047653288 -0.03966755
00000000: 2849 003d 53df dd3c 73b6 363c ffa9 64bb
00000010: 7d20 903d 11ce 313d 004e 2fbc fc3e e6bc
00000020: 0022 78bd 5d2d 93bc 9473 d73c 5720 1fbc
00000030: daa7 3bbc ab82 81bd 1830 433d 717a 22bd

weight f4 [30, 16]
0.08712536 0.06539142 0.051728964 -0.10398919 -0.28052452 0.016673561 -0.0022062121 -0.14761902
-0.47790113 -0.22843648 0.09072008 -0.017159767 0.077358365 0.13781166 -0.13340865 -0.106060386
-0.07300226 0.24140419 -0.16868459 -0.021554792 -0.29307684 0.10539269 -0.15107933 0.147098
0.11290361 -0.2942601 -0.056874324 0.087119505 -0.0010892518 -0.18897924 -0.12197223 -0.14751945
0.0015264108 0.11718971 0.017718853 -0.016272072 0.3583393 -0.2880808 -0.040456682 -0.016414527
-0.39678285 0.6577475 0.5139419 -0.1333235 -0.34792686 -0.093407795 -0.13070107 0.010233555
0.052820988 0.11046221 0.0063636675 0.28666094 -0.53329873 -0.20924789 0.40437004 -0.06361324
0.48405287 -0.5339975 0.025201043 -0.020182787 0.1781798 -0.21907538 -0.16051058 -0.16999544
-0.1729824 -0.028962057 0.34803775 -0.05936117 0.55299187 0.022733564 -0.3934373 0.009440782
-0.017133284 0.58516157 -0.17773172 -0.045601554 -0.33916843 -0.005095783 0.1426062 -0.14599608
-0.10729375 0.10074732 0.5638345 -0.37166584 -0.20545751 0.27028373 -0.1802496 -0.2726101
0.24509226 0.23942204 -0.35872293 0.08749431 -0.068435594 0.20372012 -0.24267273 -0.10616775
-0.08399832 -0.2088284 -0.06373155 0.04182572 -0.20867059 -0.021615308 0.065747544 -0.114346966
0.09498538 -0.24715784 0.18659942 -0.038915962 0.27221528 -0.052057214 0.016854687 -0.057572026
-0.08222476 0.2497943 -0.20867305 -0.18318415 -0.4424559 0.019803956 0.32897913 0.050647143
-0.25520545 -0.51318604 0.029864974 -0.018444195 0.043067437 0.015359777 -0.0770588 -0.061069965
-0.3986573 -0.020751696 -0.016490376 -0.0711634 0.23731853 -0.15896122 0.18552494 -0.07642839
-0.117089994 0.20604144 0.023445556 -0.07486041 -0.11433716 -0.4892945 0.10375767 -0.004825994
-0.115358524 0.0073559815 0.096901156 -0.08711533 -0.2274939 0.1742518 0.21222812 0.25478765
0.06098633 -0.32006037 -0.085989624 0.15952691 0.22460249 -0.122454695 -0.2505347 0.06788013
0.097025074 -0.09082246 -0.12179088 -0.2395619 0.21277994 -0.051482707 0.10676134 -0.0077983844
0.030161344 0.33489582 -0.4264151 -0.059322283 0.05939618 -0.027746975 0.26604694 -0.07658673
0.0083663855 -0.263605 -0.064903855 -0.041473184 0.13506499 -0.021095077 -0.004889757 0.033281412
0.3639932 0.14869612 0.3832027 -0.05792869 0.14074408 0.43930134 0.013298878 0.027485412
-0.11928236 -0.11876081 0.16592531 -0.2541514 -0.025499212 -0.33174813 0.044108506 -0.07053551
0.0773945 0.05981713 0.01380575 0.05635481 0.103844404 -0.47708726 -0.086680554 0.21517062
-0.06857234 -0.46834412 0.061502907 0.0600607 0.42216632 0.28714174 0.26425698 -0.1433467
0.13930938 -0.22686523 -0.14769939 0.29829368 0.31726664 -0.090431884 -0.006898597 -0.16963892
0.24413933 0.009327652 -0.022482274 0.18473858 0.06387661 -0.32595307 0.2875278 -0.0038701417
-0.3194647 0.045768175 -0.06744153 -0.007572922 -0.035100333 0.2646923 0.06655016 -0.03504244
0.016163528 -0.054028958 0.03868767 -0.08559537 0.22570671 0.1093513 -0.248171 -0.18740731
-0.3653608 0.22302158 0.041538075 -0.05199381 -0.09080581 0.18059923 0.07884243 -0.013529533
00000000: c86e b23d f0eb 853d c0e1 533d 49f8 d4bd
00000010: e9a0 8fbe fe96 883c 1996 10bb 7129 17be
00000020: 75af f4be 41eb 69be 73cb b93d a492 8cbc
00000030: 106e 9e3d 801e 0d3e 479c 08be 3036 d9bd
00000040: 3582 95bd a932 773e a7bb 2cbe ad93 b0bc
00000050: 2b0e 96be 1fd8 d73d 8ab4 1abe dca0 163e
00000060: 023a e73d 43a9 96be 0df5 68bd b66b b23d
00000070: 3ac5 8eba c683 41be 94cc f9bd 570f 17be
00000080: d911 c83a 2901 f03d 2127 913c 024d 85bc
00000090: 4078 b73e 547f 93be e8b5 25bd c277 86bc
000000a0: 1f27 cbbe 2462 283f b291 033f f585 08be
000000b0: 7823 b2be 964c bfbd 80d6 05be a4aa 273c
000000c0: d25a 583d 033a e23d 5086 d03b 39c5 923e
000000d0: 4486 08bf 1445 56be 9709 cf3e a947 82bd
000000e0: c7d5 f73e 0fb4 08bf 6b72 ce3c 5f56 a5bc
000000f0: c474 363e 4c55 60be e35c 24be 4913 2ebe
00000100: 4c22 31be d641 edbc 0132 b23e b324 73bd
00000110: e090 0d3f bd3b ba3c 9d70 c9be 82ad 1a3c
00000120: 1a5b 8cbc 26cd 153f 4eff 35be b2c8 3abd
00000130: 7ca7 adbe 87fa a6bb 5c07 123e ff7f 15be
00000140: d3bc dbbd 9c54 ce3d 7557 103f fc4a bebe
00000150: 7463 52be a162 8a3e 5a93 38be 8d93 8bbe
00000160: 77f9 7a3e 0d2b 753e 88aa b7be 3830 b33d
00000170: f627 8cbd 029c 503e 337f 78be 7a6e d9bd
00000180: 5007 acbd 1dd7 55be b085 82bd 7251 2b3d
00000190: bead 55be 9612 b1bc a6a6 863d be2e eabd
000001a0: b287 c23d f216 7dbe eb13 3f3e 5866 1fbd
000001b0: cd5f 8b3e f239 55bd d712 8a3c a5d0 6bbd
000001c0: 7465 a8bd 14ca 7f3e 63ae 55be a094 3bbe
000001d0: 9489 e2be e83b a23c f46f a83e 6173 4f3d
000001e0: 4aaa 82be 2960 03bf 64a7 f43c 4818 97bc
000001f0: 7b67 303d 93a7 7b3c 01d1 9dbd 8024 7abd
00000200: cf1c ccbe 76ff a9bc d316 87bc 1ebe 91bd
00000210: a103 733e bbc6 22be 40fa 3d3e 7d86 9cbd
00000220: e1cc efbd 87fc 523e e510 c03c 6a50 99bd
00000230: 9a29 eabd cf84 fabe e77e d43d 5f23 9ebb
00000240: 1741 ecbd 720a f13b 1d74 c63d 8669 b2bd
00000250: 29f4 68be 106f 323e 5452 593e 8773 823e
00000260: cdcc 793d f4de a3be 541b b0bd 065b 233e
00000270: 32fe 653e 87c9 fabd 1646 80be bd04 8b3d
00000280: 15b5 c63d 2001 babd 7f6d f9bd b74f 75be
00000290: fce2 593e 88df 52bd b0a5 da3d 9789 ffbb
000002a0: ec14 f73c 7777 ab3e 1453 dabe ecfb 72bd
000002b0: 6949 733d a04d e3bc 4e37 883e 81d9 9cbd
000002c0: 2a13 093c 3cf7 86be 50ec 84bd c9df 29bd
000002d0: 7a4e 0a3e 95cf acbc 413a a0bb 1752 083d
000002e0: 515d ba3e cc43 183e 2533 c43e a246 6dbd
000002f0: 371f 103e 1bec e03e 8ae3 593c 1629 e13c
00000300: 4f4a f4bd de38 f3bd 53e8 293e 2220 82be
00000310: b9e3 d0bc e4da a9be 1fab 343d ec74 90bd
00000320: 0281 9e3d cf02 753d 8331 623c 4dd4 663d
00000330: 60ac d43d c844 f4be 9385 b1bd b055 5c3e
00000340: a86f 8cbd cdca efbe 79ea 7b3d 3502 763d
00000350: 2f26 d83e 3e04 933e b14c 873e 7ac9 12be
00000360: 1ea7 0e3e 5c4f 68be 823e 17be f3b9 983e
00000370: c670 a23e 5a34 b9bd a00d e2bb d3b5 2dbe
00000380: a9ff 793e 02d3 183c bf2c b8bc 1c2c 3d3e
00000390: bdd1 823d 52e3 a6be d836 933e 34a2 7dbb
000003a0: e190 a3be 6977 3b3d c91e 8abd 4626 f8bb
000003b0: 5ec5 0fbd c085 873e 734b 883d a988 0fbd
000003c0: 6069 843c 784d 5dbd f676 1e3d a04c afbd
000003d0: a91f 673e 93f3 df3d 8a20 7ebe b4e7 3fbe
000003e0: 9210 bbbe c55f 643e d423 2a3d 76f7 54bd
000003f0: 66f8 b9bd 01ef 383e 2478 a13d f9aa 5dbc

bias f4 [30]
-0.0001512514 -0.2016192 -0.073469356 0.086166985 0.016455423 0.09742184 -0.22760463 -0.08282755
0.26313764 -0.027134309 -0.00037832302 -0.056214772 -0.1469714 -0.014207173 -0.10390845 0.16596337
0.020477481 -0.038067885 -0.18348885 -0.071425185 0.025701635 -0.110181466 -0.08894814 -0.2929343
0.21802104 -0.12697989 -0.11648721 0.14753813 -0.18766971 -0.0014217516
00000000: 3d99 1eb9 4375 4ebe 1a77 96bd 5178 b03d
00000010: 86cd 863c 1a85 c73d 3011 69be 7ea1 a9bd
00000020: fab9 863e c548 debc a859 c6b9 7641 66bd
00000030: ac7f 16be 34c5 68bc f4cd d4bd 4df2 293e
00000040: 64c0 a73c 12ed 1bbd 80e4 3bbe 5e47 92bd
00000050: 3c8c d23c d2a6 e1bd 712a b6bd 7cfb 95be
00000060: e840 5f3e 0407 02be d990 eebd 3c14 173e
00000070: 7d2c 40be 115a baba

weight f4 [30, 16]
0.11578766 -0.24642399 -0.009204962 -0.36710548 -0.008959945 0.012790251 -0.24844085 -0.054296844
-0.21402751 -0.10321865 0.0823961 -0.1061201 0.042327948 0.25433025 -0.07375322 0.25061163
0.4523629 -0.07252549 -0.02902437 0.11065385 -0.088911094 0.052646186 -0.27689722 0.10272273
0.3188135 -0.13885245 0.14301574 -0.075475425 -0.35375062 0.16965114 0.04297372 -0.41178772
0.10319944 -0.056597564 0.115071684 0.0080685625 0.13501437 -0.0030557243 -0.4451898 0.020092646
-0.12693487 -0.24657248 -0.17537299 -0.006003237 -0.075941816 -0.09847661 -0.28455698 0.14402406
-0.2619226 -0.0849062 -0.17340836 -0.033861402 -0.1044969 0.27626517 -0.29249978 0.0950976
0.18040247 0.012164342 0.08434379 0.015790528 0.074909255 -0.041193932 -0.28951272 -0.35571474
-0.20301612 -0.09587749 -0.2398236 -0.24335611 -0.1478842 0.11036268 0.32502642 -0.12654464
0.080575995 0.0047098584 -0.12565583 0.032172922 -0.18485107 -0.15833177 0.06830033 0.3160858
-0.22453181 -0.14020675 0.16388302 -0.15609342 -0.24067 0.14628088 -0.1688668 0.25158238
-0.09425637 -0.26157176 -0.108322166 -0.2226134 -0.12966877 0.3375003 -0.12481659 -0.29729012
0.14699976 -0.10859149 -0.17001726 0.037890825 -0.03496662 0.3033001 -0.124553844 -0.25744346
-0.048719425 -0.10635192 -0.04679033 -0.021069981 -0.21093382 0.011254904 0.035885774 0.33817327
0.16883895 0.14504182 -0.13608374 -0.06388982 -0.12410366 0.078389205 -0.15487237 -0.05791571
0.26283172 0.11515295 -0.37359503 -0.1301275 -0.029780742 -0.061593812 -0.12400817 -0.07306608
-0.09089522 -0.011730737 0.13906856 0.087950386 -0.10344398 0.38812274 0.03939414 -0.44196984
-0.215386 -0.13670455 -0.27607 -0.28800505 -0.27690423 -0.23037967 0.18929768 -0.2014903
0.008755278 0.26374367 -0.44851074 0.083030485 -0.29308856 0.11719587 0.23415585 0.63867986
0.033946406 0.25440606 0.002449767 -0.29383716 -0.53531337 0.08634088 0.24046709 0.19016066
-0.2130549 -0.24229339 -0.12355619 -0.22142409 -0.032469094 0.252365 0.18127473 0.11650939
-0.2543538 -0.14301232 -0.2376318 0.29894888 0.038183615 -0.37295407 -0.26431873 0.49059692
0.12873077 -0.0012552395 -0.08291235 -0.28544477 -0.1737261 0.28199527 0.09353943 -0.22653441
0.032343443 0.19047111 0.32621905 -0.071672805 -0.35621107 0.30789486 -0.120875426 -0.05850212
0.2450855 0.17891823 -0.35259148 0.038428485 0.022249456 0.108240105 -0.39582413 -0.051890068
-0.122963294 0.17537622 0.083154485 -0.24479343 -0.18227915 0.2709769 -0.07692847 0.10198634
-0.5492304 0.16396913 -0.027060144 0.09184889 0.0478276 -0.1818888 0.0519628 0.21858343
-0.21594742 -0.5785445 -0.30839953 -0.2534097 -0.12897454 0.31297314 -0.22947095 -0.072431765
0.29922843 0.19839782 -0.02536789 -0.07146198 -0.08096569 0.1412083 -0.220112 -0.17116989
0.23188233 0.09490661 -0.521751 -0.07481628 -0.13485782 -0.13381724 -0.1356577 0.14433989
-0.11079038 0.0466905 0.28743362 -0.09174809 -0.07913461 -0.09548417 -0.3908504 -0.06618591
-0.21027812 -0.06604798 -0.16280954 -0.23438278 -0.06636133 0.16718957 -0.1940072 0.40610602
00000000: 1522 ed3d 9256 7cbe 69d0 16bc 40f5 bbbe
00000010: bccc 12bc 338e 513c 4767 7ebe 5e66 5ebd
00000020: 072a 5bbe 4d64 d3bd 49bf a83d 7f55 d9bd
00000030: 1260 2d3d 9337 823e ee0b 97bd 2b50 803e
00000040: 1c9c e73e 3e88 94bd 84c4 edbc 7c9e e23d
00000050: 0517 b6bd 87a3 573d 79c5 8dbe 4b60 d23d
00000060: 863b a33e 562f 0ebe b872 123e dc92 9abd
00000070: cd1e b5be 07b9 2d3e 3605 303d d7d5 d2be
00000080: 3a5a d33d d9d2 67bd b4aa eb3d 0132 043c
00000090: 3541 0a3e 8c42 48bb ebef e3be 5599 a43c
000000a0: 37fb 01be 7f7d 7cbe fa94 33be cdb6 c4bb
000000b0: 6287 9bbd 1bae c9bd 74b1 91be 0b7b 133e
000000c0: b81a 86be 4de3 adbd f691 31be 41b2 0abd
000000d0: 7902 d6bd a172 8d3e 88c2 95be 88c2 c23d
000000e0: 6dbb 383e f34c 473c 70bc ac3d 235b 813c
000000f0: 066a 993d f8ba 28bd 033b 94be 3e20 b6be
00000100: 75e3 4fbe 6b5b c4bd 5194 75be 5832 79be
00000110: f56e 17be d405 e23d dd69 a63e eb94 01be
00000120: 0705 a53d 2855 9a3b ecab 00be c1c7 033d
00000130: 9949 3dbe b921 22be 0be1 8b3d ffd5 a13e
00000140: abeb 65be 5c92 0fbe f3d0 273e f4d6 1fbe
00000150: 3272 76be a8ca 153e 6beb 2cbe 68cf 803e
00000160: 7c09 c1bd bcec 85be 03d8 ddbd c4f4 63be
00000170: e4c7 04be d7cc ac3e d79f ffbd 6936 98be
00000180: 1b87 163e 3765 debd 0119 2ebe 6933 1b3d
00000190: 2939 0fbd 274a 9b3e 1616 ffbd a1cf 83be
000001a0: 058e 47bd 09cf d9bd 38a7 3fbd f49a acbc
000001b0: 09ff 57be 7d66 383c f6fc 123d 0c25 ad3e
000001c0: 1ee4 2c3e d885 143e 8959 0bbe aad8 82bd
000001d0: 0f2a febd 858a a03d dd96 1ebe 0639 6dbd
000001e0: e191 863e 4fd5 eb3d d947 bfbe 2540 05be
000001f0: bef6 f3bc cb49 7cbd fff7 fdbd aba3 95bd
00000200: 4627 babd 4732 40bc fd67 0e3e 551f b43d
00000210: 70da d3bd 06b8 c63e c05b 213d df49 e2be
00000220: 268e 5cbe 47fc 0bbe 0c59 8dbe 6675 93be
00000230: 64c6 8dbe a6e8 6bbe 40d7 413e 7953 4ebe
00000240: 4c72 0f3c 6909 873e 33a3 e5be e30b aa3d
00000250: b40f 96be 6304 f03d 8dc6 6f3e 8680 233f
00000260: 630b 0b3d 8341 823e 458c 203b d371 96be
00000270: 4c0a 09bf 7dd3 b03d 013d 763e 7ab9 423e
00000280: 102b 5abe c21b 78be 070b fdbd ffbc 62be
00000290: 50fe 04bd fc35 813e 15a0 393e 7a9c ee3d
000002a0: a93a 82be d271 12be c055 73be d40f 993e
000002b0: 6c66 1c3d d6f3 bebe c954 87be 852f fb3e
000002c0: 00d2 033e d986 a4ba f3cd a9bd d125 92be
000002d0: 41e5 31be af61 903e 9a91 bf3d a3f8 67be
000002e0: 8f7a 043d dc0a 433e 2f06 a73e 31c9 92bd
000002f0: 4c61 b6be 65a4 9d3e 898d f7bd eb9f 6fbd
00000300: b1f7 7a3e 5736 373e df86 b4be 3067 1d3d
00000310: 7e44 b63c fdac dd3d 76a9 cabe ae8a 54bd
00000320: 2ed4 fbbd d395 333e e64c aa3d 21ab 7abe
00000330: 63a7 3abe 7cbd 8a3e ac8c 9dbd 37de d03d
00000340: 5d9a 0cbf 86e7 273e 3cad ddbc 451b bc3d
00000350: e0e6 433d 0f41 3abe f2d6 543d 56d4 5f3e
00000360: 5221 5dbe 7e1b 14bf 8be6 9dbe ebbe 81be
00000370: e711 04be 043e a03e 6ffa 6abe 1b57 94bd
00000380: 7834 993e cc28 4b3e 52d0 cfbc a95a 92bd
00000390: 57d1 a5bd e998 103e 0a65 61be 2947 2fbe
000003a0: 9072 6d3e 665e c23d 7991 05bf 4739 99bd
000003b0: 2b18 0abe 6307 09be dae9 0abe d6cd 133e
000003c0: 11e6 e2bd 8a3e 3f3d 802a 933e 6ce6 bbbd
000003d0: 5411 a2bd 348d c3bd 8b1d c8be 7a8c 87bd
000003e0: 2653 57be 2a44 87bd 8bb7 26be 0a02 70be
000003f0: 73e8 87bd be33 2b3e d3a9 46be 21ed cf3e

bias f4 [30]
-0.16233017 -0.12981915 -0.4060189 -0.20371762 -0.3180708 -0.51856196 0.0044604857 -0.2773772
-0.012351013 0.0013919813 -0.3509812 -0.18754673 -0.11887028 -0.10540446 0.0052840174 -0.20299605
-0.103976734 -0.18160194 -0.23538037 -0.005595146 0.08199557 -0.39365563 0.014746493 -0.13840258
-0.23185296 -0.13413985 -0.29148263 -0.113621175 -0.27564755 -0.05614099
00000000: e139 26be 50ef 04be b6e1 cfbe 5a9b 50be
00000010: 2dda a2be 7ac0 04bf 4429 923b 6204 8ebe
00000020: e75b 4abc 2473 b63a cfb3 b3be 400c 40be
00000030: 4372 f3bd 4bde d7bd 8d25 ad3b 32de 4fbe
00000040: c1f1 d4bd dcf5 39be 8d07 71be 7d57 b7bb
00000050: 4bed a73d 3b8d c9be 469b 713c 68b9 0dbe
00000060: dd6a 6dbe f55b 09be 363d 95be 38b2 e8bd
00000070: ad21 8dbe 18f4 65bd
