models/a32lds32b0.007g0.08d1h16.pt (torch, 226547 bytes, 26 tensors)

weight_ih_l0 f4 [64, 4]
00000000: d1c2 82be c670 e63c 4baa 343e 2b14 f1bd
00000010: e75e bc3e f891 3b3b fe14 3abd 7aa9 b03b
00000020: 768b 22bd 6add 803e 135f b0bd eaeb 30bc
00000030: 2787 8abe b60a ad3e eb2f 29be db5a 3d3e
00000040: 3236 533e b2c4 6dbe 89e6 d73d 0997 43be
00000050: c37f c53c cc86 86bc 9fb1 f7bd dec9 773e
00000060: 9000 03be e3b8 8d3e e1cb 9ebe 096c a43c
00000070: 5bda ea3d 1b61 7a3e e511 10bd 42de 1cbc
00000080: 977d d5bd 2f2b f53d 8823 553d 3154 ea3e
00000090: 4a1f 99be 95ef a33e 3e2a 973e f6c5 d9be
000000a0: 858b 16be 7557 04be 2176 4fbb 026d 28bd
000000b0: 1ad8 dd3d f957 f93b 1ddc 873e 161c dd3d
000000c0: ff28 a33e e164 d23d 9212 f13e 93a5 be3d
000000d0: 5069 81bf 1f1d fd3e 897a d0bd 1d19 7c3e
000000e0: f9be b13e 9998 ca3d 8fda 203e 1e79 cfbe
000000f0: eb2c 1c3e 5352 0a3f f8c2 7dbc 95c0 9fbe
00000100: 25e6 103e 5337 4abe 614a f23d e40c a53e
00000110: 4819 a83e d9f9 67bd d91f cb3a 322d bc3e
00000120: 4962 1d3e a435 a7bc 2ee6 8ebc 829a 373e
00000130: 02da 79bc 48e7 233e efd9 39be a788 fc3d
00000140: 83e8 f93c 5684 49be cf39 4bbe e251 203e
00000150: 9989 ea3c 5a9e 243e 1a40 0e3f 3cb2 b7be
00000160: c7cd c83e ef58 c0bd 06dc a5bd aba2 c13d
00000170: 6c3e 153e 2dfe d9bd 83da 4dbc 8283 a33e
00000180: 7f62 63bc d551 ca3d 1d25 e53e 0510 123e
00000190: 137d aabe e53b 873e 6c4c 843e 3c70 0abf
000001a0: 7f4e 65be 9bf7 3c3e 05de e6bd 6e17 84be
000001b0: 8038 94bd 14f6 8f3e b0c4 ebbd 6c7f f9bc
000001c0: c7ab 1c3e 7b44 a1be eb7f f93d 1eb4 1a3d
000001d0: 2687 05bb 1ce4 9c3c 057f a93e 0525 9d3e
000001e0: a653 bf3d 1c05 26bd 4fbd 73be 87b2 27bd
000001f0: 95ae 63bf f5c1 6e3f 856e 513d d45d c0bf
00000200: 1084 803d e2d9 193e 366e 2a3e ab78 d03d
00000210: 3d15 0b3e a233 0d3e f1b9 803d 2fff 053f
00000220: cd08 9f3c a7b3 58be f27e c43c 6584 523d
00000230: f51f 74be 01c5 8dbe f1bc 843e 9bad 60be
00000240: 5d88 ec3d 93f5 d63d b84b b63d ce37 0b3d
00000250: ef54 683c db1b 93bc cfc5 f13d 4209 3dbe
00000260: 3ff5 debe d996 0f3f b038 aa3e dabc 113f
00000270: 78d0 c9bd d3c9 93be 0f56 bc3e c665 3cbe
00000280: d42b b83d 955a a63e 899d 3c3b b1fe 6abc
00000290: d18a 82be 45c7 c0bc 3f32 a53e ee57 da3c
000002a0: f15b cebd 9f6d 393d 18ee ab3d 6863 5c3e
000002b0: dd2a d4bd 9761 923e 687d d8bd f30d 263c
000002c0: 990e dd3e cc24 80bd 5a0a 15bf efd4 fc3b
000002d0: 369a d23e 6313 9f3d e306 aebe 6360 5ebe
000002e0: 3375 0cbc 70bb 7d3e 1f4d 073e 3184 86be
000002f0: aba6 e93e 849c c5be 4157 c33e 5be7 133e
00000300: 2c80 63bd f749 3f3e 75ce 873c 8f24 b7bb
00000310: e14a 033f 8593 6bbe 4d6f 9dbe 9460 1dbe
00000320: 0b24 263f b7db 5dbd ec6a 85be 6528 023e
00000330: cead c63d 2413 2b3e 62b4 08bd abff 053e
00000340: 5b10 4c3e 69cd 12be 411f 7c3e 44db 673d
00000350: 9801 713d 8a43 b83d 1040 13be e6cf ebbc
00000360: 6e56 243f fae6 fc3e cbab 55bf 180c 943e
00000370: 306b 5dbe 062d f93d a38c 393d 77ed 973c
00000380: a9d9 94be f780 8b3e 482f 9d3e b8b4 873e
00000390: 0280 9ebd 617a db3e 6ab4 d33e abf0 15bf
000003a0: c4a6 34be a8ac 44be 9955 fcbd cd6d 91bd
000003b0: daf7 3f3e 483f 04be 19e5 8f3e c534 233e
000003c0: 1c4e 053e 10c4 0fbe 14da 0abe 7857 3cbe
000003d0: 1c75 1cbf 9d79 463e 4584 de3e 0269 00bd
000003e0: 3744 733e ae05 bd3c 29eb fa3d 46c2 a8be
000003f0: 384d 07be ae39 763f 08ab e63e 4bc8 acbe
-0.25539258 0.028129946 0.17643087 -0.11771425 0.36791155 0.002862094 -0.045430176 0.005391297
-0.03968378 0.25168926 -0.08611884 -0.010798434 -0.27056238 0.33797234 -0.16522186 0.1849169
0.20626143 -0.23219565 0.10542018 -0.19100584 0.024108773 -0.016421698 -0.120944254 0.241981
-0.12793183 0.2768012 -0.31014922 0.020071046 0.11467429 0.24451105 -0.035173316 -0.009574475
-0.10424345 0.11971127 0.05203584 0.45767358 -0.29906684 0.32018724 0.29524416 -0.42533845
-0.1470166 -0.12923987 -0.0031656104 -0.041119583 0.10832234 0.007609364 0.2653512 0.107963726
0.31867215 0.102731474 0.4708448 0.093089245 -1.0110264 0.4943628 -0.10179622 0.24618955
0.34716013 0.09892387 0.15708373 -0.40522093 0.1525151 0.54031867 -0.015488379 -0.31201616
0.14150293 -0.19747667 0.11830593 0.32236397 0.32831788 -0.056634758 0.0015497162 0.3675323
0.15369524 -0.02041132 -0.017443743 0.17930034 -0.015249731 0.16006196 -0.18149541 0.12330752
0.030506378 -0.19679388 -0.19846271 0.15656236 0.028630065 0.16076031 0.5556656 -0.3587817
0.39219496 -0.09391963 -0.08098607 0.094548546 0.14574593 -0.10644183 -0.012564304 0.3193627
-0.013878464 0.098788895 0.44754878 0.14263923 -0.3329855 0.26412883 0.25839555 -0.54077506
-0.22393225 0.18453829 -0.112728156 -0.25799125 -0.07237339 0.2811743 -0.115121245 -0.030456267
0.15299903 -0.3149756 0.121826015 0.03776943 -0.0020374744 0.01915174 0.3310472 0.30692306
0.093421265 -0.040532216 -0.23802684 -0.04094174 -0.88938266 0.93264705 0.05113079 -1.5028634
0.06275189 0.15024522 0.16643605 0.101792656 0.1358232 0.13789228 0.062854655 0.52342504
0.019413376 -0.21162282 0.023986313 0.051395793 -0.23840316 -0.27689365 0.259254 -0.21941225
0.11549447 0.10496058 0.08901161 0.033988766 0.014180406 -0.017957618 0.11805307 -0.18460563
-0.43546483 0.5608955 0.33246374 0.5692879 -0.098542154 -0.28864917 0.36784407 -0.18398198
0.089927346 0.32490984 0.0028780422 -0.01434295 -0.25496534 -0.02353252 0.32264897 0.026653256
-0.1007613 0.04527056 0.08395022 0.21522295 -0.10359738 0.2859008 -0.10570794 0.010135162
0.431752 -0.062570184 -0.5821892 0.0077158133 0.4113328 0.077673696 -0.3398963 -0.21716456
-0.008572864 0.24778533 0.13213013 -0.2627273 0.4563497 -0.38595974 0.38152507 0.14443724
-0.055542156 0.18680559 0.016577939 -0.005589075 0.5128613 -0.23005493 -0.30748978 -0.15368873
0.6489875 -0.054164615 -0.26058137 0.12710722 0.09701119 0.1670652 -0.03337515 0.13085811
0.19928114 -0.1433617 0.24621297 0.056605592 0.05883941 0.08997257 -0.14379907 -0.028785657
0.6419438 0.4939497 -0.8346526 0.28915477 -0.2162292 0.12166791 0.045300137 0.01854585
-0.29072312 0.2724683 0.30700135 0.26505065 -0.07739259 0.42866805 0.41348583 -0.58570355
-0.17641741 -0.19206488 -0.12321014 -0.07101021 0.18746892 -0.12914765 0.28104475 0.15938099
0.13018078 -0.14039636 -0.13559753 -0.18392742 -0.61116195 0.1938233 0.4346029 -0.031350143
0.2375649 0.023073997 0.122518845 -0.3296072 -0.1321305 0.9618176 0.4505236 -0.3374656

weight_hh_l0 f4 [64, 16]
00000000: e50a 273d 3f91 40be 9c5a b2bd 1790 8fbe
00000010: 0182 9abd 4e95 77bd bff3 163e ffc4 3d3d
00000020: 8f72 613e a73c 4fbe 6944 103e cb30 7e3d
00000030: 7a05 a43e 6ef0 97bd 0913 06be 17fb 933d
00000040: 182d cabc b890 93bb 8f51 23bd 5411 7ebd
00000050: 6f1a f23d 7eac 0d3c bbd2 acbd cb23 5f3d
00000060: b55d 603e 854d a53d 3c14 253e fb09 fbbd
00000070: 7d44 3e3d 413c c63d b2e0 2d3d 996e 9fbd
00000080: 4f43 923b 7784 44bd df09 a1be f426 6dbe
00000090: ccf6 073f 2664 283e 9ac1 ad3b 9767 fabe
000000a0: cf87 69bc 190c 143e 85b1 8c3e 1924 bfbe
000000b0: 427f e63e b671 c33c b8da 103d ecf7 2abd
000000c0: 6d95 ed3d 2d55 763e 495a 523e 9892 f23c
000000d0: f616 3e3e 8b39 5e3e 4481 febe 63ad dbbd
000000e0: 8b4d 023e 159d 8c3e 2fe7 2fbc b172 20be
000000f0: bf95 fa3d b495 30be 48ba 473d 6157 b73d
00000100: 1bf5 593e da7d 1cbe 899c 823d 34dd aebd
00000110: dd16 abbc 7743 083e 6484 16bc 4bd0 0cbd
00000120: 1d9e 213e 892f 173e 8e40 68bd 8430 d8be
00000130: 6d21 543e b168 ae3d 7760 033c 9b0e 503e
00000140: eeca eabc e15f b1bd 8053 6cbd f440 8ebe
00000150: 2645 6c3d 635f 1a3e 98c5 20be edc3 dbbe
00000160: 3912 2c3e 277b 0bbe 9840 573d 19dd 653e
00000170: a7b2 07be 5bf8 ccbc 0e4e 0d3e 25d4 d43d
00000180: fd5b 8e3e 1dbf e43e 6aa5 b0be 749f eebe
00000190: f05b f43e 6499 133f 7cd2 c7bd 4ba5 11bf
000001a0: f037 9b3e 2ff1 8ebd de73 f13d f9aa d4be
000001b0: dace d13e 1298 75be 9db1 153d 2ff2 893e
000001c0: 5564 8c3e e6eb b83e 343f 92be 403f 4bbd
000001d0: 1c0c 023c 0e2b 053c d24e 47be b615 3fbe
000001e0: e178 803e 91bb f63d 163c 853e 7088 4a3d
000001f0: eae0 8dbd 1157 7e3c 8c15 39be 9886 5f3e
00000200: 94db 0d3e 7f35 803d df21 89bd cded 48bd
00000210: f15a 313e df65 60be 8435 07bd 68c7 08be
00000220: c905 3d3e 0713 123e 99d9 813e 70e5 1ebe
00000230: a8e6 3c3d 8770 333e 388e c2bd 125d 043e
00000240: 8fde 80bc 77af 8f3e 4c7f bbbd 7155 803e
00000250: 367c 673e 2a67 d83c 5303 1ebf 4135 683e
00000260: 7b6d febd 2ec4 b03d e1aa 13bd cb48 17be
00000270: 6f11 123e bfc2 c43e 8035 22be 02f4 173f
00000280: c266 063e fe73 603c 84bb 14be e923 843e
00000290: 3809 913d 0cba 3f3e d2bf 923e 39e2 493e
000002a0: 8824 cc3d c1a1 e3bd a10d 173e a70a 76be
000002b0: dd93 8f3c 08cb 2dbe 5afe 3e3d 8226 cc3c
000002c0: 9594 efbc 153d ef3c f41a 6c3e a3de cebe
000002d0: eaf1 a93e b41a f53d be94 fdbd b334 cbbd
000002e0: 1d19 073e 3220 983e 406c 063e b7c8 0e3e
000002f0: bd4d b23e 5331 45be 4ab6 ffbd b50a af3e
00000300: f863 b0bd 9dae 3a3e 435a 0abe a104 57be
00000310: c844 e93b a027 903e 9833 db3c 71fe c2bd
00000320: 8c07 943e b3c2 afbb ce76 a33e a0e1 15be
00000330: d7d3 173e b351 923e 0ccf 143e 46c0 2b3e
00000340: 0e82 e43e e63f f83d a071 efbe 6f47 7dbe
00000350: 2594 203e bee4 e03e 93ec 01be fdc8 6bbe
00000360: 5bf9 c13e 9562 81be 0f38 4b3d 985c 7fbe
00000370: 04ec 6a3e 42ab bdbe 4390 41be f395 b63d
00000380: 6e86 293e d233 ba3d b4b1 61be e0f9 a9bd
00000390: 1753 ecbd ce8a 32be adbd ba3e d369 bdbd
000003a0: 4a91 a33e 89fd 4c3e f28d dfbd 7521 18be
000003b0: 1a19 1fbe eb9c 62be 1449 773c 0d1b e7be
000003c0: 9be5 953e 5b4b c7bc c210 d1bd 21a5 3f3e
000003d0: 8119 593e 8c81 823e 530d 653f 2def 05bd
000003e0: 5d9c c83e 5805 733f f344 1b3e ca99 e63d
000003f0: 88bd 5bbe f4d3 debe b167 e03d a05e 45bf
0.040781874 -0.18805407 -0.087086886 -0.2803962 -0.075443275 -0.060445122 0.1474142 0.04633045
0.22016357 -0.20237981 0.14088596 0.06205825 0.32035428 -0.07418905 -0.13093199 0.07225626
-0.024679706 -0.004503336 -0.039872702 -0.062028244 0.11821448 0.008647082 -0.08438631 0.054477494
0.21910746 0.08071426 0.16121 -0.12257763 0.046452034 0.09679461 0.042450614 -0.07784767
0.00446359 -0.04797789 -0.31452844 -0.2315939 0.5311096 0.16444454 0.00530262 -0.48907158
-0.014253571 0.1445774 0.27479187 -0.37332228 0.45018965 0.023857933 0.035364836 -0.041740343
0.11600766 0.2405593 0.20542254 0.029610917 0.18563446 0.21701638 -0.49707997 -0.1072643
0.12724893 0.27463594 -0.010736271 -0.15668751 0.12235593 -0.17244607 0.048761636 0.08952213
0.21284907 -0.15282384 0.06377513 -0.08538285 -0.020884925 0.13306986 -0.009186838 -0.03437833
0.15782972 0.14764227 -0.05670219 -0.42224514 0.20715876 0.08516062 0.0080186045 0.20318072
-0.028661218 -0.086608656 -0.05769682 -0.2778393 0.057683133 0.1507545 -0.15700376 -0.42922917
0.16803826 -0.13621198 0.052551836 0.22447623 -0.13251744 -0.025020769 0.13799307 0.10392026
0.27804556 0.44677058 -0.345012 -0.46606028 0.47726393 0.5765593 -0.097569436 -0.5689284
0.30316114 -0.06979596 0.11789678 -0.41536692 0.40978128 -0.23983791 0.03654634 0.26942584
0.27420297 0.36117476 -0.28563845 -0.049620867 0.007937457 0.008127941 -0.19463661 -0.18660626
0.25092223 0.12047494 0.26022404 0.049446523 -0.069276646 0.015523688 -0.18074626 0.21828687
0.13853294 0.062602036 -0.066959135 -0.04905491 0.17319848 -0.2191386 -0.03301002 -0.13357317
0.18459238 0.14265071 0.25361326 -0.15517211 0.04611841 0.17523395 -0.09499782 0.12926129
-0.015731124 0.28063557 -0.09155139 0.25065187 0.22605976 0.02641638 -0.6172382 0.22676565
-0.124232255 0.08631168 -0.036051635 -0.14773862 0.14264463 0.3842983 -0.15840721 0.593567
0.13125136 0.01369953 -0.14524657 0.25808647 0.070818365 0.18723315 0.28661972 0.19715203
0.09967905 -0.111148365 0.14751293 -0.24027501 0.017526561 -0.16971982 0.046629287 0.024920706
-0.029245654 0.02920393 0.23057157 -0.40404233 0.33192378 0.11967984 -0.12381886 -0.09922161
0.13193174 0.29712063 0.13127232 0.13943754 0.34824935 -0.19257097 -0.12485941 0.34187856
-0.086128175 0.18230672 -0.13510995 -0.2099786 0.007118795 0.2815523 0.026758 -0.09521187
0.28912008 -0.005363786 0.31926578 -0.1463685 0.14826904 0.28577957 0.14532107 0.16772565
0.44630474 0.12121563 -0.46766376 -0.24734281 0.15681513 0.43924516 -0.12687902 -0.2302589
0.37885556 -0.25270525 0.04961401 -0.24937665 0.22941595 -0.37044722 -0.18902688 0.08915319
0.16555187 0.09091915 -0.22040445 -0.08299613 -0.11539286 -0.17435762 0.36472836 -0.092487
0.31946784 0.20018591 -0.10915746 -0.14856513 -0.15536919 -0.22130172 0.015093107 -0.45137826
0.29276738 -0.024327924 -0.102082744 0.18715335 0.21201135 0.2548946 0.89473456 -0.0326988
0.39181796 0.9493003 0.15163021 0.11259802 -0.21459019 -0.43521082 0.109572776 -0.7709751

bias_ih_l0 f4 [64]
00000000: a39f c5bc c06d 963e 53cf 5d3e f461 a73e
00000010: 5c66 403e b0af 623e 2781 f63d 4d73 be3e
00000020: f3b1 243e 3d18 923d 1bd5 2cbd 1efd c6bd
00000030: d5d6 d63d 8fa3 573e f18a 483e f54b 073e
00000040: 6cdb 8c3d a3a3 5c3e ecdf d03e f0aa 5f3e
00000050: 11f5 6d3e b933 9e3d 8430 84bd 1514 3ebe
00000060: 7617 763e 3135 f73d f551 703e e12a 323e
00000070: a3aa 12be 7707 f7bd 5ba9 5c3e db66 c3be
00000080: 21a1 19bd 9239 9d3d ed5e d2bd de7c f3bd
00000090: d82e 923e 7aa2 7c3e 737c d03c ea2b 19be
000000a0: e7bc 873e 86d1 aa3d b9b2 5b3e d8b9 b7bb
000000b0: 1eca 4b3e d77e 47be 6c01 f2bd 5728 74be
000000c0: f795 1f3e 04b7 083e eb41 1e3e 376b 8a3e
000000d0: 6ed9 5b3e 9b40 283d 4799 a23e 9aec a9bd
000000e0: 1116 e43d 7c72 c0bd 1f2d 863e 8e84 75bd
000000f0: 9ac4 ecbc 15a3 923e 10d0 933e 6e04 f43e
-0.024123972 0.29380608 0.21661119 0.3269192 0.18789047 0.22137332 0.120363526 0.37197343
0.16083507 0.07133529 -0.04219542 -0.09716247 0.10490195 0.21058486 0.19584252 0.13212569
0.06877789 0.21546797 0.4079584 0.21842551 0.23238017 0.07724709 -0.06454566 -0.18562348
0.24032387 0.12070692 0.23468764 0.1739917 -0.14322905 -0.12061971 0.21548979 -0.3816441
-0.03750718 0.07676996 -0.10272012 -0.11889051 0.28551364 0.24671355 0.025449967 -0.14958158
0.2651131 0.08340745 0.21454896 -0.005606871 0.1990132 -0.1948198 -0.118166775 -0.23843513
0.15584551 0.13351065 0.15454833 0.27034923 0.21469662 0.041077238 0.31757566 -0.08297081
0.11137021 -0.09396836 0.262063 -0.059940867 -0.02890234 0.28640047 0.28869677 0.4765963

bias_hh_l0 f4 [64]
00000000: fb61 f2bd 20e1 523e 1708 513e dab9 5c3e
00000010: 1de6 02be b999 3b3d c4b1 043e 06bb 123e
00000020: 7f77 3e3e 903b 453e 89c4 ccbd a874 563e
00000030: 96b4 423e bf97 753e 298e 563e ab82 ec3e
00000040: aa5e bd3d 6d0d 703e 9f0c 053d 7a9e 443e
00000050: 2d24 743e a4eb 953b f327 87bd 6bbc 303e
00000060: d03d abbb 030e 59be 957e 34be 37f1 ecbd
00000070: b394 41be 09ff a63e 5cc2 ebbd c7a0 803d
00000080: f026 693e cecb e83d ad37 74be 7d4b 0e3e
00000090: 796a 18be 0ef6 d2bd ca76 83be 2cf7 9ebc
000000a0: 77d2 c33d 595f 763e 5346 223e 818a 4dbe
000000b0: 8a2d f13d 2630 a5bd 4850 1dbe 25b5 553e
000000c0: e364 08be 32af 073e dd81 5e3d d6f3 3dbc
000000d0: 5485 28be ce2c 543e b3df 8a3e 1602 e4bd
000000e0: bf4b a53d ecd8 9a3e 3687 7e3e 2307 953e
000000f0: 1680 87bd dbed 21bd d53d 883d 0891 6f3d
-0.118350945 0.20593691 0.20413242 0.21555272 -0.12783094 0.0458009 0.12958437 0.14329156
0.18600272 0.19261003 -0.099984236 0.20942938 0.190142 0.23983668 0.20952667 0.46193442
0.09246571 0.23442622 0.03248274 0.19201079 0.23841925 0.0045752097 -0.065994166 0.17259376
-0.0052258745 -0.21196751 -0.17626412 -0.115694456 -0.1890438 0.3261645 -0.115116805 0.06280666
0.2276876 0.11366998 -0.23849364 0.13895984 -0.14884366 -0.103008375 -0.25676566 -0.01940497
0.09561627 0.2405981 0.15847139 -0.20072366 0.11776264 -0.08065824 -0.15362656 0.20869882
-0.13319735 0.13250425 0.054323066 -0.01159378 -0.1645711 0.20720217 0.27123794 -0.1113321
0.08071088 0.30243623 0.24856266 0.29107007 -0.06616227 -0.039533477 0.066524185 0.058487922

weight_ih_l0_reverse f4 [64, 4]
00000000: 9c4b 3a3d 87be 31bb 0e32 d83e 8b96 1b3e
00000010: ddc6 d03d 07f4 803c ea2f 8d3d c06a 643e
00000020: 31a9 e0bc 8016 bb3e 919e a53d c8d2 223d
00000030: f38e 82bc 384f a13e 1a7b 82be 941f 613d
00000040: 2a3c bfbd cf8f d5bc 105a 71be 99a8 5f3e
00000050: 56db 6c3d 4f11 003e 94c0 5f3e dfc4 d7be
00000060: 0eab f03c f649 193d 601a 1dbc baca cf3d
00000070: 93c2 95bc 3744 a43e f8ee ff3d b943 0b3f
00000080: 4b5a af3d bd89 b83c 1fef d1bc e7d3 d43e
00000090: 57db 523e e078 bcbe e15b 523e c1e9 4b3d
000000a0: 7b0c ce3d 4d34 b6bd 51c5 0b3e d801 08be
000000b0: 4ff5 bebd cb2f 2bbd 2812 563d 2290 273e
000000c0: d354 1a3f 3a6e 193e a636 c7bc 2d86 393e
000000d0: dcf0 a13e 7bec 753d fbb3 cbbc 78ca 46be
000000e0: 5b71 d5be beb2 893e fee2 f73e 1b7b ffbe
000000f0: 203e 873f 2643 6f3e 7b90 93be 138b 153f
00000100: 4c42 703a 8da4 423e 339f 71bc aac6 babd
00000110: 4f0b e1bd 59b6 753b a9cf 2cbe f8d1 193d
00000120: 01f0 243c f701 d33d 08c3 69be 9bd7 923e
00000130: d9de 25bf 92a5 f33e 4380 653e 385b 9e3c
00000140: cde3 a93e 15a0 973e 09b2 ec3d e2f7 233d
00000150: a569 8f3e 1887 a7bd c6b2 593f 232e 22be
00000160: cf85 86bc d695 86bd b463 a4bd 2a37 c0bd
00000170: 9744 44be 9586 443e 507c 1abe 4482 883e
00000180: 7604 973e 1b63 89be 8a42 823e 701f 73bd
00000190: c834 283e ef38 c9be 23fd 1bbb dd76 b13a
000001a0: 9280 8a3d e5e5 c5bc 258b 0c3e 5f90 a63d
000001b0: f797 c6bd 8516 78bd 7a36 cf3e 26fe 4ebe
000001c0: 143b aabe bad1 e1bd e69b c63e 6f76 b0be
000001d0: 4016 50bf 1738 023f 8918 5b3d 1165 3fbf
000001e0: 0310 ef3e 85a4 b3bc 010c 3bbe 3138 dbbe
000001f0: ec62 58bf eb48 8b3e 9be5 2a3f 0536 6dbf
00000200: 9218 dbbe 6771 a3bd 5cee dbbe 3957 82be
00000210: c892 45be e9ad b4bd a18c 433e 5360 c13c
00000220: 360e 17bf d8fa 473e 3714 94be 430c 44be
00000230: 0e32 f1be c520 a63d 878d d1bd 14ee bebc
00000240: 7cc7 9a3d 311e 5abe 5d58 ef3d 3e59 083e
00000250: 3e88 b7bc 8176 823e fcf8 8bbe 24dc 973e
00000260: 2fca 02bf 0cd5 c1bd 2acd 82bd ef86 8e3a
00000270: de2a 553c f037 a1bd 9124 dc3e 860b b33b
00000280: c05e de3e b6e8 1fbe d25e 0a3e 5e02 81bd
00000290: eda9 bfbe 826f abbc 566f 72bd 4b22 933e
000002a0: f37b 1bbe 927b 5c3e 04d8 b0bd 1600 e93d
000002b0: dbc3 63be 8dbd 59be f62a 833e 07d7 41be
000002c0: f8f9 15be eab3 dd38 c511 28bf 3e4a 4a3e
000002d0: 1aeb 86be 2a31 bf3e 171c c7be 8749 3f3e
000002e0: e042 a7be fe3f 0c3f 0389 bfbe 816f f6bd
000002f0: c748 743e 0946 4c3f 7059 07bf 2d16 6f3e
00000300: 2293 96be d3af 143e 2665 e4bd c348 273e
00000310: d603 dc3e 8279 d9be a654 963c a70b 123e
00000320: c651 783e 1942 803e 652e b1be c40a ddbe
00000330: 9eec 4fbe 71fd 153e 1644 6bbe 49a8 00be
00000340: b017 22be 9b82 a83e 913d 333d 70bb 0ebd
00000350: c7c4 5b3e f7b8 d7be 5614 4e3f 29c6 0b3e
00000360: 3709 5b3e 4caa 333e d955 4ebd 4e18 833e
00000370: bb74 adbe 47d4 b43d fd38 9e3e 3035 fc3d
00000380: cb76 8cbe d06d 1dbe bf68 55be 5032 4f3d
00000390: edf9 0e3f 3a0c 29be 3e71 22be 9506 a73d
000003a0: c81c 5cbe 6c8a 8c3e fb50 0d3e 6dea 293e
000003b0: 9146 f53c d3fe af3e a00b 963e b13a 223e
000003c0: 9ad2 2c3e cdbc 9b3e 42c4 5a3d 9e8e e13d
000003d0: 3d6d 43bd 564d 8f3e 100e ad3e b2cc abbe
000003e0: cd3e 69be 2c72 2d3f 6e89 a23e a451 ccbe
000003f0: 3c12 503f a567 583e b2f4 0a3e 8a9e 95bd
0.045482263 -0.002712162 0.4222569 0.15194146 0.1019418 0.015741361 0.068939045 0.22306347
-0.027424427 0.36540604 0.08086885 0.039751798 -0.015937304 0.31505752 -0.25484544 0.054961756
-0.09337647 -0.02606955 -0.23569512 0.21841659 0.057826363 0.12506603 0.21850806 -0.42142388
0.02937844 0.03742405 -0.009588808 0.10146089 -0.018281257 0.32083294 0.124967515 0.5440021
0.08562144 0.022526616 -0.025626717 0.4156792 0.20591484 -0.3681097 0.20542862 0.049783472
0.10060974 -0.08896694 0.13649489 -0.13281953 -0.09324133 -0.041793626 0.05226341 0.16363576
0.6028568 0.14983454 -0.02431805 0.1811759 0.31629074 0.06003998 -0.024866095 -0.19413173
-0.41688046 0.26894182 0.4841537 -0.4989861 1.0565834 0.23365459 -0.28821167 0.58415335
0.00091651524 0.19008084 -0.014747429 -0.091199234 -0.10988485 0.003749272 -0.16876091 0.037553757
0.010066987 0.10303109 -0.22828305 0.2868012 -0.64793164 0.47587258 0.22412209 0.019330606
0.3318161 0.2961432 0.11557395 0.04003132 0.28010288 -0.08180064 0.8503841 -0.15837912
-0.016421227 -0.06571548 -0.08026829 -0.09385522 -0.1916679 0.19191964 -0.15086484 0.26661885
0.2949559 -0.26833424 0.2544139 -0.059356153 0.16426384 -0.3930125 -0.0023802004 0.0013539452
0.06762804 -0.024157474 0.13724954 0.08133005 -0.09696954 -0.06056835 0.4047125 -0.20214137
-0.33248198 -0.1102633 0.38790816 -0.34465358 -0.8128395 0.50866836 0.053490195 -0.7476359
0.46691903 -0.021929035 -0.18266298 -0.42816308 -0.8452594 0.2720407 0.667566 -0.9266055
-0.42792183 -0.07980614 -0.4295529 -0.2545717 -0.19294274 -0.08822233 0.19096614 0.023605501
-0.5900606 0.19529283 -0.28921673 -0.19145302 -0.471085 0.08111719 -0.10232072 -0.023306884
0.0755758 -0.2130058 0.11686776 0.13315293 -0.022403833 0.25481036 -0.27338398 0.2966014
-0.5108976 -0.094644636 -0.06386788 0.0010873954 0.013010709 -0.07871997 0.42996648 0.00546402
0.43431664 -0.15616116 0.13512734 -0.0629928 -0.3743433 -0.020927195 -0.05918821 0.287371
-0.15184002 0.21531513 -0.08634952 0.113769695 -0.22242682 -0.21263714 0.25618714 -0.18929683
-0.14646137 0.00010571613 -0.65652114 0.19754884 -0.26351243 0.37342197 -0.38888618 0.18680392
-0.3266821 0.54785144 -0.3740922 -0.120329864 0.23855887 0.79794365 -0.52870846 0.23348303
-0.29409128 0.14520197 -0.11152105 0.1633635 0.42971677 -0.42475516 0.01835091 0.14262258
0.24249944 0.25050429 -0.3460571 -0.43172276 -0.20305106 0.14647461 -0.22975191 -0.12564196
-0.15829349 0.32912144 0.043759886 -0.034846723 0.21461783 -0.42133304 0.8049978 0.13649811
0.21390234 0.17545432 -0.05037484 0.2560448 -0.3387812 0.08829551 0.30902854 0.12314832
-0.27434382 -0.15373921 -0.20840739 0.05058509 0.55850106 -0.1650857 -0.15863511 0.08155552
-0.21495354 0.27449358 0.13800423 0.16593333 0.029940875 0.34374103 0.29305744 0.15842701
0.16877213 0.3041748 0.053409822 0.1101353 -0.0477116 0.2798869 0.3379979 -0.33554608
-0.22777863 0.6775234 0.31745476 -0.39906037 0.81277823 0.21133287 0.13569906 -0.073056296

weight_hh_l0_reverse f4 [64, 16]
00000000: 00fb a0bd 946d 0dbd 7ef7 633e d83e 1fbc
00000010: b0da eabe 07db 823d ad76 85bd b814 8fbd
00000020: 60c9 5c3e 46c5 12bd ace5 ffbd c6e7 15bf
00000030: 337c 1ebe 0ba6 16bf 84ee 46be af8f b83e
00000040: 0663 f33d 0e13 c6be cd83 2f3e a2ee 0c3e
00000050: e607 00be 4a63 79be d417 95be 90af 49bc
00000060: 0283 203e ddc5 92bd 4118 c33e 832c 423d
00000070: 1237 cbbe d589 823e 8c3b 0a3f fa2f 3c3d
00000080: 6fda debe 1ffc e5be 5561 85bd 7bc2 de3d
00000090: 7a25 d2be b462 3fbe 5731 22bf e692 76be
000000a0: 68a4 743e 7e7f 13bf d0e2 263e 6f21 f1be
000000b0: 201f 453d 5b69 e93e d07d 6a3f e6df 9e3f
000000c0: f14e 24be 7c79 d33d 0f60 58bd 7b16 853e
000000d0: 84c7 fabd f185 a9bd 0af1 753c 0b92 b53d
000000e0: 6775 7f3d 6b59 cb3c d8fa 9a3e a7ad c2be
000000f0: 5f9d 40be c6c6 9bbd 4414 4d3e 5e5a 313e
00000100: 989a 79be 806f cc3e 4fe4 ecbc 7b0e ef3d
00000110: fb09 b8be b023 aabd f5ee 1c3e 67cf 6a3d
00000120: 44de fc3d 91f1 db3e d257 833e 4113 153b
00000130: 7db0 843d fcf3 b4be 2c88 c3bc b1db 08bd
00000140: e637 0d3d 6577 47be 346e 5dbe ba7d 5e3e
00000150: 3538 1c3e fe4a 62be b163 b0bd 854e 153f
00000160: b129 4a3e ad46 0abf b838 733d 175d cd3d
00000170: e7a1 dfbe 1bf6 553e 4e97 293f a279 01bd
00000180: 3fd9 8fbd 1b31 69be 9c4c 6c3d 2e4a 33be
00000190: 5622 34be a55f 263c 32ad 82be d80b dabd
000001a0: 4887 99bd 3519 9abe 0b8b a03e 8245 2d3e
000001b0: 76b7 543e d749 aa3e 6d78 7f3e dacc 82bb
000001c0: c3e9 66be 87ca cd3c a100 42be e5b8 e4bc
000001d0: 9ba2 b1bd c45d 91bd 715f 3f3d 8aca 893e
000001e0: a3c7 1b3e a8de 49bd efdc f53d 889a 033e
000001f0: ca67 47bc c995 b8be 7b78 b7bd dd8b 68be
00000200: 202b 02be 0f46 983d 7063 3ebe 6b68 993d
00000210: 43c7 af3d 471e c83d c05a e9bd 260c 8abd
00000220: f794 f4bc 98db 893d 2f79 883d da15 ad3e
00000230: a646 36bd 5ee1 8e3d 90cf 023e 51a6 9b3d
00000240: ffe8 b33c de2d e8be 1694 063e eb41 3fbe
00000250: ce86 fabd af0d 843d 1058 40be 958a fd3d
00000260: d507 5cbd 2161 c6bd 3b2e 4fbc 2052 66be
00000270: 5fcc a23d 0db9 b53e b9f2 633e 8b1f 843c
00000280: be98 c0be cf5b 14be a4d3 20bf f1b4 dc3e
00000290: 4884 86be 8760 b8bc 0ef7 2bbd ecd3 723c
000002a0: a474 2b3e 3284 4f3d 7c69 863e df17 86be
000002b0: 5ee0 103e d961 0abe 1c3f 243d 9978 8cbd
000002c0: ef65 c4be de19 cb3c 2569 89bd 554c 023e
000002d0: b56c 81be 1e0e 27be 3a5d 6f3d bd56 04be
000002e0: 91fc 8d3e 3f06 6bbe 137b 413e 63c3 8b3d
000002f0: 9c4b 65be b4bf 0cbf 09b1 d03e 3d69 fdbd
00000300: ae8f ffbe cd25 3e3f c95b 203e 74cb b03e
00000310: fcc9 10be edfb 2fbf 118f d8bd 1149 893e
00000320: 6605 a13d 2cc4 303e 562b 883d dfc9 f73d
00000330: 6cbd 2dbf 76cd 84be f0fe 8d3e 7a6b ae3d
00000340: 50fb b8be 35cd 7d3d 79aa 5a3d e3b5 be3e
00000350: 0acb adbe b8fa 3abe c141 f0be a2a6 943e
00000360: 9c08 5bbd 6394 86be 8384 203e e646 9dbe
00000370: 0d73 c3be 4e74 2d3f df3d 093f 57ba 9f3e
00000380: 6774 ebbe b984 513f 7f31 8fbe 2365 923e
00000390: c116 b2be 1b27 9fbe ac4d 803d ea35 9b3e
000003a0: a8f7 f63e fceb 8d3f db3a a83e b134 2abf
000003b0: 9cbe 22be 75e4 933e 3337 8bbe 3b58 9bbe
000003c0: bf1f fdbe 179b e9be 33a4 dd3c a7e7 723e
000003d0: 6b71 45be fd67 edbe d0a3 05bf 1d2e 2b3e
000003e0: 35cf 7e3d edef b5be ff03 293f caed 93be
000003f0: 1188 21bf 607b cbbc 29c7 f43c ae5a 543c
-0.078603745 -0.03452833 0.2226238 -0.009719573 -0.4586997 0.063894324 -0.06516776 -0.06986374
0.21561193 -0.035832666 -0.12494978 -0.58556783 -0.15477066 -0.5884711 -0.19426924 0.36047122
0.118841216 -0.38686413 0.17140122 0.13762906 -0.12503013 -0.24354282 -0.29119742 -0.012309924
0.15674976 -0.07166646 0.38104442 0.04740573 -0.39690453 0.25495782 0.5399711 0.04594419
-0.43526027 -0.44918916 -0.06512705 0.10876938 -0.41044217 -0.18689996 -0.63356537 -0.24079475
0.23890841 -0.5761641 0.1629746 -0.4709582 0.048125386 0.45588192 0.91598225 1.2412078
-0.16045739 0.10325906 -0.052825984 0.25993714 -0.12245086 -0.082775004 0.0150110815 0.08865746
0.062367823 0.024822911 0.30269504 -0.3802311 -0.18810032 -0.076062724 0.20027262 0.17319629
-0.24375379 0.39928818 -0.02891746 0.11672684 -0.35945114 -0.08307588 0.1532553 0.0573267
0.12347081 0.42957738 0.2565294 0.0022747072 0.06478975 -0.35342395 -0.023868643 -0.03341264
0.034477137 -0.19479139 -0.2162407 0.21727648 0.15255816 -0.2209892 -0.086127646 0.58322936
0.19742467 -0.5401409 0.059380263 0.10027521 -0.4367821 0.20894663 0.662465 -0.03161014
-0.07023858 -0.22772638 0.057690248 -0.17508766 -0.17591223 0.010154639 -0.25522763 -0.1064679
-0.07496506 -0.30097356 0.3135608 0.16921046 0.2077311 0.3325946 0.24948283 -0.0039917054
-0.2255011 0.025120987 -0.18945552 -0.027920196 -0.08673593 -0.070979625 0.04672188 0.26912338
0.15212874 -0.049284607 0.1200503 0.12851918 -0.012170741 -0.36051777 -0.08958527 -0.22709604
-0.12711763 0.074352376 -0.1859262 0.07490619 0.08582928 0.097714 -0.11394262 -0.067405984
-0.029856188 0.06731337 0.06663739 0.33805734 -0.04450097 0.06976579 0.12774491 0.07600082
0.021961687 -0.45347494 0.13142428 -0.1867749 -0.12232743 0.064479224 -0.18783593 0.12379948
-0.053718407 -0.096864946 -0.0126453 -0.22492266 0.07949137 0.35492745 0.2226056 0.016128322
-0.37616533 -0.14488147 -0.6282294 0.43106797 -0.26272798 -0.022506965 -0.041983657 0.014821034
0.16743714 0.05066318 0.26252353 -0.26190087 0.1414809 -0.13513888 0.04009925 -0.0685894
-0.3835902 0.024792608 -0.06709508 0.12724431 -0.2527825 -0.16313979 0.058438517 -0.12923713
0.27731755 -0.22951601 0.18894605 0.068243764 -0.22392124 -0.54980016 0.40760067 -0.12373588
-0.49914306 0.7427643 0.15660013 0.34530222 -0.14139551 -0.68743783 -0.10574163 0.26813558
0.07862358 0.17262334 0.06648891 0.12099051 -0.6786716 -0.25938004 0.27733564 0.08516593
-0.36129236 0.06196328 0.05338523 0.37248144 -0.3394397 -0.18259704 -0.46925166 0.2903338
-0.053475007 -0.26285085 0.15675549 -0.30718154 -0.38173714 0.6775559 0.5361003 0.31196854
-0.45987245 0.81843144 -0.2796745 0.28592786 -0.34782985 -0.31084523 0.06264815 0.3031457
0.48235822 1.1087642 0.32857403 -0.6648665 -0.15893024 0.28885236 -0.2719055 -0.30340752
-0.49438283 -0.45626137 0.027055835 0.23721181 -0.19281547 -0.463684 -0.52203083 0.1671681
0.062209327 -0.3553461 0.6602172 -0.28892356 -0.63098246 -0.024839103 0.029880123 0.012961073

bias_ih_l0_reverse f4 [64]
00000000: e10b 553e 8531 e83d dbef 953e 0332 82bd
00000010: c7f1 da3d ac1b 923e 18b6 9c3d c847 65bd
00000020: 0caa d43a 08c7 94bd 26c9 ed3c 2482 0e3d
00000030: d6d1 923d 46e6 093e 45f8 793e 84b2 f43e
00000040: 13f4 673e c387 38bd 0734 90bd 593e 91bc
00000050: b572 403e e39b 54be 0af6 c9bd 18ae a5bd
00000060: c44f cd3d 8e3a 6e3c 6b70 063e 8f05 b93d
00000070: 1270 3cbe e8fe fab9 1728 80be 0d99 5ebe
00000080: b046 25be 0afa 93bd b32b 713c f47c 603d
00000090: 1edc 46be b23a 5abe 8f27 32be 6cd0 513d
000000a0: e9dc 033e fe1a 213e f43a 9a3e 5346 a3bd
000000b0: 34c8 02be a83f 50be e321 343e 2226 0abd
000000c0: 02c8 423e 95f4 373e c61f 9b3e 2730 63ba
000000d0: 6c89 563e 8ae0 933e 7bce 8d3e 665b e93d
000000e0: fc2a 743d 66a5 a73e 593d b53e 7bdd 593e
000000f0: 150b 673e 0a50 aa3e a47f 923e e0ae c83e
0.20805313 0.1133757 0.29284558 -0.06357195 0.106906466 0.28536737 0.07651919 -0.05597666
0.0016224994 -0.07264525 0.02902658 0.03479208 0.07168929 0.13466749 0.24411114 0.47792447
0.226517 -0.045051347 -0.070411734 -0.017729925 0.18793757 -0.20762591 -0.09861381 -0.080898464
0.1002498 0.014540328 0.13128822 0.09034263 -0.18402126 -0.00047873636 -0.25030586 -0.21738072
-0.16140246 -0.072254255 0.014719891 0.054806665 -0.19419906 -0.21311453 -0.17397903 0.051224157
0.1287724 0.15732953 0.30123103 -0.07972398 -0.12771684 -0.20336783 0.17591052 -0.033727773
0.1902161 0.17964394 0.3029768 -0.0008666538 0.2095086 0.28882247 0.27696595 0.11394386
0.059611306 0.32743376 0.35398367 0.21275894 0.22562821 0.3326419 0.28613007 0.3919592

bias_hh_l0_reverse f4 [64]
00000000: c59d 98bd 7fab ee3e c987 913e 8d25 e33d
00000010: 70eb 67be ffaa 89bd 4fc0 9b3e 7c52 8d3b
00000020: 03f3 6e3e b01c f2ba cec8 5e3e 4824 ac3e
00000030: bd47 033e d95d fe3e a78e b93e 02f4 ee3e
00000040: f599 19be 44e9 803e 6920 d33d 8f7a 9e3c
00000050: 6023 903d 3b58 00bd fa87 06be dae2 eb3c
00000060: dda2 b7bc 2368 2b3e 4774 bc3c fc46 2f3d
00000070: a77c cf3d 9231 75be 9512 99be db75 84be
00000080: 0c2b a4bd 505f 51bd 285c 5ebd 2aea 583e
00000090: 7742 a3be fb5e 45bd 7a05 563d fcea 9c3e
000000a0: 3fe3 5d3e 6940 00be 2697 213c 50cb 21be
000000b0: 4c7e f9bc 8227 013e bd25 7ebb a1a1 cdbd
000000c0: 1ee7 86bd d584 653e df93 f33d 4f75 293d
000000d0: 7047 1b3e fca9 cbbd 2c9e 8cbd 7066 9fbd
000000e0: dac0 cf3d 9cdf 24bd 776c f23d 0393 45bd
000000f0: 8196 803e acf6 933e de40 823e f8fb c03e
-0.07451967 0.46615216 0.28423908 0.110911466 -0.22648406 -0.06722068 0.30420157 0.0043128114
0.23334889 -0.0018471684 0.21756288 0.3362143 0.12820335 0.49680975 0.36241648 0.46670538
-0.15000136 0.25177968 0.10308916 0.01934555 0.07037997 -0.031334143 -0.13137808 0.028794695
-0.022416526 0.16738944 0.023004664 0.042792305 0.101311974 -0.23944691 -0.2989699 -0.25871167
-0.08016023 -0.051116288 -0.054287106 0.21183077 -0.31886646 -0.048186284 0.052251317 0.3064803
0.21668719 -0.1252457 0.009862697 -0.15800214 -0.03045573 0.12612727 -0.0038779818 -0.10040594
-0.06587051 0.22413953 0.118934385 0.04137164 0.1516397 -0.09944531 -0.068661064 -0.0778321
0.101442054 -0.040252313 0.11837094 -0.048235904 0.25114825 0.28899133 0.25440115 0.37692237

weight f4 [16, 320]
00000000: ebbe bf3b 0a25 d93d 1267 cbbc 4db8 d3bd
00000010: c31b 933d 7b1f ce3d 0b52 e63c ef53 f9bd
00000020: 2bf3 363d d815 7d3d 2802 d13c 7479 0a3e
00000030: 88db 4f3c 60cd ee3d 1b07 a63d a707 53be
00000040: 9f8f 30bd 97c7 d6bd 7b09 113c a5a1 0d3d
00000050: bc98 dbbc 8b9b b53d 7ffc 16be 646f fc3d
00000060: e5e6 613d 92bf 893d ceb7 be3c 9c4c 47bd
00000070: 7799 cc3c e27a 983e b367 fc3d 506a 183e
00000080: fc43 183e 33ee 5c3d 6b7e 153c 452b 33be
00000090: 3423 9e3d 2a10 d0bc 6d3f 3d3e d1a9 f13b
000000a0: 1f76 e33d bef7 a13d 1ccf 2abd 7d7d bd3d
000000b0: 763f d4bc cb07 d8bd bacb cebd 87d3 34bc
000000c0: 6390 edbd 9b96 e9bd 2ec8 14bd 0d86 f03c
000000d0: 6643 e7bd c6b9 c13d 7998 1b3e d6a3 52bc
000000e0: fe88 a2bc 02b6 60bb b7ca 1f3c 7867 a0bc
000000f0: c46e 16be 7d98 20bd 75ed 50bd 8c9b 0fbd
00000100: 7a3e adba 33f4 0c3d af93 0abe 1e32 18be
00000110: cb68 203d 5839 073e 1ca0 4fbb f633 a23d
00000120: b88e 5d3d 0056 21bd 64e6 663d b06a a2bd
00000130: 5b9d 6b3d 9496 b63d 5e07 17be eefb 88bc
00000140: 374c 283d 9e8c 9b3d 2eb6 503e 07f2 263d
00000150: 398e 9bbd 444d cfbc 3f89 8bbd 5cab a03d
00000160: 87dd d7bc 037f 5c3d d9ed 0e3d 4f73 84bd
00000170: 64c5 4bbd 4983 f43c a625 2ebd cb46 f1bd
00000180: dc83 98bd 2f77 3b3d da27 a2bc af91 9b3c
00000190: 17ad 593c fabf 40bd ddee a33d cae3 0b3d
000001a0: f203 053c 0781 873b 30ec 05bd 6654 64bc
000001b0: 127c 83bd 7fbc 123d e621 9d3d 1f83 fc3d
000001c0: 13a3 e2ba 189d c93d 2f30 1a3e 5a0c 2e3d
000001d0: 14ae 3a3e 7510 af3d 474f 39bd bce1 a93b
000001e0: c31d 3f3c 7833 b0bd c021 ca3d 8ac2 613d
000001f0: 4b03 ab3c 3c43 1fbd eec3 d6bc e490 343b
00000200: 42f3 a5bd 7d28 da3d 5113 babd 39d5 b4bd
00000210: f79a 4c3d 4343 62bd 5de5 babd e3a4 cbbd
00000220: 03b2 f3bd 7ef7 8bbc 776e 17bd 5869 a0bc
00000230: e925 ae3d 5274 663e 6b29 783e e7e7 ffbe
00000240: 1ce0 023e 2e2f b4bb 8892 dabc af2e d63c
00000250: 3715 c63d 4285 c8bc 3498 63bd 2b48 1cbd
00000260: a804 ebbc 9a7f 3d3e aff7 8c3d eab4 09bd
00000270: cc71 383d 26f1 643e 7981 103e 9172 8cbd
00000280: 5ca9 9e3d 54e6 1dbd 3bd0 88bd 18fa 1bbe
00000290: 0875 bcbd af10 b8bd f038 203e 961c cbbd
000002a0: f9f4 c0bc 9da3 6f3e 4227 96bc c070 983d
000002b0: 9fce a1bd 9061 a3bd cc3b 473d 53a9 223d
000002c0: dec8 37bd afbd 473c 9291 533d 948c b83d
000002d0: a73b e73c 32ed 94bd 380d 523c d197 be3d
000002e0: f85e 76bd 8883 5cbe 40e0 0d3d db2d b13d
000002f0: 9346 b83d 6b3a b7bd dd9a 2c3e 2743 86bd
00000300: c2d4 a8bd fe0c a73d d124 2cbd 5421 7d3d
00000310: b6d1 023c 9440 833d 2a20 8b3d f7ad 06bd
00000320: cee8 9e3c 60a9 ad3c bf56 24be abe9 2f3d
00000330: 96d1 aa3c a78a b7bc 2725 2ebe 16d2 66bd
00000340: 8593 a2bd 4a11 30be 3c38 3dbe 62c3 babd
00000350: de17 24bd 1c71 b0bd 4380 8b3d d92c d93c
00000360: 0d50 803c 49fb ef3d f3ce 603d a86a 763c
00000370: e75a 1bbe aa2a 97be 81bd 93bc b15b 84be
00000380: 65ff 083e f783 9dbc c1d0 81bd cd66 afbc
00000390: d576 9d3d 0fe3 bc3c 1e05 763d d2c0 e8bc
000003a0: 6335 7dbd 275a 213d 546b 9e3d 1f4c 553d
000003b0: d441 08bd a679 9a3d e602 523d 4f1d dabc
000003c0: 9068 da3d 2452 ae3d 7a7f d33c dd87 7f3d
000003d0: 43ef 79bd 0d70 053a cf67 19be 5efc e8bc
000003e0: a3f9 15bd 4256 01be 2163 c73c bb7c f93d
000003f0: d7b1 02bd 6b4f 92bd 73af eebd 799b fbbb
0.0058516166 0.10602768 -0.024829421 -0.10337887 0.071830295 0.10064598 0.028115293 -0.12174212
0.044665497 0.06178841 0.025513723 0.13522893 0.012686618 0.11660266 0.08106824 -0.20608388
-0.043105718 -0.104872875 0.008852358 0.034577984 -0.026806228 0.08867558 -0.14744757 0.123259336
0.05515184 0.06725992 0.023281004 -0.048657045 0.024975521 0.29781252 0.123244666 0.14884305
0.14869684 0.053938102 0.009124379 -0.17496975 0.07721558 -0.025398333 0.18481226 0.00737498
0.11106514 0.07908581 -0.04170142 0.092524506 -0.025909167 -0.105483614 -0.100974515 -0.01103676
-0.11599805 -0.11405679 -0.03632372 0.029360795 -0.11292152 0.094592616 0.15194882 -0.012856444
-0.019840714 -0.0034288173 0.009752921 -0.019580588 -0.14690691 -0.039207924 -0.051007707 -0.03506045
-0.0013217472 0.034412574 -0.135329 -0.14862868 0.03916244 0.13205469 -0.0031681126 0.07920067
0.054091185 -0.039388657 0.05637206 -0.07930505 0.057523113 0.08915439 -0.14748904 -0.016721692
0.04108831 0.0759518 0.20381996 0.04075816 -0.07595486 -0.025305398 -0.06813287 0.07845184
-0.02635075 0.053832065 0.034894798 -0.06467306 -0.049748793 0.029847758 -0.042516373 -0.11781081
-0.07447025 0.04576796 -0.019794393 0.018990366 0.013285897 -0.047058083 0.08004544 0.034152783
0.008118616 0.0041352543 -0.03269595 -0.013936138 -0.06420149 0.035824295 0.07672481 0.12329697
-0.0017291032 0.098444164 0.15057443 0.042492248 0.18230468 0.08548061 -0.04524162 0.0051843803
0.011664811 -0.08603567 0.098697186 0.055117168 0.020875594 -0.03888248 -0.026216473 0.0027552182
-0.08103038 0.10652254 -0.090857156 -0.088297315 0.049952473 -0.055239927 -0.09125779 -0.09943559
-0.118991874 -0.017085787 -0.03697058 -0.019581482 0.085033245 0.2250531 0.2423455 -0.49981615
0.12780803 -0.0054987883 -0.0266812 0.026145307 0.09672015 -0.024477605 -0.055565074 -0.038154762
-0.028688744 0.18505707 0.068831794 -0.0336198 0.0450304 0.22357616 0.1411189 -0.06857789
0.077471465 -0.038549736 -0.06680342 -0.15232122 -0.092020094 -0.08987557 0.1564672 -0.09917562
-0.023554312 0.23402257 -0.018329266 0.0744338 -0.07900738 -0.07977593 0.04864101 0.03971226
-0.044869296 0.01219122 0.0516525 0.09011188 0.028226687 -0.07271804 0.012820534 0.093063004
-0.060149163 -0.2153455 0.03463769 0.08651324 0.08997836 -0.08946689 0.1685595 -0.06555777
-0.08243705 0.08156775 -0.0420273 0.061799362 0.007984569 0.06408802 0.06793244 -0.03288075
0.01939812 0.021198928 -0.16048716 0.042947453 0.020851891 -0.022404982 -0.1700636 -0.056352697
-0.07938293 -0.17194095 -0.18478483 -0.091192976 -0.040061824 -0.08615324 0.06811573 0.026510643
0.015663171 0.11717851 0.054884862 0.015040077 -0.15171395 -0.29524738 -0.018034698 -0.25851205
0.13378675 -0.019227965 -0.06338645 -0.021411324 0.07688681 0.023057489 0.060063474 -0.028412256
-0.06181849 0.039392617 0.07735315 0.052074548 -0.033265904 0.07542734 0.051272295 -0.026625304
0.10664475 0.08511761 0.025817621 0.06238543 -0.061019193 0.0005090244 -0.14981006 -0.02844065
-0.036615025 -0.12630561 0.02433926 0.121819936 -0.031907883 -0.07144054 -0.11654558 -0.007678446

bias f4 [16]
00000000: 6a9a 7f3c 7361 b6bc 2254 aa3b e0cc 233d
00000010: a0c3 bfbc 93c3 3d3d d421 9b3d 4cad 563b
00000020: c17f 5cbc 0111 413d 739a 8b3c a872 dd3a
00000030: 8009 9a3d b979 1bbd 9735 73bd 0702 c73c
0.01560078 -0.022263264 0.0051980177 0.039990306 -0.023408711 0.046329092 0.075748116 0.0032757102
-0.013458193 0.047135357 0.01704142 0.0016895132 0.07521343 -0.03795788 -0.05937728 0.024292959

weight f4 [32, 16]
00000000: 2231 8dbb c573 5d3e dfb4 38be 7a29 043b
00000010: c2f0 2f3a 039a 1f3e 3b11 f63a 6631 78bd
00000020: 126e a5be b40c 3bbb 1f9c cbbd 82dd 803e
00000030: 1fa3 253b e60f d3bc cfb9 1e3e aa73 4fbb
00000040: 7c29 efbd 7835 923d b6f4 64be 3eb4 c5bc
00000050: cc4c ae3d 052d 07be 16e1 0f3b bb87 d1bd
00000060: e903 37be d329 44be 108b 8a3e 5b7a a8be
00000070: d8ce 6e3e e5c7 70bd fa6e b23e cca7 3abe
00000080: 4dc2 083c 222d 8d3d 5f04 2abc 5d42 00bc
00000090: 4a9b 9abb 0cbc 19be a71c 5abc ff59 233e
000000a0: 156c 44be 75f5 03bc 4773 bf3c f187 ff3d
000000b0: 90b7 423b 4a86 b53e 1f61 343e ca5c 11bb
000000c0: 2eaa 3e3c ac66 ecbd a232 0f3d f689 273c
000000d0: d469 f43b b1f5 91be ce33 b53b 6466 7a3d
000000e0: e6e0 9cbe cd62 4abc a4c2 dfbb 5fad bbbd
000000f0: be93 093c bc34 eb3e b252 82bd efb2 473c
00000100: 3ae4 f1bd db02 87be 2025 103e b0ed 8ebe
00000110: 0e32 923c 829c dabe fedc 63be 0b55 503e
00000120: 54ac 7fbe 5c01 4b3e 3440 c03d e184 9e3e
00000130: 789c 1e3f 28f8 fc3c cace 0abc 2aef e1bd
00000140: 0116 053c bf78 d23d 9577 cdbd 2e22 483b
00000150: ae27 2a3b fe82 4f3d cfd1 173c a2e9 ad3e
00000160: caee c43d d3ae 7c3b efb3 51be a2f9 983d
00000170: 9447 f0bb 7f23 69bd a105 7b3e 3a75 b93a
00000180: e4ef 2a3d c744 06bf 7137 77be 6376 7cbd
00000190: 17a4 cc3c 4b1f 093e f814 dcbd 3827 7e3e
000001a0: 43c8 85be c914 d73c 11fd 15be ba21 d13c
000001b0: 35e3 b03c 930a 52bc fbfb 8abe bc46 b03d
000001c0: 62a2 4cbc e7f4 983e 0fd8 803e f15f c03b
000001d0: b5a9 d7bb 98cd 42be 939c 9d3c 1002 a33c
000001e0: 2cf1 5f3e 412e 8d3c 1373 0d3e ef81 8c3e
000001f0: 5e36 06bb a410 803d e3bd 943b 9951 20bc
00000200: ff24 4ebb 0180 7e3d 019d 593d 4ad2 3638
00000210: ba13 61bb 1c9e ca3e 7737 9fbb a1e2 fbbd
00000220: 5e50 fe3d e2f0 bd3b ae33 8abc 148a babe
00000230: 225d 8cbb 1a4c 2cbe 2eb6 fbbd c9af a1bb
00000240: d934 1bba 6a69 9bbd fcb9 633d 30d6 cbbb
00000250: a2a2 25bb b5d4 e53d dec8 3b3b a4be 3dbe
00000260: bc9e bebe d1be bd3b 5c47 bc3e 6337 583d
00000270: 8695 89bb 05d2 ea3e 10d4 f5bd d453 a3bb
00000280: a7aa 18bc 15ab 793e 9bb8 4cbe 6059 5cbc
00000290: 3b0b 90bc c767 b7be 46e0 6dbc bae5 3cb9
000002a0: 61a0 91be a99e 903b 4605 c63e fc44 863d
000002b0: 90ef 26bc ec15 8a3c 09a2 a83d 1591 d1bc
000002c0: b1c2 453c 05db c1bd f11a e2bb 3efa 1e3c
000002d0: 3eee 543c 8f5c 9cbd 054c 813c d3af d03d
000002e0: 8ae9 2fbe bff1 0ebc fb48 1f3e 5151 12be
000002f0: b1c8 0f3c 35b0 4dbe 1bb9 a93e 2112 6f3c
00000300: 7d7c f2bb ce82 7bbd 9799 8a3d 5345 92bb
00000310: a1ce 84bb b574 b4be 0805 c4bb 92dd 92be
00000320: 05f9 0abe 454e ae3c c6b6 a23e 6719 3bbe
00000330: 6894 b73c 008d 783e 8432 2ebe 6e44 f13b
00000340: 8b91 6bbe 4dc4 d7be e22d 9dbd c06e 993e
00000350: f124 f83c 7fa3 303e 7753 dc3e 75a7 17be
00000360: 72b9 59bd 7856 b5be a2ac 053e cf32 06bc
00000370: be7a 10be 9401 dd3c a2f7 74be c71d eebe
00000380: 0525 23bc 4b30 22be 91aa 5b3d eb64 a1bb
00000390: e351 76bc e160 a33e 529c 27bc 68a6 783d
000003a0: 6468 c5be 3214 363c 5111 8c3e d2cc acbc
000003b0: 2ee9 173b d1c2 76bd ff19 843e 8ced 0dbc
000003c0: 07bd 26bb 18cb 613e df07 32bb 465b 873b
000003d0: 1ab2 7e3b 4356 b8be 1d61 423b 3cfe 26be
000003e0: c5cc 44be 6c93 f4ba 460a b33c 050f 77bd
000003f0: 58d9 82ba d45b cdbd 180b 7ebe a403 633b
-0.0043088356 0.21626194 -0.18037747 0.0020166324 0.0006711596 0.15586095 0.0018773446 -0.060593985
-0.3231054 -0.0028541507 -0.09941887 0.25168997 0.002527423 -0.025764417 0.15500568 -0.0031654635
-0.116778344 0.071391046 -0.22358975 -0.024133798 0.085107416 -0.13200767 0.002195423 -0.10230967
-0.17872585 -0.1915658 0.2705922 -0.3290585 0.23321092 -0.058784384 0.34850293 -0.18228072
0.008347106 0.06893374 -0.010377019 -0.007828322 -0.004718219 -0.1501314 -0.013312495 0.159523
-0.19181855 -0.008054127 0.023370398 0.12477101 0.0029711463 0.35454017 0.17615174 -0.002218055
0.011637254 -0.115430206 0.034960397 0.010225764 0.0074589048 -0.2850776 0.0055298572 0.061132804
-0.30640334 -0.0123526575 -0.006828623 -0.09163927 0.008397041 0.4593867 -0.06363429 0.012188657
-0.11811109 -0.26369366 0.14076662 -0.27915716 0.017846134 -0.4269753 -0.2225227 0.20344941
-0.24968082 0.19824737 0.09387246 0.30960754 0.619575 0.030880049 -0.008472154 -0.11031945
0.008122922 0.10276937 -0.10032574 0.003053795 0.0025963592 0.050662033 0.009266331 0.3396731
0.09615858 0.0038556352 -0.20478795 0.07469489 -0.0073327515 -0.056918617 0.24513866 0.0014149316
0.041732684 -0.52448696 -0.24142243 -0.06163634 0.024980588 0.13390844 -0.10746187 0.24819648
-0.2612935 0.026255028 -0.14647318 0.025528777 0.021592716 -0.012819904 -0.2714537 0.086072415
-0.012489887 0.29874346 0.2516484 0.005870812 -0.00658151 -0.1902374 0.0192397 0.019898444
0.21869344 0.01723397 0.13813429 0.2744288 -0.0020479183 0.06253174 0.004539238 -0.009785079
-0.0031455157 0.062133793 0.053128246 4.358803e-05 -0.0034344033 0.39573753 -0.004858907 -0.122990854
0.124176726 0.0057965377 -0.016870346 -0.3643347 -0.0042835632 -0.16825905 -0.122906074 -0.0049342853
-0.00059206557 -0.075884655 0.05559729 -0.0062206015 -0.0025273939 0.11222211 0.0028653662 -0.18529755
-0.3723048 0.0057905694 0.36773193 0.052787196 -0.004198733 0.45863357 -0.12003338 -0.0049843583
-0.00931803 0.24381669 -0.19992296 -0.013449043 -0.01758348 -0.35821363 -0.014518803 -0.00018014657
-0.28442672 0.004413445 0.38675898 0.065561265 -0.010188952 0.016856156 0.08234031 -0.025581876
0.012070344 -0.09465603 -0.0069001843 0.009703217 0.0129962545 -0.07634842 0.01578332 0.10189786
-0.17178932 -0.008724629 0.15555184 -0.14288832 0.008775876 -0.20086749 0.33149037 0.014591725
-0.007400094 -0.061404042 0.06767576 -0.0044638305 -0.0040529524 -0.3524529 -0.005982045 -0.2868467
-0.13571556 0.021277556 0.3178007 -0.18271409 0.022409633 0.24272537 -0.17011458 0.007362894
-0.23004739 -0.42141953 -0.07674767 0.29967308 0.030291053 0.17249869 0.4303243 -0.14809974
-0.05315537 -0.35417533 0.13054135 -0.008190825 -0.14109322 0.026978292 -0.2392259 -0.46507093
-0.009957557 -0.15838735 0.05362946 -0.0049253604 -0.015034172 0.3190985 -0.010230141 0.060705572
-0.38556206 0.011113213 0.2735696 -0.02109376 0.0023179757 -0.060244385 0.25801083 -0.008662593
-0.002544226 0.2205013 -0.0027165336 0.0041307537 0.003886348 -0.36003312 0.0029659935 -0.1630792
-0.19218738 -0.0018659658 0.021855485 -0.060317058 -0.0009982986 -0.100272804 -0.2480892 0.003463962

bias f4 [32]
00000000: 7572 69bc de8b 583e 14b4 a83d 5a2d 20be
00000010: 3656 7bbd fd40 47bd 9394 383e 85ac 74bd
00000020: 4a7d 863d 50e5 9d3c 8806 903e fcad 5bbe
00000030: 0472 6fbd 4d37 c33d e588 b53d d8c7 8cbc
00000040: 3593 443e e8f6 82bc 95a2 82b9 ec47 1a3e
00000050: 2676 2abe 64a5 283e 2812 70bd a97a e03c
00000060: 2a91 b73e dd6c cc3d 2034 f8bb fb4b 373e
00000070: 4c7f 6c3d 59e4 68be e68a eebd f98c 413e
-0.01424848 0.21147105 0.08237472 -0.156423 -0.061361514 -0.048645962 0.18025427 -0.05973484
0.06566866 0.019274384 0.28129983 -0.21453089 -0.058458343 0.09532032 0.08864001 -0.017185137
0.1919678 -0.015986875 -0.00024916665 0.15066499 -0.16646633 0.16469342 -0.058611065 0.027402239
0.3585294 0.099817015 -0.007574573 0.17900078 0.057738587 -0.22743358 -0.116475865 0.18901433
