models/a64lds64b0.007g1d1h32.pt (torch, 808927 bytes, 26 tensors)

weight_ih_l0 f4 [128, 4]
0.11228054 -0.049308795 -0.15890916 0.07918319 -0.04162104 0.03492564 0.04938686 0.25009695
0.19913195 -0.17376265 -0.06443362 -0.047844548 -0.058288608 0.04318133 0.10939841 -0.07047728
-0.11663818 0.20590499 0.19665988 -0.05079854 0.033489384 -0.016409801 0.11614248 -0.0009942605
0.031479657 0.08947741 0.35493276 -0.14660345 0.16060884 0.06601914 -0.023143638 -0.012483095
0.045559958 -0.09061995 0.10739297 -0.11572186 -0.13859837 -0.12780137 0.0527069 -0.26295722
-0.08868354 0.16277339 0.0779258 -0.3161127 0.07737739 -0.056802433 -0.31843594 0.10052653
-0.095440015 -0.05018154 0.20329396 0.0041160528 0.036185518 -0.035548892 0.09051406 0.0787541
0.19747122 -0.19281079 0.30034706 -0.08481663 0.14355505 0.02123422 -0.38757887 0.17081194
0.17704797 0.08346193 -0.16787285 0.19063929 -0.045252588 0.08882863 -0.08776677 -0.03291665
-0.12819536 0.09327358 0.3087257 -0.087525204 0.088657096 -0.04155586 0.07333362 -0.10893226
-0.050085597 -0.038261726 0.24602486 0.09876637 0.07922651 0.07823331 0.31692025 0.54707193
0.0114416815 0.0703843 0.36699697 0.045493264 -0.12562366 0.18931533 0.053744428 0.20859715
0.1192424 0.16794999 0.08694906 0.006531544 0.055238996 0.17347318 -0.1975288 -0.15401183
0.113486476 0.020097183 -0.052169163 0.14402777 0.09723216 0.10280763 -0.1000703 -0.08056576
0.06581983 0.030142229 0.05723236 -0.14094079 -0.11227399 0.09153816 0.25942177 0.025245603
-0.06323927 -0.01700239 -0.022134276 -0.16647227 0.00961538 -0.04903966 -0.075066805 -0.19393519
0.19742551 0.0038806028 0.023636546 0.08189488 0.20777619 0.21071006 0.0313417 0.2233106
0.29585487 0.0023733296 0.0050621885 0.26117703 -0.19672301 0.07778234 -0.002317809 0.15251067
0.11146705 -0.0469409 0.025408996 -0.022004187 -0.094014436 -0.14906451 0.24470289 -0.02601745
-0.21022892 -0.005182552 0.13483673 -0.30265436 -0.04401748 0.05779157 -0.117823906 0.08389288
-0.100483485 0.08784366 -0.021943573 -0.032495327 0.25277987 0.05214224 0.25072488 0.0068656276
0.049431004 0.11317344 -0.035166778 -0.17496134 0.1336769 0.086441286 -0.14957136 -0.011235191
0.037691 0.09471983 -0.006612199 0.08455299 -0.03922836 -0.090087935 -0.14821747 0.01837724
0.31180224 0.10197045 -0.23081224 0.10062791 -0.018789819 0.34421137 0.02589707 0.031201387
-0.049255993 0.36298832 -0.25343207 0.11940172 0.0052349153 0.16212764 0.13379198 -0.124161065
-0.087007724 -0.08863031 0.09786065 -0.056506943 -0.19367489 -0.18926775 0.03490252 -0.0024268567
-0.28601047 0.23065361 0.42221138 -0.18406697 0.059783574 -0.13717797 0.28770244 -0.11012679
0.06772083 0.041902654 0.48465708 -0.055288482 -0.13583294 -0.062447567 0.13927303 -0.31696758
0.22633396 -0.12831584 0.21734361 0.13963847 -0.08271119 0.14811566 0.0042538997 -0.16308723
0.13093463 0.15551966 -0.10077233 -0.20657668 0.06233224 0.07939021 -0.014369531 0.124300316
-0.021769032 -0.15792477 0.07839018 0.18749201 -0.18162642 0.035949253 0.02232001 -0.12452336
-0.23306276 0.13271795 -0.06374909 0.03279083 -0.08051856 -0.11862205 0.053630468 0.1706607
00000000: 57f3 e53d 05f8 49bd 15b9 22be cc2a a23d
00000010: d37a 2abd 300e 0f3d e049 4a3d b50c 803e
00000020: 3fe9 4b3e d6ee 31be c6f5 83bd a5f8 43bd
00000030: 09c0 6ebd e8de 303d 460c e03d 6456 90bd
00000040: 00e0 eebd c2d8 523e 3561 493e 2112 50bd
00000050: 2a2c 093d d96d 86bc 1cdc ed3d d951 82ba
00000060: d0f0 003d ef3f b73d bfb9 b53e 371f 16be
00000070: a576 243e 0b35 873d ba97 bdbc e585 4cbc
00000080: 149d 3a3d f496 b9bd d8f0 db3d 95ff ecbd
00000090: bbec 0dbe 5dde 02be 31e3 573d 54a2 86be
000000a0: b79f b5bd 11ae 263e 9097 9f3d 86d9 a1be
000000b0: 0978 9e3d aba9 68bd 090a a3be dae0 cd3d
000000c0: 0e76 c3bd 298b 4dbd 4b2c 503e f4df 863b
000000d0: 4437 143d b79b 11bd 6f5f b93d d449 a13d
000000e0: e535 4a3e 3170 45be 17c7 993e 57b4 adbd
000000f0: 1800 133e 63f3 ad3c bd70 c6be 53e9 2e3e
00000100: 104c 353e 17ee aa3d dce6 2bbe f236 433e
00000110: c75a 39bd c9eb b53d 10bf b3bd 9cd3 06bd
00000120: a545 03be 3806 bf3d 4c11 9e3e 6a40 b3bd
00000130: da91 b53d 7a36 2abd f02f 963d e017 dfbd
00000140: 8e26 4dbd 54b8 1cbd f1ed 7b3e 0646 ca3d
00000150: 8241 a23d c938 a03d 5f43 a23e e80c 0c3f
00000160: e475 3b3c a525 903d 07e7 bb3e 2557 3a3d
00000170: 7da3 00be e1db 413e 1e23 5c3d 7e9a 553e
00000180: 5c35 f43d 15fb 2b3e 5912 b23d 9006 d63b
00000190: 4942 623d f4a2 313e fd44 4abe 47b5 1dbe
000001a0: 996b e83d d9a2 a43c 55af 55bd 047c 133e
000001b0: a821 c73d cf8c d23d a8f1 ccbd a9ff a4bd
000001c0: 8ccc 863d d6ec f63c 7b6c 6a3d c852 10be
000001d0: e8ef e5bd 5c78 bb3d eed2 843e decf ce3c
000001e0: 9783 81bd 9948 8bbc f152 b5bc b577 2abe
000001f0: d489 1d3c cfdd 48bd a0bc 99bd f296 46be
00000200: ea29 4a3e b651 7e3b 6ea1 c13c 81b8 a73d
00000210: 48c3 543e 61c4 573e 2860 003d 89ab 643e
00000220: 4a7a 973e dd89 1b3b b7e0 a53b ffb8 853e
00000230: c271 49be 594c 9f3d 62e6 17bb c22b 1c3e
00000240: d648 e43d 1a45 40bd 8726 d03c 2042 b4bc
00000250: a48a c0bd 5ea4 18be 6593 7a3e 8c22 d5bc
00000260: 4046 57be 66d2 a9bb a412 0a3e 83f5 9abe
00000270: ac4b 34bd dab6 6c3d a94d f1bd 08d0 ab3d
00000280: 49ca cdbd 60e7 b33d 02c3 b3bc d219 05bd
00000290: 5d6c 813e 1a93 553d 035f 803e 0ff9 e03b
000002a0: 2a78 4a3d 7ac7 e73d 0a0b 10bd 1129 33be
000002b0: 99e2 083e 2108 b13d 3c29 19be ce13 38bc
000002c0: e161 1a3d 78fc c13d 25ab d8bb 1e2a ad3d
000002d0: ebad 20bd 0680 b8bd 52c6 17be de8b 963c
000002e0: 8ba4 9f3e e2d5 d03d 0b5a 6cbe 0116 ce3d
000002f0: 1bed 99bc 793c b03e 1826 d43c 0d9a ff3c
00000300: a7c0 49bd 9bd9 b93e d9c1 81be e488 f43d
00000310: a789 ab3b ca04 263e c400 093e 2848 febd
00000320: 1b31 b2bd cf83 b5bd 2a6b c83d d373 67bd
00000330: b652 46be 68cf 41be f2f5 0e3d e60b 1fbb
00000340: f76f 92be 7630 6c3e 172c d83e 0d7c 3cbe
00000350: 9fdf 743d 6278 0cbe bc4d 933e 288a e1bd
00000360: 38b1 8a3d 1ea2 2b3d f924 f83e 2d76 62bd
00000370: ca17 0bbe 05c9 7fbd 979d 0e3e 9349 a2be
00000380: 17c4 673e 3a65 03be 538f 5e3e 63fd 0e3e
00000390: 7c64 a9bd a2ab 173e 4c64 8b3b 5700 27be
000003a0: ba13 063e 8c40 1f3e b961 cebd d688 53be
000003b0: 1750 7f3d 5697 a23d 2e6e 6bbc 2a91 fe3d
000003c0: f854 b2bc 08b7 21be 088b a03d e8fd 3f3e
000003d0: 47fc 39be 863f 133d 74d8 b63c 1a06 ffbd
000003e0: 01a8 6ebe 37e7 073e e28e 82bd ad4f 063d
000003f0: eae6 a4bd 1ef0 f2bd 9fab 5b3d aec1 2e3e

weight_hh_l0 f4 [128, 32]
-0.14975828 -0.030892368 0.0053320066 -0.04397174 -0.007695403 0.0014735429 0.11443103 -0.0064185504
-0.068671174 -0.112724185 0.091166005 -0.1455439 0.08700895 -0.14076185 0.13183784 0.13841787
0.09999622 0.12324212 0.027907819 0.1419409 -0.053252473 -0.04930939 0.03369414 0.15093774
-0.1343049 -0.116623305 0.040060766 -0.19438133 0.026378922 0.24528095 0.10999356 0.0033243888
-0.14682999 0.1698026 0.09845353 0.003662385 0.081459485 0.15807395 0.07558685 0.009775616
0.08218322 0.13472076 0.19563906 0.020424688 0.117724225 -0.07026319 -0.058718946 -0.091680296
0.13309371 -0.16015346 0.2939267 0.19253348 0.0045115915 0.11099182 -0.084795944 0.034933433
-0.19840978 -0.10269516 -0.18058646 0.019128367 0.19238883 0.066775754 0.12259129 -0.09480103
-0.09502168 0.16536568 0.0060902387 -0.30474484 0.17224284 0.049703494 0.16727513 -0.09069307
0.11650757 0.13197443 0.12387104 -0.0031349529 -0.0011360026 0.12868536 -0.07798023 0.08276517
0.13132827 0.11253019 0.004913099 0.14510912 -0.017572211 0.035385933 -0.21273842 -0.09704939
-0.008306628 0.018523002 0.16971229 0.2703493 0.11945125 -0.058864027 0.06510142 0.06710142
-0.066416 0.013720423 0.09178121 -0.21920395 0.006179261 0.00056250184 -0.09739429 0.022019936
-0.10581431 0.16969949 0.113432646 -0.011015483 -0.05374138 0.047326785 -0.021290943 -0.15758438
0.06686818 0.014357574 0.16514982 -0.19292612 -0.016900642 0.027627632 0.033982053 -0.03737125
0.080918424 0.012886436 -0.22691211 -0.13056956 -0.1088966 0.29711172 -0.27612445 0.035873454
-0.0034215795 -0.045279015 -0.040145695 0.053586252 0.06548661 -0.15280941 0.24875253 -0.11329542
-0.03738178 0.00025188274 -0.22989143 0.060894176 0.028206794 0.05743565 -0.11936764 -0.13337295
0.052206673 -0.13837309 0.24325714 -0.1433098 0.07963975 0.08017417 -0.08008632 -0.0070529776
0.08726597 -0.15447845 0.08968369 0.08426596 -0.09483273 0.2872759 0.033966385 0.19862291
-0.12421006 -0.13991936 0.0011764464 0.00030865215 0.21167567 0.16899756 -0.017814541 0.02021879
0.018590942 0.14289734 0.35847902 0.13020344 -0.031383518 -0.10746534 -0.18176287 -0.14562649
0.056002453 -0.005618186 0.1399603 0.110683836 -0.028493525 -0.08970284 -0.056993302 0.16312204
-0.14375159 0.11842884 -0.19446558 -0.08003612 9.814826e-06 -0.025507072 0.10598542 0.061474916
0.04017559 0.1549541 0.006705387 0.17465761 0.15108606 -0.13039349 -0.08560777 -0.058485866
0.17250991 -0.02605469 0.2276336 -0.06926518 -0.14079703 -0.105236836 -0.25435725 -0.083032474
0.20587209 0.104687504 0.03113521 -0.17726026 0.09376894 0.0038308897 -0.3427742 0.009661389
-0.03365218 0.07024649 -0.048973583 -0.14558354 0.1307861 0.10889415 -0.03937688 0.14237435
-0.061165445 0.2829013 0.10987983 0.13690998 -0.019454367 -0.033265658 -0.043507293 -0.0028475218
0.08949072 0.058563013 0.044833936 0.037697412 -0.008713372 0.019607777 -0.13356784 0.04309589
0.11886718 -0.11535282 -0.001207984 0.14845638 -0.11768966 0.12607376 0.13574095 -0.05162545
-0.01740519 0.13838089 0.04414182 -0.06905524 -0.054715883 0.02373838 0.10096218 -0.034378637
00000000: 3c5a 19be fe11 fdbc 1db8 ae3b b61b 34bd
00000010: b829 fcbb e523 c13a d15a ea3d b452 d2bb
00000020: 79a3 8cbd f0db e6bd 3eb5 ba3d 7609 15be
00000030: c031 b23d e023 10be 8000 073e 6abd 0d3e
00000040: d1ca cc3d 5d66 fc3d f09e e43c f558 113e
00000050: 441f 5abd a5f8 49bd de02 0a3d 6c8f 1a3e
00000060: 3987 09be 33d8 eebd c216 243d e60b 47be
00000070: 9c18 d83c ee2a 7b3e 4e44 e13d fddd 593b
00000080: 9a5a 16be bce0 2d3e 01a2 c93d a004 703b
00000090: 3bd4 a63d 23de 213e 47cd 9a3d e829 203c
000000a0: ad4f a83d 3df4 093e 9b55 483e ad51 a73c
000000b0: 6619 f13d 26e6 8fbd 4783 70bd e1c2 bbbd
000000c0: b849 083e 45ff 23be 8f7d 963e 7f27 453e
000000d0: f9d5 933b ae4f e33d 7fa9 adbd 5c16 0f3d
000000e0: ef2b 4bbe d751 d2bd a8eb 38be 18b3 9c3c
000000f0: 9401 453e bac1 883d 2411 fb3d 0b27 c2bd
00000100: ba9a c2bd 9f55 293e a090 c73b 8407 9cbe
00000110: 6d60 303e e495 4b3d 2c4a 2b3e 4abd b9bd
00000120: 859b ee3d 4e24 073e 1ab0 fd3d c873 4dbb
00000130: ece5 94ba 18c6 033e 19b4 9fbd c980 a93d
00000140: eb7a 063e 3a76 e63d 10fe a03b 7c97 143e
00000150: 99f3 8fbc d7f0 103d 1ad8 59be d5c1 c6bd
00000160: 8618 08bc 8dbd 973c 0fc9 2d3e 396b 8a3e
00000170: dba2 f43d 681b 71bd e553 853d 786c 893d
00000180: 1d05 88bd a0cb 603c c9f7 bb3d 0077 60be
00000190: 667b ca3b dc74 133a a876 c7bd 2763 b43c
000001a0: 2cb5 d8bd b4c5 2d3e 604f e83d 497a 34bc
000001b0: ec1f 5cbd bbd9 413d 586a aebc cd5d 21be
000001c0: 2ff2 883d 083c 6b3c 091d 293e 6d8e 45be
000001d0: 3773 8abc 5853 e23c c430 0b3d 9912 19bd
000001e0: 8fb8 a53d a121 533c a65b 68be 07b4 05be
000001f0: 2e05 dfbd 071f 983e 2f60 8dbe 0bf0 123d
00000200: 943c 60bb 7d76 39bd d06f 24bd 427d 5b3d
00000210: d81d 863d 127a 1cbe fcb8 7e3e 6e07 e8bd
00000220: a31d 19bd 210f 8439 a968 6bbe 2c6c 793d
00000230: ef11 e73c a541 6b3d 0577 f4bd eb92 08be
00000240: aad6 553d adb1 0dbe 6618 793e cebf 12be
00000250: 2a1a a33d 5b32 a43d 4c04 a4bd aa1c e7bb
00000260: 80b8 b23d 992f 1ebe 15ac b73d a293 ac3d
00000270: aa37 c2bd d415 933e 5620 0b3d ce63 4b3e
00000280: d861 febd 0547 0fbe fe32 9a3a 97d2 a139
00000290: 82c1 583e b20d 2d3e cdef 91bc e0a1 a53c
000002a0: 084c 983c ae53 123e 908a b73e 0d54 053e
000002b0: 018c 00bd ca16 dcbd 0c20 3abe 1c1f 15be
000002c0: d462 653d c318 b8bb c151 0f3e 35ae e23d
000002d0: 416b e9bc 1fb6 b7bd cf71 69bd 7709 273e
000002e0: 9e33 13be d28a f23d fc21 47be fae9 a3bd
000002f0: 5baa 2437 35f4 d0bc e20e d93d 1fcd 7b3d
00000300: 298f 243d 4aac 1e3e ddb8 db3b 72d9 323e
00000310: 4eb6 1a3e df85 05be 2053 afbd e08e 6fbd
00000320: 70a6 303e a570 d5bc c818 693e e7da 8dbd
00000330: 192d 10be 6986 d7bd 1d3b 82be ee0c aabd
00000340: 22d0 523e 6766 d63d 450f ff3c b783 35be
00000350: ee09 c03d aa0f 7b3b 1a80 afbe cd4a 1e3c
00000360: ded6 09bd 64dd 8f3d 8698 48bd da13 15be
00000370: cbec 053e e503 df3d a749 21bd 95ca 113e
00000380: 9e88 7abd 70d8 903e ad08 e13d 2132 0c3e
00000390: c45e 9fbc 9241 08bd b434 32bd 7d9d 3abb
000003a0: e946 b73d c5df 6f3d caa3 373d 9a68 1a3d
000003b0: 88c2 0ebc 7da0 a03c 02c6 08be 5185 303d
000003c0: a370 f33d 193e ecbd 3855 9eba f304 183e
000003d0: 4707 f1bd 7b19 013e adff 0a3e 3575 53bd
000003e0: 5495 8ebc b8b3 0d3e 0ece 343d d56c 8dbd
000003f0: c31d 60bd fe76 c23c 42c5 ce3d 9dd0 0cbd

bias_ih_l0 f4 [128]
-0.09893906 -0.11173909 -0.06285327 0.1174486 -0.14722167 0.1120414 -0.052486278 -0.1287431
0.21740773 0.21633743 0.005923675 0.11172542 -0.13738823 0.029411422 -0.16140452 -0.014420741
-0.049546767 0.07738045 -0.09299017 -0.13337293 -0.11035047 -0.022639923 0.13769181 -0.12831448
0.20215319 -0.025024876 0.029267084 0.09727771 -0.1298588 -0.045883697 -0.10605289 -0.059111238
0.02846747 0.1885824 -0.16204894 -0.11733015 0.09384338 0.10840216 0.10286434 -0.08089381
0.15684107 -0.12203799 -0.11830002 -0.042638298 0.1316925 0.17576222 -0.006513442 -0.022954723
-0.02360596 0.17274505 0.04243968 -0.043742377 -0.01077141 0.058869954 -0.14420293 0.16315247
-0.103545256 0.033523776 0.11210129 -0.09140019 0.062228095 0.11096927 -0.02137343 0.1555555
-0.18662389 0.15994982 0.1725345 0.010727961 0.121248096 -0.05982541 -0.16053456 0.09826138
-0.037833758 0.032672677 0.04885993 0.033799473 0.1231811 -0.05678939 -0.048321534 0.0075419657
0.065524444 -0.02650984 0.14799316 0.08940233 0.048426513 0.12432538 -0.03246763 -0.09282153
-0.10419997 0.13540354 -0.1451398 0.013641961 0.08129388 -0.04313707 -0.03756402 0.061991893
-0.13992123 -0.055867985 0.13913627 -0.036932833 0.17035307 -0.04236812 0.18105146 -0.15520142
0.06106055 0.17926872 0.14848009 -0.15388635 -0.0049193413 0.00042599483 0.15102929 0.12712975
0.14634319 -0.1387576 0.17261502 0.15768461 -0.10910275 0.25228202 0.1429293 -0.025047665
0.21682313 -0.097833 0.13476005 0.12900136 0.0039592283 -0.020760987 -0.0072684903 -0.14734645
00000000: 90a0 cabd 77d7 e4bd 37b9 80bd e488 f03d
00000010: 47c1 16be f675 e53d dafb 56bd 3bd5 03be
00000020: 22a0 5e3e 8f87 5d3e 631b c23b 4cd0 e43d
00000030: 80af 0cbe 39f0 f03c 3a47 25be f944 6cbc
00000040: 8df1 4abd a479 9e3d a171 bebd ea92 08be
00000050: 6dff e1bd 5c77 b9bc 15ff 0c3e df64 03be
00000060: 3f01 4f3e f800 cdbc 86c1 ef3c 8939 c73d
00000070: b5f9 04be 8bf0 3bbd 4232 d9bd a01e 72bd
00000080: 9d34 e93c bf1b 413e 28f0 25be ca4a f0bd
00000090: f530 c03d f401 de3d 8aaa d23d a7ab a5bd
000000a0: f29a 203e 0eef f9bd 4847 f2bd 7fa5 2ebd
000000b0: 66da 063e 03fb 333e b66e d5bb 8b0b bcbc
000000c0: 4961 c1bc 14e4 303e 3bd5 2d3d 352b 33bd
000000d0: 917a 30bc 9f21 713d efa9 13be 7111 273e
000000e0: 890f d4bd 3a50 093d 5c95 e53d 0630 bbbd
000000f0: e3e2 7e3d db43 e33d 5517 afbc f149 1f3e
00000100: 551a 3fbe e3c9 233e e2ac 303e 54c4 2f3c
00000110: ec50 f83d 7d0b 75bd 2c63 24be 433d c93d
00000120: 92f7 1abd c9d3 053d 5a21 483d 5171 0a3d
00000130: 5f46 fc3d fe9b 68bd cdec 45bd 9822 f73b
00000140: ae31 863d 2a2b d9bc 858b 173e 9218 b73d
00000150: e15a 463d 4e9e fe3d c7fc 04bd 3719 bebd
00000160: cb66 d5bd 3aa7 0a3e 879f 14be 8882 5f3c
00000170: 687d a63d 7fb0 30bd bbdc 19bd 36eb 7d3d
00000180: 8347 0fbe d4d5 64bd bd79 0e3e e246 17bd
00000190: 0971 2e3e 328a 2dbd 8e65 393e 1fed 1ebe
000001a0: a11a 7a3d 3892 373e 2a0b 183e 6294 1dbe
000001b0: 6d32 a1bb 0f58 df39 6ca7 1a3e 4d2e 023e
000001c0: fdda 153e 7916 0ebe fec1 303e 1378 213e
000001d0: 4371 dfbd 1c2b 813e 0f5c 123e c330 cdbc
000001e0: e206 5e3e ab5c c8bd 8afe 093e ef18 043e
000001f0: 6abc 813b f212 aabc 842c eebb fde1 16be

bias_hh_l0 f4 [128]
-0.0761192 -0.07654222 0.019071005 0.10817957 0.019572753 -0.106094986 -0.10159648 0.1490882
-0.12193409 -0.07032533 0.086942844 0.063985884 0.14588004 -0.09042766 -0.07986563 0.0036652358
0.06567441 0.07381436 0.06211112 0.028312318 0.20063521 0.15996635 0.063971445 0.012284913
0.12237943 -0.07928201 0.12521866 0.1747863 0.0336784 0.009665491 -0.0035579817 0.058448717
0.16947274 -0.039098524 -0.011517804 -0.11745672 0.007846241 -0.08459087 -0.107159555 -0.063693486
0.1362184 0.1022367 -0.052054323 0.122174226 0.17239153 0.026508002 0.13995068 0.0042255824
-0.0074162693 -0.0106957825 0.075390436 0.0027826328 0.07919431 0.00226904 -0.011344502 0.04342916
0.14784542 0.14243078 -0.03983049 -0.014161341 0.06867829 0.03616395 0.12653543 0.053079676
-0.103973284 0.091284305 0.042896163 -0.064901724 0.016941013 -0.15380242 -0.14847815 0.1307693
0.06991391 0.051349442 0.07804338 0.01209344 -0.015504914 -0.18091789 -0.17861374 -0.1542362
-0.08163673 -0.15609388 0.021153904 -0.07874176 -0.0050983117 0.034384567 0.02421517 0.1411588
0.04269249 0.17335609 -0.11159197 -0.13317548 -0.15063468 0.16518699 0.10937016 -0.16447249
0.14576204 0.17831315 -0.13059612 0.16675985 0.068067715 -0.14583962 0.11407816 -0.04271444
-0.09062501 0.09720179 -0.015218031 -0.14528027 0.0596442 -0.09529763 0.09894346 0.08232127
-0.020243572 -0.045143828 0.17259121 -0.110526964 0.16779865 0.14191042 0.103242435 0.034602553
0.23302066 -0.028073652 0.07110697 0.077678286 0.15065001 -0.11127406 0.099468015 -0.11056775
00000000: 62e4 9bbd 2bc2 9cbd cc3a 9c3c 408d dd3d
00000010: 0a57 a03c 5448 d9bd d111 d0bd 94aa 183e
00000020: 95b8 f9bd ba06 90bd 170f b23d 080b 833d
00000030: 9461 153e 2332 b9bd 9790 a3bd 7434 703b
00000040: 4e80 863d fc2b 973d 3b68 7e3d 3cef e73c
00000050: 5173 4d3e 38ce 233e 7603 833d a946 493c
00000060: 11a2 fa3d 9b5e a2bd 5239 003e 2efb 323e
00000070: 5df2 093d 025c 1e3c 072d 69bb ec67 6f3d
00000080: 438a 2d3e c625 20bd 2cb5 3cbc 268d f0bd
00000090: 858d 003c fa3d adbd 7876 dbbd bb71 82bd
000000a0: d67c 0b3e 7a61 d13d ea36 55bd 7b36 fa3d
000000b0: 6887 303e 4f27 d93c 3b4f 0f3e c176 8a3b
000000c0: 2d04 f3bb 5d3d 2fbc 4d66 9a3d d55c 363b
000000d0: a030 a23d 2db4 143b 4ade 39bc c6e2 313d
000000e0: ca64 173e 60d9 113e 4c25 23bd f804 68bc
000000f0: 34a7 8c3d a620 143d 8192 013e 136a 593d
00000100: f2ef d4bd 44f3 ba3d e3b3 2f3d 32eb 84bd
00000110: e1c7 8a3c 627e 1dbe a80a 18be 63e8 053e
00000120: 062f 8f3d cb53 523d 35d5 9f3d 9023 463c
00000130: 5308 7ebc 8a42 39be 85e6 36be 18f0 1dbe
00000140: 2831 a7bd 13d7 1fbe f44a ad3c 5c43 a1bd
00000150: bd0f a7bb d5d6 0c3d e45e c63c ef8b 103e
00000160: 52de 2e3d 4284 313e 558a e4bd 275f 08be
00000170: fa3f 1abe c726 293e 76fd df3d 7a6b 28be
00000180: a542 153e b997 363e fdba 05be 18c3 2a3e
00000190: 1667 8b3d fb56 15be cfa1 e93d 56f5 2ebd
000001a0: 9b99 b9bd bb11 c73d 0c55 79bc 5ac4 14be
000001b0: 7a4d 743d 672b c3bd dea2 ca3d 0e98 a83d
000001c0: d9d5 a5bc bce8 38bd c0bb 303e f65b e2bd
000001d0: 69d3 2b3e f750 113e c570 d33d 68bb 0d3d
000001e0: f89c 6e3e b7fa e5bc 88a0 913d cb15 9f3d
000001f0: ff43 1a3e a8e3 e3bd e3b5 cb3d 5871 e2bd

weight_ih_l0_reverse f4 [128, 4]
-0.062282715 -0.052140657 -0.015328927 -0.0089031765 -0.1129987 -0.13745135 0.45293412 -0.07683642
0.10599881 0.059428215 0.29987016 -0.17419864 -0.1685724 -0.01455021 -0.014879718 0.25255954
-0.0846628 0.121558204 -0.1272431 -0.066853695 -0.11786004 0.06378475 0.05405535 -0.09229866
-0.11998651 -0.054829456 -0.19933234 -0.00061612786 -0.07838803 0.16814445 0.06800571 0.048948776
0.13278504 0.2409455 -0.03714767 0.02219129 0.33911186 -0.13323015 -0.08385714 0.21362567
0.043531995 -0.019839454 0.20718667 0.038981654 0.032841742 0.010651164 0.12966989 0.06832386
-0.16148494 -0.04726061 -0.18688688 0.19605343 0.09650752 0.1196828 -0.0034762218 -0.27790204
0.17176855 0.16710816 -0.06380066 0.0573427 0.12453038 0.0025449495 0.008247968 0.072657526
0.02737758 0.24887088 0.2084037 0.0067611896 0.11359837 0.13549046 0.06879728 -0.1718692
-0.30931538 0.35779563 0.0029238812 -0.19673023 0.03377537 -0.049163003 0.28006303 0.43261856
-0.09177627 0.25806877 -0.121814884 0.078368306 0.04519619 0.1182885 0.16566892 -0.036074508
-0.06710602 0.087055124 0.10066884 0.25994486 -0.081934616 0.20240897 0.03082192 -0.0023019076
-0.13425006 0.23031113 -0.12802191 -0.17561676 -0.030714037 -0.036443606 0.22815129 0.24776535
0.1507679 0.03766353 0.2933549 0.14877021 0.06766943 0.11423144 0.013374774 0.10636092
-0.010033294 -0.037756484 0.05935646 -0.08307576 -0.056673504 -0.07126351 0.07089248 0.06994213
0.20023197 -0.20028283 0.13320976 0.36178863 -0.05927062 -0.03182915 -0.04878765 0.14271772
-0.029365042 -0.15475734 -0.2034387 0.10429107 0.13197932 -0.07320174 0.011926363 -0.048393425
0.1361702 0.051656637 0.04098269 0.16176724 -0.02994498 0.008191293 0.096958935 0.008694352
0.25350812 0.018297236 0.047503285 0.07528349 0.13039885 -0.2725493 -0.10040841 0.06996197
0.084316336 -0.117887765 -0.08732849 0.11723391 0.16191597 -0.15899104 0.10330146 0.089562856
-0.29290703 0.2504709 0.1288867 0.06528291 0.05371787 0.011297613 0.07631312 0.05065661
0.072202586 -0.06992742 0.035972297 0.037140347 0.047521546 0.20581974 0.19996215 0.05664366
-0.29158932 0.22919095 -0.18631385 -0.14422381 0.3014651 0.009946134 -0.05531699 -0.049252547
0.095484875 0.113986135 0.043458365 -0.17420512 0.11342053 -0.031301696 0.011846031 0.004364172
0.068120696 -0.07763139 0.08668272 0.0023665086 0.26611128 -0.33954585 -0.074268535 -0.05936093
-0.4844274 0.42106006 -0.15050781 -1.2352961 -0.18339528 -0.0770256 0.021327093 0.14472638
0.21317893 0.071857266 0.04461414 0.06599759 0.21278138 -0.2164174 -0.24878165 -0.022913879
0.004822794 -0.06815194 0.12689567 0.026039142 -0.33396068 0.42888093 -0.33274946 -0.75418204
-0.017113939 -0.011041611 0.27150998 -0.08267582 0.015522608 0.01129615 0.040628023 -0.14944969
0.079138845 -0.030748557 -0.01223221 -0.106350176 -0.17262253 -0.08876629 0.029452594 -0.014745407
0.09429631 0.1982864 0.059202317 0.12761551 0.12912412 0.1226096 0.12000914 -0.13458094
0.1686629 0.09424949 0.104037866 -0.03952077 0.23764591 0.08501646 -0.04338272 0.10261839
00000000: 291c 7fbd 7191 55bd 2e26 7bbc a1de 11bc
00000010: dd6b e7bd 0cc0 0cbe fbe6 e73e 6a5c 9dbd
00000020: e715 d93d 006b 733d 9588 993e 2161 32be
00000030: 3e9e 2cbe 0164 6ebc 10ca 73bc 7c4f 813e
00000040: b163 adbd 82f3 f83d 044c 02be 97ea 88bd
00000050: 9b60 f1bd 94a1 823d 2569 5d3d 1407 bdbd
00000060: 7dbb f5bd da94 60bd c71d 4cbe a483 21ba
00000070: e789 a0bd 0f2e 2c3e 9446 8b3d 837e 483d
00000080: cdf8 073e 6bba 763e 2828 18bd 82ca b53c
00000090: 12a0 ad3e 7c6d 08be 4bbd abbd b0c0 5a3e
000000a0: 9b4e 323d 5a86 a2bc be28 543e 3aab 1f3d
000000b0: 1085 063d 3882 2e3c 2fc8 043e 61ed 8b3d
000000c0: 4f5c 25be 5794 41bd 465f 3fbe 3bc2 483e
000000d0: bca5 c53d 411c f53d 53d1 63bb 2d49 8ebe
000000e0: 18e4 2f3e 671e 2b3e eca9 82bd 2ee0 6a3d
000000f0: c909 ff3d 2bc9 263b 7c22 073c 78cd 943d
00000100: f246 e03c 02d8 7e3e c867 553e f88c dd3b
00000110: 43a6 e83d 03be 0a3e 97e5 8c3d 7bfe 2fbe
00000120: 965e 9ebe fd30 b73e 969e 3f3b a673 49be
00000130: 0b58 0a3d 255f 49bd 6c64 8f3e 2e80 dd3e
00000140: 32f5 bbbd 9721 843e 157a f9bd 907f a03d
00000150: a41f 393d 3e41 f23d 1da5 293e ddc2 13bd
00000160: e26e 89bd f549 b23d 772b ce3d 7e17 853e
00000170: 56cd a7bd 4c44 4f3e 407e fc3c 9adb 16bb
00000180: d978 09be aed6 6b3e 2d18 03be e1d4 33be
00000190: 019c fbbc e445 15bd 7ea0 693e 33b6 7d3e
000001a0: e662 1a3e 1345 1a3d 9d32 963e 3857 183e
000001b0: 4596 8a3d 2cf2 e93d de21 5b3c c1d3 d93d
000001c0: af62 24bc 8ba6 1abd c21f 733d a023 aabd
000001d0: 7a22 68bd 9af2 91bd 1430 913d d23d 8f3d
000001e0: 9c09 4d3e f116 4dbe 2468 083e 5c3c b93e
000001f0: c0c5 72bd 485f 02bd 8fd5 47bd 9824 123e
00000200: f58e f0bc b578 1ebe 3c52 50be 8e96 d53d
00000210: 9625 073e cbea 95bd cb66 433c 2f38 46bd
00000220: 3370 0b3e e995 533d 77dd 273d 50a6 253e
00000230: 2d4f f5bc c634 063c 6892 c63d c172 0e3c
00000240: d1cb 813e 16e4 953c ce92 423d 3b2e 9a3d
00000250: 4787 053e 958b 8bbe eda2 cdbd 3948 8f3d
00000260: 0bae ac3d 246f f1bd 48d9 b2bd 5518 f03d
00000270: 4dcd 253e 8cce 22be b78f d33d bb6c b73d
00000280: e9f7 95be b93d 803e e0fa 033e 0cb3 853d
00000290: 4507 5c3d a019 393c 0e4a 9c3d 4e7d 4f3d
000002a0: f3de 933d 1b36 8fbd b057 133d 7a20 183d
000002b0: f4a5 423d 69c2 523e e1c2 4c3e 2f03 683d
000002c0: 324b 95be 08b1 6a3e 0fc9 3ebe 68af 13be
000002d0: a259 9a3e 1cf5 223c 1194 62bd 0abd 49bd
000002e0: 938d c33d 9071 e93d 6601 323d d462 32be
000002f0: 0649 e83d 3536 00bd db15 423c 5401 8f3b
00000300: dd82 8b3d 35fd 9ebd b686 b13d 6d17 1b3b
00000310: bd3f 883e f4d8 adbe 1a1a 98bd 7224 73bd
00000320: de06 f8be 2f95 d73e b81e 1abe 2f1e 9ebf
00000330: f9cb 3bbe 99bf 9dbd 28b6 ae3c 2733 143e
00000340: 944b 5a3e e729 933d 51bd 363d bf29 873d
00000350: 5de3 593e 869c 5dbe 9ec0 7ebe e3b5 bbbc
00000360: 8708 9e3b 3f93 8bbd f0f0 013e 0a50 d53c
00000370: e5fc aabe 4896 db3e 235e aabe 1312 41bf
00000380: 8832 8cbc e0e7 34bc 5b03 8b3e f151 a9bd
00000390: 8952 7e3c 7d13 393c 9269 263d 5709 19be
000003a0: 8c13 a23d 66e4 fbbc 9b69 48bc 1fce d9bd
000003b0: f6c3 30be 1acb b5bd 9146 f13c b896 71bc
000003c0: 6c1e c13d 970b 4b3e 217e 723d a4ad 023e
000003d0: 1d39 043e be1a fb3d 5ac7 f53d 96cf 09be
000003e0: f8b5 2c3e e005 c13d ce11 d53d 88e0 21bd
000003f0: 7359 733e 1c1d ae3d 14b2 31bd 9729 d23d

weight_hh_l0_reverse f4 [128, 32]
-0.23743857 0.069067396 -0.074846655 -0.11715893 -0.03319887 -0.118636124 0.06443629 0.009143927
0.23633727 0.17456046 0.06332743 -0.027842002 -0.15533286 0.057209834 -0.20267442 0.10331236
0.039922528 -0.16656184 -0.1414209 0.07229519 -0.03192388 -0.017008575 -0.18639284 -0.19290797
-0.20466821 0.025696622 0.067363515 0.1010476 0.16560644 -0.28786516 -0.034773648 -0.06688796
-0.021883268 -0.1760918 0.08522927 0.08343325 -0.024808766 -0.09199901 0.039608065 -0.038253292
0.061267924 -0.0024504669 0.14107916 0.15658185 0.059987985 0.021107897 -0.0928988 -0.124843866
-0.033255577 0.0014267507 -0.19063354 0.015693646 -0.25004512 0.17965706 -0.14262715 -0.34083983
0.20777465 -0.040917996 0.01622749 0.021652617 0.085342 -0.018494477 -0.05910153 -0.14387481
0.017660702 0.09105163 -0.1336397 0.10988219 -0.015984382 -0.24251308 0.01172104 0.0820934
-0.035367277 0.037985876 0.20969479 -0.18626423 -0.12794997 0.040008828 0.065834746 0.045544893
0.079373136 0.11259721 -0.2088472 0.2430306 -0.06182646 -0.094945475 -0.096291915 0.08112777
0.022969788 0.037480585 -0.10936285 0.038513 -0.09699397 0.012115559 0.18272994 -0.12759659
-0.16460766 -0.2733498 0.040765755 -0.22806521 0.112936065 -0.08616784 0.03187123 0.20784959
0.10229392 0.12187246 0.014615646 -0.087055646 -0.24452941 0.04316376 0.07145078 0.08919613
0.0016548394 -0.093555234 -0.28478277 -0.0066259797 0.050044008 0.073275596 0.10172899 -0.13179831
-0.11341953 -0.21181923 0.18467218 -0.041134775 0.06874144 -0.08148994 0.031749677 -0.019859381
-0.026851203 -0.036542438 -0.009733444 -0.171055 0.14434303 -0.19980033 0.17970233 0.108250275
0.2500226 0.276681 0.10896375 0.08757731 0.009660171 -0.11248179 0.014120878 0.11315596
-0.05380723 0.15354297 -0.03361429 -0.007231 -0.043776214 -0.07449873 -0.04988273 -0.24793085
0.06651929 -0.010840635 -0.075673565 -0.20176953 0.04817329 -0.06282188 0.1985232 -0.008078954
0.025948366 -0.026937166 0.10155749 -0.08434853 0.22899394 -0.08513267 -0.0072588236 -0.0626138
0.088356644 -0.07773414 0.07363406 0.1657256 -0.25075412 -0.17697829 -0.23079853 0.00095951004
-0.038364697 -0.14576618 -0.024746599 0.017992364 0.026751105 -0.21056832 -0.23473248 0.035019506
-0.039565857 -0.07086284 0.17202316 0.24804492 -0.20736037 -0.14966433 -0.14234449 0.017202638
-0.25080523 -0.22371094 -0.0140259825 -0.40022478 0.03823096 0.07279286 0.08814423 0.09862354
0.3141219 0.1326574 0.0967041 0.17894055 -0.054458465 0.3870038 0.10884847 0.043508694
0.28842062 0.05334707 -0.06618476 0.015208094 0.00885513 -0.005817955 -0.37287638 -0.12270539
0.01920342 0.116428 -0.028748374 0.00046267282 -0.09355305 0.10419012 0.04170241 -0.038726896
-0.14076416 -0.19152866 0.107595794 -0.030305622 -0.02384554 0.03665985 -0.017115038 0.042735737
-0.022506705 0.0014600116 0.0213241 0.016701467 -0.04003647 0.1547132 0.29061463 -0.05647642
-0.05894137 -0.34588167 0.07025744 0.062208604 0.117568634 0.076442815 0.11868631 -0.21806914
-0.3584352 -0.13956472 0.10668582 0.13990003 0.014087803 -0.06291694 0.08762937 -0.032415196
00000000: 1923 73be 3573 8d3d 3449 99bd 05f1 efbd
00000010: 8afb 07bd 7ff7 f2bd 2cf7 833d 69d0 153c
00000020: 6602 723e fabf 323e d0b1 813d e914 e4bc
00000030: 940f 1fbe dc54 6a3d e289 4fbe 6e95 d33d
00000040: ce85 233d 308f 2abe a4d0 10be 800f 943d
00000050: 9dc2 02bd 9155 8bbc c4dd 3ebe ab89 45be
00000060: 8b94 51be b981 d23c e2f5 893d 0bf2 ce3d
00000070: bc94 293e 1063 93be d06e 0ebd 8efc 88bd
00000080: 8a44 b3bc 6951 34be af8c ae3d 0ddf aa3d
00000090: c13b cbbc fa69 bcbd 113c 223d 7caf 1cbd
000000a0: 13f4 7a3d 0398 20bb 0e77 103e fe56 203e
000000b0: f6b5 753d 78ea ac3c ba41 bebd 24ae ffbd
000000c0: 0037 08bd cf01 bb3a 7035 43be f68f 803c
000000d0: ea05 80be 05f8 373e da0c 12be 8f82 aebe
000000e0: e1c2 543e a199 27bd 83ef 843c d460 b13c
000000f0: c9c7 ae3d bb81 97bc 7214 72bd eb53 13be
00000100: 2dad 903c 4779 ba3d d8d8 08be ea09 e13d
00000110: aef1 82bc 5955 78be 9b09 403c 9620 a83d
00000120: 47dd 10bd 1497 1b3d 3bba 563e 0dbc 3ebe
00000130: 5105 03be 4ce0 233d 5ed4 863d 488d 3a3d
00000140: 628e a23d 5e99 e63d 0adc 55be 03dd 783e
00000150: be3d 7dbd c672 c2bd b234 c5bd 5126 a63d
00000160: 232b bc3c 3e85 193d a1f9 dfbd cfbf 1d3d
00000170: c6a4 c6bd 5680 463c 8f1d 3b3e aea8 02be
00000180: e98e 28be 81f4 8bbe fef9 263d ed89 69be
00000190: 064b e73d c478 b0bd 688b 023d 86d6 543e
000001a0: 7a7f d13d 4598 f93d 7676 6f3c 3b4a b2bd
000001b0: eb65 7abe 7ccc 303d c954 923d 76ac b63d
000001c0: 32e7 d83a e399 bfbd 0ccf 91be bf1e d9bb
000001d0: f2fa 4c3d 8411 963d 4a57 d03d 23f6 06be
000001e0: 8048 e8bd 24e7 58be b41a 3d3e f07c 28bd
000001f0: 50c8 8c3d 33e4 a6bd f30b 023d 24b0 a2bc
00000200: 0ef7 dbbc 86ad 15bd 0679 1fbc 0b29 2fbe
00000210: a9ce 133e 7598 4cbe e303 383e 52b2 dd3d
00000220: f602 803e 22a9 8d3e 6328 df3d bc5b b33d
00000230: b245 1e3c da5c e6bd 415b 673c 50be e73d
00000240: f864 5cbd 5e3a 1d3e 23af 09bd 06f2 ecbb
00000250: b04e 33bd ca92 98bd d551 4cbd 96e1 7dbe
00000260: 443b 883d eb9c 31bc befa 9abd ac9c 4ebe
00000270: 5b51 453d c2a8 80bd aa49 4b3e 975d 04bc
00000280: ab91 d43c 55ab dcbc 60fd cf3d ecbe acbd
00000290: 637d 6a3e 0a5a aebd 6ddb edbb aa3b 80bd
000002a0: 54f4 b43d 1433 9fbd 74cd 963d f9b3 293e
000002b0: d862 80be cc39 35be 7356 6cbe a187 7b3a
000002c0: 4d24 1dbd bb43 15be 61b9 cabc b964 933c
000002d0: 2225 db3c 399f 57be b65d 70be 9d70 0f3d
000002e0: cf0f 22bd 8920 91bd d726 303e 7dff 7d3e
000002f0: 4756 54be 9b41 19be c1c2 11be 8cec 8c3c
00000300: 8b69 80be 7b14 65be 3ccd 65bc 43ea ccbe
00000310: 1198 1c3d 6c14 953d f684 b43d 23fb c93d
00000320: 96d4 a03e 57d7 073e cd0c c63d 313c 373e
00000330: d70f 5fbd 5d25 c63e f2eb de3d 2c36 323d
00000340: deab 933e 7582 5a3d e08b 87bd 5f2b 793c
00000350: 1b15 113c 8ba4 bebb a7e9 bebe f74c fbbd
00000360: 7e50 9d3c ce71 ee3d b681 ebbc e592 f239
00000370: be98 bfbd a161 d53d 25d0 2a3d 18a0 1ebd
00000380: 7b24 10be 1720 44be 2f5b dc3d 7f43 f8bc
00000390: b957 c3bc a428 163d d634 8cbc ab0b 2f3d
000003a0: fb5f b8bc dc5d bf3a e1af ae3c 84d1 883c
000003b0: 48fd 23bd 236d 1e3e 71cb 943e d253 67bd
000003c0: 826c 71bd 6717 b1be 22e3 8f3d 73ce 7e3d
000003d0: d3c7 f03d 0d8e 9c3d cf11 f33d 844d 5fbe
000003e0: d284 b7be 0eea 0ebe 187e da3d f441 0f3e
000003f0: 87d0 663c 99da 80bd 0777 b33d ccc5 04bd

bias_ih_l0_reverse f4 [128]
-0.0068828543 -0.021563865 -0.057348587 -0.16630153 0.18012024 0.20267412 -0.049660414 0.18674316
-0.08271236 -0.095701866 0.16899861 -0.07665544 0.18124898 -0.1162142 -0.1018002 0.21769997
0.10720361 0.09521917 0.21282744 -0.10132944 0.12189128 -0.08294931 -0.10129598 0.2094649
0.05650477 -0.12055055 0.089047484 0.14582832 0.053471845 -0.060521655 0.15932031 0.048426062
-0.077810295 -0.12000361 -0.029169744 -0.12473505 -0.015094926 0.013926234 0.18650073 0.0634104
-0.012450778 0.08435971 0.036581185 -0.11326198 -0.09477076 0.12372696 0.13287197 0.08174527
-0.09655482 -0.0006681623 -0.10879816 0.14125444 0.014437663 0.06399714 0.042513873 -0.020675052
-0.13289022 0.103714794 -0.1382084 0.11865839 0.07793883 0.1422687 0.07559447 0.07095518
-0.12290619 -0.00805739 -0.044692613 -0.112743825 0.15646096 -0.040578093 0.10929989 -0.03806497
0.058212887 0.16945568 -0.06699818 -0.08339218 0.12163376 -0.06385099 -0.020866489 -0.036724623
0.057807554 -0.17247349 -0.025585193 -0.007765286 0.15791409 0.024129929 0.033875242 -0.012421041
-0.15269808 -0.11066793 0.0043952684 0.09550962 -0.09334045 0.15882874 -0.0037073866 0.11308915
0.053065572 0.039939567 0.039338943 0.054890066 -0.012845645 -0.12713484 0.15105124 -0.0010345826
0.11831873 0.122845165 0.10884101 -0.03870761 0.08198283 0.015863946 0.09598227 0.12522162
0.19932795 -0.051135983 0.11504469 0.19453229 0.088517286 -0.022979343 0.07467031 -0.02924287
0.10584476 0.06843569 0.015859514 0.12356272 0.05413771 -0.14704537 -0.08282746 -0.009525825
00000000: 9189 e1bb b4a6 b0bc 5ae6 6abd f34a 2abe
00000010: 7171 383e ce89 4f3e b868 4bbd 9939 3f3e
00000020: 1965 a9bd 57ff c3bd f90d 2d3e 87fd 9cbd
00000030: 5599 393e b601 eebd a07c d0bd beec 5e3e
00000040: 918d db3d 4502 c33d 70ef 593e cf85 cfbd
00000050: 23a2 f93d 54e1 a9bd 4474 cfbd f77d 563e
00000060: 8c71 673d 35e3 f6bd 875e b63d 0554 153e
00000070: 4b05 5b3d 8ee5 77bd dd24 233e 685a 463d
00000080: 015b 9fbd 74c4 f5bd 63f5 eebc 1775 ffbd
00000090: b550 77bc dc2a 643c 0cfa 3e3e 50dd 813d
000000a0: 59fe 4bbc c9c4 ac3d 27d6 153d e6f5 e7bd
000000b0: 2c17 c2bd 8f64 fd3d 970f 083e 106a a73d
000000c0: 89be c5bd 9d27 2fba 92d1 debd 01a5 103e
000000d0: f38b 6c3c ef10 833d 0723 2e3d ba5e a9bc
000000e0: 6014 08be 6c68 d43d 8186 0dbe 2c03 f33d
000000f0: 659e 9f3d e3ae 113e 46d1 9a3d f350 913d
00000100: 3eb6 fbbd 2503 04bc 9a0f 37bd 3ce6 e6bd
00000110: 4d37 203e 3735 26bd 9fd8 df3d 04ea 1bbd
00000120: a370 6e3d ca85 2d3e 5736 89bd 85c9 aabd
00000130: 1f1b f93d 4fc4 82bd 33f0 aabc 8f6c 16bd
00000140: 9dc7 6c3d e49c 30be 0a98 d1bc f173 febb
00000150: 3bb4 213e 21ac c53c c4c0 0a3d 9f81 4bbc
00000160: e35c 1cbe dea5 e2bd 2f06 903b 8c9a c33d
00000170: 4729 bfbd 00a4 223e a0f7 72bb 499b e73d
00000180: 495b 593d ac97 233d df21 213d 68d4 603d
00000190: 8a76 52bc a32f 02be 2dad 1a3e d59a 87ba
000001a0: 1751 f23d 3f96 fb3d 09e8 de3d df8b 1ebd
000001b0: 9de6 a73d 1bf5 813c 5a92 c43d 193a 003e
000001c0: a01c 4c3e f773 51bd 8d9c eb3d 7933 473e
000001d0: 8d48 b53d 2d3f bcbc bfec 983d be8e efbc
000001e0: 23c5 d83d 0328 8c3d d0eb 813c 740e fd3d
000001f0: 81bf 5d3d 1093 16be 71a1 a9bd 3512 1cbc

bias_hh_l0_reverse f4 [128]
0.0499614 -0.030103251 0.070751116 -0.09337478 -0.081510715 0.08136273 0.14101882 0.038233407
0.07902964 0.05244158 -0.074785694 0.1488606 0.10211933 0.15451878 0.17746475 0.20572871
0.040738728 -0.06583483 0.028592275 -0.010378354 0.039258257 0.050574593 0.103417814 0.13819237
0.11904942 -0.116146766 0.09546629 -0.13241512 0.20781364 0.11004155 0.04084604 0.17986937
-0.1179538 -0.022046119 -0.074376054 0.014307268 0.16489217 0.0109873805 -0.0034639179 0.12303585
0.004721106 0.04736668 0.041245278 0.16287756 0.1478235 0.08881905 -0.07496936 -0.02808423
0.09362414 0.044406377 -0.10795306 0.082774326 -0.0033341942 0.13446239 0.00031853042 -0.23579611
-0.039597962 -0.08035675 0.13405211 -0.13397196 0.097291835 -0.110762686 0.009325499 0.07447735
-0.0050663804 -0.10869752 0.14323787 -0.0024967962 0.042804886 -0.1296543 -0.09406514 0.1632735
-0.010107391 -0.09494695 -0.049295336 0.06295536 -0.116066016 0.09938844 -0.15247019 0.14285901
0.06110223 -0.044065174 -0.09892444 -0.05572792 0.05058109 -0.08538772 -0.0690867 -0.18186592
0.033583846 -0.11483528 0.09099644 0.13488738 0.030630166 0.10267664 0.15245807 -0.09207284
-0.030511865 0.013198462 -0.16211808 0.0035430235 -0.07767981 0.06158451 0.14828674 0.07116518
-0.11407893 0.1384445 0.016927449 -0.05430888 -0.13833776 0.13722481 0.06856789 0.12136526
0.1033664 -0.07219226 -0.06282755 0.19027592 0.032927234 0.0851804 -0.018559711 -0.055010933
-0.1026027 0.17688617 -0.09080932 -0.010138682 -0.11968895 0.18783349 0.19739272 -0.13040198
00000000: 53a4 4c3d 189b f6bc f6e5 903d 473b bfbd
00000010: 17ef a6bd 81a1 a63d 3d67 103e a29a 1c3d
00000020: 4bda a13d fbcc 563d 3e29 99bd ea6e 183e
00000030: f023 d13d 2c3a 1e3e 52b9 353e 8caa 523e
00000040: a7dd 263d 69d4 86bd 593a ea3c f909 2abc
00000050: 44cd 203d 4e27 4f3d b8cc d33d 4d82 0d3e
00000060: 2fd0 f33d 5bde edbd d583 c33d d497 07be
00000070: 19cd 543e 775d e13d 2d4e 273d ad2f 383e
00000080: c391 f1bd 109a b4bc 7952 98bd 0869 6a3c
00000090: 7ed9 283e 6a04 343c e602 63bb 38fa fb3d
000000a0: 82b3 9a3b 9003 423d cff0 283d 60c9 263e
000000b0: 0b5f 173e c3e6 b53d 8989 99bd e610 e6bc
000000c0: 03be bf3d 76e3 353d 7e16 ddbd 9685 a93d
000000d0: 7f82 5abb 82b0 093e 6e00 a739 8974 71be
000000e0: 7931 22bd 1492 a4bd f544 093e f22f 09be
000000f0: f140 c73d 8cd7 e2bd fac9 183c 9587 983d
00000100: e103 a6bb ce9c debd f3ac 123e 4aa1 23bb
00000110: 2d54 2f3d 19c4 04be 39a5 c0bd 2b31 273e
00000120: 7899 25bc 8c73 c2bd e8e9 49bd bdee 803d
00000130: 05b4 edbd 2b8c cb3d 2521 1cbe a249 123e
00000140: 5546 7a3d af7d 34bd e698 cabd f642 64bd
00000150: 1e2e 4f3d c2df aebd 547d 8dbd 0f3b 3abe
00000160: 378f 093d c22e ebbd 575c ba3d eb1f 0a3e
00000170: 1dec fa3c 2148 d23d f81d 1c3e af90 bcbd
00000180: 05f4 f9bc 5d3e 583c 4802 26be 1232 683b
00000190: 9816 9fbd 0a40 7c3d 7bd8 173e 0dbf 913d
000001a0: 37a2 e9bd 65c4 0d3e 6fab 8a3c fd72 5ebd
000001b0: 6aa8 0dbe a984 0c3e 526d 8c3d 598e f83d
000001c0: c3b1 d33d 89d9 93bd bbab 80bd b1d7 423e
000001d0: b5de 063d 1073 ae3d 890a 98bc 2553 61bd
000001e0: 5d21 d2bd a621 353e 3dfa b9bd b71c 26bc
000001f0: 7b1f f5bd 6c57 403e 5121 4a3e 1988 05be

weight f4 [16, 640]
0.0022780406 -0.07561085 0.017839001 0.043960508 0.036052115 -0.024793675 0.0376105 -0.06617575
-0.019354425 -0.015445082 0.04543901 0.035522968 -0.050708614 0.046695966 -0.012829622 0.10691796
0.06752621 0.078869134 -0.021840237 0.03910499 0.023322316 -0.06393951 -0.06811429 -0.14648631
-0.010528785 0.057435617 0.02720473 0.044410255 -0.09801571 -0.034642026 0.006289632 -0.03009782
0.08996521 0.020541314 -0.10814522 -0.10658426 -0.011032158 -0.0051416787 -0.024262005 0.047619548
-0.020053124 -0.029566295 0.0877762 0.052563697 0.039512977 -0.0055212397 -0.01935612 0.027687041
0.071106896 0.0076353103 -0.022912692 -0.05049522 0.012876331 0.11304895 0.10006514 0.014951602
-0.008225704 0.03376853 -0.0744645 -0.0531322 0.0022602454 -0.0038233486 -0.024735823 0.026202312
-0.0462401 -0.09388822 0.010862494 -0.009543122 -0.017677676 -0.016929232 0.006555686 0.048894323
0.046762943 0.032330576 -0.058477547 -0.0005898568 -0.102786005 -0.03676081 -0.08014402 0.03972651
0.023272485 0.14073774 -0.07093104 -0.16039008 -0.03260234 0.05730762 0.012849457 0.038971122
-0.018194834 -0.008335992 0.04810475 -0.027924005 -0.018601911 -0.017400887 -0.024778884 -0.022110786
-0.05224418 0.013051325 0.083608724 -0.014404997 0.032466106 -0.0010818295 -0.059782393 -0.058005836
-0.0014087085 0.013166543 -0.06345147 0.0036753416 -0.013467869 -0.04126352 0.046811704 -0.03611141
0.04369721 0.06412773 0.020557085 -0.031136222 0.009825189 0.03992568 -0.04866461 0.035591617
-0.038553186 -0.09378425 -0.11285735 0.035626568 0.10929944 -0.04533966 -0.05006646 -0.07702899
0.039476506 -0.024513686 0.026561094 0.10135993 -0.04516592 -0.05903292 -0.09775224 -0.0069922125
0.0273479 -0.043240756 0.1200023 0.044762097 0.09511574 0.016035605 -0.073718816 0.03291545
-0.14285012 0.046571862 -0.108812995 -0.007798871 0.02195244 -0.0791697 -0.041342046 0.021975027
0.050274402 0.06754951 0.038989 0.03550677 0.038795453 -0.010678223 -0.118624404 -0.005997374
0.0734704 -0.050068535 0.06649227 0.0065942802 0.0029604717 -0.091961235 0.016307434 0.014891843
-0.025071386 0.00417047 -0.02782301 -0.08855237 0.1124491 0.065400295 -0.059041128 0.038522027
0.017989686 0.027007505 0.027896835 -0.009318796 -0.0008953253 0.046732634 0.0228111 0.1191003
0.06501328 0.080371246 -0.042975813 -0.012829762 -0.07861298 -0.036860142 -0.0043623406 -0.055101283
-0.013313165 0.015583761 0.014092263 -0.02648574 -0.077998675 0.0058960128 0.1368006 -0.06934753
-0.052540608 0.061404847 -0.03053703 -0.0502702 0.04034458 -0.07134609 0.07912357 -0.041240532
0.0048607998 -0.08055745 0.04630018 -0.016110657 -0.07232355 0.069493495 -0.09883364 -0.012619355
0.045245524 -0.037752688 0.029517699 0.012413744 0.042440753 0.044292048 -0.031122332 0.0548025
-0.019358708 -0.060555782 -0.059558302 -0.04915029 0.08584707 -0.02805732 -0.031541366 -0.011699429
-0.08632338 -0.008744775 -0.008259005 -0.081731424 -0.03357549 -0.10945978 0.012934947 -0.12883916
0.12552735 0.05840851 -0.030293036 0.08598578 -0.037066903 0.06933322 -0.066359654 0.036661748
0.010387255 -0.13787201 0.026258243 0.0025057676 -0.06027395 -0.04226819 0.021083264 -0.111553796
00000000: 2e4b 153b dcd9 9abd 1923 923c ef0f 343d
00000010: 62ab 133d 1b1c cbbc 780d 1a3d 2787 87bd
00000020: 2c8d 9ebc 5f0d 7dbc 411e 3a3d 8880 113d
00000030: d6b3 4fbd 4544 3f3d 5633 52bc cef7 da3d
00000040: 2e4b 8a3d 2486 a13d 4cea b2bc 8e2c 203d
00000050: 710e bf3c b8f2 82bd 817f 8bbd 8200 16be
00000060: ed80 2cbc 9c41 6b3d 74dc de3c 87e7 353d
00000070: 76bc c8bd cce4 0dbd 4219 ce3b b48f f6bc
00000080: ae3f b83d 4246 a83c 3e7b ddbd d948 dabd
00000090: 39c0 34bc 877b a8bb 1dc1 c6bc b70c 433d
000000a0: 7346 a4bc 0435 f2bc 02c4 b33d 084d 573d
000000b0: 5cd8 213d 84eb b4bb ba90 9ebc efcf e23c
000000c0: 7ea0 913d a031 fa3b 66b3 bbbc 13d4 4ebd
000000d0: 3ff7 523c 3586 e73d f4ee cc3d 90f7 743c
000000e0: 1ac5 06bc df50 0a3d d880 98bd 26a1 59bd
000000f0: a020 143b 2591 7abb c8a2 cabc 3ba6 d63c
00000100: 4266 3dbd 7848 c0bd 9af8 313c c15a 1cbc
00000110: c6d0 90bc 2caf 8abc 14d1 d63b 6a45 483d
00000120: 808a 3f3d 116d 043d 2786 6fbd 9fa0 1aba
00000130: 7881 d2bd 8192 16bd 8c22 a4bd 44b8 223d
00000140: f0a5 be3c 8e1d 103e 4b44 91bd 4c3d 24be
00000150: 088a 05bd 65bb 6a3d 8786 523c 2fa0 1f3d
00000160: 550d 95bc af93 08bc 7d09 453d e2c0 e4bc
00000170: 0963 98bc 4e8c 8ebc 16fd cabc ae21 b5bc
00000180: fefd 55bd 3ad5 553c 0d3b ab3d f002 6cbc
00000190: 2efb 043d 2dcc 8dba 62de 74bd 8797 6dbd
000001a0: 6aa4 b8ba 7cb8 573c d8f2 81bd 00de 703b
000001b0: 56a8 5cbc f003 29bd a1bd 3f3d 8fe9 13bd
000001c0: d8fb 323d 6655 833d 5567 a83c 6411 ffbc
000001d0: d4f9 203c 1c89 233d 8b54 47bd 84c8 113d
000001e0: f2e9 1dbd f511 c0bd c121 e7bd 2aed 113d
000001f0: 63d8 df3d 14b6 39bd 7d12 4dbd 60c1 9dbd
00000200: 1eb2 213d edd0 c8bc a796 d93c cc95 cf3d
00000210: e6ff 38bd 81cc 71bd 5432 c8bd ee1e e5bb
00000220: b408 e03c 381d 31bd c4c3 f53d 7658 373d
00000230: 0bcc c23d 1a5d 833c e4f9 96bd 5ad2 063d
00000240: 4d47 12be 23c2 3e3d 59d9 debd ac8d ffbb
00000250: 9ad5 b33c b923 a2bd 4756 29bd f904 b43c
00000260: 88ec 4d3d 6657 8a3d eeb2 1f3d 8c6f 113d
00000270: fbe7 1e3d b7f3 2ebc 5af1 f2bd 9f85 c4bb
00000280: a677 963d aa14 4dbd 192d 883d d514 d83b
00000290: 7904 423b 2c56 bcbd 2b97 853c ebfc 733c
000002a0: 8262 cdbc 70a8 883b 15ed e3bc f25a b5bd
000002b0: b74b e63d 97f0 853d 1cd5 71bd 46c9 1d3d
000002c0: 1b5f 933c d83e dd3c e787 e43c ddad 18bc
000002d0: 44b4 6aba b86a 3f3d 58de ba3c dcea f33d
000002e0: af25 853d ae99 a43d 6807 30bd ec33 52bc
000002f0: d8ff a0bd a9fa 16bd f7f1 8ebb e2b1 61bd
00000300: 761f 5abc 0853 7f3c 3ce3 663c 9ff8 d8bc
00000310: c5bd 9fbd 5733 c13b 7515 0c3e 1406 8ebd
00000320: d234 57bd a683 7b3d cb28 fabc 20e8 4dbd
00000330: 5c40 253d e61d 92bd 8a0b a23d d5eb 28bd
00000340: 5847 9f3b 4efb a4bd 42a5 3d3d 7ffa 83bc
00000350: 5f1e 94bd 9b52 8e3d 4b69 cabd 69c1 4ebc
00000360: 5f53 393d 90a2 1abd 1acf f13c 0463 4b3c
00000370: 5bd6 2d3d 946b 353d 43f4 febc 9678 603d
00000380: 2796 9ebc 5709 78bd 68f3 73bd d151 49bd
00000390: 97d0 af3d 77d8 e5bc 8531 01bd f6ae 3fbc
000003a0: 50ca b0bd 3f46 0fbc c750 07bc ce62 a7bd
000003b0: 7486 09bd 732c e0bd 1aed 533c 6aee 03be
000003c0: 3e8a 003e c33d 6f3d 1a29 f8bc 5019 b03d
000003d0: 77d3 17bd 93fe 8d3d 92e7 87bd a12a 163d
000003e0: 4e2f 2a3c 522e 0dbe 871b d73c ce37 243b
000003f0: d1e1 76bd 6921 2dbd cfb6 ac3c 5176 e4bd

bias f4 [16]
-0.032922212 -0.03241333 0.005408666 0.020653863 0.017127043 -0.005709692 -0.011570247 -0.0052745286
-0.013289956 0.019081425 0.06585967 0.03278974 0.035214566 0.05189267 0.047194455 0.015873775
00000000: 71d9 06bd d7c3 04bd 2e3b b13b 4a32 a93c
00000010: 034e 8c3c 5e18 bbbb 2291 3dbc f4d5 acbb
00000020: 1ebe 59bc a650 9c3c 6fe1 863d 894e 063d
00000030: 263d 103d 698d 543d f94e 413d b809 823c
